Assets/Materials/AgentController-449980.onnx (onnx, 808851 bytes, 63 tensors)

network_body.observation_encoder.processors.0.model.residual.weight f4 [16, 16, 1, 1]
000000 76 ad 83 bf fa e1 4f be 31 96 9e bd c6 33 28 3e
       -1.0287311 -0.20301047 -0.077434905 0.16426
000010 be 79 23 3f 56 62 35 3f 38 48 03 3d 00 01 ab be
       0.6385764 0.70853174 0.032051295 -0.333992
000020 ac 86 97 3f 79 d2 ee be c9 48 a3 3e ce 73 36 3f
       1.1837974 -0.46644953 0.31891468 0.71270454
000030 bd b1 a5 3f 44 ae 7d 3e 2d a9 8c bf d0 7a 8a bd
       1.2944866 0.24773508 -1.0989128 -0.06761706
000040 49 1c ac 3e d6 40 ab 3e 73 98 18 3e a1 4c ed be
       0.3361533 0.33447903 0.14901905 -0.46347526
000050 03 cb 32 3f 14 53 2c be a9 b3 0f 3f da 98 66 3f
       0.6984102 -0.16828567 0.56133515 0.9007698
000060 ae 70 fd bb 89 39 ed 3e 31 91 f5 bd 96 f9 a8 be
       -0.0077343797 0.46332958 -0.11990584 -0.3300292
000070 0a c4 4e 3f e1 9d a3 be 19 89 b0 3e e6 fd 12 3f
       0.8076788 -0.3195639 0.34479597 0.5741867
000080 9f c2 76 3f e7 f6 12 3f 7f f9 b9 be 07 41 be 3e
       0.9639072 0.57407993 -0.36323163 0.37158987
000090 ce 7f 43 3f 9f de b9 3e 05 c8 76 bf 23 75 83 3e
       0.7636689 0.3630266 -0.96398956 0.25675306
0000a0 f6 0a 06 bf 85 f1 bd 3c d8 4e bd be aa 1c cb 3d
       -0.52360475 0.023186455 -0.36974216 0.099175766
0000b0 b7 65 dc be d5 01 86 bf c4 22 e9 be 91 e6 a0 3e
       -0.43046352 -1.0469309 -0.45534337 0.31425908
0000c0 2f 9a b3 be af 7b 85 3e 24 9e 26 3f 92 0c 2f bf
       -0.3507857 0.26070926 0.65085053 -0.68378556
0000d0 8e d4 5e 3e d5 11 39 3e 46 e1 5f 3e b3 21 b3 3c
       0.2176077 0.18073209 0.21863279 0.021866655
0000e0 df 6f 59 3f c9 7a b5 3e 9e 8c f2 3e 6c 6c dd 3e
       0.84936327 0.3544524 0.47372907 0.43246782
0000f0 e9 fd 97 3f 18 bc 00 be 51 f0 09 3f 50 dc dd 3c
       1.1874362 -0.12571752 0.5388232 0.027082592
000100 2f ec 16 3e e1 00 f1 3e 5a 8e 77 bf ce f7 90 3d
       0.14738534 0.47070983 -0.96701586 0.07078515
000110 02 7c 44 3f 92 43 85 3e ac 50 82 3d 18 9b 1e 3f
       0.7675172 0.26028115 0.06363043 0.61955404
000120 33 76 0f 3f 8c 0b 3a 3f 54 01 66 bf ce 33 91 3f
       0.5603973 0.7267387 -0.89845777 1.1343935
000130 86 19 af bd 19 30 ea 3d fc 18 e0 be 64 7c 46 3e
       -0.0854979 0.11434955 -0.43769062 0.19383389
000140 7c 82 a5 be e5 7c 0b be 80 97 52 be 9a ac f1 be
       -0.32326114 -0.13621862 -0.20565605 -0.47201997
000150 66 ce 3c be c0 bb b7 be dd 31 20 bf 38 ed 2e bf
       -0.1843811 -0.3588543 -0.62576085 -0.6833072
000160 4e 96 31 be 9c b1 48 bf 98 f0 57 be 1c 1a a7 bd
       -0.17342493 -0.7839601 -0.21087873 -0.08159277
000170 b2 4a 0d 3e 75 84 38 bf 8d 1d 22 bf 4d 7e 1b bf
       0.13798025 -0.72077113 -0.6332634 -0.60739595
000180 86 c9 b7 3e 80 31 fc 3e 3f eb 7e be 69 23 2e 3f
       0.35895938 0.49256516 -0.24894427 0.6802278
000190 64 5a 22 3e dd fd 2c bd b8 ba 4c 3f 73 90 13 3f
       0.15854794 -0.04223429 0.7997241 0.57642287
0001a0 cf 4f a2 3e fc 60 9f 3d 37 3b 5a 3e c3 3f d1 be
       0.31701514 0.0778217 0.21311651 -0.4086896
0001b0 aa d6 e2 3e 62 b1 bc 3d 8a 45 39 3f fc fd 2e 3f
       0.443044 0.092135206 0.72371733 0.683563
0001c0 78 d7 e3 be 33 c0 37 bf 00 04 f8 bd a2 4a 60 3f
       -0.44500327 -0.7177765 -0.12110138 0.8761388
0001d0 05 b4 88 be 17 f2 58 3f 57 a5 59 3f 28 c6 60 bf
       -0.26699844 0.847444 0.85017914 -0.8780236
0001e0 34 4f ba 3e 4d 6d 23 bf 0d 0c 4f 3e cf 40 8d 3f
       0.36388552 -0.63838655 0.20219441 1.1035403
0001f0 d9 e2 84 3e 76 e1 1f 3f a4 8d 56 be cd 84 4f be
       0.2595432 0.624534 -0.20952469 -0.20265503
000200 d7 df d4 3e f2 84 18 3f ad 14 9d 3d d0 a5 ce be
       0.41577026 0.5957786 0.07669959 -0.4036088
000210 4b fc 3d 3f 78 bf e3 3e de d0 3a bf ec 56 20 3e
       0.74213094 0.44482017 -0.72974956 0.15658158
000220 8f c1 81 be 1b de 93 3d b3 df 1d 3e ce fa 07 3f
       -0.25342986 0.07220098 0.15417366 0.5311707
000230 84 df 89 bf 93 93 80 3e 4c 8e 04 bd 8b 8e f0 be
       -1.0771337 0.2511259 -0.032362267 -0.46983752
000240 0b b8 14 bd 2d 9f 3a bf f5 db 1c bf cf 2f 8d bd
       -0.03630833 -0.7289913 -0.6127313 -0.068938844
000250 60 08 fc bd 16 15 f5 3e 2a 7d cd 3e 3b ef 52 bf
       -0.12306285 0.4786765 0.40134555 -0.82396287
000260 57 09 ff be db 74 33 be d3 a0 29 bf 79 44 d6 bd
       -0.49811813 -0.17525046 -0.66261023 -0.10462279
000270 48 09 c4 3e cd 9c ae be b1 d1 00 3f 8e 51 38 bf
       0.3828833 -0.34104005 0.50319964 -0.7199944
000280 9d f8 87 be 67 2c 52 3f 19 32 91 be 9b 24 96 bd
       -0.26556864 0.82099 -0.28358534 -0.07331201
000290 a3 e7 84 3f 5a 00 17 3f 72 40 06 bf 5c ee 85 3e
       1.038319 0.5898491 -0.52442086 0.26158416
0002a0 c2 b9 be 3e 1f 83 ec 3e 46 da cd 3e 99 19 6f 3e
       0.37251097 0.46193787 0.40205592 0.23349608
0002b0 ba 69 d0 3e 28 16 ea 3e 49 fc fc bd da fe a4 be
       0.40705663 0.4572003 -0.12352807 -0.32225686
0002c0 d6 4a 18 3f 58 21 78 be 22 80 82 3f 62 91 16 3d
       0.5948919 -0.2423147 1.0195353 0.03675974
0002d0 90 71 ec 3e 49 a2 5e 3f 28 19 86 be fc 70 75 bd
       0.4618039 0.8696638 -0.26191068 -0.059922203
0002e0 51 0c 90 be e1 36 b7 3d a8 75 6f 3f e7 b8 18 3f
       -0.28134397 0.08946014 0.93538904 0.5965714
0002f0 46 df f5 3d c3 32 22 3f ed 56 01 bd ea 5f 36 3e
       0.12005477 0.63358706 -0.03157704 0.17810026
000300 1a bc 3b 3c c1 7b bf 3e f9 dc 45 be f9 84 74 bf
       0.011458421 0.37399104 -0.19322576 -0.955154
000310 9a 1f eb 3d fa b9 33 3f 49 7a 6c 3e f2 2a 0e 3f
       0.11480637 0.7020565 0.23093523 0.5553428
000320 f4 2f 7e 3e 26 a4 3b 3f cd d4 f9 3e af 89 e9 3e
       0.2482298 0.73297346 0.48795167 0.45612857
000330 40 8d 26 bf 3e f3 30 3f a3 25 25 3e 72 57 5c 3e
       -0.6505928 0.6912116 0.16127639 0.21517733
000340 4b bd 2b 3f 45 b2 cd 3d 79 07 81 be 91 30 83 3f
       0.67085713 0.10043768 -0.25201014 1.0249196
000350 53 41 fc 3e d3 7c d2 3e fc dd 2c 3f cc 2d 8a 3e
       0.49268588 0.41110858 0.6752622 0.26988065
000360 60 f1 ac 3e ec c8 2a 3f 66 a7 df 3d 4a 75 82 3e
       0.33777905 0.6671283 0.109206006 0.2548011
000370 ca 72 29 3f 6b 7a ae ba 33 5f 18 3f 2f fc 0b 3f
       0.6619078 -0.001331163 0.5952026 0.54681677
000380 35 fb 40 bf ea f5 cc bc 30 20 a1 be bd 03 31 bf
       -0.7538331 -0.025019605 -0.3146987 -0.6914633
000390 3f e4 2a bf e2 03 d8 be ea 4d d4 bd 0f 4c 83 be
       -0.66754526 -0.42190462 -0.103664234 -0.25643966
0003a0 20 21 b4 bd f1 44 7c bd 89 ec 8b be d2 98 38 bf
       -0.087953806 -0.061589185 -0.273289 -0.72108185
0003b0 29 97 ab 3e c9 ed f2 be 42 af c2 be ec 35 0f bf
       0.33513764 -0.4744704 -0.38024336 -0.55941653
0003c0 a8 1d 8c be a0 7c 4e bf 00 60 76 be ec 31 76 be
       -0.27366376 -0.8065891 -0.24060059 -0.24042481
0003d0 2c 22 55 3e 3f 94 11 3e 0b 6e a1 bd c3 46 d4 be
       0.20813817 0.14216708 -0.07882317 -0.41460237
0003e0 18 61 22 bf 84 4a 28 bf 09 a9 39 bf 1b 6e 18 be
       -0.63429403 -0.657387 -0.7252355 -0.14885752
0003f0 b7 66 9b be 92 25 d9 3c 4f ae 41 bf 20 c6 81 bf
       -0.30351803 0.026507173 -0.756566 -1.0138588

network_body.observation_encoder.processors.0.model.residual.bias f4 [16]
000000 49 14 bd 3d 3b 2f a2 3e 2a 71 4c 3e 3f 39 77 bd
       0.09232385 0.3167666 0.19965044 -0.06035733
000010 b4 f6 cd 3e 19 cd 9d be 47 91 a5 3d 07 7d 2b 3e
       0.40227282 -0.3082054 0.0808435 0.16746913
000020 b5 3c 8c 3c a0 4d c6 be 23 a9 79 3e 13 b6 34 3e
       0.017118791 -0.38731098 0.24380927 0.17647581
000030 67 0d eb 3e 8d 7f d9 3e f7 7e b6 be 8d d3 c3 be
       0.45908663 0.42480126 -0.3564374 -0.38247338

network_body.observation_encoder.processors.0.model.final_conv.weight f4 [25, 16, 1, 1]
000000 cc 65 a8 be ab c9 8e be 90 e7 3a be b1 ab 25 bf
       -0.32890165 -0.27888235 -0.18252397 -0.64715105
000010 bc a3 f8 bd e2 4b ff 3e 97 02 cf be 64 bb a5 be
       -0.12140605 0.49862581 -0.40431663 -0.3236953
000020 e1 e1 89 be 5c 5a ad 3d 31 53 dd be 8f e9 f5 be
       -0.26930144 0.084645 -0.43227533 -0.48029754
000030 7c d5 47 bd 59 a1 e5 be b6 aa eb 3e 8b d6 38 3e
       -0.04878758 -0.4484966 0.4602868 0.18050592
000040 06 84 52 be 29 d7 a0 be f5 ea 74 be a6 32 2a bf
       -0.20558175 -0.31414154 -0.23917754 -0.66483533
000050 7a ce 8b be 4c 23 71 3e 60 1d 16 bf 1c e5 11 bf
       -0.27305967 0.23548621 -0.5863857 -0.5699022
000060 dc 06 81 be e1 fd 6d 3e 46 6a 08 bf 1c ec 84 be
       -0.25200546 0.23241378 -0.5328716 -0.25961387
000070 40 f7 09 be 39 94 19 be 30 51 b7 3e b2 71 73 3e
       -0.13473225 -0.14997949 0.3580413 0.2377384
000080 5a 5f 51 be 7f 4e ce bd dc 50 1c bf 46 f8 ec bc
       -0.2044653 -0.10073566 -0.6106088 -0.02892698
000090 8d f7 e1 bd fd 2c 0c 3f c9 b8 82 bf ba 7a 20 be
       -0.11033545 0.54756147 -1.0212642 -0.15671816
0000a0 e1 17 15 bf d2 68 8b bd 7f f9 d4 be 69 0f 94 3e
       -0.5823956 -0.06807102 -0.415966 0.28918007
0000b0 71 34 1f bf 2a 86 bf be 02 11 65 3f f7 e5 ba 3e
       -0.62189394 -0.37407047 0.89479077 0.36503574
0000c0 00 7f 1d 3f 0a 94 57 bf 6b a1 32 3d a0 ab a2 bd
       0.6152191 -0.84210265 0.04361097 -0.07942891
0000d0 d0 fd aa 3f dd b5 82 3f 46 7a 44 bf db ea f6 3e
       1.3358707 1.021175 -0.76749074 0.48226056
0000e0 2e 4b 47 3f 58 85 9f be d1 50 e4 3e e3 f2 85 be
       0.7784909 -0.3115642 0.44592908 -0.2616187
0000f0 70 77 a7 3e e8 c3 72 bf 1e d0 6f bd 3a 2d 46 3e
       0.3270831 -0.9483018 -0.058548085 0.1935319
000100 e9 8e 73 bf 3e 6b f2 3e 68 3d 8d 3e 29 b2 65 bf
       -0.9513994 0.47347444 0.27585912 -0.89724976
000110 a0 a3 dd 3e c5 20 84 be 78 87 16 3f d7 29 43 bf
       0.43288898 -0.2580625 0.5880046 -0.7623572
000120 03 a8 2c 3f 16 34 5c bf 53 6b 43 bf df 52 56 bf
       0.67443866 -0.86016977 -0.7633564 -0.837202
000130 dd 42 d5 3e 3c ff f4 bc b9 67 b9 3e 9f b6 34 bf
       0.41652575 -0.029906861 0.36211947 -0.7059116
000140 c5 79 2a be 1a e5 8f be e6 51 2d be e2 36 db be
       -0.16648014 -0.28104478 -0.16925773 -0.4281531
000150 ce f0 01 bf bc 12 f3 3e 71 1d a8 be 46 4f 14 be
       -0.50758064 0.4747523 -0.32834962 -0.14483365
000160 bc 59 45 be 1a b0 d2 3c 2a 1e e4 be 9f 09 1c bf
       -0.19272512 0.025718737 -0.44554263 -0.6095218
000170 76 91 78 bc e5 0d c0 be 74 a6 09 3e 1d 92 8c 3e
       -0.015171399 -0.375106 0.13442403 0.27455226
000180 02 13 a1 be 7a 98 9c 3e 30 c9 d3 be a0 28 08 bf
       -0.31459814 0.3058508 -0.4136443 -0.5318699
000190 e1 c2 5e be 36 a0 99 3f 4f a1 30 be 20 94 c1 be
       -0.21754028 1.2002017 -0.17249034 -0.37808323
0001a0 a9 d0 bb bd d1 9e 6d 3c 67 41 39 3d 47 df c5 bd
       -0.09170658 0.014503197 0.04522839 -0.096617274
0001b0 56 56 e5 3d cf 4a 22 bd ee 71 29 3f 2c a5 db 3e
       0.11198108 -0.039622124 0.6618947 0.42899454
0001c0 b3 fc 94 be c0 fa b5 bf ca 0d 9c be 61 bf ac bf
       -0.29099044 -1.4217148 -0.3047927 -1.3495904
0001d0 7d 89 c9 3d 0e 22 17 3e 97 d1 06 3f e0 80 8b 3f
       0.09840677 0.14759085 0.5266356 1.0898705
0001e0 df 2c 07 bf fe 60 bb 3e ce 68 3d bf be 31 05 bf
       -0.5280284 0.36597437 -0.73988044 -0.52029026
0001f0 fc fe 87 bf 59 4a 0c 3f c0 bb 89 3e 1d d4 90 be
       -1.062469 0.54800946 0.26901054 -0.2828683
000200 50 2b bc be 80 40 3c bf 19 b3 d7 be a7 92 05 3f
       -0.36751795 -0.7353592 -0.42128828 0.521769
000210 3b 6d cd be 3d 8d 18 3e ca d1 e4 bc 07 24 12 bf
       -0.401224 0.14897628 -0.027932066 -0.57086223
000220 b1 7a 6c 3f 5c fb d9 3f 17 b6 4d be 4f 1d 94 bf
       0.9237471 1.7029834 -0.20088993 -1.1571444
000230 5e ad f4 be 68 6e 18 bf da 9b 8b be cd 4b ad be
       -0.4778852 -0.59543467 -0.27267343 -0.33846894
000240 a1 fa 8f be 90 fa 5d be 95 50 75 be 49 51 d3 be
       -0.28120902 -0.21677613 -0.23956521 -0.41272953
000250 8b 5c af be fc 10 09 3f 47 6c bc be 0d 97 aa be
       -0.34250292 0.5354154 -0.3680136 -0.33318368
000260 34 72 44 be 04 f3 11 bd be d7 0c bf b0 a4 1f bf
       -0.1918419 -0.03563215 -0.55016696 -0.6236067
000270 1e e3 d9 be 72 a8 45 be eb 8c ca 3e c3 7b 85 3e
       -0.4255609 -0.19302538 0.39560637 0.26070985
000280 a5 6c 3b 3f 5e 49 9d be 6c e0 3c bf f4 fd ef 3d
       0.73212653 -0.30720037 -0.7377994 0.117183596
000290 08 9c c6 3d 30 29 85 3e 5d b1 9a be cf 4f 30 be
       0.09697729 0.26007986 -0.30213442 -0.17217945
0002a0 2a b2 21 bf eb c2 f6 3e aa 52 af bf 48 7e 9c bf
       -0.6316248 0.48195586 -1.3697102 -1.2226038
0002b0 23 30 03 3f 4f 17 7c be 13 d1 88 3f dc dc 73 3e
       0.51245326 -0.24618267 1.0688804 0.2381472
0002c0 e4 f6 90 bc 57 e6 95 bd c1 b9 00 bf 15 7b 12 3f
       -0.017695852 -0.073193245 -0.5028344 0.5721906
0002d0 38 d8 91 bf 7a c6 bd 3f f6 1d f3 3d 0f fe c6 be
       -1.139411 1.4826195 0.11870949 -0.38865706
0002e0 91 89 af 3b a3 a8 6f bf ea 50 42 3f 9a 36 93 be
       0.0053569754 -0.93616694 0.75904715 -0.28752595
0002f0 fc 3e 1e bf 5b ca 54 bf 2e bb 60 3f 1e a5 c4 be
       -0.61814857 -0.8312127 0.87785614 -0.38407224
000300 b8 e7 a9 bf 77 8e 81 be a2 d2 95 bf 46 4d 03 bf
       -1.327384 -0.25304005 -1.1704905 -0.51289785
000310 cd 4b c9 bd cd 71 3b 3e 21 43 3c 3f 01 fb 76 3f
       -0.09828911 0.1830513 0.7353993 0.9647675
000320 c5 85 19 3e 07 af 22 3f 57 bf a6 bb 37 cf 9b bf
       0.14992435 0.6354832 -0.0050887275 -1.2172612
000330 c4 4f 32 3e 5f 3e 3e bf cb 7b de 3e 6d 96 9c 3f
       0.1741324 -0.7431392 0.43453822 1.2233406
000340 b3 79 b3 be 98 b6 91 bf bf eb 7f bf 11 df 97 be
       -0.35053787 -1.1383848 -0.99969095 -0.29662374
000350 c9 23 89 bf 52 5b 07 bf 54 f8 2c bf 0c cd 05 3c
       -1.0714046 -0.5287372 -0.6756642 0.008166563
000360 2c 8a 5d 3f 2a 9e 17 bf 26 35 3d bd 3b 38 0d 3f
       0.8653896 -0.59225714 -0.046193264 0.55163926
000370 b3 c4 61 3f b7 26 64 bf c6 ce 9e 3e 8a bb 3b be
       0.88190764 -0.89121574 0.3101713 -0.18333259
000380 cd 45 89 bf 86 bb 60 be 4e 72 93 3e 59 ae 0b 3f
       -1.0724427 -0.21946535 0.28798145 0.5456291
000390 bc 09 ff be b6 3d 3c 3f ff 75 7a bf 90 1e 0c 3e
       -0.49812114 0.73531663 -0.978363 0.13683534
0003a0 31 54 23 3c ee 0e d6 bc 5f 55 9f bf 4d b8 30 3f
       0.009968803 -0.026130166 -1.2447928 0.6903122
0003b0 52 02 0d bf 34 2f 18 bf 6e 1f 5b 3e 1e 26 c0 3d
       -0.55081666 -0.59447026 0.21398708 0.0938227
0003c0 f7 ae bd be 37 88 14 bf ca 84 5d be 43 96 c6 be
       -0.3704755 -0.5802035 -0.21632686 -0.38786516
0003d0 36 8e 9f be bb 76 f3 3e 82 64 0e bf 04 cc d2 be
       -0.31163186 0.47551522 -0.5562211 -0.41171277
0003e0 a5 62 c5 be d8 d1 54 3e 3e 63 26 be 3f 0c a1 be
       -0.38551822 0.20783174 -0.16248795 -0.31454656
0003f0 39 15 9e bc e5 40 fe bd 87 2e 52 3e 59 fa 2b 3e
       -0.01929723 -0.124147214 0.20525561 0.16794719

network_body.observation_encoder.processors.0.model.final_conv.bias f4 [25]
000000 7d 3c a3 3c dc e5 a5 bd 73 c2 c1 bc f8 71 26 3e
       0.019926304 -0.08100483 -0.02365229 0.16254413
000010 36 9b 0d be f7 f8 8e be 8f 69 9a be 33 8e 16 be
       -0.1382874 -0.2792432 -0.3015866 -0.14702682
000020 fb 44 7a bd 87 9f 85 be ba e6 ae be d0 57 c0 3d
       -0.06110094 -0.26098272 -0.34160405 0.09391749
000030 6b c4 6a be 03 95 48 bd 37 76 ce be 2b ce 82 be
       -0.2292649 -0.048970234 -0.40324566 -0.2554792
000040 6f 0c b7 be 77 2f c9 be e6 fb 3e be 5f ac b2 bd
       -0.35751674 -0.39294025 -0.18650779 -0.087242834
000050 05 ae d8 bd ff f6 06 be 08 2e 49 3d bd b5 62 bd
       -0.105800666 -0.13180159 0.049116164 -0.0553491
000060 f9 57 52 be
       -0.20541371

network_body.observation_encoder.processors.0.pooling_model.spatial_extractor.1.weight f4 [3]
000000 25 00 76 3f d6 1c a2 3f 26 bd 71 3f
       0.9609397 1.266505 0.9442924

network_body.observation_encoder.processors.0.pooling_model.spatial_extractor.1.bias f4 [3]
000000 c7 24 95 3d be 40 ba 3e 8e f2 ec bd
       0.07282405 0.3637752 -0.11569701

network_body.observation_encoder.processors.0.pooling_model.spatial_extractor.1.running_mean f4 [3]
000000 f6 eb 3b 3d d7 b5 be be 74 ae b1 bc
       0.045879327 -0.37248108 -0.021689631

network_body.observation_encoder.processors.0.pooling_model.spatial_extractor.1.running_var f4 [3]
000000 f7 70 83 37 3e 05 76 38 2f ca 45 37
       1.566902e-05 5.8655853e-05 1.178919e-05

network_body.observation_encoder.processors.0.pooling_model.spatial_extractor.4.weight f4 [3]
000000 3f 88 28 3f 08 f5 0b 3f 70 55 4f 3f
       0.65832895 0.54670763 0.8098974

network_body.observation_encoder.processors.0.pooling_model.spatial_extractor.4.bias f4 [3]
000000 83 09 a8 be 1a 8d ca be e2 c1 71 be
       -0.32819757 -0.39560777 -0.23609117

network_body.observation_encoder.processors.0.pooling_model.spatial_extractor.4.running_mean f4 [3]
000000 c1 81 ba 3f de a6 6a c0 3c 63 52 40
       1.4570848 -3.6664348 3.2873068

network_body.observation_encoder.processors.0.pooling_model.spatial_extractor.4.running_var f4 [3]
000000 5a 85 34 3f 10 72 a2 3f 83 93 80 40
       0.7051598 1.2691059 4.018007

network_body._body_endoder.attention.query.bias f4 [108]
000000 00 00 00 00 00 00 00 00 00 00 00 00 00 00 00 00
       0.0 0.0 0.0 0.0
000010 00 00 00 00 00 00 00 00 00 00 00 00 00 00 00 00
       0.0 0.0 0.0 0.0
000020 00 00 00 00 00 00 00 00 00 00 00 00 00 00 00 00
       0.0 0.0 0.0 0.0
000030 00 00 00 00 00 00 00 00 00 00 00 00 00 00 00 00
       0.0 0.0 0.0 0.0
000040 00 00 00 00 00 00 00 00 00 00 00 00 00 00 00 00
       0.0 0.0 0.0 0.0
000050 00 00 00 00 00 00 00 00 00 00 00 00 00 00 00 00
       0.0 0.0 0.0 0.0
000060 00 00 00 00 00 00 00 00 00 00 00 00 00 00 00 00
       0.0 0.0 0.0 0.0
000070 00 00 00 00 00 00 00 00 00 00 00 00 00 00 00 00
       0.0 0.0 0.0 0.0
000080 00 00 00 00 00 00 00 00 00 00 00 00 00 00 00 00
       0.0 0.0 0.0 0.0
000090 00 00 00 00 00 00 00 00 00 00 00 00 00 00 00 00
       0.0 0.0 0.0 0.0
0000a0 00 00 00 00 00 00 00 00 00 00 00 00 00 00 00 00
       0.0 0.0 0.0 0.0
0000b0 00 00 00 00 00 00 00 00 00 00 00 00 00 00 00 00
       0.0 0.0 0.0 0.0
0000c0 00 00 00 00 00 00 00 00 00 00 00 00 00 00 00 00
       0.0 0.0 0.0 0.0
0000d0 00 00 00 00 00 00 00 00 00 00 00 00 00 00 00 00
       0.0 0.0 0.0 0.0
0000e0 00 00 00 00 00 00 00 00 00 00 00 00 00 00 00 00
       0.0 0.0 0.0 0.0
0000f0 00 00 00 00 00 00 00 00 00 00 00 00 00 00 00 00
       0.0 0.0 0.0 0.0
000100 00 00 00 00 00 00 00 00 00 00 00 00 00 00 00 00
       0.0 0.0 0.0 0.0
000110 00 00 00 00 00 00 00 00 00 00 00 00 00 00 00 00
       0.0 0.0 0.0 0.0
000120 00 00 00 00 00 00 00 00 00 00 00 00 00 00 00 00
       0.0 0.0 0.0 0.0
000130 00 00 00 00 00 00 00 00 00 00 00 00 00 00 00 00
       0.0 0.0 0.0 0.0
000140 00 00 00 00 00 00 00 00 00 00 00 00 00 00 00 00
       0.0 0.0 0.0 0.0
000150 00 00 00 00 00 00 00 00 00 00 00 00 00 00 00 00
       0.0 0.0 0.0 0.0
000160 00 00 00 00 00 00 00 00 00 00 00 00 00 00 00 00
       0.0 0.0 0.0 0.0
000170 00 00 00 00 00 00 00 00 00 00 00 00 00 00 00 00
       0.0 0.0 0.0 0.0
000180 00 00 00 00 00 00 00 00 00 00 00 00 00 00 00 00
       0.0 0.0 0.0 0.0
000190 00 00 00 00 00 00 00 00 00 00 00 00 00 00 00 00
       0.0 0.0 0.0 0.0
0001a0 00 00 00 00 00 00 00 00 00 00 00 00 00 00 00 00
       0.0 0.0 0.0 0.0

network_body._body_endoder.attention.value.bias f4 [108]
000000 f0 2a a2 3e 90 79 ff bd 32 e1 60 3e 87 9f ce be
       0.31673384 -0.12474358 0.21960905 -0.40356085
000010 69 a4 d5 3d 49 72 bc 3e 13 47 65 3e 2b 14 f2 be
       0.104317494 0.36805943 0.22390394 -0.47281012
000020 84 95 ba be 6e 36 cc bd 7d 7a 1e 3a 5b 23 f4 3c
       -0.36442196 -0.09971319 0.0006045474 0.029802015
000030 dc 87 5d be 2c b0 1c 3e b0 6c 1e 3e f9 37 98 3a
       -0.21633857 0.15301579 0.15471148 0.0011613361
000040 a3 67 f1 bc 72 d5 37 3e 17 46 8d be d1 4f 23 be
       -0.029468363 0.17952517 -0.27592537 -0.15948416
000050 22 78 66 3f 3c f2 f2 bc df eb 94 3e 94 38 7b 3e
       0.9002706 -0.029656522 0.29086205 0.24533302
000060 28 29 67 3e 1b 3d 45 be 56 a4 54 be 30 12 13 3e
       0.22574294 -0.19261591 -0.20765814 0.14362407
000070 d0 c3 7d bd 9b 75 aa bd 6c 15 fd be 61 0c 71 be
       -0.06195432 -0.08323213 -0.49430406 -0.23539878
000080 1c 30 11 be 1b 19 e2 3d 4b a3 e2 3e 1c be 1d 3e
       -0.14178509 0.11039945 0.44265208 0.15404552
000090 f6 0f 2f 3e dd a6 ad bd f8 64 72 3d de 54 64 3e
       0.17095932 -0.08479092 0.059178323 0.22298
0000a0 fb 12 85 3e 61 79 a8 3e 7d 7d c0 3d 22 61 de 3d
       0.25991043 0.32905105 0.09398935 0.1085837
0000b0 aa e4 03 bd 47 e4 ce 3d 1f f3 7f 3e bc 9e 78 3e
       -0.032200493 0.10102134 0.24995087 0.24279302
0000c0 11 ba 78 3d 27 1b 6b 3e ca 01 86 be 24 17 01 bd
       0.06072432 0.22959577 -0.2617324 -0.03151621
0000d0 90 38 43 3e e1 3e 5a be 67 cc 5d be 42 0a 72 3e
       0.19064546 -0.21313049 -0.21660005 0.23636726
0000e0 d2 cf b2 be 32 30 21 3d 72 9d 0f 3e e0 a4 ff 3d
       -0.3492418 0.039352603 0.14024904 0.12482619
0000f0 58 b9 19 be e7 11 8f 3e eb e4 bf be 0a 2c 51 3e
       -0.1501211 0.27943346 -0.37479338 0.20426956
000100 15 63 7e bc c5 59 2d 3e ac 32 f4 be 7e 51 e1 bb
       -0.015526553 0.16928776 -0.4769491 -0.0068761697
000110 e4 7a b0 bd 4c 5e 01 3c a2 80 8d 3e 48 1b 36 bd
       -0.086171895 0.007896017 0.27637202 -0.04445961
000120 5a 97 db bd ac 23 3a 3e 52 55 ac be c9 ba 2e be
       -0.107222274 0.1817767 -0.33658844 -0.1706344
000130 c6 c3 66 3e 7c c0 ff 3d 92 c3 6d bd 84 97 07 3e
       0.22535619 0.12487885 -0.05804784 0.13241392
000140 63 72 d6 3c 33 34 ae 3e 8e eb 4e 3c 17 63 c0 be
       0.02617759 0.340242 0.012629403 -0.375756
000150 4e cc 13 3e 33 23 91 3d 44 95 7a be 75 0d 89 be
       0.14433405 0.07086792 -0.24471003 -0.2676808
000160 8d 78 89 be a8 83 83 3d 52 dd 98 3e 49 08 04 3e
       -0.26849785 0.06421596 0.29856354 0.12893786
000170 cc 84 15 be 5b 40 eb be ee ba e3 bd 39 3c 8d be
       -0.14601439 -0.45947537 -0.111196384 -0.2758501
000180 af a8 78 be 8b 21 6e be d8 2b 46 3c da 9a 36 3e
       -0.24283098 -0.23254983 0.012095414 0.17832509
000190 40 e5 5e be d0 09 28 be 17 88 6c 3e ae 9c 74 be
       -0.2176714 -0.16409993 0.23098789 -0.23887894
0001a0 d8 ed 94 be 98 3b b4 be 15 9f 52 be de a8 b0 3e
       -0.2908771 -0.35201716 -0.20568497 0.34503835

network_body._body_endoder.attention.norm.weight f4 [108]
000000 3b ce 9e 3f 56 03 83 3f 69 aa 79 3f 7f 13 a3 3f
       1.2406687 1.0235393 0.9752565 1.2740325
000010 77 c6 7d 3f 78 c5 a4 3f a3 11 95 3f f7 2a ab 3f
       0.9913096 1.2872763 1.1646007 1.3372487
000020 4d 55 b7 3f 77 57 55 3f 74 56 78 3f 70 e8 83 3f
       1.4322907 0.83336586 0.97006917 1.0305309
000030 1b e0 96 3f 91 81 90 3f ee 6d 78 3f 49 7b 89 3f
       1.1787142 1.128954 0.9704274 1.0740749
000040 30 67 77 3f 48 b0 93 3f 4c 0c 82 3f 87 99 97 3f
       0.96641827 1.1538172 1.0160003 1.1843728
000050 e4 d3 0d 40 bb 17 86 3f d9 93 65 3f 24 5a 84 3f
       2.2160578 1.0475992 0.8967872 1.0340009
000060 e5 a1 8c 3f 06 7f 86 3f 2b 1c a0 3f 4e 7a 94 3f
       1.0986906 1.0507514 1.2508596 1.1599824
000070 6f c0 2c 3f 51 39 7d 3f c7 4d b7 3f 91 8e 83 3f
       0.6748113 0.9891558 1.4320611 1.0277883
000080 bf 57 63 3f fc 44 91 3f 11 c2 9b 3f d1 d0 7b 3f
       0.88805765 1.1349177 1.2168599 0.98365504
000090 31 c0 56 3f ef c4 68 3f a2 af 51 3f 4e 59 86 3f
       0.8388701 0.90925497 0.8190862 1.0496004
0000a0 f2 a3 79 3f 77 ce 8e 3f 47 38 2d 3f 0a cf 28 3f
       0.97515786 1.1156758 0.67664 0.65940917
0000b0 bf fb 57 3f 69 e3 90 3f 71 10 78 3f 98 4f 78 3f
       0.8436851 1.13194 0.9690009 0.9699645
0000c0 0c 58 98 3f 7c 72 6f 3f a0 38 60 3f 2d 16 89 3f
       1.190187 0.93534064 0.875864 1.0709893
0000d0 fd 7e f9 3e cb cb 84 3f a5 dd 95 3f 2f 54 70 3f
       0.48729697 1.0374693 1.1708266 0.93878454
0000e0 11 f9 ac 3f e7 b4 27 3f a1 56 88 3f e5 00 79 3f
       1.3513509 0.6551041 1.0651437 0.9726699
0000f0 d6 e2 69 3f 64 eb 8f 3f 52 c5 9b 3f 00 a7 76 3f
       0.9136175 1.124371 1.2169592 0.9634857
000100 85 4e a9 3f 9e c5 88 3f 89 3d b0 3f 8d 32 8d 3f
       1.3227087 1.0685308 1.3768779 1.1031052
000110 b6 00 ba 3f d2 fd 7f 3f b3 a7 41 3f 38 6d 88 3f
       1.4531467 0.99996674 0.75646514 1.0658331
000120 56 9d b0 3f 3e 88 85 3f ad c8 a0 3f 8d d5 6e 3f
       1.3798015 1.0432203 1.2561241 0.932946
000130 10 45 77 3f 26 ac 58 3f 1f ad ae 3f 40 5a 82 3f
       0.96589756 0.8463768 1.3646582 1.0183792
000140 cb b6 69 3f d3 f0 a0 3f 69 43 84 3f 63 fb 95 3f
       0.91294545 1.2573494 1.0333072 1.1717342
000150 18 72 87 3f 77 5f 91 3f 02 18 96 3f bb 25 a3 3f
       1.0581694 1.1357259 1.1726077 1.274589
000160 6e 1b 96 3f e0 2a 5c 3f b2 a3 8b 3f 7a d8 99 3f
       1.1727121 0.8600292 1.0909331 1.2019188
000170 4e 42 87 3f 53 81 9f 3f 46 48 6e 3f 71 00 8e 3f
       1.056711 1.2461342 0.9307903 1.1093885
000180 75 62 87 3f 53 75 56 3f e0 b6 13 3f 69 42 84 3f
       1.0576922 0.8377277 0.5770092 1.0332767
000190 ce 75 9a 3f 5e a3 7a 3f 2b fc 8e 3f b5 ef aa 3f
       1.2067201 0.9790553 1.1170706 1.3354403
0001a0 e9 18 7a 3f 0b 01 ad 3f 5c 32 65 3f 87 c6 8b 3f
       0.9769426 1.3515943 0.8952997 1.0919961

network_body._body_endoder.attention.norm.bias f4 [108]
000000 73 c9 56 3e 06 e9 03 bd 1f 15 64 3c dc e3 42 be
       0.20975284 -0.03220465 0.013921051 -0.19032234
000010 ef c3 16 3c 9a 5f 80 3e 91 5e 49 3e ad 7e 74 be
       0.009201988 0.25072938 0.1966498 -0.23876448
000020 ee a7 19 be fb c8 87 3d e6 f3 10 bd 41 96 8d bd
       -0.15005466 0.06630131 -0.03538885 -0.06913424
000030 e7 0a 16 bc 9f 58 1d 3e 83 52 65 3c 43 cd 2f bc
       -0.009157873 0.15365838 0.013996723 -0.010730091
000040 7d db ea 3d cb 3c a7 bc 7e 37 fc bd 71 7c 7e bd
       0.11467645 -0.02041473 -0.12315272 -0.062130395
000050 f0 fb 22 3f 4c 01 a7 3d b3 17 83 3d 7c 64 f6 bc
       0.63665676 0.08154544 0.06401005 -0.030077212
000060 bf 34 d0 3d e3 4e 30 bc 0e 42 2f 3d 55 e3 2f bc
       0.101663105 -0.010760996 0.042787604 -0.0107353525
000070 55 03 9c bd e9 c1 51 bd e6 8f b8 be 1c af f3 bd
       -0.07617823 -0.051210318 -0.36047286 -0.11898634
000080 18 3d 08 bd aa 59 9c bc cb 4a 81 3e 7f 0b d0 3d
       -0.03326139 -0.019085724 0.25252375 0.10158443
000090 7c af f2 bb 73 45 8f bd cf 2a 9a 3d 39 5f 50 3e
       -0.0074061733 -0.06995668 0.07527696 0.20348825
0000a0 93 a6 87 3d cc 2b e4 3d 27 4f 23 3c a7 a3 c9 3c
       0.066235684 0.11141166 0.009967602 0.024614168
0000b0 5a b6 e7 bc ac db 46 3e e8 00 58 3d 3a b9 73 ba
       -0.028285194 0.19419736 0.05273524 -0.0009297315
0000c0 59 85 cc 3d 1f aa e4 3d 06 50 0e be ae 03 c9 bd
       0.099863715 0.111652605 -0.13897714 -0.09815155
0000d0 b8 b0 e1 3b dc 75 82 bd 2f e7 25 be f8 ce c3 3d
       0.0068875216 -0.06370136 -0.16201471 0.095609605
0000e0 5d 31 18 be 9f bd 41 3d f8 4f 51 bb 6e 3b 3c 3e
       -0.1486258 0.047299977 -0.0031938534 0.18382046
0000f0 df d6 91 bd c8 8b 87 3e b9 28 6c be 7c 35 49 bd
       -0.071210615 0.26473832 -0.2306241 -0.049123272
000100 58 0c 28 3d 6a f2 05 3d 1c c7 8b be 1c 80 8b bd
       0.041027397 0.032701887 -0.27300346 -0.06811544
000110 a4 be 90 bd 03 78 8e 3d 96 f1 65 3d 4d 95 ef 3c
       -0.07067612 0.06956484 0.056138597 0.029245997
000120 07 82 30 bc a0 7c 1d 3e 1c d8 3a be 32 19 e1 bb
       -0.010773188 0.15379572 -0.18246502 -0.0068694586
000130 cd 91 fd 3d 06 2a 24 3e 9e 3c 17 bd 31 f9 27 3e
       0.12381325 0.16031656 -0.036923043 0.16403653
000140 b6 c3 93 bd a6 70 7f 3e b8 99 ba bd a5 75 11 be
       -0.07215063 0.24945316 -0.09111351 -0.14205034
000150 09 18 8a 3c 34 b6 b3 3d 1e d6 a1 bd 84 b2 96 bd
       0.016857164 0.08774987 -0.07902168 -0.07358268
000160 84 e9 24 bd d6 fc 93 bd a0 fc 80 bc c3 1d 36 bd
       -0.04026176 -0.07225959 -0.015745461 -0.044461977
000170 88 9c 72 bd a1 5d 9e be 76 83 c6 bc 9c 97 22 bd
       -0.05923131 -0.30930808 -0.024232607 -0.039695367
000180 c1 08 0d be 8a 96 21 bc c8 40 0b 3e 5e 4d ac 3d
       -0.1377287 -0.009862551 0.13598931 0.08413194
000190 a6 6e 0e 3d 67 7f a8 3c 9e 20 ad ba 8c 96 12 bd
       0.03477349 0.020568563 -0.0013208573 -0.035788104
0001a0 5c f7 a8 bd 4f be 54 be 2d 2d 3d bb df 6e 78 3e
       -0.08250305 -0.20775722 -0.0028866038 0.24261044

network_body._body_endoder.norm.weight f4 [108]
000000 cf 23 3f 3f db 6c 5d 3f e8 f8 53 3f 2a 84 48 3f
       0.74664015 0.86494225 0.82801676 0.78326666
000010 a7 86 5d 3f 8c 55 cd 3e 15 f4 60 3f 7b d4 21 3f
       0.8653359 0.4010433 0.8787244 0.63214844
000020 cb e4 26 3f fd 2e 22 3f ca 49 6d 3f 4d 12 70 3f
       0.6519286 0.6335295 0.9269072 0.93777925
000030 60 7b 5d 3f 2b ac 65 3f 7e 37 5c 3f d5 79 7c 3f
       0.8651638 0.8971583 0.86022174 0.986234
000040 52 73 62 3f f2 88 80 3f 3d 70 34 3f ad 92 70 3f
       0.88457215 1.0041792 0.7048376 0.9397381
000050 2e e3 8e 3e 0c 96 73 3f 02 67 3a 3f f8 87 6e 3f
       0.279077 0.9515083 0.7281343 0.9317622
000060 64 cd 5d 3f 97 11 6c 3f ca 29 8c 3f f4 fe 7a 3f
       0.86641526 0.9221434 1.0950253 0.9804528
000070 48 c8 27 3f 2f c3 65 3f 59 0d 15 3f 9f 85 1b 3f
       0.6553998 0.8975095 0.5822349 0.60750765
000080 22 b2 30 3f b2 7e 83 3f ba 3b 23 3f 6a 94 66 3f
       0.6902181 1.0273039 0.6376301 0.9007021
000090 f0 fd 54 3f 52 7e 48 3f 2a fc 47 3f 55 df 31 3f
       0.8319998 0.7831775 0.78119147 0.694814
0000a0 68 a8 5b 3f 65 52 76 3f 7e 80 39 3f 67 68 08 3f
       0.8580384 0.96219474 0.7246169 0.53284305
0000b0 71 52 46 3f ae 43 5c 3f b4 eb 65 3f 26 f1 58 3f
       0.77469546 0.8604077 0.8981278 0.84742963
0000c0 40 41 88 3f 0b 09 20 3f 7f 82 47 3f e6 b0 7f 3f
       1.0644913 0.625138 0.77933496 0.998793
0000d0 f7 a2 21 3f d3 d2 55 3f fe 93 6e 3f 07 61 40 3f
       0.6313929 0.8352482 0.9319457 0.7514805
0000e0 ee 20 2c 3f 24 d5 13 3f 11 4e 43 3f b8 04 42 3f
       0.67237747 0.577471 0.76290995 0.7578845
0000f0 43 e3 17 3f 18 93 53 3f b1 a4 39 3f a2 be 82 3f
       0.5933115 0.8264632 0.72516924 1.0214427
000100 55 8a 69 3f be 4e 89 3f 16 74 da 3e e3 a1 91 3f
       0.912267 1.0727155 0.42666692 1.1377529
000110 db 86 56 3f 2b 6a 54 3f 6f b1 11 3f 5a 39 4a 3f
       0.83799523 0.829745 0.5691137 0.7899376
000120 ca 25 48 3f 85 52 33 3f 2d 13 7f 3f 2d 3a 24 3f
       0.7818266 0.7004779 0.99638635 0.6415127
000130 fb 5c 23 3f 72 2a 32 3f bd 1c 5b 3f 71 51 62 3f
       0.6381375 0.69596016 0.85590726 0.8840552
000140 69 a6 41 3f 7c 6d 4a 3f a6 da 72 3f c7 d4 30 3f
       0.75644547 0.7907331 0.9486488 0.6907467
000150 59 e3 2e 3f bb 21 70 3f 6f ca 3e 3f e4 f0 35 3f
       0.68315655 0.9380147 0.7452764 0.71070695
000160 83 cf 1e 3f 4f 42 45 3f af 45 3e 3f 43 c9 7a 3f
       0.6203539 0.77054304 0.7432508 0.9796335
000170 1d 3f 04 3f 55 96 4b 3f 84 26 3a 3f df a9 1d 3f
       0.51658803 0.79526263 0.7271502 0.6158733
000180 34 b6 71 3f fa ed 7b 3f 14 12 b5 3f 9e c6 55 3f
       0.94418645 0.9841 1.4146142 0.8350619
000190 01 3e aa 3f 8e 8b 55 3f 08 7f 85 3f 6e 91 1a 3f
       1.3300172 0.8341607 1.0429392 0.6037816
0001a0 24 ca 52 3f 9b db 1a 3f 6f b7 95 3f 03 cb 2f 3f
       0.8233969 0.6049134 1.1696604 0.68669146

network_body._body_endoder.norm.bias f4 [108]
000000 b8 fa ee bd 1a 28 b6 3d 69 d2 fb 3b f9 e5 2d 3e
       -0.116689146 0.088943675 0.007684995 0.16982259
000010 4c 4a b7 3d 71 b1 97 bd f2 92 40 bd e6 71 3c 3e
       0.08949718 -0.07406891 -0.047015138 0.18402824
000020 15 50 1d 3e 69 54 96 3d ea 40 c8 3c 45 8e e3 bc
       0.1536258 0.07340319 0.024445016 -0.0277778
000030 17 5b e9 3d f6 e4 21 bc 69 3b 42 3d 52 59 81 3d
       0.11394327 -0.009881249 0.04741994 0.063158646
000040 e7 b0 05 3e 01 b2 99 bc 3e 65 10 3e a7 b3 85 3d
       0.13055764 -0.018761637 0.14101121 0.065284066
000050 95 3a a8 be 65 5f b5 3c da cb 47 bd a5 1a 7a bd
       -0.32857195 0.022140214 -0.048778392 -0.061060566
000060 36 33 5c bc 12 6b 9d 3d 83 b3 f6 3d 5d 4d b7 3b
       -0.013439944 0.07686438 0.12045958 0.005593939
000070 c9 6c 17 3c a4 27 fe bc 9e 38 36 3e 32 de 65 3d
       0.009242245 -0.031024761 0.17795035 0.056120105
000080 39 2e d9 3d ef 49 ab bc d7 b7 bc bd ef 85 19 b9
       0.106045194 -0.020909278 -0.09214752 -0.00014641111
000090 a8 22 84 bd 58 b9 ef bd bb e7 49 3c e0 90 ab bd
       -0.06451923 -0.117052734 0.012323315 -0.08377242
0000a0 d5 54 be bd 2a ba b5 bc 52 2d 00 3c 35 5f d3 bc
       -0.09293524 -0.022183497 0.007823305 -0.025802234
0000b0 fe b4 28 3b 05 5a a4 bd c2 3a c6 bb 2e 92 bc bd
       0.0025742645 -0.08024982 -0.006049485 -0.09207569
0000c0 10 36 d6 bb 08 12 36 bd 0c 4b c4 3c 7c 85 98 bd
       -0.0065372065 -0.04445079 0.023961566 -0.07447335
0000d0 93 8d 5c 3c 91 b2 b2 bc a9 5b fa bc 2f 6a 9a 3d
       0.013461488 -0.021813663 -0.030561285 0.07539784
0000e0 79 cc 17 3e 2e f9 89 3d f7 79 1c bc e3 70 51 3c
       0.14824094 0.067369804 -0.009550563 0.012783262
0000f0 2e 76 b5 3d 27 bd fa 3d ab b4 27 3e cc 08 b0 bd
       0.088604316 0.12243109 0.16377513 -0.08595428
000100 4a 4d d6 3c 46 ac c6 bc 95 2a 57 3e 8e 84 5a bc
       0.026159901 -0.024252068 0.21012338 -0.013337268
000110 0a 93 6a 3d de d6 60 3d 62 03 b4 3b 20 51 f0 3c
       0.057269134 0.054892413 0.0054935673 0.029335558
000120 6e 0c e2 3c 40 9c b5 bd 61 1a d7 3d b5 47 88 3d
       0.027593818 -0.08867693 0.10503078 0.06654302
000130 f5 e4 20 ba 65 61 8d 3d 59 9d e0 3b 03 28 d4 3b
       -0.0006137633 0.06903342 0.006854695 0.0064744963
000140 33 50 d7 3c 27 99 a0 bd a2 d3 a3 bd af 40 dc 3d
       0.02628336 -0.078417115 -0.0799935 0.10754525
000150 08 30 65 bd fe a3 12 3d e2 a1 8d 3d 31 bd ec 3d
       -0.05595401 0.035800926 0.06915642 0.11559523
000160 e6 7c 07 3e e8 bd a6 bd 78 b0 d5 bc f4 f2 10 bd
       0.13231239 -0.081416905 -0.026085123 -0.03538795
000170 23 77 25 3e ac 4a e8 bd 20 bf 87 3d be 79 a6 3d
       0.16158728 -0.113423675 0.06628251 0.08128689
000180 2f d4 2d be 30 1a b4 3d 1e 4b 11 3e 89 92 ad 3c
       -0.16975473 0.08794057 0.14188811 0.021188037
000190 10 ad f2 3d 3f 64 1c bd 49 75 cf bd 2c ac 6c 3d
       0.11849415 -0.03818154 -0.10129792 0.057781383
0001a0 10 0a 53 3d 3c a1 b1 3e d2 c2 c3 3d 96 a9 4e 3d
       0.05152327 0.34693325 0.095586434 0.0504547

network_body._body_endoder.lin_layers.seq_layers.0.weight f4 [216, 108]
000000 8f 96 4e be df 4d 86 3e 8e 49 d0 be d8 49 51 3e
       -0.20174621 0.26231286 -0.40681118 0.20438325
000010 2b 7a d1 3c 8e 71 ae be 4e 4e a0 be 9a 51 da 3d
       0.02557095 -0.3407101 -0.31309742 0.106600955
000020 e4 57 f5 3d 99 3e 51 be 19 b4 10 bd ad 0f 02 3e
       0.119796544 -0.20434035 -0.035328005 0.12701292
000030 f5 d4 2e 3e c3 c1 bf be 86 9f 5f be dd 3d b2 3e
       0.17073424 -0.37452516 -0.21838197 0.34812823
000040 9b c8 a6 be 3e c5 82 bd 8f 1a 8d 3e 60 6e 29 3e
       -0.32574925 -0.06385277 0.27559325 0.16546011
000050 50 36 e5 bd ae 7e cf bc 58 68 3f be 8d 5f 77 3e
       -0.11192 -0.02532896 -0.18692148 0.24157543
000060 71 6f ff be a1 9d 7c 3e 90 34 36 3e 31 50 94 bd
       -0.4988971 0.24669506 0.17793489 -0.07241858
000070 5d 03 47 bc f7 6b 2d 3d 2c 79 9d 3e f9 c8 93 bc
       -0.012146798 0.04233929 0.3075651 -0.018040167
000080 f3 73 99 3e 4d 34 0b be 14 cf 52 be b0 71 7f be
       0.29971275 -0.1359417 -0.20586807 -0.24945712
000090 dc c0 2d be 1d b5 39 be 2a d9 c6 3d 99 2d 6c be
       -0.16968101 -0.18135495 0.097093895 -0.23064269
0000a0 ac 4e 92 3d 89 c8 77 be af a4 56 3b 5a 39 eb bd
       0.07143912 -0.24197592 0.0032751968 -0.11485548
0000b0 5a 64 47 3c 0d be 9d be 83 ef 31 be 3a db 22 be
       0.012169922 -0.3080906 -0.17376523 -0.15903941
0000c0 e3 87 1a be 4e 7a 7e be 47 55 50 3e 91 1e 80 3e
       -0.15090899 -0.24851343 0.2034503 0.2502332
0000d0 f8 ce fc bd 32 5c c6 3e b2 37 f7 3e 35 21 3f be
       -0.12344164 0.38742214 0.4828468 -0.18665011
0000e0 ac 76 cc 3e ae 53 9f bd b3 c9 16 3c 21 44 12 be
       0.3993429 -0.077796325 0.009203362 -0.14283802
0000f0 96 3c 40 3d b3 66 24 be 56 c9 7c 3e 97 4c 14 3e
       0.04693278 -0.16054802 0.24686179 0.14482342
000100 43 d0 0e 3d c9 19 4d be cc 98 35 3e 6d e7 72 3e
       0.034866583 -0.20029368 0.17734069 0.23721094
000110 b7 5e be 3e fb 64 28 be 4a 6f f8 3c 0b a9 45 bd
       0.37181637 -0.16444771 0.030326504 -0.048256915
000120 1a 6b 1e 3e 18 8f 7c be d9 4d ea 3e 6a ee 4f bd
       0.15470544 -0.24663961 0.45762518 -0.05076448
000130 13 ad b1 be 7a 05 75 be 57 e8 de 3d 5d 71 ef be
       -0.34702358 -0.2392787 0.10884159 -0.46766177
000140 3f 51 e4 3d fa e2 f3 be 29 89 9d 3e 3f 71 da 3d
       0.11148309 -0.47634107 0.30768707 0.10666131
000150 4b a6 69 be de c2 2a be 22 c9 8b 3d d3 02 8d 3c
       -0.22817342 -0.16675898 0.068254724 0.01721326
000160 8f 01 0d 3e 99 7a 2c be 74 c0 7f be 72 e8 07 3d
       0.13770126 -0.16843642 -0.24975759 0.03318066
000170 29 3f 06 3e d9 84 c6 3d ca 73 10 bd cf 86 57 3e
       0.13110031 0.096933074 -0.035266675 0.21047519
000180 6b 68 ee 3c 40 d7 41 3f 2b 01 bb be a2 91 8e be
       0.029102525 0.7571907 -0.3652433 -0.27845484
000190 2b c8 09 3e 6c 05 51 be 00 c1 fb bc 6f ed b8 3d
       0.13455264 -0.20412225 -0.030731678 0.09029662
0001a0 c6 fc c5 3e 8e d6 a6 3e 0c 22 ed 3e 1f fb f6 be
       0.38669413 0.32585567 0.46315038 -0.48238465
0001b0 16 41 8c be f5 4a b8 3d a2 09 05 be 6f 28 9f 3e
       -0.27393407 0.08998672 -0.12991956 0.31085536
0001c0 3c fd d2 3d 68 32 df be 37 18 dd bd a9 7c 3e 3e
       0.10302207 -0.43593144 -0.10795634 0.18602242
0001d0 f3 47 86 3e 36 74 9b be 09 87 c2 bd 65 f6 d3 bc
       0.26226768 -0.303621 -0.09498412 -0.025874326
0001e0 96 c7 c7 3c 39 08 58 be 69 ee 74 bd 33 41 19 bd
       0.024387162 -0.21096887 -0.05979768 -0.037415694
0001f0 20 88 08 be 36 75 37 be fb 74 36 3d 21 2b 00 bc
       -0.13333178 -0.17915806 0.044545155 -0.007822783
000200 61 4c a1 be 10 62 04 3e d7 2e 09 be 16 3f 35 be
       -0.31503585 0.12928033 -0.13396774 -0.17699847
000210 7b 10 21 be e9 1a 4b 3e cd 93 69 3d 3a e6 47 bd
       -0.15728943 0.19834484 0.05702572 -0.048803546
000220 bf d4 12 bd c0 0d 3b 3e 29 46 81 3e 63 03 06 bd
       -0.03584742 0.18266964 0.2524884 -0.032718074
000230 01 87 31 3c 4c 17 0e be 75 6b 88 be 32 c6 5b be
       0.01083541 -0.13876075 -0.26644483 -0.21462324
000240 84 9c 40 bc eb 67 2a 3d 19 64 3d be 0f 44 c6 bd
       -0.011756066 0.04160301 -0.18495215 -0.0968095
000250 f8 96 43 bd 58 eb 61 be 74 8e 89 be c0 e0 8b be
       -0.047751397 -0.22062433 -0.26866496 -0.27319908
000260 d0 d4 23 be 60 11 08 be 60 ba c7 bd 15 4b c0 be
       -0.1599915 -0.13287878 -0.09752345 -0.37557283
000270 c6 0f da bd 5e 33 65 be 18 1d 38 3e ac eb d9 3c
       -0.1064754 -0.22382876 0.17979848 0.026601635
000280 ef 4e 7a bd 7e a5 1f bd 2f 18 b4 3e 40 29 b7 be
       -0.061110433 -0.038976185 0.351747 -0.3577366
000290 13 a8 6c 3e 68 c7 13 3e 6c 08 41 bd ba 83 82 be
       0.2311099 0.14431536 -0.047127172 -0.25491124
0002a0 db aa 36 3c 4b 31 a5 be 87 2c 2d 3e 11 79 ff bd
       0.011149134 -0.3226417 0.16911517 -0.124742635
0002b0 d2 91 99 3d ae a9 c8 be 11 4f 4c 3e 63 06 1f 3e
       0.07498516 -0.39191955 0.19952036 0.1552978
0002c0 b7 e8 00 3c d5 1f e6 bd af 10 93 be 94 96 84 bd
       0.007867984 -0.1123654 -0.28723666 -0.06474033
0002d0 65 40 14 3e 75 98 f2 bb 8c 54 81 3e 20 7f 20 3e
       0.1447769 -0.007403428 0.25259817 0.15673494
0002e0 43 a3 11 bd 96 a2 4d be 59 f7 09 be 40 22 a9 be
       -0.03555609 -0.20081553 -0.13473262 -0.33033943
0002f0 cb e0 b2 3d 01 c6 00 bf ac 3e 70 3e ba 40 75 3e
       0.08734282 -0.5030213 0.23461407 0.23950472
000300 a0 b0 f2 bd f5 1c 04 be 28 ff cd 3d 33 63 13 3e
       -0.11850095 -0.12901671 0.10058433 0.1439331
000310 d6 ce 8e 3e e0 d0 64 bd 02 3a 59 bc 8e 88 63 3b
       0.27892178 -0.05586326 -0.013258459 0.0034718844
000320 fe 7e 84 3c c3 4a 27 3e f9 89 d3 3e c1 26 05 3e
       0.016173836 0.16337113 0.41316202 0.13003065
000330 47 e9 00 3e 9c e4 a1 3e 6c d4 3c be 9b 13 1a 3e
       0.12588988 0.31619728 -0.18440408 0.15046541
000340 52 03 ac 3d c2 56 c0 bd 7d cf b4 bd 46 34 9f 3e
       0.08399071 -0.09391548 -0.08828638 0.3109457
000350 b4 a5 6b 3e 45 4d f0 3e 2b bb 05 3f b7 1b b1 be
       0.2301243 0.46933952 0.5223872 -0.34591457
000360 ac 0e ef be 76 aa cd bd ea 71 f2 3c eb 4d 9d 3e
       -0.4669088 -0.100422785 0.029595334 0.3072351
000370 fe 12 dd 3d fd d4 03 bf dc d2 7b be 49 3e 86 3e
       0.10794638 -0.5149687 -0.24592155 0.26219395
000380 02 25 d2 3e 23 1f 99 be 57 30 7b 3e 0d fa 2e 3e
       0.4104386 -0.29906568 0.24530159 0.17087574
000390 bd 70 9d 3e 85 e4 fc bd 7c 7c 0a bd 23 31 12 3e
       0.30750075 -0.12348274 -0.033810124 0.14276557
0003a0 0b 55 06 bf f9 08 2f be 0c 9a 72 3d 77 50 91 3d
       -0.52473515 -0.17093267 0.05922894 0.070954256
0003b0 9e 03 b3 be 39 e0 81 3c 10 88 91 3c e8 72 56 3e
       -0.34963697 0.015853988 0.017765075 0.20942271
0003c0 89 ce de be 17 16 ca 3e 55 95 07 3d 07 94 4b be
       -0.4351695 0.39469978 0.0331014 -0.19880687
0003d0 d4 0f 93 bd cd 7c 20 3e f1 71 9c 3e ab ea cb bb
       -0.07180753 0.15672608 0.3055568 -0.006223043
0003e0 21 fb c1 3d 0c b4 9c bb bc d4 97 be f9 37 61 be
       0.09471727 -0.0047822054 -0.2965449 -0.21994008
0003f0 7a 06 09 be 04 3c c9 3d e9 37 1c be 1d 13 3b be
       -0.13381377 0.098259 -0.15255703 -0.1826901

network_body._body_endoder.lin_layers.seq_layers.0.bias f4 [216]
000000 c9 99 c1 be d7 30 78 be 98 d6 a0 be 48 e7 9c be
       -0.3781264 -0.24237381 -0.31413722 -0.30645204
000010 64 2c 33 be cc 6f 3b be 8d ef 65 be 0a 0a 7f be
       -0.17497402 -0.18304366 -0.22454663 -0.24906173
000020 ac 1c 72 be 59 8e 9f be f7 16 95 be 4d 1a 79 be
       -0.2364375 -0.3116329 -0.29119083 -0.24326439
000030 02 91 7b be f9 5f 86 be 6f 10 93 be a1 b5 51 be
       -0.24567035 -0.26245096 -0.28723475 -0.20479442
000040 e0 8e 4d be fb 0a 48 be 77 ee 81 be 76 17 1d be
       -0.20074034 -0.19535439 -0.25377247 -0.15340981
000050 29 26 8c be 88 15 88 be 89 d1 85 be 29 fa d9 be
       -0.27372864 -0.26578927 -0.26136425 -0.4257367
000060 38 6e b5 be 5b 2d 76 be c0 20 79 be e6 26 61 be
       -0.35435653 -0.24040739 -0.243289 -0.21987495
000070 a4 d4 53 be 01 7d 18 be e6 7e 3c be 84 1e 90 be
       -0.20686585 -0.14891435 -0.18407783 -0.28148282
000080 9d 62 52 be af 11 12 3e 13 3c 55 be 4e b7 64 be
       -0.2054543 0.14264558 -0.20823698 -0.2233555
000090 5e d4 81 be 3b a7 ba be a2 f8 83 be a5 fa 6e be
       -0.25357336 -0.36455712 -0.2577563 -0.23337801
0000a0 06 16 f7 bd 74 08 2e be 32 e6 01 be 97 13 b2 be
       -0.120647475 -0.16995412 -0.12685469 -0.3478057
0000b0 0f 5c c4 bd 44 34 91 be 77 5c 9e be 49 15 96 be
       -0.09587871 -0.28360188 -0.3092992 -0.29313114
0000c0 b9 7e 82 3e e5 de 44 be af d9 42 be 31 e8 a8 be
       0.25487307 -0.19225653 -0.19028352 -0.32989648
0000d0 16 77 84 be 9f d1 65 be 68 32 53 be 1b 0d c3 be
       -0.25872105 -0.22443245 -0.20624697 -0.38095936
0000e0 e3 0f cf be f1 ff 4e be 7a 91 7e be d6 2b c8 be
       -0.40441808 -0.20214821 -0.24860182 -0.39095944
0000f0 be 70 6c be dd 65 82 be 39 5c 42 be 38 72 9f be
       -0.23089883 -0.2546834 -0.18980493 -0.3114183
000100 2b 4a 20 be 8a 27 99 be 1a cc 98 be 13 c7 f4 bd
       -0.15653293 -0.29912978 -0.29843217 -0.11952033
000110 28 49 79 be 0d 70 9d be 4d 33 2d be a7 a2 c7 bd
       -0.24344313 -0.3074955 -0.16914101 -0.0974782
000120 47 ab 8c be f0 81 7d be 5a da 9d be 54 45 3f be
       -0.27474424 -0.24756598 -0.30830652 -0.1867879
000130 03 c0 9f be 57 61 4f be a9 8b 9e be 24 88 be be
       -0.3120118 -0.20251976 -0.30965927 -0.37213242
000140 a0 06 62 be 41 af 6c be 15 de 76 be df 4d 9a be
       -0.2207284 -0.23113729 -0.24108155 -0.30137536
000150 88 d0 a0 be 3f d1 8c be 0a 60 3e be 9e 18 b7 be
       -0.31409097 -0.27503392 -0.18591323 -0.3576097
000160 36 71 cd be f6 78 43 be 3d 61 f9 bc aa d9 4e be
       -0.40125436 -0.19089112 -0.030441875 -0.2020022
000170 40 f5 4e be f7 d8 a5 be b1 98 13 be de bd 33 be
       -0.20210743 -0.32392094 -0.14413716 -0.17552897
000180 43 f2 bc be ed a1 32 be be a1 7b be d2 16 6c be
       -0.3690358 -0.17444582 -0.24573418 -0.2305558
000190 34 55 b8 be 53 33 89 be 2c 4c be be 09 b4 99 be
       -0.36002505 -0.2679697 -0.3716749 -0.30020168
0001a0 54 6b 71 be b3 27 53 be 86 9f 66 be 9b 22 8d be
       -0.23576099 -0.20620613 -0.22521791 -0.27565464
0001b0 0c 14 d5 be 58 10 90 be db 48 a7 be 5c 87 11 be
       -0.41616857 -0.2813747 -0.32672772 -0.14211792
0001c0 1a f4 31 be d6 c0 0b be 67 16 54 be c5 6e 7f be
       -0.17378274 -0.1364778 -0.20711671 -0.24944599
0001d0 0a e3 b2 be 40 4d 96 be 17 84 92 be 1b fb 83 be
       -0.34938842 -0.29355812 -0.28616402 -0.25777516
0001e0 96 58 9e be 48 e0 79 be e8 8a 83 be 2c 1a ed bd
       -0.3092696 -0.24401963 -0.25691915 -0.115772575
0001f0 2e 36 83 be 09 1b 3c be 62 5c 90 be 89 fc a9 be
       -0.25627273 -0.18369688 -0.28195482 -0.33200482
000200 92 12 4b be 50 e3 9d be 19 82 81 be dd ea 81 be
       -0.19831303 -0.30837488 -0.2529457 -0.253745
000210 e7 29 34 be 26 95 91 be 43 94 24 bd 92 9b 8d be
       -0.1759411 -0.28434104 -0.040180456 -0.27657753
000220 cf 03 24 be 9d 6a 8a be 97 6a 17 be 4c 9c 51 be
       -0.16017078 -0.27034464 -0.14786755 -0.20469779
000230 3f 8f 66 be f8 55 b8 be a4 73 66 be 0a ce 81 be
       -0.22515582 -0.3600309 -0.22505051 -0.25352508
000240 40 fa a4 be 20 ff 9c be 3c bf 3b be c6 27 81 be
       -0.32222176 -0.30663395 -0.18334669 -0.25225657
000250 21 39 b6 be 7b e6 85 be 44 00 42 be 2a ad 3f be
       -0.3559046 -0.26152405 -0.18945414 -0.187184
000260 ba b8 27 be 0d 64 ab be b3 95 bc be 57 11 13 be
       -0.16379061 -0.3347477 -0.3683296 -0.14362083
000270 1b 0d 84 be c0 d1 b7 be ea be 6a be 36 29 63 be
       -0.2579125 -0.35902214 -0.2292439 -0.2218369
000280 f2 9d a4 be 33 e6 47 be 1c c5 9b be cb 7c bb be
       -0.32151753 -0.19521408 -0.3042382 -0.36618647
000290 06 a4 95 be 00 58 81 be 37 a0 9d be 47 56 c5 be
       -0.29226702 -0.2526245 -0.30786297 -0.38542387
0002a0 fb 75 af be 9b 99 83 be 5b 14 75 be 0c 15 bc be
       -0.342697 -0.2570313 -0.23933546 -0.36734807
0002b0 3b c0 54 be 49 74 8b be 71 6f 43 be 7e af a8 be
       -0.20776455 -0.27237156 -0.1908548 -0.3294639
0002c0 e5 e2 58 be d3 8b ee be 73 81 87 be 68 90 a2 be
       -0.21180303 -0.46591052 -0.2646595 -0.31750798
0002d0 4e 9b 8a be a1 9b b3 be 2e f6 72 be 6b e1 9e be
       -0.27071613 -0.35079673 -0.23726723 -0.31031355
0002e0 26 07 41 be 6a d2 63 be 2c 2c dc bd 0c 9c 7e be
       -0.18850383 -0.22248235 -0.107506126 -0.24864215
0002f0 1e f3 7f be 47 da 7b be 87 f9 8b be 8c 06 93 be
       -0.24995086 -0.24594985 -0.27338812 -0.28715932
000300 86 ff cf be b8 a2 64 be 9d 52 c1 be d3 cd 9b be
       -0.40624636 -0.22327697 -0.3775834 -0.3043047
000310 f9 dd 8f be ad 99 cc be 28 7d 43 be 20 ea 32 be
       -0.2809904 -0.39960995 -0.19090712 -0.17472124
000320 71 e7 b7 be 7a 5b c8 be b7 8c 16 be 5e 82 3c be
       -0.35918763 -0.3913229 -0.14702116 -0.18409106
000330 65 3d 92 be 68 68 2a be a4 05 53 be 83 63 8b be
       -0.28562465 -0.1664139 -0.2060762 -0.2722436
000340 f2 80 ce be d6 9e ae be db e4 71 be 26 af 2e be
       -0.40332752 -0.34105557 -0.23622458 -0.17059001
000350 bf cd 7e be cc 1b 37 be 1b ae 9a be 30 2b c2 be
       -0.24883173 -0.17881697 -0.30210957 -0.37923574
