Assets/oon/05-27.onnx (onnx, 785338 bytes, 39 tensors)

network_body.observation_encoder.processors.0.fc.seq_layers.0.weight f4 [22, 22]
0	0xbe31198d	-0.17294903
1	0xbe825705	-0.25457016
2	0xbe5065fa	-0.20351401
3	0x3e172ab0	0.14762378
4	0x3d0bdb1d	0.03414451
5	0xbeb94421	-0.3618479
6	0x3e552c83	0.20817761
7	0xbef614bb	-0.4806269
8	0x3f00b983	0.5028307
9	0xbea005a8	-0.31254315
10	0xbddc1116	-0.107454464
11	0x3e0c92a9	0.13727821
12	0xbe2d5b47	-0.16929351
13	0x3d61430e	0.05499559
14	0xbd9b5dc4	-0.07586244
15	0x3e895013	0.26818904
16	0x3e2ce96d	0.1688592
17	0xbea23e66	-0.3168823
18	0x3dacee26	0.08443861
19	0x3e2f611d	0.1712689
20	0xbe42ffcb	-0.1904289
21	0x3e99984c	0.29999006
22	0xbe8ff879	-0.28119257
23	0x3e98baf3	0.2983013
24	0x3d77e81b	0.060524087
25	0xbe2644a6	-0.16237125
26	0xbc8e61c4	-0.017380603
27	0xbe889e49	-0.26683262
28	0x3e063d4b	0.13109319
29	0xbe1139e6	-0.14182243
30	0xbea306bc	-0.31841075
31	0xbe4afedb	-0.19823782
32	0xbe437f62	-0.19091561
33	0x3e46ba7b	0.19407074
34	0xbd81ed1f	-0.063440554
35	0x3e9fd063	0.31213674
36	0xbe8aa3ef	-0.27078196
37	0x3d874768	0.066054165
38	0x3e67f564	0.22652203
39	0x3e1a2fe1	0.15057327
40	0x3e099688	0.1343633
41	0x3e7444ee	0.2385442
42	0x3e37ab84	0.17936522
43	0x3e5f1ba7	0.21787892
44	0xbda46816	-0.08027665
45	0x3df7b5be	0.120952114
46	0xbe2b6f6d	-0.16741724
47	0x3e992a50	0.29915094
48	0x3e49d951	0.19711806
49	0x3ec0d3e5	0.37661663
50	0x3de6afad	0.11263976
51	0xbe6b90dc	-0.23004478
52	0x3e2d79d2	0.16941002
53	0xbda92a9d	-0.08260081
54	0xbc779e03	-0.0151133565
55	0xbee5ad1f	-0.44858643
56	0x3e1af286	0.15131578
57	0xbe80c1bf	-0.25147817
58	0xbd0d5503	-0.0345049
59	0x3dc8526e	0.09781347
60	0xbdff0d2a	-0.12453683
61	0xbe0c87ba	-0.1372365
62	0xbda5e91b	-0.08101102
63	0xbdef06cf	-0.116712205
64	0x3ec792f1	0.38979295
65	0xbe3c8afc	-0.18412393
66	0x3e4d56e1	0.20052673
67	0xbde829f7	-0.11336129
68	0xbe90ff6c	-0.2831987
69	0x3ec04fc5	0.3756086
70	0xbd8487b9	-0.064711995
71	0xbe7fcff5	-0.24981673
72	0x3d2a4ccc	0.041577145
73	0x3c82db0f	0.015973596
74	0x3e4a2b2f	0.19743036
75	0xbb989d66	-0.004657435
76	0xbe115a62	-0.14194635
77	0xbdad0102	-0.08447458
78	0x3d667330	0.056262195
79	0x3bd34586	0.006447497
80	0xbd1c038f	-0.03808933
81	0xbea24526	-0.3169338
82	0xbdfc0f68	-0.12307626
83	0xbe3922e9	-0.18079723
84	0xbe650362	-0.22364572
85	0x3d41b1f9	0.04728887
86	0x3cb2864c	0.021792553
87	0x3e46fb80	0.19431877
88	0xbcd748df	-0.026279865
89	0xbecbbc70	-0.39792204
90	0xbc39661b	-0.011315848
91	0x3ea46ccb	0.32114252
92	0xbdefdcda	-0.11712046
93	0xbb962956	-0.0045825643
94	0xbd13023d	-0.035890806
95	0xbe89608f	-0.2683148
96	0x3ebfb739	0.37444475
97	0x3d1857c5	0.03719308
98	0x3e87a7e4	0.26495278
99	0x3dd61b89	0.10454471
100	0x3caccda5	0.021094153
101	0xbe675142	-0.22589591
102	0x3bc386e8	0.00596701
103	0x3d1ec668	0.038763434
104	0x3e3d8cb4	0.18510705
105	0xbe95386b	-0.29144606
106	0x3e0220b4	0.12707788
107	0xbe28da68	-0.16489565
108	0x3edb7545	0.42862907
109	0xbe118459	-0.14210643
110	0x3eef6956	0.46760052
111	0x3d8be169	0.06830103
112	0x3e44a191	0.19202258
113	0x3d995196	0.074862644
114	0xbd17ace0	-0.0370301
115	0xbe145804	-0.144867
116	0xbd8d13cc	-0.068885416
117	0x3d2c09e5	0.042001624
118	0x3e4ec437	0.20192038
119	0xbbd38214	-0.0064547155
120	0xbdc66eee	-0.09689127
121	0x3c82767a	0.015925635
122	0xbe3fc928	-0.18729079
123	0xbe774078	-0.24145687
124	0x3e2c61c9	0.16834177
125	0x3d1743f8	0.036930054
126	0x3e7c91e2	0.24665025
127	0x3e8f7dfa	0.280258
128	0x3d1b5d71	0.03793091
129	0xbcf4d160	-0.029884994
130	0x3e083cf9	0.13304509
131	0x3e6a3466	0.22871551
132	0x3e3bc139	0.18335427
133	0xbe88e3e1	-0.26736358
134	0xbe38f107	-0.18060695
135	0x3e19955e	0.14998385
136	0xbe61f645	-0.220666
137	0xbe96e66c	-0.29472673
138	0xbe1b6a0e	-0.15177175
139	0xbd9bc263	-0.07605436
140	0x3ebe9724	0.37224686
141	0x3dbd8518	0.09253901
142	0x3cd0c042	0.0254823
143	0xbe274550	-0.16335034
144	0xbe85b32f	-0.2611327
145	0xbe818915	-0.25299898
146	0x3e1e1e58	0.15441263
147	0x3e53db7f	0.206892
148	0x3e77380f	0.24142478
149	0x3c699bd5	0.014258345
150	0xbe33d8b7	-0.17563139
151	0x3d9368d9	0.071977325
152	0x3eb99ef6	0.3625409
153	0x3e612939	0.21988381
154	0x3e48b0df	0.19598721
155	0xbdc41fa4	-0.095763475
156	0x3e12a7e2	0.14321855
157	0x3cf5c38e	0.030000474
158	0x3ec965f5	0.393356
159	0xbf0dbaaf	-0.5536298
160	0x3e8d2595	0.27567735
161	0xbe38095b	-0.17972319
162	0x3d69dbc0	0.057094336
163	0xbef55a67	-0.47920534
164	0x3e84a98c	0.25910604
165	0xbe8610b0	-0.26184607
166	0xbee3b867	-0.44476625
167	0x3eb5c38f	0.35500762
168	0x3ed94b6f	0.42440364
169	0x3c1faca4	0.009745751
170	0xbe208585	-0.15675934
171	0x3d323f2a	0.04351727
172	0x3dbe1d25	0.09282903
173	0x3e951d34	0.29123843
174	0x3d4646fb	0.048407536
175	0x3daf1988	0.085497916
176	0xbe06946b	-0.13142554
177	0x3e1c09fc	0.15238184
178	0xbe1e37b8	-0.15450943
179	0xbe64d564	-0.22347027
180	0xbea31791	-0.31853917
181	0xbc11052f	-0.0088513335
182	0xbd9cc721	-0.07655168
183	0x3d2f3b12	0.042780943
184	0xbe0405d4	-0.12892848
185	0xbe0ee14a	-0.13953128
186	0x3ebf30a4	0.37341797
187	0xbd344d05	-0.044018764
188	0xbd715bf5	-0.058925588
189	0xbe9413c9	-0.28921345
190	0xbea93a5f	-0.33052346
191	0xbe245593	-0.16048269
192	0xbe1b280f	-0.15152
193	0xbec142fc	-0.37746418
194	0xbec33ead	-0.38133755
195	0x3df09c8d	0.1174861
196	0x3d724d38	0.059155673
197	0xbd81b049	-0.06332452
198	0x3de38fea	0.11111434
199	0xbe9f473f	-0.31109044
200	0x3da47eea	0.080320194
201	0x3de52317	0.111883335
202	0xbe649b6b	-0.22324912
203	0xbf15ac5c	-0.58466125
204	0x3e1235d5	0.14278348
205	0x3eec02e0	0.46095943
206	0x3db33d01	0.0875187
207	0x3e4f42d8	0.20240343
208	0xbdf4a749	-0.119459696
209	0x3cafc008	0.021453872
210	0xbe79efaa	-0.24407831
211	0xbd7a3b86	-0.061091922
212	0xbddfdc27	-0.109306626
213	0x3e1be009	0.15222181
214	0x3d8abb69	0.06774027
215	0x3b38c836	0.0028195507
216	0x3d1f6015	0.03890999
217	0xbeb249ee	-0.3482203
218	0xbd16f73b	-0.03685687
219	0xbe8b1664	-0.2716552
220	0x3d2d444f	0.042301472
221	0xbe3078b7	-0.17233549
222	0x3e3da4d4	0.18519908
223	0xbdf33e86	-0.1187716
224	0xbb84011d	-0.004028453
225	0x3b49a229	0.003076682
226	0x3e2a4ca6	0.16630802
227	0x3e76e16f	0.24109434
228	0x3eac7e77	0.33690235
229	0xbc1c96a3	-0.009557399
230	0xbe5fcc3d	-0.21855254
231	0x3ea0777f	0.31341168
232	0x3ef2c69b	0.4741715
233	0x3d136b90	0.03599125
234	0x3e35c65a	0.17751446
235	0xbeab3b81	-0.33443835
236	0x3e90c480	0.28274918
237	0xbc1bdb0a	-0.009512672
238	0xbddc8e2b	-0.10769304
239	0x3e0d44d7	0.13795792
240	0x3c26f4e7	0.010190225
241	0xbe6502f3	-0.22364406
242	0xbf03d4d1	-0.5149661
243	0xbccf0a21	-0.025273385
244	0xbe96bf22	-0.29442698
245	0xbe702567	-0.23451768
246	0x3df2bcb9	0.11852402
247	0x3d32a3c9	0.04361323
248	0xbe2d7dde	-0.16942546
249	0xbe0337fe	-0.12814328
250	0xbdb6759c	-0.08909151
251	0x3e806163	0.250743
252	0x3eb89dcb	0.36057886
253	0x3d4b6e90	0.049665987
254	0x3df04684	0.117322
255	0x3e8a459e	0.2700624

network_body.observation_encoder.processors.0.fc.seq_layers.0.bias f4 [22]
0	0x3b3703cd	0.002792585
1	0xbb4f1e0a	-0.0031603598
2	0x3bfa2856	0.007634203
3	0xbc57d968	-0.013174392
4	0xbc0c8d54	-0.008578617
5	0xbc04e3d4	-0.008110959
6	0x3c34f450	0.011044577
7	0x3c5dc2f6	0.013535252
8	0x3c91304f	0.01772323
9	0x3c9874fa	0.018610466
10	0x3ba2483c	0.0049524587
11	0x3c2aed85	0.010432606
12	0xbd2d4b6d	-0.04230826
13	0xb9913fd4	-0.0002770411
14	0x3c00b080	0.007854581
15	0xbc3bcc40	-0.011462271
16	0xbbd64b9a	-0.006539774
17	0x3c9bd000	0.01902008
18	0x3c2b89bb	0.010469849
19	0x3cdde0c0	0.027084708
20	0x3c9c6767	0.019092275
21	0xbccddde3	-0.025130218

network_body.observation_encoder.processors.0.fc.seq_layers.2.weight f4 [22, 22]
0	0x3d8e57de	0.06950353
1	0xbe2d01c4	-0.16895205
2	0xbe278438	-0.16359031
3	0x3c4b46ae	0.012406988
4	0x3e3cf90f	0.18454383
5	0xbd54efe6	-0.051986597
6	0x3c2b9535	0.010472585
7	0x3d39a108	0.045319587
8	0xbdfb9dda	-0.12285967
9	0xbe17b05a	-0.14813367
10	0xbdf6a370	-0.12042892
11	0xbe49ab98	-0.19694364
12	0x3e6dd184	0.23224455
13	0xbdc9ff49	-0.09863145
14	0x3d3d1a2b	0.046167534
15	0xbe74e691	-0.23916079
16	0xbdda1e6d	-0.106503345
17	0x3ba08c7e	0.0048995605
18	0xbd26ad7c	-0.04069279
19	0x3da4e3e8	0.08051282
20	0xbe327c8a	-0.1743032
21	0x3d20aa8f	0.039225157
22	0xbda3b6a5	-0.07993821
23	0x3e99feb2	0.3007713
24	0xbcee97c2	-0.029125098
25	0xbed79e34	-0.42112887
26	0xbe87c719	-0.26519087
27	0x3e26d754	0.16293079
28	0x3b2083ff	0.0024492738
29	0x390df73f	0.00013538914
30	0x3e9a06f6	0.30083436
31	0x3c34fb60	0.011046261
32	0x3b79a1bb	0.0038090784
33	0xbe6e736f	-0.23286222
34	0xbd2674f6	-0.040638886
35	0xbe04c2a3	-0.12964873
36	0x3ef52034	0.47876132
37	0x3e0d5a1f	0.1380391
38	0x3d729dab	0.059232395
39	0x3e838a46	0.25691432
40	0xbe943bd5	-0.28951898
41	0x3e0ce6c3	0.13759904
42	0x3e71c0d4	0.23608714
43	0xbe9a5ee0	-0.3015051
44	0x3e2fc7bf	0.17166041
45	0xbe8f7f91	-0.28027013
46	0xbd783c0f	-0.06060415
47	0xbe1aacc8	-0.15104973
48	0x3dd9e956	0.106402084
49	0x3d524977	0.051339593
50	0x3e13adf7	0.14421831
51	0xbddfb02e	-0.109222755
52	0x3cd3abdc	0.025838785
53	0x3e26c8ed	0.16287585
54	0x39abc8e9	0.0003276535
55	0xbe9cb17f	-0.3060417
56	0xbde9a517	-0.114084415
57	0x3e4d76ca	0.20064846
58	0xbe4fe43a	-0.20301905
59	0x3d57cf72	0.05268807
60	0x3edb7417	0.42862007
61	0x3e307dc6	0.17235479
62	0x3e42b957	0.19016014
63	0xbe8aa684	-0.27080166
64	0xbde2644b	-0.110542856
65	0xbdafb618	-0.085796535
66	0xbebdd233	-0.37074432
67	0x3e9d6b0e	0.3074574
68	0x3d060dcd	0.032728005
69	0xbe5675a4	-0.20943314
70	0x3ddf90e4	0.109163076
71	0xbb015aa3	-0.0019737862
72	0x3f0b8344	0.5449717
73	0x3e7cb5ba	0.24678698
74	0x3e264cf8	0.16240299
75	0xbdd21ce6	-0.10259418
76	0xbe59195c	-0.2120108
77	0xbd0f8da0	-0.035047174
78	0xbea1807f	-0.31543347
79	0xbdc5e9f6	-0.09663765
80	0x3e395f9f	0.18102883
81	0x3dd5d9e0	0.10441947
82	0xbeb99338	-0.36245131
83	0x3e4a7b4e	0.197736
84	0xbdd545a4	-0.104136735
85	0xbeaf961b	-0.3429421
86	0x3e561c92	0.20909336
87	0xbe6b4bf2	-0.2297819
88	0xbe3c3610	-0.18379998
89	0x3e001630	0.12508464
90	0xbe4cf1fc	-0.20014185
91	0x3e9206f1	0.2852092
92	0xbe3e9d8c	-0.18614787
93	0xbdefa413	-0.117012165
94	0x3e446462	0.19178918
95	0x3c814cb9	0.015783655
96	0x3d6fcab5	0.058542926
97	0x3c8d3a5a	0.017239738
98	0x3dc192ca	0.09451826
99	0x3e907f86	0.28222293
100	0xbe377ed4	-0.17919475
101	0x3d0b3e97	0.033995237
102	0x3e2dd26f	0.16974805
103	0x3f10a1d3	0.56496924
104	0x3df43c6d	0.11925588
105	0xbd881cee	-0.06646143
106	0xbd712b98	-0.058879465
107	0x3d266b8a	0.0406299
108	0x3dfe1236	0.12405817
109	0xbe31c146	-0.17358884
110	0xbcf4e336	-0.029893499
111	0xbeae2ba2	-0.34017664
112	0x3e29e44c	0.16590995
113	0x3ddffd4e	0.10936986
114	0xbe919849	-0.28436497
115	0xbe7f4928	-0.2493025
116	0xbd44c913	-0.04804332
117	0xbdad6067	-0.08465653
118	0x3eb76e98	0.35826564
119	0xbe2d68e2	-0.16934541
120	0xbd72291e	-0.059121244
121	0xbe1a5a7c	-0.1507358
122	0x3ee03eb9	0.43797854
123	0xbe94c4a8	-0.29056287
124	0xbed550fc	-0.4166335
125	0xbe78f844	-0.24313456
126	0x3ea248a1	0.31696036
127	0xbe069b0e	-0.13145086
128	0xbe5ef015	-0.21771272
129	0xbdd2fc3a	-0.10302015
130	0x3ec21084	0.37903225
131	0x3eb9806b	0.36230788
132	0xbcdb357b	-0.0267589
133	0xbd43e810	-0.047828734
134	0x3ded1dc0	0.1157794
135	0x3e2dffec	0.16992158
136	0x3c9cd72b	0.019145569
137	0xbca64ab6	-0.020299297
138	0xbcc99b7c	-0.024610274
139	0xbecfed92	-0.4061094
140	0x3df4c602	0.119518295
141	0x3e071aa9	0.13193764
142	0x3d18a191	0.037263457
143	0x3d54ad19	0.05192289
144	0xbe38de95	-0.18053658
145	0x3b33f9c2	0.00274621
146	0xbdd05160	-0.10171771
147	0x3db1493b	0.08656546
148	0x3e678531	0.22609402
149	0xbe51c920	-0.2048688
150	0x3e5494ee	0.20759937
151	0xbd34dd4c	-0.044156358
152	0xbdd5c6ae	-0.10438286
153	0x3c73dd62	0.014884325
154	0x3eee0e4f	0.46495292
155	0x3d6781b2	0.05652017
156	0x3df36ad2	0.11885609
157	0x3db807ac	0.08985838
158	0xbe722976	-0.23648629
159	0xbe50dd22	-0.20396855
160	0x3e1022cc	0.14075774
161	0x3f0798cd	0.5296753
162	0x3ce96561	0.028490724
163	0x3e077ba3	0.13230757
164	0x3dd340c1	0.10315085
165	0x3e607391	0.21919085
166	0xbe3c78d6	-0.1840547
167	0xbee02315	-0.43776765
168	0xbe49b3a9	-0.19697441
169	0xbd40ffeb	-0.047119062
170	0x3e525bc2	0.20542815
171	0xbdc56785	-0.096388854
172	0x3ea70a9c	0.32625282
173	0xbdd2018f	-0.102542035
174	0x3e37ac48	0.17936814
175	0x3e966d94	0.29380476
176	0xbe878a8a	-0.26472884
177	0xbdd8dd29	-0.10589058
178	0xbe0c0ab9	-0.13675965
179	0x3f140c28	0.5783105
180	0xbc0e19e6	-0.008673167
181	0x3eef130c	0.4669422
182	0x3db5bd4c	0.08873996
183	0xbe5666f5	-0.20937712
184	0x3eaf082a	0.34185916
185	0x3d792694	0.060827807
186	0x3ce0c09d	0.027435595
187	0xbddceac5	-0.10786966
188	0xbe315211	-0.17316462
189	0xbecdcad1	-0.401938
190	0xbd8f398d	-0.06993399
191	0xbe17d133	-0.14825897
192	0xbdea3bf7	-0.11437219
193	0x3b65589e	0.0034995447
194	0x3e8a575e	0.2701978
195	0xbd82a8d4	-0.06379858
196	0x3e5fbba9	0.2184893
197	0xbe9a35a7	-0.30119058
198	0xbdee4694	-0.116345555
199	0xbe0b4388	-0.1359998
200	0xbe45b693	-0.19307928
201	0xbe2fff93	-0.17187338
202	0xbebefa51	-0.3730035
203	0xbdddd84f	-0.10832273
204	0xbe679c3a	-0.2261819
205	0x3e567a95	0.20945199
206	0x3e2fb5cf	0.17159198
207	0x3e960e89	0.29307964
208	0x3e3c675d	0.18398805
209	0xbd24a735	-0.040198524
210	0x3ec450a0	0.38342762
211	0xbec5c158	-0.38624072
212	0xbd6f99d0	-0.058496296
213	0x3d0b7788	0.03404954
214	0x3e288311	0.16456248
215	0xbe0a19f4	-0.13486463
216	0xbee3db11	-0.44503072
217	0x3d02327b	0.031786423
218	0xbe44b5e5	-0.19210012
219	0xbedc9a7a	-0.43086606
220	0x3e54873d	0.20754714
221	0x3da48847	0.08033805
222	0x3d1b3db3	0.037900638
223	0x3b2833da	0.0025665672
224	0xbe437e5b	-0.1909117
225	0xbaa21a87	-0.0012367525
226	0x3eb4ffd7	0.3535144
227	0x3d2be155	0.04196294
228	0x3d28b8c0	0.041191816
229	0x3ebce674	0.36894572
230	0x3eb55e6b	0.35423598
231	0x3e98a9c2	0.29817015
232	0xbea01ddd	-0.31272784
233	0xbdd8e282	-0.10590078
234	0xbc140da4	-0.009036455
235	0x3e972e0b	0.29527315
236	0x3ef21a40	0.47285652
237	0xbd5da5a6	-0.054113053
238	0x3e5345f8	0.2063216
239	0x3f006d27	0.50166553
240	0xbe70c4fb	-0.23512642
241	0x3e3fae83	0.18718915
242	0x3ccc5ebc	0.024947517
243	0x3d1c14b6	0.03810569
244	0xbdae460a	-0.08509453
245	0x3eef51f9	0.46742228
246	0x3e36d063	0.1785293
247	0x3e9cb253	0.306048
248	0x3e3646b3	0.17800407
249	0xbdc51b7f	-0.09624385
250	0x3d9ed588	0.077555716
251	0xbe93eae0	-0.28890133
252	0xbdd3910b	-0.10330399
253	0xbe1a74bc	-0.15083593
254	0xbe2c04c9	-0.167987
255	0xbe506534	-0.20351106

network_body.observation_encoder.processors.0.fc.seq_layers.2.bias f4 [22]
0	0xbc435ca8	-0.011923946
1	0xba47c9c9	-0.0007621316
2	0x3badf79c	0.0053090584
3	0x3be5fbf7	0.007018562
4	0x3c1b711f	0.009487419
5	0xbc995e2a	-0.018721659
6	0x3caaaff9	0.020835863
7	0xbb7c6253	-0.0038510754
8	0x3c4d4269	0.01252804
9	0xbcd09f83	-0.025466686
10	0x3c85da9f	0.016339598
11	0xbcf06e6a	-0.029349525
12	0x3acde2b1	0.0015707818
13	0xbc96ee3a	-0.018424142
14	0xbb3e3caf	-0.002902787
15	0x3bf54894	0.0074854586
16	0xbba58f1a	-0.0050524594
17	0xbb4d5269	-0.0031329638
18	0x3c034036	0.008010915
19	0x3b6af5cc	0.0035852073
20	0x3bc786b2	0.006089055
21	0x3af76ee1	0.0018877649

network_body.observation_encoder.processors.1.fc.seq_layers.0.weight f4 [22, 22]
0	0x3e0acbf3	0.13554363
1	0x3caf1ad6	0.021375101
2	0x3ec8af43	0.39196214
3	0xbec5a426	-0.38601798
4	0x3dc74455	0.0972983
5	0xbcaf2d03	-0.021383768
6	0x3d602767	0.054725077
7	0xbdc5e4d8	-0.09662789
8	0x3e03097b	0.12796585
9	0xbc1612f8	-0.009159796
10	0xbe2fd795	-0.17172082
11	0x3e283624	0.16426903
12	0xbe6bc724	-0.23025185
13	0x3d7fc91e	0.06244766
14	0x3e5dcf12	0.21661022
15	0x3e0a3e84	0.1350041
16	0x3df1884f	0.11793577
17	0xbe749edf	-0.2388873
18	0xbddc04d1	-0.10743106
19	0xbe60713a	-0.21918193
20	0xbe1a4690	-0.1506598
21	0xbe31db02	-0.17368701
22	0xbee154ff	-0.4401016
23	0xbda47b93	-0.080313824
24	0x3e2432ff	0.16035078
25	0xbe47ffe2	-0.19531205
26	0x3f092a61	0.5358029
27	0xbe702803	-0.23452763
28	0xbe907cc4	-0.2822019
29	0x3d227029	0.039657746
30	0xbf1825dc	-0.5943277
31	0xbd4b51a1	-0.049638394
32	0xbcf5b180	-0.029991865
33	0x3eba07ca	0.36334068
34	0xbd075bb8	-0.033046454
35	0x3b5927ee	0.0033135372
36	0x3e74d139	0.23907937
37	0x3e86a5f5	0.2629849
38	0xbe4a4e2c	-0.19756383
39	0xbd32bd07	-0.0436373
40	0x3d8d5f33	0.069029234
41	0xbd2836f7	-0.041068044
42	0xbc37a4cf	-0.011208727
43	0xbe51747d	-0.20454593
44	0xbe277e58	-0.1635679
45	0x3dca42a3	0.09875991
46	0xbe3a57cb	-0.18197553
47	0x3e90509c	0.281865
48	0x3e9f38ca	0.31098014
49	0xbd8613ea	-0.06546767
50	0x3e76952f	0.24080347
51	0x3bc6fbb3	0.0060724854
52	0xbde255fb	-0.11051556
53	0xbe2a1a33	-0.16611557
54	0xbc3e8dd3	-0.011630493
55	0x3e9c8ef8	0.30577826
56	0xbe90a7f1	-0.2825313
57	0xbd963058	-0.073334396
58	0xbe043df7	-0.12914263
59	0x3e1b01bf	0.15137385
60	0xbe368875	-0.17825492
61	0xbe6ce391	-0.23133685
62	0x3f025009	0.50903374
63	0xbe2735ba	-0.16329089
64	0xbde15fed	-0.110046245
65	0x3e8fd85d	0.2809476
66	0xbc934a5e	-0.017979797
67	0x3e10eec7	0.14153586
68	0xbe97202f	-0.29516742
69	0x3d069d1c	0.032864675
70	0xbcf7d8ca	-0.03025474
71	0x3ea72a0f	0.32649276
72	0xbedff8b8	-0.43744445
73	0x3e279e69	0.16369022
74	0xbecd9ba3	-0.40157804
75	0x3b1b3520	0.0023682788
76	0x3ecd21ae	0.40064758
77	0x3ec7104f	0.3887963
78	0x3e0dda67	0.13852845
79	0xbdc1513a	-0.09439321
80	0xbcdf73d2	-0.027276907
81	0xbe6d0acc	-0.2314865
82	0x3e6f51ed	0.23371096
83	0xbd6aff1c	-0.057372198
84	0xbe86fd42	-0.26365095
85	0xbe54c217	-0.20777164
86	0xbe63b339	-0.22236337
87	0x3e0708fd	0.13187023
88	0x3e543254	0.20722324
89	0xbe866465	-0.2624847
90	0x3e6ddf37	0.23229681
91	0x3e23bb5f	0.15989445
92	0x3d48074b	0.04883508
93	0x3d05c6d9	0.03266034
94	0x3eac75b9	0.33683565
95	0x3ef2bde7	0.4741051
96	0x3d969768	0.07353097
97	0x3e88bd2c	0.26706827
98	0x3e981b9f	0.29708573
99	0x3d379de1	0.0448283
100	0x3dfccf0b	0.12344178
101	0xbe585aaa	-0.21128336
102	0xbd72a6ec	-0.05924122
103	0xbe4b8950	-0.198766
104	0x3deb66fe	0.114942536
105	0x3d39f7b2	0.045402236
106	0xbe5872a3	-0.2113748
107	0xbda63d9a	-0.08117218
108	0xbe0aa1fc	-0.13538355
109	0xbd8a2a47	-0.06746345
110	0xbec4245e	-0.38308996
111	0xbf40884a	-0.7520796
112	0xbe2e94b4	-0.17048913
113	0xbd6155bb	-0.0550134
114	0xbe213c5c	-0.15745682
115	0x3e06f0b2	0.13177755
116	0x3d452593	0.048131537
117	0xbe8a491f	-0.27008912
118	0xbec6d37a	-0.3883322
119	0xbbcb5159	-0.0062047658
120	0xbd57e21b	-0.052705865
121	0x3d124193	0.035707068
122	0xbe02a3c1	-0.1275778
123	0xbe8d8f54	-0.27648413
124	0xbe7b6713	-0.24551038
125	0xbe7eb79e	-0.24874732
126	0xbddcbed1	-0.10778583
127	0xbe22088c	-0.15823573
128	0xbe8e11d3	-0.27747974
129	0x3ebf0347	0.37307188
130	0xbe1ab4c2	-0.15108016
131	0xbe4ed3a3	-0.2019792
132	0x3c3a9c01	0.011389733
133	0xbd9d1873	-0.07670679
134	0xbeb7c7a2	-0.35894495
135	0x3cf147fa	0.029453266
136	0xbce7ce7c	-0.028296702
137	0x3e2d3250	0.16913724
138	0x3e4edac2	0.20200637
139	0xbe8d17e8	-0.27557302
140	0xbd6bdc96	-0.057583414
141	0xbe02dbeb	-0.12779205
142	0x3e085f56	0.13317618
143	0x3e171bf3	0.14756756
144	0x3f0dc9a0	0.5538578
145	0xbe94feec	-0.2910074
146	0x3d8eebfc	0.06978604
147	0x3e6324ac	0.22181958
148	0x3eb7d512	0.35904747
149	0xbef1b3bb	-0.47207436
150	0x3e13a282	0.1441746
151	0x3d9f5da0	0.077815294
152	0x3e6f43a1	0.23365642
153	0x3d480afc	0.0488386
154	0x3dbc9988	0.09208971
155	0x3e49f8c7	0.19723807
156	0xbc878edb	-0.016547611
157	0x3d33b9ed	0.043878485
158	0xbd635a05	-0.05550577
159	0xbd014c3f	-0.031566855
160	0xbdf18277	-0.11792462
161	0x3d2c4478	0.042057484
162	0x3e8eac4f	0.27865836
163	0xbc3f5d4f	-0.011679961
164	0xbd39d242	-0.045366533
165	0xbcd2b8e4	-0.025722928
166	0xbeef48ca	-0.4673522
167	0xbe048dff	-0.12944792
168	0x3e80df0c	0.2517017
169	0xbe9c5b32	-0.30538327
170	0xbd1580fd	-0.036499966
171	0xbc38b31c	-0.011273172
172	0xbcee5011	-0.029090913
173	0xbd8d687f	-0.06904697
174	0x3d39a3bf	0.045322176
175	0x3dec9c9b	0.115533076
176	0x3d8ace81	0.06777669
177	0xbd6c5ad7	-0.05770382
178	0x3e543961	0.20725013
179	0xbe784623	-0.24245505
180	0xbe86b234	-0.26307833
181	0x3d912cb8	0.070886075
182	0xbe1a2789	-0.15054144
183	0x3c0f3c88	0.008742459
184	0x3bdb45d1	0.0066916724
185	0xbc8ce49c	-0.017198853
186	0xbdc0e78a	-0.094191626
187	0x3ecc0f53	0.3985544
188	0xbe60f2ef	-0.21967672
189	0x3ca17f70	0.019714087
190	0x3ed74bd3	0.42050037
191	0x3dd239b8	0.10264915
192	0xbebf3fe8	-0.37353444
193	0xbe6fd4ec	-0.23421067
194	0x3e3a82e5	0.18213995
195	0xbd8cab09	-0.0686856
196	0xbe3ecf1e	-0.18633696
197	0xbe92b855	-0.2865626
198	0x3d1a1603	0.03761865
199	0xbe3cd1b6	-0.18439373
200	0x3e24de47	0.16100417
201	0xbd9a24dc	-0.075265616
202	0xbd64a0b7	-0.055817332
203	0xbe6eb5ba	-0.2331151
204	0xbcd3b077	-0.025840981
205	0x3dd229a8	0.102618515
206	0x3dd19a12	0.10234465
207	0xbe8a12a4	-0.26967347
208	0x3bf9a3fa	0.0076184245
209	0xbe9471e6	-0.28993148
210	0x3db77445	0.089577235
211	0xbe2e3079	-0.17010678
212	0xbcd9e647	-0.026599063
213	0x3d2c05b9	0.041997645
214	0x3d986ad8	0.07442254
215	0x3d44f6f0	0.04808706
216	0x3db54296	0.08850591
217	0x3edec907	0.43512747
218	0xbdde62b5	-0.108586706
219	0x3ea0b1db	0.31385693
220	0x3dc3cea0	0.09560895
221	0xbdec40f1	-0.11535824
222	0x3e82aa25	0.25520435
223	0xbeb772ea	-0.3582986
224	0x3c092325	0.0083701955
225	0x3b8aab8e	0.0042318767
226	0x3c78d8d0	0.015188411
227	0xbe83ab64	-0.25716698
228	0xbd1b155b	-0.037862163
229	0x3f0bc7ab	0.54601544
230	0x3edfc3ad	0.43703976
231	0x3e98ac3b	0.298189
232	0xbcd74959	-0.026280092
233	0xbeac2262	-0.33619982
234	0xbe31d933	-0.17368011
235	0x3d9df751	0.077131875
236	0x3e82f809	0.2557986
237	0x3c608420	0.013703376
238	0x3e91ea5d	0.28499117
239	0xbd8e6ebc	-0.06954715
240	0x3ec33fbf	0.38134572
241	0xbe9a5708	-0.30144525
242	0xbe541265	-0.20710142
243	0xbe2f1a66	-0.17099914
244	0xbe0a9369	-0.13532795
245	0x3ed13418	0.40860057
246	0x3eb83031	0.35974267
247	0x3dd5ed6d	0.10445676
248	0x3e22e06b	0.15905921
249	0xbeb2f3bb	-0.34951577
250	0x3e843c46	0.25827235
251	0x3e177e0c	0.14794177
252	0xbf0e1e0e	-0.5551461
253	0xbe998adb	-0.2998875
254	0x3e84dfe5	0.25952068
255	0xbddddea4	-0.10833481

network_body.observation_encoder.processors.1.fc.seq_layers.0.bias f4 [22]
0	0xba1eda7c	-0.00060597784
1	0x3c2ceb9d	0.010554221
2	0xbc56b338	-0.0131042525
3	0xbcce20ce	-0.025162127
4	0xbc74d5c7	-0.014943547
5	0x3d01d9b5	0.031701762
6	0x3c9ffb81	0.019529106
7	0xbb494d96	-0.003071641
8	0x3bf87378	0.0075821243
9	0x3c8d160c	0.017222427
10	0x3c9ce878	0.019153818
11	0xbbdb3c69	-0.006690551
12	0x3c5ccbe6	0.013476348
13	0xbcc282b9	-0.023743974
14	0x3c8a4b47	0.016881598
15	0x3c81a33e	0.01582491
16	0xbc51fc78	-0.012816541
17	0xbcc43d49	-0.023955004
18	0xbc186a93	-0.009302753
19	0x3d0d496c	0.03449385
20	0x3c989ee8	0.01863046
21	0xbcc2ce7e	-0.023780104

network_body.observation_encoder.processors.1.fc.seq_layers.2.weight f4 [22, 22]
0	0x3d394fa0	0.045241952
1	0xbdb2606b	-0.087097965
2	0x3eb17613	0.34660396
3	0x3d552680	0.05203867
4	0x3ec8d544	0.3922521
5	0x3d454dd6	0.048169933
6	0xbe362c3a	-0.17790309
7	0xbe81ffec	-0.25390565
8	0x3d09195c	0.03347145
9	0x3d80f7aa	0.06297238
10	0xbe96e02e	-0.2946791
11	0x3a9ebd4f	0.0012110862
12	0xbe553b57	-0.20823418
13	0xbe8ab4de	-0.27091116
14	0xbdc104ea	-0.094247654
15	0xbd86e08b	-0.06585797
16	0x3f2a01cc	0.6640899
17	0x3f120305	0.5703586
18	0xbe71d5d1	-0.2361672
19	0xbeb61fd1	-0.3557115
20	0xbede884a	-0.43463355
21	0x3ee642e6	0.44972914
22	0xbcba0294	-0.022706307
23	0xbe5e8564	-0.21730572
24	0x3e9d1cf2	0.30686146
25	0xbdc02a1c	-0.09383032
26	0xbec7bf60	-0.39013195
27	0x3ddad8ae	0.106858596
28	0xbe499434	-0.19685441
29	0x3da9c237	0.08288997
30	0x3db85eea	0.090024784
31	0x3e0e8e8f	0.1392157
32	0x3db4e8b7	0.08833449
33	0xbe985665	-0.29753414
34	0x3df91807	0.12162786
35	0x3ebb1e12	0.3654638
36	0xbce833e9	-0.028345065
37	0x3e9957ec	0.29949892
38	0x3d6470b3	0.05577154
39	0xbdc20d19	-0.094751544
40	0xbeb9eaec	-0.36312044
41	0x3e4e9e61	0.20177604
42	0xbd0cd13f	-0.03437924
43	0xbd821ce8	-0.0635317
44	0xbdae6420	-0.08515191
45	0x3e51a5a2	0.2047334
46	0x3d9a42ae	0.075322494
47	0x3d9ec81a	0.0775301
48	0x3e721788	0.23641789
49	0xbe6f3e6c	-0.23363656
50	0x3d79aee7	0.060957815
51	0xbe43d69f	-0.1912484
52	0x3eb873a8	0.3602574
53	0x3e160086	0.14648637
54	0xbcedfe8c	-0.029052041
55	0x3d472670	0.04862064
56	0xbe1e1efd	-0.15441509
57	0xbe832188	-0.2561152
58	0xbe91f101	-0.28504184
59	0x3db5d978	0.088793695
60	0xbd4245f9	-0.047430012
61	0xbcae2f67	-0.021262838
62	0xbc04db1b	-0.008108879
63	0x3d911491	0.07084001
64	0x3c3a2479	0.011361235
65	0xbe4caaa4	-0.19986969
66	0x3e00dea3	0.12584929
67	0x3eaee17b	0.34156403
68	0xbc906307	-0.017625345
69	0x3c1db38d	0.009625328
70	0xbd85ce40	-0.0653348
71	0x3eba8243	0.36427507
72	0xbde3b76f	-0.111189716
73	0x3e700c0e	0.23442098
74	0xbeb0572c	-0.34441507
75	0x3e131d2f	0.14366601
76	0x3f3db339	0.741016
77	0xbe8c4ccf	-0.2740235
78	0x3db5f283	0.08884146
79	0xbc347af5	-0.011015643
80	0x3b60b98e	0.0034290287
81	0x3c9c97bd	0.019115323
82	0x3bf338b4	0.007422531
83	0xbd99a304	-0.07501796
84	0x3e429fd0	0.19006276
85	0xbe05588e	-0.13022062
86	0x3d89f8bb	0.06736895
87	0x3d8ab051	0.06771911
88	0xbe5f789b	-0.21823351
89	0xbddea002	-0.10870363
90	0x3ecaf9ca	0.396437
91	0xbe33a684	-0.1754399
92	0xbdadad78	-0.08480352
93	0xbe5f18d1	-0.2178681
94	0x3dac1200	0.08401871
95	0xbc70fbaf	-0.014708444
96	0x3da9adb5	0.08285085
97	0x3d1899c3	0.037256014
98	0x3e998f9c	0.29992378
99	0x3decd1b5	0.11563436
100	0xbd84109e	-0.06448482
101	0x3e24fcc3	0.16112046
102	0x3e1d8584	0.15382963
103	0x3e751f90	0.23937821
104	0x3e4e070c	0.20119876
105	0x3ee1879a	0.44048768
106	0x3e1215c0	0.1426611
107	0xbc20467b	-0.009782429
108	0x3d8f9514	0.07010856
109	0xbe524c45	-0.20536907
110	0xbe1ecc3f	-0.15507601
111	0xbce6e1cb	-0.028183838
112	0xbe50b728	-0.20382369
113	0x3d96c4bf	0.07361745
114	0x3ebf229e	0.37331098
115	0x3e9c3ec1	0.30516627
116	0x3e0938fe	0.13400647
117	0xbe36c024	-0.17846733
118	0xbe0bab8b	-0.13639657
119	0xbd6f305b	-0.058395725
120	0x3e34a781	0.17642023
121	0x3cc86de2	0.024466459
122	0x3e097a10	0.1342547
123	0x3edec6b3	0.4351097
124	0x3e6597e6	0.22421226
125	0xbc1f4ffd	-0.009723661
126	0xbdead683	-0.11466696
127	0xbd8d7d97	-0.0690872
128	0x3e11978a	0.14217964
129	0x3f19018b	0.5976798
130	0x3d133d2c	0.03594701
131	0xbe160575	-0.14650519
132	0x3e6734ee	0.22578785
133	0xbe47119f	-0.19440316
134	0xbe16787e	-0.14694402
135	0x3d1fab77	0.03898188
136	0xbd3be834	-0.045875743
137	0x3e5f2c08	0.2179414
138	0xbec153d2	-0.37759262
139	0x3d63cc73	0.0556149
140	0x3e2c7eab	0.16845195
141	0xbb60509f	-0.0034227741
142	0x3d57162d	0.052511383
143	0xbe6ac3ab	-0.22926204
144	0x3c58aeb4	0.013225246
145	0x3e35b6af	0.1774547
146	0x3cbc4aca	0.022984881
147	0x3db480e0	0.088136435
148	0x3cc15f7a	0.023605097
149	0x3ee8c5e0	0.45463467
150	0x3cc85add	0.02445739
151	0x3e01d078	0.12677181
152	0xba95c0e3	-0.0011425283
153	0xbb9858a3	-0.004649238
154	0x3dfda44d	0.123848535
155	0xbd664970	-0.05622238
156	0xbe93f731	-0.2889953
157	0xbe999a37	-0.3000047
158	0x3d6a2417	0.057163324
159	0xbe072180	-0.13196373
160	0xbc8b6afa	-0.017018784
161	0xbe239cc5	-0.15977772
162	0x3cf63ff0	0.030059785
163	0xbe052de7	-0.13005792
164	0x3efe3a4c	0.49653852
165	0xbdd29ab6	-0.10283415
166	0xbdc1c983	-0.094622634
167	0xbdd2cf04	-0.10293391
168	0x3cbdead2	0.02318326
169	0x3e61ab1b	0.22037928
170	0xbdaa2f78	-0.08309835
171	0xbcc04d45	-0.023474345
172	0xbea49d9b	-0.32151493
173	0xbdf7764e	-0.12083112
174	0xbeae052d	-0.33988324
175	0x3daa9024	0.08328274
176	0x3ea0b4a7	0.31387827
177	0x3dcf4be0	0.10121894
178	0x3e2e650a	0.17030731
179	0x3e8a2d00	0.26987457
180	0x3dbd5499	0.09244651
181	0xbd8bd281	-0.0682726
182	0xbeb6c2ad	-0.356954
183	0x3e22ecdf	0.15910672
184	0x3e14d3ac	0.14533871
185	0xbc7149ea	-0.014727095
186	0xbda0db35	-0.078543104
187	0xbe9bd0ac	-0.30432642
188	0x3d22ec42	0.039776094
189	0xbda81d01	-0.08208657
190	0xbe913230	-0.28358603
191	0xbe0c0d0b	-0.1367685
192	0xbd1fc629	-0.03900734
193	0xbd70870d	-0.058722544
194	0xbe736142	-0.2376757
195	0xbeec15ac	-0.46110284
196	0x3c887803	0.016658789
197	0xbded8d9d	-0.11599276
198	0x3dec3c5c	0.1153495
199	0xbe7cafad	-0.2467639
200	0xbdc44196	-0.09582822
201	0x3d8dcc33	0.069237135
202	0xbe15a670	-0.14614272
203	0x3e0a3771	0.13497712
204	0x3e0fbd1d	0.14036985
205	0xbe8a3e8d	-0.27000847
206	0x3e64d25c	0.2234587
207	0x3e1f3271	0.15546586
208	0xbe0894de	-0.13338038
209	0xbe36214b	-0.17786138
210	0x3eb04305	0.34426132
211	0x3e266973	0.16251163
212	0x3d6c013d	0.05761837
213	0xbefdd348	-0.49575257
214	0x3cca4c1e	0.024694499
215	0xbc8f2129	-0.017471867
216	0xbe1f1553	-0.15535478
217	0xbd6066db	-0.05478559
218	0xbdef8e3e	-0.116970524
219	0x3db37721	0.087629564
220	0xbecd6740	-0.40117836
221	0x3cae301c	0.021263175
222	0xbd362437	-0.04446813
223	0x3e29b919	0.16574515
224	0x3e43da94	0.1912635
225	0xbe5d75fb	-0.21627037
226	0xbd088b13	-0.033335757
227	0x3dc7d183	0.09756758
228	0x3de2974f	0.11064016
229	0xbe84a45d	-0.2590665
230	0x3e4e4ed4	0.20147258
231	0xbd58c916	-0.052926145
232	0xbdaa87a3	-0.08326652
233	0x3d82b5ce	0.06382333
234	0x3c445552	0.011983233
235	0xbed38829	-0.4131482
236	0x3e387ee3	0.18017153
237	0xbeea3a3c	-0.45747554
238	0x3eed23a2	0.46316248
239	0x3e17e54d	0.14833565
240	0xbe0f36d0	-0.13985753
241	0x3e33fec1	0.1757765
242	0x3def2065	0.11676101
243	0xbd264440	-0.040592432
244	0xbdb31486	-0.08744149
245	0xbcbfd87d	-0.02341866
246	0xbc4b4c29	-0.012408295
247	0xbe46b00c	-0.19403094
248	0xbdc3a460	-0.095528364
249	0xbec3f77d	-0.38274756
250	0x3e039ffc	0.12853998
251	0xbd4c33f8	-0.04985425
252	0x3e132b73	0.14372043
253	0xbe1682b8	-0.14698303
254	0xbe26a4c3	-0.16273789
255	0xbca75197	-0.020424647

network_body.observation_encoder.processors.1.fc.seq_layers.2.bias f4 [22]
0	0xbce1a57f	-0.027544735
1	0x3bdb66aa	0.006695588
2	0x3c8e8b73	0.017400479
3	0x3b066dc8	0.0020512212
4	0xbc940c56	-0.018072288
5	0x3ba4ec89	0.00503308
6	0xbb532045	-0.003221528
7	0x3c0c71b6	0.008572033
8	0xbcee15f4	-0.029063202
9	0x39a601e1	0.00031663387
10	0xbd00cccb	-0.031445306
11	0xbc3be35c	-0.011467781
12	0x3b64a5f9	0.0034888966
13	0x3c7253d8	0.014790498
14	0x3cafae5d	0.021445448
15	0xbb397519	-0.0028298555
16	0xbbc0bcc2	-0.0058818767
17	0xbd17d706	-0.037070297
18	0xbcb02682	-0.021502737
19	0x3b02dc59	0.0019967763
20	0x3c696211	0.014244572
21	0x3c9b804f	0.01898208

network_body.observation_encoder.processors.2.fc.seq_layers.0.weight f4 [22, 22]
0	0xbd3a4971	-0.045480195
1	0xbba07eb7	-0.004897918
2	0xbd8207a4	-0.063491136
3	0x3d525935	0.051354606
4	0xbd1a6f06	-0.037703536
5	0x3e024fe2	0.12725785
6	0x3e6cf0dc	0.23138756
7	0xbe5ee9e1	-0.21768905
8	0xbdaee3e2	-0.08539559
9	0xbcba93bb	-0.022775522
10	0xbea4d695	-0.32194963
11	0xbd7bb272	-0.061449476
12	0x3d93cc49	0.07216699
13	0xbdc573ec	-0.09641251
14	0xbdd5c5b5	-0.104381
15	0x3e8d8260	0.2763853
16	0xbde4bfaf	-0.11169373
17	0x3e9b45c2	0.30326658
18	0x3e64eb31	0.22355343
19	0x3dbab374	0.09116259
20	0xba8f9407	-0.001095415
21	0xbe8119ec	-0.2521509
22	0xbe370a5e	-0.17875049
23	0xbe803d67	-0.25046846
24	0x3ea156e3	0.31511602
25	0x3cc61eb9	0.024184572
26	0xbe567e4c	-0.20946616
27	0x3d2368c7	0.039894845
28	0x3e6a5be5	0.22886617
29	0x3e25c84a	0.16189685
30	0xbe9da5f3	-0.30790672
31	0xbe2601ef	-0.16211675
32	0xbd9ea679	-0.07746596
33	0xbed8ac35	-0.42318884
34	0x3dcb469a	0.099255756
35	0xbeb85c6e	-0.36008018
36	0x3dae3bb7	0.085074835
37	0x3d5c41b8	0.05377361
38	0xbdc7e9e2	-0.097614065
39	0xbe11210c	-0.14172763
40	0x3eac16ad	0.3361105
41	0x3e7c0ba4	0.24613816
42	0x3e12c1ef	0.14331792
43	0xbe92878a	-0.28619033
44	0x3e913a0a	0.28364593
45	0xbcc5d963	-0.02415151
46	0x3e3519d6	0.17685637
47	0xbaaa3a26	-0.00129873
48	0xbd8de96f	-0.069292895
49	0x3dcd7d24	0.10033634
50	0xbc541147	-0.012943572
51	0x3e5f9037	0.21832357
52	0xbee1c7a4	-0.44097626
53	0xbea6d86f	-0.32587
54	0x3e42428d	0.189707
55	0x3e5a8ecb	0.21343534
56	0xbeba3a83	-0.36372766
57	0x3e52345d	0.20527788
58	0xbce0ca5f	-0.027440248
59	0xbcba3dfb	-0.022734633
60	0xbe187801	-0.14889528
61	0xbf05cac1	-0.522625
62	0xbe6a2fa5	-0.22869737
63	0xbd3fd4b8	-0.046833724
64	0x3f2c2ea6	0.6725868
65	0x3e3025b3	0.17201881
66	0x3ed877ad	0.42278805
67	0x3eac3b4b	0.33638987
68	0xbddcc9a8	-0.107806504
69	0xbe886273	-0.2663761
70	0xbe3204c5	-0.17384632
71	0xbc8f802c	-0.017517172
72	0xbe3a93a7	-0.18220387
73	0xbe54da30	-0.20786357
74	0x3d44391e	0.047906034
75	0x3e70c307	0.23511897
76	0xbd08ad58	-0.03336844
77	0x3e6c2d84	0.23064238
78	0x3d856242	0.06512882
79	0xbdecd337	-0.115637235
80	0xbd1fd73f	-0.039023634
81	0x3c52ac22	0.0128584225
82	0x3e326a8e	0.1742346
83	0x3eefe88c	0.46857107
84	0x3ddddc2a	0.108330086
85	0x3dfcf4bb	0.12351366
86	0xbe3e9dc0	-0.18614864
87	0xbe29146a	-0.16511694
88	0xbe6d5358	-0.23176324
89	0xbe167d11	-0.14696147
90	0xbe5e1bca	-0.21690288
91	0xbc99669b	-0.018725684
92	0xbe786e2b	-0.24260776
93	0x3dd68340	0.10474253
94	0x3ecbab74	0.39779246
95	0x3e0befcf	0.13665698
96	0xbed2affc	-0.4114989
97	0x3f21ed7f	0.63253015
98	0xbe63f685	-0.22262008
99	0xbb11e44c	-0.002226132
100	0x3e96252c	0.29325235
101	0xbd2abb3b	-0.041682463
102	0xbda148e3	-0.0787523
103	0x3c2ea1bf	0.01065868
104	0xbe25728e	-0.1615698
105	0xbea93ce1	-0.3305426
106	0xbbfad444	-0.0076546986
107	0x3ce54b34	0.027989961
108	0x3dcb6962	0.099322096
109	0xbe06fb9b	-0.13181917
110	0xbe06edab	-0.131766
111	0xbd2dfada	-0.04247556
112	0x3d260b03	0.040537845
113	0x3d3f341a	0.046680547
114	0x3e051005	0.12994392
115	0x3e811091	0.25207952
116	0x3cd4b9bb	0.02596747
117	0x3e3b31b4	0.18280679
118	0xbe8b4b27	-0.27205774
119	0xbd761a1d	-0.060083497
120	0x3a2fefe7	0.00067114684
121	0xbd0d8db9	-0.034558985
122	0xbb1237a9	-0.0022311008
123	0xbe60a2df	-0.2193713
124	0x3dc60f42	0.09670879
125	0x3eab7ae7	0.33492205
126	0x3d1bdded	0.03805344
127	0xbd23d15e	-0.03999459
128	0x3e57d0b2	0.21075705
129	0x3dbbb672	0.09165658
130	0xbeb72965	-0.3577377
131	0x3d20c8e9	0.039254103
132	0xbe76f205	-0.2411576
133	0xbdf374c0	-0.11887503
134	0x3e963bcf	0.29342505
135	0x3d33e669	0.043920908
136	0xbeb9c22e	-0.3628096
137	0xbe0a36fa	-0.13497534
138	0xbd2db1f6	-0.042406045
139	0x3e07450f	0.13209938
140	0x3df3257c	0.11872384
141	0x3d69c7fb	0.05707548
142	0xbe69aa73	-0.22818927
143	0xbd2f1243	-0.042742025
144	0x3eabf348	0.33584046
145	0x3e4a1bbc	0.19737142
146	0x3e97447b	0.29544434
147	0xbe97918a	-0.29603225
148	0xbdbf5f48	-0.09344345
149	0xbdc0eb1e	-0.09419845
150	0x3e3d6400	0.18495178
151	0x3ea873cf	0.32900855
152	0x3d8953ba	0.06705423
153	0xbdcd0e00	-0.10012436
154	0xbea4145d	-0.32046786
155	0x3ac1caf0	0.0014785212
156	0x3ca4ab4d	0.020101214
157	0xbe0a9dbb	-0.13536732
158	0xbe14ea44	-0.1454249
159	0xbbcd04d5	-0.0062566795
160	0x3d675f46	0.056487344
161	0x3e949a00	0.29023743
162	0xbeb6eb30	-0.3572631
163	0x3e96b981	0.29438403
164	0x3d86dfb2	0.06585635
165	0xbb9918e3	-0.004672156
166	0x3e1004b0	0.14064288
167	0xbeecb72a	-0.46233493
168	0x3e3adb08	0.18247616
169	0x3ea68eb7	0.32530758
170	0xbe31652d	-0.17323752
171	0x3f0d4c7e	0.5519484
172	0x3dc00308	0.09375578
173	0x3e6dff23	0.23241858
174	0xbe2648e2	-0.1623874
175	0xbea82e5b	-0.32847866
176	0x3d1d2075	0.03836103
177	0x3df824b0	0.121163726
178	0x3e4b36a8	0.19845068
179	0xbd49fdda	-0.049314357
180	0xbe04c696	-0.1296638
181	0xbe7160a2	-0.23572019
182	0x3e471631	0.19442059
183	0x3dfff7a5	0.12498406
184	0xbce89741	-0.028392436
185	0x3e798610	0.24367547
186	0xbdebdcfe	-0.1151676
187	0xbe1a6d61	-0.15080787
188	0xbc7055f8	-0.014668934
189	0xbe232e6e	-0.1593568
190	0x3eb77f8c	0.35839498
191	0xbe218e63	-0.15776972
192	0x3e1d38eb	0.15353744
193	0x3e1085e0	0.1411357
194	0xbdcb6b73	-0.09932604
195	0xbe2815f6	-0.16414627
196	0x3e8aa91b	0.27082142
197	0xbe483fa7	-0.19555531
198	0xbee4835a	-0.44631463
199	0xbd3b9625	-0.045797486
200	0xbda87af6	-0.08226578
201	0x3e8f5ed7	0.28002045
202	0x3df5d1d3	0.120029114
203	0xbd40b4b7	-0.047047343
204	0xbe6a0d96	-0.22856745
205	0x3ea754a7	0.32681772
206	0x3e22470f	0.15847419
207	0x3e06bf5d	0.13158937
208	0x3ce52ce8	0.027975515
209	0xbe9b2f2d	-0.3030943
210	0xbe82fabf	-0.2558193
211	0x3e556050	0.20837522
212	0x3e9a5000	0.3013916
213	0xbeb6ab3e	-0.35677522
214	0x3d6beafc	0.057597145
215	0xbd3b28e9	-0.04569331
216	0x3d847b81	0.06468869
217	0xbdb9e711	-0.090772755
218	0x3e471f7b	0.19445603
219	0xbc498ab7	-0.012301139
220	0xbdf2e391	-0.11859811
221	0xbbf5e734	-0.007504368
222	0x3d89e60a	0.067333296
223	0xbde1e26a	-0.11029513
224	0xbc4a5b61	-0.012350888
225	0x3e31a7a8	0.17349112
226	0x3d7d81d6	0.0618914
227	0x3dccd3ca	0.10001333
228	0xbd6d7c6a	-0.05797998
229	0xbd1e299e	-0.038613908
230	0x3e8f2d26	0.27964133
231	0xbe6a6f2f	-0.22893976
232	0xbd0d1bbd	-0.03445028
233	0x3dc411e7	0.09573727
234	0xbe343d14	-0.17601424
235	0x3eb8be01	0.3608246
236	0xbea68d70	-0.32529783
237	0xbcbd0fdb	-0.02307885
238	0x3eaec8ff	0.34137723
239	0x3e09d6ba	0.13460818
240	0xbe14709c	-0.14496082
241	0xbb84792a	-0.004042764
242	0xbe91fbd1	-0.28512433
243	0xbe597702	-0.21236804
244	0x3e990878	0.29889274
245	0x3e0a6b68	0.13517535
246	0x3e56da81	0.2098179
247	0xbd703b13	-0.058650088
248	0x3f049dd7	0.51803344
249	0xbe07f075	-0.13275321
250	0x3e206a64	0.15665585
251	0xbe10dcd4	-0.14146739
252	0xbdfdc39d	-0.12390826
253	0xbe951620	-0.29118443
254	0x3e46b346	0.19404325
255	0xbdc5125c	-0.096226424

network_body.observation_encoder.processors.2.fc.seq_layers.0.bias f4 [22]
0	0x3bb65cef	0.0055652778
1	0xbc5dac92	-0.0135299135
2	0x3c9073bd	0.017633313
3	0x3be31bf3	0.006930822
4	0xbd33afd5	-0.04386886
5	0xbc3dc338	-0.011582188
6	0xbc099768	-0.0083979145
7	0xbd372ec7	-0.044722345
8	0x3d2d86fd	0.042365063
9	0xbc868acb	-0.016423604
10	0xbb6c0082	-0.0036011045
11	0x3ae7c06e	0.001768125
12	0xbc99bf21	-0.018767895
13	0x3cb4f47d	0.022089237
14	0xbb507dab	-0.0031813185
15	0x3c1a319b	0.009411241
16	0xbc0cb737	-0.008588604
17	0xbd15269e	-0.03641378
18	0xbc9feedc	-0.019523077
19	0xbc1edfe6	-0.009696936
20	0xbb910947	-0.004426155
21	0xbc091709	-0.008367308

network_body.observation_encoder.processors.2.fc.seq_layers.2.weight f4 [22, 22]
0	0xbe8c241e	-0.27371305
1	0x3e2166ff	0.15761946
2	0xbdd54673	-0.10413828
3	0xbd718404	-0.05896379
4	0xbe95e767	-0.29278108
5	0xbe0cda50	-0.13755155
6	0xbe0ed464	-0.13948208
7	0x3e8168a6	0.25275153
8	0xbd9f1562	-0.0776775
9	0x3d64c0f4	0.055848077
10	0xbc71344c	-0.014721941
11	0xbd7d4f21	-0.06184304
12	0xbd6cf889	-0.05785421
13	0x3e640cdb	0.22270529
14	0xbe89be48	-0.26902986
15	0x3a8fb5f8	0.0010964265
16	0xbde2f30d	-0.110815145
17	0xbdd98a90	-0.10622132
18	0x3e6424fe	0.22279736
19	0xbe02cb04	-0.12772757
20	0xbe206029	-0.15661682
21	0x3ddb975b	0.10722228
22	0x3f1b85d1	0.6075106
23	0x3e1d90f5	0.15387328
24	0xbd8b7a38	-0.06810421
25	0xbe377b5d	-0.17918153
26	0xbde1bb9f	-0.11022114
27	0xbd6ec6b5	-0.05829497
28	0x3b094054	0.0020942884
29	0xbe6a5ff8	-0.22888172
30	0x3ed0d191	0.40784886
31	0xbe0c6e99	-0.13714065
32	0x3e411c3f	0.18858431
33	0xbdf97aa8	-0.12181598
34	0xbe128038	-0.14306724
35	0xbdb95961	-0.09050251
36	0x3dd7f257	0.105442695
37	0x3e1fe91d	0.1561627
38	0x3ca7ad45	0.020468364
39	0x3c455518	0.012044214
40	0xbbd357a1	-0.006449655
41	0xbe85d98e	-0.26142544
42	0x3dc101ef	0.09424197
43	0xbdfb56ea	-0.12272437
44	0xbe6936f3	-0.22774868
45	0x3e814559	0.2524822
46	0xbe0b838c	-0.136244
47	0x3e1d24c9	0.15346064
48	0xbd5bb40a	-0.053638496
49	0xbe1369d3	-0.14395837
50	0x3f23f50c	0.64045787
51	0x3e8effe7	0.27929613
52	0xbd2dc39a	-0.04242287
53	0xbd537175	-0.051621873
54	0xbdfa0437	-0.12207835
55	0x3e18d70f	0.14925788
56	0xbe47cfeb	-0.19512908
57	0xbe7d798b	-0.24753396
58	0x3e289755	0.16463979
59	0xbec5cfc9	-0.3863509
60	0xbe06d90c	-0.13168734
61	0x3e85d158	0.2613628
62	0xbe649d4e	-0.22325632
63	0xbe156e27	-0.14592801
64	0x3e356d0b	0.17717378
65	0x3e709a16	0.23496279
66	0x3d19d656	0.037557922
67	0x3d6e4b76	0.058177434
68	0xbe0a5e6c	-0.13512582
69	0xbef0c99f	-0.47028825
70	0x3e26e354	0.16297656
71	0x3e56af74	0.20965368
72	0x3e47330e	0.1945307
73	0x3e18901b	0.14898722
74	0xbec84552	-0.39115387
75	0x3d86d3fe	0.06583403
76	0x3cf310ef	0.02967116
77	0x3eb9545c	0.36197174
78	0x3ebd3e32	0.36961514
79	0xbe92a391	-0.28640416
80	0x3cefc8b6	0.029270511
81	0x3e0e11d9	0.13873996
82	0x3dca2ea3	0.098721765
83	0x3e63e978	0.2225703
84	0xbeb0fadd	-0.34566393
85	0xbe599a56	-0.2125028
86	0xbe4aeb11	-0.19816233
87	0xbda7f66a	-0.08201297
88	0x3d224cbd	0.039623965
89	0xbeb9bb4b	-0.36275706
90	0xbc3d4a5a	-0.011553371
91	0xbe494db3	-0.19658546
92	0x3ec920cc	0.39282835
93	0xbe98a6bb	-0.29814705
94	0x3e4afdc7	0.19823371
95	0xbe8b5189	-0.27210644
96	0xbe1a44ec	-0.15065354
97	0xbdb3993e	-0.08769463
98	0x3e45e4ca	0.19325557
99	0xbe07abf0	-0.13249183
100	0x3ddb3ecf	0.10705339
101	0x3cca214e	0.024674084
102	0xbe08fb1f	-0.13377045
103	0xbe945c43	-0.2897664
104	0xbb7b4f4a	-0.003834682
105	0x3da916c4	0.08256295
106	0x3e499aa5	0.19687898
107	0x3e9608c0	0.2930355
108	0x3e384870	0.17996383
109	0xbd8ec0cb	-0.06970366
110	0x3e938419	0.2881172
111	0x3dcb3211	0.09921659
112	0x3cd0c9c3	0.025486832
113	0xbdc321f1	-0.09527958
114	0x3e296834	0.16543657
115	0xbc76352d	-0.0150273265
116	0xbdca55ad	-0.098796226
117	0x3db9a9a5	0.0906556
118	0xbe991285	-0.29896942
119	0x3dd80baf	0.105491035
120	0x3d1ed684	0.038778797
121	0x3d56f4c3	0.052479517
122	0x3d203a62	0.03911818
123	0x3c87b979	0.016567932
124	0x3e83520f	0.25648543
125	0xbe3b11b7	-0.18268476
126	0xbe0f6644	-0.14003855
127	0x3d56b8a8	0.052422196
128	0xbe50e52a	-0.20399919
129	0xbe683f0f	-0.22680305
130	0xbe1b9cb4	-0.15196496
131	0xbe867a5b	-0.26265225
132	0x3db34f80	0.08755398
133	0xbe0b28d6	-0.13589796
134	0xbc3d0f42	-0.011539282
135	0xbdb8b579	-0.09018988
136	0x3e6d914a	0.23199955
137	0x3ceaf191	0.028679641
138	0xbe24f4f4	-0.16109067
139	0xbe0ce81e	-0.1376042
140	0x3d3f1544	0.04665114
141	0xbdb1b1ac	-0.08676466
142	0xbd68e89c	-0.05686246
143	0x3e188b74	0.14896947
144	0x3d5a977e	0.05336713
145	0xbd5d8d49	-0.05408982
146	0x3cc2852a	0.023745138
147	0x3da74703	0.08167841
148	0xbd878bc3	-0.06618454
149	0xbd0d2b4e	-0.034465127
150	0x3d4cfbed	0.050044943
151	0x3e55e7e4	0.2088924
152	0xbe11e7df	-0.14248608
153	0x3e1b98de	0.15195033
154	0x3cb20a68	0.021733478
155	0x3e3644c8	0.17799675
156	0x3dfab13b	0.12240835
157	0x3e60491d	0.2190289
158	0xbdb3ee15	-0.08785645
159	0x3dcf2846	0.101151034
160	0x3dfcd075	0.123444475
161	0xbeb9adf1	-0.3626552
162	0x3d146f9c	0.03623925
163	0x3dd58e94	0.10427585
164	0xbd0ab94f	-0.03386813
165	0xbe3c2615	-0.18373902
166	0xbc8f2502	-0.017473701
167	0xbe60edf1	-0.21965767
168	0x3e216d95	0.15764458
169	0x3ea29980	0.31757736
170	0x3f131805	0.57458526
171	0xbdd182df	-0.1023004
172	0x3dca57c2	0.0988002
173	0x3b74df31	0.0037364478
174	0xbebabc03	-0.36471567
175	0xbd884a29	-0.0665477
176	0x3e02caa6	0.12772617
177	0x3ed77dcb	0.4208816
178	0xbe58fbaa	-0.21189752
179	0xbe288423	-0.16456656
180	0x3def0308	0.116705
181	0xbdbeb675	-0.09312145
182	0xbe3bb0a9	-0.18329109
183	0x3e109f00	0.14123154
184	0xbd1d2555	-0.03836568
185	0xbe2b1f1d	-0.16711088
186	0xbebcf6c0	-0.36907005
187	0x3d6e84dc	0.058232173
188	0x3aea366d	0.0017869003
189	0xbbd9fd86	-0.006652537
190	0xbd63350e	-0.05547052
191	0xbb00c0de	-0.0019646208
192	0x3d7e5e2c	0.062101528
193	0x3dde5381	0.10855771
194	0x3db75285	0.08951286
195	0xbdbeb3d5	-0.09311644
196	0xbe2edb45	-0.17075832
197	0x3edbbfc8	0.42919755
198	0x3ef3147e	0.47476572
199	0x3dfec19b	0.12439271
200	0x3e859077	0.2608678
201	0xbdd218ed	-0.102586605
202	0xbef58ca0	-0.4795885
203	0xbd8cd9f2	-0.06877507
204	0xbdbabc66	-0.091179654
205	0xbdf002ae	-0.11719261
206	0x3e8b0991	0.27155736
207	0xbe650051	-0.22363402
208	0xbe043b12	-0.12913159
209	0x3dbf8d7f	0.0935316
210	0x3e23fcfc	0.16014475
211	0x3d05e297	0.032686796
212	0xbd64e6a0	-0.055884004
213	0x3de2ccf0	0.11074245
214	0xbe0e06cd	-0.13869782
215	0xbe936d10	-0.28794146
216	0xbe1995eb	-0.14998595
217	0xbd5e0e18	-0.05421266
218	0xbe056c3e	-0.13029572
219	0x3e30eee8	0.17278636
220	0xbec3352b	-0.381265
221	0xbe6d5df7	-0.23180376
222	0xbeb6a233	-0.35670623
223	0x3e6bed33	0.23039703
224	0xbd679660	-0.056539893
225	0xbd8b207b	-0.067933045
226	0xbd415adc	-0.04720579
227	0xbea9d63a	-0.33171254
228	0xbd75d998	-0.060021967
229	0x3d09f4c1	0.03368068
230	0x3e3ed38c	0.18635386
231	0x3ecf4f3c	0.4049014
232	0xbd185372	-0.037188955
233	0x3e2bedc3	0.16789918
234	0xbd4347f3	-0.047676038
235	0x3e71c869	0.23611607
236	0xbdf5ac0f	-0.11995708
237	0x3cc86a3f	0.024464725
238	0x3ce7eed0	0.028312117
239	0x3df4b7d7	0.11949127
240	0x3e803d69	0.25046852
241	0xbe2a989b	-0.16659777
242	0x3d65b9a4	0.056085244
243	0xbe1b4710	-0.15163827
244	0xbd3c26ce	-0.045935445
245	0x3ea38f73	0.3194538
246	0xbe334d3a	-0.17509928
247	0xbe9d8c15	-0.30770937
248	0x3e77a805	0.24185188
249	0xbe34b0ac	-0.1764552
250	0xbc3b3c67	-0.011427975
251	0xbe5270a1	-0.20550777
252	0x3d0f100a	0.034927405
253	0x3e7274da	0.23677388
254	0xbe294234	-0.1652916
255	0xbed7022a	-0.4199384

network_body.observation_encoder.processors.2.fc.seq_layers.2.bias f4 [22]
0	0xbb9b0622	-0.0047309557
1	0x3c07bb55	0.0082844095
2	0xbc1d4079	-0.009597891
3	0xbcb661c6	-0.022263419
4	0xbc6fed3b	-0.0146439625
5	0xbc79bff0	-0.015243515
6	0xbc4322c0	-0.0119101405
7	0x3a0db29b	0.00054053374
8	0xbc60b9aa	-0.013716141
9	0x3d0109a7	0.031503346
10	0x3b3ef779	0.0029139204
11	0x3c0c303f	0.008556425
12	0xbc647c67	-0.013945675
13	0xbcc3a6f3	-0.023883319
14	0xbc544f78	-0.0129584
15	0xbc13c2c3	-0.009018603
16	0x3b46ccbb	0.0030334431
17	0xbca9d288	-0.020730272
18	0x3b5395e2	0.0032285382
19	0x3c1d3de3	0.0095972745
20	0xbb35f453	-0.0027764037
21	0xbbe31e62	-0.006931112
