Assets/oon/05-27-1.onnx (onnx, 785338 bytes, 39 tensors)

network_body.observation_encoder.processors.0.fc.seq_layers.0.weight f4 [22, 22]
000000 d4 15 77 be 93 92 83 be f0 59 31 3d 79 8a 6a 3e
       -0.2412942 -0.25697765 0.04329866 0.22904386
000010 c3 84 ab 3e 07 68 f6 be 9c 8f bd 3d 26 81 4c 3e
       0.33499727 -0.48126242 0.09255907 0.19971141
000020 77 97 0e be c9 9c bc bd 61 72 82 bb 30 34 84 3e
       -0.13924967 -0.09209592 -0.00398092 0.25821066
000030 f0 24 61 3d 14 a4 09 be a1 b4 bc 3e 88 e9 1d be
       0.054966867 -0.13441497 0.3685656 -0.15421116
000040 5c 76 1c be b9 98 44 3e 41 71 95 be 0c 4f 39 be
       -0.15279526 0.19198884 -0.29187968 -0.1809656
000050 4e 2a 0f be 71 b6 97 3e f8 c9 0c 3e 9f 29 8b 3d
       -0.13980982 0.2963138 0.1374892 0.06795048
000060 b5 ab 9e bd 9c d2 c0 3d c5 20 03 bd 44 16 88 3e
       -0.07747594 0.094151706 -0.032013673 0.26579487
000070 38 2c f2 bd 0b a0 b6 bd 13 82 07 3e 35 80 fb bd
       -0.1182484 -0.089172445 0.13233213 -0.12280313
000080 7a 7c 01 3d 01 46 ee 3d a0 aa 4f bc 20 d5 66 3e
       0.03161285 0.11634446 -0.0126749575 0.22542238
000090 35 b1 6d be 3e f8 84 3e b8 f8 49 3e e5 3c 94 bd
       -0.2321213 0.25970644 0.19723785 -0.07238177
0000a0 d5 cc 78 3e 91 aa 3b 3d 50 65 c4 3d a5 eb a2 bd
       0.24296887 0.04581696 0.09589636 -0.07955102
0000b0 b4 f3 08 bd 2e fc e7 bc ee 67 59 bd ef 3e 17 be
       -0.03343554 -0.02831849 -0.05307763 -0.14770101
0000c0 d0 99 2e be 3e 94 0d 3e c5 8b af bd f1 d3 67 3e
       -0.17050862 0.13826081 -0.08571581 0.22639443
0000d0 6b 54 39 be 44 b3 d4 3e 12 d8 28 3e 63 f7 50 be
       -0.18098609 0.4154302 0.16488674 -0.2040687
0000e0 a2 3b 49 bc 30 97 85 be 1d 5b 07 bd 87 12 7d 3e
       -0.012282284 -0.2609191 -0.033045877 0.24714099
0000f0 31 1c 08 be 01 80 39 bd 7f 4e 1e bd 91 cc 00 bf
       -0.13292004 -0.04528809 -0.03864908 -0.50312144
000100 57 07 84 be 98 00 ac be d1 c9 e4 3d ef 95 e9 3d
       -0.2578685 -0.33594203 0.11171306 0.11405551
000110 e5 7e ec bd f0 d7 28 be 60 ce 96 bb db d9 8b be
       -0.11547641 -0.16488624 -0.0046022385 -0.27314648
000120 24 3a 83 be 1e ef ae be 04 33 05 bf 8f e2 67 bd
       -0.25630295 -0.34166807 -0.5203097 -0.056612547
000130 c3 be dd be 95 df 24 be 8b b5 ba 3c 50 7d 60 be
       -0.43309602 -0.16100915 0.022791645 -0.21922803
000140 73 ab 66 3b eb 48 a4 3e 78 cc cc bd f5 6b 86 3e
       0.0035197407 0.32086882 -0.09999937 0.2625424
000150 42 88 30 3e 01 f1 91 be dc ba 92 3e a3 c2 ab bd
       0.17239478 -0.28504184 0.28658187 -0.083867334
000160 1c 1a 80 be 2a 77 5b be 02 c7 d6 bd 4d fa d2 bd
       -0.2501992 -0.21432176 -0.104871765 -0.10301647
000170 e8 0f 9d bd f5 60 0a be 6e e5 8f 3e 84 b4 b6 be
       -0.076690495 -0.13513549 0.28104728 -0.35684597
000180 0d e9 98 bd e5 a4 52 bd 8a ad 33 3e 7b 42 d4 bb
       -0.07466326 -0.051426787 0.17546669 -0.0064776517
000190 5f 8c 3b be 65 9b da bd 8d 56 b6 3e 11 5a e1 be
       -0.18315266 -0.106741704 0.35612908 -0.44014028
0001a0 cb ec 5d 3e e0 89 bc 3d fe 19 31 3d 0e 16 84 3d
       0.2167236 0.09205985 0.04323768 0.06449519
0001b0 fc b3 22 3d cb d2 2d 3d 37 ed 7e bc 71 77 e2 bc
       0.039722428 0.042437356 -0.015559486 -0.027644845
0001c0 6c d3 43 3e 2f 2f e9 3d 36 10 a0 3e 50 56 38 3e
       0.1912362 0.11385953 0.31262368 0.18001676
0001d0 af f7 aa be 54 3e 4d bc 8d 5a 06 be 4e b2 c4 3b
       -0.33392093 -0.012527067 -0.1312048 0.006002701
0001e0 7f 1c 63 bd 2e eb 87 3b c9 8e 85 be 07 f1 88 3e
       -0.055447098 0.0041479087 -0.260855 0.2674639
0001f0 5e f3 df 3e 5e 58 a5 3c 09 3f 9b 3d f4 05 d1 bd
       0.43740362 0.020183738 0.075803824 -0.102062136
000200 39 26 9e be 09 03 25 be 35 6f f3 3d 5c 95 c6 3d
       -0.30888537 -0.16114439 0.118864454 0.09696457
000210 c8 55 23 3c 7a 6b b5 bd 53 90 e5 3e 17 b5 bb 3d
       0.009969182 -0.0885839 0.44836673 0.091653995
000220 ee 53 d2 3e fe 56 81 be 3a 1e b2 be 94 49 80 be
       0.41079658 -0.25261682 -0.34788686 -0.25056136
000230 06 f8 72 be 2a 7e 19 bb 26 ba b2 bd cd 32 7b 3e
       -0.23727426 -0.0023421147 -0.08726911 0.24531098
000240 12 56 a9 be eb 02 ba bd e3 6d d3 bd 92 a6 68 3d
       -0.3307348 -0.09082588 -0.103236936 0.05679948
000250 85 48 74 3e 6d 57 10 be 77 f8 6c 3e b2 2f 9f be
       0.23855789 -0.1409585 0.23141657 -0.31091076
000260 e4 ba a1 be e0 99 18 be ee 4d 62 3e 49 4d ac 3e
       -0.315879 -0.14902449 0.2210004 0.33652714
000270 84 e1 cd bc 84 3f 0b 3e a9 c0 09 3d af e0 a0 be
       -0.025131948 0.13598448 0.033631 -0.3142142
000280 0a 3b 18 3e 35 5b 46 bd e4 ed d7 bd 86 38 7a 3e
       0.14866272 -0.048426826 -0.10543421 0.24435624
000290 11 9b 81 3d dc e7 cf bd ad 72 07 bd b8 40 b0 bd
       0.06328405 -0.101516455 -0.033068348 -0.08606094
0002a0 3b 77 67 be 36 9b c4 bd 09 e7 3e 3e 52 fd 2c 3e
       -0.22604077 -0.09599917 0.1864282 0.16893509
0002b0 dd 99 7d be e3 bf 89 be ab 86 e6 3d 8a 7b 49 bd
       -0.24765725 -0.2690421 0.112561546 -0.04919008
0002c0 9c 2a 09 be f7 14 22 3e c2 f8 04 3f e6 be ff bd
       -0.1339516 0.1582831 0.51942074 -0.12487583
0002d0 c8 9f 14 bc e0 ea 11 3e 35 72 c0 3d 11 16 b2 3d
       -0.009071298 0.14249754 0.09396783 0.08695615
0002e0 2c 00 ac bd b6 15 fc 3c 4f 7e 95 ba 67 28 6a 3c
       -0.0839847 0.030772071 -0.0011405441 0.014291859
0002f0 ef 78 10 3d 0e b5 76 bd db cc f7 3d 09 8f 2a be
       0.03527158 -0.06023126 0.1209962 -0.16656126
000300 5a 6e 8e 3e a7 9c 2e 3e 7c 8d 83 bd 0b c9 ad 3e
       0.27818567 0.17051946 -0.064234704 0.33942446
000310 b5 c8 a9 bd 6c 6c fc bd 5f 29 4d 3e 9c 46 a9 bd
       -0.08290235 -0.12325367 0.20035313 -0.08265421
000320 b1 74 e4 bd 02 cb b6 3e a0 46 b7 3c ae d2 9f be
       -0.111550696 0.35701758 0.022372544 -0.31215423
000330 1a 11 d1 be 7d 09 bb be 37 fe 62 3e 64 5c 4d be
       -0.4083336 -0.36530676 0.22167288 -0.20054775
000340 2e 63 99 bd 67 e0 aa 3e f3 ce 09 bf fb 65 ae 3e
       -0.0748962 0.3337433 -0.53831404 0.3406218
000350 92 b2 37 3e e5 f8 33 3d 9a 67 b1 3e 4d 4a 79 be
       0.17939213 0.043938536 0.34649354 -0.2434475
000360 88 66 d7 bc 0a 18 8b 3e e5 d2 a6 3d 93 21 1f be
       -0.026294008 0.27166778 0.08145694 -0.15540151
000370 ed 52 0c 3d 66 3d 74 bd b2 db 5a 3e 79 cb 1c 3e
       0.03425877 -0.059628867 0.2137287 0.15311994
000380 f8 b5 ab be 0c 4f 90 3e ed 75 25 3c e0 48 38 3e
       -0.3353727 0.28185308 0.0100989165 0.1799655
000390 ed cd 9c 3d cd 47 86 be 3f ae 76 3c 3c 8c 9b bc
       0.07656465 -0.26226655 0.015056192 -0.018987767
0003a0 f2 8a 14 3e 40 ab 7b 3d a6 8d 5f 3d 0e 99 4d bc
       0.14506128 0.061442614 0.054578446 -0.012548698
0003b0 c0 ff 69 bd 62 7f c3 be 46 ee f8 bc b7 4c b8 3d
       -0.057128668 -0.38183123 -0.030387055 0.08999007
0003c0 c9 a3 8b 3d 7e 3e f0 be 6d 33 89 3e 69 95 87 3c
       0.06818349 -0.46922678 0.26797047 0.016550737
0003d0 d4 91 84 bd 59 1f 9d bd 2c 0a 70 3e 29 02 85 bd
       -0.06473127 -0.07671995 0.2344138 -0.06494553
0003e0 26 d3 af 3d 19 07 e4 3d c0 21 80 3e b1 e1 39 3d
       0.08585195 0.11134166 0.2502575 0.04538125
0003f0 a0 ce 0e be 0b 69 14 3e b5 36 1f be 8d 99 37 be
       -0.13946009 0.14493196 -0.15548213 -0.17929669

network_body.observation_encoder.processors.0.fc.seq_layers.0.bias f4 [22]
000000 c6 43 e5 3b 89 b7 d2 3b bd 5b 39 bc 05 00 41 bc
       0.0069966046 0.0064305705 -0.011313376 -0.01177979
000010 73 28 7a bc cc e2 51 bc 11 84 93 bb 89 62 dc bb
       -0.015268433 -0.01281042 -0.0045018275 -0.0067256135
000020 dd c7 40 bc 93 f1 01 bc 77 44 86 39 fd e1 96 3b
       -0.011766401 -0.007931131 0.00025609482 0.0046045766
000030 b5 b1 1e 3c 7c 09 c5 b8 80 b7 3d bc b6 5f 7f ba
       0.009685923 -9.3954586e-05 -0.011579394 -0.000974174
000040 b9 63 10 3c 8c 8c db bb f2 f3 62 39 b1 9f 55 3b
       0.008812838 -0.006700104 0.00021643916 0.0032596404
000050 b8 96 af 3b ed cb 9b bc
       0.0053585432 -0.019018138

network_body.observation_encoder.processors.0.fc.seq_layers.2.weight f4 [22, 22]
000000 95 02 8c 3d 53 65 81 3e 8f 09 56 be 1a 54 91 3d
       0.0683643 0.25272617 -0.20902084 0.07096119
000010 34 b9 ba bd a9 d3 c6 be e8 7f 19 3e df cd 53 be
       -0.09117356 -0.3883336 0.14990199 -0.20684002
000020 3a d5 0f be 52 17 82 3d 21 04 1e 3e f3 ee ea bd
       -0.14046183 0.06352104 0.15431263 -0.11471357
000030 87 b1 1e 3e 41 46 f6 bd 2e e4 03 be f3 ee 1b 3e
       0.15497409 -0.120251186 -0.12880012 0.1522787
000040 bc 6c da be bd 16 5b be d1 fc a4 3e 23 52 c4 3d
       -0.42661083 -0.21395393 0.32224134 0.09585979
000050 05 b4 33 3e a8 18 37 be 8b ad 63 3e 25 64 0f 3f
       0.17549141 -0.178805 0.2223417 0.56012183
000060 1a 82 71 be 3f 52 90 3d 6c f2 62 be dd 0a 6f 3d
       -0.23584786 0.07046937 -0.22162789 0.05835997
000070 83 12 54 bd 42 89 6f 3e 22 91 14 3e b0 ac 5e be
       -0.051775467 0.23392203 0.14508489 -0.21745563
000080 eb de 25 3e 4b 79 3c 3e 98 07 01 3f a4 51 ae 3e
       0.16198318 0.18405645 0.5040221 0.34046662
000090 6a 47 7f be cd 72 32 bd ec d2 96 3d 82 99 24 be
       -0.24929586 -0.043566514 0.07364449 -0.16074184
0000a0 ac 82 5a bc 68 3b fb bb 7c 6b 05 3e 7d 5e f9 3e
       -0.013336819 -0.007666994 0.13029283 0.487049
0000b0 04 b8 3a be 19 d3 37 be 6d 00 1f 3d 60 6f fb 3c
       -0.18234259 -0.17951621 0.038818765 0.030692756
0000c0 b4 49 d0 3d 77 01 91 3d c2 80 34 3e ee db 98 be
       0.10170308 0.070803575 0.17627242 -0.29855293
0000d0 34 45 80 3e 6e fc 89 be 8e 9e 58 bd 63 50 54 bd
       0.25052798 -0.269504 -0.052885585 -0.051834475
0000e0 53 35 a8 be ee bf 8c bd 72 da 4a 3c 37 ab cb bd
       -0.32853183 -0.06872545 0.012381183 -0.09944766
0000f0 57 cb 56 be 9f 53 6e 3e 2e 22 7c 3d 73 63 35 3e
       -0.20976005 0.23274086 0.061556034 0.17713718
000100 f6 83 e2 bd cb d9 48 3e 06 75 55 3d 21 d1 97 be
       -0.11060326 0.19614331 0.052113555 -0.2965174
000110 88 a5 24 3d 79 39 c2 3d dd 36 a9 3d c0 84 9a 3d
       0.040196925 0.09483618 0.082624175 0.07544851
000120 df 1a 6e be 59 22 98 3b 29 6d b2 be ca 93 03 be
       -0.23252438 0.0046427664 -0.34848908 -0.12849346
000130 94 6f f2 bc c0 6b 02 3f 2b 3b c3 bd c3 ec 51 be
       -0.02959422 0.50945663 -0.0953277 -0.20500474
000140 76 ae cf 3e 1f e9 18 3e 0a 5b 98 bd 95 d2 96 bd
       0.4056279 0.14932679 -0.07439239 -0.07364384
000150 98 07 e8 bd 00 f5 b1 bd c8 bb bd bd 78 15 46 be
       -0.113295734 -0.08689308 -0.09264332 -0.19344127
000160 44 28 86 bc a1 08 e0 bd bd 0e 08 3b d5 a0 e0 bd
       -0.016376622 -0.10939146 0.0020760738 -0.10968176
000170 92 aa ef 3c d3 dc 41 3d eb 6c de 3d fd 61 13 3e
       0.029256139 0.047329735 0.10860618 0.14392848
000180 f2 65 6a be 0e 1c 39 bd ae 04 47 3e 4c 64 54 bd
       -0.22890452 -0.04519277 0.19435379 -0.051853463
000190 67 a7 94 3e 09 12 a7 be 0c 2e 67 3e 06 40 ca bc
       0.29033968 -0.32630947 0.22576159 -0.024688732
0001a0 cc 4b 2c be e0 b5 0d 3c 57 46 06 3e 94 aa e1 3d
       -0.16825789 0.008649319 0.1311277 0.11018863
0001b0 99 c6 1e be 63 5b b4 3c b5 5f f7 bd d6 72 e5 bd
       -0.15505446 0.022016233 -0.120788015 -0.11203544
0001c0 d2 bc 51 3c 64 32 16 3f f2 37 b2 3e 7c 1e 87 be
       0.012801366 0.5867064 0.34808308 -0.26390445
0001d0 fe ce d3 3d be 42 0f bf f5 77 81 be ef 79 9a 3c
       0.10342215 -0.55961215 -0.25286832 0.01885697
0001e0 69 ba 80 bd 07 54 65 3d 22 5d 0b be 57 3a 62 3d
       -0.06285555 0.055988338 -0.13609746 0.05523142
0001f0 4b 7f 3a be be b7 a5 3e 78 ce 02 be 40 ae c1 bd
       -0.18212621 0.32366747 -0.12774074 -0.09457064
000200 b0 e0 f6 3c 23 26 61 3c 17 07 b2 bd 8e bc b3 3d
       0.030136436 0.013742003 -0.086927585 0.08776198
000210 7d 1a 87 3d 39 84 82 3d bb 0a 13 3e bd 6b ca 3e
       0.06596849 0.06372876 0.14359562 0.39535323
000220 7d 12 9e bd b0 37 6b 3d 90 9d ee bd bc 5c 39 3e
       -0.0771837 0.057426155 -0.116511464 0.18101782
000230 4b b1 f2 bd 9e bb 36 3e 07 64 47 bd 4b 39 5a 3c
       -0.11850222 0.17845008 -0.048679378 0.013319324
000240 2e 29 51 be 6e 24 f8 bd 3b 86 d4 be 6f 8b 71 be
       -0.20425865 -0.121163234 -0.4150866 -0.23588346
000250 63 f6 82 3e ea ee b5 bd 51 52 d8 bd 2a 2b d8 3d
       0.25578603 -0.0888346 -0.105625756 0.10555108
000260 47 f6 a5 3d b9 d8 38 be 56 23 bb 3d a1 3d 5a 3e
       0.08103614 -0.18051423 0.09137599 0.21312572
000270 a1 70 66 3d fc b2 b7 3e d6 c7 ef 3e 23 47 74 bd
       0.056259755 0.35878742 0.4683215 -0.059638154
000280 8b 32 c6 be ff f2 45 bd d3 1c 36 3e b3 fe fe 3c
       -0.38710436 -0.048327442 0.17784433 0.03112731
000290 7b 6b f6 bd 80 f2 22 3e f6 d5 d9 3e 34 7f 92 bb
       -0.12032219 0.15912819 0.42546052 -0.00447073
0002a0 de ba 2d 3e 2b 7f a9 3c db ef 3f be 6d 88 85 be
       0.16965815 0.020690521 -0.18743841 -0.26080647
0002b0 4c 13 4c bd 0e 1c 3b bc 49 e8 74 3e 04 23 70 bd
       -0.04982309 -0.011420263 0.23916735 -0.058627144
0002c0 54 33 3d 3e 49 2a a8 3d 3a 18 b4 3e db 98 5f bd
       0.18476611 0.0821119 0.35174733 -0.054589134
0002d0 db f8 46 3e 0e 2c 12 3e b3 b0 d0 be aa 2b 93 be
       0.19430868 0.14274618 -0.4075981 -0.2874425
0002e0 01 44 a2 3d 60 69 b1 3e ed b2 4a 3d 65 d6 d6 3d
       0.07923127 0.34650707 0.049487043 0.10490111
0002f0 ff 2f e4 bd dc 86 79 be f8 57 13 3d 51 ea fc 3d
       -0.11141967 -0.24367851 0.035972565 0.1234938
000300 18 dc c9 3e 0f 72 1e be 4b ff 7d 3e ab 3a fe 3e
       0.3942573 -0.15473197 0.24804418 0.49654135
000310 97 0d bf 3e f5 27 90 be 8e d4 b7 bd a4 a6 03 be
       0.37315056 -0.28155485 -0.089760885 -0.12856537
000320 1e fc f8 bd 78 b5 31 bd d3 8e 24 3d f4 31 9c bd
       -0.121574625 -0.043385953 0.04017527 -0.07626715
000330 60 6c a0 3d e7 86 8e bd 64 17 c0 bd 33 9a 6a be
       0.07833171 -0.06959324 -0.093794614 -0.22910385
000340 e0 1b ec 3c d9 e9 f2 bc bf 48 2a be 28 f7 75 bc
       0.028821886 -0.029652523 -0.16629313 -0.01501254
000350 99 d5 0a 3e 8d 1f 08 3e 2b e3 4e be 43 b5 12 3d
       0.13558044 0.13293286 -0.20203845 0.035817396
000360 6b 81 36 be 0e 9a 6d 3e b4 24 f5 3c b3 1c 0d 3e
       -0.17822807 0.23203298 0.029924728 0.13780479
000370 a4 d9 93 3e 88 05 57 3e 24 6a 88 be c9 bd 7f be
       0.28876984 0.20998204 -0.2664348 -0.24974741
000380 2d b3 0e be b1 1e 5a 3c 7f b7 b3 3d 44 6d 30 bd
       -0.13935538 0.013312981 0.087752335 -0.043072954
000390 00 87 0d bf b1 09 77 3e 34 78 86 3e be eb a3 3e
       -0.5528412 0.2412479 0.26263583 0.32015795
0003a0 b8 f9 2b be eb 9c 54 3e 79 2a 76 be 2b f0 00 bd
       -0.16794479 0.20762984 -0.2403964 -0.031479042
0003b0 d1 0e 8f 3e 81 51 1f be 42 aa 6b be 82 92 de 3e
       0.27940992 -0.15558435 -0.23014167 0.43471152
0003c0 35 8d f4 3d 1d 85 ee 3e 5e c8 f1 bd 22 bd a2 3d
       0.119409956 0.46585932 -0.11805795 0.079462305
0003d0 09 91 0a bd a6 39 6d 3e 28 83 01 bd df 58 c9 be
       -0.033829723 0.23166522 -0.03161922 -0.39325616
0003e0 8c 16 e7 3b d0 be 5d 3c 3d 04 a5 be d0 c8 03 be
       0.0070522483 0.013534263 -0.32229796 -0.12869573
0003f0 76 92 cf be ad 53 98 3c 2e 56 80 be 8b ca 1d 3e
       -0.40541428 0.018594587 -0.2506575 0.15409295

network_body.observation_encoder.processors.0.fc.seq_layers.2.bias f4 [22]
000000 5b 2a b1 3b a8 2d 76 bb 7d 6c b7 bc 62 d5 84 bc
       0.0054066605 -0.0037563834 -0.022390598 -0.01621503
000010 16 1d b7 3b 04 eb f5 bb 98 57 93 bc 08 19 49 bc
       0.005588184 -0.0075048227 -0.017986104 -0.012274034
000020 10 6f 38 3c c8 fb 86 3c e6 98 6e 3c c3 4e 4d 3c
       0.011256948 0.01647748 0.014562821 0.012530985
000030 79 fe ff 3b d3 1a 8f 39 ee 15 4f 3c 4f 9a 25 3b
       0.007812318 0.0002729507 0.012639506 0.0025268977
000040 41 1c fc bb bf 73 6e 3c 5b 97 c6 bb 63 d7 4b bc
       -0.007693798 0.014553963 -0.0060605234 -0.012441489
000050 da ff 4b bc fc 3b 5a bb
       -0.0124511365 -0.0033299914

network_body.observation_encoder.processors.1.fc.seq_layers.0.weight f4 [22, 22]
000000 2a 48 8c bd 5a 47 a0 bc e2 22 02 bc 8e 8c 9e 3e
       -0.06849702 -0.019565273 -0.007942887 0.3096661
000010 2c 0b 1c 3e 38 85 e9 3d 13 49 db be f0 ab 5b be
       0.15238637 0.114023626 -0.4282919 -0.21452308
000020 c9 ca 7f 3e 8d 9f 8e 3c 57 5a ca bd 5f 08 4f be
       0.249797 0.017410064 -0.09880512 -0.20218037
000030 d2 02 1b 3e e5 a1 6c 3e f7 5d 0a bf 0d 26 29 3d
       0.15137795 0.23108633 -0.5404963 0.041296054
000040 8c 40 16 3e 2e 6f c0 3b 99 e8 60 3e 4e 26 d5 bd
       0.1467306 0.0058726287 0.21963729 -0.10407697
000050 ba 35 ae be a7 fa 26 3e 9f 48 0a 3d a5 b6 a3 bd
       -0.34025365 0.16306554 0.033760663 -0.07993821
000060 8d 85 18 bd 50 73 a3 3c 8b a0 45 3e bc d6 dd 3c
       -0.03723674 0.019952446 0.19299524 0.027079932
000070 fa cd 1c be ed 9f 96 3e 86 6c db 3e 40 59 fd bd
       -0.15312949 0.2941889 0.42856234 -0.12370539
000080 69 2d ef 3d c6 d2 9e 3d ec 67 ca 3e 8c e3 2a 3e
       0.11678583 0.077550456 0.3953241 0.16688365
000090 5f a3 4d 3e 9b c8 fe 3d 99 4b 73 be 87 ef 5c bd
       0.20081852 0.12440606 -0.23759307 -0.05393937
0000a0 71 dc e8 be ff 1d 2f 3d da 78 73 3e 0d 76 a2 bd
       -0.45480683 0.042753216 0.2377657 -0.07932673
0000b0 79 92 a0 be da 74 be bd 58 4b 67 3e d5 9f b2 3d
       -0.3136175 -0.092996314 0.22587335 0.08721892
0000c0 a5 89 9b bc f0 f9 2f bd 9a c3 f8 bd a0 62 85 3b
       -0.018986532 -0.04296297 -0.12146683 0.004070595
0000d0 d6 56 74 3c ec 91 37 3e da ce 92 3d ec 6f 42 3d
       0.014913281 0.17926759 0.0716836 0.04747002
0000e0 50 e7 50 be 1e ee 87 3c 9a 5b 00 3d 76 03 32 3e
       -0.20400739 0.016593035 0.031337358 0.17384133
0000f0 4c 57 74 be a0 2c c3 3d 1d a9 f7 3d c3 58 38 3e
       -0.23861426 0.09529996 0.12092803 0.1800261
000100 c5 2c 55 be 79 2f 49 be 04 8d 0d be 03 02 b1 3d
       -0.2081786 -0.19647016 -0.13823324 0.08642962
000110 79 22 2b 3d 65 18 ce bd 99 d2 42 be 36 df f0 bd
       0.041780923 -0.10063247 -0.19025649 -0.11761324
000120 c1 3b 2a bd af ec 0f 3e 9f b4 e7 3d e2 c3 62 3e
       -0.041560892 0.14055131 0.113137476 0.22145036
000130 02 b0 8d 3e 53 fe 75 3e 0c 92 eb be ce de 75 bd
       0.27673346 0.24022798 -0.46009862 -0.060026936
000140 2b 16 7b 3e 7d 7a aa be 79 02 80 be 70 70 5d bd
       0.24520175 -0.33296576 -0.25001886 -0.054062307
000150 69 15 1c 3d 35 a8 38 3d ca 69 93 3d ad 33 97 3d
       0.038106356 0.04508229 0.07197912 0.07382903
000160 5b ff 59 bd 07 62 6e 3d c6 39 cf 3e ab a9 30 3d
       -0.05322204 0.058198955 0.40473765 0.043130558
000170 e8 bb 4d bd 37 ca 81 3e da d3 22 be 13 d5 74 be
       -0.05022803 0.2534959 -0.15901127 -0.23909406
000180 ce e2 ca bd b4 9b 3a 3d 15 c8 88 3d b2 00 9b 3d
       -0.09906541 0.045558646 0.066787876 0.07568492
000190 d6 96 ab 3e e0 7b 94 3e c9 33 8d 3c a0 ba fe be
       0.33513516 0.2900076 0.017236607 -0.4975176
0001a0 5a ba de 3e 59 e8 75 bc 97 36 8e 3d bd 31 08 3e
       0.4350155 -0.015009009 0.06944006 0.13300224
0001b0 c5 05 db bd b4 c6 ea 3d 44 6b 58 bd d4 9d 84 be
       -0.1069446 0.11463681 -0.05283667 -0.25901663
0001c0 1d 0d 2c bb be b8 17 bd 7b a6 25 3e e9 66 cc 3d
       -0.0026252933 -0.03704142 0.16176789 0.09980566
0001d0 67 90 3b be aa c0 fc 3e a0 fc 82 3e 1a 76 a8 be
       -0.18316804 0.4936574 0.25583363 -0.32902604
0001e0 53 f8 ee 3c 59 47 03 be ba f0 a1 3d 4b 06 c2 be
       0.029171145 -0.12820186 0.07907243 -0.37895426
0001f0 3c 7e 46 be cd 3e b1 be 25 e5 ef be b6 e0 ab bd
       -0.19384092 -0.34618226 -0.4685451 -0.083924696
000200 07 75 92 bc c6 d7 61 3d 95 18 28 be 04 94 80 3e
       -0.017878069 0.05513742 -0.16415627 0.25112927
000210 a9 80 9d 3e e6 8c 89 be 3d b3 9c 3e f6 72 ae 3d
       0.30762222 -0.2686531 0.30605498 0.08518021
000220 48 c2 a7 3e 3b 84 d6 bd 8c aa 46 3c 2e ca c3 bc
       0.32765412 -0.1047444 0.0121256225 -0.023900118
000230 8e 6c 55 be ac ad 9c bd 6f 6e bc be 04 d1 1e 3e
       -0.20842192 -0.07650313 -0.36803004 0.1550942
000240 e3 9c 90 3c 2c 23 9e bd 8c 75 b8 3d 75 ab 60 be
       0.017652934 -0.07721552 0.09006795 -0.21940406
000250 45 07 61 3e 26 fc 57 3e e6 16 4d 3e 26 f6 11 bd
       0.2197543 0.21092281 0.20028266 -0.035635136
000260 b3 a1 05 bf ee 03 aa 3e 04 f7 33 be e9 b6 53 3e
       -0.5219986 0.33206123 -0.17574698 0.20675243
000270 6c 73 83 bd 25 b2 22 bc 55 7d c2 be 21 73 49 be
       -0.06418499 -0.009930168 -0.37986246 -0.19672824
000280 7e ad dd bd 02 65 1f 3c 60 6e cb bc e8 8a 03 3e
       -0.10824107 0.009728672 -0.024832904 0.12845957
000290 ce d7 0f 3b 83 68 5a be 5b 42 cb be bc 23 15 3d
       0.0021948698 -0.2132893 -0.39699063 0.036411032
0002a0 24 ae f5 bd bc 76 89 3e b8 18 9f 3b 74 c1 4a 3c
       -0.11996105 0.268484 0.0048552416 0.012375224
0002b0 58 80 5a 3e f6 cc b0 3d 14 1e f5 3d 76 f3 97 3e
       0.21338022 0.08632843 0.119686276 0.29677933
0002c0 97 ad f3 3d a4 d3 b2 3d 92 c6 c8 3e b0 cc 24 3e
       0.11898344 0.087317735 0.39213997 0.16093707
0002d0 61 9e 62 3e fb 8a d8 bc 69 9c 1e 3e 32 0a 4b be
       0.2213073 -0.026433459 0.15489353 -0.19828108
0002e0 96 7f b3 3e 3f 74 89 3b 5f 11 e9 be e6 ca 87 3e
       0.35058278 0.004194766 -0.45521066 0.26521987
0002f0 13 63 1e be af aa 2f bc d2 5b 60 be d4 70 d4 3e
       -0.15467481 -0.0107218465 -0.21910027 0.4149233
000300 b7 02 49 be eb c7 14 be f7 4e 04 be 3f d8 99 be
       -0.19629942 -0.14529388 -0.12920748 -0.30047795
000310 60 2b 3e 3d 7b e9 59 be 45 d3 5d bd 31 e9 92 3d
       0.046428084 -0.21280472 -0.05415656 0.07173384
000320 8c 93 eb 3d d0 35 81 3d 99 93 17 3e e0 09 f5 be
       0.11502752 0.06309092 0.14802398 -0.47859097
000330 5a 11 f2 ba 98 98 94 bc 9b 76 b2 bd 71 82 14 be
       -0.0018468306 -0.018139169 -0.087140284 -0.14502884
000340 12 05 d2 be 10 e6 8f 3e f5 5c 98 3e b2 38 04 3e
       -0.41019493 0.2810521 0.2975842 0.12912253
000350 8d 7b 7a be f2 c6 df 3d b2 76 ab 3e 5b af a0 3e
       -0.24461193 0.10926618 0.33488995 0.31383786
000360 e0 8b 81 3e 36 65 08 be 73 bc f6 3d 43 35 5e be
       0.2530203 -0.13319859 0.120476626 -0.21700005
000370 c2 f1 b2 3e 77 5d c6 3d e4 4f 87 3e b4 fe 88 bc
       0.34950072 0.09685796 0.2642814 -0.016723014
000380 02 71 0e be 20 4d 72 be 4e d4 ac bd 44 f7 ce 3e
       -0.13910297 -0.23662233 -0.084389314 0.40423024
000390 20 3f d2 3e 80 ba eb 3e 0f 85 48 3e e2 b1 02 bd
       0.41063786 0.46040726 0.19582008 -0.031907924
0003a0 21 ab 5e 3e 02 06 22 be d8 fc 06 3b dc 1a a6 bc
       0.21744968 -0.15822604 0.0020597484 -0.02027648
0003b0 64 fc c8 bd 5d 64 cb bd ce 23 8a be 0c ed a9 be
       -0.09813765 -0.09931252 -0.26980442 -0.33188665
0003c0 65 72 87 bd 56 d7 02 3e 4d fd 30 be 25 33 67 bc
       -0.06613616 0.12777457 -0.17284127 -0.014111315
0003d0 18 39 c8 3d 00 a3 9b 3d d5 ff 33 3e 6c 67 ca be
       0.09776515 0.07599449 0.17578061 -0.3953203
0003e0 3b 07 3b 39 47 00 b2 be 61 87 99 be 5a 3c 04 bd
       0.00017836403 -0.34765837 -0.29986098 -0.03228412
0003f0 89 e5 ae 3d cf 7e f4 3d 92 0a 37 bd 53 84 d5 bd
       0.08539874 0.11938249 -0.044687815 -0.104256295

network_body.observation_encoder.processors.1.fc.seq_layers.0.bias f4 [22]
000000 d5 c4 4d 3c e7 47 a2 bc 5e f2 a5 3c 7c 48 c8 3b
       0.012559135 -0.019809676 0.020257171 0.0061121564
000010 3e 02 11 bc 5a 71 3d 3b c1 24 eb bc 50 8a cf bb
       -0.008850632 0.0028906674 -0.028704049 -0.006333627
000020 f4 2a dd 3b 42 a1 9c bc 9a 93 f8 bb 95 d1 9e bb
       0.006749505 -0.019119862 -0.007585955 -0.0048467615
000030 af dc 03 bd 21 08 72 3a 52 19 b0 bb 89 c9 1c bc
       -0.032192882 0.00092327787 -0.005374112 -0.009569534
000040 85 17 f5 bc c8 e4 ef bc d6 f4 d3 3b 14 8b 77 bc
       -0.029918442 -0.029283896 0.0064683957 -0.015108842
000050 62 c0 0f bc 24 a9 a5 bc
       -0.008773895 -0.020222254

network_body.observation_encoder.processors.1.fc.seq_layers.2.weight f4 [22, 22]
000000 30 04 5a be 6d 0b 83 be a0 93 8d be 60 a4 0e 3d
       -0.2129066 -0.25594655 -0.2765169 0.03482473
000010 b3 f4 78 be 79 30 9c bd f4 31 8b 3e 73 50 8a 3e
       -0.24312095 -0.07626433 0.2718655 0.27014503
000020 fd c6 47 bd 4b 89 4b bd f1 9a 21 3e 3c 5c ce be
       -0.048773754 -0.04969148 0.15781762 -0.40304744
000030 bf 79 f4 bc 6f 27 32 bc 28 3b c9 3e a6 14 57 be
       -0.02984321 -0.0108736595 0.39302945 -0.2100397
000040 64 20 a9 3c 06 e0 c5 bd e0 35 df 3b 97 79 c4 3e
       0.020645328 -0.0966187 0.0068118423 0.38374016
000050 f5 b8 7b 3e 26 5a 9b 3c 88 00 1a 3e ea d3 18 be
       0.24582274 0.018963885 0.15039265 -0.14924589
000060 71 86 22 be 74 a1 1d be ab 82 f6 3d 08 7e 9d 3e
       -0.15871598 -0.1539362 0.12036642 0.30760217
000070 fa 47 f1 3d e5 eb 1d 3c 01 a0 be be 87 c5 e3 bd
       0.117813066 0.009638761 -0.37231448 -0.1112166
000080 62 dd 89 bd 91 62 59 be 30 13 2b 3e 39 97 83 be
       -0.067316785 -0.21229006 0.16706538 -0.2570131
000090 c1 03 83 3e d6 46 66 3e bb 53 79 3e 1d 3e 71 3e
       0.25588802 0.2248796 0.24348347 0.2355885
0000a0 9b df 9a bd 1e d4 ad be 39 4d ad 3d d8 c0 df 3d
       -0.075621806 -0.33950895 0.08461995 0.10925454
0000b0 9e 2a cb be 63 76 8b be 97 93 4d 3d e1 f4 6d 3e
       -0.39680952 -0.2723876 0.05018958 0.23237945
0000c0 e3 ae 0d 3e 42 41 96 3e 97 62 eb bd d7 23 c7 be
       0.13836245 0.29346663 -0.11493414 -0.3889453
0000d0 a1 ed d3 bd e3 01 bc bd e2 6d fd 3d 87 83 e2 bc
       -0.103480585 -0.09180047 0.12374474 -0.027650608
0000e0 06 98 30 3e 4d fd a5 be de fc 0f be 3f c7 36 bd
       0.17245492 -0.32419816 -0.14061305 -0.04462361
0000f0 c9 6e bd be 21 81 4c 3e a7 9f 92 bd 8f d8 5a 3e
       -0.36998585 0.19971134 -0.071593575 0.21371673
000100 1c 7a 92 be d5 1a 2d 3e 56 b7 44 be 6e 04 b0 bd
       -0.28608787 0.16904767 -0.19210562 -0.08594595
000110 f1 5a 31 be 0e 82 b2 3d 37 be 35 3e 61 90 e7 3d
       -0.17319848 0.08716212 0.17748342 0.11306835
000120 96 66 ac 3d c4 74 66 be f4 f1 01 bc f5 da bb be
       0.08418004 -0.2250548 -0.007931221 -0.36690488
000130 93 c1 35 3c d0 64 19 3e d6 01 c8 bd 3c 28 71 3e
       0.011093515 0.14979863 -0.09765975 0.23550504
000140 b1 15 52 be e3 55 15 3e 5c 7e ca 3d 41 a4 04 3e
       -0.20516087 0.14583544 0.098873824 0.12953283
000150 56 c1 4e 3d 79 cf cc bd 41 93 a7 bd 9e ab 2a 3e
       0.05047735 -0.1000051 -0.08182383 0.1666703
000160 23 a3 43 be 63 cf 17 3f 1f 30 1e be 9d 0a 98 be
       -0.191052 0.5930082 -0.15448044 -0.29695597
000170 2e 1c 79 3e ac 7f 0a 3c cd 25 0b 3f 89 78 0d be
       0.24327156 0.008453291 0.54354554 -0.13815512
000180 5e a1 87 be ee 54 98 bc a3 31 7d be c6 a4 88 3d
       -0.264903 -0.018595185 -0.24725966 0.06672053
000190 17 1f d6 be d5 27 b8 be 2a cd 04 bd 16 7a a7 3e
       -0.41820595 -0.3596789 -0.032422222 0.32710332
0001a0 48 a3 83 3c 10 85 3f bb 1f 72 2b 3e f2 6e 0f 3e
       0.01606907 -0.0029223599 0.16742752 0.14007166
0001b0 08 1a 07 bf 2a 22 e9 bd 4b 2d fd be 15 9d 5c 3d
       -0.52774096 -0.113834694 -0.49448618 0.053860743
0001c0 07 39 01 3e 3f fe 60 be f9 06 cf 3e 68 df 5f be
       0.1261941 -0.21971987 0.40435007 -0.21862566
0001d0 c2 53 d4 3e e4 82 a8 be 7d fb 20 be fb 79 12 3e
       0.41470152 -0.32912362 -0.15720935 0.14304344
0001e0 a3 39 d8 3d 32 09 a5 bd be 8b 14 be 93 00 9c 3d
       0.10557868 -0.080583945 -0.14506432 0.07617297
0001f0 a6 f8 0b 3f 2c c7 fa 3d f0 db 8b be 18 0a 1b bd
       0.5467628 0.1224502 -0.27316236 -0.037851423
000200 d1 90 7f 3e e7 17 92 be 9f 77 08 be 8a 3f 16 3f
       0.24957587 -0.2853386 -0.13326882 0.586907
000210 da 5a ab bd 85 29 44 be 56 e7 11 bd cd 24 39 be
       -0.08366938 -0.19156463 -0.03562101 -0.18080445
000220 f5 47 b6 3e 22 4a 58 be 73 a5 db be cd c9 2c 3e
       0.35601774 -0.2112203 -0.42899665 0.16873856
000230 72 d5 f3 bd f0 94 35 be 2e cc 97 3d b5 5e 62 be
       -0.11905946 -0.17732596 0.07411991 -0.2210644
000240 4e af 03 be 81 70 5d be 45 ad 7c be 21 36 51 3d
       -0.12859842 -0.21624948 -0.24675472 0.051077012
000250 81 c4 09 be 2a f9 34 be e9 07 66 3e d6 0f 31 be
       -0.13453867 -0.17673174 0.22463955 -0.17291197
000260 34 cb 25 3e 0b b9 a8 be 83 e8 be 3d 37 c9 9a 3d
       0.16190797 -0.32953677 0.09321692 0.0755791
000270 1c 04 c0 bd 3a df 6a 3e 3f 1b 93 be e3 f2 1e be
       -0.09375784 0.22936717 -0.28731725 -0.15522341
000280 3e 0d 09 bf c8 03 b7 3e 78 04 97 be 57 62 41 3e
       -0.5353583 0.35745072 -0.29495597 0.1888517
000290 c4 31 80 be 2a 69 b1 3e d8 63 d2 be 6d 7c 2c 3e
       -0.25037968 0.34650546 -0.410918 0.1684434
0002a0 07 99 9e bd 41 bf 08 bd 71 0f a1 3e e3 53 19 3d
       -0.077440314 -0.03338552 0.31457093 0.037433516
0002b0 9f 09 68 be b0 0c 1c 3e ff 1b e0 bd 42 77 a9 3e
       -0.2265992 0.15239215 -0.1094284 0.330988
0002c0 a7 a8 8c 3e d9 36 66 be a4 63 ff bc bd 99 c2 be
       0.27472422 -0.2248186 -0.031175442 -0.38007918
0002d0 77 eb 01 3e ff 80 44 be 58 f8 86 be e1 24 2e be
       0.12687479 -0.19189833 -0.26361346 -0.17006256
0002e0 d4 db a5 3d 4c e0 eb bd 0e 5c 97 be 4c 9c d2 be
       0.080985695 -0.115173906 -0.2956242 -0.4113487
0002f0 d3 cf 74 bd e2 9f 5e be 63 22 88 be fb a0 d1 3d
       -0.05976851 -0.21740678 -0.26588735 0.10235783
000300 64 7b 93 3e 3f 9b ad be d0 3f ab bc 79 fe c0 ba
       0.28805077 -0.33907506 -0.020904452 -0.0014724276
000310 6e 6d 6d 3d d7 88 87 be da 0b de bc 1e 79 2f be
       0.05796569 -0.26471588 -0.02710526 -0.17136046
000320 62 ca ca 3d 3a 5a fb bd 5d 9c 0f bc e8 51 b3 3e
       0.09901883 -0.12273069 -0.008765307 0.35023427
000330 ff fc bd bc 67 92 6f bd 25 e9 46 3d 22 ac 9c 3e
       -0.023191927 -0.05848923 0.048562188 0.30600077
000340 46 0a ef bc 9f eb c0 3d 55 3f df bc 4c 73 7f 3c
       -0.029179703 0.09419941 -0.027251879 0.015591454
000350 1c aa e5 bc 3f 63 c8 3d 79 ca df b9 23 61 fa 3e
       -0.028035216 0.09784555 -0.00042684728 0.48902234
000360 a8 ab 09 be 8c 92 4e be b1 0d 06 be 90 50 15 3d
       -0.13444388 -0.2017309 -0.1309116 0.036453784
000370 c4 3b 34 3e 93 b6 ab 3e 8f ec 9b 3e 29 96 a8 be
       0.17600924 0.3353773 0.30453917 -0.32927063
000380 5a 65 30 3e 8a d3 10 3d e0 ae 4f 3e 76 4b 9a 3e
       0.17226163 0.03535799 0.20281553 0.30135697
000390 f7 bc f6 bc 0c 66 a6 be 98 c1 cd 3d 86 27 c0 3e
       -0.030119402 -0.3249973 0.10046691 0.37530154
0003a0 e6 99 93 bc 80 c4 66 3d 09 44 c9 bd 33 8d e7 3b
       -0.01801772 0.05633974 -0.0982743 0.007066393
0003b0 78 33 6e 3e bc 5a 4d 3e fe 64 b6 be b5 eb 90 3e
       0.23261821 0.20054144 -0.35623926 0.2830483
0003c0 15 cd 1f 3e ab 8f db 3e df 82 be be 36 b0 09 bf
       0.15605576 0.42883047 -0.37209222 -0.537845
0003d0 eb 46 8e 3d ad 8f c5 bd 34 d6 c1 bd 24 1a 8d 3e
       0.0694712 -0.096465446 -0.09464684 0.27559006
0003e0 f2 4d 3a be 60 db 2d 3d 17 1b a6 3d 4c 99 c3 3c
       -0.18193796 0.04244554 0.08110636 0.023876809
0003f0 0b 40 93 bd f0 39 7a be 02 bc f5 bd 13 f2 ad bc
       -0.071899496 -0.24436164 -0.1199875 -0.021233594

network_body.observation_encoder.processors.1.fc.seq_layers.2.bias f4 [22]
000000 89 bf e2 3a ad 87 81 bc 80 4a 4a 3b ac 5e c8 3b
       0.0017299514 -0.015811766 0.003086716 0.0061148014
000010 dd f5 62 bc 40 9c a8 3a a7 83 69 3c b1 9c 1b 3c
       -0.013852564 0.0012863949 0.01425258 0.009497807
000020 b1 e3 42 3a fc 86 e7 bc 89 9d 35 bc c8 0b 05 3d
       0.00074344414 -0.028262608 -0.011084923 0.03248194
000030 16 15 91 3c c5 34 8a bc 2c 31 b7 bb 1b f3 26 3c
       0.01771025 -0.016870866 -0.0055905785 0.010189797
000040 7e 3a 82 bc 6b 92 02 3d 5d f9 64 bc 0e 41 16 bb
       -0.015897032 0.031877916 -0.013975468 -0.002292696
000050 a8 4f b1 3c 43 66 07 bd
       0.021644428 -0.03305651

network_body.observation_encoder.processors.2.fc.seq_layers.0.weight f4 [22, 22]
000000 0e 3d 36 3e 58 82 53 be 1b 82 12 3f 5d 89 71 3e
       0.17796728 -0.20655191 0.57229775 0.23587556
000010 2b 5e 10 be 01 69 30 3e 14 72 ef 3d e9 ce 34 3e
       -0.14098422 0.17227556 0.116916806 0.17657055
000020 1f 6e c2 bd de 42 85 3d ad 53 31 be 57 22 11 3e
       -0.0949366 0.065068945 -0.17317076 0.14173256
000030 e8 e9 b2 3e 5e 4f 53 3e 66 ef 4b be be 23 ca 3e
       0.3494408 0.20635745 -0.19915542 0.39480394
000040 91 9e 95 3d 5b 4e 6d 3e 2e 17 76 be 0b ba 65 be
       0.07305635 0.23174421 -0.2403228 -0.22434251
000050 f6 7d 12 3e 8a cd 86 bd 2e 18 13 3e f1 c1 22 bd
       0.14305863 -0.06582172 0.14364693 -0.03973574
000060 7f 99 a1 bd 1c 47 fd bd d3 cd db bd 5f 30 7d 3d
       -0.07890605 -0.12367079 -0.10732617 0.06181371
000070 2a e9 bd 3d c4 80 cb 3d 51 41 de bd 67 17 17 be
       0.09272988 0.099366695 -0.10852302 -0.14755021
000080 0f 42 aa bd b9 f1 56 3d c5 c3 e0 3e a4 ce a2 3c
       -0.08313381 0.05247662 0.4389936 0.019873925
000090 3d 5f 28 3e c2 6d 98 3d f9 11 1a ba e4 b6 9e bd
       0.1644258 0.0744281 -0.0005877312 -0.07749727
0000a0 60 a8 a8 bd 57 0f ef bd 30 b8 ab be a9 64 70 3d
       -0.0823524 -0.11672848 -0.3353896 0.058689747
0000b0 4a 78 49 3c e0 ea 94 3e 6e 42 98 bd fc 7b 1d 3d
       0.012296746 0.29085445 -0.074345455 0.03844832
0000c0 7d e2 d7 bd 9b c0 5a 3e 50 4c b8 3e d6 19 dd 3a
       -0.10541246 0.21362536 0.35995722 0.0016868662
0000d0 ba 93 0d 3f c0 76 b8 be 78 90 f2 bc c3 80 19 3e
       0.5530354 -0.360281 -0.029609904 0.14990525
0000e0 28 4c 92 bc 1d dd ce 3d c3 72 09 3d 84 bb 3e be
       -0.01785858 0.10100768 0.03355671 -0.18626219
0000f0 a1 0c 09 be 39 3f c1 be 41 55 89 bd 89 a0 09 3b
       -0.13383724 -0.37743548 -0.06705714 0.0021000227
000100 25 a7 d5 be 11 6b b4 3c 39 da 53 bd 0c b2 40 bc
       -0.41729084 0.02202371 -0.051721785 -0.0117612
000110 13 8c 98 3e 81 cb e3 bd d7 36 ce 3d 03 98 bb be
       0.29794368 -0.111228 0.100690536 -0.36639413
000120 ea ab 16 be 99 da 6d bd a2 19 87 3d e2 2c 6e 3d
       -0.14714018 -0.0580698 0.06596686 0.058148272
000130 d2 b6 19 be 91 c2 81 be de 6f 52 3e 73 86 7a 3d
       -0.15011147 -0.25343755 0.20550486 0.061163377
000140 6a f3 41 3e 8a 3d e5 3d 04 af 7f 3c 1c 20 4c 3e
       0.18940511 0.11193378 0.015605692 0.19934124
000150 62 fd 35 3d 92 0d 3c 3e c1 9a 95 3d df e2 3e 3e
       0.044431098 0.18364552 0.073049076 0.18641232
000160 a4 be 86 3e 23 a8 b1 bd e2 3b b0 3c e9 66 c9 be
       0.26317322 -0.08674648 0.02151293 -0.39336327
000170 9d ed 52 3d 97 ef 7b 3e 6f 84 ab 3e d2 c5 bd bd
       0.051496137 0.24603115 0.33499476 -0.09266247
000180 31 6c dc be 54 af 30 3d 16 af 80 3e 51 5e 23 3e
       -0.43051293 0.043135956 0.2513358 0.15953948
000190 12 67 fd bd 01 38 9e 3c f5 85 bf 3e fa cb 21 be
       -0.12373175 0.019313814 0.3740689 -0.15800467
0001a0 65 bc ed bd 62 79 05 3f 1b e2 00 be 0d a3 3e 3d
       -0.11608199 0.5213834 -0.12586252 0.046542216
0001b0 5e 2f e0 3d 38 fb 39 bd fa f2 b2 3d 6f 29 cc be
       0.109465346 -0.045405596 0.0873775 -0.3987536
0001c0 de 9b 58 3d ce 1d 9f 3e ea 2b 0e 3e 83 71 02 3e
       0.05288302 0.31077427 0.1388394 0.12738614
0001d0 09 2e 0c be 56 f9 95 3d 59 35 1c bd 84 e3 27 3c
       -0.13689436 0.07322948 -0.038136814 0.010247115
0001e0 6a 34 48 be dc 30 82 bd 1b 06 ae be 7d 5e 81 bc
       -0.19551244 -0.063569754 -0.33989033 -0.015792126
0001f0 bc 73 1f be ca b6 15 be cf 84 7d 3e f4 42 b3 3b
       -0.15571493 -0.1462051 0.24757694 0.005470628
000200 32 fb 1e bc 26 2a 49 be a8 92 9e 3e 94 1d 0e 3d
       -0.009703444 -0.19644985 0.30971265 0.034696177
000210 09 da 54 be 73 72 cd 3d e4 64 9e 3e 67 06 a0 be
       -0.20786299 0.10031595 0.30936348 -0.31254885
000220 44 88 4e be ef 0c 61 bd be 53 4d be 5b d2 4b bd
       -0.20169169 -0.054943975 -0.20051476 -0.049761157
000230 56 39 63 be 8e 2d 8c bc b5 36 17 3d 2e 89 36 be
       -0.2218984 -0.017111566 0.036917407 -0.17825767
000240 3e 1c 70 be 9f 3b 03 be fa 8a 9b bd de 5e dd 3b
       -0.23448274 -0.12815712 -0.07594867 0.006755694
000250 d5 3e 31 3e 2b 33 6a 3e e2 31 36 3e 6e ea bc be
       0.17309125 0.22871082 0.17792466 -0.36897606
000260 b8 be 48 be 0b 22 9a bd 79 29 7f bd c5 9a 5c 3c
       -0.19604003 -0.075260244 -0.06229541 0.013464634
000270 7a 1b 36 bd 45 05 ac 3d 74 70 9d 3e 27 8e c5 bd
       -0.044459797 0.083994426 0.30749857 -0.09646254
000280 7e 95 c7 3c c0 bf 03 be 41 80 8f bc 1f 70 d8 3e
       0.024363276 -0.12866116 -0.01751721 0.42273042
000290 4f f6 00 be dd dd 17 be 64 5e 6c bd 18 77 08 3e
       -0.1259396 -0.14830728 -0.057707205 0.1332668
0002a0 d4 f0 ad be db a6 48 3a c9 8b e3 3c b6 e6 c5 bd
       -0.339728 0.0007654258 0.027776616 -0.09663145
0002b0 7b 4d 0b 3d 56 f7 7d be 5f 00 2c bd dd 1c c5 3c
       0.034009438 -0.24801382 -0.04199254 0.024061615
0002c0 76 6a 5d bd c7 5b 2d be a9 0d 1f bd 7e 8e a2 bd
       -0.054056607 -0.16929542 -0.038831387 -0.079373345
0002d0 df de f2 3b 34 a4 0b bd 6a e9 dc 3d e6 9e a1 bd
       0.007411822 -0.034092143 0.10786708 -0.078916356
0002e0 11 1d cc 3d a5 37 94 bb 94 d9 65 bc db a0 83 bd
       0.099664815 -0.004523235 -0.014028925 -0.06427165
0002f0 0b 9c f4 3e ed 3b 62 be 11 a7 06 3e af 62 7c 3e
       0.477753 -0.22093172 0.13149668 0.2464702
000300 d3 15 ac 3e 6f dd ef bd 87 04 68 be 59 e1 6f 3e
       0.336104 -0.11712157 -0.22657977 0.23425807
000310 7f 2a 86 3e a6 de 05 3d 83 e2 bc 3d fe 6d cc 3e
       0.26204297 0.032683037 0.09222891 0.39927667
000320 91 87 39 be ce 05 0f be 11 63 0a bf 44 1a 84 be
       -0.1811812 -0.13967058 -0.54057413 -0.2580129
000330 13 5e c7 bd fe 4d 11 39 e8 48 b9 bd 20 c1 c0 bd
       -0.0973474 0.00013857332 -0.09047109 -0.09411836
000340 31 06 fb 3d 17 45 4a 3e 1d 45 00 3e bf 57 5d bd
       0.1225704 0.19752918 0.12526365 -0.05403876
000350 92 ba 80 be a8 d5 5f 3e cc d5 21 3e 06 37 3a be
       -0.25142342 0.21858847 0.15804213 -0.18185052
000360 ba e8 71 3d de 53 c2 bd 49 b7 ca be 0e 0e 88 3e
       0.059059836 -0.09488653 -0.3959296 0.26573223
000370 9c 35 ba 3e e2 f4 3d 3e 55 f1 95 3c aa 9a 19 be
       0.36369026 0.18550447 0.018303553 -0.15000406
000380 04 42 c9 bd 81 78 85 be ae 73 96 be 5e 18 12 3e
       -0.098270446 -0.260685 -0.29385132 0.14267108
000390 08 dd 3b bd 3a 59 6a be 32 40 de be ab 3d 77 bd
       -0.04586509 -0.228856 -0.43408352 -0.060361546
0003a0 55 f9 d2 3d 1f c4 26 3e 08 8d f7 3c 78 97 35 3e
       0.103014626 0.16285752 0.030218616 0.17733562
0003b0 eb de 5c 3e 8b d6 60 be 5b c6 c3 3d 28 d4 2e be
       0.21569411 -0.21956842 0.09559318 -0.17073119
0003c0 36 88 a7 be 7f e7 f0 bd e8 70 a4 bd 06 04 0a 3e
       -0.32721108 -0.117629044 -0.08029348 0.13478097
0003d0 50 e3 17 3c 73 3a 22 be 14 5b 42 bc 09 b7 77 3e
       0.009270504 -0.15842609 -0.011862535 0.24190916
0003e0 46 43 27 bc aa 80 8a 3e a6 4a c1 bc a6 56 a1 3d
       -0.01020891 0.27051288 -0.023595165 0.07877855
0003f0 a1 50 f5 3d 82 63 94 be fd 7d 02 be 7c 43 84 bc
       0.11978269 -0.28982168 -0.12743373 -0.01614546

network_body.observation_encoder.processors.2.fc.seq_layers.0.bias f4 [22]
000000 66 1c b9 bc 14 0d 3e bc 2a 6a ba bc 92 59 11 bc
       -0.02259655 -0.011599798 -0.022755701 -0.008871453
000010 83 57 eb bb cc 3c 66 bc f7 1b 43 bc fe 7e 6a bc
       -0.007182063 -0.014052581 -0.011908523 -0.014312504
000020 84 07 9b bc c0 0e b2 bb 89 5b 32 3c 97 a4 29 3c
       -0.018924482 -0.0054338872 0.0108860815 0.010354183
000030 bc ed 84 bb 5c 26 8d ba c7 75 bc 3b 41 b9 0f 3c
       -0.0040566605 -0.0010768878 0.005751345 0.008772195
000040 5a 65 12 bc 34 d2 2e bc 9a ac f4 3a 4e 07 c5 bc
       -0.008935297 -0.0106702335 0.0018667162 -0.024051335
000050 da 35 96 bb bb 02 50 bc
       -0.0045840563 -0.0126959635

network_body.observation_encoder.processors.2.fc.seq_layers.2.weight f4 [22, 22]
000000 04 01 89 3e a8 b8 22 be 23 76 0a 3e cf d0 95 be
       0.26758587 -0.15890753 0.13521628 -0.2926087
000010 49 49 79 3e dd 8e 2f 3d d5 aa de bc e8 a6 f2 3a
       0.24344362 0.042860854 -0.027181068 0.0018512877
000020 de 34 9c 3e 29 53 39 bd f6 1a f1 bb 7c 22 49 be
       0.30509084 -0.045245323 -0.0073579503 -0.19642061
000030 9b cc bf 3d 52 a6 57 be 67 d7 b0 bc 37 14 01 3e
       0.09365197 -0.2105954 -0.021587087 0.12605368
000040 a5 5c bf be 41 9a 34 bd 12 29 24 3e 95 c6 b2 3e
       -0.3737537 -0.04409242 0.16031292 0.3491713
000050 fd a7 b6 be eb bb f8 3d 97 b4 8f be 4f 02 75 3e
       -0.3567504 0.121452175 -0.28067467 0.23926662
000060 da 58 b6 3d 48 95 23 be 49 be 69 be 43 d0 26 be
       0.08903666 -0.15974915 -0.22826494 -0.16290383
000070 9f 01 93 be 85 10 c5 3e db 6f 81 3e e3 89 81 3e
       -0.28712174 0.38489166 0.2528065 0.25300512
000080 a4 06 93 bd d4 d6 ee 3d fd 4b 53 3e 37 e6 2e be
       -0.07179001 0.11662069 0.20634456 -0.17080007
000090 06 cd 6e 3e ba 27 bf bd 65 eb 12 bd 8c 71 eb bb
       0.23320398 -0.09333749 -0.03586902 -0.0071851667
0000a0 0e 00 44 3e ce 08 ed 3d b6 b7 b0 3c 60 2c 24 be
       0.19140646 0.11573945 0.021571975 -0.16032553
0000b0 4c 0f bc 3d 41 c1 07 3d 2c c8 84 3e 94 76 85 bd
       0.09182605 0.033143286 0.2593397 -0.065167576
0000c0 7f 5b 4c bc 2b 22 1a bd a6 6f 35 be 1b 9f e7 bc
       -0.012472986 -0.03763024 -0.17718372 -0.02827411
0000d0 02 fc 11 be ac 83 f3 bc 32 65 8b 3e 48 69 4b bd
       -0.1425629 -0.029725872 0.27225643 -0.04966095
0000e0 8a 8f 4c 3e 3d 86 5e be 27 68 14 be 4a 83 ba be
       0.19976631 -0.21730895 -0.14492856 -0.3642829
0000f0 76 be 68 be 63 d0 75 be 57 9e 64 3e a0 36 af 3d
       -0.22728905 -0.24005274 0.22326027 0.08555341
000100 a5 7c 8e bd cb 36 30 bd 01 b1 43 bd c6 cd 30 3e
       -0.06957368 -0.043021005 -0.047776226 0.17265996
000110 e1 b6 27 3e b7 82 2c be a1 3c 1e be 87 a4 b8 be
       0.16378357 -0.16846739 -0.15452816 -0.36063024
000120 aa 44 8d bd 52 ae 0d 3e 64 2d 91 3e c9 06 dc bd
       -0.06897862 0.13836029 0.28354943 -0.10743482
000130 30 99 7e 3c 94 5e 6b be bd 98 a7 be 6b b0 09 3e
       0.015539452 -0.22985297 -0.32733718 0.13446204
000140 2c 12 98 bd 61 b6 9f be c5 95 ec bd 09 dc 29 be
       -0.07425341 -0.31193832 -0.11552004 -0.16587843
000150 4a 87 8b be ff 98 b6 3e 7e d3 83 bc ff 45 2d 3e
       -0.27251655 0.35663602 -0.016092058 0.16921233
000160 ab b5 09 3e 17 e1 c2 3c 94 e3 c7 bd db 51 20 be
       0.13448207 0.023788972 -0.09760204 -0.15656225
000170 9f 4e 19 3e c2 82 f5 3a ab 06 09 be 78 3c 02 3d
       0.14971398 0.0018730985 -0.1338145 0.03179595
000180 c6 63 3b be fe 5f 12 be 44 02 12 3e d0 54 e7 bd
       -0.1829978 -0.1429443 0.14258677 -0.112954736
000190 21 8f 12 bd 9b 6e 6b be 67 97 3e bd 53 03 1b 3e
       -0.03578103 -0.22991411 -0.046531107 0.15137987
0001a0 c6 94 63 3d 36 94 80 3d 0a bd 47 3e ca c3 85 bd
       0.055561803 0.06278269 0.19505706 -0.065314844
0001b0 cb 24 22 3e e8 bb 3e 3e 71 e7 a4 3d bc fd ec be
       0.15834348 0.18626368 0.080519564 -0.46287334
0001c0 88 66 f1 3e e0 0d 86 3d 37 d2 1a bc c9 19 cd bd
       0.47148538 0.06545615 -0.009449533 -0.10014684
0001d0 4d 4a 4f 3e aa 94 49 3e 59 7e fb 3d 9e 73 44 bd
       0.20243187 0.19685617 0.12279958 -0.047961824
0001e0 d3 a1 8f 3d 77 7e 7e 3e 9b dc ee 3c 37 71 13 be
       0.070132874 0.2485293 0.029157927 -0.14398657
0001f0 5b d6 d8 be 39 3c 14 3e c3 8b 23 3e 29 dd b5 3e
       -0.4235104 0.14476098 0.15971284 0.35520294
000200 12 1f 2b be c5 c6 86 3e 50 85 6a be bc 20 d1 bd
       -0.16711071 0.26323524 -0.22902417 -0.10211322
000210 1c 2c 18 bf 32 6f bf 3e 8b 23 7a 3e a1 e0 1a 3d
       -0.59442306 0.37389523 0.24427621 0.03781188
000220 5b c8 d8 3e 9c 16 04 3e 42 03 11 be c6 ee ac bd
       0.4234036 0.1289925 -0.14161399 -0.0844398
000230 09 fb 52 bd 46 d6 f0 bd c9 80 65 be e4 a6 c7 be
       -0.051508937 -0.117596194 -0.22412409 -0.38994515
000240 ad 98 02 be 72 4c df bc a1 11 80 bd 93 fa 5d be
       -0.12753554 -0.027258132 -0.062533624 -0.21677618
000250 df 20 b2 be 77 bd d8 bd 28 9d 59 3e d3 b9 b0 be
       -0.34790704 -0.105830126 0.21251357 -0.34516773
000260 1b cd 74 bc ae 0b ef 3e 07 76 a5 3d fe 56 01 be
       -0.014941479 0.46688598 0.080791526 -0.12630841
000270 e5 a3 2a be 2e e2 2a bf a7 23 be 3d f5 61 1b bc
       -0.16664083 -0.6675137 0.09284144 -0.009483804
000280 42 b5 8f bd f8 c2 6f 3d 9b 9e 55 3e 55 00 4d 3e
       -0.07016994 0.058535546 0.20861284 0.20019658
000290 3e 35 9a 3d 0e eb 21 be 14 7e 76 3e 6c 6e ee 3d
       0.075296864 -0.15812322 0.24071532 0.11642155
0002a0 c9 34 6f be f3 fe 5f 3e f7 9b 86 3e 8e 98 a2 3d
       -0.2335998 0.21874599 0.26290867 0.07939254
0002b0 c7 48 bd bd 2c dc 17 3e b9 21 69 be d9 45 27 3e
       -0.09242397 0.14830083 -0.2276677 0.16335239
0002c0 db 5d 15 be e3 41 fd 3e b6 3e 98 be 50 69 44 be
       -0.14586584 0.4946433 -0.29735345 -0.19180799
0002d0 8b 81 22 be f2 2b 26 3e f2 21 10 3c 89 17 94 3e
       -0.15869729 0.16227701 0.008797156 0.28924206
0002e0 d3 1d bb 3d b2 96 d9 bd 3c 27 fd bd 81 02 a2 3e
       0.09136548 -0.10624446 -0.12360999 0.31642535
0002f0 b3 26 64 3e 3a 71 84 be 42 40 f6 3d 61 0c 03 3d
       0.22280388 -0.25867635 0.12023975 0.031994227
000300 44 df 4a be be 5a 18 be 54 02 36 3e 75 6b 2e be
       -0.19811732 -0.14878365 0.17774326 -0.17033179
000310 4a 0b 00 3e de 1e c7 bd 7f c8 b0 be 9a b2 7a bd
       0.12504306 -0.09722684 -0.34527966 -0.061205484
000320 92 0b af 3e 98 d0 58 be eb 2c 2c 3e b7 18 24 be
       0.34188515 -0.21173322 0.1681401 -0.16025053
000330 cc 3c 43 be cc d6 5c 3e 99 49 46 be 69 41 f8 bd
       -0.19066161 0.21566314 -0.19364013 -0.12121851
000340 d6 7d ac bc f5 45 dc bd e1 64 82 be 82 60 8c bd
       -0.021056097 -0.10755531 -0.2546759 -0.06854345
000350 15 4d 7a 3d b3 6a ff bd bb 95 90 be 22 d1 0f 3f
       0.061108667 -0.12471523 -0.28239235 0.56178486
000360 26 7f 27 be 73 f1 a8 bd 1f e7 60 3c 80 d8 6a 3e
       -0.16357097 -0.08249178 0.013726979 0.2293415
000370 0a 28 d0 3d 3f 55 a5 be 96 1a ed bd 12 f3 67 3e
       0.10163887 -0.322916 -0.115773365 0.22651318
000380 9b 02 1c 3d 69 8f b1 3c 51 b7 95 be 23 8a ed bc
       0.038088422 0.021674829 -0.29241422 -0.028996533
000390 62 1d f2 be 59 3e 68 3d ed 18 7b be 80 a0 46 3e
       -0.47288042 0.056700084 -0.24521227 0.19397163
0003a0 67 7f a5 be d6 e6 6d bb 5d 03 e3 3e ed d7 37 bd
       -0.32323763 -0.003630092 0.44338503 -0.044883657
0003b0 30 e0 1c be 23 a2 bd bd f0 33 b4 3e d9 7f b2 be
       -0.15319896 -0.09259441 0.35195875 -0.34863165
0003c0 eb 24 49 3d ff 08 a9 be f3 dd 2f bc 06 cc 21 3e
       0.049107473 -0.33014676 -0.010734069 0.15800485
0003d0 20 71 58 3e 61 56 64 3e 0d 4f b2 bb c5 e2 4b 3e
       0.21136904 0.22298576 -0.0054415525 0.19910724
0003e0 3b 62 3c be ce aa 71 3e b6 51 40 be 93 91 7c bd
       -0.18396847 0.23600313 -0.1878117 -0.061662268
0003f0 3c f0 41 be cc 59 25 3e e1 59 6e be 13 39 ac bc
       -0.18939298 0.16147536 -0.23276474 -0.021023309

network_body.observation_encoder.processors.2.fc.seq_layers.2.bias f4 [22]
000000 d2 25 bf bb 64 c7 6c bc c2 24 83 3b 85 91 da bb
       -0.005833366 -0.014451835 0.0040021846 -0.0066701793
000010 e7 58 cc 3b 79 0e b0 bc 57 de 96 b9 27 e0 48 3c
       0.006236184 -0.021491276 -0.00028775886 0.012260473
000020 ba e2 26 3c fa 42 41 3a 13 ae 79 3c d5 18 ae ba
       0.010185892 0.0007372346 0.015239256 -0.0013282547
000030 e2 39 4d bc a0 31 79 3b f3 60 ca 3b 73 ad 74 3c
       -0.012526007 0.0038023964 0.006176108 0.014933932
000040 b2 ff 92 3b c5 c7 e9 bc e9 44 0b bc 19 b8 a6 ba
       0.0044860477 -0.02853764 -0.008500316 -0.001271966
000050 41 f4 64 3a a2 43 c7 3b
       0.00087339064 0.0060810605
