Assets/oon/05-26-lidar.onnx (onnx, 785338 bytes, 39 tensors)

network_body.observation_encoder.processors.0.fc.seq_layers.0.weight f4 [22, 22]
0	0xbe33295d	-0.17496248
1	0xbe869f3e	-0.26293367
2	0xbe724319	-0.23658408
3	0x3e1ff67c	0.1562137
4	0x3d2abf1f	0.041686174
5	0xbeaefb6e	-0.341762
6	0x3e5b0c1a	0.21391335
7	0xbee9a652	-0.45634705
8	0x3ef4bcf3	0.47800407
9	0xbea1ff52	-0.31640106
10	0xbdd59b95	-0.104300655
11	0x3ddb9aed	0.10722909
12	0xbe182bd9	-0.14860477
13	0x3cdcdf41	0.026961925
14	0xbd7ba707	-0.061438587
15	0x3e758d77	0.23979746
16	0x3e220afe	0.15824506
17	0xbeb5a019	-0.35473707
18	0x3dbec4a2	0.093148485
19	0x3e308565	0.17238386
20	0xbe385d76	-0.18004403
21	0x3ea3423c	0.3188647
22	0xbea24b5b	-0.31698117
23	0x3e8de75f	0.27715585
24	0x3daa55cd	0.083171465
25	0xbe10dc7a	-0.14146605
26	0xbcbd1994	-0.023083486
27	0xbe7354df	-0.23762845
28	0x3df5de26	0.12005262
29	0xbdc57636	-0.096416876
30	0xbeaada93	-0.33369884
31	0xbe33b96a	-0.17551199
32	0xbe31e3ab	-0.17372005
33	0x3e3d7bee	0.18504307
34	0xbd106c9f	-0.03525984
35	0x3ea39ae6	0.31954116
36	0xbe8cce2c	-0.27501047
37	0x3d5d6fe4	0.054061785
38	0x3e5e0d41	0.21684743
39	0x3e0f729c	0.14008564
40	0x3e1d87e8	0.15383875
41	0x3e7c57a0	0.24642801
42	0x3e2c3fc4	0.168212
43	0x3e7f85e0	0.24953413
44	0xbcf0472b	-0.02933081
45	0x3e04a32c	0.1295287
46	0xbe4890f9	-0.19586553
47	0x3e9e397b	0.3090323
48	0x3e4f5365	0.20246656
49	0x3ebd8934	0.3701874
50	0x3dd93b2b	0.106069885
51	0xbe7d767b	-0.24752228
52	0x3e48205e	0.19543597
53	0xbdaf3b74	-0.08556262
54	0xbd452932	-0.04813499
55	0xbed8a8b9	-0.42316225
56	0x3e0e689a	0.1390709
57	0xbe6d391f	-0.23166321
58	0xbd156ccf	-0.03648072
59	0x3e0046d4	0.12527019
60	0xbdf06d9a	-0.11739655
61	0xbdf5b085	-0.11996559
62	0xbdcd9a3c	-0.100391835
63	0xbdf2d672	-0.118573084
64	0x3ed889b6	0.42292565
65	0xbe4cec38	-0.20011985
66	0x3e86769c	0.26262367
67	0xbdad5370	-0.0846318
68	0xbe8df7f4	-0.27728236
69	0x3eb66e07	0.3563082
70	0xbd575046	-0.05256679
71	0xbe91ad07	-0.28452322
72	0x3d7b4c4f	0.06135207
73	0xbd0ca6ff	-0.034338947
74	0x3e50d866	0.2039505
75	0xbd142899	-0.03617153
76	0xbe15a09e	-0.14612052
77	0xbd96832e	-0.07349239
78	0x3dacd2b7	0.08438628
79	0x3cd9c177	0.026581509
80	0xbd6e0023	-0.0581056
81	0xbe996060	-0.2995634
82	0xbded9cb8	-0.11602157
83	0xbe1eda0d	-0.15512867
84	0xbe6c04ed	-0.23048754
85	0x3d69923f	0.057024237
86	0x3c1c82be	0.009552656
87	0x3e2c04f6	0.16798767
88	0xbd2f8562	-0.042851813
89	0xbed8e0cf	-0.42359015
90	0xbd187d53	-0.037228893
91	0x3ea1129d	0.31459513
92	0xbe23a982	-0.15982631
93	0x3bfc3500	0.007696748
94	0xbd14d277	-0.036333527
95	0xbe933dd2	-0.28758103
96	0x3eaf6917	0.34259865
97	0x3d2bb18e	0.041917376
98	0x3e7b7dbc	0.24559683
99	0x3dbd4ea4	0.09243515
100	0x3c3ed193	0.011646646
101	0xbe69f937	-0.22848974
102	0xbcbb950c	-0.02289822
103	0x3c9ae31c	0.018907122
104	0x3e5b87b0	0.2143848
105	0xbea071da	-0.31336862
106	0x3e0dc72a	0.13845506
107	0xbe14d113	-0.1453288
108	0x3ecf4e02	0.40489203
109	0xbe16a7b9	-0.14712419
110	0x3ee53b89	0.44771984
111	0x3d9c002a	0.07617219
112	0x3e493f6c	0.196531
113	0x3db8eea4	0.09029892
114	0xbcf11865	-0.029430578
115	0xbe134307	-0.14381038
116	0xbde28c27	-0.11061888
117	0x3d82be63	0.0638397
118	0x3e55059f	0.20802926
119	0x3b6137f7	0.0034365633
120	0xbdb47095	-0.08810536
121	0x3d26b316	0.040698133
122	0xbe3b4b83	-0.18290524
123	0xbe770772	-0.24123934
124	0x3e50885c	0.20364517
125	0x3d2cc43d	0.042179335
126	0x3e68e3c1	0.22743131
127	0x3e914f24	0.28380692
128	0x3cb17f55	0.021667162
129	0xbd5974a3	-0.05308975
130	0x3e03f149	0.12885012
131	0x3e769967	0.24081956
132	0x3e494545	0.1965533
133	0xbe736d19	-0.23772086
134	0xbe10c604	-0.14138037
135	0x3e40e14f	0.18835948
136	0xbe3fa359	-0.18714656
137	0xbe91446f	-0.28372523
138	0xbe1c0eaf	-0.15239976
139	0xbd73255a	-0.059361793
140	0x3ecc3f4d	0.39892045
141	0x3d8f5d28	0.0700019
142	0x3d73da70	0.05953449
143	0xbe28cdf1	-0.1648481
144	0xbe8294c4	-0.25504124
145	0xbe89aa5a	-0.2688778
146	0x3e52ce2f	0.20586465
147	0x3e6b60cc	0.22986144
148	0x3e8414b8	0.25797057
149	0x3c1caab9	0.009562188
150	0xbe2fe6a3	-0.17177825
151	0x3d608a38	0.054819316
152	0x3ec66d4b	0.3875526
153	0x3e6ed88b	0.23324792
154	0x3e2eb37d	0.17060657
155	0xbe04dd39	-0.12975015
156	0x3def2eed	0.11678872
157	0x3d548ff3	0.051895093
158	0x3eb29d8a	0.34885818
159	0xbf0109dc	-0.5040567
160	0x3e8767a2	0.26446253
161	0xbdd6888a	-0.104752615
162	0x3d219263	0.039446246
163	0xbed695ae	-0.41911072
164	0x3e80c782	0.25152212
165	0xbe84cc79	-0.2593725
166	0xbee993eb	-0.45620665
167	0x3ec35224	0.38148606
168	0x3ec794f5	0.38980833
169	0xbc70a395	-0.0146874385
170	0xbe3e8521	-0.18605472
171	0x3cdae492	0.026720319
172	0x3d95f028	0.07321197
173	0x3e997216	0.29969853
174	0x3c1cd802	0.009572985
175	0x3e02db31	0.12778927
176	0xbdafc498	-0.08582419
177	0x3e252758	0.1612829
178	0xbe0d5215	-0.13800843
179	0xbe694008	-0.22778332
180	0xbe884436	-0.2661454
181	0xbc8fec73	-0.017568802
182	0xbdb6c281	-0.089238174
183	0x3c5e472e	0.013566775
184	0xbdb65eeb	-0.08904823
185	0xbe11346d	-0.14180155
186	0x3eb39cd1	0.3508058
187	0xbc959f8f	-0.01826456
188	0xbd93b967	-0.07213097
189	0xbe76da1f	-0.24106644
190	0xbec6fc0f	-0.3886418
191	0xbded4463	-0.11585309
192	0xbe0069c1	-0.12540342
193	0xbea62e43	-0.3245717
194	0xbecabd01	-0.39597324
195	0x3e0ec54b	0.13942449
196	0x3d29ca2b	0.041452568
197	0xbdaf8bb3	-0.085715674
198	0x3e1fd4c4	0.15608507
199	0xbe91ce74	-0.28477824
200	0x3dfb6b7a	0.12276359
201	0x3de7e08f	0.11322128
202	0xbe34e0ad	-0.17663832
203	0xbf1a2422	-0.60211384
204	0x3e273625	0.16329248
205	0x3ee4730a	0.44619018
206	0x3de405e8	0.11133939
207	0x3e32e099	0.1746849
208	0xbde158ee	-0.1100329
209	0x3d00e79d	0.031470884
210	0xbe8564c5	-0.26053444
211	0xbd7a7891	-0.061150137
212	0xbdb7bf59	-0.089720435
213	0x3e460b93	0.19340353
214	0x3dd2912f	0.10281598
215	0x3cdbbeea	0.026824433
216	0x3c83beae	0.016082134
217	0xbeaf612a	-0.34253818
218	0xbcc54def	-0.024085013
219	0xbe8cface	-0.275351
220	0x3dafd8e4	0.085862905
221	0xbe0f49c0	-0.13992977
222	0x3e6bc567	0.23024522
223	0xbdf08fcc	-0.11746177
224	0x3d645fc1	0.05575538
225	0xbc98862e	-0.01861867
226	0x3e31190e	0.17294714
227	0x3e5bb1d9	0.21454562
228	0x3ebb0ff0	0.36535597
229	0xbd3fc264	-0.046816245
230	0xbe4d95f8	-0.2007674
231	0x3ea7b242	0.32753187
232	0x3ef18750	0.47173548
233	0x3cccddad	0.025008047
234	0x3e771e82	0.24132732
235	0xbe9692cb	-0.2940887
236	0x3e9509df	0.29109094
237	0x3bdeef39	0.00680342
238	0xbdea3a03	-0.11436846
239	0x3dfce265	0.12347869
240	0x3d9e26b5	0.077222265
241	0xbe74955f	-0.23885106
242	0xbf10eaaf	-0.566081
243	0xbcec9347	-0.028878821
244	0xbe64b818	-0.22335851
245	0xbe64589f	-0.22299431
246	0x3e09c139	0.13452615
247	0x3d4d32db	0.050097328
248	0xbe2f59ab	-0.1712405
249	0xbde13e23	-0.1099818
250	0xbde73560	-0.11289477
251	0x3e72be5f	0.23705433
252	0x3ec628f6	0.38703126
253	0x3ca5d11c	0.020241313
254	0x3e104c6c	0.14091653
255	0x3e7e5e2f	0.24840616

network_body.observation_encoder.processors.0.fc.seq_layers.0.bias f4 [22]
0	0xbae69671	-0.0017592442
1	0xbc368ebc	-0.011142429
2	0x3c46e316	0.012139102
3	0xbc60556d	-0.013692242
4	0xbb9a7386	-0.0047134785
5	0xbbe63689	-0.007025544
6	0x3b22f072	0.0024862555
7	0xb9322fe0	-0.00016993238
8	0x3c51f860	0.012815565
9	0x3c7b09b7	0.01532214
10	0x3be98859	0.0071268496
11	0x3bae2360	0.0053142756
12	0xbd0e4954	-0.0347379
13	0x3c33af2e	0.010967059
14	0x3ac4473f	0.0014974846
15	0xbc243cef	-0.010024293
16	0xbbd1c185	-0.006401243
17	0x3c2c0b6f	0.010500773
18	0x3b461328	0.003022382
19	0x3cad1314	0.021127261
20	0x3bc6a58d	0.0060622157
21	0xbc9b2fc5	-0.018943677

network_body.observation_encoder.processors.0.fc.seq_layers.2.weight f4 [22, 22]
0	0x3df0c950	0.11757147
1	0xbe1dea85	-0.15421493
2	0xbe38a00c	-0.18029803
3	0x3cdcede0	0.026968896
4	0x3e3cbb3d	0.184308
5	0xbd3afd3a	-0.045651652
6	0x3cab8269	0.020936208
7	0x3dd7ec98	0.105431736
8	0xbdd1ce47	-0.102444224
9	0xbe2ab695	-0.16671212
10	0xbdd99e8b	-0.10625943
11	0xbe5427dd	-0.20718332
12	0x3e4e04e3	0.20119052
13	0xbdd55936	-0.10417406
14	0x3d89ef0c	0.06735048
15	0xbe87da0a	-0.26533538
16	0xbd9d5545	-0.076822795
17	0x3c81f636	0.015864473
18	0xbc31291e	-0.010813026
19	0x3dc0e3e4	0.09418467
20	0xbe088312	-0.1333125
21	0x3cbe5ff2	0.02323911
22	0xbdfb1837	-0.12260478
23	0x3e8fd18f	0.28089568
24	0xbd29be20	-0.041441083
25	0xbecf8295	-0.40529314
26	0xbe848b11	-0.2588735
27	0x3e208ae1	0.15677978
28	0xbb8b7dc1	-0.0042569344
29	0xbd324bdc	-0.043529376
30	0x3e977bf5	0.2958676
31	0x3cad90ea	0.021187264
32	0x3cb098c6	0.021557223
33	0xbe72f26a	-0.23725286
34	0xbcfe1cdc	-0.03101962
35	0xbdf43650	-0.11924422
36	0x3eeed867	0.46649477
37	0x3e1075ee	0.14107487
38	0x3d8e147f	0.06937503
39	0x3e72658e	0.23671553
40	0xbe962570	-0.29325438
41	0x3e2be618	0.16786993
42	0x3e546c3e	0.20744416
43	0xbe990439	-0.29886034
44	0x3e39d187	0.18146335
45	0xbe816713	-0.25273952
46	0xbdb15d40	-0.08660364
47	0xbe35b391	-0.1774428
48	0x3daec616	0.08533876
49	0x3d8b375f	0.067976706
50	0x3e032b49	0.1280948
51	0xbdcde465	-0.100533284
52	0xbbc0ecbb	-0.0058875955
53	0x3e195b3b	0.14976208
54	0x3c4ed4f2	0.012624012
55	0xbe89a254	-0.2688166
56	0xbdf369f6	-0.11885445
57	0x3e58257c	0.21108049
58	0xbe394e27	-0.18096219
59	0x3d895a10	0.06706631
60	0x3ec15918	0.37763286
61	0x3e4dc891	0.20096041
62	0x3e304376	0.17213234
63	0xbe8abc20	-0.27096653
64	0xbdd621dd	-0.10455678
65	0xbd768ead	-0.06019466
66	0xbed47db4	-0.41502154
67	0x3e956cd5	0.29184595
68	0x3a778611	0.00094422797
69	0xbe4745f0	-0.19460273
70	0x3ddf357b	0.108988725
71	0xbca72460	-0.020403087
72	0x3f062d11	0.52412516
73	0x3e42eba1	0.19035198
74	0x3e15b843	0.14621072
75	0xbddde8be	-0.10835408
76	0xbe41f5ca	-0.18941417
77	0xbcabdaa8	-0.020978287
78	0xbea01a6b	-0.31270155
79	0xbd8f60a9	-0.07000858
80	0x3e25ddb2	0.16197851
81	0x3dd6e1c2	0.10492279
82	0xbebc433c	-0.36770046
83	0x3e28d370	0.16486907
84	0xbdee6d18	-0.11641902
85	0xbe99b2b3	-0.3001915
86	0x3e379112	0.17926434
87	0xbe5e5b3c	-0.2171449
88	0xbe4b7f1e	-0.1987271
89	0x3de7f54c	0.113260835
90	0xbe3760d1	-0.17908026
91	0x3e99b7ab	0.3002294
92	0xbe353cc6	-0.17698964
93	0xbdfff148	-0.124971926
94	0x3e454a08	0.19266522
95	0x3c5594ea	0.013035992
96	0x3d9aa24d	0.07550488
97	0x3c90825d	0.017640287
98	0x3db72350	0.08942282
99	0x3e8658c9	0.26239613
100	0xbe2d14dd	-0.1690249
101	0x3cc96da9	0.024588423
102	0x3e2a3b24	0.16624123
103	0x3f12062d	0.57040673
104	0x3e171f51	0.1475804
105	0xbd8e4af3	-0.06947889
106	0xbd1a831a	-0.037722684
107	0x3cab9b34	0.02094803
108	0x3de46eee	0.11153971
109	0xbe3d07b3	-0.18459968
110	0xbc86d192	-0.016457353
111	0xbea035f4	-0.31291163
112	0x3e1edf45	0.15514858
113	0x3daa225e	0.08307336
114	0xbe99cabb	-0.30037484
115	0xbe6f902d	-0.23394842
116	0xbd6e143a	-0.05812476
117	0xbd8ddcd2	-0.06926884
118	0x3eaab10f	0.3333821
119	0xbe39d235	-0.18146594
120	0xbd7d5107	-0.06184485
121	0xbdfb3e28	-0.12267715
122	0x3edfd24d	0.43715134
123	0xbe96eb3c	-0.29476345
124	0xbec7bb6b	-0.39010176
125	0xbe72bf3f	-0.23705767
126	0x3e8e1aff	0.2775497
127	0xbdd647b2	-0.104628935
128	0xbe72c4f6	-0.23707947
129	0xbde04224	-0.10950115
130	0x3ec5d43f	0.38638493
131	0x3ec3602b	0.38159308
132	0x3bffda9f	0.007808044
133	0xbc9852ff	-0.018594263
134	0x3dfec638	0.12440151
135	0x3e16d1bc	0.14728445
136	0x3c1fdc94	0.00975718
137	0x3c7f15f4	0.015569199
138	0xbae8de33	-0.0017766416
139	0xbeb867d0	-0.36016703
140	0x3de805dd	0.11329243
141	0x3e0f21c4	0.13977724
142	0x3cc24820	0.023716033
143	0x3d614e0c	0.055006072
144	0xbe3735dd	-0.17891641
145	0xbc24b129	-0.010052004
146	0xbd91c05a	-0.07116766
147	0x3dc04aaa	0.09389241
148	0x3e50de49	0.20397295
149	0xbe291685	-0.16512497
150	0x3e4b94b3	0.19880943
151	0xbd8b4421	-0.06800104
152	0xbda55828	-0.08073455
153	0x3c99185d	0.018688375
154	0x3ed06fd3	0.40710315
155	0x3d3dbdfc	0.04632376
156	0x3d9fc83b	0.07801863
157	0x3de30073	0.1108407
158	0xbe7e27d2	-0.24819878
159	0xbe631d88	-0.22179234
160	0x3dd91154	0.10599008
161	0x3eeeeb2a	0.4666379
162	0x3c1c1135	0.009525587
163	0x3df718c2	0.12065269
164	0x3e0b1363	0.13581614
165	0x3e6f525f	0.23371266
166	0xbe339204	-0.1753617
167	0xbed11a52	-0.40840393
168	0xbe5b0103	-0.21387105
169	0xbd26dc78	-0.0407376
170	0x3e4fe9ce	0.20304033
171	0xbdf3b4e2	-0.11899735
172	0x3ea45084	0.3209268
173	0xbd967b62	-0.07347752
174	0x3e1197ff	0.14218138
175	0x3ea0eee1	0.3143225
176	0xbe8872f9	-0.26650217
177	0xbdaaa2b6	-0.08331816
178	0xbe2cf03a	-0.16888514
179	0x3f0c8976	0.5489725
180	0xbd0ea789	-0.034827743
181	0x3ef29c38	0.4738481
182	0x3d62f966	0.055413626
183	0xbe4d49ff	-0.20047759
184	0x3ea3063a	0.31840688
185	0x3d2d9cae	0.04238575
186	0x3d556d13	0.052105974
187	0xbd8f9b52	-0.07012047
188	0xbe408f48	-0.18804657
189	0xbec666a7	-0.38750193
190	0xbd46c63d	-0.0485289
191	0xbe146fa7	-0.14495717
192	0xbe237a58	-0.15964639
193	0x3d2804f5	0.041020352
194	0x3e87eddb	0.26548657
195	0xbd75b18e	-0.059983782
196	0x3e64e921	0.22354557
197	0xbe8f7f9d	-0.2802705
198	0xbddf5d87	-0.10906511
199	0xbe051f6a	-0.13000265
200	0xbe58b088	-0.21161091
201	0xbe3096a2	-0.17244962
202	0xbec72267	-0.38893434
203	0xbdf1f218	-0.11813754
204	0xbe7095fc	-0.23494714
205	0x3e5b9569	0.21443714
206	0x3e1d8326	0.1538206
207	0x3e92112a	0.2852872
208	0x3e4cb7d1	0.19991995
209	0xbc71ec9b	-0.014765884
210	0x3ebf040b	0.37307772
211	0xbec8c6e1	-0.39214233
212	0xbd343c11	-0.044002596
213	0x3cdb916e	0.026802745
214	0x3e1d042b	0.15333621
215	0xbe0162b9	-0.12635316
216	0xbee1c146	-0.44092768
217	0x3d258ee1	0.040419463
218	0xbe4186b5	-0.18899043
219	0xbed978ba	-0.4247492
220	0x3e6ebdf6	0.23314652
221	0x3da37459	0.07981176
222	0x3d89bca7	0.06725436
223	0x3ba473ca	0.005018686
224	0xbe301a19	-0.17197455
225	0x3d1580ba	0.036499716
226	0x3eca01c9	0.39454487
227	0x3da4b96b	0.08043178
228	0x3d3a7bdd	0.04552828
229	0x3eca124b	0.3946708
230	0x3eb1d34a	0.34731513
231	0x3e85df3d	0.2614688
232	0xbe92ea03	-0.28694162
233	0xbdfa1864	-0.122116834
234	0xbbb10828	-0.0054025836
235	0x3ea50234	0.32228243
236	0x3ef758d4	0.48309958
237	0xbd54776e	-0.05187171
238	0x3e4bdc20	0.1990819
239	0x3ef38f32	0.47570187
240	0xbe61b887	-0.22043048
241	0x3e3cc53e	0.18434617
242	0x3d4d19c3	0.050073396
243	0x3d73d893	0.059532713
244	0xbd70ee73	-0.058821153
245	0x3eeda0b6	0.46411675
246	0x3e31650e	0.17323706
247	0x3ea08ff4	0.31359828
248	0x3e2216b4	0.15828973
249	0xbd77c42d	-0.060489822
250	0x3d8cda6e	0.068776
251	0xbe9e32ca	-0.30898124
252	0xbddc25fd	-0.10749433
253	0xbe170151	-0.14746596
254	0xbe2d8419	-0.16944923
255	0xbe6c09b5	-0.23050578

network_body.observation_encoder.processors.0.fc.seq_layers.2.bias f4 [22]
0	0xbc9c4542	-0.019075993
1	0xbbdc5cea	-0.0067249434
2	0x3c09df40	0.008415043
3	0x3a2d4f4a	0.0006611241
4	0x3bf884bc	0.0075841825
5	0xbc80804d	-0.015686179
6	0x3cc931e6	0.024559926
7	0xbc5cf038	-0.013485007
8	0x3bc232b2	0.0059264535
9	0xbca9d44f	-0.02073112
10	0x3c4613da	0.012089694
11	0xbcbe7dd5	-0.02325336
12	0xbb1547be	-0.0022778357
13	0xbcabe021	-0.020980896
14	0xbbe69392	-0.0070366347
15	0x3b44e2eb	0.003004248
16	0xbab37d6c	-0.0013693995
17	0xb94d870c	-0.00019600632
18	0xb88e1f86	-6.776959e-05
19	0x3be4ffc3	0.006988497
20	0x3b7052d2	0.0036670459
21	0x3bd9f228	0.0066511817

network_body.observation_encoder.processors.1.fc.seq_layers.0.weight f4 [22, 22]
0	0x3e1947c7	0.14968787
1	0x3b84a0e4	0.0040475
2	0x3eb9692f	0.3621306
3	0xbecd4291	-0.4008985
4	0x3d94dc27	0.07268553
5	0xbd9634a9	-0.07334263
6	0x3d15d49e	0.03657972
7	0xbde9737d	-0.11398981
8	0x3ddd7627	0.108135514
9	0xbd4f702c	-0.050644085
10	0xbe504212	-0.20337704
11	0x3e13c6ac	0.14431256
12	0xbe52beae	-0.20580551
13	0x3cdd91f8	0.027047142
14	0x3e394d39	0.18095864
15	0x3e09c7bb	0.13455097
16	0x3dff07c3	0.12452652
17	0xbe7224d0	-0.23646855
18	0xbe012f1c	-0.12615627
19	0xbe57f824	-0.21090752
20	0xbe540e5e	-0.20708606
21	0xbe3b6f04	-0.18304068
22	0xbedd31b6	-0.4320199
23	0xbd80718e	-0.06271659
24	0x3dffbe74	0.12487498
25	0xbe48b63b	-0.19600765
26	0x3f0d759d	0.5525759
27	0xbe698d2b	-0.22807758
28	0xbe734a6e	-0.23758861
29	0x3d69c142	0.05706907
30	0xbf15077f	-0.58214563
31	0xbd9df507	-0.07712751
32	0x3c57098c	0.013124835
33	0x3ec1d246	0.37855738
34	0xbd9ee249	-0.07758004
35	0x3d3f6b8d	0.046733428
36	0x3e84e4a6	0.25955695
37	0x3e89ad94	0.26890242
38	0xbe7f0ab2	-0.24906424
39	0xbd83f391	-0.06442941
40	0x3da42724	0.08015278
41	0xbd04d3ef	-0.032428678
42	0xbc54ff1d	-0.013000277
43	0xbe4c1842	-0.19931129
44	0xbe10bfef	-0.14135717
45	0x3de4a9b9	0.111651845
46	0xbe5766b1	-0.21035267
47	0x3e8858b1	0.26630166
48	0x3ea4f399	0.322171
49	0xbd9846e4	-0.07435396
50	0x3e81e989	0.25373486
51	0xbc3a4810	-0.01136972
52	0xbd809d83	-0.06280043
53	0xbe378863	-0.17923121
54	0x3d40b551	0.047047917
55	0x3e9e299d	0.30891123
56	0xbe8add03	-0.27121744
57	0xbd9ee95c	-0.077593535
58	0xbe06821e	-0.13135573
59	0x3e047e97	0.12938915
60	0xbe097a97	-0.1342567
61	0xbe4a6d1d	-0.19768186
62	0x3ef6c94c	0.48200452
63	0xbe1dd701	-0.15414049
64	0xbdafa673	-0.085766695
65	0x3e95f6a4	0.29289734
66	0xbc36ac02	-0.011149408
67	0x3e101e1c	0.14073986
68	0xbea74cf6	-0.32675904
69	0x3d4797e3	0.048728835
70	0xbdcb4de1	-0.099269636
71	0x3e9b3005	0.30310073
72	0xbf004af2	-0.5011436
73	0x3e2434bb	0.1603574
74	0xbef5946e	-0.47964805
75	0xbc48fde1	-0.012267561
76	0x3ed5fa31	0.41792443
77	0x3ec08b89	0.37606457
78	0x3e3d9c17	0.18516575
79	0xbd6a398b	-0.057183784
80	0x3baf8b74	0.0053572003
81	0xbe49c501	-0.19704057
82	0x3e7b1006	0.24517831
83	0xbd2eb3f8	-0.0426521
84	0xbe8a8e18	-0.27061534
85	0xbe4b538e	-0.19856092
86	0xbe7a95bc	-0.24471182
87	0x3e01c407	0.12672435
88	0x3e655e61	0.22399284
89	0xbe883278	-0.26601005
90	0x3e650e59	0.22368754
91	0x3e2a43c7	0.16627418
92	0x3b1cef28	0.002394626
93	0xbb7f0394	-0.0038912045
94	0x3eac12db	0.33608136
95	0x3eef42cf	0.46730658
96	0x3bd02df0	0.0063531324
97	0x3e718820	0.23587084
98	0x3e9e9f9b	0.30981144
99	0x3cee182e	0.029064264
100	0x3e4bde9f	0.19909142
101	0xbe4b03ee	-0.19825718
102	0xbd670838	-0.056404322
103	0xbe2ba4a7	-0.16762029
104	0x3de3264b	0.11091288
105	0x3d598ad9	0.05311093
106	0xbe50b24d	-0.20380516
107	0xbdb3952d	-0.087686874
108	0xbe33f356	-0.17573294
109	0xbdaa5729	-0.08317406
110	0xbec6cc8c	-0.38827932
111	0xbf411511	-0.7542277
112	0xbdaabb85	-0.08336548
113	0xbd84e41d	-0.06488822
114	0xbdcdc0ba	-0.10046525
115	0x3e3e9ac7	0.1861373
116	0x3d9bdc36	0.07610361
117	0xbe80b1e7	-0.2513573
118	0xbeb93e15	-0.36180177
119	0x3d38981f	0.04506695
120	0xbd7b91c0	-0.061418295
121	0x3d4b8b36	0.04969331
122	0xbdf4aafe	-0.11946677
123	0xbe97012d	-0.29493085
124	0xbe71baa3	-0.23606353
125	0xbe8147ca	-0.25250083
126	0xbe0e62b9	-0.13904847
127	0xbe2d5c30	-0.16929698
128	0xbe817cd6	-0.25290555
129	0x3ec013d6	0.37515134
130	0xbdb3dbce	-0.08782159
131	0xbe3e41be	-0.18579766
132	0xbb8acb90	-0.0042356923
133	0xbd87a5b4	-0.06623402
134	0xbeaf9069	-0.34289864
135	0x3c524476	0.012833705
136	0x3c82a229	0.015946465
137	0x3e4c6a62	0.19962457
138	0x3e83881c	0.2568978
139	0xbe896499	-0.26834562
140	0xbbd59566	-0.006518054
141	0xbdeda8f3	-0.1160449
142	0x3e1b38e5	0.15158422
143	0x3e25a36a	0.16175619
144	0x3f045b66	0.5170196
145	0xbe95a2cb	-0.29225764
146	0x3da7e31f	0.08197617
147	0x3e4f6a96	0.20255503
148	0x3ea78b96	0.32723683
149	0xbefbaf61	-0.4915724
150	0x3e28e028	0.16491759
151	0x3d979627	0.07401686
152	0x3e8864e1	0.26639464
153	0x3d823659	0.06358022
154	0x3d2a85dc	0.041631564
155	0x3e30e030	0.1727302
156	0xbc57e45e	-0.013177006
157	0x3d85af5c	0.06527588
158	0xbde5e85b	-0.11225959
159	0xbd22919b	-0.03968964
160	0xbe3feb68	-0.18742144
161	0x3d5845e5	0.05280103
162	0x3e67799b	0.22604983
163	0xbd0332cd	-0.03203087
164	0xbdc48aba	-0.095967725
165	0xbd87311e	-0.06601165
166	0xbef0221d	-0.46901026
167	0xbe0c2bb4	-0.13688546
168	0x3e8c76b4	0.27434313
169	0xbea1ea49	-0.31624058
170	0xbc9310c4	-0.01795233
171	0xbc4296a8	-0.01187674
172	0xbc990bc9	-0.018682377
173	0xbdaa4e43	-0.083157085
174	0x3d670708	0.05640319
175	0x3e08b0f9	0.1334876
176	0x3dc7da71	0.09758461
177	0xbd688ce1	-0.056774978
178	0x3e370ba0	0.17875528
179	0xbe75b9ca	-0.23996654
180	0xbea690f5	-0.32532468
181	0x3d25a960	0.04044473
182	0xbe4da129	-0.20081009
183	0xbae6dafd	-0.0017612871
184	0xbc7a8367	-0.015290118
185	0xbce5e630	-0.028063864
186	0xbd91863c	-0.07105681
187	0x3eccf0ed	0.40027562
188	0xbe4c101f	-0.19928025
189	0x3cdbd5f1	0.026835414
190	0x3ed7c77c	0.42144382
191	0x3e0942b0	0.13404346
192	0xbeab9f0e	-0.33519787
193	0xbe5b9152	-0.21442154
194	0x3e2b7762	0.1674476
195	0xbd9be970	-0.07612884
196	0xbe614bce	-0.22001573
197	0xbea2691d	-0.3172082
198	0x3d01d431	0.031696502
199	0xbe3772f7	-0.1791495
200	0x3e365953	0.17807512
201	0xbdb9ea8d	-0.0907794
202	0xbbf99982	-0.0076171765
203	0xbe4c8ba4	-0.19975144
204	0xbc6509a5	-0.01397935
205	0x3dcfcced	0.10146508
206	0x3e1fbd09	0.15599455
207	0xbe7e2439	-0.24818505
208	0x3d242cee	0.04008191
209	0xbe8e98fc	-0.27851093
210	0x3d2c81fd	0.042116154
211	0xbe34c858	-0.1765455
212	0xbc498411	-0.0122995535
213	0x3c75b55b	0.014996852
214	0x3de98cda	0.114038184
215	0x3d8a7dcc	0.06762275
216	0x3dec86e7	0.11549168
217	0x3ee422e2	0.44557863
218	0xbd1462d8	-0.036227077
219	0x3ea112de	0.31459707
220	0x3db9ef53	0.090788506
221	0xbe04d1bb	-0.12970631
222	0x3e86949b	0.26285252
223	0xbeb4ee82	-0.35338217
224	0xbc64db4c	-0.0139683
225	0x3c3d2894	0.011545319
226	0xbc71b159	-0.014751756
227	0xbe7c5168	-0.24640429
228	0xbdaa12b0	-0.083043456
229	0x3f0e73c2	0.5564538
230	0x3ec9df05	0.39427963
231	0x3e9c63d3	0.3054491
232	0xbd07fb90	-0.033198893
233	0xbeaeecad	-0.34164944
234	0xbe3276ea	-0.17428175
235	0x3de004fb	0.1093845
236	0x3e5985cc	0.21242446
237	0xbb65c1e1	-0.0035058188
238	0x3e96b90d	0.29438058
239	0xbd6144aa	-0.054997124
240	0x3ebf27d1	0.37335065
241	0xbe959982	-0.2921868
242	0xbe382b80	-0.17985344
243	0xbe12cf83	-0.14336972
244	0xbe2860d1	-0.16443183
245	0x3ecd47af	0.40093753
246	0x3ec3cac7	0.38240644
247	0x3de132f6	0.10996048
248	0x3e6248ea	0.22098127
249	0xbeabb337	-0.33535168
250	0x3e9880a8	0.29785657
251	0x3e020ce0	0.12700224
252	0xbefb3654	-0.49064887
253	0xbe97c639	-0.2964342
254	0x3e5d6ef2	0.21624354
255	0xbdc3309f	-0.09530758

network_body.observation_encoder.processors.1.fc.seq_layers.0.bias f4 [22]
0	0xbad2b50e	-0.0016075687
1	0x3c485330	0.012226865
2	0xbc801f59	-0.015639948
3	0xbcb3e3e6	-0.021959256
4	0xbc97cf29	-0.018531399
5	0x3d0eb056	0.034836136
6	0x3cbcf874	0.02306769
7	0x3bd3d0fd	0.0064641223
8	0x3b937835	0.004500414
9	0x3c90ae1d	0.017661149
10	0x3c8e70be	0.017387744
11	0xbbd33a4c	-0.0064461585
12	0x3c94ce60	0.018164814
13	0xbc805a48	-0.01566805
14	0x3c9a1d00	0.018812656
15	0x3c50787c	0.012724038
16	0xbc7aecb8	-0.015315227
17	0xbcd42146	-0.025894772
18	0xbc4c3201	-0.012463094
19	0x3d0d4b36	0.034495555
20	0x3caa0b30	0.020757288
21	0xbccdc884	-0.025120027

network_body.observation_encoder.processors.1.fc.seq_layers.2.weight f4 [22, 22]
0	0x3d20ad81	0.039227966
1	0xbdc0634e	-0.09393941
2	0x3e9d3343	0.30703172
3	0x3d5cd8dc	0.05391775
4	0x3ecb2b29	0.39681366
5	0x3d461d40	0.04836774
6	0xbe39bc87	-0.18138324
7	0xbe96840a	-0.29397613
8	0x3b500cdf	0.0031745953
9	0x3dadab54	0.08479944
10	0xbe8d9a12	-0.2765661
11	0x3c996544	0.018725045
12	0xbe7ed436	-0.2488564
13	0xbe891740	-0.2677555
14	0xbdbd8260	-0.09253383
15	0xbdc3f12e	-0.09567486
16	0x3f27a9a2	0.65493214
17	0x3f1811a6	0.5940193
18	0xbe558a04	-0.2085343
19	0xbeb20047	-0.34765837
20	0xbee281a9	-0.44239548
21	0x3efaf96c	0.4901842
22	0xbcbe3309	-0.023217695
23	0xbe846dc1	-0.25864986
24	0x3e731399	0.23737945
25	0xbdaffc5d	-0.08593056
26	0xbec7b7e1	-0.39007476
27	0x3deb5aff	0.114919655
28	0xbe414e18	-0.18877447
29	0x3da8fe65	0.08251647
30	0x3da8d5bb	0.08243891
31	0x3e0cd192	0.1375182
32	0x3e37dd30	0.1795547
33	0xbe8d1f11	-0.27562764
34	0x3dfe0fb5	0.1240534
35	0x3ebae2f9	0.3650129
36	0xbd37f524	-0.04491152
37	0x3e9d28eb	0.3069528
38	0x3d2e1e16	0.04250916
39	0xbda1f270	-0.079075694
40	0xbeb44807	-0.35211203
41	0x3e5ad8a6	0.21371707
42	0xbb83aada	-0.00401817
43	0xbd3a7840	-0.045524836
44	0xbd6817a1	-0.05666316
45	0x3e6031f4	0.21894056
46	0x3dd24f92	0.10269083
47	0x3d986957	0.07441967
48	0x3e73cdc9	0.2380897
49	0xbe6e5862	-0.23275903
50	0x3dd2b5ec	0.10288605
51	0xbe4a257f	-0.19740866
52	0x3ec41b14	0.3830191
53	0x3e0ba025	0.13635309
54	0xbc78cceb	-0.015185575
55	0x3d0bdf93	0.034148764
56	0xbe144f7a	-0.14483443
57	0xbe8d8a72	-0.27644688
58	0xbe8add15	-0.27121797
59	0x3dbf503b	0.093414746
60	0xbd01b8e4	-0.031670466
61	0xbd5ebf53	-0.05438168
62	0xbc20c0c5	-0.009811585
63	0x3d9e50cd	0.07730255
64	0xbcabde37	-0.020979984
65	0xbe6aefbc	-0.22943014
66	0x3e006199	0.1253723
67	0x3ec1177d	0.37713233
68	0x3d3a8561	0.045537356
69	0x3c1df2f2	0.009640442
70	0xbd673e88	-0.05645612
71	0x3ec4dfd6	0.38452023
72	0xbd95864c	-0.07301006
73	0x3e7b4783	0.24538998
74	0xbea285db	-0.3174275
75	0x3e198c06	0.14994821
76	0x3f3e0615	0.7422803
77	0xbe99e257	-0.30055496
78	0x3e07645f	0.13221882
79	0xbbaa009f	-0.0051880623
80	0xbcd6227d	-0.026139492
81	0x3d1ae328	0.03781429
82	0x3b9c3c64	0.0047679413
83	0xbda96e6b	-0.08273014
84	0x3e39becf	0.18139194
85	0xbe1739ff	-0.14768218
86	0x3d936565	0.07197074
87	0xbb551b7d	-0.0032517605
88	0xbe81cb74	-0.25350535
89	0xbe06021d	-0.13086744
90	0x3ed3182a	0.41229373
91	0xbe163db8	-0.14671981
92	0xbde9e9b5	-0.11421529
93	0xbe6fdeff	-0.2342491
94	0x3d803f8b	0.0626212
95	0x3c69b9e8	0.014265515
96	0x3d370427	0.044681694
97	0x3db1c826	0.086807534
98	0x3e9810b5	0.29700246
99	0x3d78b325	0.06071772
100	0xbdbe9907	-0.093065314
101	0x3e636105	0.22204979
102	0x3e14ad65	0.1451927
103	0x3e6e1b67	0.2325264
104	0x3e12cde9	0.14336361
105	0x3ef34c0e	0.47518963
106	0x3e093ff0	0.13403296
107	0xbd026977	-0.03183886
108	0x3db88fe4	0.0901182
109	0xbe134d1e	-0.14384887
110	0xbe12ef27	-0.14349042
111	0x3c3b69aa	0.0114387665
112	0xbe5d8741	-0.21633627
113	0x3d922139	0.07135243
114	0x3eb5aab4	0.354818
115	0x3ea4d60f	0.32194564
116	0x3e2bc271	0.16773392
117	0xbe5a580f	-0.21322654
118	0xbdb6302d	-0.088959076
119	0xbda99a04	-0.08281329
120	0x3e5a3d73	0.21312504
121	0x3d2ff192	0.04295499
122	0x3e26e805	0.16299446
123	0x3eda9c50	0.42697382
124	0x3e4614e6	0.1934391
125	0xbc90ed43	-0.01769126
126	0xbddcae2f	-0.107754104
127	0xbd81c26e	-0.06335913
128	0x3e02e45f	0.12782429
129	0x3f18bca6	0.59662855
130	0x3d65eb42	0.056132562
131	0xbe40132e	-0.18757316
132	0x3e63aaea	0.22233167
133	0xbe475a3f	-0.1946802
134	0xbe267d22	-0.16258672
135	0x3d6fb6ac	0.05852382
136	0xbcc679f1	-0.024228068
137	0x3e61bbef	0.22044347
138	0xbec6a688	-0.38798928
139	0x3d82e871	0.06391991
140	0x3e2be3f3	0.16786174
141	0xbbba9e9a	-0.0056951763
142	0x3da25ddf	0.07928061
143	0xbe5e7bea	-0.21726957
144	0xbc06601e	-0.008201627
145	0x3e379eb8	0.1793164
146	0x3cacd9a8	0.02109988
147	0x3da44dcb	0.0802265
148	0x3cbd33f2	0.023096059
149	0x3ee60b03	0.44930276
150	0x3d04c243	0.032411825
151	0x3e1251c4	0.14289004
152	0xbb925b81	-0.0044664745
153	0xbbef381d	-0.0073003904
154	0x3dfecd65	0.1244152
155	0xbd07f894	-0.033196047
156	0xbe8b46ad	-0.2720236
157	0xbea122c5	-0.3147184
158	0x3d58c809	0.052925143
159	0xbe085aaa	-0.13315836
160	0xbb1e2c48	-0.002413528
161	0xbe4f99a3	-0.20273452
162	0x3d30f8a7	0.043205883
163	0xbe09b8ce	-0.13449404
164	0x3efb2acc	0.4905609
165	0xbd809f40	-0.062803745
166	0xbdcd32f5	-0.10019485
167	0xbdd1cc8e	-0.10244094
168	0xbabe2a64	-0.0014508483
169	0x3e5a8b8d	0.21342297
170	0xbd95df58	-0.0731799
171	0xbc10633c	-0.008812722
172	0xbea9f2b0	-0.33192968
173	0xbe081d6d	-0.13292475
174	0xbead9e55	-0.3390986
175	0x3d501727	0.05080333
176	0x3e9ea207	0.30982992
177	0x3de6eb45	0.11275343
178	0x3e097015	0.13421662
179	0x3e860b3f	0.26180455
180	0x3d864309	0.06555755
181	0xbd80a196	-0.0628082
182	0xbec01ef2	-0.3752361
183	0x3df70611	0.12061704
184	0x3e1b1c78	0.15147579
185	0x3c0705f2	0.008241164
186	0xbdf17991	-0.11790765
187	0xbe9d7cbd	-0.3075923
188	0x3bcd83d0	0.006271817
189	0xbd95fd6a	-0.073237255
190	0xbe999b59	-0.30001333
191	0xbe32ca30	-0.17459941
192	0xbd579310	-0.052630484
193	0xbd0d5ba9	-0.034511242
194	0xbe6f2d5c	-0.23357147
195	0xbeec6fa9	-0.4617894
196	0x3d074ed2	0.033034153
197	0xbd98a47b	-0.07453247
198	0x3e05afe6	0.13055381
199	0xbe651d26	-0.223744
200	0xbdf2c002	-0.11853029
201	0x3d8ac1f0	0.06775272
202	0xbe11a653	-0.14223604
203	0x3e05b011	0.13055445
204	0x3e1b9225	0.15192468
205	0xbe8ddb1a	-0.27706224
206	0x3e85cf41	0.26134685
207	0x3e02872a	0.12746873
208	0xbd8c3bb2	-0.068473235
209	0xbe373770	-0.17892241
210	0x3eb1185c	0.34588897
211	0x3e242125	0.16028269
212	0x3d809e9c	0.06280252
213	0xbefc32bf	-0.49257466
214	0x3b201812	0.002442841
215	0xbcc1a131	-0.023636432
216	0xbe3032e0	-0.17206907
217	0xbd75d0c2	-0.06001354
218	0xbdcb1c71	-0.09917534
219	0x3dbb7165	0.09152488
220	0xbecd7572	-0.40128666
221	0x3d60863e	0.054815523
222	0xbd5ac039	-0.053405974
223	0x3e184550	0.1487019
224	0x3e1d33b0	0.15351748
225	0xbe63e7f1	-0.22256447
226	0xbd3fd071	-0.046829645
227	0x3d5fb43e	0.05461525
228	0x3e09b649	0.13448443
229	0xbe84ce09	-0.25938442
230	0x3e1dbb02	0.15403369
231	0xbd380730	-0.04492873
232	0xbdc54de5	-0.09633998
233	0x3d98363e	0.07432221
234	0xbc7e4cb7	-0.01552122
235	0xbee49d74	-0.44651377
236	0x3e55227d	0.20813937
237	0xbedb874e	-0.42876667
238	0x3ee838fe	0.45355982
239	0x3e109898	0.1412071
240	0xbe06419a	-0.13110963
241	0x3e3a0f95	0.18170007
242	0x3df45fa0	0.119323015
243	0xbc604023	-0.013687166
244	0xbdb66dce	-0.08907662
245	0xbcba2b31	-0.022725673
246	0xbd5467fc	-0.05185698
247	0xbe4724bc	-0.19447607
248	0xbde63bd1	-0.11241878
249	0xbecebfbc	-0.40380657
250	0x3e20bb67	0.15696488
251	0xbd0f85ef	-0.03503984
252	0x3de4003a	0.11132856
253	0xbe249295	-0.16071542
254	0xbe34f902	-0.17673114
255	0x399d1186	0.0002995843

network_body.observation_encoder.processors.1.fc.seq_layers.2.bias f4 [22]
0	0xbcec9b43	-0.028882628
1	0x3a207dad	0.0006122243
2	0x3c3c3f90	0.011489764
3	0x3b5c33f9	0.0033600314
4	0xbc93f1ce	-0.018059637
5	0x3b666b5c	0.0035159206
6	0xbc25da7e	-0.010122893
7	0x3bf93cd9	0.0076061306
8	0xbd032eab	-0.032026928
9	0x3b9e7f16	0.004836927
10	0xbd00abda	-0.03141389
11	0xbc62ae30	-0.013835475
12	0x3b67c443	0.0035364784
13	0x3c3666ff	0.011132955
14	0x3c95aee9	0.01827188
15	0xbb7482f2	-0.0037309495
16	0xbc3dfcca	-0.011595914
17	0xbd06f9bd	-0.032953013
18	0xbcb9d5a1	-0.022684874
19	0x3c025c2e	0.007956548
20	0x3c1a5386	0.009419328
21	0x3ca8cba1	0.02060491

network_body.observation_encoder.processors.2.fc.seq_layers.0.weight f4 [22, 22]
0	0xbda37174	-0.07980624
1	0xbc584dc6	-0.013202136
2	0xbd886697	-0.066601925
3	0x3d523b48	0.051326066
4	0xbd1d2054	-0.03836091
5	0x3ddd8c34	0.10817757
6	0x3e81f8bb	0.2538508
7	0xbe56a71e	-0.20962188
8	0xbddc9d71	-0.10772217
9	0xbd3ba8cd	-0.045815278
10	0xbe8b1842	-0.27166945
11	0xbdaf4983	-0.08558943
12	0x3d46e685	0.048559684
13	0xbdb9e213	-0.09076323
14	0xbdca51f5	-0.09878913
15	0x3e96999f	0.2941408
16	0xbdceb3ef	-0.10092913
17	0x3e9bd020	0.30432224
18	0x3e691619	0.22762336
19	0x3db621fa	0.08893199
20	0xbced198f	-0.028942851
21	0xbe6040fd	-0.21899791
22	0xbe48a782	-0.19595149
23	0xbe720cbc	-0.2363767
24	0x3e8b3535	0.2718903
25	0x3b74de8e	0.0037364098
26	0xbe54164c	-0.2071163
27	0x3cf61414	0.03003887
28	0x3e5e302a	0.2169806
29	0x3e36ad81	0.17839624
30	0xbeae0a5e	-0.33992285
31	0xbe26e16a	-0.16296926
32	0xbd807c19	-0.0627367
33	0xbee4e38e	-0.4470486
34	0x3d94a113	0.07257285
35	0xbebfa9b3	-0.37434158
36	0x3d3e546a	0.046467222
37	0x3c992146	0.018692624
38	0xbde96d51	-0.113978036
39	0xbe3bb24f	-0.18329738
40	0x3eb71814	0.35760558
41	0x3e73691d	0.23770566
42	0x3e2364ea	0.15956464
43	0xbe8810e8	-0.26575398
44	0x3e8dca61	0.27693465
45	0xbd33fb1a	-0.04394064
46	0x3e494d74	0.19658452
47	0x3bd7f6b1	0.006590687
48	0xbd96e49c	-0.073678225
49	0x3db67582	0.089091316
50	0x3cbad27a	0.022805441
51	0x3e5fba71	0.21848466
52	0xbed193f1	-0.40933183
53	0xbea9d2c6	-0.3316862
54	0x3e11db08	0.1424371
55	0x3e5e84f2	0.21730402
56	0xbec26c1c	-0.37973106
57	0x3e66578a	0.22494331
58	0xbd202856	-0.039100967
59	0x3c3c9fa8	0.011512674
60	0xbe1b9950	-0.15195203
61	0xbefc00e0	-0.49219418
62	0xbe7b9f8f	-0.24572586
63	0xbb9fe548	-0.0048796274
64	0x3f30f193	0.69118613
65	0x3e401682	0.18758586
66	0x3ed83840	0.42230415
67	0x3eb50bd3	0.35360584
68	0xbe14c61e	-0.145287
69	0xbe84ebc0	-0.25961113
70	0xbe2fbd97	-0.17162167
71	0xbd0a4802	-0.03376008
72	0xbe5f384f	-0.21798824
73	0xbe6231af	-0.22089265
74	0x3d2b304e	0.041794114
75	0x3e7e3e4b	0.2482845
76	0xbc985c77	-0.018598778
77	0x3e6743ea	0.22584501
78	0x3d8ec3b3	0.069709204
79	0xbdf47f0b	-0.11938294
80	0xbd98ac54	-0.07454744
81	0xbc72335f	-0.014782756
82	0x3e1da6de	0.15395686
83	0x3ee7d2d4	0.45278037
84	0x3ddf6625	0.109081544
85	0x3e092d4f	0.1339619
86	0xbe513be1	-0.20432998
87	0xbe2739bb	-0.16330616
88	0xbe72a870	-0.23697066
89	0xbe230ff9	-0.15924062
90	0xbe553179	-0.20819654
91	0xbcf108a1	-0.02942306
92	0xbe86f888	-0.2636149
93	0x3dcf99a6	0.10136728
94	0x3ed3a074	0.41333354
95	0x3e219bec	0.15782136
96	0xbeec9856	-0.46209973
97	0x3f1e21e1	0.61770445
98	0xbe2614f1	-0.16218926
99	0x3c5a55c5	0.013326113
100	0x3e8abbb4	0.2709633
101	0xbd9071dd	-0.07052968
102	0xbd82cf11	-0.06387151
103	0x3c79f545	0.015256231
104	0xbe2d4491	-0.16920687
105	0xbea4d3d8	-0.32192874
106	0xbd1945cd	-0.037420083
107	0xbcb9ad4b	-0.02266564
108	0x3e090e58	0.13384378
109	0xbe22b848	-0.1589061
110	0xbe0c370f	-0.13692878
111	0xbd4f683b	-0.05063651
112	0x3d22a5d3	0.039708924
113	0x3d48b968	0.049004942
114	0x3e1032f2	0.14081934
115	0x3e77401a	0.24145547
116	0x3d6a10e3	0.05714501
117	0x3e3f4fd8	0.18682802
118	0xbe95fa55	-0.2929255
119	0xbda90a64	-0.08253935
120	0x3d39ce9d	0.045363057
121	0xbcc054a7	-0.023477865
122	0xbc93e0ce	-0.018051531
123	0xbe5d7b51	-0.21629073
124	0x3d771c2f	0.060329612
125	0x3ebe52b9	0.37172487
126	0x3d626e9f	0.055281278
127	0xbc42f3c1	-0.011898936
128	0x3e5bc11b	0.21460383
129	0x3de2305b	0.11044379
130	0xbeb38798	-0.35064387
131	0x3d230d71	0.03980774
132	0xbe6a0a82	-0.22855571
133	0xbdf37066	-0.11886673
134	0x3e85fce7	0.26169512
135	0x3d13265d	0.035925258
136	0xbec11a5d	-0.37715426
137	0xbe0ef5a4	-0.13960892
138	0xbd416d58	-0.04722342
139	0x3dfa4344	0.12219861
140	0x3d99fb52	0.07518639
141	0x3d515b41	0.051112417
142	0xbe54a0d5	-0.20764478
143	0xbd085e34	-0.033292964
144	0x3eb00ad4	0.3438326
145	0x3e54c581	0.20778467
146	0x3e953e3f	0.29149053
147	0xbe9848fd	-0.29743186
148	0xbda4d0bd	-0.08047626
149	0xbdc7e94b	-0.09761294
150	0x3e56edc8	0.20989144
151	0x3ea70290	0.32619143
152	0x3d4b53d5	0.049640495
153	0xbe13ec84	-0.14445692
154	0xbea3ee66	-0.3201782
155	0x3c44b79a	0.012006665
156	0xbccd29f7	-0.025044424
157	0xbe29a925	-0.1656843
158	0xbe228a6c	-0.15873116
159	0xbb7ce079	-0.0038585945
160	0x3c9dfaaa	0.019284565
161	0x3e9a0f34	0.30089724
162	0xbec1aa6e	-0.3782534
163	0x3e9739a5	0.29536167
164	0x3d8b7d35	0.06810991
165	0xbc54c193	-0.012985605
166	0x3e06fae4	0.13181645
167	0xbefdcefc	-0.4957198
168	0x3e3cb439	0.18428124
169	0x3e9ad5b9	0.30241182
170	0xbe5f0ddd	-0.21782632
171	0x3f089058	0.5334525
172	0x3de35943	0.1110101
173	0x3e6c6653	0.23085909
174	0xbe1c543e	-0.15266511
175	0xbea7b8c6	-0.32758158
176	0x3cd0083d	0.025394553
177	0x3e0bd748	0.13656342
178	0x3e2adfcf	0.16686939
179	0xbd4ccdf1	-0.05000109
180	0xbdcaae37	-0.0989651
181	0xbe6b62bf	-0.22986887
182	0x3e3df899	0.18551864
183	0x3dfcbdf5	0.12340919
184	0xbc22b9e5	-0.009932016
185	0x3e834d9e	0.25645155
186	0xbe34e0d2	-0.17663887
187	0xbe310515	-0.17287095
188	0xbcdf2ddb	-0.027243545
189	0xbe175529	-0.1477858
190	0x3eb0f286	0.3456003
191	0xbe4b8f20	-0.19878817
192	0x3e11855b	0.14211027
193	0x3dcaf9db	0.099109374
194	0xbdaff2cc	-0.08591232
195	0xbe1f64b2	-0.15565756
196	0x3e6304fe	0.22169873
197	0xbe39ad0a	-0.18132415
198	0xbee5d656	-0.44890088
199	0xbd17a97d	-0.03702687
200	0xbd452dd1	-0.048139397
201	0x3e96b748	0.29436707
202	0x3d9fd24b	0.07803782
203	0xbd899bab	-0.067191444
204	0xbe7c78cd	-0.24655457
205	0x3ea59693	0.32341442
206	0x3d9301d2	0.071780816
207	0x3dcf0f61	0.10110355
208	0x3dcd1345	0.10013441
209	0xbe96edee	-0.294784
210	0xbe91ce2a	-0.28477603
211	0x3e4d24db	0.2003359
212	0x3e8a06a0	0.2695818
213	0xbeb1976e	-0.34685844
214	0x3d7172fe	0.058947556
215	0xbd26afea	-0.04069511
216	0x3d2499aa	0.040185608
217	0xbdd84ea0	-0.105618715
218	0x3e50f1ed	0.20404787
219	0xbc777638	-0.015103869
220	0xbdc1b095	-0.094575085
221	0xbbce91d2	-0.006304004
222	0x3df1aca0	0.11800504
223	0xbdbb0eaa	-0.09133656
224	0xbc6060b1	-0.013694928
225	0x3e45374d	0.19259377
226	0x3dbaafae	0.091155395
227	0x3dcbc47b	0.09949585
228	0xbc9ca9f7	-0.019124014
229	0xbce6a81f	-0.028156338
230	0x3e83a381	0.2571068
231	0xbe5bd80e	-0.21469137
232	0xbae40e3a	-0.0017399259
233	0x3dfab9b9	0.12242455
234	0xbe0470a1	-0.1293359
235	0x3ec6e3e8	0.38845754
236	0xbe8da947	-0.2766821
237	0x3ca90749	0.020633357
238	0x3ea79753	0.3273264
239	0x3e0fbfb4	0.14037973
240	0xbe1f2967	-0.15543137
241	0xbcd641ad	-0.026154364
242	0xbea1d4b2	-0.31607586
243	0xbe76ffd0	-0.24121022
244	0x3e97a171	0.29615358
245	0x3e119917	0.14218555
246	0x3e66ed03	0.2255135
247	0xbdb01bb8	-0.08599037
248	0x3f053a57	0.52042145
249	0xbe15653e	-0.14589402
250	0x3e0acc79	0.13554563
251	0xbe1b5359	-0.15168513
252	0xbd786fec	-0.060653612
253	0xbe92fc76	-0.28708237
254	0x3e330214	0.17481261
255	0xbdb7d397	-0.089759044

network_body.observation_encoder.processors.2.fc.seq_layers.0.bias f4 [22]
0	0x3c48da4f	0.01225908
1	0xbc1d957e	-0.009618161
2	0x3c61fc98	0.013793133
3	0x3aaf5174	0.0013375715
4	0xbd205331	-0.039141838
5	0xbc3f7589	-0.011685737
6	0xbb8a2389	-0.004215662
7	0xbd1aef18	-0.037825674
8	0x3d198add	0.037485946
9	0xbc8cceff	-0.017188547
10	0xba8e65d4	-0.0010864087
11	0xbc0a1027	-0.008426703
12	0xbc3d6a47	-0.011560983
13	0x3c52aec4	0.01285905
14	0xbb4d5b97	-0.003133511
15	0x3bac97e1	0.005267129
16	0xbbb6f9b7	-0.0055839675
17	0xbcef03ec	-0.029176675
18	0xbbccb0e3	-0.0062466725
19	0x3baf1af7	0.0053437906
20	0x3c1c3ef4	0.009536494
21	0xbbc9261d	-0.0061385767

network_body.observation_encoder.processors.2.fc.seq_layers.2.weight f4 [22, 22]
0	0xbe87fb07	-0.26558706
1	0x3e0ee671	0.13955094
2	0xbe1597c4	-0.14608675
3	0xbd007ebc	-0.031370863
4	0xbe954855	-0.29156747
5	0xbe06c49b	-0.13160937
6	0xbdea675e	-0.11445497
7	0x3e73ee26	0.23821315
8	0xbddd18e1	-0.10795761
9	0x3d5a5737	0.05330583
10	0x3c0b829a	0.008515025
11	0xbd95e5b0	-0.073192
12	0xbd8811f3	-0.066440485
13	0x3e3bb00e	0.18328878
14	0xbe916343	-0.28396043
15	0x3c860678	0.016360506
16	0xbdfd3136	-0.12362902
17	0xbdaa0e61	-0.08303524
18	0x3e5c22eb	0.21497695
19	0xbe23ff2e	-0.16015312
20	0xbe579057	-0.21051155
21	0x3df53b28	0.11974174
22	0x3f19934b	0.59990376
23	0x3e0731fd	0.13202663
24	0xbd9e8a49	-0.077412196
25	0xbe2fcf6a	-0.17168966
26	0xbde25cab	-0.11052831
27	0xbd62aec1	-0.05534244
28	0x3c44d4ac	0.012013596
29	0xbe891c31	-0.2677932
30	0x3ec42de8	0.38316274
31	0xbde718df	-0.11284041
32	0x3e4d8159	0.20068873
33	0xbe0d7823	-0.1381536
34	0xbe009f57	-0.12560783
35	0xbde4b51f	-0.111673586
36	0x3db504a3	0.08838775
37	0x3e279cb6	0.16368374
38	0x3d13261c	0.035925016
39	0x3d3f720f	0.046739634
40	0xbc1e50b9	-0.0096628005
41	0xbe95f6d1	-0.29289868
42	0x3d9c0b32	0.07619323
43	0xbe189c50	-0.14903378
44	0xbe88563d	-0.26628295
45	0x3e8329f0	0.25617933
46	0xbdf92dba	-0.12166925
47	0x3e269025	0.16265924
48	0xbd315a1c	-0.043298826
49	0xbe1c155e	-0.15242526
50	0x3f1f5382	0.622368
51	0x3e89c4ab	0.26907858
52	0xbd7b6950	-0.06137973
53	0xbced13bf	-0.02894008
54	0xbe05ddd2	-0.13072899
55	0x3e061541	0.13094045
56	0xbe31314d	-0.17303963
57	0xbe78fb3a	-0.24314585
58	0x3e2fb212	0.17157772
59	0xbeccecc4	-0.40024388
60	0xbdec0e59	-0.11526174
61	0x3e8a2bbf	0.269865
62	0xbe4e7727	-0.2016264
63	0xbe3600db	-0.17773764
64	0x3e461cf7	0.19346987
65	0x3e61cc37	0.22050558
66	0x3daa9d62	0.083308
67	0x3d5c7d70	0.053830564
68	0xbdfcd411	-0.12345136
69	0xbef1cba9	-0.47225693
70	0x3e0b8d53	0.1362813
71	0x3e64f45d	0.22358842
72	0x3e335349	0.1751224
73	0x3e320c3a	0.17387477
74	0xbece8a7c	-0.4034003
75	0x3c590062	0.01324472
76	0x3d0e43bc	0.034732565
77	0x3eb7d35f	0.3590345
78	0x3ebb6b62	0.36605364
79	0xbe8bfd97	-0.2734191
80	0x3cd18437	0.02557574
81	0x3e0c808a	0.13720909
82	0x3db8463b	0.089977704
83	0x3e5cf0ee	0.21576282
84	0xbec418f7	-0.38300297
85	0xbe28a705	-0.16469963
86	0xbe3800ae	-0.1796901
87	0xbd7c131a	-0.061541654
88	0x3da6b525	0.08140019
89	0xbebedd12	-0.37278038
90	0xbc849ec5	-0.016188988
91	0xbe3b03d3	-0.18263178
92	0x3ec67e38	0.38768172
93	0xbe94a880	-0.29034805
94	0x3e5fc803	0.21853642
95	0xbe7fdf16	-0.24987444
96	0xbe06d7cc	-0.13168257
97	0xbdf3652f	-0.118845336
98	0x3e3eda46	0.18637952
99	0xbe069d8c	-0.13146037
100	0x3de47c20	0.111564875
101	0x3d3433a8	0.043994576
102	0xbe051399	-0.12995757
103	0xbe9de4ce	-0.30838627
104	0x3cd1f300	0.025628567
105	0x3da4644e	0.08026944
106	0x3e28feff	0.16503523
107	0x3eb6b68f	0.35686156
108	0x3e4634db	0.193561
109	0xbd66b619	-0.056326006
110	0x3ea73968	0.32660985
111	0x3d96b071	0.07357872
112	0x3c7fe705	0.015619044
113	0xbd9f5118	-0.07779139
114	0x3e1b9ce1	0.15196563
115	0x3c298141	0.010345758
116	0xbdf945da	-0.12171526
117	0x3def8706	0.116956756
118	0xbe97837e	-0.29592508
119	0x3dc80537	0.0976662
120	0x3d7368e6	0.05942621
121	0x3d424cb2	0.047436424
122	0x3c849e3e	0.016188737
123	0xbc245974	-0.010031093
124	0x3e6c9bfe	0.23106381
125	0xbe4e2377	-0.20130716
126	0xbe0e8501	-0.13917924
127	0x3d717927	0.05895343
128	0xbe7e5d15	-0.24840195
129	0xbe5f0a94	-0.21781379
130	0xbe37e1fd	-0.17957301
131	0xbe8f00e1	-0.27930358
132	0x3d56b3a4	0.052417412
133	0xbe02991b	-0.12753718
134	0xbd1bddbb	-0.038053256
135	0xbdd1167a	-0.10209365
136	0x3e88b169	0.26697853
137	0x3c0ce667	0.008599854
138	0xbe4d4a95	-0.20047982
139	0xbe1d1bb0	-0.15342593
140	0x3d6cddfd	0.057828892
141	0xbd2b9af9	-0.04189584
142	0xbdb920ed	-0.09039483
143	0x3e1f79b3	0.15573768
144	0x3d0e9afd	0.034815777
145	0xbd0d5c4f	-0.03451186
146	0x3d48a072	0.048981138
147	0x3d484c65	0.04890098
148	0xbda4bf18	-0.08044261
149	0xbd6fd3c0	-0.05855155
150	0x3db3bc60	0.08776164
151	0x3e3aff30	0.18261409
152	0xbe0503d0	-0.12989736
153	0x3e29292c	0.16519612
154	0x3c463c16	0.012099287
155	0x3e240c20	0.1602025
156	0x3df9db55	0.122000374
157	0x3e688177	0.22705637
158	0xbdec06b2	-0.115247145
159	0x3dabd1f6	0.08389656
160	0x3e102a27	0.1407858
161	0xbecbedc1	-0.3982983
162	0x3c975cbb	0.018476835
163	0x3dfa2138	0.12213367
164	0xbd2953ff	-0.04133987
165	0xbe429500	-0.19002151
166	0xbb1bc5e6	-0.002376908
167	0xbe5e2426	-0.21693477
168	0x3e1b034a	0.15137973
169	0x3ead9239	0.33900622
170	0x3f181b19	0.5941635
171	0xbda3c7cc	-0.079970926
172	0x3db53a3c	0.08848998
173	0xbb8a246b	-0.004215767
174	0xbec3f36e	-0.3827166
175	0xbdacb660	-0.08433223
176	0x3d7ae82a	0.061256565
177	0x3edfb471	0.43692353
178	0xbe2b2fdf	-0.1671748
179	0xbe4609a7	-0.1933962
180	0x3e030318	0.12794149
181	0xbdd3cd58	-0.103419006
182	0xbe58e8cd	-0.21182556
183	0x3df2c37b	0.11853691
184	0xbd0ab720	-0.033866048
185	0xbe0dc82d	-0.13845892
186	0xbec58057	-0.38574478
187	0x3d77cd0a	0.060498275
188	0xbb6a4f45	-0.0035752815
189	0x3c6e4410	0.014542595
190	0xbd1c72dc	-0.038195476
191	0xbcaf1af0	-0.02137515
192	0x3d5da9d0	0.054117024
193	0x3dcef3e7	0.101051144
194	0x3df815d3	0.12113538
195	0xbe192f48	-0.14959443
196	0xbe2ca67b	-0.16860382
197	0x3ed3f98b	0.41401324
198	0x3efd6b9c	0.49496162
199	0x3e0bd639	0.13655938
200	0x3e5f28f9	0.21792974
201	0xbde76e88	-0.11300379
202	0xbef97a3b	-0.48726067
203	0xbd8f33f9	-0.06992335
204	0xbd7af8db	-0.061272483
205	0xbe1a1fd3	-0.15051202
206	0x3e736900	0.23770523
207	0xbe68f487	-0.2274953
208	0xbdbdc944	-0.09266904
209	0x3dcedc6b	0.10100635
210	0x3e234391	0.15943743
211	0x3be76f23	0.007062809
212	0xbd86d62b	-0.06583818
213	0x3e0db1d7	0.13837372
214	0xbe1ef74d	-0.15524025
215	0xbe8a3da8	-0.27000165
216	0xbe0ac1ae	-0.13550445
217	0xbd98cf7a	-0.07461448
218	0xbe2a10f5	-0.16608031
219	0x3e32ad6c	0.17448968
220	0xbebb2bbb	-0.365568
221	0xbe806c67	-0.25082704
222	0xbec36675	-0.38164106
223	0x3e848c00	0.25888062
224	0xbd572588	-0.052526027
225	0xbd888b56	-0.06667201
226	0xbd4906e8	-0.049078852
227	0xbeaff4fd	-0.343666
228	0xbd90d949	-0.07072694
229	0x3d445870	0.047935903
230	0x3e48c68f	0.19606994
231	0x3ecdd485	0.40201202
232	0xbce3842c	-0.027772985
233	0x3e29bb65	0.16575392
234	0xbd4f969c	-0.05068074
235	0x3e6a19a2	0.2286134
236	0xbd7e1ef1	-0.062041227
237	0x3d570848	0.052498132
238	0x3bbcb8af	0.0057593207
239	0x3e10b758	0.1413244
240	0x3e8c61ae	0.27418274
241	0xbe38f7f8	-0.18063343
242	0x3aac03dd	0.001312371
243	0xbe1648f0	-0.14676261
244	0xbd3a9df1	-0.04556078
245	0x3e9692cc	0.29408872
246	0xbe24a170	-0.16077209
247	0xbeb14a6c	-0.34627092
248	0x3e6db238	0.23212516
249	0xbe64ff55	-0.22363026
250	0xbc36b15e	-0.011150686
251	0xbe21a419	-0.15785255
252	0x3c155b00	0.009115934
253	0x3e80000e	0.25000042
254	0xbe3b9b07	-0.18320857
255	0xbed0c7b4	-0.4077736

network_body.observation_encoder.processors.2.fc.seq_layers.2.bias f4 [22]
0	0xbc2d9252	-0.0105939675
1	0x3ba3ea9f	0.0050023342
2	0xbc1834d2	-0.009289937
3	0xbc84b7c0	-0.0162009
4	0xbc0386bc	-0.008027729
5	0xbc81b492	-0.015833173
6	0xbc8f634e	-0.017503407
7	0xbb107a10	-0.0022045411
8	0xbc4876e4	-0.012235377
9	0x3cf81e6e	0.030287948
10	0xbc107e93	-0.00881924
11	0x3bf98de6	0.0076157926
12	0xbbed6c30	-0.007245563
13	0xbcb5eb74	-0.022207
14	0xbb8b48a5	-0.0042506033
15	0xbc946319	-0.01811366
16	0xbbc0bc3c	-0.0058818143
17	0xbc89e4c9	-0.016832726
18	0x3ba6f764	0.005095409
19	0xbacbb99f	-0.001554299
20	0xbba20123	-0.004943983
21	0xbbeb33ef	-0.007177822
