Assets/oon/aaa.onnx (onnx, 808365 bytes, 64 tensors)

network_body.observation_encoder.processors.0.model.residual.weight f4 [16, 16, 1, 1]
0	0xbf83ad76	-1.0287311
1	0xbe4fe1fa	-0.20301047
2	0xbd9e9631	-0.077434905
3	0x3e2833c6	0.16426
4	0x3f2379be	0.6385764
5	0x3f356256	0.70853174
6	0x3d034838	0.032051295
7	0xbeab0100	-0.333992
8	0x3f9786ac	1.1837974
9	0xbeeed279	-0.46644953
10	0x3ea348c9	0.31891468
11	0x3f3673ce	0.71270454
12	0x3fa5b1bd	1.2944866
13	0x3e7dae44	0.24773508
14	0xbf8ca92d	-1.0989128
15	0xbd8a7ad0	-0.06761706
16	0x3eac1c49	0.3361533
17	0x3eab40d6	0.33447903
18	0x3e189873	0.14901905
19	0xbeed4ca1	-0.46347526
20	0x3f32cb03	0.6984102
21	0xbe2c5314	-0.16828567
22	0x3f0fb3a9	0.56133515
23	0x3f6698da	0.9007698
24	0xbbfd70ae	-0.0077343797
25	0x3eed3989	0.46332958
26	0xbdf59131	-0.11990584
27	0xbea8f996	-0.3300292
28	0x3f4ec40a	0.8076788
29	0xbea39de1	-0.3195639
30	0x3eb08919	0.34479597
31	0x3f12fde6	0.5741867
32	0x3f76c29f	0.9639072
33	0x3f12f6e7	0.57407993
34	0xbeb9f97f	-0.36323163
35	0x3ebe4107	0.37158987
36	0x3f437fce	0.7636689
37	0x3eb9de9f	0.3630266
38	0xbf76c805	-0.96398956
39	0x3e837523	0.25675306
40	0xbf060af6	-0.52360475
41	0x3cbdf185	0.023186455
42	0xbebd4ed8	-0.36974216
43	0x3dcb1caa	0.099175766
44	0xbedc65b7	-0.43046352
45	0xbf8601d5	-1.0469309
46	0xbee922c4	-0.45534337
47	0x3ea0e691	0.31425908
48	0xbeb39a2f	-0.3507857
49	0x3e857baf	0.26070926
50	0x3f269e24	0.65085053
51	0xbf2f0c92	-0.68378556
52	0x3e5ed48e	0.2176077
53	0x3e3911d5	0.18073209
54	0x3e5fe146	0.21863279
55	0x3cb321b3	0.021866655
56	0x3f596fdf	0.84936327
57	0x3eb57ac9	0.3544524
58	0x3ef28c9e	0.47372907
59	0x3edd6c6c	0.43246782
60	0x3f97fde9	1.1874362
61	0xbe00bc18	-0.12571752
62	0x3f09f051	0.5388232
63	0x3cdddc50	0.027082592
64	0x3e16ec2f	0.14738534
65	0x3ef100e1	0.47070983
66	0xbf778e5a	-0.96701586
67	0x3d90f7ce	0.07078515
68	0x3f447c02	0.7675172
69	0x3e854392	0.26028115
70	0x3d8250ac	0.06363043
71	0x3f1e9b18	0.61955404
72	0x3f0f7633	0.5603973
73	0x3f3a0b8c	0.7267387
74	0xbf660154	-0.89845777
75	0x3f9133ce	1.1343935
76	0xbdaf1986	-0.0854979
77	0x3dea3019	0.11434955
78	0xbee018fc	-0.43769062
79	0x3e467c64	0.19383389
80	0xbea5827c	-0.32326114
81	0xbe0b7ce5	-0.13621862
82	0xbe529780	-0.20565605
83	0xbef1ac9a	-0.47201997
84	0xbe3cce66	-0.1843811
85	0xbeb7bbc0	-0.3588543
86	0xbf2031dd	-0.62576085
87	0xbf2eed38	-0.6833072
88	0xbe31964e	-0.17342493
89	0xbf48b19c	-0.7839601
90	0xbe57f098	-0.21087873
91	0xbda71a1c	-0.08159277
92	0x3e0d4ab2	0.13798025
93	0xbf388475	-0.72077113
94	0xbf221d8d	-0.6332634
95	0xbf1b7e4d	-0.60739595
96	0x3eb7c986	0.35895938
97	0x3efc3180	0.49256516
98	0xbe7eeb3f	-0.24894427
99	0x3f2e2369	0.6802278
100	0x3e225a64	0.15854794
101	0xbd2cfddd	-0.04223429
102	0x3f4cbab8	0.7997241
103	0x3f139073	0.57642287
104	0x3ea24fcf	0.31701514
105	0x3d9f60fc	0.0778217
106	0x3e5a3b37	0.21311651
107	0xbed13fc3	-0.4086896
108	0x3ee2d6aa	0.443044
109	0x3dbcb162	0.092135206
110	0x3f39458a	0.72371733
111	0x3f2efdfc	0.683563
112	0xbee3d778	-0.44500327
113	0xbf37c033	-0.7177765
114	0xbdf80400	-0.12110138
115	0x3f604aa2	0.8761388
116	0xbe88b405	-0.26699844
117	0x3f58f217	0.847444
118	0x3f59a557	0.85017914
119	0xbf60c628	-0.8780236
120	0x3eba4f34	0.36388552
121	0xbf236d4d	-0.63838655
122	0x3e4f0c0d	0.20219441
123	0x3f8d40cf	1.1035403
124	0x3e84e2d9	0.2595432
125	0x3f1fe176	0.624534
126	0xbe568da4	-0.20952469
127	0xbe4f84cd	-0.20265503
128	0x3ed4dfd7	0.41577026
129	0x3f1884f2	0.5957786
130	0x3d9d14ad	0.07669959
131	0xbecea5d0	-0.4036088
132	0x3f3dfc4b	0.74213094
133	0x3ee3bf78	0.44482017
134	0xbf3ad0de	-0.72974956
135	0x3e2056ec	0.15658158
136	0xbe81c18f	-0.25342986
137	0x3d93de1b	0.07220098
138	0x3e1ddfb3	0.15417366
139	0x3f07face	0.5311707
140	0xbf89df84	-1.0771337
141	0x3e809393	0.2511259
142	0xbd048e4c	-0.032362267
143	0xbef08e8b	-0.46983752
144	0xbd14b80b	-0.03630833
145	0xbf3a9f2d	-0.7289913
146	0xbf1cdbf5	-0.6127313
147	0xbd8d2fcf	-0.068938844
148	0xbdfc0860	-0.12306285
149	0x3ef51516	0.4786765
150	0x3ecd7d2a	0.40134555
151	0xbf52ef3b	-0.82396287
152	0xbeff0957	-0.49811813
153	0xbe3374db	-0.17525046
154	0xbf29a0d3	-0.66261023
155	0xbdd64479	-0.10462279
156	0x3ec40948	0.3828833
157	0xbeae9ccd	-0.34104005
158	0x3f00d1b1	0.50319964
159	0xbf38518e	-0.7199944
160	0xbe87f89d	-0.26556864
161	0x3f522c67	0.82099
162	0xbe913219	-0.28358534
163	0xbd96249b	-0.07331201
164	0x3f84e7a3	1.038319
165	0x3f17005a	0.5898491
166	0xbf064072	-0.52442086
167	0x3e85ee5c	0.26158416
168	0x3ebeb9c2	0.37251097
169	0x3eec831f	0.46193787
170	0x3ecdda46	0.40205592
171	0x3e6f1999	0.23349608
172	0x3ed069ba	0.40705663
173	0x3eea1628	0.4572003
174	0xbdfcfc49	-0.12352807
175	0xbea4feda	-0.32225686
176	0x3f184ad6	0.5948919
177	0xbe782158	-0.2423147
178	0x3f828022	1.0195353
179	0x3d169162	0.03675974
180	0x3eec7190	0.4618039
181	0x3f5ea249	0.8696638
182	0xbe861928	-0.26191068
183	0xbd7570fc	-0.059922203
184	0xbe900c51	-0.28134397
185	0x3db736e1	0.08946014
186	0x3f6f75a8	0.93538904
187	0x3f18b8e7	0.5965714
188	0x3df5df46	0.12005477
189	0x3f2232c3	0.63358706
190	0xbd0156ed	-0.03157704
191	0x3e365fea	0.17810026
192	0x3c3bbc1a	0.011458421
193	0x3ebf7bc1	0.37399104
194	0xbe45dcf9	-0.19322576
195	0xbf7484f9	-0.955154
196	0x3deb1f9a	0.11480637
197	0x3f33b9fa	0.7020565
198	0x3e6c7a49	0.23093523
199	0x3f0e2af2	0.5553428
200	0x3e7e2ff4	0.2482298
201	0x3f3ba426	0.73297346
202	0x3ef9d4cd	0.48795167
203	0x3ee989af	0.45612857
204	0xbf268d40	-0.6505928
205	0x3f30f33e	0.6912116
206	0x3e2525a3	0.16127639
207	0x3e5c5772	0.21517733
208	0x3f2bbd4b	0.67085713
209	0x3dcdb245	0.10043768
210	0xbe810779	-0.25201014
211	0x3f833091	1.0249196
212	0x3efc4153	0.49268588
213	0x3ed27cd3	0.41110858
214	0x3f2cddfc	0.6752622
215	0x3e8a2dcc	0.26988065
216	0x3eacf160	0.33777905
217	0x3f2ac8ec	0.6671283
218	0x3ddfa766	0.109206006
219	0x3e82754a	0.2548011
220	0x3f2972ca	0.6619078
221	0xbaae7a6b	-0.001331163
222	0x3f185f33	0.5952026
223	0x3f0bfc2f	0.54681677
224	0xbf40fb35	-0.7538331
225	0xbcccf5ea	-0.025019605
226	0xbea12030	-0.3146987
227	0xbf3103bd	-0.6914633
228	0xbf2ae43f	-0.66754526
229	0xbed803e2	-0.42190462
230	0xbdd44dea	-0.103664234
231	0xbe834c0f	-0.25643966
232	0xbdb42120	-0.087953806
233	0xbd7c44f1	-0.061589185
234	0xbe8bec89	-0.273289
235	0xbf3898d2	-0.72108185
236	0x3eab9729	0.33513764
237	0xbef2edc9	-0.4744704
238	0xbec2af42	-0.38024336
239	0xbf0f35ec	-0.55941653
240	0xbe8c1da8	-0.27366376
241	0xbf4e7ca0	-0.8065891
242	0xbe766000	-0.24060059
243	0xbe7631ec	-0.24042481
244	0x3e55222c	0.20813817
245	0x3e11943f	0.14216708
246	0xbda16e0b	-0.07882317
247	0xbed446c3	-0.41460237
248	0xbf226118	-0.63429403
249	0xbf284a84	-0.657387
250	0xbf39a909	-0.7252355
251	0xbe186e1b	-0.14885752
252	0xbe9b66b7	-0.30351803
253	0x3cd92592	0.026507173
254	0xbf41ae4f	-0.756566
255	0xbf81c620	-1.0138588

network_body.observation_encoder.processors.0.model.residual.bias f4 [16]
0	0x3dbd1449	0.09232385
1	0x3ea22f3b	0.3167666
2	0x3e4c712a	0.19965044
3	0xbd77393f	-0.06035733
4	0x3ecdf6b4	0.40227282
5	0xbe9dcd19	-0.3082054
6	0x3da59147	0.0808435
7	0x3e2b7d07	0.16746913
8	0x3c8c3cb5	0.017118791
9	0xbec64da0	-0.38731098
10	0x3e79a923	0.24380927
11	0x3e34b613	0.17647581
12	0x3eeb0d67	0.45908663
13	0x3ed97f8d	0.42480126
14	0xbeb67ef7	-0.3564374
15	0xbec3d38d	-0.38247338

network_body.observation_encoder.processors.0.model.final_conv.weight f4 [25, 16, 1, 1]
0	0xbea865cc	-0.32890165
1	0xbe8ec9ab	-0.27888235
2	0xbe3ae790	-0.18252397
3	0xbf25abb1	-0.64715105
4	0xbdf8a3bc	-0.12140605
5	0x3eff4be2	0.49862581
6	0xbecf0297	-0.40431663
7	0xbea5bb64	-0.3236953
8	0xbe89e1e1	-0.26930144
9	0x3dad5a5c	0.084645
10	0xbedd5331	-0.43227533
11	0xbef5e98f	-0.48029754
12	0xbd47d57c	-0.04878758
13	0xbee5a159	-0.4484966
14	0x3eebaab6	0.4602868
15	0x3e38d68b	0.18050592
16	0xbe528406	-0.20558175
17	0xbea0d729	-0.31414154
18	0xbe74eaf5	-0.23917754
19	0xbf2a32a6	-0.66483533
20	0xbe8bce7a	-0.27305967
21	0x3e71234c	0.23548621
22	0xbf161d60	-0.5863857
23	0xbf11e51c	-0.5699022
24	0xbe8106dc	-0.25200546
25	0x3e6dfde1	0.23241378
26	0xbf086a46	-0.5328716
27	0xbe84ec1c	-0.25961387
28	0xbe09f740	-0.13473225
29	0xbe199439	-0.14997949
30	0x3eb75130	0.3580413
31	0x3e7371b2	0.2377384
32	0xbe515f5a	-0.2044653
33	0xbdce4e7f	-0.10073566
34	0xbf1c50dc	-0.6106088
35	0xbcecf846	-0.02892698
36	0xbde1f78d	-0.11033545
37	0x3f0c2cfd	0.54756147
38	0xbf82b8c9	-1.0212642
39	0xbe207aba	-0.15671816
40	0xbf1517e1	-0.5823956
41	0xbd8b68d2	-0.06807102
42	0xbed4f97f	-0.415966
43	0x3e940f69	0.28918007
44	0xbf1f3471	-0.62189394
45	0xbebf862a	-0.37407047
46	0x3f651102	0.89479077
47	0x3ebae5f7	0.36503574
48	0x3f1d7f00	0.6152191
49	0xbf57940a	-0.84210265
50	0x3d32a16b	0.04361097
51	0xbda2aba0	-0.07942891
52	0x3faafdd0	1.3358707
53	0x3f82b5dd	1.021175
54	0xbf447a46	-0.76749074
55	0x3ef6eadb	0.48226056
56	0x3f474b2e	0.7784909
57	0xbe9f8558	-0.3115642
58	0x3ee450d1	0.44592908
59	0xbe85f2e3	-0.2616187
60	0x3ea77770	0.3270831
61	0xbf72c3e8	-0.9483018
62	0xbd6fd01e	-0.058548085
63	0x3e462d3a	0.1935319
64	0xbf738ee9	-0.9513994
65	0x3ef26b3e	0.47347444
66	0x3e8d3d68	0.27585912
67	0xbf65b229	-0.89724976
68	0x3edda3a0	0.43288898
69	0xbe8420c5	-0.2580625
70	0x3f168778	0.5880046
71	0xbf4329d7	-0.7623572
72	0x3f2ca803	0.67443866
73	0xbf5c3416	-0.86016977
74	0xbf436b53	-0.7633564
75	0xbf5652df	-0.837202
76	0x3ed542dd	0.41652575
77	0xbcf4ff3c	-0.029906861
78	0x3eb967b9	0.36211947
79	0xbf34b69f	-0.7059116
80	0xbe2a79c5	-0.16648014
81	0xbe8fe51a	-0.28104478
82	0xbe2d51e6	-0.16925773
83	0xbedb36e2	-0.4281531
84	0xbf01f0ce	-0.50758064
85	0x3ef312bc	0.4747523
86	0xbea81d71	-0.32834962
87	0xbe144f46	-0.14483365
88	0xbe4559bc	-0.19272512
89	0x3cd2b01a	0.025718737
90	0xbee41e2a	-0.44554263
91	0xbf1c099f	-0.6095218
92	0xbc789176	-0.015171399
93	0xbec00de5	-0.375106
94	0x3e09a674	0.13442403
95	0x3e8c921d	0.27455226
96	0xbea11302	-0.31459814
97	0x3e9c987a	0.3058508
98	0xbed3c930	-0.4136443
99	0xbf0828a0	-0.5318699
100	0xbe5ec2e1	-0.21754028
101	0x3f99a036	1.2002017
102	0xbe30a14f	-0.17249034
103	0xbec19420	-0.37808323
104	0xbdbbd0a9	-0.09170658
105	0x3c6d9ed1	0.014503197
106	0x3d394167	0.04522839
107	0xbdc5df47	-0.096617274
108	0x3de55656	0.11198108
109	0xbd224acf	-0.039622124
110	0x3f2971ee	0.6618947
111	0x3edba52c	0.42899454
112	0xbe94fcb3	-0.29099044
113	0xbfb5fac0	-1.4217148
114	0xbe9c0dca	-0.3047927
115	0xbfacbf61	-1.3495904
116	0x3dc9897d	0.09840677
117	0x3e17220e	0.14759085
118	0x3f06d197	0.5266356
119	0x3f8b80e0	1.0898705
120	0xbf072cdf	-0.5280284
121	0x3ebb60fe	0.36597437
122	0xbf3d68ce	-0.73988044
123	0xbf0531be	-0.52029026
124	0xbf87fefc	-1.062469
125	0x3f0c4a59	0.54800946
126	0x3e89bbc0	0.26901054
127	0xbe90d41d	-0.2828683
128	0xbebc2b50	-0.36751795
129	0xbf3c4080	-0.7353592
130	0xbed7b319	-0.42128828
131	0x3f0592a7	0.521769
132	0xbecd6d3b	-0.401224
133	0x3e188d3d	0.14897628
134	0xbce4d1ca	-0.027932066
135	0xbf122407	-0.57086223
136	0x3f6c7ab1	0.9237471
137	0x3fd9fb5c	1.7029834
138	0xbe4db617	-0.20088993
139	0xbf941d4f	-1.1571444
140	0xbef4ad5e	-0.4778852
141	0xbf186e68	-0.59543467
142	0xbe8b9bda	-0.27267343
143	0xbead4bcd	-0.33846894
144	0xbe8ffaa1	-0.28120902
145	0xbe5dfa90	-0.21677613
146	0xbe755095	-0.23956521
147	0xbed35149	-0.41272953
148	0xbeaf5c8b	-0.34250292
149	0x3f0910fc	0.5354154
150	0xbebc6c47	-0.3680136
151	0xbeaa970d	-0.33318368
152	0xbe447234	-0.1918419
153	0xbd11f304	-0.03563215
154	0xbf0cd7be	-0.55016696
155	0xbf1fa4b0	-0.6236067
156	0xbed9e31e	-0.4255609
157	0xbe45a872	-0.19302538
158	0x3eca8ceb	0.39560637
159	0x3e857bc3	0.26070985
160	0x3f3b6ca5	0.73212653
161	0xbe9d495e	-0.30720037
162	0xbf3ce06c	-0.7377994
163	0x3deffdf4	0.117183596
164	0x3dc69c08	0.09697729
165	0x3e852930	0.26007986
166	0xbe9ab15d	-0.30213442
167	0xbe304fcf	-0.17217945
168	0xbf21b22a	-0.6316248
169	0x3ef6c2eb	0.48195586
170	0xbfaf52aa	-1.3697102
171	0xbf9c7e48	-1.2226038
172	0x3f033023	0.51245326
173	0xbe7c174f	-0.24618267
174	0x3f88d113	1.0688804
175	0x3e73dcdc	0.2381472
176	0xbc90f6e4	-0.017695852
177	0xbd95e657	-0.073193245
178	0xbf00b9c1	-0.5028344
179	0x3f127b15	0.5721906
180	0xbf91d838	-1.139411
181	0x3fbdc67a	1.4826195
182	0x3df31df6	0.11870949
183	0xbec6fe0f	-0.38865706
184	0x3baf8991	0.0053569754
185	0xbf6fa8a3	-0.93616694
186	0x3f4250ea	0.75904715
187	0xbe93369a	-0.28752595
188	0xbf1e3efc	-0.61814857
189	0xbf54ca5b	-0.8312127
190	0x3f60bb2e	0.87785614
191	0xbec4a51e	-0.38407224
192	0xbfa9e7b8	-1.327384
193	0xbe818e77	-0.25304005
194	0xbf95d2a2	-1.1704905
195	0xbf034d46	-0.51289785
196	0xbdc94bcd	-0.09828911
197	0x3e3b71cd	0.1830513
198	0x3f3c4321	0.7353993
199	0x3f76fb01	0.9647675
200	0x3e1985c5	0.14992435
201	0x3f22af07	0.6354832
202	0xbba6bf57	-0.0050887275
203	0xbf9bcf37	-1.2172612
204	0x3e324fc4	0.1741324
205	0xbf3e3e5f	-0.7431392
206	0x3ede7bcb	0.43453822
207	0x3f9c966d	1.2233406
208	0xbeb379b3	-0.35053787
209	0xbf91b698	-1.1383848
210	0xbf7febbf	-0.99969095
211	0xbe97df11	-0.29662374
212	0xbf8923c9	-1.0714046
213	0xbf075b52	-0.5287372
214	0xbf2cf854	-0.6756642
215	0x3c05cd0c	0.008166563
216	0x3f5d8a2c	0.8653896
217	0xbf179e2a	-0.59225714
218	0xbd3d3526	-0.046193264
219	0x3f0d383b	0.55163926
220	0x3f61c4b3	0.88190764
221	0xbf6426b7	-0.89121574
222	0x3e9ecec6	0.3101713
223	0xbe3bbb8a	-0.18333259
224	0xbf8945cd	-1.0724427
225	0xbe60bb86	-0.21946535
226	0x3e93724e	0.28798145
227	0x3f0bae59	0.5456291
228	0xbeff09bc	-0.49812114
229	0x3f3c3db6	0.73531663
230	0xbf7a75ff	-0.978363
231	0x3e0c1e90	0.13683534
232	0x3c235431	0.009968803
233	0xbcd60eee	-0.026130166
234	0xbf9f555f	-1.2447928
235	0x3f30b84d	0.6903122
236	0xbf0d0252	-0.55081666
237	0xbf182f34	-0.59447026
238	0x3e5b1f6e	0.21398708
239	0x3dc0261e	0.0938227
240	0xbebdaef7	-0.3704755
241	0xbf148837	-0.5802035
242	0xbe5d84ca	-0.21632686
243	0xbec69643	-0.38786516
244	0xbe9f8e36	-0.31163186
245	0x3ef376bb	0.47551522
246	0xbf0e6482	-0.5562211
247	0xbed2cc04	-0.41171277
248	0xbec562a5	-0.38551822
249	0x3e54d1d8	0.20783174
250	0xbe26633e	-0.16248795
251	0xbea10c3f	-0.31454656
252	0xbc9e1539	-0.01929723
253	0xbdfe40e5	-0.124147214
254	0x3e522e87	0.20525561
255	0x3e2bfa59	0.16794719

network_body.observation_encoder.processors.0.model.final_conv.bias f4 [25]
0	0x3ca33c7d	0.019926304
1	0xbda5e5dc	-0.08100483
2	0xbcc1c273	-0.02365229
3	0x3e2671f8	0.16254413
4	0xbe0d9b36	-0.1382874
5	0xbe8ef8f7	-0.2792432
6	0xbe9a698f	-0.3015866
7	0xbe168e33	-0.14702682
8	0xbd7a44fb	-0.06110094
9	0xbe859f87	-0.26098272
10	0xbeaee6ba	-0.34160405
11	0x3dc057d0	0.09391749
12	0xbe6ac46b	-0.2292649
13	0xbd489503	-0.048970234
14	0xbece7637	-0.40324566
15	0xbe82ce2b	-0.2554792
16	0xbeb70c6f	-0.35751674
17	0xbec92f77	-0.39294025
18	0xbe3efbe6	-0.18650779
19	0xbdb2ac5f	-0.087242834
20	0xbdd8ae05	-0.105800666
21	0xbe06f6ff	-0.13180159
22	0x3d492e08	0.049116164
23	0xbd62b5bd	-0.0553491
24	0xbe5257f9	-0.20541371

network_body.observation_encoder.processors.0.pooling_model.spatial_extractor.1.weight f4 [3]
0	0x3fab7073	1.3393692
1	0x3f2a3646	0.66489065
2	0x3f74a29f	0.9556064

network_body.observation_encoder.processors.0.pooling_model.spatial_extractor.1.bias f4 [3]
0	0x3e8c9aab	0.27461752
1	0x3e0392fc	0.12849039
2	0xbced6d3f	-0.028982757

network_body.observation_encoder.processors.0.pooling_model.spatial_extractor.1.running_mean f4 [3]
0	0x3d19c95e	0.037545554
1	0x3de535b8	0.11191887
2	0x3e89ee63	0.26939687

network_body.observation_encoder.processors.0.pooling_model.spatial_extractor.1.running_var f4 [3]
0	0x36c5d11a	5.8954e-06
1	0x35fff19c	1.9069298e-06
2	0x368f4dd7	4.270794e-06

network_body.observation_encoder.processors.0.pooling_model.spatial_extractor.4.weight f4 [3]
0	0x3f074db9	0.5285297
1	0x3f51e2f8	0.8198695
2	0x3f329680	0.69760895

network_body.observation_encoder.processors.0.pooling_model.spatial_extractor.4.bias f4 [3]
0	0xbee8fa48	-0.4550345
1	0xbe5b81c2	-0.21436217
2	0xbeac82ea	-0.3369363

network_body.observation_encoder.processors.0.pooling_model.spatial_extractor.4.running_mean f4 [3]
0	0x3fc8bac1	1.5681993
1	0x3f9728ea	1.1809361
2	0x3ce17179	0.027519928

network_body.observation_encoder.processors.0.pooling_model.spatial_extractor.4.running_var f4 [3]
0	0x408163e0	4.043442
1	0x40674165	3.6133664
2	0x3fa9723b	1.3237985

network_body._body_endoder.attention.query.bias f4 [108]
0	0x00000000	0.0
1	0x00000000	0.0
2	0x00000000	0.0
3	0x00000000	0.0
4	0x00000000	0.0
5	0x00000000	0.0
6	0x00000000	0.0
7	0x00000000	0.0
8	0x00000000	0.0
9	0x00000000	0.0
10	0x00000000	0.0
11	0x00000000	0.0
12	0x00000000	0.0
13	0x00000000	0.0
14	0x00000000	0.0
15	0x00000000	0.0
16	0x00000000	0.0
17	0x00000000	0.0
18	0x00000000	0.0
19	0x00000000	0.0
20	0x00000000	0.0
21	0x00000000	0.0
22	0x00000000	0.0
23	0x00000000	0.0
24	0x00000000	0.0
25	0x00000000	0.0
26	0x00000000	0.0
27	0x00000000	0.0
28	0x00000000	0.0
29	0x00000000	0.0
30	0x00000000	0.0
31	0x00000000	0.0
32	0x00000000	0.0
33	0x00000000	0.0
34	0x00000000	0.0
35	0x00000000	0.0
36	0x00000000	0.0
37	0x00000000	0.0
38	0x00000000	0.0
39	0x00000000	0.0
40	0x00000000	0.0
41	0x00000000	0.0
42	0x00000000	0.0
43	0x00000000	0.0
44	0x00000000	0.0
45	0x00000000	0.0
46	0x00000000	0.0
47	0x00000000	0.0
48	0x00000000	0.0
49	0x00000000	0.0
50	0x00000000	0.0
51	0x00000000	0.0
52	0x00000000	0.0
53	0x00000000	0.0
54	0x00000000	0.0
55	0x00000000	0.0
56	0x00000000	0.0
57	0x00000000	0.0
58	0x00000000	0.0
59	0x00000000	0.0
60	0x00000000	0.0
61	0x00000000	0.0
62	0x00000000	0.0
63	0x00000000	0.0
64	0x00000000	0.0
65	0x00000000	0.0
66	0x00000000	0.0
67	0x00000000	0.0
68	0x00000000	0.0
69	0x00000000	0.0
70	0x00000000	0.0
71	0x00000000	0.0
72	0x00000000	0.0
73	0x00000000	0.0
74	0x00000000	0.0
75	0x00000000	0.0
76	0x00000000	0.0
77	0x00000000	0.0
78	0x00000000	0.0
79	0x00000000	0.0
80	0x00000000	0.0
81	0x00000000	0.0
82	0x00000000	0.0
83	0x00000000	0.0
84	0x00000000	0.0
85	0x00000000	0.0
86	0x00000000	0.0
87	0x00000000	0.0
88	0x00000000	0.0
89	0x00000000	0.0
90	0x00000000	0.0
91	0x00000000	0.0
92	0x00000000	0.0
93	0x00000000	0.0
94	0x00000000	0.0
95	0x00000000	0.0
96	0x00000000	0.0
97	0x00000000	0.0
98	0x00000000	0.0
99	0x00000000	0.0
100	0x00000000	0.0
101	0x00000000	0.0
102	0x00000000	0.0
103	0x00000000	0.0
104	0x00000000	0.0
105	0x00000000	0.0
106	0x00000000	0.0
107	0x00000000	0.0

network_body._body_endoder.attention.value.bias f4 [108]
0	0xbcc196dc	-0.023631506
1	0x3f53e506	0.8277134
2	0xbe27cec6	-0.16387472
3	0xbe9deee9	-0.30846336
4	0xbe610086	-0.21972856
5	0xbe8937ab	-0.26800284
6	0xbdb26ae9	-0.08711798
7	0x3ce91141	0.02845061
8	0xbf04739a	-0.51738894
9	0xbf6c0596	-0.92196023
10	0x3e247c19	0.16062964
11	0xbdf44066	-0.119263455
12	0x3df05c36	0.11736338
13	0xbc431f23	-0.011909279
14	0x3e3706ae	0.17873642
15	0xbe038b81	-0.12846185
16	0xbea5ace1	-0.3235846
17	0xbe6e7665	-0.23287351
18	0xbc7fcb8e	-0.015612496
19	0xbd0462ae	-0.03232067
20	0x3db72da3	0.089442514
21	0xbbe92511	-0.0071150144
22	0xbb88e7bb	-0.004178015
23	0x3d8e5267	0.06949311
24	0x3d0a4c0a	0.033763923
25	0x3f4af901	0.792862
26	0x3e1076b0	0.14107776
27	0xbea70967	-0.3262436
28	0x3ebec2ff	0.37258145
29	0x3d151e42	0.03640581
30	0x3e216a34	0.1576317
31	0x3dc0a959	0.094073005
32	0x3eada56f	0.33915278
33	0x3e8b32f7	0.2718732
34	0x3e1afa92	0.15134647
35	0x3e8ab805	0.2709352
36	0x3d400c15	0.046886522
37	0x3ee06058	0.43823504
38	0x3e7d6817	0.24746738
39	0x3e299ca7	0.16563664
40	0x3d810c63	0.06301191
41	0xbd923ab5	-0.07140104
42	0xbe826946	-0.25470942
43	0xbe85b184	-0.26111996
44	0x3e997567	0.29972383
45	0x3e8d36f4	0.27580988
46	0x3e4e3af3	0.20139675
47	0xbdfc4b99	-0.123191066
48	0x3e69ed34	0.22844392
49	0x3dfefc51	0.12450469
50	0x3e91bdff	0.28465268
51	0x3db1ba8b	0.086781584
52	0x3dd0f082	0.10202123
53	0x3e05bd7f	0.13060568
54	0xbdbd9f2b	-0.092588745
55	0x3e1922a4	0.1495462
56	0x3e8282de	0.2549047
57	0xbd63889b	-0.0555502
58	0x3e1717b5	0.14755137
59	0xbc9388bd	-0.018009538
60	0xbe2a4d56	-0.16631064
61	0x3e787107	0.24261867
62	0x3e15db67	0.14634477
63	0xbdc2cf8d	-0.095122434
64	0x3db86e92	0.090054646
65	0xbce31e3b	-0.027724376
66	0xbe35c6f0	-0.1775167
67	0x3ec8263e	0.39091676
68	0x3d0805cd	0.033208657
69	0xbd0f2a7a	-0.03495262
70	0x3d8b0e3e	0.06789826
71	0x3ec1741f	0.37783906
72	0xbb25bf62	-0.0025291075
73	0x3e59bf59	0.212644
74	0x3e3345ca	0.17507091
75	0x3bdc2de2	0.006719337
76	0xbeb9d65a	-0.3629635
77	0xbde0947b	-0.109658204
78	0xbe8e1078	-0.2774694
79	0xbc50c069	-0.012741187
80	0xbd87f97d	-0.06639383
81	0x3ed94525	0.42435566
82	0x3de72362	0.112860456
83	0x3ed798bd	0.42108718
84	0x3de4c975	0.111712374
85	0x3ebfbbff	0.37448117
86	0xbe541aa6	-0.2071329
87	0xbe212793	-0.15737753
88	0x3d9ace96	0.075589344
89	0xbe96f02e	-0.29480118
90	0xbeb69921	-0.35663703
91	0xbe449498	-0.19197309
92	0xbe1745d2	-0.14772728
93	0x3db5d390	0.08878243
94	0xbf0621cb	-0.52395314
95	0x3e17b9c5	0.14816959
96	0xbd457b55	-0.04821332
97	0xbd56dd2e	-0.052457027
98	0xbe741684	-0.23836714
99	0x3cf45728	0.029826716
100	0xbd306b53	-0.043071102
101	0xbe0c8618	-0.13723028
102	0xbe8cc269	-0.27492073
103	0x3bb0dc62	0.0053973654
104	0xbe478a36	-0.19486317
105	0x3d1ef4a9	0.038807545
106	0xbe350da1	-0.1768098
107	0xbe5fccc2	-0.21855453

network_body._body_endoder.attention.norm.weight f4 [108]
0	0x3fc4020a	1.5313122
1	0x4004295f	2.065025
2	0x3f6526de	0.8951243
3	0x3f94f57c	1.1637416
4	0x3f923612	1.1422751
5	0x3f808bbc	1.0042644
6	0x3ead1a71	0.33809236
7	0x3fa54df2	1.2914412
8	0x3fb8c9fc	1.4436641
9	0x3ffbf3fc	1.9683833
10	0x3fb5b483	1.4195713
11	0x3f3d77a1	0.74010664
12	0x3f9daf7f	1.2319182
13	0x3fcca002	1.598633
14	0x3fad4032	1.3535216
15	0x3fc82dfa	1.5639031
16	0x3f761b9f	0.96135896
17	0x3f8a7755	1.0817667
18	0x3f7989a2	0.97475636
19	0x3f6540c3	0.89551944
20	0x3f53c431	0.8272124
21	0x3edd0f75	0.43175855
22	0x3fb24369	1.3926822
23	0x3f62453c	0.88386893
24	0x3f570d0b	0.84004277
25	0x400a311b	2.1592472
26	0x3f800175	1.0000445
27	0x3f9ec66d	1.2404305
28	0x3fad8412	1.355593
29	0x3fac96ab	1.348348
30	0x3f78dc11	0.97210795
31	0x3fcbc1cd	1.5918518
32	0x3f8ed62f	1.1159114
33	0x3f855c9a	1.0418885
34	0x3ef2790c	0.47357976
35	0x3fc17c43	1.5116047
36	0x3f09ac4e	0.5377854
37	0x3f199dd7	0.6000647
38	0x3fa6b86d	1.3025032
39	0x3f975f30	1.1825924
40	0x3f8d4d0b	1.1039137
41	0x3f763d30	0.96187115
42	0x3f64e705	0.8941501
43	0x3f8af564	1.0856137
44	0x3f5a0f2f	0.8517942
45	0x3fad8d07	1.3558663
46	0x3f82cc84	1.0218663
47	0x3fa9196c	1.3210883
48	0x3f194c8c	0.59882426
49	0x3fac04bf	1.3438948
50	0x3f861cf7	1.0477589
51	0x3f9161f7	1.1358021
52	0x3f89dcc5	1.0770499
53	0x3f5e8cf1	0.8693381
54	0x3f8c6b09	1.0970165
55	0x3f755315	0.958299
56	0x3fcd793b	1.6052622
57	0x3f3543b2	0.7080642
58	0x3e4c1383	0.19929318
59	0x3efe1b71	0.4963031
60	0x3f7f87e2	0.99816716
61	0x3f6f8944	0.93568826
62	0x3fa639ec	1.2986426
63	0x3fca4b51	1.5804235
64	0x3f07df7b	0.5307538
65	0x3fbac3de	1.4591024
66	0x3f74ec48	0.95673037
67	0x3faecf70	1.3657055
68	0x3edd2a8b	0.4319652
69	0x3fb0aa9f	1.380207
70	0x3f77631a	0.9663559
71	0x3f9c71b6	1.2222202
72	0x3f5f4ed7	0.87229675
73	0x3f806150	1.0029697
74	0x3f560cef	0.83613485
75	0x3f11339a	0.5671936
76	0x3fb05d3c	1.3778453
77	0x3f90c685	1.1310583
78	0x3f5c8cdc	0.86152434
79	0x3f56fae3	0.8397657
80	0x3f0a12d1	0.5393496
81	0x3f84826a	1.0352299
82	0x3f195a47	0.5990338
83	0x3f927d4e	1.144449
84	0x3f5e0b7b	0.8673627
85	0x3f80bd81	1.0057832
86	0x3f558fc1	0.83422476
87	0x3f59c981	0.85073096
88	0x3f47e06d	0.7807682
89	0x3fa35504	1.276032
90	0x3fb088d1	1.3791753
91	0x3fa22a53	1.2669166
92	0x3f300110	0.6875162
93	0x3f07d3ec	0.5305774
94	0x3fb1fdde	1.3905599
95	0x3ef56156	0.47925824
96	0x3ff9c7aa	1.9514058
97	0x3f226667	0.63437504
98	0x3f75227c	0.95755744
99	0x3f3e5084	0.7434161
100	0x3f4f12b7	0.8088793
101	0x3f6082f6	0.8769983
102	0x3f35969c	0.70932937
103	0x3f022199	0.50832516
104	0x3fab3948	1.3376856
105	0x3f08eefd	0.5348967
106	0x3f655b7f	0.89592737
107	0x3f91b0d7	1.1382092

network_body._body_endoder.attention.norm.bias f4 [108]
0	0x3e3e92df	0.18610714
1	0x3f71d1df	0.9446086
2	0xbdc78bfa	-0.09743495
3	0xbe90e842	-0.283022
4	0x3d0a7e26	0.03381171
5	0xbe8ec6ad	-0.27885953
6	0xbdc32c3a	-0.0952992
7	0x3e2c2ba4	0.16813523
8	0xbefeb559	-0.49747732
9	0xbf7e85d2	-0.99422944
10	0x3da962da	0.082708076
11	0xbddc9e9e	-0.10772441
12	0x3ca2090c	0.019779705
13	0x3c7db0d6	0.0154840555
14	0x3e1ad2bc	0.15119451
15	0xbe17a3a7	-0.14808522
16	0xbe3af7af	-0.18258546
17	0xbe8d5da7	-0.27610514
18	0x3b995579	0.0046793786
19	0xbd9a4b2d	-0.0753387
20	0xbcc38f3a	-0.023872007
21	0x3d8d87ea	0.06910689
22	0x3e384a49	0.17997088
23	0x3e67d9ea	0.22641721
24	0xbddaa8d1	-0.106767304
25	0x3f740aea	0.95329154
26	0x3c462ce0	0.01209566
27	0xbe77e95b	-0.24210112
28	0x3e7d8723	0.24758582
29	0xbde43ee7	-0.1114481
30	0x3d82b498	0.06382102
31	0x3ceb8ed9	0.028754639
32	0x3ec5a123	0.385995
33	0x3eafd3f3	0.34341392
34	0x3e3782c5	0.17920978
35	0x3ef1285d	0.47101107
36	0x3d7dd2b1	0.06196851
37	0x3ed446dd	0.41460314
38	0x3e3ad942	0.1824694
39	0x3e97480d	0.29547158
40	0x3da08d7f	0.07839488
41	0xbe17ee05	-0.14836891
42	0xbe8b4ddb	-0.27207837
43	0xbc59da8f	-0.013296737
44	0x3ed3d155	0.41370645
45	0x3e180377	0.14845072
46	0x3e86cf06	0.2632982
47	0x3d3b0c19	0.045665834
48	0x3e52ba40	0.20578861
49	0x3e208c16	0.15678439
50	0x3e34c954	0.17654926
51	0xbcdcbe84	-0.026946314
52	0x3cfae823	0.03062827
53	0x3db9736c	0.09055218
54	0xbd6dc931	-0.0580532
55	0xbb700cf3	-0.0036628812
56	0x3c5a96f0	0.01334165
57	0xbdc55dda	-0.096370414
58	0xbe4e20c2	-0.20129684
59	0x3d9a200c	0.07525644
60	0xbddbbded	-0.10729585
61	0x3d5f2c98	0.054485887
62	0x3b57e4fc	0.0032942882
63	0xbdee5c25	-0.11638669
64	0x3c1f2443	0.009713235
65	0xbe1eef72	-0.15521029
66	0xbe82c43c	-0.2554034
67	0x3e831766	0.2560379
68	0xbe21cf3e	-0.15801713
69	0xbd82fa03	-0.06395342
70	0xbe1bd6e8	-0.15218699
71	0x3e465a90	0.19370484
72	0xbe87610a	-0.26441222
73	0x3dfb5369	0.122717686
74	0x3e3eb465	0.18623503
75	0xbd6dbcb3	-0.058041286
76	0xbeed78a0	-0.46381092
77	0xbddbac61	-0.10726238
78	0xbebc9bf8	-0.36837745
79	0xbdd78fd9	-0.10525484
80	0xbbb374a8	-0.005476553
81	0x3ee20901	0.44147494
82	0x3d1d2231	0.038362686
83	0x3ef8f0d9	0.48621252
84	0x3c681fb6	0.014167717
85	0x3eb9d43d	0.36294737
86	0xbea74ce3	-0.32675847
87	0xbe81766e	-0.25285667
88	0xbd1caa02	-0.03824807
89	0xbef56485	-0.47928253
90	0xbee3ed5a	-0.44517022
91	0xbe6ceab4	-0.23136407
92	0x3d0ffde9	0.035154257
93	0xbda37baa	-0.079825714
94	0xbf249762	-0.6429349
95	0xbd81c835	-0.063370146
96	0x3e259c96	0.16173014
97	0x3c65cb42	0.014025511
98	0xbe8019b4	-0.2501961
99	0x3e81fce9	0.25388268
100	0x3da6ff53	0.08154168
101	0xbdbe5dda	-0.092952445
102	0xbea65e16	-0.32493657
103	0x3c562991	0.013071434
104	0xbe06c0a5	-0.13159426
105	0x3debf565	0.11521415
106	0xbd500e95	-0.050795157
107	0xbdead091	-0.11465562

network_body._body_endoder.norm.weight f4 [108]
0	0x3f8be051	1.0927831
1	0x3e7d221e	0.24720046
2	0x3ec22945	0.3792211
3	0x3f36393a	0.7118107
4	0x3f12e42c	0.5737941
5	0x3f08bf39	0.5341678
6	0x3f1754ec	0.59113955
7	0x3f7706ac	0.96494555
8	0x3ecd2af3	0.4007183
9	0x3e852463	0.26004323
10	0x3f899988	1.0749979
11	0x3f1e3947	0.6180615
12	0x3f6a3ea1	0.91501814
13	0x3f878bb9	1.0589515
14	0x3f8b1bb6	1.0867832
15	0x3f8393de	1.02795
16	0x3ecf5de4	0.4050132
17	0x3f162a81	0.58658606
18	0x3f2eb2ee	0.68241775
19	0x3f242c72	0.6413032
20	0x3f1c9fa7	0.6118111
21	0x3ef2dfc1	0.47436336
22	0x3db38295	0.08765141
23	0x3efe2fd4	0.49645865
24	0x3eebb66d	0.46037617
25	0x3e82f2b2	0.25575787
26	0x3f384b29	0.71989685
27	0x3f599200	0.84988403
28	0x3f2fbc6d	0.6864689
29	0x3f50fbd2	0.8163425
30	0x3f283cd0	0.6571779
31	0x3f83549a	1.0260193
32	0x3f22b53a	0.6355778
33	0x3f44341f	0.7664203
34	0x3f3f31b2	0.74685204
35	0x3eed2066	0.4631378
36	0x3eefe820	0.46856785
37	0x3f09b5c2	0.53792965
38	0x3f8b6952	1.0891516
39	0x3f33e809	0.7027593
40	0x3f6402e5	0.89066917
41	0x3f1d93e9	0.6155382
42	0x3ee16eba	0.4402979
43	0x3f123924	0.5711844
44	0x3f1a7a0b	0.6034247
45	0x3f8ab860	1.0837517
46	0x3efed542	0.49772078
47	0x3f7b9373	0.98271865
48	0x3f051f75	0.52001125
49	0x3f697f08	0.9120946
50	0x3f70fecb	0.94138783
51	0x3f5bfc22	0.859316
52	0x3f5b50a0	0.856699
53	0x3ef218c5	0.47284523
54	0x3e0bd021	0.13653614
55	0x3e542604	0.20717627
56	0x3ec23c1d	0.37936488
57	0x3dd2e901	0.10298348
58	0xbbf068db	-0.0073367185
59	0x3e275d0f	0.16344093
60	0x3e29f8c2	0.165988
61	0x3eb00723	0.34380445
62	0x3e8714ef	0.2638316
63	0x3f19b9b6	0.60049
64	0x3e03f12e	0.12884971
65	0x3edee48e	0.43533748
66	0x3f11c7ca	0.5694548
67	0x3ed658bc	0.41864574
68	0x3e37b046	0.17938337
69	0x3ed81abb	0.42207894
70	0x3e451b53	0.19248705
71	0x3f024ada	0.50895464
72	0x3d013972	0.031548925
73	0x3ea58d9a	0.32334596
74	0x3d6233ca	0.05522517
75	0xbc1d99ad	-0.009619159
76	0x3e736f1b	0.23772852
77	0x3ec5ed33	0.3865753
78	0x3ebf707a	0.373905
79	0x3e9357cb	0.28777918
80	0x3dc0b624	0.094097406
81	0x3edcdf5f	0.4313917
82	0x3b5382d0	0.0032274015
83	0x3eafd932	0.34345394
84	0x3e2c023f	0.16797732
85	0x3ebb567d	0.36589423
86	0x3e064c18	0.13114965
87	0x3dd53308	0.10410124
88	0x3e522488	0.20521748
89	0x3e42ce89	0.190241
90	0x3eb37fb4	0.35058367
91	0x3ea3c186	0.31983584
92	0x3de7371e	0.1128981
93	0x3d74a304	0.059725776
94	0x3eb674ec	0.3563608
95	0xbd16c37b	-0.03680752
96	0x3f4a278e	0.78966606
97	0x3f78a95e	0.97133434
98	0x3fbbfc08	1.4686289
99	0x3eac4134	0.33643496
100	0x3fb9c5ce	1.451349
101	0x3dff9f68	0.12481576
102	0x3eaaec4b	0.33383402
103	0x3dbc55f1	0.091960795
104	0x3f5bcedc	0.8586252
105	0x3f43a076	0.7641672
106	0x40005957	2.0054529
107	0x3fbcbdaa	1.4745381

network_body._body_endoder.norm.bias f4 [108]
0	0x3e38e781	0.18057062
1	0xbf1573d3	-0.5837986
2	0xbdc49772	-0.095991984
3	0x3d9fff4c	0.07812366
4	0x3da2fb18	0.079580486
5	0x3e2b013e	0.16699693
6	0xbcde6d6a	-0.027151782
7	0x3e63d52c	0.22249287
8	0x3ea7f255	0.32802072
9	0x3f219499	0.6311737
10	0x3d9977f3	0.074935816
11	0x3e30d82e	0.17269966
12	0xbc90f8d0	-0.017696768
13	0x3d93fdc8	0.07226139
14	0x3e4714a9	0.19441475
15	0xbd97e09e	-0.07415889
16	0xbe2201a7	-0.15820943
17	0xbc520486	-0.012818461
18	0x3b943db0	0.0045239553
19	0xbde10be1	-0.10988594
20	0xbdb196ad	-0.08671317
21	0xbde668f7	-0.11250489
22	0xbd3bbe41	-0.045835737
23	0xbcb387bb	-0.021915307
24	0xbd8980c3	-0.067140125
25	0xbf0e082d	-0.55481225
26	0xbdd87e81	-0.10571004
27	0xbde47996	-0.11156003
28	0xbe97cfa3	-0.29650602
29	0xbdbad595	-0.09122769
30	0xbe1aab4f	-0.15104412
31	0xbe5f81ea	-0.21826902
32	0xbda7f9f2	-0.0820197
33	0x3cf84fd1	0.030311497
34	0x3dfc80ff	0.123292916
35	0xbe5bb11d	-0.21454282
36	0x3dca3709	0.098737784
37	0x3e83c322	0.25734812
38	0x3c9a7d7e	0.018858667
39	0x3d8e448b	0.06946667
40	0x3dcf0aca	0.1010948
41	0xbccd639b	-0.02507191
42	0xbe347980	-0.17624474
43	0x3e06a0a4	0.13147217
44	0x3e8628db	0.26203045
45	0x3de0b741	0.10972453
46	0x3dab71f5	0.08371345
47	0x3d8b5dec	0.068050236
48	0x3e86c63c	0.26323116
49	0x3e10e021	0.14147998
50	0x3e5ed3b4	0.21760446
51	0x3cd2028b	0.025635978
52	0x3d7b825e	0.061403625
53	0x3e10a930	0.1412704
54	0x3c2ad86a	0.010427574
55	0xbc12b577	-0.008954397
56	0x3ddad025	0.10684232
57	0xbc20e7d1	-0.009820894
58	0xbd7b0bdd	-0.06129061
59	0xbd152f87	-0.03642228
60	0x3d366f78	0.0445399
61	0x3dbc2c7c	0.09188172
62	0x3c303a68	0.010756113
63	0xbcc9dddf	-0.02464193
64	0x3cb4f352	0.02208868
65	0xbddc60e2	-0.107606664
66	0xbd8bd1e2	-0.06827141
67	0xbe458440	-0.1928873
68	0xbd9ac4b9	-0.07557053
69	0xbd1f16bd	-0.038840044
70	0xbdd8b935	-0.105822004
71	0xbd337b8a	-0.043818988
72	0x3a84733f	0.0010105147
73	0xbd89ac57	-0.06722324
74	0x3e905373	0.28188667
75	0x3cbca955	0.023029963
76	0x3d7777a8	0.060416847
77	0xba247104	-0.0006272944
78	0xbd4450a8	-0.047928482
79	0xbcfbd648	-0.030741826
80	0xbb9b062e	-0.0047309613
81	0xbd6a3c57	-0.05718645
82	0xbd578c63	-0.052624118
83	0x3c4b8e10	0.012424007
84	0x3d3c6160	0.0459913
85	0xbbd02bbc	-0.00635287
86	0xbb403f76	-0.00293347
87	0xbd9ce49c	-0.07660791
88	0x3c8fea78	0.017567858
89	0x3df9a1ce	0.12189065
90	0x3df83186	0.12118821
91	0xbdf55b8d	-0.119803526
92	0x3d20ff30	0.039305866
93	0x3dc6446c	0.09681019
94	0x3c4cd3d2	0.012501674
95	0x3c6d2fc4	0.01447672
96	0xbe8eecd1	-0.27915052
97	0xbcce7f9e	-0.025207337
98	0xbe99832e	-0.29982895
99	0x3e66acf5	0.22526915
100	0x3e3b1d5f	0.18272923
101	0xbe13d3f9	-0.1443633
102	0xbebe8abc	-0.3721522
103	0x3d50c250	0.05096656
104	0x3e0dbf96	0.13842615
105	0x3e012154	0.1261037
106	0xbd5bcdae	-0.05366295
107	0xbd9250ab	-0.071442924

network_body._body_endoder.lin_layers.seq_layers.0.weight f4 [216, 108]
0	0xbe277595	-0.16353448
1	0xbec6efb6	-0.3885476
2	0x3e9ca0e2	0.30591494
3	0x3ec0b744	0.3763982
4	0x3d9e4a06	0.077289626
5	0x3f1e8db2	0.6193496
6	0x3e522a37	0.20523916
7	0x3eb3e644	0.35136616
8	0x3ef6734c	0.4813484
9	0x3eed6067	0.46362612
10	0x3e059941	0.13046743
11	0x3d9c8cf1	0.0764407
12	0x3d7a9ff6	0.061187707
13	0x3ea608bc	0.3242854
14	0xbe215704	-0.1575585
15	0x3e99c8c0	0.30035973
16	0x3f40d833	0.75329894
17	0x3ef08360	0.4697523
18	0x3c95041d	0.018190438
19	0xbe818f6e	-0.2530474
20	0xbf1c5113	-0.6106121
21	0xbe8afa03	-0.2714387
22	0xbe88c61b	-0.26713642
23	0xbeb17d15	-0.34665743
24	0xbe82b15f	-0.25525948
25	0xbf0d4c0c	-0.55194163
26	0xbf1bdf48	-0.60887575
27	0x3e768126	0.24072704
28	0xbeea34f3	-0.45743522
29	0xbdbcf384	-0.092261344
30	0xbefe7a8d	-0.49702874
31	0xbe868312	-0.26271874
32	0xbeacc9ea	-0.33747798
33	0xbf060c18	-0.52362204
34	0xbf348d92	-0.7052852
35	0xbe84bbbe	-0.25924486
36	0xbe1fc2c7	-0.15601645
37	0xbeb6189b	-0.35565647
38	0xbe76fea4	-0.24120575
39	0xbf04ff27	-0.5195183
40	0x3f0f1bfc	0.55902076
41	0x3efa2db9	0.4886301
42	0x3f06637c	0.5249555
43	0x3d54c3b3	0.051944446
44	0xbe9bf4b7	-0.3046014
45	0xbeb448ec	-0.35211885
46	0xbe81e190	-0.25367403
47	0x3f0ea3ac	0.55718493
48	0xbe8e8019	-0.27832106
49	0xbf003454	-0.50079846
50	0xbf0e20f5	-0.5551904
51	0x3c3f28e7	0.011667467
52	0xbef723d1	-0.48269513
53	0xbe0468b2	-0.12930563
54	0x3e12c655	0.1433347
55	0xbe03d74e	-0.12875101
56	0xbd2e49ec	-0.042550966
57	0x3d09a8e5	0.033608336
58	0x3e10d348	0.14143097
59	0xbe0b2921	-0.13589908
60	0x3e0e5188	0.13898289
61	0xbf13b39b	-0.5769593
62	0xbef8cf4e	-0.4859566
63	0xbe961435	-0.29312292
64	0xbda4ca93	-0.080464505
65	0xbd9a398a	-0.07530506
66	0x3f186d79	0.5954204
67	0xbec5b3a4	-0.38613617
68	0x3e62b79e	0.22140357
69	0x3e9e177f	0.308773
70	0x3d757576	0.059926473
71	0xbec583d3	-0.38577136
72	0x3e19894d	0.14993782
73	0xbd9b4c44	-0.07582906
74	0xbe0ea147	-0.1392871
75	0x3e086e48	0.13323319
76	0x3e05733d	0.13032241
77	0x3edb5bba	0.4284342
78	0x3f20e5b8	0.62850523
79	0x3e73b707	0.23800288
80	0x3ea6342e	0.32461685
81	0x3bd436b2	0.0064762468
82	0x3ecdc544	0.40189564
83	0xbeab459e	-0.3345155
84	0x3eceb174	0.4036976
85	0xbe9f31fe	-0.3109283
86	0x3ea03557	0.31290695
87	0x3e226201	0.15857698
88	0x3f165ca5	0.58735114
89	0x3d7e58b3	0.06209631
90	0x3f06b032	0.526126
91	0x3e3e90a8	0.1860987
92	0xbd3f5167	-0.04670849
93	0xbd4784f7	-0.04871079
94	0x3ea6fe9b	0.32616124
95	0x3eafa365	0.34304348
96	0x3e1b7e44	0.15184885
97	0xbeaed2eb	-0.34145293
98	0xbeb97118	-0.36219096
99	0xbf34c819	-0.70617825
100	0x3ec5fa55	0.3866755
101	0xbcb7fa22	-0.02245814
102	0x3da2d7bd	0.07951305
103	0xbd7ad9a8	-0.06124273
104	0x3eede2a1	0.46461967
105	0xbeef1639	-0.46696642
106	0x3f1a5b98	0.6029601
107	0x3e8d629d	0.27614298
108	0xbd18875b	-0.03723846
109	0xbf1466d5	-0.5796941
110	0x3eab5158	0.33460498
111	0x3e9cb97e	0.3061027
112	0x3e8b232a	0.27175266
113	0x3e3d8bf1	0.18510415
114	0x3f032a77	0.5123667
115	0xbcbb346e	-0.022852149
116	0x3eebd714	0.4606253
117	0x3df11300	0.11771202
118	0xbe4bcc23	-0.1990209
119	0xbb8ebe39	-0.0043561724
120	0x3bd307ed	0.006440154
121	0xbe1d5269	-0.15363468
122	0x3b8ebd17	0.0043560374
123	0xbe801978	-0.2501943
124	0x3eba29c6	0.36359996
125	0x3e2276ea	0.15865675
126	0x3c82eb54	0.015981354
127	0xbe8918aa	-0.2677663
128	0xbed439c4	-0.41450322
129	0x3df107e2	0.11769082
130	0xbdc90967	-0.098162465
131	0xbea0297b	-0.31281647
132	0xbe6bedf9	-0.23039998
133	0xbef14171	-0.4712024
134	0xbefd09c4	-0.49421513
135	0x3d848ed0	0.06472552
136	0xbeb4718e	-0.35242885
137	0xba585be6	-0.000825344
138	0xbef3d2c9	-0.47621754
139	0xbe60cdbf	-0.21953486
140	0xbea986af	-0.33110568
141	0xbf120e08	-0.5705266
142	0xbecf9c20	-0.405488
143	0xbdf8c116	-0.12146203
144	0xbe641bab	-0.2227618
145	0xbeb0a783	-0.345028
146	0xbda61e83	-0.081112884
147	0xbd4bbf2d	-0.049742866
148	0xbe1c071a	-0.15237084
149	0x3f2cc797	0.6749205
150	0x3f1fe71a	0.6246201
151	0x3e6220f0	0.22082877
152	0xbed2e5b8	-0.41190886
153	0xbd415314	-0.04719837
154	0xbd9dd24c	-0.077061266
155	0x3e2f7136	0.1713303
156	0xbf3c6c01	-0.736023
157	0xbd512bb0	-0.051067054
158	0xbf0d77da	-0.55261004
159	0xbc6a4870	-0.014299497
160	0xbd94f0ac	-0.07272467
161	0xbe9791b5	-0.29603353
162	0x3dfe7e63	0.1242645
163	0x3d4df231	0.0502798
164	0x3c11fe47	0.008910722
165	0x3e964cb0	0.29355383
166	0x3e91b5ba	0.2845896
167	0x3de5c5e7	0.112193875
168	0x3d9cb560	0.07651782
169	0xbe4e24b1	-0.20131184
170	0x3e0fb31d	0.1403317
171	0x3e0f9d52	0.14024857
172	0xbe12ee28	-0.14348662
173	0x3d1a2b18	0.037638754
174	0x3ed9c1b2	0.4253059
175	0xbeae53d7	-0.3404834
176	0x3e46e1b7	0.19422041
177	0xbd1cf2a5	-0.03831734
178	0x3d57a589	0.0526481
179	0xbf3210d8	-0.6955695
180	0xbe67d0ad	-0.22638197
181	0xbef5e72b	-0.4802793
182	0xbefc8579	-0.49320582
183	0xbe8349d0	-0.25642252
184	0x3be1b356	0.0068878336
185	0x3e2bdef2	0.16784266
186	0x3e5232af	0.20527147
187	0x3ed248ff	0.41071317
188	0x3ec852e9	0.39125755
189	0xbe2b3193	-0.1671813
190	0x3d6d8000	0.0579834
191	0xbeaa9487	-0.33316442
192	0xbe5b2994	-0.2140258
193	0xbeddfaa4	-0.43355286
194	0x3e51b831	0.2048042
195	0x3e9f28df	0.3108587
196	0x3e37ae4a	0.1793758
197	0x3e17979b	0.14803927
198	0x3ed151c7	0.40882704
199	0x3e9bfb49	0.30465153
200	0xbe40391a	-0.18771783
201	0xbe69d7bf	-0.22836207
202	0x3f024ac7	0.5089535
203	0xbe1286c5	-0.14309223
204	0x3b80a8c8	0.0039263703
205	0x3e986f85	0.29772583
206	0x3d981abe	0.07426976
207	0xbe44f6d5	-0.19234784
208	0x3f18dd0b	0.59712285
209	0x3ee4d7cd	0.44695893
210	0x3eee9549	0.4659827
211	0x3daccaf8	0.08437151
212	0x3db04fbf	0.0860896
213	0xbdaa27d2	-0.08308376
214	0x3f0a90b0	0.54127026
215	0x3f3bb3fb	0.73321503
216	0x3d240267	0.040041354
217	0xbeddb69e	-0.43303388
218	0x3f1d0462	0.6133481
219	0x3e4aaa88	0.19791615
220	0x3eaa09f2	0.33210713
221	0x3df5fa59	0.12010641
222	0x3eb3f3c0	0.35146904
223	0xbe1683c3	-0.146987
224	0x3e53469e	0.20632407
225	0x3e430981	0.19046594
226	0xbdf2b295	-0.11850468
227	0x3d141c89	0.036160026
228	0x3de25942	0.11052181
229	0xbea689b1	-0.32526925
230	0xbefbf0cd	-0.49207154
231	0xbddada06	-0.10686116
232	0x3e8cce2c	0.27501047
233	0x3e613323	0.21992163
234	0xbde78e59	-0.113064475
235	0xbdc1fbf7	-0.094718866
236	0xbe763d92	-0.24046925
237	0x3e04bcef	0.12962697
238	0x3dc220b7	0.09478896
239	0xbe604089	-0.21899618
240	0x3e72f015	0.23724397
241	0xbec3cc7d	-0.3824195
242	0xbeea3a28	-0.45747495
243	0x3c9f4512	0.019442115
244	0xbe9579e6	-0.29194564
245	0xbf083960	-0.5321255
246	0xbe9b4c88	-0.30331826
247	0xbf09911b	-0.5373704
248	0xbe9f9ae6	-0.31172866
249	0xbed20bb5	-0.41024557
250	0xbf03dfcb	-0.51513356
251	0xbea34bd1	-0.3189378
252	0x3e14f4a2	0.14546445
253	0xbe941adb	-0.2892674
254	0xbe923f03	-0.285637
255	0xbe59eba4	-0.21281296

network_body._body_endoder.lin_layers.seq_layers.0.bias f4 [216]
0	0xbf3c22a2	-0.73490345
1	0xbf0ad998	-0.5423827
2	0xbf212bc4	-0.62957406
3	0xbf34a82c	-0.7056911
4	0xbec0e482	-0.37674338
5	0xbee13be1	-0.43990996
6	0xbf14db5c	-0.58147216
7	0xbf3bf265	-0.7341674
8	0xbf032c51	-0.51239496
9	0xbf1c12f5	-0.60966426
10	0xbf1f0406	-0.62115514
11	0xbf0266d8	-0.5093818
12	0xbefd2b22	-0.4944697
13	0xbf52abaf	-0.8229322
14	0xbf13c5b6	-0.5772356
15	0xbf54e6b1	-0.8316451
16	0xbf31a5fa	-0.69393885
17	0xbf1d32fc	-0.6140592
18	0xbf158341	-0.584034
19	0xbf0cfd1a	-0.550737
20	0xbf01fe53	-0.5077869
21	0xbf28e6aa	-0.65976965
22	0xbf19b2de	-0.60038555
23	0xbf41c526	-0.7569145
24	0x3ce348d2	0.027744684
25	0xbf225584	-0.63411736
26	0xbf1cf1d6	-0.6130651
27	0xbf10da5e	-0.565832
28	0xbe76933c	-0.24079603
29	0xbf2bc17c	-0.6709211
30	0xbf216ba8	-0.63054895
31	0xbf1d7021	-0.6149922
32	0xbf098c55	-0.53729755
33	0xbf09d288	-0.5383687
34	0xbf39eb5c	-0.72624755
35	0xbea33df3	-0.318832
36	0xbec0c07e	-0.3764686
37	0xbf2500ac	-0.6445415
38	0xbf20d11d	-0.6281908
39	0xbf04eda2	-0.519251
40	0xbf1f52d6	-0.6223577
41	0xbf1748f1	-0.59095675
42	0xbf267594	-0.6502316
43	0xbf1f6d39	-0.62276036
44	0xbf2f5077	-0.68482155
45	0xbf1595be	-0.58431613
46	0xbf2e7cf9	-0.68159443
47	0xbf2454f8	-0.6419215
48	0xbf4890f2	-0.7834617
49	0xbf2d611c	-0.677263
50	0xbf237728	-0.63853693
51	0xbed8bf7f	-0.423336
52	0xbf3bbaf2	-0.7333213
53	0xbf27ff78	-0.6562419
54	0xbf3e4eb5	-0.7433885
55	0xbf1bd542	-0.6087228
56	0xbf10eb5d	-0.56609136
57	0xbf30ec71	-0.6911078
58	0xbf1b8cad	-0.6076153
59	0xbf3f26e7	-0.74668735
60	0xbf1c7ace	-0.61124885
61	0xbf0724d9	-0.527906
62	0xbe27e748	-0.1639682
63	0xbf23c6e7	-0.63975376
64	0xbf399e81	-0.7250748
65	0xbf584957	-0.8448691
66	0xbf354a35	-0.70816356
67	0xbf31b895	-0.69422275
68	0xbf04d10a	-0.5188147
69	0xbef1e374	-0.47243845
70	0xbf13107b	-0.5744702
71	0xbf1eb2e9	-0.61991745
72	0xbf455096	-0.7707609
73	0xbf0cb021	-0.5495625
74	0xbf06b76c	-0.5262363
75	0xbf3b412e	-0.7314633
76	0xbf4b1e63	-0.7934324
77	0xbf081d44	-0.53169656
78	0xbf22aa26	-0.63540876
79	0xbf1182d1	-0.56840235
80	0xbedf1b3a	-0.4357546
81	0xbe1ec029	-0.15502991
82	0xbf28373a	-0.6570927
83	0xbf2ccb57	-0.6749777
84	0xbf023098	-0.508554
85	0xbe165087	-0.14679156
86	0xbedcf48f	-0.43155333
87	0xbf349482	-0.70539105
88	0xbeb3631c	-0.35036552
89	0xbf1f3027	-0.6218285
90	0xbf21500d	-0.6301277
91	0xbf30d54c	-0.69075465
92	0xbf47c9be	-0.7804221
93	0xbef4fae7	-0.47847673
94	0xbf0fe484	-0.5620806
95	0xbe8a681f	-0.27032563
96	0xbf1003d9	-0.5625587
97	0xbec17105	-0.3778154
98	0xbf168e45	-0.58810836
99	0xbf1d299e	-0.6139163
100	0xbeb8cbe7	-0.36093065
101	0xbf2f7362	-0.68535435
102	0xbf16f6b6	-0.589702
103	0xbeb3d147	-0.35120603
104	0xbf29d1ab	-0.6633555
105	0xbf1294f9	-0.57258564
106	0xbf3e6664	-0.74374986
107	0xbef89074	-0.4854771
108	0xbf05adce	-0.5221833
109	0xbf25beab	-0.6474406
110	0xbf0e95ca	-0.5569731
111	0x3dbe53b2	0.09293307
112	0xbf3529db	-0.7076699
113	0x3e7ed374	0.2488535
114	0xbf1e8e09	-0.6193548
115	0xbf154c99	-0.58320004
116	0xbf2e2ff4	-0.6804192
117	0xbed1539c	-0.408841
118	0xbf39c78c	-0.7257011
119	0xbf39b569	-0.72542435
120	0xbf3bce8c	-0.7336204
121	0xbf02d9cc	-0.5111358
122	0xbf38386e	-0.71961105
123	0xbeec469c	-0.4614762
124	0xbef39ca0	-0.47580433
125	0xbf1a426d	-0.6025761
126	0xbf40a324	-0.7524893
127	0xbf169327	-0.58818287
128	0xbf2d4449	-0.6768232
129	0xbf0d845e	-0.552801
130	0xbf1d8250	-0.61526966
131	0xbf10f2a8	-0.56620264
132	0xbf1dc110	-0.61622715
133	0xbf386ed5	-0.72044116
134	0xbedba78a	-0.4290126
135	0xbf3c94fc	-0.7366483
136	0xbd35b2a6	-0.044359826
137	0xbf4b1d08	-0.79341173
138	0xbf00bce4	-0.50288224
139	0xbeec1208	-0.46107507
140	0xbeec0c5f	-0.46103188
141	0xbe578bab	-0.21049373
142	0xbe776be1	-0.24162246
143	0xbf021c94	-0.50824857
144	0xbeb466f8	-0.3523481
145	0xbf3aecac	-0.7301738
146	0xbf48c859	-0.78430706
147	0xbf32a88d	-0.6978844
148	0xbeae0107	-0.3398516
149	0xbf0926b6	-0.53574693
150	0xbf146ba0	-0.5797672
151	0xbed43591	-0.41447118
152	0xbf0746db	-0.5284249
153	0xbf1a9fba	-0.60399973
154	0xbf07505a	-0.5285698
155	0xbec39ba6	-0.38204688
156	0xbedab6bb	-0.42717537
157	0xbf11551b	-0.56770486
158	0xbe830ded	-0.25596562
159	0xbf0812db	-0.5315377
160	0xbf2e2cc5	-0.6803706
161	0xbf29965d	-0.6624506
162	0xbf1ca9c0	-0.6119652
163	0xbf3beacb	-0.7340514
164	0xbf25e2e9	-0.6479936
165	0xbee00789	-0.4375575
166	0xbf46a706	-0.7759861
167	0xbef7e7cd	-0.48419037
168	0xbf2e873f	-0.6817512
169	0xbf58f744	-0.847523
170	0xbec17490	-0.37784243
171	0xbf329732	-0.69761956
172	0xbf37772a	-0.71666205
173	0xbf00fbb1	-0.5038405
174	0xbf27ba77	-0.655189
175	0xbf5a2257	-0.8520865
176	0xbf100fd0	-0.5627413
177	0xbedb3aa4	-0.42818177
178	0xbf17c4de	-0.5928477
179	0xbf13c6ba	-0.5772511
180	0xbeff4ab3	-0.49861678
181	0xbf3980de	-0.7246226
182	0xbeff679f	-0.49883744
183	0xbf23417f	-0.63771814
184	0xbf28e5a5	-0.6597541
185	0xbee30afd	-0.4434432
186	0xbdfeffab	-0.124511085
187	0xbf26a466	-0.650946
188	0xbed58d32	-0.41709286
189	0xbeea6313	-0.45778713
190	0xbf4c04c7	-0.7969479
191	0xbf448921	-0.7677174
192	0xbf0f0ca5	-0.5587867
193	0xbf06a284	-0.5259173
194	0xbf00ea97	-0.50357956
195	0xbed7ed72	-0.42173344
196	0xbf531bb7	-0.82464164
197	0xbf090d89	-0.5353628
198	0xbf117ad2	-0.56828034
199	0xbeef3147	-0.46717283
200	0xbf0ebd7a	-0.5575787
201	0xbf42ec12	-0.76141465
202	0xbf01c23b	-0.50687
203	0xbf4957c3	-0.7864954
204	0xbf0c26bf	-0.5474662
205	0xbf1a8b0c	-0.6036842
206	0xbe648648	-0.22316849
207	0xbf39d857	-0.72595733
208	0xbf4938dd	-0.7860239
209	0xbf404ff8	-0.7512202
210	0xbf181c56	-0.5941824
211	0xbeebf327	-0.46083948
212	0xbee2b442	-0.4427815
213	0xbf1d099c	-0.6134279
214	0xbf279238	-0.6545749
215	0xbeee2dae	-0.46519226

network_body._body_endoder.lin_layers.seq_layers.2.weight f4 [216, 216]
0	0xbe721424	-0.23640496
1	0x3d8930be	0.0669875
2	0xbdf0db4b	-0.11760577
3	0x3dd6cc8e	0.104882345
4	0xbc9096a6	-0.01764996
5	0x3e8ff8ff	0.28119656
6	0x3badba54	0.005301753
7	0xbdf9499a	-0.121722415
8	0xbeb7daaa	-0.35909015
9	0xbe881f7c	-0.2658652
10	0x3d3f7b48	0.04674843
11	0xbd1cc1f4	-0.038270906
12	0xbd772ad7	-0.06034359
13	0x3eb9b19e	0.36268324
14	0x3d66b1c1	0.056321863
15	0x3e389917	0.18027149
16	0x3ef11130	0.47083426
17	0xbd0a4533	-0.0337574
18	0x3d3a0756	0.045417152
19	0xbe6abcd7	-0.22923599
20	0xbe65289b	-0.22378771
21	0xbe72f3e0	-0.23725843
22	0xbea67279	-0.3250921
23	0x3cf7f362	0.030267421
24	0x3d7a351a	0.061085798
25	0x3d8b06b8	0.06788391
26	0x3c403c90	0.011733189
27	0x3c79518c	0.015217196
28	0xbf2a0df4	-0.6642754
29	0xbe55464a	-0.20827594
30	0xbe13cb07	-0.14432918
31	0x3ede0ae6	0.4336769
32	0x3df83adf	0.12120604
33	0x3e024f54	0.12725574
34	0x3e406760	0.18789434
35	0xbd0de177	-0.03463885
36	0xbeb32580	-0.34989548
37	0xbcb1b37b	-0.021692028
38	0xbddfeadd	-0.109334685
39	0xbd95f846	-0.07322745
40	0x3dfaf008	0.122528136
41	0x3aa7db33	0.0012806415
42	0x3d752aa2	0.05985511
43	0x3da64564	0.08118704
44	0xbe734b0b	-0.23759095
45	0xbeab0a1b	-0.33406147
46	0xbd09d909	-0.033654246
47	0xbd802581	-0.06257153
48	0x3e671f95	0.22570641
49	0x3e5abd60	0.21361303
50	0xbd296747	-0.04135826
51	0x3d22ff9b	0.039794546
52	0x3e091487	0.13386737
53	0xbe9482d3	-0.2900606
54	0x3da9b58b	0.0828658
55	0xbc7a39c0	-0.015272558
56	0x3d3644ef	0.044499334
57	0xbe5ccbbb	-0.21562092
58	0xbd2f6b4b	-0.042826932
59	0xbe13958e	-0.1441252
60	0xbeb03725	-0.34417072
61	0x3e9a9583	0.30192193
62	0x3cc232e2	0.023705903
63	0x3e40e4c4	0.18837267
64	0x3d859ee4	0.065244466
65	0x3d9b14f5	0.075723566
66	0x3dd47355	0.1037356
67	0x3e8ad57a	0.27115995
68	0x3c6a6a61	0.014307589
69	0xbd16f46a	-0.036854185
70	0x3e235a53	0.15952425
71	0xbde56826	-0.11201505
72	0x3f1ec140	0.62013626
73	0x3d920944	0.071306735
74	0x3df7f665	0.12107543
75	0x3e7e45ce	0.24831316
76	0x3d148824	0.036262646
77	0xbe236c2d	-0.15959235
78	0x3e65d8cc	0.22445983
79	0x3e2155f9	0.15755452
80	0xbdaa93f9	-0.08329005
81	0x3f132edc	0.57493377
82	0xbd32e520	-0.043675542
83	0x3e8ad304	0.27114117
84	0xbda1fac9	-0.079091616
85	0x3e0ec949	0.13943972
86	0x3e96b9e1	0.2943869
87	0xbe2122fe	-0.15736005
88	0x3d1c3821	0.038139466
89	0x3e2794e7	0.16365395
90	0xbda43df3	-0.080196284
91	0x3ced1f91	0.028945716
92	0x3e50f390	0.20405412
93	0xbc2f960a	-0.010716924
94	0xbe69454e	-0.22780344
95	0x3e0d5712	0.13802746
96	0x3f36ffe0	0.71484184
97	0xbece23cb	-0.40261683
98	0xbe7a2e42	-0.24431708
99	0xbcba9a13	-0.022778546
100	0xbe9dc010	-0.30810595
101	0x3d8c7346	0.06857924
102	0xbd689949	-0.05678681
103	0xbe95bf76	-0.29247636
104	0xbddfeff0	-0.10934436
105	0xbdbb6090	-0.09149277
106	0x3ddf6c4a	0.109093264
107	0x3e9890e7	0.29798052
108	0xbc2a186d	-0.0103818
109	0xbe826b11	-0.2547231
110	0xbe69fc7c	-0.22850221
111	0xbe9891b1	-0.29798654
112	0x3d926e48	0.07149941
113	0xbde14044	-0.10998586
114	0x3e358dad	0.17729826
115	0x3eb5bb2b	0.3549436
116	0xbdd262fd	-0.10272787
117	0x3cbc533a	0.022988904
118	0x3cc9dd7e	0.024641749
119	0xbdd32339	-0.103094526
120	0x3ea305ee	0.31840461
121	0x3e3ae523	0.18251471
122	0x3d3a036f	0.04541343
123	0xbe0a9aa6	-0.13535556
124	0x3f05da1c	0.52285933
125	0xbd5cdb0a	-0.05391983
126	0x3e93601f	0.28784272
127	0x3e202c63	0.15641932
128	0x3ea9d420	0.3316965
129	0xbe41917d	-0.18903156
130	0xbb10ea7a	-0.0022112415
131	0xbe0dc95a	-0.13846341
132	0x3d1df950	0.03856784
133	0x3e458a51	0.19291045
134	0xbdd3f68a	-0.10349758
135	0x3cc498e8	0.023998693
136	0xbcba57e2	-0.022746984
137	0x3e5a8d43	0.2134295
138	0xbdbf3972	-0.09337129
139	0xbd11a3f7	-0.03555676
140	0xbdbc518b	-0.091952406
141	0x3e02165b	0.1270384
142	0x3d9eab5c	0.07747528
143	0xbdec4475	-0.11536495
144	0x3bf2111b	0.007387293
145	0x3e723cd0	0.2365601
146	0x3e3f3fed	0.1867673
147	0x3d12c531	0.035832588
148	0xbd76ceeb	-0.060255926
149	0xbdb57044	-0.088593036
150	0x3e53fb02	0.2070122
151	0xbd22a9df	-0.039712783
152	0xbe766044	-0.2406016
153	0x3d0f892c	0.035042927
154	0xbd9848fe	-0.07435797
155	0xbd28efa0	-0.04124415
156	0xbe5936de	-0.21212336
157	0x3da4375b	0.08018371
158	0x3dd6594d	0.104662515
159	0xbc862e1f	-0.016379414
160	0xbe0d422b	-0.13794772
161	0x3df96f7b	0.12179466
162	0xbe1f8030	-0.15576243
163	0x3e3aba0c	0.18235034
164	0xbd1f667b	-0.038916092
165	0xbdd08bb0	-0.10182893
166	0x3d80f108	0.06295973
167	0x3c33e007	0.010978705
168	0x3d06c8cd	0.032906342
169	0x3d3da0c2	0.04629589
170	0xbd9c1079	-0.076203294
171	0xbb6f6531	-0.003652882
172	0x3dab4cfd	0.08364294
173	0x3d689096	0.056778513
174	0x3e75d656	0.24007544
175	0xbca64630	-0.02029714
176	0xbd6ed569	-0.058308993
177	0x3eb04324	0.34426224
178	0xbe264238	-0.16236198
179	0x3e561bc1	0.20909025
180	0xbe2a9f08	-0.16662228
181	0xbddcfec2	-0.10790779
182	0xbe034696	-0.12819895
183	0x3d411ce8	0.047146708
184	0x3ebe2729	0.37139252
185	0x3eaec41a	0.3413399
186	0xbdac55f7	-0.08414834
187	0xbd9803e2	-0.074226156
188	0xbcfbf2b7	-0.030755384
189	0x3eb8aeaf	0.36070773
190	0xbe14d9bd	-0.14536186
191	0xbd7024d4	-0.058628872
192	0x3d2d4875	0.04230543
193	0xbe82480f	-0.254456
194	0x3d3b0832	0.045662113
195	0xbd23ab94	-0.03995855
196	0xbd84bcf5	-0.06481353
197	0xbcea52bc	-0.028603904
198	0x3e0187b6	0.12649426
199	0xbe3b581d	-0.18295331
200	0xbdd0e617	-0.10200136
201	0x3aed2bf9	0.001809477
202	0xbbcf7ef7	-0.006332274
203	0x3e0b3109	0.13592924
204	0xbe1b5acb	-0.15171354
205	0xbe85e7a9	-0.26153305
206	0xbf166bc9	-0.5875822
207	0x3e3d997c	0.18515581
208	0xbd915d7e	-0.0709791
209	0xbd842ae6	-0.06453495
210	0x3bf6575d	0.0075177387
211	0xbe6396a3	-0.22225432
212	0x3cdf4b80	0.02725768
213	0x3e31374b	0.17306249
214	0x3e47355f	0.19453953
215	0x3beb6854	0.0071840677
216	0xbe61cd4e	-0.22050974
217	0xbd9caed3	-0.076505326
218	0x3dfbdc25	0.122978486
219	0x3dbceec0	0.092252254
220	0xbdceb2d8	-0.100927055
221	0xbc6ae6d5	-0.014337261
222	0xbd12456d	-0.03571074
223	0xbc7ad00f	-0.015308394
224	0x3c69c1f3	0.0142674325
225	0xbe9bd66d	-0.3043703
226	0x3cd1e2db	0.025620868
227	0x3bd9b871	0.0066443016
228	0x3e0fd976	0.14047799
229	0xbda81776	-0.082076
230	0xbea79bf9	-0.32736185
231	0xbd8e29e7	-0.06941586
232	0x3eb1a8bf	0.34699056
233	0xbd98c3da	-0.07459231
234	0x3df53dd7	0.11974686
235	0xbe6c756a	-0.23091665
236	0xbdf09e86	-0.11748986
237	0x3e1ff21a	0.15619698
238	0x3c74cb2e	0.01494102
239	0x3dc547ee	0.0963286
240	0xbf0bd2fc	-0.5461881
241	0x3e6ea811	0.233063
242	0xbd2e367a	-0.04253242
243	0xbe209140	-0.15680408
244	0xbf234d5c	-0.63789916
245	0xbe44bfae	-0.19213745
246	0xbea51fb2	-0.32250744
247	0x3f2de64c	0.6792953
248	0x3e992ef7	0.29918644
249	0x3ec74011	0.38916066
250	0xbda7abff	-0.081871025
251	0x3dc8c43e	0.09803055
252	0x3d932b41	0.071859844
253	0x3d4d89b3	0.05018015
254	0xbe78439d	-0.24244542
255	0x3e61604a	0.22009388
