Assets/oon/aaaa.onnx (onnx, 808365 bytes, 64 tensors)

network_body.observation_encoder.processors.0.model.residual.weight f4 [16, 16, 1, 1]
0	0xbf83ad76	-1.0287311
1	0xbe4fe1fa	-0.20301047
2	0xbd9e9631	-0.077434905
3	0x3e2833c6	0.16426
4	0x3f2379be	0.6385764
5	0x3f356256	0.70853174
6	0x3d034838	0.032051295
7	0xbeab0100	-0.333992
8	0x3f9786ac	1.1837974
9	0xbeeed279	-0.46644953
10	0x3ea348c9	0.31891468
11	0x3f3673ce	0.71270454
12	0x3fa5b1bd	1.2944866
13	0x3e7dae44	0.24773508
14	0xbf8ca92d	-1.0989128
15	0xbd8a7ad0	-0.06761706
16	0x3eac1c49	0.3361533
17	0x3eab40d6	0.33447903
18	0x3e189873	0.14901905
19	0xbeed4ca1	-0.46347526
20	0x3f32cb03	0.6984102
21	0xbe2c5314	-0.16828567
22	0x3f0fb3a9	0.56133515
23	0x3f6698da	0.9007698
24	0xbbfd70ae	-0.0077343797
25	0x3eed3989	0.46332958
26	0xbdf59131	-0.11990584
27	0xbea8f996	-0.3300292
28	0x3f4ec40a	0.8076788
29	0xbea39de1	-0.3195639
30	0x3eb08919	0.34479597
31	0x3f12fde6	0.5741867
32	0x3f76c29f	0.9639072
33	0x3f12f6e7	0.57407993
34	0xbeb9f97f	-0.36323163
35	0x3ebe4107	0.37158987
36	0x3f437fce	0.7636689
37	0x3eb9de9f	0.3630266
38	0xbf76c805	-0.96398956
39	0x3e837523	0.25675306
40	0xbf060af6	-0.52360475
41	0x3cbdf185	0.023186455
42	0xbebd4ed8	-0.36974216
43	0x3dcb1caa	0.099175766
44	0xbedc65b7	-0.43046352
45	0xbf8601d5	-1.0469309
46	0xbee922c4	-0.45534337
47	0x3ea0e691	0.31425908
48	0xbeb39a2f	-0.3507857
49	0x3e857baf	0.26070926
50	0x3f269e24	0.65085053
51	0xbf2f0c92	-0.68378556
52	0x3e5ed48e	0.2176077
53	0x3e3911d5	0.18073209
54	0x3e5fe146	0.21863279
55	0x3cb321b3	0.021866655
56	0x3f596fdf	0.84936327
57	0x3eb57ac9	0.3544524
58	0x3ef28c9e	0.47372907
59	0x3edd6c6c	0.43246782
60	0x3f97fde9	1.1874362
61	0xbe00bc18	-0.12571752
62	0x3f09f051	0.5388232
63	0x3cdddc50	0.027082592
64	0x3e16ec2f	0.14738534
65	0x3ef100e1	0.47070983
66	0xbf778e5a	-0.96701586
67	0x3d90f7ce	0.07078515
68	0x3f447c02	0.7675172
69	0x3e854392	0.26028115
70	0x3d8250ac	0.06363043
71	0x3f1e9b18	0.61955404
72	0x3f0f7633	0.5603973
73	0x3f3a0b8c	0.7267387
74	0xbf660154	-0.89845777
75	0x3f9133ce	1.1343935
76	0xbdaf1986	-0.0854979
77	0x3dea3019	0.11434955
78	0xbee018fc	-0.43769062
79	0x3e467c64	0.19383389
80	0xbea5827c	-0.32326114
81	0xbe0b7ce5	-0.13621862
82	0xbe529780	-0.20565605
83	0xbef1ac9a	-0.47201997
84	0xbe3cce66	-0.1843811
85	0xbeb7bbc0	-0.3588543
86	0xbf2031dd	-0.62576085
87	0xbf2eed38	-0.6833072
88	0xbe31964e	-0.17342493
89	0xbf48b19c	-0.7839601
90	0xbe57f098	-0.21087873
91	0xbda71a1c	-0.08159277
92	0x3e0d4ab2	0.13798025
93	0xbf388475	-0.72077113
94	0xbf221d8d	-0.6332634
95	0xbf1b7e4d	-0.60739595
96	0x3eb7c986	0.35895938
97	0x3efc3180	0.49256516
98	0xbe7eeb3f	-0.24894427
99	0x3f2e2369	0.6802278
100	0x3e225a64	0.15854794
101	0xbd2cfddd	-0.04223429
102	0x3f4cbab8	0.7997241
103	0x3f139073	0.57642287
104	0x3ea24fcf	0.31701514
105	0x3d9f60fc	0.0778217
106	0x3e5a3b37	0.21311651
107	0xbed13fc3	-0.4086896
108	0x3ee2d6aa	0.443044
109	0x3dbcb162	0.092135206
110	0x3f39458a	0.72371733
111	0x3f2efdfc	0.683563
112	0xbee3d778	-0.44500327
113	0xbf37c033	-0.7177765
114	0xbdf80400	-0.12110138
115	0x3f604aa2	0.8761388
116	0xbe88b405	-0.26699844
117	0x3f58f217	0.847444
118	0x3f59a557	0.85017914
119	0xbf60c628	-0.8780236
120	0x3eba4f34	0.36388552
121	0xbf236d4d	-0.63838655
122	0x3e4f0c0d	0.20219441
123	0x3f8d40cf	1.1035403
124	0x3e84e2d9	0.2595432
125	0x3f1fe176	0.624534
126	0xbe568da4	-0.20952469
127	0xbe4f84cd	-0.20265503
128	0x3ed4dfd7	0.41577026
129	0x3f1884f2	0.5957786
130	0x3d9d14ad	0.07669959
131	0xbecea5d0	-0.4036088
132	0x3f3dfc4b	0.74213094
133	0x3ee3bf78	0.44482017
134	0xbf3ad0de	-0.72974956
135	0x3e2056ec	0.15658158
136	0xbe81c18f	-0.25342986
137	0x3d93de1b	0.07220098
138	0x3e1ddfb3	0.15417366
139	0x3f07face	0.5311707
140	0xbf89df84	-1.0771337
141	0x3e809393	0.2511259
142	0xbd048e4c	-0.032362267
143	0xbef08e8b	-0.46983752
144	0xbd14b80b	-0.03630833
145	0xbf3a9f2d	-0.7289913
146	0xbf1cdbf5	-0.6127313
147	0xbd8d2fcf	-0.068938844
148	0xbdfc0860	-0.12306285
149	0x3ef51516	0.4786765
150	0x3ecd7d2a	0.40134555
151	0xbf52ef3b	-0.82396287
152	0xbeff0957	-0.49811813
153	0xbe3374db	-0.17525046
154	0xbf29a0d3	-0.66261023
155	0xbdd64479	-0.10462279
156	0x3ec40948	0.3828833
157	0xbeae9ccd	-0.34104005
158	0x3f00d1b1	0.50319964
159	0xbf38518e	-0.7199944
160	0xbe87f89d	-0.26556864
161	0x3f522c67	0.82099
162	0xbe913219	-0.28358534
163	0xbd96249b	-0.07331201
164	0x3f84e7a3	1.038319
165	0x3f17005a	0.5898491
166	0xbf064072	-0.52442086
167	0x3e85ee5c	0.26158416
168	0x3ebeb9c2	0.37251097
169	0x3eec831f	0.46193787
170	0x3ecdda46	0.40205592
171	0x3e6f1999	0.23349608
172	0x3ed069ba	0.40705663
173	0x3eea1628	0.4572003
174	0xbdfcfc49	-0.12352807
175	0xbea4feda	-0.32225686
176	0x3f184ad6	0.5948919
177	0xbe782158	-0.2423147
178	0x3f828022	1.0195353
179	0x3d169162	0.03675974
180	0x3eec7190	0.4618039
181	0x3f5ea249	0.8696638
182	0xbe861928	-0.26191068
183	0xbd7570fc	-0.059922203
184	0xbe900c51	-0.28134397
185	0x3db736e1	0.08946014
186	0x3f6f75a8	0.93538904
187	0x3f18b8e7	0.5965714
188	0x3df5df46	0.12005477
189	0x3f2232c3	0.63358706
190	0xbd0156ed	-0.03157704
191	0x3e365fea	0.17810026
192	0x3c3bbc1a	0.011458421
193	0x3ebf7bc1	0.37399104
194	0xbe45dcf9	-0.19322576
195	0xbf7484f9	-0.955154
196	0x3deb1f9a	0.11480637
197	0x3f33b9fa	0.7020565
198	0x3e6c7a49	0.23093523
199	0x3f0e2af2	0.5553428
200	0x3e7e2ff4	0.2482298
201	0x3f3ba426	0.73297346
202	0x3ef9d4cd	0.48795167
203	0x3ee989af	0.45612857
204	0xbf268d40	-0.6505928
205	0x3f30f33e	0.6912116
206	0x3e2525a3	0.16127639
207	0x3e5c5772	0.21517733
208	0x3f2bbd4b	0.67085713
209	0x3dcdb245	0.10043768
210	0xbe810779	-0.25201014
211	0x3f833091	1.0249196
212	0x3efc4153	0.49268588
213	0x3ed27cd3	0.41110858
214	0x3f2cddfc	0.6752622
215	0x3e8a2dcc	0.26988065
216	0x3eacf160	0.33777905
217	0x3f2ac8ec	0.6671283
218	0x3ddfa766	0.109206006
219	0x3e82754a	0.2548011
220	0x3f2972ca	0.6619078
221	0xbaae7a6b	-0.001331163
222	0x3f185f33	0.5952026
223	0x3f0bfc2f	0.54681677
224	0xbf40fb35	-0.7538331
225	0xbcccf5ea	-0.025019605
226	0xbea12030	-0.3146987
227	0xbf3103bd	-0.6914633
228	0xbf2ae43f	-0.66754526
229	0xbed803e2	-0.42190462
230	0xbdd44dea	-0.103664234
231	0xbe834c0f	-0.25643966
232	0xbdb42120	-0.087953806
233	0xbd7c44f1	-0.061589185
234	0xbe8bec89	-0.273289
235	0xbf3898d2	-0.72108185
236	0x3eab9729	0.33513764
237	0xbef2edc9	-0.4744704
238	0xbec2af42	-0.38024336
239	0xbf0f35ec	-0.55941653
240	0xbe8c1da8	-0.27366376
241	0xbf4e7ca0	-0.8065891
242	0xbe766000	-0.24060059
243	0xbe7631ec	-0.24042481
244	0x3e55222c	0.20813817
245	0x3e11943f	0.14216708
246	0xbda16e0b	-0.07882317
247	0xbed446c3	-0.41460237
248	0xbf226118	-0.63429403
249	0xbf284a84	-0.657387
250	0xbf39a909	-0.7252355
251	0xbe186e1b	-0.14885752
252	0xbe9b66b7	-0.30351803
253	0x3cd92592	0.026507173
254	0xbf41ae4f	-0.756566
255	0xbf81c620	-1.0138588

network_body.observation_encoder.processors.0.model.residual.bias f4 [16]
0	0x3dbd1449	0.09232385
1	0x3ea22f3b	0.3167666
2	0x3e4c712a	0.19965044
3	0xbd77393f	-0.06035733
4	0x3ecdf6b4	0.40227282
5	0xbe9dcd19	-0.3082054
6	0x3da59147	0.0808435
7	0x3e2b7d07	0.16746913
8	0x3c8c3cb5	0.017118791
9	0xbec64da0	-0.38731098
10	0x3e79a923	0.24380927
11	0x3e34b613	0.17647581
12	0x3eeb0d67	0.45908663
13	0x3ed97f8d	0.42480126
14	0xbeb67ef7	-0.3564374
15	0xbec3d38d	-0.38247338

network_body.observation_encoder.processors.0.model.final_conv.weight f4 [25, 16, 1, 1]
0	0xbea865cc	-0.32890165
1	0xbe8ec9ab	-0.27888235
2	0xbe3ae790	-0.18252397
3	0xbf25abb1	-0.64715105
4	0xbdf8a3bc	-0.12140605
5	0x3eff4be2	0.49862581
6	0xbecf0297	-0.40431663
7	0xbea5bb64	-0.3236953
8	0xbe89e1e1	-0.26930144
9	0x3dad5a5c	0.084645
10	0xbedd5331	-0.43227533
11	0xbef5e98f	-0.48029754
12	0xbd47d57c	-0.04878758
13	0xbee5a159	-0.4484966
14	0x3eebaab6	0.4602868
15	0x3e38d68b	0.18050592
16	0xbe528406	-0.20558175
17	0xbea0d729	-0.31414154
18	0xbe74eaf5	-0.23917754
19	0xbf2a32a6	-0.66483533
20	0xbe8bce7a	-0.27305967
21	0x3e71234c	0.23548621
22	0xbf161d60	-0.5863857
23	0xbf11e51c	-0.5699022
24	0xbe8106dc	-0.25200546
25	0x3e6dfde1	0.23241378
26	0xbf086a46	-0.5328716
27	0xbe84ec1c	-0.25961387
28	0xbe09f740	-0.13473225
29	0xbe199439	-0.14997949
30	0x3eb75130	0.3580413
31	0x3e7371b2	0.2377384
32	0xbe515f5a	-0.2044653
33	0xbdce4e7f	-0.10073566
34	0xbf1c50dc	-0.6106088
35	0xbcecf846	-0.02892698
36	0xbde1f78d	-0.11033545
37	0x3f0c2cfd	0.54756147
38	0xbf82b8c9	-1.0212642
39	0xbe207aba	-0.15671816
40	0xbf1517e1	-0.5823956
41	0xbd8b68d2	-0.06807102
42	0xbed4f97f	-0.415966
43	0x3e940f69	0.28918007
44	0xbf1f3471	-0.62189394
45	0xbebf862a	-0.37407047
46	0x3f651102	0.89479077
47	0x3ebae5f7	0.36503574
48	0x3f1d7f00	0.6152191
49	0xbf57940a	-0.84210265
50	0x3d32a16b	0.04361097
51	0xbda2aba0	-0.07942891
52	0x3faafdd0	1.3358707
53	0x3f82b5dd	1.021175
54	0xbf447a46	-0.76749074
55	0x3ef6eadb	0.48226056
56	0x3f474b2e	0.7784909
57	0xbe9f8558	-0.3115642
58	0x3ee450d1	0.44592908
59	0xbe85f2e3	-0.2616187
60	0x3ea77770	0.3270831
61	0xbf72c3e8	-0.9483018
62	0xbd6fd01e	-0.058548085
63	0x3e462d3a	0.1935319
64	0xbf738ee9	-0.9513994
65	0x3ef26b3e	0.47347444
66	0x3e8d3d68	0.27585912
67	0xbf65b229	-0.89724976
68	0x3edda3a0	0.43288898
69	0xbe8420c5	-0.2580625
70	0x3f168778	0.5880046
71	0xbf4329d7	-0.7623572
72	0x3f2ca803	0.67443866
73	0xbf5c3416	-0.86016977
74	0xbf436b53	-0.7633564
75	0xbf5652df	-0.837202
76	0x3ed542dd	0.41652575
77	0xbcf4ff3c	-0.029906861
78	0x3eb967b9	0.36211947
79	0xbf34b69f	-0.7059116
80	0xbe2a79c5	-0.16648014
81	0xbe8fe51a	-0.28104478
82	0xbe2d51e6	-0.16925773
83	0xbedb36e2	-0.4281531
84	0xbf01f0ce	-0.50758064
85	0x3ef312bc	0.4747523
86	0xbea81d71	-0.32834962
87	0xbe144f46	-0.14483365
88	0xbe4559bc	-0.19272512
89	0x3cd2b01a	0.025718737
90	0xbee41e2a	-0.44554263
91	0xbf1c099f	-0.6095218
92	0xbc789176	-0.015171399
93	0xbec00de5	-0.375106
94	0x3e09a674	0.13442403
95	0x3e8c921d	0.27455226
96	0xbea11302	-0.31459814
97	0x3e9c987a	0.3058508
98	0xbed3c930	-0.4136443
99	0xbf0828a0	-0.5318699
100	0xbe5ec2e1	-0.21754028
101	0x3f99a036	1.2002017
102	0xbe30a14f	-0.17249034
103	0xbec19420	-0.37808323
104	0xbdbbd0a9	-0.09170658
105	0x3c6d9ed1	0.014503197
106	0x3d394167	0.04522839
107	0xbdc5df47	-0.096617274
108	0x3de55656	0.11198108
109	0xbd224acf	-0.039622124
110	0x3f2971ee	0.6618947
111	0x3edba52c	0.42899454
112	0xbe94fcb3	-0.29099044
113	0xbfb5fac0	-1.4217148
114	0xbe9c0dca	-0.3047927
115	0xbfacbf61	-1.3495904
116	0x3dc9897d	0.09840677
117	0x3e17220e	0.14759085
118	0x3f06d197	0.5266356
119	0x3f8b80e0	1.0898705
120	0xbf072cdf	-0.5280284
121	0x3ebb60fe	0.36597437
122	0xbf3d68ce	-0.73988044
123	0xbf0531be	-0.52029026
124	0xbf87fefc	-1.062469
125	0x3f0c4a59	0.54800946
126	0x3e89bbc0	0.26901054
127	0xbe90d41d	-0.2828683
128	0xbebc2b50	-0.36751795
129	0xbf3c4080	-0.7353592
130	0xbed7b319	-0.42128828
131	0x3f0592a7	0.521769
132	0xbecd6d3b	-0.401224
133	0x3e188d3d	0.14897628
134	0xbce4d1ca	-0.027932066
135	0xbf122407	-0.57086223
136	0x3f6c7ab1	0.9237471
137	0x3fd9fb5c	1.7029834
138	0xbe4db617	-0.20088993
139	0xbf941d4f	-1.1571444
140	0xbef4ad5e	-0.4778852
141	0xbf186e68	-0.59543467
142	0xbe8b9bda	-0.27267343
143	0xbead4bcd	-0.33846894
144	0xbe8ffaa1	-0.28120902
145	0xbe5dfa90	-0.21677613
146	0xbe755095	-0.23956521
147	0xbed35149	-0.41272953
148	0xbeaf5c8b	-0.34250292
149	0x3f0910fc	0.5354154
150	0xbebc6c47	-0.3680136
151	0xbeaa970d	-0.33318368
152	0xbe447234	-0.1918419
153	0xbd11f304	-0.03563215
154	0xbf0cd7be	-0.55016696
155	0xbf1fa4b0	-0.6236067
156	0xbed9e31e	-0.4255609
157	0xbe45a872	-0.19302538
158	0x3eca8ceb	0.39560637
159	0x3e857bc3	0.26070985
160	0x3f3b6ca5	0.73212653
161	0xbe9d495e	-0.30720037
162	0xbf3ce06c	-0.7377994
163	0x3deffdf4	0.117183596
164	0x3dc69c08	0.09697729
165	0x3e852930	0.26007986
166	0xbe9ab15d	-0.30213442
167	0xbe304fcf	-0.17217945
168	0xbf21b22a	-0.6316248
169	0x3ef6c2eb	0.48195586
170	0xbfaf52aa	-1.3697102
171	0xbf9c7e48	-1.2226038
172	0x3f033023	0.51245326
173	0xbe7c174f	-0.24618267
174	0x3f88d113	1.0688804
175	0x3e73dcdc	0.2381472
176	0xbc90f6e4	-0.017695852
177	0xbd95e657	-0.073193245
178	0xbf00b9c1	-0.5028344
179	0x3f127b15	0.5721906
180	0xbf91d838	-1.139411
181	0x3fbdc67a	1.4826195
182	0x3df31df6	0.11870949
183	0xbec6fe0f	-0.38865706
184	0x3baf8991	0.0053569754
185	0xbf6fa8a3	-0.93616694
186	0x3f4250ea	0.75904715
187	0xbe93369a	-0.28752595
188	0xbf1e3efc	-0.61814857
189	0xbf54ca5b	-0.8312127
190	0x3f60bb2e	0.87785614
191	0xbec4a51e	-0.38407224
192	0xbfa9e7b8	-1.327384
193	0xbe818e77	-0.25304005
194	0xbf95d2a2	-1.1704905
195	0xbf034d46	-0.51289785
196	0xbdc94bcd	-0.09828911
197	0x3e3b71cd	0.1830513
198	0x3f3c4321	0.7353993
199	0x3f76fb01	0.9647675
200	0x3e1985c5	0.14992435
201	0x3f22af07	0.6354832
202	0xbba6bf57	-0.0050887275
203	0xbf9bcf37	-1.2172612
204	0x3e324fc4	0.1741324
205	0xbf3e3e5f	-0.7431392
206	0x3ede7bcb	0.43453822
207	0x3f9c966d	1.2233406
208	0xbeb379b3	-0.35053787
209	0xbf91b698	-1.1383848
210	0xbf7febbf	-0.99969095
211	0xbe97df11	-0.29662374
212	0xbf8923c9	-1.0714046
213	0xbf075b52	-0.5287372
214	0xbf2cf854	-0.6756642
215	0x3c05cd0c	0.008166563
216	0x3f5d8a2c	0.8653896
217	0xbf179e2a	-0.59225714
218	0xbd3d3526	-0.046193264
219	0x3f0d383b	0.55163926
220	0x3f61c4b3	0.88190764
221	0xbf6426b7	-0.89121574
222	0x3e9ecec6	0.3101713
223	0xbe3bbb8a	-0.18333259
224	0xbf8945cd	-1.0724427
225	0xbe60bb86	-0.21946535
226	0x3e93724e	0.28798145
227	0x3f0bae59	0.5456291
228	0xbeff09bc	-0.49812114
229	0x3f3c3db6	0.73531663
230	0xbf7a75ff	-0.978363
231	0x3e0c1e90	0.13683534
232	0x3c235431	0.009968803
233	0xbcd60eee	-0.026130166
234	0xbf9f555f	-1.2447928
235	0x3f30b84d	0.6903122
236	0xbf0d0252	-0.55081666
237	0xbf182f34	-0.59447026
238	0x3e5b1f6e	0.21398708
239	0x3dc0261e	0.0938227
240	0xbebdaef7	-0.3704755
241	0xbf148837	-0.5802035
242	0xbe5d84ca	-0.21632686
243	0xbec69643	-0.38786516
244	0xbe9f8e36	-0.31163186
245	0x3ef376bb	0.47551522
246	0xbf0e6482	-0.5562211
247	0xbed2cc04	-0.41171277
248	0xbec562a5	-0.38551822
249	0x3e54d1d8	0.20783174
250	0xbe26633e	-0.16248795
251	0xbea10c3f	-0.31454656
252	0xbc9e1539	-0.01929723
253	0xbdfe40e5	-0.124147214
254	0x3e522e87	0.20525561
255	0x3e2bfa59	0.16794719

network_body.observation_encoder.processors.0.model.final_conv.bias f4 [25]
0	0x3ca33c7d	0.019926304
1	0xbda5e5dc	-0.08100483
2	0xbcc1c273	-0.02365229
3	0x3e2671f8	0.16254413
4	0xbe0d9b36	-0.1382874
5	0xbe8ef8f7	-0.2792432
6	0xbe9a698f	-0.3015866
7	0xbe168e33	-0.14702682
8	0xbd7a44fb	-0.06110094
9	0xbe859f87	-0.26098272
10	0xbeaee6ba	-0.34160405
11	0x3dc057d0	0.09391749
12	0xbe6ac46b	-0.2292649
13	0xbd489503	-0.048970234
14	0xbece7637	-0.40324566
15	0xbe82ce2b	-0.2554792
16	0xbeb70c6f	-0.35751674
17	0xbec92f77	-0.39294025
18	0xbe3efbe6	-0.18650779
19	0xbdb2ac5f	-0.087242834
20	0xbdd8ae05	-0.105800666
21	0xbe06f6ff	-0.13180159
22	0x3d492e08	0.049116164
23	0xbd62b5bd	-0.0553491
24	0xbe5257f9	-0.20541371

network_body.observation_encoder.processors.0.pooling_model.spatial_extractor.1.weight f4 [3]
0	0x3fa77dcc	1.3085265
1	0x3f31db37	0.6947512
2	0x3f718607	0.94345134

network_body.observation_encoder.processors.0.pooling_model.spatial_extractor.1.bias f4 [3]
0	0x3ea25b84	0.31710446
1	0x3e3eda55	0.18637975
2	0x3b71be97	0.0036887282

network_body.observation_encoder.processors.0.pooling_model.spatial_extractor.1.running_mean f4 [3]
0	0x3cedb298	0.029015824
1	0x3de6dde1	0.11272789
2	0x3e88ec82	0.2674294

network_body.observation_encoder.processors.0.pooling_model.spatial_extractor.1.running_var f4 [3]
0	0x36b9a021	5.532071e-06
1	0x36048e7f	1.9752476e-06
2	0x368f755c	4.2753945e-06

network_body.observation_encoder.processors.0.pooling_model.spatial_extractor.4.weight f4 [3]
0	0x3efd71bc	0.49500835
1	0x3f52cf40	0.8234749
2	0x3f339c5d	0.70160466

network_body.observation_encoder.processors.0.pooling_model.spatial_extractor.4.bias f4 [3]
0	0xbef76c1f	-0.48324677
1	0xbe5973b9	-0.21235551
2	0xbe996fa5	-0.2996799

network_body.observation_encoder.processors.0.pooling_model.spatial_extractor.4.running_mean f4 [3]
0	0x3fcf9126	1.6216171
1	0x3f966f6d	1.1752754
2	0xbeb46969	-0.35236672

network_body.observation_encoder.processors.0.pooling_model.spatial_extractor.4.running_var f4 [3]
0	0x407ef4d6	3.9836936
1	0x4066a6d8	3.6039333
2	0x3fbafc91	1.4608327

network_body._body_endoder.attention.query.bias f4 [108]
0	0x00000000	0.0
1	0x00000000	0.0
2	0x00000000	0.0
3	0x00000000	0.0
4	0x00000000	0.0
5	0x00000000	0.0
6	0x00000000	0.0
7	0x00000000	0.0
8	0x00000000	0.0
9	0x00000000	0.0
10	0x00000000	0.0
11	0x00000000	0.0
12	0x00000000	0.0
13	0x00000000	0.0
14	0x00000000	0.0
15	0x00000000	0.0
16	0x00000000	0.0
17	0x00000000	0.0
18	0x00000000	0.0
19	0x00000000	0.0
20	0x00000000	0.0
21	0x00000000	0.0
22	0x00000000	0.0
23	0x00000000	0.0
24	0x00000000	0.0
25	0x00000000	0.0
26	0x00000000	0.0
27	0x00000000	0.0
28	0x00000000	0.0
29	0x00000000	0.0
30	0x00000000	0.0
31	0x00000000	0.0
32	0x00000000	0.0
33	0x00000000	0.0
34	0x00000000	0.0
35	0x00000000	0.0
36	0x00000000	0.0
37	0x00000000	0.0
38	0x00000000	0.0
39	0x00000000	0.0
40	0x00000000	0.0
41	0x00000000	0.0
42	0x00000000	0.0
43	0x00000000	0.0
44	0x00000000	0.0
45	0x00000000	0.0
46	0x00000000	0.0
47	0x00000000	0.0
48	0x00000000	0.0
49	0x00000000	0.0
50	0x00000000	0.0
51	0x00000000	0.0
52	0x00000000	0.0
53	0x00000000	0.0
54	0x00000000	0.0
55	0x00000000	0.0
56	0x00000000	0.0
57	0x00000000	0.0
58	0x00000000	0.0
59	0x00000000	0.0
60	0x00000000	0.0
61	0x00000000	0.0
62	0x00000000	0.0
63	0x00000000	0.0
64	0x00000000	0.0
65	0x00000000	0.0
66	0x00000000	0.0
67	0x00000000	0.0
68	0x00000000	0.0
69	0x00000000	0.0
70	0x00000000	0.0
71	0x00000000	0.0
72	0x00000000	0.0
73	0x00000000	0.0
74	0x00000000	0.0
75	0x00000000	0.0
76	0x00000000	0.0
77	0x00000000	0.0
78	0x00000000	0.0
79	0x00000000	0.0
80	0x00000000	0.0
81	0x00000000	0.0
82	0x00000000	0.0
83	0x00000000	0.0
84	0x00000000	0.0
85	0x00000000	0.0
86	0x00000000	0.0
87	0x00000000	0.0
88	0x00000000	0.0
89	0x00000000	0.0
90	0x00000000	0.0
91	0x00000000	0.0
92	0x00000000	0.0
93	0x00000000	0.0
94	0x00000000	0.0
95	0x00000000	0.0
96	0x00000000	0.0
97	0x00000000	0.0
98	0x00000000	0.0
99	0x00000000	0.0
100	0x00000000	0.0
101	0x00000000	0.0
102	0x00000000	0.0
103	0x00000000	0.0
104	0x00000000	0.0
105	0x00000000	0.0
106	0x00000000	0.0
107	0x00000000	0.0

network_body._body_endoder.attention.value.bias f4 [108]
0	0xbd028ab2	-0.03187055
1	0x3f504877	0.8136057
2	0xbe147b6b	-0.14500205
3	0xbe97532c	-0.29555643
4	0xbe769c31	-0.2408302
5	0xbe7b0ab4	-0.24515802
6	0xbdc1d012	-0.094635144
7	0x3c489337	0.01224213
8	0xbf05d78f	-0.5228204
9	0xbf68ba74	-0.90909505
10	0x3e2b4f0c	0.16729373
11	0xbdcebd75	-0.1009473
12	0x3dea8736	0.11451571
13	0xbc507767	-0.01272378
14	0x3e4c23c9	0.19935526
15	0xbe07f341	-0.13276388
16	0xbeae13d1	-0.33999494
17	0xbe6124cb	-0.21986692
18	0x3b1e3349	0.0024139455
19	0xbd5b8f9c	-0.053603753
20	0x3da6e15f	0.08148455
21	0xbc982621	-0.018572869
22	0xbb94e52d	-0.0045439214
23	0x3d4cb8f2	0.049981065
24	0x3ced5b5a	0.028974224
25	0x3f4879f9	0.78311116
26	0x3e2d58e3	0.16928439
27	0xbe9f5ddf	-0.31126305
28	0x3eb31fbf	0.34985158
29	0x3d274b90	0.040843546
30	0x3e2a913e	0.16656968
31	0x3dcd5bd9	0.10027284
32	0x3eabe894	0.3357588
33	0x3e820bad	0.25399533
34	0x3e2cdce9	0.16881146
35	0x3e8ed1a6	0.27894324
36	0x3d66249d	0.05618726
37	0x3edfa9fe	0.4368438
38	0x3e783d5f	0.24242161
39	0x3dfa02db	0.12207576
40	0x3d7521ad	0.05984657
41	0xbd8dde25	-0.06927136
42	0xbe872170	-0.26392698
43	0xbe7d7293	-0.24750738
44	0x3e9f7fe1	0.3115225
45	0x3e80c92d	0.25153485
46	0x3e37f26c	0.1796357
47	0xbdf463ad	-0.11933074
48	0x3e6cafc6	0.23113927
49	0x3da7c74a	0.08192308
50	0x3e93e203	0.2888337
51	0x3d8ed11e	0.0697348
52	0x3df3d2fa	0.11905475
53	0x3e22de73	0.1590517
54	0xbdb6e7c0	-0.089309216
55	0x3e169b5c	0.14707702
56	0x3e7901a9	0.2431704
57	0xbd1263f5	-0.035739858
58	0x3e37e72b	0.17959277
59	0xbb92f76b	-0.004485061
60	0xbe0fc521	-0.14040042
61	0x3e6e5469	0.23274387
62	0x3e0be930	0.13663173
63	0xbde29990	-0.11064446
64	0x3de7e8ec	0.11323723
65	0xbca64d44	-0.020300515
66	0xbe43d85e	-0.19125506
67	0x3ec6ba51	0.38814023
68	0x3d206a1a	0.039163686
69	0xbcd5865d	-0.026065046
70	0x3d724d97	0.059156027
71	0x3ed58dcf	0.41709754
72	0x3d60eae1	0.054911498
73	0x3e81e5f7	0.25370762
74	0x3e30bc69	0.17259373
75	0x3c48f2f0	0.012264952
76	0xbea5f931	-0.3241668
77	0xbe0c9a49	-0.1373073
78	0xbe6574cd	-0.22407837
79	0xbb5db64e	-0.0033830586
80	0xbcf71dd2	-0.030165587
81	0x3ec9b471	0.39395478
82	0x3e07ebb2	0.13273504
83	0x3ee28cef	0.4424815
84	0x3e07a5f7	0.13246904
85	0x3eb1729b	0.3465775
86	0xbe4a47a8	-0.19753897
87	0xbe15ca16	-0.14627871
88	0x3d83a92c	0.06428751
89	0xbe900c4c	-0.28134382
90	0xbeab1f69	-0.33422402
91	0xbe3510b3	-0.17682151
92	0xbde5fae6	-0.11229496
93	0x3dd3bd47	0.10338836
94	0xbef7527f	-0.48305127
95	0x3e1d8157	0.1538137
96	0xbd445886	-0.047935985
97	0xbc8ae857	-0.016956491
98	0xbe59f8b3	-0.21286277
99	0x3d1e0ae4	0.038584605
100	0xbd368bcf	-0.044566926
101	0xbe4fbd76	-0.20287117
102	0xbe8af8a8	-0.27142835
103	0x3c807fb7	0.0156859
104	0xbe4d790d	-0.20065708
105	0x3d085808	0.03328708
106	0xbe3c85ac	-0.18410367
107	0xbe74919b	-0.23883669

network_body._body_endoder.attention.norm.weight f4 [108]
0	0x3fc45bd0	1.5340519
1	0x4004b36c	2.073451
2	0x3f7278f1	0.9471579
3	0x3fa54967	1.2913026
4	0x3f9d8dc1	1.2308885
5	0x3f80b384	1.0054784
6	0x3ef0174f	0.46892783
7	0x3fa03825	1.2517134
8	0x3fbbabdc	1.4661822
9	0x3ffccb12	1.9749472
10	0x3fb87fbd	1.4413983
11	0x3f471de1	0.77779967
12	0x3fa16fc3	1.2612232
13	0x3fd00c69	1.6253787
14	0x3fb5c41e	1.4200475
15	0x3fca353e	1.5797498
16	0x3f837a75	1.0271746
17	0x3f8fd485	1.1236731
18	0x3f846d19	1.0345794
19	0x3f6f4b1d	0.9347399
20	0x3f5048c5	0.8136104
21	0x3ec0a83a	0.37628347
22	0x3fb2d958	1.3972578
23	0x3f7d378f	0.989129
24	0x3f683f17	0.9072127
25	0x400ad5d0	2.1693
26	0x3f8599e0	1.0437584
27	0x3fa77f82	1.3085787
28	0x3faea7ba	1.3644936
29	0x3fb169e5	1.3860441
30	0x3f806a01	1.003235
31	0x3fd15e31	1.635687
32	0x3f90f3b3	1.1324371
33	0x3f88eb30	1.0696774
34	0x3ef90682	0.48637778
35	0x3fc6868b	1.5509809
36	0x3f168c86	0.5880817
37	0x3f0c0209	0.54690605
38	0x3fab1559	1.336589
39	0x3f98ee21	1.1947671
40	0x3f9325c7	1.1495904
41	0x3f8994e1	1.0748559
42	0x3f64f0dd	0.8943003
43	0x3f8c751f	1.0973243
44	0x3f62d494	0.8860562
45	0x3faf43d9	1.369258
46	0x3f8d2b6e	1.1028879
47	0x3fa7d979	1.3113242
48	0x3f184f78	0.5949626
49	0x3fac8167	1.347699
50	0x3f8c45ab	1.0958761
51	0x3f91bff6	1.1386707
52	0x3f8cb895	1.099383
53	0x3f56a40c	0.83844066
54	0x3f8ba36f	1.0909251
55	0x3f68134a	0.9065443
56	0x3fd1a376	1.6378009
57	0x3f2a7b82	0.6659471
58	0x3e679c18	0.22618139
59	0x3f0ccab8	0.54996824
60	0x3f7fae36	0.998752
61	0x3f646914	0.89222836
62	0x3fb55c28	1.4168749
63	0x3fc545d6	1.5411937
64	0x3f18f6fe	0.5975188
65	0x3fb804f7	1.4376515
66	0x3f70cdf3	0.94064254
67	0x3fba3f81	1.455063
68	0x3ecda805	0.4016725
69	0x3fad2f27	1.3530015
70	0x3f7be7a8	0.98400354
71	0x3f92dfe8	1.1474581
72	0x3f56b654	0.8387196
73	0x3f815213	1.0103172
74	0x3f63f182	0.89040387
75	0x3f15d322	0.5852529
76	0x3faf5c5a	1.3700058
77	0x3f8cb30d	1.0992142
78	0x3f4e6106	0.80616796
79	0x3f4835ce	0.782071
80	0x3f1438ff	0.5789947
81	0x3f81f6f3	1.0153488
82	0x3f1a15d2	0.60189545
83	0x3f9080fd	1.1289364
84	0x3f62bbf7	0.8856806
85	0x3f78b48e	0.97150505
86	0x3f58185a	0.8441216
87	0x3f609fa4	0.8774359
88	0x3f575b12	0.8412334
89	0x3fa682e9	1.3008701
90	0x3fb0d7d3	1.3815864
91	0x3fac2cd7	1.3451184
92	0x3f25ba2f	0.6473722
93	0x3f0bd90b	0.54628056
94	0x3faf94c4	1.3717275
95	0x3ef698ce	0.48163456
96	0x3ff88af9	1.9417411
97	0x3f20936f	0.62724966
98	0x3f7355df	0.95052904
99	0x3f4050b1	0.75123125
100	0x3f3dc1b9	0.7412372
101	0x3f5e6418	0.8687148
102	0x3f5134a8	0.8172097
103	0x3f001ecf	0.5004701
104	0x3fb48dd9	1.4105788
105	0x3eec5c88	0.46164346
106	0x3f5ee259	0.8706413
107	0x3f8a8c70	1.0824108

network_body._body_endoder.attention.norm.bias f4 [108]
0	0x3e2ecc0e	0.17070028
1	0x3f71448b	0.94245213
2	0xbd9a11d2	-0.0752293
3	0xbe847e1e	-0.2587747
4	0x3c3c2e54	0.011485655
5	0xbe8106ac	-0.25200403
6	0xbdb12cb7	-0.08651107
7	0x3e1466c8	0.14492333
8	0xbf01c8e7	-0.5069718
9	0xbf7dda77	-0.99161476
10	0x3dc625f7	0.0967521
11	0xbdac2fc5	-0.08407549
12	0x3cca767b	0.024714699
13	0x3cc9b33d	0.0246216
14	0x3e26beed	0.1628377
15	0xbe133647	-0.14376174
16	0xbe51b36f	-0.20478605
17	0xbe8129dd	-0.25227252
18	0x3ce4b833	0.027919864
19	0xbdddbabb	-0.10826632
20	0xbd14a616	-0.036291204
21	0x3d80af21	0.06283403
22	0x3e3d6e17	0.18499027
23	0x3e60232f	0.21888421
24	0xbdf321e4	-0.118716985
25	0x3f74e0fd	0.95655805
26	0x3d08c59a	0.033391573
27	0xbe6c11a0	-0.23053598
28	0x3e605f56	0.21911368
29	0xbdbd0596	-0.09229581
30	0x3d98b34f	0.074560754
31	0x3d1fe81b	0.039039712
32	0x3ec70360	0.38869762
33	0x3ea67488	0.3251078
34	0x3e5a55c1	0.21321775
35	0x3ef578d4	0.47943747
36	0x3d99a440	0.07502031
37	0x3edbe0ba	0.4294489
38	0x3e397546	0.18111143
39	0x3e83dd7c	0.25754917
40	0x3d9a1d3c	0.07525107
41	0xbe0e58a6	-0.13901004
42	0xbe8f266a	-0.27958995
43	0x3ae1fcab	0.0017241439
44	0x3edd4584	0.432171
45	0x3e0332da	0.12812367
46	0x3e77a607	0.24184428
47	0x3d286c74	0.041119054
48	0x3e5d1952	0.2159169
49	0x3dfe4317	0.1241514
50	0x3e3c9800	0.18417358
51	0xbd2d02c9	-0.042238984
52	0x3d531693	0.0515352
53	0x3ddf4e76	0.10903637
54	0xbd4c6b55	-0.049907047
55	0xbc778049	-0.015106269
56	0x3c9ae108	0.018906131
57	0xbda89256	-0.08231036
58	0xbe3bcedf	-0.18340634
59	0x3d98159b	0.07425996
60	0xbdcce9da	-0.10005541
61	0x3d551f5d	0.052031863
62	0xbcfd21f8	-0.030899987
63	0xbe0a6928	-0.13516676
64	0xbacdedd0	-0.0015711132
65	0xbe14a17b	-0.14514725
66	0xbe8a4bac	-0.27010858
67	0x3e883f53	0.26610813
68	0xbe221e28	-0.15831816
69	0xbd6541fc	-0.05597113
70	0xbe1e9460	-0.15486288
71	0x3e8200c1	0.253912
72	0xbe6296c6	-0.22127828
73	0x3e3555b3	0.17708473
74	0x3e51278b	0.2042524
75	0xbcd3b08d	-0.025841022
76	0xbee3119b	-0.4434937
77	0xbe0a6b06	-0.13517389
78	0xbea72c34	-0.32650912
79	0xbdbf8290	-0.09351075
80	0x3c524121	0.012832911
81	0x3ed41db8	0.41428924
82	0x3d0e9007	0.034805324
83	0x3f01c0d7	0.50684875
84	0x3c8518a8	0.016247109
85	0x3ea4958a	0.3214534
86	0xbeae6057	-0.34057876
87	0xbe840c28	-0.25790524
88	0xbd2875be	-0.041127913
89	0xbef4b2c7	-0.47792646
90	0xbedaf366	-0.42763823
91	0xbe55a49b	-0.20863573
92	0x3db46a3d	0.08809326
93	0xbdb60269	-0.088871785
94	0xbf1c8f90	-0.6115656
95	0xbd960c94	-0.07326618
96	0x3e1918b7	0.14950834
97	0x3d7bdc33	0.061489295
98	0xbe72d8ec	-0.23715562
99	0x3e8a7379	0.27041224
100	0x3d97745f	0.07395243
101	0xbe1ac464	-0.1511398
102	0xbeacd8f3	-0.3375927
103	0x3c3532bc	0.011059459
104	0xbe01b9ac	-0.12668484
105	0x3ddc6205	0.10760883
106	0xbd81cafb	-0.063375436
107	0xbe0da819	-0.13833655

network_body._body_endoder.norm.weight f4 [108]
0	0x3f8e5346	1.1119163
1	0x3e7ac063	0.24487452
2	0x3ec2ffca	0.38085777
3	0x3f4967e7	0.7867417
4	0x3f284c57	0.65741485
5	0x3f05c5c2	0.5225488
6	0x3f19da06	0.600983
7	0x3f74ae0b	0.9557807
8	0x3ee05909	0.43817928
9	0x3e8c3c46	0.27389735
10	0x3f8b6b4d	1.0892121
11	0x3f1eec9d	0.62079793
12	0x3f78e2c9	0.97221047
13	0x3f8b00b3	1.0859588
14	0x3f925452	1.1431983
15	0x3f858008	1.0429697
16	0x3ef257dc	0.47332656
17	0x3f1b96e5	0.6077712
18	0x3f3a06fd	0.72666913
19	0x3f23f360	0.64043236
20	0x3f1bd420	0.6087055
21	0x3ef0ef73	0.47057685
22	0x3e345433	0.17610244
23	0x3f05e90b	0.5230872
24	0x3f0421e1	0.51614195
25	0x3e8ff046	0.28113002
26	0x3f409752	0.75230896
27	0x3f6c6c92	0.92353165
28	0x3f31113b	0.69166917
29	0x3f565c19	0.8373428
30	0x3f2edcb9	0.68305546
31	0x3f86e91f	1.0539893
32	0x3f274fc9	0.6535612
33	0x3f469310	0.7756815
34	0x3f41f424	0.75763154
35	0x3efb0a42	0.49031264
36	0x3ef3d74e	0.47625202
37	0x3ef0ee56	0.47056836
38	0x3f8e9757	1.1139935
39	0x3f3a0ad7	0.7267279
40	0x3f6f84c1	0.9356194
41	0x3f2a743c	0.6658361
42	0x3ee6fa78	0.45112967
43	0x3f194d8d	0.5988396
44	0x3f1f5f99	0.62255245
45	0x3f8e5688	1.1120157
46	0x3f217244	0.6306498
47	0x3f7cac23	0.9870016
48	0x3eea1af2	0.45723683
49	0x3f67f7b8	0.90612364
50	0x3f7b1e8d	0.9809349
51	0x3f5ea34c	0.8696792
52	0x3f56db43	0.83928317
53	0x3f0788d3	0.5294315
54	0x3e2cfa6e	0.16892406
55	0x3e75b749	0.23995699
56	0x3ec5d6f2	0.38640553
57	0x3e19a076	0.15002617
58	0x3cbcc4d2	0.02304307
59	0x3e63396f	0.22189878
60	0x3e3e2a59	0.18570842
61	0x3e8684a6	0.26273078
62	0x3ec04cfa	0.37558728
63	0x3f0a7607	0.54086345
64	0x3c8d0e92	0.017218862
65	0x3ec08324	0.37600052
66	0x3f05a7a8	0.5220895
67	0x3ede701b	0.43444905
68	0x3e2a7698	0.16646802
69	0x3ee11c30	0.43966818
70	0x3e940681	0.28911212
71	0x3f02e420	0.5112934
72	0xbdad582e	-0.084640846
73	0x3e97faf7	0.29683658
74	0x3d96f620	0.07371163
75	0xbd8a87c1	-0.06764174
76	0x3e4afce3	0.19823031
77	0x3eaa2d81	0.33237842
78	0x3e966b65	0.2937881
79	0x3e562b58	0.20914972
80	0x3df33225	0.11874799
81	0x3ed15e1c	0.40892112
82	0xbdea8f10	-0.11453068
83	0x3ea18f7b	0.3155478
84	0x3e34bbf0	0.17649817
85	0x3ea2ce6e	0.31798118
86	0x3ca3a058	0.019973919
87	0x3d3db284	0.046312824
88	0x3e43abf4	0.19108564
89	0x3e462ddd	0.19353433
90	0x3e93f827	0.28900263
91	0x3e9c1472	0.3048435
92	0x3d95008c	0.07275495
93	0x3d9ee679	0.07758803
94	0x3e63c52a	0.22243181
95	0xbb56c685	-0.0032772135
96	0x3f4986e8	0.78721476
97	0x3f705cbf	0.9389152
98	0x3fbc236c	1.469831
99	0x3e66f613	0.22554807
100	0x3fb0dd78	1.3817587
101	0x3e206b38	0.156659
102	0x3efaed2f	0.49009082
103	0x3da445cb	0.080211245
104	0x3f651286	0.8948139
105	0x3f51e411	0.81988627
106	0x3ffd3d1d	1.9784275
107	0x3fb38206	1.4024055

network_body._body_endoder.norm.bias f4 [108]
0	0x3e258209	0.16162886
1	0xbf18fbab	-0.59759015
2	0xbd8cc036	-0.06872599
3	0x3dcc6131	0.09979475
4	0x3d4344c1	0.04767299
5	0x3e4b2972	0.19840029
6	0xbcab35ca	-0.020899672
7	0x3e488b23	0.19584326
8	0x3e9c5c37	0.30539104
9	0x3f21ba6b	0.63175076
10	0x3dad2924	0.084551126
11	0x3e47eb2e	0.19523308
12	0xbc4f319a	-0.012646103
13	0x3dab4991	0.08363641
14	0x3e4f35d0	0.20235372
15	0xbd8b1f9f	-0.067931406
16	0xbe428834	-0.1899727
17	0x3c78ebef	0.01519297
18	0x3cb63642	0.022242669
19	0xbe0fde89	-0.14049734
20	0xbdd0bcbb	-0.101922475
21	0xbdf22809	-0.11824042
22	0xbc2d9cdb	-0.010596479
23	0xbce8c4ef	-0.028414218
24	0xbda54056	-0.08068912
25	0xbf0b602e	-0.54443634
26	0xbdb2dae9	-0.0873316
27	0xbdcf58ff	-0.101243965
28	0xbea69f7e	-0.32543558
29	0xbd8d83db	-0.06909915
30	0xbe10c296	-0.14136729
31	0xbe559339	-0.20856942
32	0xbda0af87	-0.07845979
33	0x3c07021a	0.008240247
34	0x3e20b841	0.15695287
35	0xbe567306	-0.20942315
36	0x3ddece38	0.10879177
37	0x3e8b3602	0.27189642
38	0x3c936547	0.017992629
39	0x3cf2281f	0.029560147
40	0x3dc37c32	0.09545173
41	0xbc7f5b1f	-0.01558569
42	0xbe44ee5a	-0.19231549
43	0x3e0d142e	0.13777229
44	0x3e8fdcca	0.28098136
45	0x3dbbf94d	0.0917841
46	0x3d52d7d6	0.05147537
47	0x3d7dfc92	0.062008448
48	0x3e88ab92	0.26693398
49	0x3dda09b6	0.106463835
50	0x3e66c613	0.22536497
51	0x3c3ff136	0.011715224
52	0x3da880e1	0.08227707
53	0x3e0bffae	0.13671753
54	0x3b8ec8e9	0.0043574465
55	0xbd57c81d	-0.052681077
56	0x3ddae78b	0.106886946
57	0xbc3f9c8c	-0.0116950385
58	0xbd45fef2	-0.048338838
59	0xbd63f39d	-0.05565225
60	0x3d89449e	0.06702541
61	0x3da8f06c	0.08248982
62	0xbcad28e3	-0.02113766
63	0xbd42fd56	-0.04760488
64	0x3c0adb8d	0.008475197
65	0xbdd945ee	-0.10609041
66	0xbda38067	-0.07983475
67	0xbe4c574a	-0.19955173
68	0xbd5c1020	-0.053726315
69	0xbd1c05d4	-0.038091496
70	0xbdca7985	-0.09886459
71	0x3cbdd845	0.023174414
72	0xbc9e830a	-0.019349594
73	0xbcafce36	-0.021460634
74	0x3e9571dd	0.29188433
75	0xba34e667	-0.00069007877
76	0x3dc4a88f	0.096024625
77	0xbd2e0640	-0.04248643
78	0xbc75bd8a	-0.014998803
79	0xbc89ed86	-0.016836893
80	0xbc8ba468	-0.017046168
81	0xbdcc6a72	-0.0998124
82	0xbd257261	-0.040392283
83	0x3d5f027c	0.05444573
84	0x3d87f0d6	0.06637733
85	0xbd3bacac	-0.04581897
86	0x3d02b8d7	0.03191456
87	0xbd8aff3c	-0.06786963
88	0x3c176cbb	0.009242232
89	0x3df0386b	0.11729511
90	0x3e0b6a3b	0.13614742
91	0xbdcc24ab	-0.09967931
92	0x3dc5647e	0.09638308
93	0x3da7d6bb	0.081952535
94	0x3de9dc04	0.11418918
95	0x3d243900	0.040093422
96	0xbe99b8c2	-0.30023772
97	0x3cce01db	0.02514737
98	0xbe934cb6	-0.28769463
99	0x3e765e46	0.240594
100	0x3e2ff035	0.17181475
101	0xbe063192	-0.13104847
102	0xbeb53cfd	-0.35398093
103	0x3d0930c9	0.03349379
104	0x3e12b71e	0.14327666
105	0x3de8bfb1	0.11364687
106	0xbd85ad5a	-0.06527205
107	0xbdc29a29	-0.0950206

network_body._body_endoder.lin_layers.seq_layers.0.weight f4 [216, 108]
0	0xbe2150ae	-0.15753433
1	0xbebd5fc0	-0.36987114
2	0x3e93d4ff	0.2887344
3	0x3ea76fcc	0.32702482
4	0x3d8123ad	0.06305633
5	0x3f170086	0.58985174
6	0x3e3d61ec	0.18494385
7	0x3eb6290d	0.35578194
8	0x3ef88d85	0.4854547
9	0x3ee9481c	0.45562828
10	0xbba62a6d	-0.0050709755
11	0x3d4918a1	0.049095754
12	0x3d105d00	0.03524494
13	0x3e9e0620	0.30864048
14	0xbe28e638	-0.16494071
15	0x3e880114	0.26563323
16	0x3f424f94	0.75902677
17	0x3ee17a20	0.44038486
18	0x3d6bf7ff	0.057609554
19	0xbe8016b3	-0.25017318
20	0xbf18f695	-0.59751254
21	0xbe8a8acc	-0.2705902
22	0xbe794aca	-0.24344936
23	0xbea06feb	-0.31335387
24	0xbe89b932	-0.26899105
25	0xbf0a3c5f	-0.5399837
26	0xbf22358e	-0.6336297
27	0x3e87fdb3	0.26560745
28	0xbeef5b64	-0.46749413
29	0xbdd243ed	-0.10266862
30	0xbef122f4	-0.4709698
31	0xbe8109f8	-0.25202918
32	0xbe9cc09d	-0.30615702
33	0xbf00d7ed	-0.50329477
34	0xbf287386	-0.65801275
35	0xbe6d85b4	-0.23195535
36	0xbe25b394	-0.16181785
37	0xbebd1e24	-0.36937058
38	0xbe42b7a7	-0.1901537
39	0xbf048c2c	-0.51776385
40	0x3f04e4d2	0.5191165
41	0x3ee4e44f	0.44705436
42	0x3f003b85	0.5009082
43	0x3d968745	0.07350019
44	0xbe92cc43	-0.28671464
45	0xbeb7cf46	-0.35900325
46	0xbe71ee99	-0.23626174
47	0x3f0d82de	0.5527781
48	0xbe89ec62	-0.26938158
49	0xbef18840	-0.47174263
50	0xbf103a3e	-0.5633887
51	0xbd4152ed	-0.047198225
52	0xbede4730	-0.43413687
53	0xbdc118d2	-0.09428562
54	0x3e3f479a	0.18679658
55	0xbdb4b4d6	-0.08823554
56	0xbd4073f9	-0.0469856
57	0x3da108a9	0.0786298
58	0x3e1ee271	0.15516068
59	0xbd22fd48	-0.03979233
60	0x3d7c8483	0.06164981
61	0xbf12048a	-0.57038176
62	0xbf1d60ca	-0.61475813
63	0xbea954ba	-0.33072454
64	0xbdf21400	-0.11820221
65	0xbdbbec5f	-0.091759436
66	0x3ecf5059	0.40490988
67	0xbec42458	-0.38308978
68	0x3e084590	0.13307786
69	0x3ea528be	0.32257646
70	0x3d9dc78f	0.077040784
71	0xbeb56bdc	-0.35433853
72	0x3dfa9ce7	0.12236958
73	0xbce799fa	-0.028271664
74	0xbdd2bc89	-0.102898665
75	0x3e00ed23	0.1259046
76	0x3dec979e	0.11552356
77	0x3ee0e887	0.43927404
78	0x3f17ec5b	0.59345025
79	0x3e4ad377	0.1980723
80	0x3eb02dc2	0.3440991
81	0xbaeb26ac	-0.0017940602
82	0x3ec0463b	0.37553582
83	0xbe9ba033	-0.3039566
84	0x3ee0ce2d	0.439073
85	0xbe933c39	-0.28756884
86	0x3eb25d84	0.34836972
87	0x3e23ea0f	0.16007255
88	0x3f25e07f	0.6479568
89	0x3da557ad	0.080733635
90	0x3f04b0a5	0.5183204
91	0x3e3c684f	0.18399166
92	0x3c4c918e	0.012485875
93	0xbd79bf68	-0.060973555
94	0x3eaecb6a	0.34139568
95	0x3eabb83b	0.33538994
96	0x3e5226bd	0.2052259
97	0xbebfd1ef	-0.37464854
98	0xbeaf055f	-0.34183785
99	0xbf4250c6	-0.759045
100	0x3ed70532	0.4199615
101	0xbcebba57	-0.028775377
102	0xbcb57730	-0.02215156
103	0xbd8a2a7a	-0.06746383
104	0x3ed2cb99	0.41170958
105	0xbee93eac	-0.45555627
106	0x3f1f28e5	0.62171775
107	0x3e898f94	0.26867354
108	0xbd3b7572	-0.0457663
109	0xbf17757d	-0.5916365
110	0x3eacdc49	0.33761814
111	0x3ea7b53d	0.3275546
112	0x3e886ec0	0.26646996
113	0x3e4201ac	0.1894595
114	0x3f00b7f6	0.502807
115	0xbbb3a71d	-0.005482568
116	0x3ef61886	0.48065585
117	0x3e07e14b	0.13269536
118	0xbe5aae5e	-0.21355578
119	0xbb65ce25	-0.0035065499
120	0x3c840e75	0.016120175
121	0xbe16884b	-0.14700429
122	0x3bce3a81	0.0062935953
123	0xbe75b95d	-0.23996492
124	0x3ec1599f	0.37763688
125	0x3e271c6b	0.16319434
126	0x3d60cdb1	0.054883663
127	0xbe84b10b	-0.25916323
128	0xbecff066	-0.40613097
129	0x3df33e62	0.11877133
130	0xbe046487	-0.12928973
131	0xbea30d4d	-0.31846085
132	0xbe5c5283	-0.2151585
133	0xbef6b696	-0.48186177
134	0xbf0238c4	-0.5086787
135	0x3d7f45b8	0.06232235
136	0xbeb39073	-0.35071144
137	0x3c3747d0	0.011186555
138	0xbeeeebc0	-0.46664238
139	0xbe55c026	-0.2087408
140	0xbeb211ba	-0.3477915
141	0xbf0f6782	-0.56017315
142	0xbed43412	-0.41445976
143	0xbe0318d1	-0.12802435
144	0xbe622622	-0.22084859
145	0xbebf2ec1	-0.37340358
146	0xbd9bc42f	-0.076057784
147	0xbd675053	-0.056473088
148	0xbe3ab74e	-0.18233988
149	0x3f2f4c4e	0.68475807
150	0x3f1ff03c	0.62475944
151	0x3e8531ea	0.26014644
152	0xbed41969	-0.41425636
153	0xbc91d6fb	-0.017802706
154	0xbdb993ca	-0.09061392
155	0x3e2584fc	0.16164011
156	0xbf447801	-0.7674561
157	0xbccdf4e1	-0.025141181
158	0xbf0bc3ac	-0.54595447
159	0xbc8a1c1e	-0.01685911
160	0xbd8b238e	-0.06793891
161	0xbe88c2ef	-0.26711223
162	0x3e102916	0.14078173
163	0x3d3367d6	0.043800198
164	0x3bef123a	0.007295874
165	0x3e95715c	0.2918805
166	0x3e910b7b	0.2832907
167	0x3def990f	0.116991155
168	0x3d12f685	0.03587963
169	0xbe53fd9d	-0.20702215
170	0x3e0e2240	0.13880253
171	0x3e16f7e5	0.14743002
172	0xbe0944a0	-0.13405085
173	0x3d43471e	0.047675245
174	0x3ec5ae2b	0.38609442
175	0xbeb602a6	-0.35548896
176	0x3e3331b3	0.17499427
177	0xbd2aabce	-0.041667752
178	0x3da5a6b3	0.08088436
179	0xbf3295e0	-0.6975994
180	0xbe69b5ac	-0.22823209
181	0xbefb60fd	-0.49097434
182	0xbf03bb5e	-0.51457775
183	0xbe81ab9f	-0.2532625
184	0x3c2ec11b	0.010666157
185	0x3e341637	0.175866
186	0x3e621136	0.22076878
187	0x3ed52ebd	0.4163722
188	0x3ed13c1b	0.4086617
189	0xbe24adab	-0.16081874
190	0x3d6c16a9	0.057638798
191	0xbea7d411	-0.3277898
192	0xbe6a0a46	-0.22855482
193	0xbee9e776	-0.45684403
194	0x3e3e430f	0.18580268
195	0x3e9e38a7	0.30902597
196	0x3e353c99	0.17698897
197	0x3e14da69	0.14536442
198	0x3edaadf6	0.42710847
199	0x3e96a5a3	0.29423246
200	0xbe3c0430	-0.18360972
201	0xbe645eea	-0.22301832
202	0x3f0452a0	0.51688576
203	0xbe174b2f	-0.14774774
204	0x3c8d8155	0.017273584
205	0x3e885393	0.26626262
206	0x3df6501b	0.12026998
207	0xbe5ac701	-0.21364976
208	0x3f26b6e7	0.65122837
209	0x3ed25768	0.4108231
210	0x3ef0d4fd	0.47037497
211	0x3d9b507e	0.07583712
212	0x3d7933a4	0.060840264
213	0xbd906d3d	-0.070520855
214	0x3f098729	0.53721863
215	0x3f2ab3e1	0.66680723
216	0x3db50ca2	0.088403
217	0xbece3c03	-0.4028016
218	0x3f161e77	0.58640236
219	0x3e8ac4e2	0.27103335
220	0x3ea8820f	0.32911727
221	0x3e0ca2b4	0.13733941
222	0x3eb6dd97	0.35715935
223	0xbdc62dc6	-0.09676699
224	0x3e4f6735	0.20254214
225	0x3e53d463	0.20686488
226	0xbde51bef	-0.111869685
227	0x3d6657ba	0.056236006
228	0x3d9e5837	0.077316694
229	0xbeafeff6	-0.34362763
230	0xbeeee45c	-0.466586
231	0xbdcec995	-0.100970425
232	0x3e8d40a1	0.2758837
233	0x3e6d86eb	0.23195998
234	0xbe01821b	-0.12647288
235	0xbdbd66ea	-0.09248145
236	0xbe5a4606	-0.21315774
237	0x3e2027d1	0.15640189
238	0x3db91d6e	0.090388164
239	0xbe5d7cc4	-0.21629626
240	0x3e78e35d	0.24305482
241	0xbec1938e	-0.37807888
242	0xbedd4815	-0.43219057
243	0x3d5e84b4	0.054325774
244	0xbe9a1a5b	-0.30098233
245	0xbf04af7e	-0.5183028
246	0xbe99e58a	-0.30057937
247	0xbf0a96d5	-0.541364
248	0xbe9dee77	-0.30845997
249	0xbee75c86	-0.45187777
250	0xbf00177c	-0.50035834
251	0xbeaae0f7	-0.3337476
252	0x3e23ca31	0.15995099
253	0xbe6123ad	-0.21986265
254	0xbe9dd811	-0.30828908
255	0xbe597117	-0.21234547

network_body._body_endoder.lin_layers.seq_layers.0.bias f4 [216]
0	0xbf35e8d8	-0.71058416
1	0xbf0e87b9	-0.55675846
2	0xbf1b1d9f	-0.60592073
3	0xbf38a397	-0.7212462
4	0xbec60e80	-0.38682938
5	0xbee42a02	-0.445633
6	0xbf199153	-0.5998737
7	0xbf3b34a3	-0.7312719
8	0xbf05d8ad	-0.52283746
9	0xbf002382	-0.5005418
10	0xbf283a3e	-0.6571387
11	0xbefce3a7	-0.49392435
12	0xbef8d5b9	-0.48600557
13	0xbf5dc1a8	-0.8662362
14	0xbf1a192f	-0.6019468
15	0xbf5a203d	-0.8520544
16	0xbf3813bf	-0.7190513
17	0xbf177357	-0.5916037
18	0xbf169087	-0.5881428
19	0xbf146554	-0.57967114
20	0xbedfc829	-0.43707398
21	0xbf324de2	-0.6965009
22	0xbf1bda30	-0.608798
23	0xbf443121	-0.76637465
24	0xbc9acfb4	-0.018897869
25	0xbf28c56e	-0.65926254
26	0xbf222551	-0.6333819
27	0xbf1928e9	-0.5982805
28	0xbe8dd538	-0.27701735
29	0xbf2b0d93	-0.6681759
30	0xbf2bfa59	-0.67178875
31	0xbf219568	-0.631186
32	0xbf1717b2	-0.5902053
33	0xbf12d4ab	-0.57355756
34	0xbf42fd3f	-0.7616767
35	0xbea25d44	-0.3171178
36	0xbec67440	-0.38760567
37	0xbf328a13	-0.69741935
38	0xbf1f8c58	-0.6232352
39	0xbf01eacc	-0.50748897
40	0xbf213430	-0.62970257
41	0xbf1c03a8	-0.6094308
42	0xbf2c5294	-0.67313504
43	0xbf21348f	-0.62970823
44	0xbf1f4406	-0.6221317
45	0xbf0d250c	-0.55134654
46	0xbf2d99a7	-0.6781258
47	0xbf25b670	-0.647315
48	0xbf4e4788	-0.805779
49	0xbf2a981c	-0.6663835
50	0xbf203980	-0.6258774
51	0xbee2b36b	-0.4427751
52	0xbf414d73	-0.75508803
53	0xbf2c33ea	-0.67266715
54	0xbf3f064e	-0.74618995
55	0xbf11e153	-0.5698444
56	0xbf1c4df1	-0.6105643
57	0xbf2d3b7b	-0.67668885
58	0xbf208cac	-0.6271465
59	0xbf3e04b7	-0.74225944
60	0xbf0ecb33	-0.5577881
61	0xbf051210	-0.51980686
62	0xbe2cf75c	-0.16891235
63	0xbf2d9200	-0.67800903
64	0xbf43e16e	-0.76515853
65	0xbf5ee180	-0.87062836
66	0xbf36d616	-0.7142042
67	0xbf2c8ba5	-0.6740058
68	0xbef43f2c	-0.47704446
69	0xbeed2ea9	-0.4632466
70	0xbf14259d	-0.57869893
71	0xbf045f47	-0.5170788
72	0xbf49ddf4	-0.788543
73	0xbf108017	-0.5644545
74	0xbf06595f	-0.5248012
75	0xbf437a24	-0.76358247
76	0xbf4c7fcc	-0.798825
77	0xbf08730d	-0.53300554
78	0xbf2add26	-0.66743696
79	0xbf14a503	-0.5806429
80	0xbef666a0	-0.48125172
81	0xbe00cb8a	-0.12577644
82	0xbf296da7	-0.6618294
83	0xbf2e67ae	-0.6812695
84	0xbef95139	-0.4869478
85	0xbdfb550b	-0.1227208
86	0xbf11ad06	-0.5690464
87	0xbf35aa4b	-0.7096297
88	0xbeb92d10	-0.36167192
89	0xbf2011f2	-0.6252738
90	0xbf22a69f	-0.63535494
91	0xbf2e13bd	-0.6799887
92	0xbf4c9321	-0.79912
93	0xbef08daf	-0.46983096
94	0xbf0935a4	-0.53597474
95	0xbe740fe7	-0.23834191
96	0xbf13f466	-0.577948
97	0xbed6e5f1	-0.41972306
98	0xbf0e65f7	-0.55624336
99	0xbf19725f	-0.5994014
100	0xbec4e4c6	-0.3845579
101	0xbf366e28	-0.71261835
102	0xbf21ab84	-0.6315234
103	0xbeaf5c4f	-0.34250113
104	0xbf3022c3	-0.6880304
105	0xbf13d7c2	-0.57751095
106	0xbf43d552	-0.76497376
107	0xbeff94fa	-0.49918348
108	0xbf0f4048	-0.5595746
109	0xbf269f64	-0.6508696
110	0xbf0abd97	-0.5419554
111	0x3dca66d2	0.09882893
112	0xbf388f61	-0.7209378
113	0x3e8ae3a0	0.2712679
114	0xbf1afadd	-0.60539037
115	0xbf1af53b	-0.6053044
116	0xbf2d02d7	-0.6758246
117	0xbeda71b1	-0.42664865
118	0xbf3dbf6a	-0.741202
119	0xbf389bc3	-0.72112674
120	0xbf447346	-0.76738393
121	0xbef830ef	-0.48474833
122	0xbf3e68c5	-0.74378616
123	0xbeee0eb9	-0.46495607
124	0xbeffa9c3	-0.49934205
125	0xbf1a7afd	-0.60343915
126	0xbf47dcaf	-0.7807111
127	0xbf16b746	-0.58873403
128	0xbf3839db	-0.7196328
129	0xbf1926fb	-0.59825104
130	0xbf206204	-0.6264956
131	0xbf050095	-0.51954013
132	0xbf22c62e	-0.6358365
133	0xbf392136	-0.723163
134	0xbef618d7	-0.48065826
135	0xbf41e0e2	-0.7573377
136	0xbd1d458f	-0.038396414
137	0xbf501c41	-0.8129311
138	0xbef12568	-0.4709885
139	0xbef202c4	-0.47267735
140	0xbed8689b	-0.42267308
141	0xbe5beddc	-0.21477455
142	0xbeb6b524	-0.35685074
143	0xbf07d1ff	-0.53054804
144	0xbeb36b99	-0.35043028
145	0xbf402e22	-0.75070393
146	0xbf4e60c8	-0.80616426
147	0xbf307433	-0.68927306
148	0xbeb6b0b8	-0.356817
149	0xbf0c4a92	-0.54801285
150	0xbf178b59	-0.59197
151	0xbed6539c	-0.41860664
152	0xbf068d50	-0.52559376
153	0xbf1d4487	-0.6143269
154	0xbf100a2a	-0.5626551
155	0xbec6c3d4	-0.3882128
156	0xbefff245	-0.49989524
157	0xbf116c62	-0.56806004
158	0xbe92409d	-0.2856492
159	0xbf0d3e12	-0.55172837
160	0xbf2e643d	-0.681217
161	0xbf27c607	-0.6553654
162	0xbf228d3e	-0.6349677
163	0xbf4286f1	-0.75987154
164	0xbf2a255e	-0.6646327
165	0xbef28131	-0.4736419
166	0xbf5256b3	-0.8216354
167	0xbefe09c6	-0.49616832
168	0xbf3083ed	-0.689513
169	0xbf5ff983	-0.874901
170	0xbeb9229c	-0.36159217
171	0xbf37b11a	-0.7175461
172	0xbf38b1d2	-0.7214633
173	0xbf036b8e	-0.5133599
174	0xbf27dda1	-0.65572554
175	0xbf599129	-0.8498712
176	0xbf140da2	-0.578333
177	0xbf077ebb	-0.5292775
178	0xbf0d784b	-0.5526168
179	0xbf19624d	-0.5991562
180	0xbf060819	-0.52356106
181	0xbf3f2616	-0.7466749
182	0xbef64209	-0.48097256
183	0xbf2c579b	-0.67321175
184	0xbf2d0347	-0.67583126
185	0xbeeee216	-0.46656865
186	0xbe1121f1	-0.14173104
187	0xbf2cb711	-0.6746684
188	0xbee3a5fd	-0.44462577
189	0xbee9c83b	-0.45660576
190	0xbf53f8b2	-0.82801354
191	0xbf44d27e	-0.76883686
192	0xbf14d6da	-0.5814034
193	0xbf02e686	-0.51133
194	0xbf0647c9	-0.52453285
195	0xbeded54a	-0.43522102
196	0xbf5e04f9	-0.8672634
197	0xbf0a4a84	-0.5401995
198	0xbf0ceb47	-0.55046505
199	0xbef897e4	-0.48553383
200	0xbf0def56	-0.5544332
201	0xbf434f86	-0.7629322
202	0xbf0ad284	-0.5422747
203	0xbf4d0af6	-0.8009485
204	0xbf154e09	-0.583222
205	0xbf209dd9	-0.62740856
206	0xbe622027	-0.22082578
207	0xbf3ae047	-0.7299847
208	0xbf4a73e6	-0.79083097
209	0xbf3d1908	-0.7386632
210	0xbf1bf827	-0.60925525
211	0xbee9c488	-0.45657754
212	0xbeefb137	-0.46814892
213	0xbf27aa84	-0.6549456
214	0xbf2a517a	-0.66530573
215	0xbeebbe8a	-0.46043807

network_body._body_endoder.lin_layers.seq_layers.2.weight f4 [216, 216]
0	0xbe635c34	-0.22203141
1	0x3d7b1b41	0.06130529
2	0xbdcdbd89	-0.100459166
3	0x3dffc63d	0.12488983
4	0xb9728f8d	-0.00023132395
5	0x3e905b47	0.2819464
6	0x3d8ad17a	0.06778236
7	0xbe02b760	-0.12765265
8	0xbeb8a859	-0.3606594
9	0xbe8fbe52	-0.2807489
10	0x3d21b9c1	0.03948379
11	0x3be005be	0.006836622
12	0xbd251150	-0.040299714
13	0x3eb8d218	0.3609779
14	0x3d2ebdb7	0.042661395
15	0x3e3cc071	0.18432786
16	0x3ee6c643	0.45073137
17	0xbc9e4c36	-0.01932345
18	0x3d725268	0.05916062
19	0xbe658bec	-0.22416657
20	0xbe8efe37	-0.27928326
21	0xbe5d8674	-0.21633321
22	0xbe90fb44	-0.283167
23	0x3c035ee2	0.008018227
24	0xbc5f154d	-0.013615918
25	0x3d9b27f3	0.07575979
26	0x3ccada29	0.02476223
27	0x3cb29415	0.021799127
28	0xbf3dbffb	-0.74121064
29	0xbe57a518	-0.21059072
30	0xbe14d9c4	-0.14536196
31	0x3ed9b49a	0.425206
32	0x3db7eb3d	0.08980415
33	0x3dce48eb	0.10072502
34	0x3e4736ff	0.19454573
35	0xbabda670	-0.0014469158
36	0xbeaa050b	-0.33206972
37	0xbc838197	-0.016053004
38	0xbda27d30	-0.07934034
39	0xbc651699	-0.0139824385
40	0x3e006291	0.125376
41	0x3c1ed713	0.009694832
42	0x3d77a824	0.060463086
43	0x3db00741	0.085951336
44	0xbe30d9ad	-0.17270537
45	0xbea8edf2	-0.32994038
46	0xbcd407cb	-0.025882622
47	0xbd46b146	-0.048508905
48	0x3e615981	0.220068
49	0x3e62a831	0.22134472
50	0xbd2593a2	-0.040423997
51	0x3cbf4249	0.023347037
52	0x3de0ea52	0.10982193
53	0xbe9a5058	-0.30139422
54	0x3db29fe8	0.08721906
55	0xbc38b61d	-0.011273888
56	0x3d5401f7	0.051759686
57	0xbe84944f	-0.258944
58	0xbc4e4457	-0.012589536
59	0xbe0e3643	-0.13887887
60	0xbe8e6f3c	-0.2781924
61	0x3ea670b1	0.32507852
62	0x3d3daf88	0.046309978
63	0x3e4479c9	0.19187082
64	0x3d17cd4c	0.03706102
65	0x3d86f068	0.065888226
66	0x3deb8f32	0.11501922
67	0x3e913a6f	0.28364894
68	0x3e0288b1	0.12747456
69	0xbce1af0b	-0.027549287
70	0x3e0e6775	0.13906653
71	0xbd4fdeb1	-0.050749484
72	0x3f1d86aa	0.61533606
73	0x3dba4be0	0.09096503
74	0x3df8ab73	0.12142076
75	0x3e63d019	0.22247352
76	0x3d3d7bbb	0.046260577
77	0xbe2e2201	-0.17005159
78	0x3e631a0d	0.22177906
79	0x3e2e0545	0.16994198
80	0xbd8e51f1	-0.06949223
81	0x3f0a24f8	0.5396266
82	0xbd346493	-0.044041228
83	0x3e9468ad	0.2898611
84	0xbd70d694	-0.058798388
85	0x3de42d52	0.11141457
86	0x3e9c9af6	0.30586976
87	0xbe1be658	-0.15224588
88	0x3d81089d	0.06300471
89	0x3e2d3f48	0.16918671
90	0xbdb14467	-0.08655625
91	0x3d167f31	0.036742393
92	0x3e3b9db5	0.18321879
93	0x3d34c426	0.044132374
94	0xbe5c3743	-0.21505456
95	0x3e0971dc	0.1342234
96	0x3f3ed319	0.7454086
97	0xbec464b6	-0.38358086
98	0xbe4d4b63	-0.20048289
99	0xbc61b3fe	-0.013775824
100	0xbe9941e8	-0.29933095
101	0x3d981d9a	0.07427521
102	0xbd8391d9	-0.064243026
103	0xbebdfabd	-0.3710536
104	0xbde0ffcc	-0.109862894
105	0xbdb48771	-0.08814896
106	0x3dd5a1d6	0.104312584
107	0x3e9e1e7c	0.30882633
108	0xbc3df7b1	-0.011594699
109	0xbe7ce5ec	-0.24697083
110	0xbe693c8e	-0.22777006
111	0xbe84a8ec	-0.25910127
112	0x3d751af4	0.059840158
113	0xbe1217dd	-0.14266916
114	0x3e477c7e	0.19481084
115	0x3eb77e75	0.35838667
116	0xbdbd320b	-0.092380606
117	0x3d24f867	0.040275957
118	0x3cd4879f	0.025943575
119	0xbdc7df3f	-0.09759378
120	0x3e9cd2a4	0.30629456
121	0x3e22808c	0.15869349
122	0x3d03c5a8	0.03217092
123	0xbddf16e2	-0.108930364
124	0x3f0803b2	0.5313064
125	0xbd848d87	-0.06472307
126	0x3e90c412	0.2827459
127	0x3e25214b	0.16125982
128	0x3ea9f2c2	0.33193022
129	0xbe245922	-0.16049626
130	0x3bd7a1c5	0.0065805637
131	0xbd45632b	-0.048190277
132	0x3d3677ef	0.04454797
133	0x3e370c06	0.1787568
134	0xbdb3d656	-0.08781116
135	0x3c0dbf04	0.008651499
136	0xbcb41676	-0.021983366
137	0x3e5f3608	0.21797955
138	0xbd83706f	-0.064179294
139	0xbd1f907a	-0.038956143
140	0xbdb13e0c	-0.086544126
141	0x3e880a28	0.2657025
142	0x3dc372ec	0.09543404
143	0xbde1ddae	-0.1102861
144	0x3d064723	0.032782685
145	0x3e613300	0.21992111
146	0x3e2ff1c2	0.17182067
147	0x3d1df18d	0.03856044
148	0xbd4e9518	-0.050435156
149	0xbdafa0d2	-0.08575596
150	0x3e70aa23	0.23502402
151	0xbcee95e7	-0.029124213
152	0xbe6c2a2c	-0.23062962
153	0x3d327fb6	0.043578826
154	0xbd2964d4	-0.041355923
155	0xbbe00946	-0.006837043
156	0xbe1c7b00	-0.15281296
157	0x3d9575d2	0.07297863
158	0x3e1c2396	0.1524795
159	0xbd04d4e0	-0.032429576
160	0xbde4144e	-0.11136685
161	0x3dfdbcc0	0.12389517
162	0xbe0e65c0	-0.13906002
163	0x3e2e3bd6	0.17015013
164	0xbd17f2fe	-0.03709697
165	0xbdb821d5	-0.08990828
166	0x3d73ecb9	0.05955193
167	0x3ce87ac2	0.028378848
168	0x3d1a800d	0.037719775
169	0x3d0fcd3b	0.035107832
170	0xbd8789a8	-0.06618053
171	0xbd6ca219	-0.057771776
172	0x3db3eb97	0.087851696
173	0x3da671cc	0.08127174
174	0x3e2f1a9f	0.17099999
175	0xbc703919	-0.014662051
176	0xbd463263	-0.048387896
177	0x3eb5234b	0.3537849
178	0xbe17ed35	-0.14836581
179	0x3e385033	0.17999344
180	0xbe4120d3	-0.18860178
181	0xbdf6140d	-0.12015543
182	0xbdd67b84	-0.104727775
183	0x3d63008b	0.05542044
184	0x3ec40d3c	0.38291347
185	0x3eb51349	0.35366276
186	0xbdaa37fb	-0.08311459
187	0xbd9272e2	-0.071508184
188	0xbc0368c1	-0.008020581
189	0x3ebaf029	0.36511353
190	0xbe1a5433	-0.15071182
191	0xbd61cd91	-0.055127684
192	0x3d8c0d22	0.068384424
193	0xbe761d5a	-0.24034634
194	0x3d6a9f0b	0.05728058
195	0x3acd7c38	0.0015677279
196	0xbd79168d	-0.06081252
197	0xbbe1737d	-0.0068802224
198	0x3df180f9	0.11792178
199	0xbe307f65	-0.17236097
200	0xbde0f4c5	-0.10984186
201	0x3c3339ac	0.010939043
202	0xbc0867e0	-0.008325547
203	0x3df6a4e9	0.12043173
204	0xbdf56ad4	-0.119832665
205	0xbe8eac85	-0.27865997
206	0xbf1f1270	-0.6213751
207	0x3e151721	0.14559604
208	0xbd872f51	-0.06600822
209	0xbdb40209	-0.08789451
210	0x3b605e9d	0.0034236081
211	0xbe4b9b85	-0.19883545
212	0x3caa08d0	0.020756155
213	0x3e19ce8c	0.15020198
214	0x3e4cd7c6	0.20004186
215	0x3c679d9e	0.0141367
216	0xbe3160d3	-0.17322092
217	0xbdaa7ba2	-0.08324362
218	0x3defcd5a	0.117090896
219	0x3d4249e8	0.047433764
220	0xbe0c9dc2	-0.13732055
221	0x3d253c2e	0.040340595
222	0xbc870f42	-0.016486768
223	0x3c62e32e	0.013848109
224	0x3d852192	0.06500544
225	0xbf133640	-0.57504654
226	0x3dac8ab4	0.08424893
227	0xbba41a08	-0.005007986
228	0x3d81f8d5	0.06346289
229	0xbcd60fcb	-0.026130578
230	0xbea64ea5	-0.32481876
231	0xbdc1034d	-0.09424458
232	0x3ed51d39	0.41623858
233	0xbcb3e6be	-0.021960612
234	0x3e12ce76	0.14336571
235	0xbe61552d	-0.22005148
236	0xbe3c09a6	-0.18363056
237	0x3e3ceee6	0.18450508
238	0x3d9726ab	0.07380422
239	0x3da71d20	0.08159852
240	0xbf1fe5e4	-0.6246016
241	0x3e3b4eb7	0.18291746
242	0x3d25f01c	0.04051219
243	0xbe61ca6c	-0.22049874
244	0xbf2f552e	-0.6848935
245	0xbe0782ea	-0.13233534
246	0xbee4b560	-0.44669628
247	0x3f3302f4	0.6992638
248	0x3e9caadd	0.30599108
249	0x3ec7a2fb	0.38991532
250	0xbe19dad7	-0.15024887
251	0x3d473bc6	0.04864099
252	0x3dc7cbb2	0.09755649
253	0x3d58e721	0.052954797
254	0xbe9192b0	-0.28432226
255	0x3e314ddc	0.17314857
