Assets/oon/camera_f1.onnx (onnx, 882197 bytes, 80 tensors)

network_body.observation_encoder.processors.0.model.residual.weight f4 [16, 16, 1, 1]
000000 65 c8 75 be b7 17 a0 3d 2a ac 1e 3e f1 6d e8 bd
       -0.24002226 0.07817023 0.15495363 -0.11349095
000010 af c3 37 3e 6a f9 e6 3d 16 b5 c3 bd 61 22 29 be
       0.17945741 0.11278041 -0.09556024 -0.16517021
000020 6b 9d 2a be 50 3a a3 3d 54 11 04 bd bf d5 83 be
       -0.16661613 0.079701066 -0.032243088 -0.25749013
000030 42 af 85 bc ff ee 67 3e 0f 66 e1 bd 4e 74 0f 3e
       -0.016318921 0.22649764 -0.11005794 0.1400921
000040 fa 69 81 be a7 b3 64 3e 2e e5 95 bd 4a 1e 12 3e
       -0.25276166 0.22334157 -0.07319103 0.14269367
000050 31 12 c5 bd b7 9a 6d be 8d fa 06 be b1 f4 4f be
       -0.0962261 -0.2320355 -0.13181515 -0.20308186
000060 b7 9b f4 3d 1c 67 61 3e 27 7d 7b 3c c8 62 8f be
       0.11943763 0.2201199 0.015349663 -0.28005052
000070 50 2d 30 3e 3c 38 05 3e bf 7e 3c be e1 f3 8b bd
       0.17204785 0.13009733 -0.18407725 -0.068336256
000080 1e c4 2e be 27 af 7c 3e ca 0b ec 3d 42 11 6e bd
       -0.17067 0.2467619 0.11525686 -0.058121927
000090 48 fd c3 bd 11 64 2d 3e 92 fe 76 bd e7 47 88 bd
       -0.09569794 0.16932704 -0.06030137 -0.06654339
0000a0 57 28 24 be 1d 45 39 bd e2 62 e9 3d 71 c3 b5 bd
       -0.16031013 -0.045231927 0.113958135 -0.08875168
0000b0 e1 84 39 3d a7 aa 53 3e 78 6b 25 3c 98 ac aa 3d
       0.04529274 0.20670567 0.010096423 0.08333701
0000c0 41 20 52 3e 63 8c 9c be 5f 56 66 be 1b ac 0d be
       0.20520116 -0.30575857 -0.22493885 -0.13835184
0000d0 de 95 2b be 42 a7 ae 3e 0a cb a8 3e 22 ef 9e be
       -0.16756389 0.34111983 0.32967407 -0.3104182
0000e0 df 89 d0 3c 88 e5 9f 3c 99 60 c2 bd 29 44 a3 3e
       0.025456367 0.019518629 -0.09491081 0.3188794
0000f0 b0 dd 12 be 8f 4a 4c be 40 c0 6a bd 3f 39 e5 bd
       -0.1434238 -0.19950317 -0.05731225 -0.111925595
000100 3a 35 5c be 63 06 a2 3e 95 9d 03 bc a0 13 ac 3c
       -0.2150468 0.31645498 -0.008033176 0.021005452
000110 cb 83 e3 bd da 03 8d be a1 ee 4e be 42 f0 83 3e
       -0.11109122 -0.27542 -0.20208217 0.2576924
000120 4c f7 17 be 15 f4 69 bd b9 02 0d be f7 87 6d be
       -0.1484043 -0.05711754 -0.1377057 -0.23196398
000130 c2 d3 0f be 96 74 df 3d a1 cc 01 3e a7 ec 83 3e
       -0.14045623 0.10910909 0.12675716 0.2576649
000140 4c f9 32 be 27 e6 22 3e 74 bf 38 3e 37 33 81 3e
       -0.17477912 0.15908109 0.18041784 0.25234386
000150 76 26 a3 bd 2d f9 65 3d 2f 90 8a be b4 8b 2f 3e
       -0.0796632 0.056145836 -0.27063128 0.17143136
000160 f9 9a 0a be 93 f0 b7 3c 10 3c 06 be 7b d1 7a be
       -0.1353568 0.022453582 -0.1310885 -0.24493973
000170 38 5e 82 3d c9 a2 14 3d ae cc 9b bd b9 6f 5a 3e
       0.06365627 0.036288057 -0.07607399 0.21331681
000180 84 71 87 bd a6 ef c4 bd e1 71 2a 3e 2e 3e c9 3d
       -0.06613448 -0.09616022 0.16645004 0.09826313
000190 fe f7 3e be 07 60 eb bd 15 99 a3 bd 86 82 52 3e
       -0.18649289 -0.11492925 -0.079881825 0.20557603
0001a0 ad df 92 3d 5e 81 c9 bb 48 ee ef bd e6 b8 bc 3d
       0.07171569 -0.006149455 -0.117153704 0.09214954
0001b0 c3 2f b2 3b 76 a9 64 be 5c 47 9d bd f7 d5 24 be
       0.0054378225 -0.22330269 -0.07679626 -0.16097246
0001c0 08 b9 0c bc 2d 86 ac bc cb cb 59 3e 93 36 2c 3c
       -0.008589037 -0.021060074 0.21269147 0.010511058
0001d0 32 6b 79 3e a0 2c 99 be 21 9f 53 be 8e 93 c7 3d
       0.24357298 -0.2991686 -0.20666172 0.09744941
0001e0 d6 36 24 be 7f 05 5f 3e 9b e3 98 bd 06 dd 74 bd
       -0.16036543 0.2177944 -0.07465287 -0.059781097
0001f0 43 69 67 3e 40 7d 19 3e b8 59 89 be 4a fa 95 bd
       0.22598748 0.14989185 -0.26826262 -0.073231295
000200 ac 09 c7 3b 91 52 b7 bb fd 75 0e bd ea 69 8a be
       0.006074151 -0.0055945595 -0.03478049 -0.2703393
000210 15 57 06 3e 6a 7a 8a 3e 0c 93 5c bd de f9 14 be
       0.13119157 0.2704652 -0.053851172 -0.14548442
000220 2e 09 67 be f5 f2 e1 3d f7 37 0b be d0 26 50 be
       -0.22562096 0.110326685 -0.13595568 -0.20327306
000230 c0 79 35 3c 95 dd 21 3e 46 68 af 3c 09 1e e7 bb
       0.011076391 0.15807183 0.021412026 -0.007053141
000240 db d8 65 3e d5 ec 99 3d f5 b0 21 be 97 c7 dc bd
       0.22446005 0.07515875 -0.1579016 -0.10780256
000250 2d b5 90 bc 12 a9 a1 3e 04 48 22 bd 8b e8 89 be
       -0.017664516 0.31574303 -0.03961946 -0.2693523
000260 47 31 82 be 55 51 9b 3d c0 48 6d be 9d c3 3d 3e
       -0.2542822 0.07583872 -0.23172283 0.18531652
000270 ad c8 25 be ea d9 70 be 59 3a 12 3e 15 d4 26 3e
       -0.16189833 -0.23520628 0.1428007 0.1629184
000280 2f 42 31 3e af e0 87 be 48 ff 08 3e e8 70 81 bc
       0.17310403 -0.26538607 0.13378632 -0.015800908
000290 ad 24 e3 3d ef b0 3b bd b2 17 da 3d ea e5 9d bd
       0.1109098 -0.045823034 0.10649051 -0.07709868
0002a0 bf 46 af 3b 69 20 17 3d 79 14 46 be ba 03 87 3e
       0.0053490098 0.036896143 -0.19343747 0.2637003
0002b0 db 3d fc 3d d2 6b 87 bd c2 9e 1d 3e aa cf 66 3d
       0.123164855 -0.06612362 0.15392593 0.056350388
0002c0 d3 15 03 3e ab bd 5e be d1 a1 91 be 98 f3 47 be
       0.12801294 -0.2175204 -0.2844377 -0.19526517
0002d0 1e 7d 69 be 99 e3 0e 3d eb 1b c9 bb 9a c4 ee 3c
       -0.22801635 0.034885023 -0.0061373613 0.029146481
0002e0 26 d6 d2 bd 40 cf 5f 3e a3 44 b2 3d ce 1b 52 3e
       -0.10294752 0.21856403 0.08704498 0.20518419
0002f0 0c 31 8e be 04 0a a3 bc b8 e2 98 3e f2 01 17 be
       -0.27771795 -0.019902237 0.29860473 -0.14746836
000300 cc 7c 09 3d 90 5e db 3d 21 97 e7 bc 38 48 0d 3c
       0.03356628 0.10711396 -0.028270306 0.008623175
000310 e4 ee 07 be 21 1b 91 3e c3 32 fc 3d 96 76 fe bd
       -0.13274723 0.2834101 0.123143695 -0.12424962
000320 62 a5 d0 bd 84 3c 38 3e fe 5c 65 be 81 43 ac bc
       -0.10187794 0.17991835 -0.22398755 -0.021028282
000330 c2 af 76 be 98 5b 05 3e a7 e2 cb bd e4 7d 2b 3e
       -0.24090484 0.13023221 -0.0995534 0.16747242
000340 e8 b5 02 be 23 3c 23 be e6 70 7a 3e f5 8c 68 3d
       -0.12764704 -0.15940909 0.2445713 0.056775052
000350 87 fa 4d 3d 4c a1 b2 3c 21 ce 41 be 49 6b 49 be
       0.05028775 0.021805428 -0.18926288 -0.19669832
000360 de 49 73 3e f9 e8 6b be 93 f0 86 bd 72 7a 94 3d
       0.23758647 -0.23038091 -0.06588855 0.07249917
000370 51 9e 29 3d d0 fa 82 3e 4c ab 98 be aa b1 d3 bd
       0.041410748 0.2558198 -0.2981819 -0.10336621
000380 68 62 ec bd 65 d4 24 3e c3 cc 31 be 55 22 79 3c
       -0.11542207 0.16096647 -0.17363267 0.015205939
000390 b3 29 86 3e a0 3e 98 be 9e fb 18 3e f3 92 ae bd
       0.2620369 -0.2973528 0.14939734 -0.08524122
0003a0 22 2b a6 bd a7 c2 00 3d 20 d5 4a 3e 36 f1 bf bd
       -0.08113696 0.031435635 0.19807863 -0.09372179
0003b0 b4 f4 e5 3c 2e 4f 15 be 07 92 a9 3d a8 09 af 3d
       0.028070785 -0.14580986 0.08279806 0.08546764
0003c0 6c 93 71 be 44 b7 5a 3e 91 50 7e 3c 3e de d5 bd
       -0.23591393 0.21358973 0.015522138 -0.1044278
0003d0 a0 8d aa bc 55 31 4e be 29 dd 5d be d4 3a 1a 3e
       -0.020819485 -0.20136006 -0.21666397 0.15061504
0003e0 f7 be 14 3d 28 42 0f 3e 89 11 1f 3e 1b 28 41 bd
       0.03631493 0.1399008 0.15534033 -0.04715739
0003f0 aa c9 90 bd 29 3a 14 be 3e e9 bc bd fa 5b 57 3e
       -0.07069714 -0.14475311 -0.09224175 0.2103118

network_body.observation_encoder.processors.0.model.residual.bias f4 [16]
000000 85 4a 80 3d f6 45 2b 3e 4f 14 03 3e e2 80 a1 3b
       0.062642135 0.16725907 0.12800716 0.004928694
000010 c3 cc 54 3e 9f 8b e9 3d a3 13 27 3e 79 10 4b 3e
       0.20781235 0.11403584 0.16316085 0.19830503
000020 e9 6f a0 3d 9e 73 75 be 61 33 21 bd f1 89 81 3e
       0.07833845 -0.23969886 -0.03935564 0.25300553
000030 d3 7f 79 3e 90 60 e5 bd e4 8a 10 3e 01 93 7b be
       0.24365167 -0.112000585 0.14115483 -0.24567796

network_body.observation_encoder.processors.0.model.final_conv.weight f4 [2, 16, 1, 1]
000000 9b 65 8f 3e 67 f3 74 3e 4d 0e 63 3e b0 86 b7 be
       0.28007206 0.23920976 0.22173424 -0.35844946
000010 f0 2c 82 3e d7 6f 04 3e 4f 4a 8b 3d b7 c8 0e 3e
       0.2542491 0.12933289 0.068012826 0.13943754
000020 65 35 9f be 6a 16 9b bd b3 db b5 be 8e a5 a9 bd
       -0.31095424 -0.075726345 -0.3551918 -0.0828353
000030 36 7d 78 be 0b 14 98 3e 18 e5 c2 3d e1 da 6a 3d
       -0.24266514 0.29702792 0.095163524 0.057337645
000040 42 d2 95 3d 46 4a 4d 3d fe 40 ef bd c0 82 d1 3d
       0.07315494 0.05011966 -0.11682318 0.10230017
000050 ea fc 56 be 55 5b 67 be d1 54 35 3d 45 98 02 be
       -0.20994917 -0.22593434 0.04427034 -0.12753399
000060 46 9d 7f 3e 87 a4 90 3e ea 89 24 3e 88 69 51 3e
       0.24962339 0.28250524 0.16068235 0.20450413
000070 61 5c c9 bc 13 0c a4 bd b7 d4 7f be 43 8b 66 be
       -0.024580183 -0.080101155 -0.24983488 -0.22514062

network_body.observation_encoder.processors.0.model.final_conv.bias f4 [2]
000000 d9 cd a3 3d e2 62 18 3e
       0.07998247 0.14881471

network_body.observation_encoder.processors.1.fc.seq_layers.0.weight f4 [22, 22]
000000 81 68 f2 be 26 04 7e be 17 89 6d 3d eb 5d d0 3c
       -0.47345355 -0.2480627 0.057992067 0.025435409
000010 0a c5 b1 bd 72 2e cd 3d 88 5a 0c 3e 8c 6f 4e bd
       -0.0868016 0.10018624 0.1370641 -0.05039935
000020 96 7d a5 3e e2 08 00 be f8 57 8d 3e df 19 5c be
       0.32322377 -0.12503389 0.27606177 -0.21494244
000030 00 62 85 be 3a f1 e6 3e 51 3b 94 3e f3 c0 48 3d
       -0.2605133 0.45105916 0.28951505 0.049012136
000040 48 55 af 3e 69 22 7d 3e 3c 4c 51 be c0 47 3b 3e
       0.34244752 0.24720158 -0.20439237 0.18289089
000050 2b d8 27 bd 37 df 4c bd eb be 7c 3e 8f cd 85 bd
       -0.04097764 -0.05001756 0.24682204 -0.06533348
000060 39 d6 16 be 9e 22 b5 3c 18 41 01 be 0a 9e 14 3e
       -0.14730157 0.022111233 -0.12622488 0.14513412
000070 39 83 c9 be 01 0b ec be b2 f0 39 3d 65 ef 24 be
       -0.39357927 -0.46102145 0.04539556 -0.16106947
000080 e4 39 60 be 43 6b bd be 0f d4 f4 bd 04 39 93 bd
       -0.21897084 -0.36995897 -0.119545095 -0.07188609
000090 3a e3 c6 3e 4e c1 78 3e d0 fd 20 3e 4a 1d d5 3e
       0.38845235 0.2429249 0.15721822 0.41623908
0000a0 be 1f 92 3e 0e 3b 94 bd e6 ea d0 bc a3 11 0d 3e
       0.28539842 -0.07237826 -0.025502633 0.13776259
0000b0 ea a4 3a be 51 4f 2a be 4e ff 08 bd 88 39 15 3e
       -0.18226972 -0.1663182 -0.033446603 0.14572728
0000c0 2a 1f 27 3d a0 53 52 3d c2 8c b8 be 43 79 d8 3c
       0.040801205 0.051349282 -0.3604489 0.02642501
0000d0 79 56 13 be ab ff 1b be e4 d2 ac be fd 04 e9 3d
       -0.14388455 -0.15234248 -0.33754647 0.113779046
0000e0 8c ad 12 be 4d 58 90 3d f5 7e 7e bd b5 fd 7e 3e
       -0.14324015 0.07048092 -0.062132794 0.24901469
0000f0 ee 80 be be d8 0f 32 3c d1 fd 9d 3e 0b c5 df 3e
       -0.3720774 0.010868035 0.3085771 0.4370502
000100 34 bc 23 be 2c 9b e7 bc cf 35 25 bd 05 6f 94 be
       -0.15989763 -0.028272234 -0.04033452 -0.2899095
000110 30 a0 2a be 8c 3f 4e 3e 92 f9 8b 3e 27 b8 0f 3e
       -0.16662669 0.20141429 0.27338845 0.14035092
000120 fb 4b 04 3e b6 54 2f 3e 78 5a 7d 3e 3e 39 15 bf
       0.12919609 0.17122158 0.24741542 -0.5829047
000130 bf 1a d7 bd 6b 26 bd 3d c5 0c ca 3d 56 fb a2 be
       -0.10503148 0.09235843 0.09865717 -0.3183238
000140 c9 fc 17 be 29 c5 25 3e 3e e2 c9 be c4 bc 62 be
       -0.14842524 0.16188492 -0.39430422 -0.22142321
000150 65 e8 86 be fc 95 54 be 55 10 bd 3d d9 5f ce bd
       -0.26349178 -0.2076034 0.09231631 -0.10076875
000160 15 68 8b be 84 a2 d2 3c ac e6 71 3e c1 3b 7f 3d
       -0.27227846 0.02571226 0.2362315 0.062312845
000170 ca d3 26 bd 42 06 be 3c 65 d9 35 3e ec e9 23 be
       -0.04072932 0.023196343 0.1775871 -0.16007203
000180 65 38 21 be 7d fa 53 bd a5 2e 55 3e 0f 25 c8 bd
       -0.15744169 -0.051752556 0.20818575 -0.09772693
000190 b7 ca c0 bd 6d bb 46 be a5 16 cb 39 2e 90 83 3e
       -0.09413665 -0.19407435 0.0003873605 0.25695938
0001a0 91 e6 43 3e e9 23 69 3d 6d 26 6b 3e 5a 4a c0 3e
       0.19130923 0.056919012 0.22963877 0.37556726
0001b0 b5 a1 82 bd 87 05 06 bd 74 f7 98 3d 5f 3d cc bd
       -0.063784994 -0.032720115 0.07469073 -0.09972643
0001c0 cb 70 1a 3e 06 78 3f 3d fe 5e 00 be 2a 83 7a bd
       0.1508209 0.046745323 -0.12536237 -0.061160244
0001d0 21 9e 70 3e 5c e6 1c 3d fc 86 0a 3e 46 e7 3c 3d
       0.23497821 0.038305625 0.13528055 0.046118997
0001e0 c8 a9 00 be 5d 9b 7d be 65 48 fc 3d 1a e2 48 3e
       -0.12564766 -0.24766298 0.12318496 0.19617501
0001f0 d6 77 89 3c 43 4d 60 3e 5e 5d 76 3e 75 a4 c5 be
       0.016780775 0.21904473 0.24059054 -0.38602033
000200 d7 70 ad 3e b5 43 90 be 3f c4 99 3e a0 d7 38 3e
       0.33875152 -0.28176656 0.30032536 0.18051004
000210 42 ab 54 3e d6 62 ab 3d 14 2a 83 bd 50 24 8b bb
       0.20768455 0.08368461 -0.0640451 -0.004246272
000220 9d e1 8a 3d 35 fe 56 3d e0 ab 8d be 61 a2 9f 3e
       0.067813136 0.052488524 -0.27670193 0.31178573
000230 54 e6 99 3e 0e 8b f4 3d ea 48 53 bb c5 92 a5 bc
       0.3005854 0.11940585 -0.0032239505 -0.020211587
000240 92 2e 2b 3e df b5 74 be 74 20 7d bd 12 c7 3c be
       0.16716984 -0.23897503 -0.061798528 -0.18435314
000250 22 55 51 3e 49 aa 43 3c 92 c5 53 bd e5 2f 0c be
       0.20442632 0.011942455 -0.05170209 -0.13690145
000260 95 63 f4 3e 94 23 94 bd 7b cd 65 bd 42 8b 4a be
       0.47732225 -0.072333485 -0.056104165 -0.19779685
000270 24 11 f6 bb 0d fc 93 3e 0c a9 05 bf a3 27 b1 3e
       -0.0075093675 0.28903237 -0.5221107 0.34600553
000280 cd 12 b1 bd 09 aa 66 3e 63 46 51 3e 46 61 30 3f
       -0.08646164 0.22525801 0.20437007 0.6889843
000290 ce ff 8b 3d 19 78 06 3e 0d 05 5e 3e c3 85 1d 3d
       0.068359 0.13131751 0.21681614 0.038457643
0002a0 c4 88 fb bd a1 ea 7a be 18 eb 5e be ba 4b ed bd
       -0.12281945 -0.24503566 -0.21769369 -0.11586709
0002b0 3e e9 2a 3e 7d c5 82 3e 7e 74 45 be 17 f1 13 bd
       0.16690537 0.25541297 -0.1928272 -0.036118593
0002c0 64 1e 28 3e ab 0f ae 3e e2 64 bf bd 12 df 70 3e
       0.16417843 0.3399633 -0.09345414 0.23522595
0002d0 9d 06 1b 3e 65 d3 20 be d6 38 6f be cb fd 52 be
       0.15139242 -0.1570564 -0.23361525 -0.20604627
0002e0 a9 9d f5 3d 1b 73 16 be 90 c9 b3 bd c6 79 7f 3d
       0.11992962 -0.14692347 -0.08778679 0.06237199
0002f0 29 84 69 3e a3 4a d6 3e 69 e3 8f bd 07 e9 c4 3e
       0.22804321 0.41853818 -0.07025797 0.38459036
000300 8b 2d 62 3d 71 02 1b 3e 60 19 39 3e 8e 1d 03 bd
       0.055219214 0.1513765 0.18076086 -0.032010607
000310 8e 67 c7 bd 39 19 64 3e 63 92 a1 bc 86 7f 95 be
       -0.09736548 0.22275247 -0.019723123 -0.29198855
000320 5b 40 b6 3c 9b 43 ed bb e1 a7 e0 3d 69 c5 9a 3e
       0.022247484 -0.007240725 0.1096952 0.30228737
000330 8a f9 10 bc 96 58 20 bf 8c a4 2a 3e f6 9a 02 be
       -0.008848557 -0.6263517 0.16664332 -0.12754425
000340 eb 97 35 bd 17 0f 37 3e 2a 87 a5 3b af ca 7a 3e
       -0.044334333 0.1787685 0.005051513 0.2449138
000350 2c 8b 99 3c fc 5e 7c 3e 1e d3 e9 3d 2e 8a 63 3e
       0.01874312 0.24645609 0.114172205 0.2222068
000360 4e 47 76 3e 87 2d 20 3d c0 9e 15 3e 3e aa d2 bb
       0.24050638 0.03910592 0.1461134 -0.006428986
000370 08 70 a5 3e 50 97 8f 3d af 19 83 3c 3a a4 6b 3d
       0.32312036 0.070112824 0.016003458 0.057529666
000380 ca 03 31 bd 0d 24 48 be 1f 58 14 be 89 33 c5 bd
       -0.043216504 -0.19545002 -0.1448674 -0.0962897
000390 a0 21 00 be 58 33 ad 3e 7e 84 dd bd 1b d3 1e bd
       -0.12512827 0.33828235 -0.108162865 -0.038775545
0003a0 c5 df 2a be 1e 03 32 3e 00 16 c0 be 1a 84 a2 be
       -0.16686924 0.17384002 -0.37516785 -0.3174141
0003b0 41 54 58 3e 23 ca fb bd 93 51 d2 be 84 8c 9d 3e
       0.2112589 -0.12294414 -0.4107786 0.30771267
0003c0 b9 48 8c bd 45 d6 b5 be a2 1b 0f bd 2c 84 b3 be
       -0.06849808 -0.35515037 -0.034938462 -0.35061777
0003d0 3e f5 78 bd ca 1a 16 bf 40 35 b6 3e e9 3a e4 bd
       -0.060780756 -0.58634627 0.35587502 -0.11144049
0003e0 bd 71 10 be 26 95 40 3d f1 72 96 be 1f a0 00 bf
       -0.14105888 0.04701724 -0.29384568 -0.50244325
0003f0 b7 a2 2f bc fa 2f 19 3e af 56 3f be 35 34 22 3e
       -0.010719947 0.14959708 -0.18685411 0.15840228

network_body.observation_encoder.processors.1.fc.seq_layers.0.bias f4 [22]
000000 8a 42 e4 3c 12 c5 45 bc 30 2f b6 bc 0a f2 14 bd
       0.02786376 -0.012070911 -0.022239298 -0.03636364
000010 6e 69 62 3b e7 e4 37 3c f4 9d 23 3c 05 b0 46 b9
       0.0034547704 0.011224008 0.009986389 -0.00018948324
000020 ec b4 47 bc b4 9d 0d 3c 4d 13 ce 3c 23 be e3 3c
       -0.012189131 0.008643556 0.025155688 0.027800625
000030 1b 96 f7 3b a1 d7 51 bb 6f 89 8d 3b 60 c1 86 3c
       0.0075557358 -0.0032019394 0.004319362 0.01644963
000040 d9 2e c8 bb 6f 62 1f 3d 08 05 03 3d 8a 2d 06 bc
       -0.0061091003 0.038912233 0.03198722 -0.008189568
000050 bd 7e d5 3c 10 aa bc 3c
       0.02606141 0.02303031

network_body.observation_encoder.processors.1.fc.seq_layers.2.weight f4 [22, 22]
000000 b4 85 52 be 3f a2 80 be 12 0c 10 be d9 61 65 3e
       -0.20558816 -0.25123784 -0.14067104 0.22400607
000010 56 d6 ec bc db 81 46 3e f5 d8 9f bd ab bc 52 3e
       -0.028910797 0.19385473 -0.07805053 0.20579784
000020 2d 05 7c 3e 46 1c be be 69 cd 52 3e 37 e3 ee bd
       0.2461135 -0.37130946 0.2058617 -0.116644315
000030 ab 95 ae be ab 73 f0 3d 68 69 a8 be 4b e3 81 bd
       -0.34098563 0.11740812 -0.3289292 -0.06342181
000040 2c 5d 04 3e 07 bf df be c7 9d a8 3e 40 03 ee 3c
       0.12926167 -0.4370043 0.32932875 0.029054284
000050 22 9b a6 bd a1 7d 3a 3d 88 69 80 be d6 70 0e be
       -0.08135058 0.045529965 -0.25080514 -0.13910231
000060 28 30 00 bd 89 0e 21 be 07 ef dc 3c fe 05 34 3e
       -0.031295925 -0.15728201 0.026969446 0.17580411
000070 53 8a 0a be ab e4 63 be 31 a7 4e be db 43 61 be
       -0.13529329 -0.22255199 -0.20180966 -0.21998541
000080 9d e9 cc bd 26 71 7e 3e d1 61 42 3e f0 59 bc bd
       -0.10005496 0.2484785 0.18982626 -0.09196842
000090 31 1c 88 3e 4f 01 a4 3d 20 ac 61 3d 10 31 4e be
       0.26584008 0.08008062 0.05509579 -0.20135903
0000a0 3a cf 4e bd 02 eb ee bd 50 7e 31 3e ce cb 5c 3d
       -0.050490595 -0.11665918 0.1733334 0.0539053
0000b0 c0 84 55 3e 4a 30 7f 3d 23 06 1d be 99 f3 99 be
       0.20851421 0.06230191 -0.15334372 -0.30068663
0000c0 f7 68 fc 3d 71 d6 67 3d dd 45 0c 3d 33 7b 26 3e
       0.12324708 0.05660099 0.034246314 0.16257934
0000d0 31 71 e8 3d 1f a6 9f 3e 55 00 83 be 7a 48 f0 be
       0.113497145 0.31181428 -0.2558619 -0.46930295
0000e0 48 70 fb 3e 2f c1 15 3e a3 a8 a7 3e 99 ce 92 3e
       0.491091 0.14624475 0.32745847 0.28673247
0000f0 54 be 4f 3e a3 ea 25 be 9d 2a 2d 3c 01 f4 91 3e
       0.20287448 -0.16202788 0.010569242 0.28506473
000100 34 d1 18 bd ae de 0e 3e 48 0d 37 3f 0e c2 cd 3c
       -0.037308887 0.13952133 0.7150464 0.025116947
000110 cf 7a 21 be 1f 24 92 3e a3 c9 67 3e 41 c6 97 bb
       -0.15769504 0.28543183 0.22635512 -0.004631788
000120 66 34 4d be 30 a4 09 bf 94 12 b2 3d 3e bf 45 3e
       -0.2003952 -0.53766155 0.0869495 0.19311234
000130 1a 48 13 3f b9 19 dc 3d 5c 83 ea bd 9c b0 f2 bc
       0.57531893 0.10747094 -0.11450836 -0.02962523
000140 e8 93 ec 3e e8 10 13 3e d7 54 cd bd cb af 85 3e
       0.46206594 0.14361918 -0.100259475 0.26110682
000150 3c 6e eb be 3f 3a b9 be 49 b5 a4 3e 3a a4 fc bd
       -0.4598254 -0.3617725 0.3216956 -0.12336011
000160 8d ca 0d 3e ec bb ed 3d 89 9a 4f 3d dc d0 26 bc
       0.13846798 0.11608109 0.050684486 -0.010181632
000170 8f d1 2d be e1 8b 81 bd 97 b3 15 be 2d 55 87 bd
       -0.16974472 -0.06325508 -0.1461929 -0.06608043
000180 31 90 4a bc 39 59 71 3e 27 32 28 bd 87 bb 16 be
       -0.0123634795 0.23569192 -0.041063454 -0.14719974
000190 98 a1 ac bc 0a a7 83 be 6b 4e b4 bd b4 f1 93 bd
       -0.021073148 -0.25713378 -0.088040195 -0.072238356
0001a0 82 49 14 3c 7f de ca be 70 fd 01 3e b2 df 56 3e
       0.009050729 -0.39622876 0.12694335 0.2098377
0001b0 33 7f 1d bd de c9 6b bb 38 ae 82 3d 1e f9 a2 bd
       -0.038451385 -0.0035978477 0.06380886 -0.079576716
0001c0 aa e0 4c bc 71 e2 4c 3d c1 ef 47 be d3 54 b7 bd
       -0.012504736 0.05002064 -0.19525053 -0.08951726
0001d0 5b b0 e0 3e 74 68 32 bc bf ad 79 be 74 e9 42 be
       0.4388455 -0.010889161 -0.24382685 -0.19034368
0001e0 ab b7 bf bd 5f a0 97 be 3a 06 7c bc 6c 42 00 be
       -0.09361204 -0.2961454 -0.015382344 -0.12525338
0001f0 a7 44 45 3e 0c f0 91 be 60 e3 0d bf 49 35 ab 3d
       0.1926447 -0.28503454 -0.5542507 0.08359773
000200 3a 84 a6 3e b5 4a 2d 3e 7d b5 f5 bd 9c 03 15 be
       0.32522756 0.1692303 -0.11997507 -0.14552158
000210 ed 78 56 bd 86 3e 83 3b 3f 55 95 3d 9d 8d b5 3d
       -0.052361418 0.004005256 0.0729165 0.08864901
000220 ad 5e c8 be 0f 4a 0c bd 9f c5 83 bd d3 3b 8d 3d
       -0.39134732 -0.034250315 -0.064341776 0.06896176
000230 28 c1 fa be ba 8e ea bd ff 27 03 3e ec 0b 4e 3d
       -0.48975492 -0.11453004 0.12808226 0.05030434
000240 7e c4 c3 be 0f b4 5e bc d7 bd 05 be 84 e8 b6 3e
       -0.3823585 -0.013592734 -0.130607 0.3572427
000250 bc c7 0d 3d 30 a5 3c bd 86 bf 17 3e ef 2b aa be
       0.03461431 -0.046055973 0.14819154 -0.33236644
000260 bc 86 24 be 70 51 3e 3d 92 3f d3 3d 52 c7 cc bd
       -0.16067022 0.046464384 0.103148594 -0.09998955
000270 3b c0 1d bd 2a e6 7d be c2 65 ea bd 8d 85 26 3e
       -0.038513403 -0.24794832 -0.1144519 0.16261883
000280 f4 e8 d7 bd da ca 4f be cd 90 08 3e 61 0a 84 3e
       -0.10542479 -0.20292225 0.13336487 0.25789168
000290 ed 1a 31 3c 05 db c1 bc 8b 78 a9 be 24 e0 44 3e
       0.010809642 -0.023664007 -0.3309978 0.19226128
0002a0 19 c4 b4 3e 2a f7 cb 3e 7d 1e f2 3c bd 69 00 be
       0.3530586 0.3983701 0.029555554 -0.12540336
0002b0 dc 2b 05 3d 4b 2e 89 be bc 98 4f 3d bd f7 1e be
       0.03251253 -0.2679313 0.05068277 -0.15524192
0002c0 0d 95 a0 3e 3e fc 99 3e d7 24 26 3e bf e6 bc be
       0.31363717 0.30075258 0.16224991 -0.36894795
0002d0 e5 32 8b 3e de be 87 3e fc 3b f2 be 14 e8 ba be
       0.27187267 0.26512808 -0.4731139 -0.36505187
0002e0 0a 43 a5 3d 0a 45 99 be 9e db c6 bd 88 d4 96 be
       0.08069427 -0.29935485 -0.097098574 -0.29459023
0002f0 07 a4 78 3d 81 ba 90 be d3 be ab be 7d be 36 be
       0.060703304 -0.2826729 -0.33544025 -0.17846103
000300 70 7a 06 be e9 28 8b 3e 6e eb bc be 73 7b ac 3d
       -0.13132644 0.2717965 -0.3689837 0.084219836
000310 97 96 db 3e 80 12 b9 be ad 81 c5 3e f2 e2 07 be
       0.42888328 -0.36146927 0.38575497 -0.13270167
000320 03 74 c9 3e aa 47 47 be 58 b2 eb 3d ab 80 13 bf
       0.39346322 -0.19460931 0.11508626 -0.57618207
000330 d9 a3 05 bf e8 5f a5 bd 22 02 5d bd b9 a0 55 be
       -0.52203137 -0.08074933 -0.053957112 -0.20862092
000340 99 78 5d 3e 54 68 47 3e 52 90 f9 bd 73 46 39 3d
       0.21628036 0.19473392 -0.1218573 0.0452332
000350 30 d1 ca 3e 35 c4 4c be 39 85 2a bd 81 35 26 3e
       0.39612722 -0.19996722 -0.041630957 0.16231348
000360 6a 5c 74 be 10 f8 83 3b 8f e2 af 3e bd 8e 8a 3e
       -0.23863378 0.004027374 0.34352538 0.27062026
000370 56 c6 28 be 6a 1e f9 bd 43 af 90 be fe a3 9f be
       -0.16481909 -0.12164004 -0.28258714 -0.31179804
000380 78 40 d3 3d 4f 30 15 bd e2 9f fc 3e d6 56 39 3d
       0.10315031 -0.036423024 0.4934073 0.04524883
000390 90 6f 0e bf e8 7c d6 be ea 63 63 bc 2c ff 2a bf
       -0.5563898 -0.4189217 -0.013878802 -0.6679561
0003a0 d6 4b 70 3e d6 62 7e 3e a4 72 9d bd 5e 60 7a bc
       0.23466429 0.2484239 -0.076878816 -0.015281765
0003b0 7c bd 2b bd ab 32 6b be 6f 27 a2 3e 70 84 6e 3d
       -0.041928753 -0.22968547 0.3167071 0.05823177
0003c0 e0 b4 4d 3e b7 2f 06 3e 5c 1c a6 bd 3b 73 0f be
       0.2008853 0.1310414 -0.08110878 -0.140088
0003d0 b1 43 9f 3d da 9c 04 bd 4f 16 f3 3d 86 c9 d1 3e
       0.07776583 -0.032376148 0.118694894 0.40974063
0003e0 44 78 38 be 37 bb f3 bd 11 87 88 be a3 16 09 3e
       -0.18014628 -0.11900943 -0.26665547 0.13387541
0003f0 c9 98 c6 bd c6 b6 92 3c b1 7a 3f be 87 81 55 3e
       -0.0969711 0.017909419 -0.18699147 0.20850192

network_body.observation_encoder.processors.1.fc.seq_layers.2.bias f4 [22]
000000 03 c1 4f 3c 9b 0f 17 3c 40 01 98 3c 11 ad 2e 3d
       0.012680295 0.009220029 0.018555284 0.042645518
000010 55 ed 14 3b bc 1b 96 3c e8 45 e9 3c 8b f2 02 3c
       0.0022724469 0.018323772 0.028475717 0.007992397
000020 42 0f 76 3c 2c 8d 06 3d ea cf df 3c 92 c4 39 3c
       0.015018286 0.032849476 0.02732082 0.01133837
000030 88 80 1b 3b b4 74 16 3d 0a ed 3f 3d 0f 36 11 3d
       0.0023727734 0.03673239 0.046856917 0.035451945
000040 a6 5f 9e bb a7 45 36 3c a7 0c 4f 3c 33 40 cb 3c
       -0.0048331795 0.011125005 0.012637294 0.024810886
000050 d8 f8 2d 3d 32 04 ce 3b
       0.042473644 0.006287121

network_body.observation_encoder.processors.2.fc.seq_layers.0.weight f4 [22, 22]
000000 ea 24 02 3e ce db 08 be 46 4a 29 be 71 0d 65 bd
       0.12709394 -0.13365099 -0.1653224 -0.05592102
000010 1e 4c 46 3e 5a 00 38 bd a2 58 3b 3d 68 4e a7 be
       0.19364974 -0.04492221 0.045738824 -0.32677007
000020 66 97 d3 3d 3c 26 af 3c e3 50 51 3c e5 79 75 3e
       0.10331611 0.021380536 0.012775633 0.2397228
000030 25 91 13 3e 57 27 44 3d 16 43 d3 bd 72 3b 97 be
       0.14410837 0.04788908 -0.1031553 -0.2953754
000040 bc dd ab 3e 86 73 f9 bd e3 32 c4 3e ea 40 ce be
       0.33567607 -0.121802375 0.38320073 -0.402839
000050 c7 1f 6c 3e 24 02 85 be d4 87 1c 3e 64 a6 e3 3d
       0.23058997 -0.25978196 0.1528619 0.11115721
000060 9e 7d a1 bd 2f 02 f5 3b 1a dc 25 be 2f ec 50 3e
       -0.07885288 0.007477067 -0.16197243 0.20402597
000070 5f d6 18 3e 1b 26 a7 3c 6a 16 ac be 1c bb 82 bd
       0.14925526 0.020403912 -0.3361085 -0.063833445
000080 ca fe c2 bc c4 19 14 3e 25 fb 60 3c a6 b3 fe 3c
       -0.023803134 0.14462954 0.0137317525 0.031091522
000090 c1 47 6c 3e eb 0a 46 bd 93 e9 01 be b0 56 8e 3e
       0.23074247 -0.048350256 -0.12686758 0.27800512
0000a0 ac e1 79 3e 02 7e d0 3c 50 6b 84 3e 88 73 a1 3d
       0.24402493 0.02545071 0.25863123 0.07883364
0000b0 48 fa 61 bc 3d 40 ba 3d 84 c5 0c 3e e7 ed da 3d
       -0.013792582 0.09094284 0.13747221 0.106899075
0000c0 9f 63 16 bd ac 3a a0 bd eb b5 30 3e 60 7f 4b be
       -0.0367161 -0.07823691 0.17256896 -0.19872808
0000d0 09 9d 0a 3e 95 26 e1 bd 5b 07 03 3e eb e5 36 3e
       0.13536467 -0.10993687 0.12795775 0.17861144
0000e0 57 4a 35 be 11 57 09 3e 0e 2a 2b bd ad 2d 9f 3d
       -0.1770414 0.1341212 -0.041788153 0.07772384
0000f0 db 86 92 be 24 0a ca 3c 26 e1 49 be d7 19 6c 3b
       -0.28618512 0.024663039 -0.19714794 0.0036026144
000100 ea d1 c2 3d 94 fc 0a 3d 5d 0a 68 3e e7 25 27 3e
       0.09512694 0.033932284 0.22660203 0.16323052
000110 9a 18 b2 be 16 9f 6b 3e c5 af 98 bd 14 4c 87 3e
       -0.34784395 0.23009905 -0.074554004 0.2642523
000120 12 bc 7f 3e f2 dc 34 3e 45 e4 2b 3d 25 20 f4 bd
       0.24974087 0.17662409 0.04196574 -0.119201936
000130 5c 31 cf 3d 4f 98 15 3d 1d 2e 12 be 6f 48 ae bd
       0.101168364 0.036522206 -0.14275403 -0.08509909
000140 c9 cc a1 3e db 35 95 3e 90 13 a1 3e 9d eb 42 3c
       0.3160155 0.2914265 0.31460238 0.011896995
000150 04 f5 d1 be c5 ed b2 be 29 3d df bd 14 62 0c 3d
       -0.41007245 -0.3494703 -0.10900337 0.034273222
000160 1e 17 4b 3e 16 54 ca 3d 6e 94 cb bc b4 76 f2 3d
       0.19833037 0.09879319 -0.02485105 0.11839047
000170 8a 69 ba be 62 0a 0a 3d 69 a7 21 3d cd f4 52 3e
       -0.36408645 0.033701308 0.039466295 0.20601197
000180 cc 17 8b bd c3 71 4b 3e 81 27 93 3d 9f 87 92 bd
       -0.06791648 0.19867615 0.07185269 -0.07154774
000190 76 c0 96 3d 09 d0 a1 3e ce b1 83 3d be 7a 35 3e
       0.07360928 0.3160403 0.06430398 0.17722604
0001a0 04 a2 6c 3d c2 7b d1 bd de d4 c9 bd a9 0f 78 3e
       0.057771698 -0.10228683 -0.09855054 0.24224724
0001b0 98 e8 d1 3c 19 a8 c4 bd d9 79 00 bc 69 9d f7 3e
       0.025623605 -0.096023746 -0.007841551 0.48362282
0001c0 57 81 21 3d 12 06 85 be 41 8a 4b bb 50 5c 42 3e
       0.03942999 -0.25981194 -0.0031057748 0.18980527
0001d0 6b 3b 84 bd 74 f6 8b 3c b7 c8 3f 3e 73 6a a7 be
       -0.064566456 0.017085291 0.1872891 -0.32698402
0001e0 03 6c 2c 3e 96 03 ce be fb 5e 00 3d 30 68 14 bd
       0.16838078 -0.4023711 0.03134058 -0.036232173
0001f0 02 1d 00 3f 1d d8 54 be 77 a3 67 bd 11 88 34 3e
       0.5004426 -0.20785566 -0.056552377 0.1763003
000200 52 25 6e be f6 bc b6 be 89 a7 5e bd 1c cc e1 bd
       -0.23256424 -0.3569104 -0.054358993 -0.11025259
000210 2c ec 00 be cf 81 fa 3e 78 e2 a1 3d db a5 28 be
       -0.12590092 0.4892716 0.079045236 -0.16469519
000220 e5 b0 b5 3d 12 92 9d be 2f db 8d 3e 00 4d 75 be
       0.088716306 -0.30775505 0.27706286 -0.23955154
000230 dd 50 d8 3e 83 b3 5f be e3 f3 9a 3e df bd ee bd
       0.42249194 -0.21845822 0.30264196 -0.11657309
000240 eb 7a f4 be 8d 54 78 be bf ac 9b be 19 cf d3 bd
       -0.4775003 -0.24251004 -0.30405232 -0.10342235
000250 3a 4d 98 3e 42 83 c9 bd e0 fc 8a bd 15 24 e2 bd
       0.2974642 -0.098394886 -0.06786513 -0.11042038
000260 79 41 c0 3d 3e 12 0d 3f f0 88 77 be 07 52 50 3e
       0.09387488 0.5510596 -0.24173331 0.20343791
000270 e7 ba 15 3e 4d c5 00 3e a7 49 db bd 4a d1 dc 3d
       0.14622079 0.12575264 -0.107074074 0.10782106
000280 8c 0f bf be 56 31 48 be b3 e8 82 3e 3d 33 06 3e
       -0.3731655 -0.1955007 0.2556816 0.13105483
000290 78 d1 25 3e fc b5 31 be 1c 33 31 bc bf b6 b7 3e
       0.16193187 -0.17354578 -0.010815408 0.35881612
0002a0 74 04 a5 bc ef a9 88 bd 23 6c 73 3e 24 ff da be
       -0.020143725 -0.06673037 0.2377172 -0.42772782
0002b0 79 fd 27 3d b2 0f a7 3e fc 3c 59 be e9 40 fa 3e
       0.041013215 0.32629162 -0.2121467 0.48877648
0002c0 76 7b 0f 3e 49 1c 29 bd 40 c4 cc 3d 21 58 5a be
       0.1401194 -0.04128674 0.09998369 -0.21322681
0002d0 e4 7e 14 3e 2a 9b 98 3c 82 ee 94 bd a6 5e 89 bc
       0.1450153 0.018628675 -0.07272054 -0.016768765
0002e0 5e a9 d3 bc 5c b1 da be 8d 8f 2d be 12 f3 8e be
       -0.025837597 -0.4271344 -0.16949292 -0.27919823
0002f0 d8 71 07 3d 34 36 d9 be d6 c0 27 be 9c ee 93 be
       0.033067554 -0.42424166 -0.16382155 -0.28892982
000300 ff 77 a3 bd dd 24 5d be 7e bc 81 be 6e 2b 27 bd
       -0.07981872 -0.21596093 -0.2533912 -0.040812902
000310 cd dc 4c 3d f5 12 0e be 5c 8b e4 3e 4f 24 24 3d
       0.05001526 -0.13874419 0.44637573 0.04007369
000320 b6 5f 07 bc c2 46 59 3e ae f4 78 3e 21 3e 33 3e
       -0.008262565 0.21218398 0.24312088 0.17504169
000330 26 a6 16 bd 13 14 a4 3e 53 0a 30 be 20 6c ce be
       -0.036779545 0.32046565 -0.17191438 -0.40316868
000340 20 04 18 bd 92 4d f7 3d 81 0b 00 3e b3 03 4c be
       -0.03711331 0.12075342 0.12504388 -0.19923286
000350 d3 01 6f 3e 3f 8e d5 3e 28 d9 93 bc 79 45 fd bc
       0.2334054 0.41710088 -0.018047884 -0.030916916
000360 77 b7 74 bc 58 94 b0 3d 32 51 0f 3c bf c1 07 be
       -0.01493632 0.08622044 0.008747386 -0.13257502
000370 6b aa 00 bf fb 55 e2 bd 79 50 64 3d 53 6c 2e 3d
       -0.5026004 -0.11051556 0.055740807 0.042583775
000380 e7 c1 60 3e ac 94 a5 bd c5 7d f6 3b ef 69 58 bd
       0.21948968 -0.080849975 0.007522317 -0.0528354
000390 c8 56 1d be 4d 97 08 3e ed 8d 4b bd e8 9a 23 3e
       -0.15365136 0.13338967 -0.049695898 0.15977061
0003a0 67 38 58 be d5 03 04 3e 89 88 52 be 83 58 bb bd
       -0.21115266 0.12892087 -0.20559897 -0.09147742
0003b0 fc ec 97 3d 25 f8 4b 3e 45 ec e6 bd d7 65 25 be
       0.07418248 0.19918878 -0.112755336 -0.1615213
0003c0 67 c3 40 be e6 d4 58 3e e3 71 6e 3c 8e 5f b6 38
       -0.1882454 0.21174964 0.01455352 8.696235e-05
0003d0 37 4a dd bd de 1f 0c 3e d4 aa 64 bc 5b 4d b9 3e
       -0.10805171 0.13684031 -0.013956744 0.3619183
0003e0 4a 24 e3 3d 61 2d 3d bd 65 ba a5 3e 57 ec c7 3c
       0.11090906 -0.046185855 0.3236877 0.024404688
0003f0 63 71 2b 3e f8 55 6e 3d 33 02 2b 3e cd 6f d7 bc
       0.16742472 0.058187455 0.16700058 -0.026298428

network_body.observation_encoder.processors.2.fc.seq_layers.0.bias f4 [22]
000000 b3 1f 1c 3c c4 d0 8b 3c f6 c1 7b 3c 06 3e 4e bc
       0.009529042 0.01706732 0.015366068 -0.01258803
000010 a8 7e 97 bb 16 35 2e bb bb c7 33 3c 1a 40 1b bc
       -0.004623253 -0.0026581935 0.010972912 -0.009475732
000020 b5 8d 94 3c cc 64 9c bb cb 59 a2 3b 73 73 2e bc
       0.018133977 -0.004772758 0.004954552 -0.010647642
000030 c8 d6 28 bc 5a 58 29 3c b8 b5 5d 3b 4f a2 3a bd
       -0.010305114 0.010336006 0.0033830237 -0.045564946
000040 24 91 1a bb 9e 3d 21 3c df 35 b4 bc 73 58 89 3c
       -0.0023585046 0.009841351 -0.021998344 0.016765809
000050 bb 8d bd bc 1b f5 04 3b
       -0.023138871 0.0020287696

network_body.observation_encoder.processors.2.fc.seq_layers.2.weight f4 [22, 22]
000000 12 53 9a 3d 9e c1 54 3e f7 9d 35 be 92 d8 b5 3e
       0.07535376 0.20776984 -0.1773604 0.35516793
000010 59 3d ac 3e 70 f4 4e 3e ea b6 31 be 94 97 66 3e
       0.33640555 0.20210433 -0.17354932 0.2251876
000020 31 d9 f4 3e 13 16 ca bc 9e 18 a6 3d 14 6e b4 be
       0.47821954 -0.024668729 0.08110164 -0.35240233
000030 bc 4d e3 bd 23 5b 1d 3f ee b9 5c bd 00 20 11 be
       -0.11098811 0.6146719 -0.053888254 -0.14172363
000040 6b 7b f3 3e bd 87 95 be 01 f2 ac 3e 7a 1d cd bc
       0.47555098 -0.29205123 0.33778384 -0.02503847
000050 55 80 dc 3d 4b 2b 4a 3e 14 12 e7 3b 2e 9a b1 be
       0.10766665 0.19743077 0.0070517156 -0.34687942
000060 74 24 ec 3c 03 77 de bd 8a 48 4b 3d ff 8f 05 be
       0.028825976 -0.108625434 0.049629726 -0.13043211
000070 90 67 89 3e 54 f9 76 be 0a 18 4e be ec 9d 88 bd
       0.26836824 -0.24118549 -0.20126358 -0.06670746
000080 d1 12 f2 bd 8c f6 04 bd 50 55 56 3e b9 81 94 be
       -0.11819995 -0.032461688 0.20930982 -0.2900522
000090 4c a6 c5 bd a2 f2 77 3e 47 aa 61 bc 3d 9d 95 be
       -0.09650859 0.24213651 -0.013773507 -0.29221526
0000a0 39 de ae bd 01 b9 3e be 0d 4b 44 be d0 cb 0f be
       -0.08538479 -0.18625261 -0.19169255 -0.14042592
0000b0 74 94 7a bd 34 38 14 bd 35 fb 70 3d fd d5 cb bc
       -0.061176732 -0.036186412 0.05883332 -0.024882311
0000c0 70 05 bc be 5f 9c 90 3e 65 ba c5 bd bf ae 71 3e
       -0.36722898 0.28244302 -0.096546926 0.23601817
0000d0 fc 56 08 3e cb 7f 79 3e 05 04 ad bd 94 95 b6 3e
       0.13314432 0.24365155 -0.08448032 0.35660994
0000e0 87 24 26 3e 83 a4 ca bd e8 23 d9 bd 21 b2 96 3d
       0.16224872 -0.09894659 -0.10602552 0.07358194
0000f0 f2 9f 0f 3e 25 8b 20 3e bc 73 ce 3e c4 c6 99 bc
       0.14025858 0.1567808 0.40322673 -0.018771537
000100 5d a4 03 3d 76 0c 1c 3c e5 d3 05 bf 57 07 8d 3e
       0.03213917 0.009524455 -0.5227645 0.27544662
000110 8f 1e ee bd 62 d6 80 3d 71 95 0e be ad 01 8e 3d
       -0.11626922 0.0629089 -0.13924195 0.069339134
000120 00 11 de bd ba 2c 67 3d 29 f6 21 be 43 a8 ea bc
       -0.10843086 0.05643914 -0.15816559 -0.028644687
000130 7e 06 14 3d d1 6a 4b 3e 0b 39 be 3d 99 db 8d bd
       0.036139004 0.19864966 0.09288224 -0.069266506
000140 07 48 96 be 6a 4c 89 3d cd b7 83 3e 98 ab 46 be
       -0.29351828 0.06704028 0.25726166 -0.19401395
000150 90 5b 2e bd 62 ae 56 3d 7d fd 66 3e ea 6e 99 bb
       -0.04256779 0.0524124 0.22557636 -0.0046824114
000160 89 b6 0d bd 39 af 8e 3c 4d ef 6d 3e 49 c5 a4 3e
       -0.034597907 0.017417537 0.23235817 0.32181767
000170 9f 35 50 be e0 4d 06 3f 5a de 37 be 4b 02 5a be
       -0.20332955 0.5246258 -0.17955914 -0.21289937
000180 bf f3 10 be e9 10 af 3e 00 59 28 3d ef 9e 60 3e
       -0.14155482 0.3419259 0.041100502 0.21935628
000190 f9 21 97 be 2e 87 65 bd 6d 3b 01 3b 0b 75 37 3e
       -0.29518107 -0.05603712 0.0019719258 0.17915742
0001a0 b1 f9 4c 3e 11 06 d3 bb 54 af 18 be 14 51 42 3e
       0.20017125 -0.006439932 -0.14910632 0.18976241
0001b0 ec 75 9b be 3d da 06 3f d3 71 1e 3e 0a 50 13 3e
       -0.30363405 0.52676755 0.15473108 0.14386001
0001c0 51 af df 3b 69 40 54 be cc ef 2c 3d e3 f8 9f 3d
       0.0068263193 -0.20727696 0.042220876 0.07811143
0001d0 81 4c b0 3c ad ac 32 3e 3c 0e e2 bd 25 43 f7 3e
       0.021520855 0.17448683 -0.11037871 0.48293415
0001e0 1e 77 93 be 75 96 7b 3e 4e 04 fc bd d9 84 9e 3e
       -0.28801817 0.24569114 -0.123055086 0.3096073
0001f0 f2 5f 5b be c4 f0 57 be eb 8f 1b be 46 58 70 3e
       -0.21423319 -0.21087939 -0.15191619 0.23471174
000200 29 86 65 bd 5f 4d 02 3d b4 c5 da be 0c 07 5b 3e
       -0.05603615 0.031812068 -0.4272896 0.21389407
000210 b3 3c f6 be 19 4a 40 3d d3 7e 6a 3e 12 a5 4e 3e
       -0.48093185 0.046945665 0.22899942 0.20180157
000220 ee a2 e2 3e 20 14 85 bc 03 a3 bf be 63 d1 37 be
       0.4426493 -0.016244948 -0.37429056 -0.17950968
000230 86 ec e6 3c 29 9d b5 bc ec 77 c2 be 41 d8 e1 3d
       0.028188955 -0.022169666 -0.37982118 0.11027575
000240 f9 75 98 be 29 e5 41 3d 8f 33 23 3d b5 98 8d 3e
       -0.29777506 0.047337685 0.039844092 0.2765557
000250 53 19 eb 3d f8 c3 d3 3c 99 ca 61 bd ad e4 3f 3e
       0.114794396 0.025850281 -0.055124853 0.18739577
000260 9f 3d 83 be e4 e6 fd 3e a6 cc 82 be c1 2d d2 3e
       -0.2563295 0.49590218 -0.2554676 0.41050532
000270 a0 f2 fc 3e 49 d5 cb bd c0 40 9a 3e b4 83 aa be
       0.49403858 -0.0995279 0.30127525 -0.33303607
000280 b9 93 55 bc 66 4e 74 3e a6 79 c4 bd b7 17 76 3d
       -0.013035708 0.23858032 -0.09593515 0.06008121
000290 6a a3 6d bd 88 46 79 be 69 0a 36 3e 40 bc 19 3e
       -0.058017172 -0.24343312 0.17777409 0.15013218
0002a0 91 7d 1c be 92 ea 2f 3d 2f af c9 bd 9e bf d7 be
       -0.15282275 0.042948313 -0.09847867 -0.4213838
0002b0 65 fd 20 be ef f8 b6 3d e1 e4 b1 be 69 d4 d6 3c
       -0.15721662 0.08934199 -0.34744933 0.026224332
0002c0 cd 74 88 3c a1 1c 3f 3e 4c 1b b7 3e 43 54 d1 bb
       0.016657257 0.18663265 0.35763013 -0.0063882186
0002d0 76 66 26 3e d8 97 23 be 9b aa 50 3d 3f b8 2c be
       0.16250023 -0.15975893 0.050943952 -0.1686716
0002e0 c6 85 80 be 68 9f e2 3d d5 fd a4 3d 32 88 b5 3d
       -0.2510206 0.110655606 0.08056227 0.08863868
0002f0 ca db af 3c 8d 57 40 3e 62 50 ba bc 3c c5 7e 3e
       0.021467108 0.18783398 -0.022743408 0.24879926
000300 f0 24 af be 66 ea 20 3e ae 89 a4 be 06 e5 73 be
       -0.3420787 0.15714416 -0.3213629 -0.23817834
000310 25 3c 68 3e c7 df 8f 3c 2f 4c 10 3d 31 92 6c 3e
       0.22679193 0.01756276 0.035228904 0.23102643
000320 42 1a 86 bd 57 86 c9 3e d6 4c ad be 3c 04 0b 3e
       -0.06547977 0.39360306 -0.33847684 0.13575834
000330 75 61 96 be f9 95 cd bc c4 1f 7c 3c 26 69 22 be
       -0.2937123 -0.025095927 0.015388433 -0.15860423
000340 bf 8b 9b be 52 43 8e be 8f de 33 3c 2a c8 84 bb
       -0.30380055 -0.27785736 0.010978355 -0.0040521817
000350 a0 f2 8e be 1d ef 03 be 48 d9 56 3d 8a a2 56 bd
       -0.27919483 -0.12884183 0.05245331 -0.052401103
000360 bf 52 03 3e fa 73 80 3d 92 91 fc ba 35 0d 2c 3d
       0.12824534 0.06272121 -0.0019269458 0.042004783
000370 df 28 40 3c 96 4d 96 3e 77 8c 9b be 2f d9 6e be
       0.011728494 0.29356068 -0.30380604 -0.23325036
000380 31 f6 56 3b cb ff 99 bd c0 47 25 be d1 00 47 3e
       0.003280055 -0.07519492 -0.16140652 0.19433905
000390 df d8 5e 3e 44 3f ce 3c 62 b2 0c 3d 62 2d 7c be
       0.21762417 0.025176652 0.034349807 -0.24626687
0003a0 7d 43 ec 3d c7 a6 16 3e 5e 01 8c 3e 0e a7 ad 3d
       0.1153631 0.14712058 0.27344793 0.08479129
0003b0 ae 3b 2e 3e ad 0a 6f bd 0c 50 15 be ee 0f 91 be
       0.17014953 -0.05835979 -0.14581317 -0.28332466
0003c0 9b ed bc 3e b9 cd 0c be ad b5 1b bd b2 76 7d 3e
       0.3690003 -0.13750352 -0.038015056 0.2475231
0003d0 e7 43 16 3e ad 17 0d 3e 03 43 27 3c c8 39 46 3e
       0.1467434 0.13778563 0.010208848 0.1935798
0003e0 51 b1 13 3f 90 33 b4 be 96 88 65 3d 4a 6b 48 3b
       0.5769244 -0.3519559 0.05603846 0.0030581527
0003f0 8a 1b 10 3e c2 3c af 3d 27 f0 45 be 9f 63 89 be
       0.14073005 0.085565105 -0.19329892 -0.26833817

network_body.observation_encoder.processors.2.fc.seq_layers.2.bias f4 [22]
000000 e0 c8 9b 3c 3b df c7 3c e9 34 bd bb 86 6a 13 3c
       0.019016683 0.024398437 -0.0057741296 0.008997565
000010 1b f4 69 3c 3a c0 5d 3c 1f f7 dc 3b 3a aa 6f 3d
       0.014279391 0.0135346 0.0067433263 0.05851195
000020 8d 8a df 3c 91 41 4b 3c 48 29 3e bc 57 30 e4 3c
       0.027287746 0.012405769 -0.011606522 0.027855081
000030 2c b4 0b 3d 0c 7f c4 3b d8 21 3a bb 6c 98 72 3c
       0.034107372 0.0059965905 -0.002840152 0.014806848
000040 7f ad 1b 3c 9a 2d 4c 3c 2c c6 40 ba d2 71 6f b9
       0.009501814 0.012462044 -0.00073537487 -0.00022835218
000050 e3 26 7c 3a e6 4c 5d bb
       0.00096188317 -0.003376776

network_body.observation_encoder.processors.3.fc.seq_layers.0.weight f4 [12, 12]
000000 51 53 bf 3e 73 7a 07 bf 56 e4 a0 3e a3 21 2f 3e
       0.37368253 -0.5292122 0.31424206 0.17102675
000010 9f cc d0 3d a5 10 81 be ce 5e 4b bb d0 7f d8 bd
       0.101952784 -0.2520801 -0.003103185 -0.10571253
000020 a1 f2 fe 3e e0 15 b0 be 0b 9c 1f 3e 17 35 83 3e
       0.49794486 -0.3439169 0.1558687 0.25626442
000030 35 c5 09 be c5 ad 53 3d e6 b3 05 3f 52 6a 34 bd
       -0.13454135 0.05167939 0.5222763 -0.044046707
000040 d1 31 54 3d eb 61 cb bd ab df ce 3d 57 87 9c be
       0.05180532 -0.09930786 0.10101255 -0.30572006
000050 ee 9c 02 3c 35 2b 75 3e 2b 05 9e be d7 41 4d 3e
       0.007971985 0.23942263 -0.30863318 0.20044647
000060 f7 04 91 be 90 22 ef bd 3d fa ce be 06 5c 88 3d
       -0.283241 -0.11676514 -0.40425292 0.06658177
000070 f4 47 a6 be 86 72 a2 3e ab 28 aa be e1 83 93 be
       -0.3247677 0.31728 -0.33234152 -0.28811553
000080 c2 ab 83 be 4f 6b 0a bf 79 a4 d3 3e 24 17 65 3e
       -0.25716978 -0.5406999 0.4133642 0.22372109
000090 f0 23 86 be 83 2f 17 bf a0 93 a7 3e b1 dc 9c be
       -0.26199293 -0.5905687 0.32729816 -0.30637124
0000a0 89 4b 44 3e f1 ba dc bd 07 c1 2f bf ae ca fc be
       0.1916944 -0.10777844 -0.6865391 -0.49373382
0000b0 d3 f4 06 3d 6b e0 66 3b 9c 2d 88 bd e4 fd 37 3e
       0.032948326 0.0035228978 -0.06649324 0.17967945
0000c0 0b 2a 52 3e 81 c0 73 bd 46 14 91 3e 5b 78 1b be
       0.2052385 -0.059509758 0.2833578 -0.1518263
0000d0 7e 27 1f bf 25 0b e2 3e c4 11 db 3d 34 d0 df 3e
       -0.62169635 0.44149128 0.10696748 0.43713534
0000e0 e4 09 34 3f 24 23 e9 bd ec c9 a4 3e 0c 7b 2e 3e
       0.7032759 -0.11383656 0.32185304 0.17039126
0000f0 e2 cd 04 3f fc 62 82 3d ad 39 a8 3e 9c d7 e0 3e
       0.5187665 0.06366536 0.32856503 0.43914497
000100 13 c0 08 3f 1f a6 97 be 87 30 d0 bc 49 54 f2 be
       0.5341808 -0.29618928 -0.025413765 -0.4732993
000110 7e 75 9f be 8f 02 95 be b9 3f 1f 3e 3e 7b 91 3e
       -0.31144327 -0.29103515 0.15551652 0.2841434
000120 71 73 72 3e 2d 54 37 bf 8f 9d c8 be 09 28 9e 3e
       0.2367685 -0.7161282 -0.39182708 0.3088992
000130 5f 2c a7 bd 7a 01 e3 3d 52 93 5a be f1 66 99 3e
       -0.0816276 0.11084266 -0.2134526 0.2996135
000140 6f 4d ca 3d 15 4b 01 3e d3 66 7c 3e f3 dc 32 be
       0.098780505 0.12626298 0.246486 -0.17467098
000150 26 31 13 bf 81 1e 8a 3e 93 04 90 be 93 49 1a bf
       -0.5749687 0.26976398 -0.2812849 -0.60268515
000160 c6 67 a6 be 71 fa 82 3e 7b 70 0c be 5d 91 07 bf
       -0.32501048 0.25581697 -0.13714783 -0.5295618
000170 18 1f a1 3e 88 8e 4f bc fa d9 2a bf 6e 1e fe bb
       0.31469035 -0.012668259 -0.66738856 -0.0077550923
000180 5f cc 9c bd c3 ff b7 be 93 8f 0f bf 30 2e 06 3b
       -0.07656168 -0.35937318 -0.5607845 0.0020474307
000190 94 fc 2b be 7f 65 ec bc ea 86 9d bd 5f 33 00 bf
       -0.1679557 -0.02885699 -0.076917484 -0.50078386
0001a0 cd 1f 0e be 24 47 77 be b3 59 d4 bc 90 5b 04 bd
       -0.13879319 -0.24148232 -0.025921678 -0.032313883
0001b0 ff 2a 08 be c0 d5 59 3e 19 15 ab 3e 6e ad 2a bd
       -0.13297652 0.21272945 0.33414534 -0.0416693
0001c0 b7 80 8d be a2 72 ce 3e f1 82 1d be e1 1f 91 be
       -0.27637264 0.40321833 -0.15381981 -0.28344634
0001d0 dd b5 77 3c 75 b7 8c 3e 2f 5f 21 3e cf 27 03 3f
       0.015119043 0.27483717 0.15758966 0.5123262
0001e0 e2 5c 9a be 25 eb 7c 3d 7d 21 34 bf 29 fb a1 3c
       -0.3014899 0.06174769 -0.703636 0.019773083
0001f0 94 d2 10 3e 5d a4 ee 3c 26 89 a9 3e e7 24 de 3e
       0.14142829 0.029131109 0.33112448 0.4338753
000200 8c 08 4f 3e ad b9 35 be f0 a4 7b 3e f9 b6 b1 be
       0.20218104 -0.17746611 0.24574637 -0.3470991
000210 e4 c4 f3 be 9a cf 75 3d 70 0c bd be 35 cd fa 3c
       -0.47611153 0.060012437 -0.36923552 0.030615428
000220 12 31 48 3e b9 9c 99 3e 1a 75 bf 3d ab c2 c4 be
       0.19549969 0.30002382 0.09348507 -0.3842977
000230 44 ec 31 be ad 90 c3 3c bc 63 72 3e fc a3 7c be
       -0.17375284 0.023872698 0.23670858 -0.2467193

network_body.observation_encoder.processors.3.fc.seq_layers.0.bias f4 [12]
000000 b8 da e4 bc 53 b0 3f 3d 48 57 19 3d ee 2b 83 bd
       -0.027936324 0.046799015 0.037436754 -0.06404863
000010 60 e1 e6 3d ea 7e 11 bd 99 71 85 3d 94 e8 20 3d
       0.112734556 -0.035521425 0.06515808 0.039284304
000020 a0 28 2f 3d 5e ce 7d 3c fe e3 7c 3d 06 37 b8 3c
       0.042763352 0.015491096 0.061740868 0.022487175

network_body.observation_encoder.processors.3.fc.seq_layers.2.weight f4 [12, 12]
000000 fe 1d 64 3e 9b 2f f9 bc 64 76 26 3e c6 95 84 be
       0.22277066 -0.030418208 0.162561 -0.25895518
000010 19 56 81 3e ce 82 31 3e 1c bc 79 be 9e 6a 96 be
       0.25261 0.17335054 -0.24388164 -0.29378217
000020 50 99 13 bf ab 08 9f bd a6 32 07 bf 92 6e 65 bd
       -0.5765581 -0.07765325 -0.5281166 -0.05601365
000030 7d 77 9a be 38 4e 0c bf 06 29 06 3e 93 56 f2 bd
       -0.30169287 -0.5480685 0.13101587 -0.11832919
000040 96 80 1d 3e 7e 4a aa bd 5c c8 f7 3e ae 4e b9 be
       0.15381083 -0.083149895 0.4839505 -0.3619284
000050 d4 a0 0e 3e 25 6d c4 3c b3 55 8e 3e 4b 8b 99 3e
       0.13928539 0.023977825 0.27799758 0.29989085
000060 f1 58 e4 be 98 45 b8 be f5 92 cf 3d 38 dc 10 bd
       -0.44599107 -0.35990596 0.10135452 -0.035366267
000070 cc 85 89 3d 60 84 64 bc 58 e5 00 3f 37 65 23 3f
       0.06714973 -0.013947576 0.5034995 0.63826317
000080 10 da 4d 3f 4a d3 d6 be c6 2f e5 3e d7 b3 07 3e
       0.8041086 -0.41958076 0.4476301 0.13252197
000090 ba cd 0f 3f b4 fe 2c 3f a9 a9 24 bf 36 64 f1 be
       0.5617329 0.67576146 -0.6432138 -0.47146767
0000a0 6b 63 17 3f c5 33 21 3d 9f ee 32 bd 45 5d d5 be
       0.59136075 0.039356012 -0.043684598 -0.41672722
0000b0 76 ff 93 bd f5 1d 08 3f 94 19 25 bf c8 52 49 3e
       -0.0722646 0.5317071 -0.64492154 0.19660485
0000c0 f6 9a aa 3e fb 74 c9 bd c2 c6 b4 3e 8b ff ac be
       0.3332135 -0.098367654 0.3530789 -0.33788714
0000d0 ec ef ac 3d ac d6 a7 be d6 1f 04 3e b0 1a 96 3e
       0.08444199 -0.3278097 0.1290277 0.29317236
0000e0 4a 9a b7 3e 7c 94 e3 be a0 f9 0c bd ca 5f a5 3e
       0.358599 -0.44449222 -0.03441775 0.32299644
0000f0 23 d3 49 3e 00 19 9a 3e 7e 53 14 3e 55 2d a7 3e
       0.19709449 0.30097198 0.14484975 0.32651773
000100 0f 43 99 3e 5d 46 2a be d6 e9 26 3d c4 63 48 bd
       0.29933974 -0.16628404 0.040750347 -0.04892327
000110 31 f5 e5 be 23 2f 8e be e5 d7 c9 be 73 cc 1b bf
       -0.4491363 -0.27770337 -0.39422527 -0.6085884
000120 bc 8d 15 3e f7 d5 0a bf 2d 4f 1f bf 3b 72 eb 3e
       0.14604849 -0.54232734 -0.6223019 0.45985588
000130 92 35 0e 3f ef 9c fb bd 85 60 88 be 14 a4 e0 3e
       0.5555049 -0.12285792 -0.2663614 0.43875182
000140 7b 40 c0 3e f2 8b ae bc d1 c9 3c 3e e9 fa 0c 3f
       0.37549195 -0.021306966 0.18436362 0.5507036
000150 42 e1 40 be b5 cd 7c 3e d6 0b 12 3e 99 24 9d 3e
       -0.18835929 0.24687846 0.14262328 0.30691984
000160 7e be 2e 3f 82 09 a2 bd 21 4d d8 3d fb 95 e3 3d
       0.6825942 -0.0791197 0.10561586 0.11112591
000170 23 65 84 bf 52 8e a2 3e c6 e7 06 be 01 7b 66 3c
       -1.0343364 0.31749207 -0.13174352 0.014067412
000180 5d 69 bf be a6 81 75 3d bf 31 b6 3e 0e d3 26 bf
       -0.37385073 0.059938096 0.35584828 -0.65165794
000190 52 29 5c 3e 66 b3 95 be 17 4e cf 3e a5 31 24 3d
       0.21500137 -0.29238433 0.40489265 0.040086407
0001a0 dc 7b 1e 3e 77 02 61 bf 2d 85 25 3f b6 f3 47 bd
       0.15476936 -0.87894386 0.64656335 -0.048816405
0001b0 58 7b e5 3d 68 be 1a be 6d 98 bd 3e 0a a2 00 3d
       0.112051666 -0.15111697 0.37030354 0.031404532
0001c0 a0 1d 9e 3e 12 2a 02 bf 74 eb 4e be aa 4c 59 be
       0.30881977 -0.50845444 -0.20207006 -0.21220651
0001d0 22 79 64 3e eb 75 19 3f 2c eb b4 3e 39 43 cc 3c
       0.22311834 0.59945554 0.35335672 0.024934398
0001e0 33 0f fe 3e ee 94 00 be cb d5 3a be a3 46 17 be
       0.4962097 -0.12556812 -0.18245618 -0.1477304
0001f0 35 2a d9 3e eb eb 70 be 54 8b 4d 3d 0c 29 1a bd
       0.42415014 -0.23527496 0.0501817 -0.0376368
000200 a5 f9 9f 3e b8 bb 8c bd 69 44 50 bf 0e 1f 0b bf
       0.3124515 -0.06871742 -0.81354386 -0.5434426
000210 84 e1 2e 3c 82 d5 ca 3e f3 a5 53 bf 58 14 1a be
       0.010673884 0.3961602 -0.82675093 -0.15046823
000220 7b 06 29 3e 9b cc d0 bb 29 7f f3 bd 4d f7 24 be
       0.16506378 -0.006372047 -0.11889488 -0.16109963
000230 ae 35 08 bf 19 ca ae be 0c cd b3 be f9 e1 ec bd
       -0.5320691 -0.34138563 -0.35117376 -0.11566538

network_body.observation_encoder.processors.3.fc.seq_layers.2.bias f4 [12]
000000 2a 6d 1c 3d 5b f3 bb 3c 83 4b 10 3d 0c 16 01 3d
       0.038190044 0.02294319 0.035228264 0.031515166
000010 42 9a d7 3c 5c 5d 24 3d de 2b ce 3c 30 83 42 3d
       0.026318673 0.040128097 0.025167402 0.04748839
000020 97 25 23 3d 65 56 d4 bc 87 bd 30 3c 41 4d a8 3c
       0.03983077 -0.025920102 0.010787374 0.02054465

network_body._body_endoder.pre_attention.query.bias f4 [76]
000000 00 00 00 00 00 00 00 00 00 00 00 00 00 00 00 00
       0.0 0.0 0.0 0.0
000010 00 00 00 00 00 00 00 00 00 00 00 00 00 00 00 00
       0.0 0.0 0.0 0.0
000020 00 00 00 00 00 00 00 00 00 00 00 00 00 00 00 00
       0.0 0.0 0.0 0.0
000030 00 00 00 00 00 00 00 00 00 00 00 00 00 00 00 00
       0.0 0.0 0.0 0.0
000040 00 00 00 00 00 00 00 00 00 00 00 00 00 00 00 00
       0.0 0.0 0.0 0.0
000050 00 00 00 00 00 00 00 00 00 00 00 00 00 00 00 00
       0.0 0.0 0.0 0.0
000060 00 00 00 00 00 00 00 00 00 00 00 00 00 00 00 00
       0.0 0.0 0.0 0.0
000070 00 00 00 00 00 00 00 00 00 00 00 00 00 00 00 00
       0.0 0.0 0.0 0.0
000080 00 00 00 00 00 00 00 00 00 00 00 00 00 00 00 00
       0.0 0.0 0.0 0.0
000090 00 00 00 00 00 00 00 00 00 00 00 00 00 00 00 00
       0.0 0.0 0.0 0.0
0000a0 00 00 00 00 00 00 00 00 00 00 00 00 00 00 00 00
       0.0 0.0 0.0 0.0
0000b0 00 00 00 00 00 00 00 00 00 00 00 00 00 00 00 00
       0.0 0.0 0.0 0.0
0000c0 00 00 00 00 00 00 00 00 00 00 00 00 00 00 00 00
       0.0 0.0 0.0 0.0
0000d0 00 00 00 00 00 00 00 00 00 00 00 00 00 00 00 00
       0.0 0.0 0.0 0.0
0000e0 00 00 00 00 00 00 00 00 00 00 00 00 00 00 00 00
       0.0 0.0 0.0 0.0
0000f0 00 00 00 00 00 00 00 00 00 00 00 00 00 00 00 00
       0.0 0.0 0.0 0.0
000100 00 00 00 00 00 00 00 00 00 00 00 00 00 00 00 00
       0.0 0.0 0.0 0.0
000110 00 00 00 00 00 00 00 00 00 00 00 00 00 00 00 00
       0.0 0.0 0.0 0.0
000120 00 00 00 00 00 00 00 00 00 00 00 00 00 00 00 00
       0.0 0.0 0.0 0.0
