Assets/oon/checking.onnx (onnx, 533632 bytes, 53 tensors)

network_body.observation_encoder.processors.0.model.residual.weight f4 [16, 16, 1, 1]
0	0xbe75c865	-0.24002226
1	0x3da017b7	0.07817023
2	0x3e1eac2a	0.15495363
3	0xbde86df1	-0.11349095
4	0x3e37c3af	0.17945741
5	0x3de6f96a	0.11278041
6	0xbdc3b516	-0.09556024
7	0xbe292261	-0.16517021
8	0xbe2a9d6b	-0.16661613
9	0x3da33a50	0.079701066
10	0xbd041154	-0.032243088
11	0xbe83d5bf	-0.25749013
12	0xbc85af42	-0.016318921
13	0x3e67eeff	0.22649764
14	0xbde1660f	-0.11005794
15	0x3e0f744e	0.1400921
16	0xbe8169fa	-0.25276166
17	0x3e64b3a7	0.22334157
18	0xbd95e52e	-0.07319103
19	0x3e121e4a	0.14269367
20	0xbdc51231	-0.0962261
21	0xbe6d9ab7	-0.2320355
22	0xbe06fa8d	-0.13181515
23	0xbe4ff4b1	-0.20308186
24	0x3df49bb7	0.11943763
25	0x3e61671c	0.2201199
26	0x3c7b7d27	0.015349663
27	0xbe8f62c8	-0.28005052
28	0x3e302d50	0.17204785
29	0x3e05383c	0.13009733
30	0xbe3c7ebf	-0.18407725
31	0xbd8bf3e1	-0.068336256
32	0xbe2ec41e	-0.17067
33	0x3e7caf27	0.2467619
34	0x3dec0bca	0.11525686
35	0xbd6e1142	-0.058121927
36	0xbdc3fd48	-0.09569794
37	0x3e2d6411	0.16932704
38	0xbd76fe92	-0.06030137
39	0xbd8847e7	-0.06654339
40	0xbe242857	-0.16031013
41	0xbd39451d	-0.045231927
42	0x3de962e2	0.113958135
43	0xbdb5c371	-0.08875168
44	0x3d3984e1	0.04529274
45	0x3e53aaa7	0.20670567
46	0x3c256b78	0.010096423
47	0x3daaac98	0.08333701
48	0x3e522041	0.20520116
49	0xbe9c8c63	-0.30575857
50	0xbe66565f	-0.22493885
51	0xbe0dac1b	-0.13835184
52	0xbe2b95de	-0.16756389
53	0x3eaea742	0.34111983
54	0x3ea8cb0a	0.32967407
55	0xbe9eef22	-0.3104182
56	0x3cd089df	0.025456367
57	0x3c9fe588	0.019518629
58	0xbdc26099	-0.09491081
59	0x3ea34429	0.3188794
60	0xbe12ddb0	-0.1434238
61	0xbe4c4a8f	-0.19950317
62	0xbd6ac040	-0.05731225
63	0xbde5393f	-0.111925595
64	0xbe5c353a	-0.2150468
65	0x3ea20663	0.31645498
66	0xbc039d95	-0.008033176
67	0x3cac13a0	0.021005452
68	0xbde383cb	-0.11109122
69	0xbe8d03da	-0.27542
70	0xbe4eeea1	-0.20208217
71	0x3e83f042	0.2576924
72	0xbe17f74c	-0.1484043
73	0xbd69f415	-0.05711754
74	0xbe0d02b9	-0.1377057
75	0xbe6d87f7	-0.23196398
76	0xbe0fd3c2	-0.14045623
77	0x3ddf7496	0.10910909
78	0x3e01cca1	0.12675716
79	0x3e83eca7	0.2576649
80	0xbe32f94c	-0.17477912
81	0x3e22e627	0.15908109
82	0x3e38bf74	0.18041784
83	0x3e813337	0.25234386
84	0xbda32676	-0.0796632
85	0x3d65f92d	0.056145836
86	0xbe8a902f	-0.27063128
87	0x3e2f8bb4	0.17143136
88	0xbe0a9af9	-0.1353568
89	0x3cb7f093	0.022453582
90	0xbe063c10	-0.1310885
91	0xbe7ad17b	-0.24493973
92	0x3d825e38	0.06365627
93	0x3d14a2c9	0.036288057
94	0xbd9bccae	-0.07607399
95	0x3e5a6fb9	0.21331681
96	0xbd877184	-0.06613448
97	0xbdc4efa6	-0.09616022
98	0x3e2a71e1	0.16645004
99	0x3dc93e2e	0.09826313
100	0xbe3ef7fe	-0.18649289
101	0xbdeb6007	-0.11492925
102	0xbda39915	-0.079881825
103	0x3e528286	0.20557603
104	0x3d92dfad	0.07171569
105	0xbbc9815e	-0.006149455
106	0xbdefee48	-0.117153704
107	0x3dbcb8e6	0.09214954
108	0x3bb22fc3	0.0054378225
109	0xbe64a976	-0.22330269
110	0xbd9d475c	-0.07679626
111	0xbe24d5f7	-0.16097246
112	0xbc0cb908	-0.008589037
113	0xbcac862d	-0.021060074
114	0x3e59cbcb	0.21269147
115	0x3c2c3693	0.010511058
116	0x3e796b32	0.24357298
117	0xbe992ca0	-0.2991686
118	0xbe539f21	-0.20666172
119	0x3dc7938e	0.09744941
120	0xbe2436d6	-0.16036543
121	0x3e5f057f	0.2177944
122	0xbd98e39b	-0.07465287
123	0xbd74dd06	-0.059781097
124	0x3e676943	0.22598748
125	0x3e197d40	0.14989185
126	0xbe8959b8	-0.26826262
127	0xbd95fa4a	-0.073231295
128	0x3bc709ac	0.006074151
129	0xbbb75291	-0.0055945595
130	0xbd0e75fd	-0.03478049
131	0xbe8a69ea	-0.2703393
132	0x3e065715	0.13119157
133	0x3e8a7a6a	0.2704652
134	0xbd5c930c	-0.053851172
135	0xbe14f9de	-0.14548442
136	0xbe67092e	-0.22562096
137	0x3de1f2f5	0.110326685
138	0xbe0b37f7	-0.13595568
139	0xbe5026d0	-0.20327306
140	0x3c3579c0	0.011076391
141	0x3e21dd95	0.15807183
142	0x3caf6846	0.021412026
143	0xbbe71e09	-0.007053141
144	0x3e65d8db	0.22446005
145	0x3d99ecd5	0.07515875
146	0xbe21b0f5	-0.1579016
147	0xbddcc797	-0.10780256
148	0xbc90b52d	-0.017664516
149	0x3ea1a912	0.31574303
150	0xbd224804	-0.03961946
151	0xbe89e88b	-0.2693523
152	0xbe823147	-0.2542822
153	0x3d9b5155	0.07583872
154	0xbe6d48c0	-0.23172283
155	0x3e3dc39d	0.18531652
156	0xbe25c8ad	-0.16189833
157	0xbe70d9ea	-0.23520628
158	0x3e123a59	0.1428007
159	0x3e26d415	0.1629184
160	0x3e31422f	0.17310403
161	0xbe87e0af	-0.26538607
162	0x3e08ff48	0.13378632
163	0xbc8170e8	-0.015800908
164	0x3de324ad	0.1109098
165	0xbd3bb0ef	-0.045823034
166	0x3dda17b2	0.10649051
167	0xbd9de5ea	-0.07709868
168	0x3baf46bf	0.0053490098
169	0x3d172069	0.036896143
170	0xbe461479	-0.19343747
171	0x3e8703ba	0.2637003
172	0x3dfc3ddb	0.123164855
173	0xbd876bd2	-0.06612362
174	0x3e1d9ec2	0.15392593
175	0x3d66cfaa	0.056350388
176	0x3e0315d3	0.12801294
177	0xbe5ebdab	-0.2175204
178	0xbe91a1d1	-0.2844377
179	0xbe47f398	-0.19526517
180	0xbe697d1e	-0.22801635
181	0x3d0ee399	0.034885023
182	0xbbc91beb	-0.0061373613
183	0x3ceec49a	0.029146481
184	0xbdd2d626	-0.10294752
185	0x3e5fcf40	0.21856403
186	0x3db244a3	0.08704498
187	0x3e521bce	0.20518419
188	0xbe8e310c	-0.27771795
189	0xbca30a04	-0.019902237
190	0x3e98e2b8	0.29860473
191	0xbe1701f2	-0.14746836
192	0x3d097ccc	0.03356628
193	0x3ddb5e90	0.10711396
194	0xbce79721	-0.028270306
195	0x3c0d4838	0.008623175
196	0xbe07eee4	-0.13274723
197	0x3e911b21	0.2834101
198	0x3dfc32c3	0.123143695
199	0xbdfe7696	-0.12424962
200	0xbdd0a562	-0.10187794
201	0x3e383c84	0.17991835
202	0xbe655cfe	-0.22398755
203	0xbcac4381	-0.021028282
204	0xbe76afc2	-0.24090484
205	0x3e055b98	0.13023221
206	0xbdcbe2a7	-0.0995534
207	0x3e2b7de4	0.16747242
208	0xbe02b5e8	-0.12764704
209	0xbe233c23	-0.15940909
210	0x3e7a70e6	0.2445713
211	0x3d688cf5	0.056775052
212	0x3d4dfa87	0.05028775
213	0x3cb2a14c	0.021805428
214	0xbe41ce21	-0.18926288
215	0xbe496b49	-0.19669832
216	0x3e7349de	0.23758647
217	0xbe6be8f9	-0.23038091
218	0xbd86f093	-0.06588855
219	0x3d947a72	0.07249917
220	0x3d299e51	0.041410748
221	0x3e82fad0	0.2558198
222	0xbe98ab4c	-0.2981819
223	0xbdd3b1aa	-0.10336621
224	0xbdec6268	-0.11542207
225	0x3e24d465	0.16096647
226	0xbe31ccc3	-0.17363267
227	0x3c792255	0.015205939
228	0x3e8629b3	0.2620369
229	0xbe983ea0	-0.2973528
230	0x3e18fb9e	0.14939734
231	0xbdae92f3	-0.08524122
232	0xbda62b22	-0.08113696
233	0x3d00c2a7	0.031435635
234	0x3e4ad520	0.19807863
235	0xbdbff136	-0.09372179
236	0x3ce5f4b4	0.028070785
237	0xbe154f2e	-0.14580986
238	0x3da99207	0.08279806
239	0x3daf09a8	0.08546764
240	0xbe71936c	-0.23591393
241	0x3e5ab744	0.21358973
242	0x3c7e5091	0.015522138
243	0xbdd5de3e	-0.1044278
244	0xbcaa8da0	-0.020819485
245	0xbe4e3155	-0.20136006
246	0xbe5ddd29	-0.21666397
247	0x3e1a3ad4	0.15061504
248	0x3d14bef7	0.03631493
249	0x3e0f4228	0.1399008
250	0x3e1f1189	0.15534033
251	0xbd41281b	-0.04715739
252	0xbd90c9aa	-0.07069714
253	0xbe143a29	-0.14475311
254	0xbdbce93e	-0.09224175
255	0x3e575bfa	0.2103118

network_body.observation_encoder.processors.0.model.residual.bias f4 [16]
0	0x3d804a85	0.062642135
1	0x3e2b45f6	0.16725907
2	0x3e03144f	0.12800716
3	0x3ba180e2	0.004928694
4	0x3e54ccc3	0.20781235
5	0x3de98b9f	0.11403584
6	0x3e2713a3	0.16316085
7	0x3e4b1079	0.19830503
8	0x3da06fe9	0.07833845
9	0xbe75739e	-0.23969886
10	0xbd213361	-0.03935564
11	0x3e8189f1	0.25300553
12	0x3e797fd3	0.24365167
13	0xbde56090	-0.112000585
14	0x3e108ae4	0.14115483
15	0xbe7b9301	-0.24567796

network_body.observation_encoder.processors.0.model.final_conv.weight f4 [2, 16, 1, 1]
0	0x3e8f659b	0.28007206
1	0x3e74f367	0.23920976
2	0x3e630e4d	0.22173424
3	0xbeb786b0	-0.35844946
4	0x3e822cf0	0.2542491
5	0x3e046fd7	0.12933289
6	0x3d8b4a4f	0.068012826
7	0x3e0ec8b7	0.13943754
8	0xbe9f3565	-0.31095424
9	0xbd9b166a	-0.075726345
10	0xbeb5dbb3	-0.3551918
11	0xbda9a58e	-0.0828353
12	0xbe787d36	-0.24266514
13	0x3e98140b	0.29702792
14	0x3dc2e518	0.095163524
15	0x3d6adae1	0.057337645
16	0x3d95d242	0.07315494
17	0x3d4d4a46	0.05011966
18	0xbdef40fe	-0.11682318
19	0x3dd182c0	0.10230017
20	0xbe56fcea	-0.20994917
21	0xbe675b55	-0.22593434
22	0x3d3554d1	0.04427034
23	0xbe029845	-0.12753399
24	0x3e7f9d46	0.24962339
25	0x3e90a487	0.28250524
26	0x3e2489ea	0.16068235
27	0x3e516988	0.20450413
28	0xbcc95c61	-0.024580183
29	0xbda40c13	-0.080101155
30	0xbe7fd4b7	-0.24983488
31	0xbe668b43	-0.22514062

network_body.observation_encoder.processors.0.model.final_conv.bias f4 [2]
0	0x3da3cdd9	0.07998247
1	0x3e1862e2	0.14881471

network_body._body_endoder.attention.query.bias f4 [72]
0	0x00000000	0.0
1	0x00000000	0.0
2	0x00000000	0.0
3	0x00000000	0.0
4	0x00000000	0.0
5	0x00000000	0.0
6	0x00000000	0.0
7	0x00000000	0.0
8	0x00000000	0.0
9	0x00000000	0.0
10	0x00000000	0.0
11	0x00000000	0.0
12	0x00000000	0.0
13	0x00000000	0.0
14	0x00000000	0.0
15	0x00000000	0.0
16	0x00000000	0.0
17	0x00000000	0.0
18	0x00000000	0.0
19	0x00000000	0.0
20	0x00000000	0.0
21	0x00000000	0.0
22	0x00000000	0.0
23	0x00000000	0.0
24	0x00000000	0.0
25	0x00000000	0.0
26	0x00000000	0.0
27	0x00000000	0.0
28	0x00000000	0.0
29	0x00000000	0.0
30	0x00000000	0.0
31	0x00000000	0.0
32	0x00000000	0.0
33	0x00000000	0.0
34	0x00000000	0.0
35	0x00000000	0.0
36	0x00000000	0.0
37	0x00000000	0.0
38	0x00000000	0.0
39	0x00000000	0.0
40	0x00000000	0.0
41	0x00000000	0.0
42	0x00000000	0.0
43	0x00000000	0.0
44	0x00000000	0.0
45	0x00000000	0.0
46	0x00000000	0.0
47	0x00000000	0.0
48	0x00000000	0.0
49	0x00000000	0.0
50	0x00000000	0.0
51	0x00000000	0.0
52	0x00000000	0.0
53	0x00000000	0.0
54	0x00000000	0.0
55	0x00000000	0.0
56	0x00000000	0.0
57	0x00000000	0.0
58	0x00000000	0.0
59	0x00000000	0.0
60	0x00000000	0.0
61	0x00000000	0.0
62	0x00000000	0.0
63	0x00000000	0.0
64	0x00000000	0.0
65	0x00000000	0.0
66	0x00000000	0.0
67	0x00000000	0.0
68	0x00000000	0.0
69	0x00000000	0.0
70	0x00000000	0.0
71	0x00000000	0.0

network_body._body_endoder.attention.value.bias f4 [72]
0	0x3ebc64b7	0.3679559
1	0xbe29dcad	-0.16588087
2	0x3e632128	0.22180617
3	0xbe937da3	-0.2880679
4	0xbbb234c9	-0.0054384214
5	0xbe851b18	-0.25997233
6	0xbf770d19	-0.9650436
7	0x3e973d1e	0.29538816
8	0x3ed5f1d3	0.4178606
9	0xbe6d7720	-0.23189974
10	0xbc4d6c7b	-0.012538071
11	0xbed02042	-0.4064961
12	0x3e95ff91	0.29296544
13	0xbcc89b6a	-0.02448817
14	0x3d9112a9	0.07083637
15	0x3cf1e8a8	0.029529884
16	0x3e264caf	0.1624019
17	0xbdf2349a	-0.11826439
18	0xbe1cc34a	-0.15308872
19	0x3ddd4005	0.108032264
20	0xbcb2bbc4	-0.02181805
21	0xbe639451	-0.22224547
22	0xbe54b214	-0.20771056
23	0x3e59aac2	0.21256545
24	0xbd9dca88	-0.077046454
25	0x3e84e5ad	0.2595648
26	0x3ccc5752	0.024943981
27	0x3f0e7db6	0.5566057
28	0xbddce1a3	-0.10785224
29	0xbcbf4af6	-0.023351174
30	0xbed26947	-0.41095945
31	0xbde8912a	-0.11355813
32	0x3dd7574f	0.105147
33	0x3e081d5c	0.1329245
34	0xbdb8d138	-0.0902428
35	0x3de4284d	0.11140499
36	0x3e022dfc	0.12712854
37	0xbde93360	-0.11386752
38	0x3ed0bcf6	0.40769166
39	0x3de99131	0.11404646
40	0x3dfa3ddf	0.12218832
41	0xbef0f955	-0.47065225
42	0x3e0cde54	0.13756686
43	0x3de3f83b	0.111313306
44	0x3ddf186d	0.10893331
45	0x3e341f74	0.17590123
46	0xbc8d80bd	-0.017273301
47	0xbe4ca519	-0.19984855
48	0xbe253814	-0.16134673
49	0x3e5b7789	0.21432318
50	0x3eb3beb1	0.35106423
51	0x3cf23239	0.029564964
52	0xbe6f4763	-0.23367076
53	0x3e43e6f9	0.19131078
54	0xbbfbf4d8	-0.0076890998
55	0x3ce0d949	0.02744736
56	0xbc957a4a	-0.018246789
57	0x3de24a0a	0.11049278
58	0xbe4bb9f7	-0.19895159
59	0x3d9c3a28	0.0762828
60	0xbe94b031	-0.29040673
61	0x3dcdc82f	0.100479476
62	0xbe30cf55	-0.17266591
63	0xbd5137c6	-0.05107858
64	0x3de1f555	0.110331215
65	0xbe0eb126	-0.13934764
66	0xbd86b067	-0.06576615
67	0xbe10f8f7	-0.14157473
68	0xbe884b97	-0.2662017
69	0xbe02f7f5	-0.127899
70	0xbdbe2e43	-0.092861675
71	0xbda7b58d	-0.08188925

network_body._body_endoder.attention.norm.weight f4 [72]
0	0x3fc642e0	1.5489159
1	0x3fb534dd	1.4156758
2	0x3faa7bb4	1.3319001
3	0x3fc27c35	1.5194155
4	0x3f94d301	1.1626893
5	0x3fa3c142	1.2793353
6	0x4006be04	2.1053476
7	0x3f9c0415	1.2188746
8	0x3fc7225f	1.5557364
9	0x3f8fe247	1.1240929
10	0x3fd67ee4	1.6757474
11	0x3fc09f29	1.5048572
12	0x3fc54b3c	1.5413585
13	0x3f7ce2f7	0.9878382
14	0x3fb8b6c8	1.443078
15	0x3fa83b82	1.314316
16	0x3fd52aba	1.6653664
17	0x3f894275	1.0723406
18	0x3f428806	0.75988805
19	0x3f09074f	0.5352678
20	0x3f3b236d	0.7310093
21	0x3f5ca457	0.8618826
22	0x3f6fb6e3	0.9363844
23	0x3fab3e22	1.3378336
24	0x3ede52cc	0.43422544
25	0x3f75cd8c	0.96016765
26	0x3f58ea6a	0.8473269
27	0x3fc8174a	1.5632107
28	0x3f38ddc8	0.7221341
29	0x3f1416e6	0.5784744
30	0x3f763611	0.9617625
31	0x3f5a940b	0.85382146
32	0x3f0d9b5e	0.55315197
33	0x3f3ff2d8	0.74979925
34	0x3f88f6f0	1.0700359
35	0x3f3dbaa1	0.741129
36	0x3f8c60e3	1.0967067
37	0x3f07a34c	0.52983546
38	0x3fabd5b9	1.3424598
39	0x3f56a140	0.838398
40	0x3fc8653a	1.5655892
41	0x3f868829	1.0510303
42	0x3f42b0a0	0.7605076
43	0x3f30a1e8	0.6899705
44	0x3f8a6130	1.0810909
45	0x3f642ee8	0.89134073
46	0x3f5aa54a	0.8540846
47	0x3f6cafc3	0.9245569
48	0x3f5f1cc1	0.8715325
49	0x3f7ddb4f	0.99162763
50	0x3f60a1b1	0.8774672
51	0x3f46f771	0.77721316
52	0x3fb0e118	1.3818693
53	0x3f947eba	1.1601174
54	0x3f3e0875	0.74231654
55	0x3f7a1850	0.9769335
56	0x3f8e9d69	1.1141788
57	0x3f2bb993	0.6708004
58	0x3f9764c8	1.1827631
59	0x3f405536	0.7513002
60	0x3f97aa88	1.1848917
61	0x3f953266	1.1656005
62	0x3fddb1de	1.7319906
63	0x3f88138b	1.0630964
64	0x3f90b3af	1.1304835
65	0x3f8491e8	1.0357027
66	0x3f86fd7a	1.0546105
67	0x3f960690	1.1720753
68	0x3f96d244	1.1782918
69	0x3f981c40	1.1883621
70	0x3f9cb38c	1.2242293
71	0x3f740348	0.95317507

network_body._body_endoder.attention.norm.bias f4 [72]
0	0x3e533767	0.20626603
1	0x3c9ab0d4	0.018883146
2	0x3d67d28b	0.056597274
3	0xbe3a48cd	-0.18191834
4	0xbe0fa9f6	-0.14029679
5	0xbda9c75a	-0.082899764
6	0xbf36b4fd	-0.71369916
7	0x3e8663f2	0.26248127
8	0x3e4ef075	0.20208915
9	0xbdfa9b8d	-0.122367
10	0x3def132b	0.11673578
11	0xbe02e2c6	-0.1278182
12	0x3c02a629	0.007974186
13	0xbc88d4f5	-0.016703108
14	0xbd85f670	-0.06541145
15	0xbd10e1ee	-0.035371713
16	0xbd974043	-0.07385304
17	0xbd4d2a57	-0.050089207
18	0xbd7ceb82	-0.061748035
19	0x3e027596	0.12740168
20	0x3dc9dcc2	0.09856559
21	0xbd31220d	-0.043245364
22	0xbce7b20e	-0.028283145
23	0x3e45e1b2	0.19324377
24	0x3d44089b	0.04785977
25	0x3e685069	0.22686924
26	0xbc9d6e32	-0.019217584
27	0x3efdb292	0.495503
28	0xbc85948a	-0.01630618
29	0x3cac6200	0.021042824
30	0xbe583403	-0.21113591
31	0x3cb8fa45	0.022580275
32	0x3d03768d	0.03209548
33	0x3d9849ad	0.074359275
34	0xbd188958	-0.037240356
35	0x3de801b5	0.113284506
36	0x3e09c650	0.13454556
37	0x3b4f3d64	0.0031622285
38	0x3df244f3	0.11829557
39	0x3d03bb9d	0.032161344
40	0x3dc5b8ab	0.09654363
41	0xbe5b694b	-0.21426885
42	0x3de87074	0.11349574
43	0x3d87e561	0.066355474
44	0x3d42d476	0.0475659
45	0x3e041f0e	0.12902471
46	0xbcbf8ed9	-0.023383545
47	0xbdbb8138	-0.09155506
48	0xbe1af6d5	-0.15133221
49	0x3e7ee808	0.248932
50	0x3ea8ac9c	0.3294419
51	0xbbe5494b	-0.0069972626
52	0xbddfd035	-0.10928384
53	0x3e37a3bb	0.17933552
54	0x3d88171a	0.06645031
55	0x3da73d7a	0.081660226
56	0x3d9800ca	0.074220255
57	0x3e60b0cb	0.21942441
58	0xbd16fe65	-0.036863703
59	0x3e20062f	0.15627359
60	0xbde402ed	-0.111333705
61	0x3e154363	0.14576487
62	0xbe185055	-0.14874394
63	0x3e193ea0	0.14965296
64	0xbe5b106c	-0.21392983
65	0x3c0674fc	0.008206602
66	0x3e0fcea1	0.14043666
67	0x3d9e7a73	0.07738199
68	0x3d73c5cf	0.059514817
69	0xbd8f341e	-0.069923624
70	0xbd841bf4	-0.06450644
71	0xbde86f02	-0.11349298

network_body._body_endoder.norm.weight f4 [72]
0	0x3f8036b9	1.00167
1	0x3f86adcb	1.0521787
2	0x3f9911e8	1.195859
3	0x3f512972	0.81703866
4	0x3f6c06e9	0.92198044
5	0x3f3310ee	0.6994771
6	0x3e231428	0.15925658
7	0x3f9556e5	1.1667143
8	0x3f01f598	0.5076537
9	0x3f4898c0	0.7835808
10	0x3f8288e5	1.0198027
11	0x3f04b4a0	0.5183811
12	0x3f83296a	1.0247014
13	0x3ee3f588	0.44523263
14	0x3f1c6f98	0.6110778
15	0x3f972c2a	1.1810353
16	0x3f8507a7	1.039296
17	0x3f676638	0.9039035
18	0x3e6aad0d	0.22917576
19	0x3eccabaf	0.39974734
20	0xbe71bb48	-0.23606598
21	0x3ee8a3b5	0.454374
22	0x3efc9ce1	0.4933844
23	0x3ea512ff	0.32241055
24	0x3ec0e808	0.37677026
25	0x3f18e166	0.5971893
26	0x3f050b39	0.5197025
27	0x3e8c260d	0.2737278
28	0x3ea277a8	0.31731915
29	0x3ee37859	0.44427755
30	0x3eb9ad30	0.36264944
31	0x3f0653aa	0.5247141
32	0x3f023dd0	0.5087557
33	0x3eeac1e0	0.4585104
34	0x3f19a8f4	0.60023427
35	0x3eb4f991	0.35346654
36	0x3e2a3bea	0.16624418
37	0x3ed2a9b2	0.41145092
38	0x3ea72eeb	0.32652983
39	0x3ed3f8ca	0.41400748
40	0x3edeb612	0.43498284
41	0x3ed0f510	0.40811968
42	0x3e97fdc6	0.296858
43	0x3ec3d2cf	0.38246772
44	0x3ea0dc76	0.31418198
45	0x3f0770c4	0.5290644
46	0x3efc413d	0.49268523
47	0x3f08b6dd	0.5340403
48	0xbd5c2b97	-0.053752508
49	0x3eb8a8bf	0.36066243
50	0x3ddcc0e0	0.107789755
51	0x3e73d36f	0.23811124
52	0x3f1c6b16	0.611009
53	0x3f012c34	0.50458074
54	0x3e81279f	0.2522554
55	0x3f3634fd	0.71174604
56	0x3f2d72c5	0.6775325
57	0x3ea4dbd8	0.32198977
58	0x3f23e5d6	0.64022577
59	0x3f15ee60	0.58566856
60	0x3f41179f	0.7542667
61	0x3f76db23	0.96428126
62	0x3f9d3035	1.2280337
63	0x3f657907	0.896378
64	0x3f8820de	1.063503
65	0x3eed912f	0.4639983
66	0x3f28cffb	0.65942353
67	0x3eca1a5a	0.3947323
68	0x3f8c13e4	1.094357
69	0x3f86054b	1.0470365
70	0x3f8fc521	1.1232034
71	0x3f8eadd9	1.1146804

network_body._body_endoder.norm.bias f4 [72]
0	0xbd05e2f8	-0.032687157
1	0x3a6d338e	0.0009048515
2	0x3d3a5cf3	0.0454988
3	0x3dd02a9b	0.10164376
4	0xbe370fe9	-0.17877163
5	0x3dcfec9b	0.10152551
6	0x3f529e4a	0.8227278
7	0x3e5f1473	0.21785145
8	0xbe511c06	-0.20420846
9	0xbd5ff355	-0.05467542
10	0x3e8fb02a	0.2806409
11	0x3f07ddcc	0.5307281
12	0xbe3efe85	-0.18651779
13	0xbe18a3ca	-0.1490623
14	0xbe1427b0	-0.14468265
15	0xbd165e9b	-0.036711317
16	0xbe9f1c00	-0.3107605
17	0xbcf60bcf	-0.030034928
18	0xbd4e4130	-0.050355136
19	0x3ceb0500	0.028688908
20	0xbd84eb93	-0.06490245
21	0x3c83d598	0.01609306
22	0x3d282705	0.041052837
23	0xbdf4648d	-0.11933241
24	0xbd7eb312	-0.062182494
25	0x3cbd0faf	0.023078768
26	0xbdcafed7	-0.09911888
27	0xbe47fbb7	-0.19529615
28	0xbd8fc6b5	-0.07020322
29	0xbced1ac0	-0.02894342
30	0xbc2603b7	-0.010132722
31	0xbc83dd14	-0.01609663
32	0xbbe787b8	-0.0070657395
33	0x3d610bee	0.054943018
34	0xbd0858d9	-0.033287857
35	0x3dccf295	0.10007206
36	0xbd38bcef	-0.045102056
37	0xbd8953d2	-0.067054406
38	0xbe60965c	-0.21932358
39	0xbdd063bb	-0.10175272
40	0xbe05eae2	-0.13077882
41	0x3d376153	0.04477055
42	0xbe03f884	-0.1288777
43	0xbc9d7434	-0.019220449
44	0xbdc6447c	-0.09681031
45	0xbd1e6cc6	-0.038677953
46	0xbe124263	-0.14283137
47	0xbd9cc22a	-0.07654221
48	0xbe3d821b	-0.18506663
49	0x3da0419d	0.07825015
50	0x3df3031a	0.11865826
51	0x3d87b757	0.06626766
52	0xbdd4fbd0	-0.10399592
53	0xbde78a10	-0.1130563
54	0xbd03cd99	-0.032178495
55	0x3e006135	0.12537082
56	0x3d779d70	0.06045288
57	0x3d76d951	0.060265843
58	0xbc0c0eb6	-0.008548429
59	0x3d50ee9e	0.051008813
60	0x3e2dd044	0.16973978
61	0x3e2c7579	0.16841687
62	0xbc696028	-0.014244117
63	0x3e77a22b	0.24182956
64	0xbd07a260	-0.033113837
65	0x3d065d00	0.032803535
66	0xbd0c339e	-0.034228913
67	0x3e6dc0b3	0.2321804
68	0x3e0991a6	0.13434467
69	0xbcbf5882	-0.023357634
70	0xbe144953	-0.14481096
71	0x3ab498d6	0.0013778459

network_body._body_endoder.lin_layers.seq_layers.0.weight f4 [144, 72]
0	0xbecde942	-0.40217024
1	0x3f1472c7	0.57987636
2	0x3ed08b49	0.40731266
3	0xbe92ceb1	-0.28673318
4	0xbb30d922	-0.002698489
5	0xbe4d3d43	-0.200429
6	0xbd6142ea	-0.054995455
7	0x3e87ba55	0.26509348
8	0xbc023111	-0.007946269
9	0xbc9c5c1f	-0.019086896
10	0xbe3c74d4	-0.18403941
11	0x3e36225f	0.17786549
12	0xbfaa42a7	-1.3301591
13	0x3d38ee68	0.045149237
14	0xbf414c76	-0.75507295
15	0x3e0e0b14	0.13871413
16	0xbfb9219e	-1.4463384
17	0x3f04b23b	0.5183446
18	0xbf36250b	-0.71150273
19	0xbeb0fd3d	-0.34568205
20	0xbd585bb3	-0.052821826
21	0x3edd0b0d	0.43172494
22	0x3e8e795e	0.2782697
23	0xbe46c2ba	-0.1941022
24	0xbd27790a	-0.040886916
25	0xbdc1acad	-0.094567634
26	0x3bfe9d94	0.0077702496
27	0x3dac0a25	0.084003724
28	0x3e30bdb5	0.17259867
29	0x3f1e4da8	0.61837244
30	0x3e2a77ca	0.16647258
31	0x3edeaab7	0.4348962
32	0x3b34bd4f	0.0027578657
33	0x3e972062	0.29516894
34	0xbf06f066	-0.5271057
35	0x3e33210c	0.17493075
36	0xbe4f7125	-0.20258005
37	0x3f696255	0.9116567
38	0xbf44a9b1	-0.7682143
39	0xbf06c2d2	-0.5264102
40	0xbf0acebd	-0.5422171
41	0x3e4edff8	0.20202625
42	0xbe970048	-0.29492402
43	0x3e36581d	0.1780705
44	0xbedf7542	-0.43644148
45	0xbe6b2eeb	-0.22967117
46	0x3e981e45	0.29710594
47	0x3f2823d8	0.65679693
48	0x3e241f36	0.16027531
49	0x3e99dd7f	0.300518
50	0x3dbc84b5	0.09204999
51	0x3ec4ab82	0.384121
52	0x3e00921c	0.12555736
53	0xbd848fa7	-0.06472712
54	0x3dff9c7e	0.124810204
55	0x3c96b436	0.018396478
56	0x3f0cf64b	0.55063313
57	0x3e221d1e	0.1583142
58	0x3f1e65ad	0.61873895
59	0xbde989a1	-0.11403204
60	0x3e9074fc	0.28214252
61	0x3e6a86ff	0.2290306
62	0xbf011155	-0.5041707
63	0x3e344fa1	0.17608501
64	0xbe8f21d6	-0.27955502
65	0x3d1b1e6e	0.037870817
66	0x3dd47ae4	0.10375002
67	0x3df8afd9	0.12142915
68	0x3f6bfb7a	0.921806
69	0x3ef6c8ba	0.48200017
70	0xbf9502df	-1.1641501
71	0xbd3fc9a3	-0.046823155
72	0x3e16b2de	0.1471667
73	0xbee72ade	-0.45149893
74	0xbe123704	-0.142788
75	0x3dbacbb8	0.091208875
76	0xbeb91585	-0.3614923
77	0x3e92bd26	0.28659934
78	0xbd448c5c	-0.04798542
79	0xbe10e875	-0.14151175
80	0xbe4776a6	-0.19478855
81	0xbe7a1387	-0.24421512
82	0x3f6f7aad	0.93546563
83	0x3dccb59a	0.09995575
84	0x3e1c1bf9	0.15245046
85	0x3d8fb649	0.0701719
86	0x3d6f0dd0	0.058362782
87	0xbf3428da	-0.70374835
88	0x3e8461d2	0.2585588
89	0xbe47a676	-0.19497094
90	0x3bb552c5	0.0055335485
91	0xbed74fa6	-0.42052954
92	0xbd5879fa	-0.0528507
93	0x3de756b8	0.11295837
94	0x3e4e2370	0.20130706
95	0x3d1634ac	0.036671326
96	0xbd387cde	-0.045040958
97	0xbe15a0da	-0.14612141
98	0x3d08d06f	0.033401903
99	0x3e34d38b	0.17658822
100	0x3ef6ef48	0.48229432
101	0x3e18fb2a	0.14939561
102	0x3d2a19a3	0.041528355
103	0xbcac8881	-0.021061184
104	0x3e94bc17	0.2904975
105	0x3e10574f	0.14095806
106	0x3e9a0ac5	0.30086342
107	0x3a260e4f	0.00063345296
108	0x3d1fe9f0	0.03904146
109	0xbdab2564	-0.08356741
110	0xbdbd32f1	-0.09238232
111	0x3eb41f6a	0.35180217
112	0x3e240255	0.16016515
113	0x3e3cd979	0.18442334
114	0xbde3a87d	-0.11116121
115	0xbe7691bc	-0.24079031
116	0xbe351ab3	-0.17685966
117	0xbe0284ba	-0.12745944
118	0xbdbbeb4a	-0.09175737
119	0xbe53b9c3	-0.20676331
120	0x3de9f229	0.114231415
121	0xbedc1240	-0.42982674
122	0x3d8f5b4d	0.06999836
123	0xbed2fc90	-0.41208315
124	0x3e17d556	0.14827475
125	0x3d366cd4	0.04453738
126	0x3eab6509	0.3347552
127	0xbdd3c892	-0.1034099
128	0xbdd08696	-0.1018192
129	0xbe8d3f37	-0.27587292
130	0xbd506786	-0.050879978
131	0xbef680ad	-0.48145047
132	0xbd1c51b4	-0.038163856
133	0xbe537d0e	-0.20653173
134	0x3f92d0a8	1.1469927
135	0xbe7b9f99	-0.245726
136	0xbe001075	-0.12506278
137	0xbdf82b29	-0.12117607
138	0x3dbec41b	0.09314748
139	0x3e81516f	0.2525744
140	0x3cf0bebe	0.029387828
141	0xbe828be1	-0.25497344
142	0xbeff47ae	-0.49859375
143	0xbeadae6d	-0.3392214
144	0xbefd366c	-0.49455583
145	0xbeef315f	-0.46717355
146	0xbe3d4cb2	-0.18486288
147	0x3e14d3e3	0.14533953
148	0x3d8aa137	0.067690305
149	0x3dfccbd5	0.123435654
150	0x3ebe4006	0.3715822
151	0xbd3ef522	-0.046620496
152	0xbf797bff	-0.9745483
153	0x3e807d2c	0.250955
154	0x3ef36100	0.47534943
155	0x3e9bf483	0.30459985
156	0xbf37cc92	-0.71796525
157	0xbd5a89fe	-0.053354256
158	0x3de9df80	0.11419582
159	0xbe820455	-0.2539393
160	0xbe1b2951	-0.1515248
161	0x3e8ea379	0.27859095
162	0xbe2fe90c	-0.17178744
163	0xbf4130ad	-0.754649
164	0x3e554104	0.20825583
165	0x3ee0d27a	0.4391058
166	0x3cd0ac63	0.025472825
167	0xbe6a693e	-0.22891709
168	0x3f0873d6	0.5330175
169	0xbde5fd6c	-0.11229977
170	0x3e6abe77	0.22924219
171	0xbe363d68	-0.17796862
172	0x3dfa9023	0.12234523
173	0x3df24cdf	0.11831068
174	0x3e8d151c	0.27555168
175	0xbe3a3146	-0.18182859
176	0x3c99c367	0.018769933
177	0xbe231e4e	-0.15929529
178	0xbc7b2406	-0.015328413
179	0xbe2ef2d3	-0.17084818
180	0xbe1c49f5	-0.15262587
181	0x3cfaa170	0.030594558
182	0x3e390161	0.18066932
183	0x3defd470	0.11710441
184	0xbd91228b	-0.07086667
185	0x3ee50959	0.44733694
186	0xbcf52142	-0.029923085
187	0xbe113257	-0.1417936
188	0x3cdd6012	0.027023349
189	0xbea9ec07	-0.33187887
190	0x3ea12a82	0.31477743
191	0x3e2cb52e	0.1686599
192	0x3e781a6d	0.2422883
193	0xbeb9e40d	-0.363068
194	0xbec21ea0	-0.3791399
195	0xbe0767c1	-0.13223173
196	0xbe377acb	-0.17917936
197	0xbd0bc52e	-0.034123592
198	0xbd177dd4	-0.036985233
199	0xbe2d6af3	-0.16935329
200	0x3e5b7d50	0.21434522
201	0xbebff41d	-0.3749093
202	0x3f12f79d	0.5740908
203	0x3d67943b	0.056537848
204	0x3e8fdf16	0.2809989
205	0xbe93b817	-0.28851387
206	0x3f0459ae	0.5169934
207	0x3f244583	0.64168566
208	0x3c8ba358	0.017045662
209	0xbf158d6b	-0.5841891
210	0xbe91f4f8	-0.2850721
211	0x3cc2295f	0.023701368
212	0x3d5c1770	0.05373329
213	0x3d6498c4	0.05580975
214	0xbed2fec8	-0.41210008
215	0x3c2f1e40	0.0106883645
216	0xbe84960b	-0.25895724
217	0x3d8facb2	0.07015361
218	0xbda5711c	-0.080782145
219	0xbd013f8f	-0.031554755
220	0x3cc15474	0.02359984
221	0x3e348d50	0.17632031
222	0x3e89535f	0.2682142
223	0x3d22acd9	0.03971562
224	0xbe67e030	-0.22644114
225	0x3f0aaaae	0.54166687
226	0x3ebf77bf	0.37396047
227	0xba0919ce	-0.00052299805
228	0x3dce607b	0.10076996
229	0xbd30f87a	-0.043205716
230	0x3e245c19	0.16050757
231	0x3e194482	0.1496754
232	0x3dbbe855	0.09175173
233	0xbda72ff5	-0.08163444
234	0x3e89346a	0.267978
235	0x3e8ec9bb	0.27888283
236	0xbe012f32	-0.1261566
237	0x3dac6de9	0.08419401
238	0x3ef43f8a	0.47704726
239	0xbe3737f7	-0.17892443
240	0x3dda91ff	0.10672378
241	0x3e7c81e6	0.24658927
242	0x3ec0e9bb	0.37678322
243	0x3c8da59d	0.017290885
244	0x3d668abf	0.056284662
245	0xbea1c821	-0.31598
246	0xbc5901b5	-0.013245036
247	0xbf431c76	-0.762153
248	0x3d9a45cb	0.07532843
249	0xbcce7357	-0.025201483
250	0x3e6e750f	0.23286842
251	0xbcd18ebb	-0.025580755
252	0x3e6720c5	0.22571094
253	0xbe28a4e4	-0.16469151
254	0x3ec35b44	0.38155568
255	0x3d6a8aad	0.057261158

network_body._body_endoder.lin_layers.seq_layers.0.bias f4 [144]
0	0xbde87c26	-0.113518044
1	0xbd62f738	-0.055411547
2	0xbf319ecc	-0.6938293
3	0xbee90722	-0.45513254
4	0x3ec4febc	0.38475597
5	0xbf161b16	-0.5863508
6	0xbea36e40	-0.31920052
7	0xbe74045a	-0.23829785
8	0xbf2241be	-0.63381565
9	0xbeba3796	-0.36370534
10	0xbee31b3a	-0.4435671
11	0xbece7988	-0.40327096
12	0xbf3d2b45	-0.7389415
13	0xbf3337ec	-0.70007205
14	0x3e1dc050	0.15405393
15	0xbedc964b	-0.43083414
16	0xbea7d2ba	-0.3277796
17	0xbf152403	-0.58258075
18	0xbf151aa9	-0.58243805
19	0xbf314f3e	-0.6926154
20	0xbedaee05	-0.4275972
21	0xbe8c10c0	-0.2735653
22	0xbeaf8a2d	-0.34285107
23	0xbf1a4c87	-0.6027302
24	0xbec4275e	-0.38311285
25	0x3ea70ba7	0.32626078
26	0xbf08e411	-0.53473
27	0xbf19cffa	-0.6008297
28	0xbf316126	-0.6928886
29	0xbc9b0369	-0.018922525
30	0xbed7ca48	-0.42146516
31	0xbf140a35	-0.57828075
32	0xbedd8dfa	-0.43272382
33	0xbeebe6ff	-0.46074674
34	0xbe7f3dd9	-0.24925937
35	0xbf04a75d	-0.51817876
36	0xbe51fcb9	-0.20506562
37	0xbe52a0bf	-0.20569132
38	0x3e2130a6	0.15741214
39	0xbe95d465	-0.29263607
40	0xbd3da1bc	-0.04629682
41	0xbe5e3024	-0.21698052
42	0xbed1a714	-0.40947783
43	0xbf0c6a0d	-0.5484932
44	0xbc8b3238	-0.01699172
45	0xbde7e3a6	-0.11322717
46	0xbeb6d46d	-0.35708943
47	0xbf1a81ad	-0.6035412
48	0xbdc7b7fa	-0.097518876
49	0xbf00a9ff	-0.50259393
50	0xbefec1b0	-0.49757147
51	0xbe93dd0e	-0.2887959
52	0xbee113c7	-0.439604
53	0xbf03f8da	-0.5155159
54	0xbf2e0a66	-0.67984617
55	0xbe10490e	-0.14090368
56	0xbeb1c994	-0.34724104
57	0xbe76c0b9	-0.24096955
58	0xbf00fe87	-0.5038838
59	0xbf1abc54	-0.60443616
60	0xbf0c7c9b	-0.5487763
61	0xbf040a89	-0.51578575
62	0xbde287b7	-0.11061042
63	0xbe2c37dc	-0.16818184
64	0xbe987fdb	-0.29785046
65	0xbec36054	-0.3815943
66	0xbdbf57c9	-0.093429156
67	0xbeac5f6b	-0.33666548
68	0xbec03f7f	-0.37548444
69	0xbea6d8f7	-0.32587406
70	0xbf079889	-0.52967125
71	0xbf02add3	-0.51046485
72	0xbea6ad8c	-0.3255428
73	0xbefee93f	-0.49787328
74	0xbf231da5	-0.6371711
75	0xbf0e2269	-0.55521256
76	0xbef764a0	-0.48318958
77	0xbe8383ba	-0.25686437
78	0xbca60f60	-0.020271003
79	0xbedf39fb	-0.43598923
80	0xbea4cc43	-0.3218709
81	0xbf000547	-0.5000805
82	0xbec45785	-0.38348022
83	0xbf63caaa	-0.88981116
84	0xbda0946b	-0.078408085
85	0xbf0d0de0	-0.55099297
86	0xbf3e2aff	-0.74284357
87	0xbf1dcafd	-0.6163786
88	0xbe8b7c04	-0.27243054
89	0xbf486dd2	-0.7829257
90	0xbf20c370	-0.62798214
91	0xbdb7623d	-0.08954284
92	0xbf515589	-0.8177114
93	0x3e6cf4fc	0.23140329
94	0xbf1d2288	-0.61380816
95	0xbf54a663	-0.83066386
96	0xbf2049bf	-0.6261253
97	0xbefd2949	-0.4944556
98	0xbf177aad	-0.59171563
99	0xbed9fc5f	-0.42575356
100	0xbec283ca	-0.37991172
101	0xbf27577b	-0.6536786
102	0xbf2e3051	-0.68042475
103	0xbca2e851	-0.019886168
104	0xbf26956e	-0.6507176
105	0xbefcce28	-0.49376035
106	0xbeebfa70	-0.46089506
107	0xbf201b7a	-0.62541926
108	0xbec779f6	-0.38960236
109	0xbf19bead	-0.60056573
110	0xbe4d47b9	-0.20046891
111	0xbebb0213	-0.3652502
112	0xbf30aacc	-0.69010615
113	0xbdf46bf5	-0.11934654
114	0xbf19fb9b	-0.60149544
115	0xbec2c181	-0.38038257
116	0xbed3013f	-0.41211888
117	0xbebb547a	-0.36587888
118	0xbe12afb0	-0.14324832
119	0xbf157caf	-0.5839338
120	0xbf367c66	-0.71283567
121	0xbe020f60	-0.12701178
122	0xbe82cc9a	-0.25546724
123	0xbf3165f0	-0.6929617
124	0xbf375ef7	-0.7162928
125	0xbf3b81cc	-0.7324493
126	0xbe9d7cd2	-0.30759293
127	0xbf23e961	-0.6402798
128	0xbf0570f9	-0.5212551
129	0xbe00b57a	-0.12569228
130	0xbf3aeabe	-0.7301444
131	0xbe9803c0	-0.2969036
132	0xbde7bfed	-0.11315904
133	0x3ddb8fc0	0.107207775
134	0xbe81d0b5	-0.25354543
135	0xbed0359c	-0.406659
136	0xbf1288c1	-0.5723992
137	0xbf188ba2	-0.5958806
138	0xbe0f6cab	-0.14006297
139	0xbe938cd5	-0.28818384
140	0xbe93f639	-0.2889879
141	0xbd17cd49	-0.03706101
142	0xbf45081a	-0.76965487
143	0xbf2283af	-0.63482183

network_body._body_endoder.lin_layers.seq_layers.2.weight f4 [144, 144]
0	0xbd303633	-0.04302044
1	0x3e0cf7b8	0.13766372
2	0x3e953c59	0.29147604
3	0x3e817e9a	0.25291902
4	0xbeaa0b95	-0.3321196
5	0x3ed03ee7	0.4067299
6	0x3e83683d	0.25665465
7	0x3e6741ba	0.22583666
8	0x3ea9d81a	0.33172685
9	0x3db57175	0.08859531
10	0x3b75f196	0.003752803
11	0x3e6edf0b	0.23327272
12	0x3da43f76	0.08019917
13	0x3e0b4878	0.13601863
14	0x3e749174	0.23883611
15	0x3d396430	0.045261562
16	0x3e6a65b1	0.22890355
17	0x3da4c4e3	0.08045366
18	0x3f306510	0.6890421
19	0x3e20e54e	0.15712473
20	0x3eb1beae	0.3471579
21	0x3f062e11	0.5241404
22	0x3dd697b0	0.10478151
23	0x3e99e68c	0.30058706
24	0x3e85de7d	0.26146308
25	0xbebb3ee1	-0.3657141
26	0x3e920ecb	0.2852691
27	0x3e9a2311	0.3010488
28	0x3daf8873	0.085709475
29	0x3d9b6294	0.07587162
30	0x3e1a55b6	0.15071759
31	0x3e8bc6d1	0.27300122
32	0x3d9803c7	0.074225955
33	0x3eb196ca	0.34685355
34	0xbee1e5c6	-0.44120616
35	0xbd0cfff6	-0.03442379
36	0xbe892528	-0.2678616
37	0x3dccaefd	0.09994314
38	0xbe42ca4f	-0.19022487
39	0x3e83a390	0.25710726
40	0xbd86466e	-0.06556402
41	0xbe5ca6af	-0.2154796
42	0x3e20ca7c	0.15702242
43	0xbe9f98a1	-0.31171134
44	0xbe45e661	-0.19326164
45	0xbd95e8b3	-0.073197745
46	0xbdda03b6	-0.10645239
47	0x3f082d0d	0.5319374
48	0xbd31f8d2	-0.043450184
49	0x3e1d8a77	0.15384851
50	0x3ea4a07a	0.32153684
51	0x3ded2084	0.115784675
52	0x3ea9d8af	0.3317313
53	0x3d584cae	0.052807502
54	0x3ec7b58d	0.390057
55	0x3e5ee628	0.21767485
56	0x3ed15c94	0.40890944
57	0x3ec6fafb	0.38863358
58	0x3edbe93c	0.4295138
59	0x3e8d15d7	0.27555725
60	0x3e945f5e	0.2897901
61	0x3ec0758e	0.37589687
62	0xbeed35ad	-0.46330014
63	0x3e855ecc	0.26048887
64	0x3e9e66a4	0.30937684
65	0xbe67b636	-0.22628102
66	0x3c255c9f	0.010092883
67	0x3e872ecb	0.26402888
68	0xbd1f3c35	-0.038875777
69	0x3ec8364a	0.3910392
70	0x3eb5f06d	0.35534993
71	0x3e258dbf	0.16167353
72	0x3e31fe81	0.17382242
73	0xbd04d7b3	-0.03243227
74	0x3e9bce01	0.30430606
75	0x3f0add6d	0.5424412
76	0x3f32e8d5	0.69886523
77	0x3e98654f	0.29764792
78	0x3dfeaa56	0.12434833
79	0x3ebd8383	0.37014398
80	0x3d6c3eaf	0.057676967
81	0x3e50d160	0.2039237
82	0xbdd349db	-0.10316821
83	0x3ea9b915	0.3314902
84	0xbe9292dc	-0.2862767
85	0x3e904ebc	0.2818507
86	0x3e77fc30	0.24217296
87	0x3ddf68bf	0.109086506
88	0x3c9f2b1f	0.019429741
89	0x3e5c8a79	0.21537198
90	0x3e51efee	0.20501682
91	0xbeae6d7f	-0.34067914
92	0x3dc6741b	0.09690114
93	0xbc85a2c4	-0.016312964
94	0x3e2948c6	0.16531667
95	0x3e39cda6	0.18144855
96	0xbe3e045e	-0.18556353
97	0x3e845aaa	0.2585042
98	0x3ec1c17e	0.37842935
99	0x3e43f4ae	0.19136307
100	0x3e155c2d	0.14585944
101	0x3ec6b7c0	0.38812065
102	0x3e5981ec	0.21240968
103	0xbe5aa865	-0.213533
104	0x3e842e8e	0.25816768
105	0x3e27ccab	0.16386668
106	0x3cd5a7dc	0.026081018
107	0x3e61b639	0.22042169
108	0x3f292c77	0.6608347
109	0x3eb3e7e5	0.3513786
110	0x3d9f38ef	0.07774531
111	0xbea620c6	-0.3244688
112	0x3e1d5efe	0.15368268
113	0x3deb9ee5	0.11504916
114	0x3eaa315f	0.33240792
115	0xbdf0bf1e	-0.11755203
116	0x3ec6f627	0.38859674
117	0x3e59ec40	0.21281528
118	0xbd828ce1	-0.06374527
119	0x3f434817	0.76281875
120	0x3daa2418	0.083076656
121	0xbd713ec9	-0.058897767
122	0xbe6ff67c	-0.2343387
123	0x3e5a69bd	0.21329398
124	0x3e935115	0.28772798
125	0x3db8e5f7	0.09028237
126	0xbd786bfe	-0.060649864
127	0x3e2f4ad7	0.17118393
128	0x3f2b7c6f	0.66986746
129	0x3e6036fe	0.21895978
130	0x3e557a11	0.20847346
131	0xbd3f024f	-0.04663306
132	0x3f22a4ac	0.6353252
133	0xbe49ddb8	-0.19713485
134	0x3e2d8a65	0.16947325
135	0xbd5b1034	-0.05348225
136	0x3e63b777	0.22237955
137	0x3eaf1af6	0.34200257
138	0xbea59239	-0.32338122
139	0x3ea842df	0.3286352
140	0x3e816878	0.25275016
141	0x3e200723	0.15627722
142	0x3f0138e1	0.50477415
143	0x3e6001d3	0.21875696
144	0xbed14362	-0.40871722
145	0xbe2660bf	-0.16247843
146	0x3e604f46	0.2190524
147	0x3e0c8996	0.1372436
148	0x3d2cd1ba	0.0421922
149	0x3ea552ac	0.32289636
150	0xbccf9af0	-0.025342435
151	0x3d3b8e36	0.04578992
152	0x3e8d5529	0.27604035
153	0x3e0a4c17	0.13505588
154	0x3c9df40e	0.019281413
155	0x3e81dbc8	0.25362992
156	0x3e5c61d9	0.21521701
157	0x3e7d16ad	0.24715681
158	0x3e5abfc3	0.21362214
159	0xbc71e697	-0.01476445
160	0x3eca139e	0.39468092
161	0x3d7a6df9	0.061140034
162	0x3da30457	0.07959812
163	0x3e37f683	0.1796513
164	0x3e947f76	0.29003495
165	0x3dad73d5	0.08469359
166	0x3e92affc	0.2864989
167	0x3ea3e6c7	0.32012007
168	0x3e1ff7c9	0.15621866
169	0xbe58a79d	-0.2115769
170	0x3e46712e	0.19379112
171	0x3de0a8dc	0.10969707
172	0x3e562d3f	0.20915698
173	0xbe71610b	-0.23572175
174	0x3e7110de	0.2354159
175	0x3ea133fa	0.31484967
176	0xbce48bb6	-0.02789865
177	0x3e5519e5	0.20810659
178	0xbcb9a428	-0.022661284
179	0x3e85584c	0.26043928
180	0xbcae581c	-0.021282248
181	0x3eaa88f2	0.33307606
182	0xbeb53450	-0.35391474
183	0x3e10e44f	0.14149593
184	0xbe49349d	-0.19648977
185	0xbecc463f	-0.39897344
186	0x3e3e6bf0	0.18595862
187	0x3d9037fa	0.07041927
188	0xbeb5eb0a	-0.35530883
189	0xbbd6601b	-0.0065422184
190	0x3e2b90ed	0.16754504
191	0x3eb1c817	0.3472297
192	0xbd3d1ede	-0.046172015
193	0x3e090feb	0.13384978
194	0x3eb1c263	0.34718618
195	0x3e0799d7	0.13242279
196	0x3e1d9af5	0.15391143
197	0x3b827927	0.0039817276
198	0x3d9bedf2	0.07613744
199	0xbe2cd1e4	-0.16876942
200	0x3e9c439b	0.3052033
201	0x3e6586d5	0.22414716
202	0x3e1c3287	0.1525365
203	0x3e375294	0.17902595
204	0x3e3e7084	0.18597609
205	0xbd783819	-0.060600374
206	0xbe069258	-0.13141763
207	0xbd9c87a7	-0.07643061
208	0x3e243daa	0.16039148
209	0x3b9e1141	0.004823834
210	0xbe95b809	-0.2924197
211	0x3d43eece	0.047835164
212	0xbd794166	-0.060853384
213	0xbd012167	-0.031525996
214	0x3e6ee903	0.23331074
215	0x3ddffc85	0.10936836
216	0xbce07ded	-0.027403796
217	0xbe34ba45	-0.17649181
218	0x3e88562d	0.26628247
219	0x3dd340cb	0.10315093
220	0x3ea67b8f	0.32516143
221	0x3e93662a	0.28788882
222	0x3dfa46cb	0.12220534
223	0x3e8b9a35	0.27266088
224	0xbd8f1651	-0.069866784
225	0x3e74757f	0.23872946
226	0x3e682418	0.22670019
227	0x3ed239d0	0.41059732
228	0xbe16bb83	-0.14719968
229	0x3e46052f	0.19337915
230	0x3dd19624	0.10233715
231	0xbca29351	-0.019845637
232	0x3d46fa02	0.04857827
233	0x3e53453d	0.20631881
234	0x3e65c055	0.2243665
235	0xbe89e866	-0.26935118
236	0x3e68786f	0.22702192
237	0xbe4e4dcf	-0.20146869
238	0x3e77c3b8	0.24195755
239	0xbdb4eb93	-0.08833995
240	0x3e847dde	0.2587728
241	0x3e4f0ce4	0.20219761
242	0x3e8fb3bd	0.28066817
243	0x3ee0ecec	0.43930757
244	0x3e078652	0.13234833
245	0x3e68dbf2	0.22740152
246	0x3e4fab6e	0.20280239
247	0xbea6c0cc	-0.32568967
248	0x3e4c6506	0.19960412
249	0x3e82733e	0.25478548
250	0x3d78858e	0.060674243
251	0x3eb55b79	0.3542135
252	0x3e324b99	0.1741165
253	0x3d20baaf	0.039240535
254	0xbecbf400	-0.39834595
255	0x3dbadaaf	0.09123742

network_body._body_endoder.lin_layers.seq_layers.2.bias f4 [144]
0	0xbee381ea	-0.44435054
1	0xbea4a352	-0.32155854
2	0xbe5164a0	-0.20448542
3	0xbec6f369	-0.38857582
4	0xbee2e6e0	-0.4431677
5	0xbe6a72e9	-0.22895397
6	0xbed4f630	-0.41594076
7	0xbdb2cd18	-0.08730525
8	0xbe8b9ff8	-0.27270484
9	0xbe9bc363	-0.30422506
10	0xbe8ace1a	-0.27110368
11	0xbebb0642	-0.36528212
12	0xbea04e4f	-0.31309745
13	0xbe9a25c5	-0.3010694
14	0xbf1bc40f	-0.60846037
15	0xbeb748cf	-0.35797736
16	0xbe8f12ef	-0.27944133
17	0xbedfdf0b	-0.43724856
18	0xbef327a9	-0.47491196
19	0xbf022b5a	-0.508474
20	0xbebbd530	-0.36686087
21	0xbe915fbc	-0.28393352
22	0xbebf7876	-0.37396592
23	0xbef4f53d	-0.47843352
24	0xbec2962c	-0.38005197
25	0xbec2f007	-0.3807375
26	0xbe8c6a77	-0.27424976
27	0xbe94715d	-0.2899274
28	0xbf17a7d7	-0.5924048
29	0xbedb8280	-0.42873
30	0xbe6f97ec	-0.23397797
31	0xbea39d5f	-0.31956002
32	0xbebcacff	-0.36850736
33	0xbec808ab	-0.39069113
34	0xbeacb01c	-0.3372811
35	0xbeacc8c8	-0.33746934
36	0xbeae0f86	-0.33996218
37	0xbe4d2082	-0.20031932
38	0xbebc0bde	-0.36727804
39	0xbe4dd3b2	-0.20100287
40	0xbea1eba6	-0.31625098
41	0xbf193e86	-0.5986103
42	0xbede83c6	-0.4345991
43	0xbeb8a8d9	-0.3606632
44	0xbe8c397d	-0.2738761
45	0xbe9655ba	-0.2936228
46	0xbeba6340	-0.36403847
47	0xbed7f25b	-0.4217709
48	0xbebb15fd	-0.36540213
49	0xbe6e7796	-0.23287806
50	0xbf0f44e7	-0.5596451
51	0xbe00e673	-0.1258791
52	0xbe9e6b7c	-0.3094138
53	0xbea6c530	-0.32572317
54	0xbef15a4e	-0.4713921
55	0xbe62bdca	-0.22142711
56	0xbf03e8d5	-0.5152715
57	0xbea1e1ea	-0.3161767
58	0xbea3d9c4	-0.3200208
59	0xbe892b27	-0.26790735
60	0xbeb461c4	-0.3523084
61	0xbe49c159	-0.19702663
62	0xbe99b74c	-0.30022657
63	0xbe9e659c	-0.30936897
64	0xbe6e36a0	-0.23263025
65	0xbec9bef9	-0.39403513
66	0xbf10a079	-0.5649486
67	0xbec0fab6	-0.37691277
68	0xbe40472c	-0.1877715
69	0xbeb7a715	-0.3586966
70	0xbe2f538f	-0.17121719
71	0xbf0173f2	-0.50567544
72	0xbeb21378	-0.34780478
73	0xbf149a16	-0.58047616
74	0xbee62581	-0.44950488
75	0xbece8a3a	-0.40339833
76	0xbed1e1cd	-0.40992585
77	0xbebc643a	-0.36795217
78	0xbece46b8	-0.4028833
79	0xbf000dc9	-0.50021034
80	0x3d5505ba	0.052007414
81	0xbec0df32	-0.37670285
82	0xbea8b295	-0.32948747
83	0xbdd1fe70	-0.10253608
84	0xbe182b9e	-0.14860389
85	0xbe8f669b	-0.2800797
86	0xbe96fc70	-0.2948947
87	0xbeb8fd9b	-0.36130986
88	0xbeb24622	-0.34819132
89	0xbf22ede6	-0.63644254
90	0xbeb46edc	-0.3524083
91	0xbe93de96	-0.28880757
92	0xbed3e498	-0.4138534
93	0xbed8782f	-0.42279193
94	0xbe942140	-0.28931618
95	0xbe8bddf9	-0.2731779
96	0xbef2c77a	-0.47417814
97	0xbeadb99c	-0.3393067
98	0x3e19d321	0.15021946
99	0xbeb39894	-0.35077345
100	0xbe178ce3	-0.14799838
101	0xbeb22936	-0.34797066
102	0xbe603fba	-0.2189931
103	0xbe86f476	-0.26358384
104	0xbef18a5e	-0.47175878
105	0xbea1570e	-0.3151173
106	0xbf108535	-0.5645326
107	0xbef9fab3	-0.4882408
108	0xbe63d24c	-0.2224819
109	0xbea55de5	-0.32298198
110	0xbea1a29d	-0.31569377
111	0xbe9163c2	-0.28396422
112	0xbeb5784b	-0.3544334
113	0xbf0bef40	-0.5466194
114	0xbec3d158	-0.38245654
115	0xbec4b9d0	-0.38423014
116	0xbeac072b	-0.3359922
117	0xbf10d1d0	-0.5657015
118	0xbeb430c2	-0.3519345
119	0xbe4b4518	-0.19850576
120	0xbe9e90a4	-0.30969727
121	0xbe55d1a6	-0.20880756
122	0xbeae41c1	-0.3403454
123	0xbeac49a6	-0.3364994
124	0xbe7d9c78	-0.2476672
125	0xbeaef21b	-0.34169087
126	0xbebd431b	-0.3696526
127	0xbec4528d	-0.3834423
128	0xbef249b3	-0.47321853
129	0xbd85fd40	-0.06542444
130	0xbe874e78	-0.26427054
131	0xbe9ca827	-0.3059704
132	0xbf025738	-0.50914335
133	0xbecf8a42	-0.4053517
134	0xbe426136	-0.18982396
135	0xbebbff4a	-0.36718208
136	0xbea48ed6	-0.32140225
137	0xbed0c9f0	-0.40779066
138	0xbe8bae3c	-0.27281368
139	0xbe720ba4	-0.23637253
140	0xbebf061f	-0.37309358
141	0xbf22eaa1	-0.63639265
142	0xbe825f43	-0.25463304
143	0xbe847204	-0.25868237

network_body._body_endoder.fc.weight f4 [128, 144]
0	0x3dc67ee6	0.09692173
1	0xbdeb52ec	-0.114904255
2	0x3e1cc451	0.15309264
3	0x3db9e35a	0.09076567
4	0x3e0d24de	0.13783595
5	0xbdfa5839	-0.122238584
6	0x3e1fbb97	0.15598904
7	0x3e7b9680	0.2456913
8	0x3e481927	0.19540845
9	0xbd72492f	-0.059151825
10	0x3d1824ee	0.037144594
11	0xbdf48141	-0.11938716
12	0x3dfc048d	0.123055555
13	0x3da0b6e9	0.07847387
14	0x3db9b708	0.090681136
15	0x3da69787	0.0813437
16	0x3bd7e979	0.0065891114
17	0x3d6ccf63	0.057814967
18	0xbd83c9a9	-0.06434948
19	0xbdb1b230	-0.08676565
20	0xbda9e4e0	-0.082956076
21	0xbdb331ae	-0.0874971
22	0x3e239dac	0.15978116
23	0x3e2ebd22	0.17064336
24	0x3d5e7c78	0.05431792
25	0xbd9f1f67	-0.077696614
26	0x3d020f2d	0.031752754
27	0x3dba1783	0.09086516
28	0x3e02d155	0.12775166
29	0xbb3f366f	-0.0029176732
30	0xbd869e30	-0.065731406
31	0x3d7f8594	0.06238325
32	0x3da59d8d	0.08086691
33	0x3cc5230c	0.024064563
34	0xbddbba58	-0.107289016
35	0x3e0feb50	0.14054608
36	0xbd42788b	-0.04747824
37	0x3cc93471	0.024561139
38	0x3e362aed	0.17789812
39	0x3d79594a	0.06087617
40	0x3dcd68c3	0.10029747
41	0x3e0c9572	0.13728884
42	0x3cc80777	0.024417622
43	0xbdfc7c82	-0.123284355
44	0x3db001e7	0.08594113
45	0xbe3710f3	-0.1787756
46	0x3e02c279	0.12769498
47	0x3e041e4c	0.12902182
48	0x3d68f879	0.056877587
49	0x3bdeb111	0.0067960103
50	0x3df0dbe5	0.117606916
51	0x3d383083	0.04496814
52	0x3da6cd2d	0.08144603
53	0xbca24294	-0.019807138
54	0x3dcebcb7	0.10094588
55	0x3c8cbbc0	0.01717937
56	0x3e282da0	0.16423655
57	0x3dadcddb	0.084865294
58	0x3e4b512c	0.19855183
59	0xbda23f47	-0.079222254
60	0xbe05cda6	-0.1306673
61	0xbea8cce7	-0.32968828
62	0xbdbbcb45	-0.0916963
63	0x3d45054e	0.048100762
64	0x3a3ac7c2	0.0007125103
65	0xbd7f42f6	-0.06231972
66	0xbdc234c5	-0.09482721
67	0x3e2de01b	0.1698002
68	0xbcbf33fe	-0.023340221
69	0x3d1c0580	0.038091183
70	0xbd54f91b	-0.051995378
71	0xbd57044e	-0.05249434
72	0xbdcce8f7	-0.10005372
73	0x3e7b07c2	0.24514678
74	0xbe191266	-0.14948425
75	0xbd4e503a	-0.05036948
76	0x3bc6e34e	0.0060695773
77	0xbd415aa4	-0.047205582
78	0xbcd59829	-0.026073532
79	0xbd83c1bc	-0.06433436
80	0x3e123173	0.14276676
81	0x3e510fea	0.20416227
82	0x3cd8cc1d	0.026464516
83	0xbdb212e6	-0.08695011
84	0x3cc4bfcb	0.024017235
85	0x3e24e9c4	0.161048
86	0xbd68d8f2	-0.05684752
87	0xbdd4ca4e	-0.10390149
88	0xbda05101	-0.0782795
89	0x3def0990	0.11671746
90	0xbd63131f	-0.055438157
91	0xbc27beda	-0.010238374
92	0xbd031fd8	-0.03201279
93	0xbddf74a9	-0.10910923
94	0x3de5d6ef	0.11222636
95	0xbd934ef9	-0.07192797
96	0x3e29dfd6	0.16589293
97	0x3ded76b6	0.11594908
98	0xbdb8510e	-0.08999835
99	0xbca47989	-0.020077484
100	0x3e23dbc0	0.16001797
101	0xbd31e047	-0.04342678
102	0xbdb626c9	-0.088941164
103	0x3dd3a8cd	0.103349306
104	0x3db259c4	0.08708528
105	0xbc09ede7	-0.008418537
106	0x3dfe5c29	0.12419922
107	0x3dde2ef0	0.10848796
108	0xbc6a7f6e	-0.014312608
109	0x3e18d49f	0.14924859
110	0x3d2b36d1	0.041800324
111	0x3b37c8f3	0.002804336
112	0x3dad8116	0.08471887
113	0xbd9593ed	-0.07303605
114	0x3e0aa7e2	0.13540605
115	0xbda9f4d6	-0.08298652
116	0xbdd655f7	-0.10465615
117	0xbd8dda33	-0.06926384
118	0x3e3ce947	0.18448363
119	0x3cf73346	0.030175816
120	0x3d9d91c2	0.07693817
121	0x3d889c49	0.06670434
122	0x3d89cea2	0.06728865
123	0x3df1da35	0.11809198
124	0xbd02f4a6	-0.031971596
125	0x3e1d84d6	0.15382704
126	0xbd63fb04	-0.05565931
127	0xbe19f24c	-0.15033835
128	0x3cfd07f8	0.030887589
129	0xbe0edda1	-0.13951732
130	0x3e491d18	0.19640005
131	0xbda1e73b	-0.07905432
132	0xbd59798e	-0.05309444
133	0xbce02875	-0.027363041
134	0x3dc232e3	0.09482362
135	0xbe4b7a89	-0.19870962
136	0x3d9dae5b	0.07699271
137	0x3e2d6bc6	0.16935644
138	0xbdcfa5ef	-0.10139071
139	0x3dee3c2a	0.11632569
140	0x3e429910	0.19003701
141	0x3ec769cd	0.38947907
142	0xbd9f1138	-0.07766956
143	0x3e2f4d82	0.1711941
144	0x3cc3a5a6	0.023882698
145	0xbc8aa027	-0.01692207
146	0xbe103e3f	-0.14086245
147	0x3e2a0bec	0.1660611
148	0x3dd71c86	0.10503487
149	0xbdb66194	-0.0890533
150	0x3ca1d68c	0.019755624
151	0x3e1c34a2	0.15254453
152	0x3bd8146e	0.0065942323
153	0xbcdbb0a0	-0.02681762
154	0x3d381a83	0.04494716
155	0x3c789e2c	0.01517443
156	0xbdb6304a	-0.08895929
157	0x3e343d10	0.17601418
158	0xbd5f1243	-0.054460775
159	0xbe1162e6	-0.14197883
160	0xbc01fbc5	-0.007933562
161	0xbe00739b	-0.125441
162	0xbd7467cb	-0.059669297
163	0xbea0e971	-0.31428102
164	0x3ce5d412	0.028055225
165	0x3de96913	0.113969944
166	0x3e31c328	0.17359602
167	0xbe865203	-0.26234445
168	0xbe3111b9	-0.17291917
169	0x3d8441d8	0.06457871
170	0x3ce1d001	0.027565004
171	0x3d12fee1	0.035887603
172	0xbd16d1e5	-0.036821265
173	0xbd9a85fd	-0.075450875
174	0xbe1d48d5	-0.15359814
175	0xbd4b3eed	-0.049620558
176	0xbd99c2b4	-0.0750784
177	0xbc82a47e	-0.015947577
178	0xbdd54608	-0.10413748
179	0x3e178a24	0.1479879
180	0x3e6accd1	0.22929694
181	0xbd0fa08e	-0.035065226
182	0x3de3b035	0.11117593
183	0xbd9f90b6	-0.07791273
184	0xbca86665	-0.020556638
185	0x3d71d96d	0.059045244
186	0x3dc249f2	0.0948676
187	0xbbe28609	-0.006912951
188	0xbdf1948f	-0.117959134
189	0x3da33421	0.07968927
190	0xbdc0ed2e	-0.094202384
191	0x3e0cc1a6	0.13745746
192	0x3d0cce79	0.034376595
193	0xb82c19d0	-4.1032035e-05
194	0x3e21a9d6	0.15787444
195	0xbd914892	-0.0709392
196	0x3dd565e3	0.10419824
197	0xbe5da9fe	-0.21646878
198	0x3d833099	0.06405754
199	0x3d4a1be2	0.049342997
200	0x3db1c193	0.086794995
201	0x3cf429f9	0.02980517
202	0x3dbdf78f	0.09275734
203	0x3c032c13	0.008006114
204	0xbd89ecff	-0.067346565
205	0xbe8315c5	-0.25602546
206	0x3d83f5d8	0.06443375
207	0xbe184c13	-0.1487277
208	0xbb7b9f8e	-0.0038394663
209	0xbcb159bf	-0.02164924
210	0x3e907e25	0.2822124
211	0xbd3fd8f1	-0.04683775
212	0x3e1fb9a9	0.15598167
213	0x3e350f51	0.17681624
214	0x3d6fb156	0.05851873
215	0xbd2d9483	-0.04237796
216	0x3e155d45	0.14586361
217	0xbda97d65	-0.0827587
218	0x3d24e1ed	0.040254522
219	0xbe172237	-0.14759146
220	0xbd4e0292	-0.05029542
221	0x3e81be01	0.25340274
222	0x3e347933	0.17624359
223	0x3e8fd5ae	0.28092712
224	0xbe864c6a	-0.26230174
225	0x3c0d7ee1	0.008636207
226	0xbc9a064a	-0.018801827
227	0x3d6e3197	0.05815276
228	0x3e17b576	0.14815316
229	0xbe0715f7	-0.13191973
230	0x3d602a61	0.054727916
231	0xbddf2454	-0.10895601
232	0x3e8dd9c1	0.27705196
233	0x3d513877	0.05107924
234	0xbd1b14d8	-0.037861675
235	0x3e22bc21	0.15892078
236	0xbe0514aa	-0.12996164
237	0x3dd0293e	0.10164116
238	0xbc8f0d6a	-0.017462451
239	0x3d682069	0.056671534
240	0x3e4ac047	0.1979991
241	0xbe431d38	-0.19054115
242	0xbd3cc816	-0.046089254
243	0x3ca3c83d	0.019992942
244	0x3cab1c6f	0.020887582
245	0x3dd2e659	0.102978416
246	0xbddfd25c	-0.10928795
247	0x3d4a83cb	0.049442094
248	0x3d3429be	0.04398512
249	0x3d015b32	0.03158111
250	0x3e220de4	0.15825611
251	0xbe370128	-0.17871535
252	0x3b3e69aa	0.002905468
253	0xbd893d1b	-0.06701108
254	0xbd7be07c	-0.06149338
255	0xbc4f1336	-0.012638858

network_body._body_endoder.fc.bias f4 [128]
0	0xbdaeb00f	-0.08529674
1	0x3b7a8847	0.00382282
2	0x3d83a870	0.06428611
3	0xbd4069a2	-0.04697574
4	0x3df2a647	0.11848121
5	0x3d468283	0.04846431
6	0xbdf932dd	-0.121679045
7	0xbdb20ccd	-0.08693848
8	0xbc90a313	-0.017655885
9	0x3e403675	0.18770774
10	0x3d793a1a	0.060846426
11	0xbdd41016	-0.10354631
12	0x3cc7dfab	0.024398645
13	0xbc33d55e	-0.010976164
14	0xbb2d42bc	-0.0026437482
15	0xbe21bc31	-0.15794446
16	0xbd9a5221	-0.07535196
17	0xbbe1f264	-0.0068953503
18	0xbd835c1e	-0.06414054
19	0x3e33379d	0.17501684
20	0xbd3d1b0d	-0.046168376
21	0x3c898e64	0.01679153
22	0x3dc09e1a	0.094051555
23	0xbe0a79a7	-0.13522969
24	0xbc2a1fe8	-0.010383584
25	0xbd915e51	-0.070980676
26	0xbe133836	-0.14376912
27	0x3d84579a	0.06462021
28	0x3c656329	0.014000692
29	0x3d56fde6	0.05248823
30	0x3d31bb30	0.043391407
31	0xbd302a67	-0.043009188
32	0xbba4958a	-0.0050227093
33	0x3d1dffdc	0.038574085
34	0xbe5fc291	-0.21851565
35	0x3d7860ae	0.060639076
36	0x3cbc4929	0.022984104
37	0xbe16f209	-0.14740767
38	0xbdac73c1	-0.08420516
39	0xbd9ff58c	-0.07810506
40	0x3cd3c493	0.02585057
41	0xbd9ba820	-0.07600427
42	0x3c8f33f1	0.017480822
43	0xbc65e54a	-0.014031718
44	0x3e38d52a	0.18050066
45	0x3e066b79	0.13126935
46	0x3d0ad6ab	0.03389613
47	0xbe003b22	-0.12522557
48	0xbcfe87ac	-0.031070553
49	0xbce2a685	-0.027667293
50	0x3dd7b57b	0.105326615
51	0x3dbdd86c	0.09269795
52	0x3e28f0a9	0.16498055
53	0xbdd9ece9	-0.1064089
54	0xbdb1226f	-0.08649146
55	0xbe6bb433	-0.2301796
56	0x3ccad925	0.024761746
57	0xbcd90701	-0.026492598
58	0x3e45be79	0.19310941
59	0x3da6c6ab	0.08143362
60	0x3d5d00f9	0.053956006
61	0xbe01a0c6	-0.12658986
62	0xbde26c7e	-0.110558495
63	0x3d263121	0.040574197
64	0xbdae5472	-0.085122004
65	0x3c7a9308	0.015293844
66	0x3dd69807	0.10478216
67	0xbd16c470	-0.03680843
68	0xbd81c618	-0.063366115
69	0xbd3c28a3	-0.04593719
70	0xbc57faa8	-0.01318232
71	0x3e0a978d	0.13534375
72	0xbc9d1a22	-0.0191775
73	0x3d2ae0d0	0.041718304
74	0x3d283776	0.041068517
75	0xb957cdba	-0.00020580637
76	0x3d2a4666	0.041571043
77	0xbe387240	-0.18012333
78	0xbc7257a5	-0.014791404
79	0x3e45391c	0.19260067
80	0x3d9ca6a8	0.07648975
81	0x3bf375c5	0.0074298107
82	0x3ca55c1e	0.020185526
83	0x3dbdc311	0.092657216
84	0xbba44a82	-0.005013765
85	0x3df1af95	0.11801068
86	0x3c3c35e9	0.011487463
87	0xbe2b7190	-0.1674254
88	0xbdac1dcd	-0.084041215
89	0x3d73f16e	0.059556417
90	0x3d06898f	0.03284603
91	0xbc1c72cf	-0.009548857
92	0xbd0041fe	-0.031312935
93	0x3c41e435	0.011834194
94	0x3dcb1488	0.099160254
95	0xbdf446d8	-0.11927575
96	0xbe41883e	-0.18899629
97	0x3e18cf46	0.14922819
98	0x3db6b6e5	0.08921603
99	0xbafbfbe2	-0.0019224847
100	0x3cc0f699	0.023555087
101	0x3e0797cc	0.132415
102	0xbc94fe3e	-0.018187638
103	0x3b0782ce	0.002067733
104	0x3d03e4e4	0.03220071
105	0x3e4d9601	0.20076753
106	0x3da28343	0.079351924
107	0x3de134a7	0.10996371
108	0x3e068393	0.13136129
109	0xbe279ac4	-0.16367632
110	0xbdd1b4f5	-0.10239593
111	0xbdd2ba2f	-0.10289418
112	0x3d06eea6	0.032942437
113	0xbda582e1	-0.08081604
114	0x3d7f63e1	0.06235111
115	0x3e5e63c0	0.21717739
116	0x3e047ba2	0.12937787
117	0xbe049fa4	-0.12951523
118	0xbd62be36	-0.05535718
119	0x3da30855	0.079605736
120	0x3d1b2f79	0.03788707
121	0xbd872de6	-0.06600551
122	0xbd29950b	-0.041401904
123	0x3954dbfc	0.00020299846
124	0xbe4a8ded	-0.19780703
125	0x3e32ef32	0.17474058
126	0x3d9b9644	0.0759702
127	0xbdd21fb8	-0.10259956

action_model._continuous_distribution.log_sigma f4 [1, 2]
0	0x4023410a	2.5508447
1	0x401de0f1	2.4668543
