Assets/oon/final_0.onnx (onnx, 576453 bytes, 76 tensors)

network_body.observation_encoder.processors.0.model.residual.weight f4 [16, 16, 1, 1]
000000 65 c8 75 be b7 17 a0 3d 2a ac 1e 3e f1 6d e8 bd
       -0.24002226 0.07817023 0.15495363 -0.11349095
000010 af c3 37 3e 6a f9 e6 3d 16 b5 c3 bd 61 22 29 be
       0.17945741 0.11278041 -0.09556024 -0.16517021
000020 6b 9d 2a be 50 3a a3 3d 54 11 04 bd bf d5 83 be
       -0.16661613 0.079701066 -0.032243088 -0.25749013
000030 42 af 85 bc ff ee 67 3e 0f 66 e1 bd 4e 74 0f 3e
       -0.016318921 0.22649764 -0.11005794 0.1400921
000040 fa 69 81 be a7 b3 64 3e 2e e5 95 bd 4a 1e 12 3e
       -0.25276166 0.22334157 -0.07319103 0.14269367
000050 31 12 c5 bd b7 9a 6d be 8d fa 06 be b1 f4 4f be
       -0.0962261 -0.2320355 -0.13181515 -0.20308186
000060 b7 9b f4 3d 1c 67 61 3e 27 7d 7b 3c c8 62 8f be
       0.11943763 0.2201199 0.015349663 -0.28005052
000070 50 2d 30 3e 3c 38 05 3e bf 7e 3c be e1 f3 8b bd
       0.17204785 0.13009733 -0.18407725 -0.068336256
000080 1e c4 2e be 27 af 7c 3e ca 0b ec 3d 42 11 6e bd
       -0.17067 0.2467619 0.11525686 -0.058121927
000090 48 fd c3 bd 11 64 2d 3e 92 fe 76 bd e7 47 88 bd
       -0.09569794 0.16932704 -0.06030137 -0.06654339
0000a0 57 28 24 be 1d 45 39 bd e2 62 e9 3d 71 c3 b5 bd
       -0.16031013 -0.045231927 0.113958135 -0.08875168
0000b0 e1 84 39 3d a7 aa 53 3e 78 6b 25 3c 98 ac aa 3d
       0.04529274 0.20670567 0.010096423 0.08333701
0000c0 41 20 52 3e 63 8c 9c be 5f 56 66 be 1b ac 0d be
       0.20520116 -0.30575857 -0.22493885 -0.13835184
0000d0 de 95 2b be 42 a7 ae 3e 0a cb a8 3e 22 ef 9e be
       -0.16756389 0.34111983 0.32967407 -0.3104182
0000e0 df 89 d0 3c 88 e5 9f 3c 99 60 c2 bd 29 44 a3 3e
       0.025456367 0.019518629 -0.09491081 0.3188794
0000f0 b0 dd 12 be 8f 4a 4c be 40 c0 6a bd 3f 39 e5 bd
       -0.1434238 -0.19950317 -0.05731225 -0.111925595
000100 3a 35 5c be 63 06 a2 3e 95 9d 03 bc a0 13 ac 3c
       -0.2150468 0.31645498 -0.008033176 0.021005452
000110 cb 83 e3 bd da 03 8d be a1 ee 4e be 42 f0 83 3e
       -0.11109122 -0.27542 -0.20208217 0.2576924
000120 4c f7 17 be 15 f4 69 bd b9 02 0d be f7 87 6d be
       -0.1484043 -0.05711754 -0.1377057 -0.23196398
000130 c2 d3 0f be 96 74 df 3d a1 cc 01 3e a7 ec 83 3e
       -0.14045623 0.10910909 0.12675716 0.2576649
000140 4c f9 32 be 27 e6 22 3e 74 bf 38 3e 37 33 81 3e
       -0.17477912 0.15908109 0.18041784 0.25234386
000150 76 26 a3 bd 2d f9 65 3d 2f 90 8a be b4 8b 2f 3e
       -0.0796632 0.056145836 -0.27063128 0.17143136
000160 f9 9a 0a be 93 f0 b7 3c 10 3c 06 be 7b d1 7a be
       -0.1353568 0.022453582 -0.1310885 -0.24493973
000170 38 5e 82 3d c9 a2 14 3d ae cc 9b bd b9 6f 5a 3e
       0.06365627 0.036288057 -0.07607399 0.21331681
000180 84 71 87 bd a6 ef c4 bd e1 71 2a 3e 2e 3e c9 3d
       -0.06613448 -0.09616022 0.16645004 0.09826313
000190 fe f7 3e be 07 60 eb bd 15 99 a3 bd 86 82 52 3e
       -0.18649289 -0.11492925 -0.079881825 0.20557603
0001a0 ad df 92 3d 5e 81 c9 bb 48 ee ef bd e6 b8 bc 3d
       0.07171569 -0.006149455 -0.117153704 0.09214954
0001b0 c3 2f b2 3b 76 a9 64 be 5c 47 9d bd f7 d5 24 be
       0.0054378225 -0.22330269 -0.07679626 -0.16097246
0001c0 08 b9 0c bc 2d 86 ac bc cb cb 59 3e 93 36 2c 3c
       -0.008589037 -0.021060074 0.21269147 0.010511058
0001d0 32 6b 79 3e a0 2c 99 be 21 9f 53 be 8e 93 c7 3d
       0.24357298 -0.2991686 -0.20666172 0.09744941
0001e0 d6 36 24 be 7f 05 5f 3e 9b e3 98 bd 06 dd 74 bd
       -0.16036543 0.2177944 -0.07465287 -0.059781097
0001f0 43 69 67 3e 40 7d 19 3e b8 59 89 be 4a fa 95 bd
       0.22598748 0.14989185 -0.26826262 -0.073231295
000200 ac 09 c7 3b 91 52 b7 bb fd 75 0e bd ea 69 8a be
       0.006074151 -0.0055945595 -0.03478049 -0.2703393
000210 15 57 06 3e 6a 7a 8a 3e 0c 93 5c bd de f9 14 be
       0.13119157 0.2704652 -0.053851172 -0.14548442
000220 2e 09 67 be f5 f2 e1 3d f7 37 0b be d0 26 50 be
       -0.22562096 0.110326685 -0.13595568 -0.20327306
000230 c0 79 35 3c 95 dd 21 3e 46 68 af 3c 09 1e e7 bb
       0.011076391 0.15807183 0.021412026 -0.007053141
000240 db d8 65 3e d5 ec 99 3d f5 b0 21 be 97 c7 dc bd
       0.22446005 0.07515875 -0.1579016 -0.10780256
000250 2d b5 90 bc 12 a9 a1 3e 04 48 22 bd 8b e8 89 be
       -0.017664516 0.31574303 -0.03961946 -0.2693523
000260 47 31 82 be 55 51 9b 3d c0 48 6d be 9d c3 3d 3e
       -0.2542822 0.07583872 -0.23172283 0.18531652
000270 ad c8 25 be ea d9 70 be 59 3a 12 3e 15 d4 26 3e
       -0.16189833 -0.23520628 0.1428007 0.1629184
000280 2f 42 31 3e af e0 87 be 48 ff 08 3e e8 70 81 bc
       0.17310403 -0.26538607 0.13378632 -0.015800908
000290 ad 24 e3 3d ef b0 3b bd b2 17 da 3d ea e5 9d bd
       0.1109098 -0.045823034 0.10649051 -0.07709868
0002a0 bf 46 af 3b 69 20 17 3d 79 14 46 be ba 03 87 3e
       0.0053490098 0.036896143 -0.19343747 0.2637003
0002b0 db 3d fc 3d d2 6b 87 bd c2 9e 1d 3e aa cf 66 3d
       0.123164855 -0.06612362 0.15392593 0.056350388
0002c0 d3 15 03 3e ab bd 5e be d1 a1 91 be 98 f3 47 be
       0.12801294 -0.2175204 -0.2844377 -0.19526517
0002d0 1e 7d 69 be 99 e3 0e 3d eb 1b c9 bb 9a c4 ee 3c
       -0.22801635 0.034885023 -0.0061373613 0.029146481
0002e0 26 d6 d2 bd 40 cf 5f 3e a3 44 b2 3d ce 1b 52 3e
       -0.10294752 0.21856403 0.08704498 0.20518419
0002f0 0c 31 8e be 04 0a a3 bc b8 e2 98 3e f2 01 17 be
       -0.27771795 -0.019902237 0.29860473 -0.14746836
000300 cc 7c 09 3d 90 5e db 3d 21 97 e7 bc 38 48 0d 3c
       0.03356628 0.10711396 -0.028270306 0.008623175
000310 e4 ee 07 be 21 1b 91 3e c3 32 fc 3d 96 76 fe bd
       -0.13274723 0.2834101 0.123143695 -0.12424962
000320 62 a5 d0 bd 84 3c 38 3e fe 5c 65 be 81 43 ac bc
       -0.10187794 0.17991835 -0.22398755 -0.021028282
000330 c2 af 76 be 98 5b 05 3e a7 e2 cb bd e4 7d 2b 3e
       -0.24090484 0.13023221 -0.0995534 0.16747242
000340 e8 b5 02 be 23 3c 23 be e6 70 7a 3e f5 8c 68 3d
       -0.12764704 -0.15940909 0.2445713 0.056775052
000350 87 fa 4d 3d 4c a1 b2 3c 21 ce 41 be 49 6b 49 be
       0.05028775 0.021805428 -0.18926288 -0.19669832
000360 de 49 73 3e f9 e8 6b be 93 f0 86 bd 72 7a 94 3d
       0.23758647 -0.23038091 -0.06588855 0.07249917
000370 51 9e 29 3d d0 fa 82 3e 4c ab 98 be aa b1 d3 bd
       0.041410748 0.2558198 -0.2981819 -0.10336621
000380 68 62 ec bd 65 d4 24 3e c3 cc 31 be 55 22 79 3c
       -0.11542207 0.16096647 -0.17363267 0.015205939
000390 b3 29 86 3e a0 3e 98 be 9e fb 18 3e f3 92 ae bd
       0.2620369 -0.2973528 0.14939734 -0.08524122
0003a0 22 2b a6 bd a7 c2 00 3d 20 d5 4a 3e 36 f1 bf bd
       -0.08113696 0.031435635 0.19807863 -0.09372179
0003b0 b4 f4 e5 3c 2e 4f 15 be 07 92 a9 3d a8 09 af 3d
       0.028070785 -0.14580986 0.08279806 0.08546764
0003c0 6c 93 71 be 44 b7 5a 3e 91 50 7e 3c 3e de d5 bd
       -0.23591393 0.21358973 0.015522138 -0.1044278
0003d0 a0 8d aa bc 55 31 4e be 29 dd 5d be d4 3a 1a 3e
       -0.020819485 -0.20136006 -0.21666397 0.15061504
0003e0 f7 be 14 3d 28 42 0f 3e 89 11 1f 3e 1b 28 41 bd
       0.03631493 0.1399008 0.15534033 -0.04715739
0003f0 aa c9 90 bd 29 3a 14 be 3e e9 bc bd fa 5b 57 3e
       -0.07069714 -0.14475311 -0.09224175 0.2103118

network_body.observation_encoder.processors.0.model.residual.bias f4 [16]
000000 85 4a 80 3d f6 45 2b 3e 4f 14 03 3e e2 80 a1 3b
       0.062642135 0.16725907 0.12800716 0.004928694
000010 c3 cc 54 3e 9f 8b e9 3d a3 13 27 3e 79 10 4b 3e
       0.20781235 0.11403584 0.16316085 0.19830503
000020 e9 6f a0 3d 9e 73 75 be 61 33 21 bd f1 89 81 3e
       0.07833845 -0.23969886 -0.03935564 0.25300553
000030 d3 7f 79 3e 90 60 e5 bd e4 8a 10 3e 01 93 7b be
       0.24365167 -0.112000585 0.14115483 -0.24567796

network_body.observation_encoder.processors.0.model.final_conv.weight f4 [2, 16, 1, 1]
000000 9b 65 8f 3e 67 f3 74 3e 4d 0e 63 3e b0 86 b7 be
       0.28007206 0.23920976 0.22173424 -0.35844946
000010 f0 2c 82 3e d7 6f 04 3e 4f 4a 8b 3d b7 c8 0e 3e
       0.2542491 0.12933289 0.068012826 0.13943754
000020 65 35 9f be 6a 16 9b bd b3 db b5 be 8e a5 a9 bd
       -0.31095424 -0.075726345 -0.3551918 -0.0828353
000030 36 7d 78 be 0b 14 98 3e 18 e5 c2 3d e1 da 6a 3d
       -0.24266514 0.29702792 0.095163524 0.057337645
000040 42 d2 95 3d 46 4a 4d 3d fe 40 ef bd c0 82 d1 3d
       0.07315494 0.05011966 -0.11682318 0.10230017
000050 ea fc 56 be 55 5b 67 be d1 54 35 3d 45 98 02 be
       -0.20994917 -0.22593434 0.04427034 -0.12753399
000060 46 9d 7f 3e 87 a4 90 3e ea 89 24 3e 88 69 51 3e
       0.24962339 0.28250524 0.16068235 0.20450413
000070 61 5c c9 bc 13 0c a4 bd b7 d4 7f be 43 8b 66 be
       -0.024580183 -0.080101155 -0.24983488 -0.22514062

network_body.observation_encoder.processors.0.model.final_conv.bias f4 [2]
000000 d9 cd a3 3d e2 62 18 3e
       0.07998247 0.14881471

network_body.observation_encoder.processors.1.fc.seq_layers.0.weight f4 [22, 22]
000000 31 71 45 be 96 50 2b 3f 97 38 ae 3d a2 ca a5 3e
       -0.1928146 0.6691984 0.085068874 0.3238116
000010 47 1f e9 3d a0 a4 9c bc 21 17 9e 3d d7 54 73 be
       0.11382919 -0.019121468 0.07719255 -0.23762833
000020 80 cf a4 bd e9 ce 3d 3e fe ae c2 be 99 ac 05 bc
       -0.0804739 0.18535961 -0.38024133 -0.008158826
000030 da 1c 88 bd 4c 47 01 3e 63 60 94 3c 16 5a 83 3e
       -0.06646128 0.12624854 0.018112367 0.25654668
000040 4a 05 36 be b9 fa 81 bd 1f 3b 2f be 53 ff cd be
       -0.17775455 -0.0634665 -0.17112397 -0.4023386
000050 3f 63 87 3e 1e 18 44 3e 75 af 91 be b1 50 d8 bd
       0.26442906 0.19149825 -0.28454176 -0.10562266
000060 cc 88 85 bd df 45 ee 3d 14 9d 2e be 9b c5 52 be
       -0.065202326 0.116344206 -0.17052108 -0.20583193
000070 0d c6 60 be ef ee ef bd a8 3d f9 3d 3b ed b1 be
       -0.2195055 -0.11715495 0.12169963 -0.34751305
000080 87 f7 75 3d 2f 72 ea bd ff 07 64 bc a6 2f c1 bd
       0.060050514 -0.1144756 -0.013917922 -0.09432916
000090 de ad 0f bd fe 5b 3a bf cb c3 3a 3d cb 37 8a 3d
       -0.035077922 -0.7279662 0.04559688 0.06748923
0000a0 14 01 93 3e 9b 2e 5e 3e 16 a6 90 be 9f b2 b8 bd
       0.2871176 0.21697466 -0.28251714 -0.09018444
0000b0 09 79 e6 3e 90 07 52 3b 1c 2f 80 be ef 6e 96 be
       0.45014217 0.0032047965 -0.25035942 -0.2938151
0000c0 a8 13 40 3a 05 87 68 3e 3b 0c da bd 3e fb 37 3e
       0.0007327148 0.22707756 -0.10646864 0.17966935
0000d0 3f 29 fd 3d 30 88 7e 3e 46 aa bf 3d 72 ff 4e be
       0.12361383 0.24856639 0.09358649 -0.20214632
0000e0 93 53 57 3e 91 ea d1 bb 1a 15 b9 bd f6 46 cc 3e
       0.21027975 -0.0064061363 -0.09037228 0.3989789
0000f0 03 16 c0 3d 8d a2 77 bc 6e 44 8f 3e ca f4 55 3e
       0.093791984 -0.015114439 0.27981895 0.20894161
000100 61 35 80 bd bb e4 13 3e 2e 1f 0d be 57 c7 30 bc
       -0.06260181 0.14442722 -0.13781425 -0.010789714
000110 b5 e4 d8 3d 93 56 02 bd f0 e3 bd 3e cd f0 e2 be
       0.105904974 -0.031820845 0.37087965 -0.4432434
000120 fb fb 89 bd b3 0e b7 be b0 8a 39 be 22 5b be bd
       -0.067375146 -0.35753402 -0.18119311 -0.09294726
000130 12 5d 89 3e ac 7c 0c 3e 92 3f c6 b9 62 3c 2b be
       0.2682882 0.13719434 -0.00037812867 -0.16722253
000140 ed 1f 5d 3e 2c b6 45 be 30 4f 81 be 78 60 3f be
       0.2159421 -0.19307774 -0.25255728 -0.18689144
000150 ff 88 15 3e e7 dd e4 3d 8f 13 df bd 39 50 6d be
       0.14603041 0.11175137 -0.108924024 -0.23175134
000160 7f db d9 3c e3 08 06 be ca 89 29 3d 3c b4 ee bc
       0.026593922 -0.13089328 0.04139117 -0.029138677
000170 82 0f e3 be 3a fd 2e 3e 83 c6 b8 bd 77 61 5f 3e
       -0.4434777 0.17088786 -0.09022238 0.21814524
000180 95 93 b1 3e 06 c2 c7 3d c3 7e 56 3e bc a4 f5 bd
       0.3468291 0.09753804 0.20946793 -0.11994311
000190 e3 cc 8e be 48 97 45 3c c4 83 83 be 16 ff 15 be
       -0.2789069 0.012059994 -0.25686467 -0.14648089
0001a0 75 3f 94 3d 22 71 ca 3d 2b 1c 69 be 6f e0 c2 bd
       0.07238666 0.098848596 -0.22764651 -0.095154636
0001b0 19 bd 27 be 94 42 be bd d6 9b 02 3d 06 43 8a 3d
       -0.16380729 -0.092900425 0.031886898 0.06751065
0001c0 bb c3 17 3e 8f e5 58 3d 24 98 95 be c7 0e 6c bd
       0.14820759 0.0529533 -0.29217637 -0.05763128
0001d0 83 f0 b5 3e e5 62 08 be 04 45 b3 bd 4d 80 33 be
       0.35535058 -0.13318975 -0.08753398 -0.17529412
0001e0 a3 30 bc bc 4e 3d 98 bd d9 e9 c3 3c f7 c9 65 3e
       -0.02297241 -0.07433568 0.023915218 0.22440325
0001f0 e5 42 d2 bd 47 e4 28 be 5f 87 0b be 13 41 59 be
       -0.10266665 -0.16493331 -0.13625859 -0.2121623
000200 64 dd 32 3a 88 a7 4c 3e c2 22 34 bd 43 dc d9 3d
       0.0006823151 0.19985783 -0.04397846 0.10637715
000210 d8 2c e4 3d 5e b6 41 be 46 08 cc be 22 c0 8e 3e
       0.11141366 -0.18917224 -0.39850062 0.2788096
000220 e5 ab 8d 3d d0 92 1d bd 24 b7 89 bd f3 96 9a be
       0.06917552 -0.03847009 -0.067243844 -0.3019329
000230 7b 9a 5d be a2 ee 72 be 54 9b 1c 3e 1e f3 cb 3c
       -0.21640961 -0.23723844 0.15293628 0.0248962
000240 1b 0f 37 be bf 4b 44 bd ec 46 9a be ab 97 cc 3d
       -0.17876856 -0.0479238 -0.30132234 0.09989866
000250 cd 87 6a be 57 a4 b3 bd 54 38 7b bc 1f 59 71 3e
       -0.22903366 -0.0877158 -0.015333254 0.23569153
000260 63 26 c5 3b b4 e4 17 3e 0a d9 b9 3a 27 35 c2 3e
       0.006016539 0.14833337 0.0014179063 0.37931177
000270 b4 c0 d0 be fd ea 31 bd e1 3a 02 3e e9 e2 25 be
       -0.4077202 -0.043436993 0.12717773 -0.1619984
000280 95 33 3e 3c eb b8 89 3e 5f ea 87 3e fd 0d 73 3e
       0.011608978 0.26898894 0.26545998 0.23735805
000290 aa 7c 1b be 7e 0c be 3c b2 da ba 3e 00 b3 20 be
       -0.15184274 0.023199316 0.36494976 -0.15693283
0002a0 cc 53 05 be d8 78 92 bd b3 2f b8 3e 88 c3 e3 be
       -0.13020247 -0.07151955 0.35973892 -0.44485116
0002b0 4d b2 6a 3e 9b a6 94 be 72 6b 96 3d 73 95 03 be
       0.22919579 -0.2903336 0.07344712 -0.12849979
0002c0 f6 08 68 be d1 9f bd 3d 13 0e 75 3c fc 65 0d be
       -0.22659668 0.09258998 0.014956969 -0.13808435
0002d0 50 5d 76 bd d7 44 02 3c ec dc ab 3d 16 01 a4 3d
       -0.060147583 0.007950983 0.08391747 0.080080196
0002e0 6a 72 c2 bd 24 29 62 be 06 69 40 3e 4e d1 09 3f
       -0.09494479 -0.22086006 0.18790063 0.53835
0002f0 f0 05 e1 3d 25 cb bb 3d 0c 21 8c be 64 1d 3d 3e
       0.109874606 0.09169606 -0.27368963 0.18468243
000300 22 6c 60 3d 36 d1 a0 3e 97 e1 c3 bc fa 64 21 be
       0.054790623 0.31409615 -0.02391128 -0.15761176
000310 84 c4 15 be 50 87 8c 3e 6e f9 4f be 4b fe a7 3e
       -0.14625746 0.27446985 -0.20309994 0.32811198
000320 06 16 49 bd 93 b3 35 3e 60 3c 0f 3e 85 10 b6 3d
       -0.04909327 0.17744283 0.13987875 0.088898696
000330 c2 ef a6 be be 9d b4 3d 2b 1c b2 3d f7 c8 9b 3e
       -0.32604796 0.088191494 0.08696779 0.30426762
000340 d3 a3 21 be 99 ce 03 3e cc 65 15 be 01 87 9e 3e
       -0.1578515 0.1287178 -0.14589614 0.30962375
000350 47 6b 4a be 90 ac 40 3d 67 62 11 3e de 1e 64 be
       -0.19767486 0.04703957 0.14197694 -0.222774
000360 07 33 8d 3e ab a9 5f 3e 00 48 db bd e6 ef 79 3e
       0.27577993 0.21842067 -0.10707092 0.2440792
000370 66 92 39 3e 82 69 17 be 5b c9 43 be 71 dd b1 be
       0.18122253 -0.14786342 -0.1911978 -0.3473926
000380 06 a6 90 3e 55 ff 29 3e 79 a1 b8 3d de 61 84 be
       0.28251666 0.16601308 0.090151735 -0.25855917
000390 a9 68 1f 3c 9a 84 5a 3e f3 49 c4 bd 33 0d 0c 3d
       0.009729543 0.21339646 -0.09584417 0.034192275
0003a0 f3 84 a7 3d 65 2b a3 bb f8 53 d3 3e 60 41 83 be
       0.08179655 -0.0049795383 0.41275 -0.25635815
0003b0 59 ec 83 bd 89 42 bd bb 47 e8 08 be 78 d9 98 3e
       -0.06441564 -0.005775754 -0.13369857 0.29853415
0003c0 6c 2d 0f be dc d3 ac be 7d a4 41 3e 4f 56 8c be
       -0.13982171 -0.33755386 0.18910404 -0.27409598
0003d0 8e ce b3 3e ab b2 0c 3e 75 89 0a 3d 41 ff 8e 3c
       0.35118526 0.13740031 0.033822495 0.017455699
0003e0 c2 ae 1b 3e d9 dc aa bc c2 c9 8b 3e c4 db 01 be
       0.15203384 -0.020857261 0.27302366 -0.1268149
0003f0 db 54 16 3e 0d 0d 31 bd 7b 6a 4b 3d a9 78 94 3d
       0.14680807 -0.043225337 0.049662095 0.072495766

network_body.observation_encoder.processors.1.fc.seq_layers.0.bias f4 [22]
000000 63 f5 b7 3c 5c 79 5e 3c 90 0a bf bc fd b8 69 bb
       0.022455877 0.013578739 -0.023320466 -0.003566324
000010 a6 fe 98 bc 76 d7 e5 bc f7 cf ec bc 91 9c a1 3c
       -0.018676113 -0.028056841 -0.02890776 0.019727977
000020 b7 5a 32 bc 5e e7 ee bb 89 03 23 3d 62 cc 05 bd
       -0.010885886 -0.0072907647 0.039798293 -0.032665618
000030 c8 8c 2f 3c 1c 89 a3 3b 73 cf 84 3c f2 2f e8 bc
       0.010714717 0.00499071 0.0162122 -0.028343175
000040 56 c1 28 bc 69 46 c0 ba 0b 6b 02 bb 9a 73 e6 bc
       -0.010300001 -0.0014669421 -0.0019900228 -0.028131295
000050 97 c5 de 3b 00 45 68 3c
       0.006798457 0.014176607

network_body.observation_encoder.processors.1.fc.seq_layers.2.weight f4 [22, 22]
000000 8c e8 49 3c 81 e5 31 be a9 9c 50 3e ad df 10 3e
       0.01232351 -0.17372705 0.20372261 0.14147826
000010 7c dc c9 bb 7d a6 86 be 7b b7 be 3d 70 bd d0 be
       -0.006160317 -0.26298895 0.0931234 -0.4076953
000020 0d ef 9c 3d 22 95 50 bd 7d 6d 86 3e 19 3e a1 3b
       0.07662783 -0.050923474 0.26255408 0.0049207327
000030 b0 92 59 bd ba 70 9f be 0c e0 9a 3e 01 00 91 be
       -0.053118408 -0.3114069 0.3024906 -0.28320315
000040 bd 8c ef bc 15 7d c4 3e aa 13 1e 3e 77 d0 68 be
       -0.029241914 0.3837668 0.15437189 -0.22735773
000050 24 52 ef 3b fd d1 53 be a5 15 99 3d 4c 9e e6 3c
       0.007303493 -0.20685573 0.074748315 0.028151654
000060 31 91 ec 3c a4 a5 5e be 7a 17 c0 bd 32 8e 91 bd
       0.028877826 -0.21742874 -0.09379478 -0.071072
000070 57 98 fa bd 61 d3 8f 3d 9d b4 b0 be 78 3d 0b bd
       -0.12236088 0.07022739 -0.34512797 -0.033994168
000080 1c 16 16 3d 6e a6 39 bd 00 23 e7 bd 9d 34 7d 3e
       0.03664218 -0.045324735 -0.112859726 0.24727102
000090 68 33 f1 3d 05 30 c3 be 95 6f cb bd e9 f9 35 3c
       0.11777383 -0.38122573 -0.09933392 0.0111069465
0000a0 7e 4f 4d be 34 90 af 3e 70 f6 08 3d 09 c2 fa 3e
       -0.20049855 0.34289706 0.033438146 0.48976162
0000b0 a9 c4 ff 3d cb d0 5d be 52 29 2a 3e 24 63 8e bd
       0.12488682 -0.2166168 0.16617325 -0.06952503
0000c0 1a 88 c0 3e 83 1e 91 be c4 07 a3 be 78 71 f9 bc
       0.37603837 -0.2834359 -0.31841862 -0.030449614
0000d0 87 7d 96 3c cb 85 81 3e f0 33 31 3e e6 ea 81 be
       0.018370403 0.25297388 0.17304969 -0.25374526
0000e0 e8 24 a9 bd 7a d7 20 3e a5 11 22 3d a2 db eb bd
       -0.082589924 0.15707198 0.03956761 -0.11516501
0000f0 d4 ce 51 be 08 13 b9 3d b4 fd 77 bc f6 ef 3d 3d
       -0.20489055 0.09036833 -0.015136171 0.046371423
000100 18 67 35 be 1c 8f 0c 3e 5a c9 c0 bd 82 47 1e be
       -0.17715108 0.13726467 -0.09413405 -0.15456966
000110 35 a9 d2 3e cb be f7 3c 44 63 12 3e b7 18 26 3d
       0.4114472 0.030242344 0.1429568 0.040550914
000120 e9 d2 fe 3d 61 a0 8e be 1d a0 3a 3f 1b a1 46 3d
       0.12442572 -0.27856734 0.72900563 0.048493486
000130 ea 0a 6f be 5b 94 b6 bd 2a 68 df 3c e2 a8 08 bf
       -0.23344007 -0.08915015 0.027271349 -0.53382695
000140 d6 44 7b be 2d 7c 84 3e 58 ec 9e bc d2 e0 6e bc
       -0.24537978 0.2587599 -0.019399807 -0.0145799685
000150 f4 10 1b 3e 73 12 6e 3e a9 34 eb bd 49 3f 63 3d
       0.15143186 0.23249225 -0.114846535 0.055480275
000160 23 49 bb 3e 54 1a 17 3d bb 93 4a be cd 9d b5 be
       0.36579236 0.036890343 -0.19782917 -0.35471955
000170 d9 80 e6 3d 14 7c 77 be c3 db 93 3e 95 7b 14 3f
       0.112550445 -0.24168426 0.28878602 0.5800107
000180 ef ca d7 3e 0f b3 6d 3e bc 2d a0 be ec b7 3c bc
       0.42147014 0.23212837 -0.31284893 -0.01151846
000190 21 cf b8 be c1 b3 8a be 1c 73 ad 3d 69 57 80 bd
       -0.36095527 -0.27090266 0.08469221 -0.06266672
0001a0 b4 d6 81 3e aa 00 1d 3e ab 95 89 3e 8a c8 b0 bd
       0.25359118 0.15332285 0.26872 -0.08632
0001b0 5d f9 2a 3d f6 96 84 3e 8d 45 a2 3d 0e 5c 22 bd
       0.041741718 0.25896424 0.07923422 -0.03963857
0001c0 67 46 ca bd 11 95 4c 3e d3 a6 df be 61 7d e0 bc
       -0.098767094 0.1997874 -0.43681964 -0.027403535
0001d0 82 10 bc 3d 40 ed d9 bd 3c 5e ed bd b3 39 d4 bd
       0.09182836 -0.10640955 -0.115902394 -0.10362568
0001e0 ac f4 c4 3d 91 92 e9 be 0d e8 2a 3e 77 dd 87 bc
       0.0961698 -0.45619634 0.16690083 -0.016585095
0001f0 22 93 42 3e 64 10 98 be 31 29 8e be 7f 89 d2 3d
       0.19001439 -0.29700005 -0.27765802 0.102801315
000200 e9 92 15 bd 30 fb 99 3d b6 83 01 3e 9a 6a d5 bd
       -0.036517058 0.07518613 0.126479 -0.10420723
000210 13 e9 b9 3e 37 0b 87 be 0e 49 25 be 1e 4b 13 bd
       0.36310634 -0.26375744 -0.1614115 -0.03596031
000220 db ba 5b be 08 fa bc bd 33 d8 77 bc bc 4e 0c be
       -0.21457998 -0.09227377 -0.0151272295 -0.1370191
000230 cc 4d f1 bb 1a 7b c1 3c cc 18 84 3d 58 55 31 3c
       -0.0073640104 0.02361827 0.06450042 0.01082357
000240 1a c0 4a 3e 04 3e 01 bf eb 1f fe bb 36 71 0c be
       0.19799843 -0.50485253 -0.0077552698 -0.13715062
000250 d5 79 e7 bd 90 54 af 3d 7d c7 0f be 83 14 fc 3d
       -0.113025345 0.08561051 -0.14040942 0.123086
000260 44 84 d6 3e 5c ee 75 bd 28 48 94 be 9f bb c2 3e
       0.41897786 -0.06004177 -0.289613 0.3803377
000270 35 5b 15 bd ac 43 62 be bd 47 57 3e 74 3b 3e 3e
       -0.036463935 -0.22096127 0.2102346 0.18577367
000280 78 81 cb be 5d c8 2e 3e 72 94 cc bb eb 0c d0 bc
       -0.39747214 0.1706862 -0.006243282 -0.025396785
000290 67 51 b2 3e 12 1b 41 be a4 11 70 be c4 8f a9 3d
       0.3482773 -0.18857983 -0.2344423 0.08279374
0002a0 b8 c1 60 bb 5f fd 22 3c 5a 95 e7 bd 49 35 0b bc
       -0.0034295153 0.009948104 -0.113077834 -0.008496591
0002b0 f7 d7 25 be 20 fc e3 3d 79 1f 6e be 87 08 45 3e
       -0.16195665 0.111320734 -0.23254193 0.19241534
0002c0 db 9d e5 bd 5e 61 2e be 72 a4 10 be cf 84 5c 3e
       -0.11211749 -0.1702933 -0.14125231 0.21535037
0002d0 f8 cd 16 be 8d bb 84 be 5c 72 48 3e e4 b4 76 3d
       -0.14727008 -0.2592434 0.19574875 0.060231104
0002e0 f5 4e 02 3e 0e 84 01 be d4 58 a6 3e e4 a9 91 3e
       0.12725432 -0.12648031 0.32489645 0.2844993
0002f0 c8 e5 a5 bd 0d 38 e6 bc cc 25 7e bc a6 aa 57 bd
       -0.08100468 -0.028102899 -0.015511941 -0.052652977
000300 88 01 32 3e 7b 2b 3d be 46 1a 17 bc 39 f7 ed 3d
       0.17383397 -0.18473618 -0.009222573 0.116194196
000310 db 67 51 3e 09 a9 40 be e0 82 00 3f d2 37 2c be
       0.20449774 -0.18814482 0.501997 -0.16818169
000320 4d 98 62 be 33 4b 81 bd 0b 36 ad be 25 f3 b2 be
       -0.2212841 -0.06313171 -0.33830294 -0.3495113
000330 26 05 fd bd 2f 3e 1a 3d 69 73 4b 3e e9 5c 84 be
       -0.123544976 0.03765696 0.19868244 -0.25852135
000340 3e 06 1a bd 8f df 6e be 96 13 78 3e ce 54 f1 be
       -0.03760361 -0.23327468 0.24226221 -0.47135013
000350 59 81 fb 3d 09 bc 18 3e 68 ed 1d be 16 0f 87 3e
       0.122805305 0.1491548 -0.15422595 0.26378697
000360 ae d2 77 bd 92 94 8e 3e 5e de b7 be 6a 8e 01 3c
       -0.060503654 0.27847725 -0.3591184 0.007907489
000370 33 c3 0e 3e e6 4a 0d be a9 26 b4 be 61 1c 1d be
       0.1394165 -0.13798103 -0.35185745 -0.15342857
000380 6a 8a 0c 3e 0e a3 91 bd 3d 0c 92 be e6 18 bc 3e
       0.13724676 -0.07111178 -0.28524962 0.36737746
000390 cb 44 41 be 12 fa 33 3e e5 0f 59 3d fc 5a 6a be
       -0.18873899 0.17575863 0.052993674 -0.2288627
0003a0 a7 92 20 be 83 2a 2c 3e aa 1e a2 3d fb d7 db 3d
       -0.15680943 0.16813092 0.07916005 0.107345544
0003b0 f9 b6 00 3c b4 4b b2 3e da 78 10 bc 1d 87 80 3e
       0.007856124 0.34823382 -0.008817876 0.25103083
0003c0 e8 b6 01 be 73 ed 02 3f 23 c6 28 bb a4 b5 7b be
       -0.1266743 0.5114357 -0.0025752864 -0.24581009
0003d0 d5 98 80 3d db c2 bb be 22 5f e4 3e 4f 89 2e 3d
       0.062791504 -0.366721 0.4460383 0.042611416
0003e0 89 e2 67 3d 3f 47 ec 3c c5 88 52 3c 17 a8 99 3e
       0.056612525 0.028842567 0.012849991 0.30011055
0003f0 08 22 80 be 7f 51 66 be 8a ed da 3d 9c e9 1e bd
       -0.25025964 -0.22492026 0.10689838 -0.038797006

network_body.observation_encoder.processors.1.fc.seq_layers.2.bias f4 [22]
000000 9b bd 94 3c d2 b1 08 3d b8 52 a4 3c 21 e4 ad 3a
       0.018156817 0.033372708 0.020058975 0.001326684
000010 d3 6e d6 3b bc bf fc 3c bb 29 9b 3c 6b c8 a1 3b
       0.006543973 0.030853145 0.018940797 0.0049372218
000020 c0 91 7a 3d 8f 17 80 3c 62 38 42 3d b5 fa 59 3b
       0.061174154 0.015636234 0.047417052 0.0033261005
000030 53 33 97 3c bd 41 cf 3c d7 6d dd 3c d7 10 fe 3c
       0.01845709 0.025299901 0.027029915 0.03101389
000040 12 a0 7f 3c 2e af e0 3c cc 1d 0c 3d 0c 23 c4 3c
       0.015602129 0.027427282 0.034208104 0.023942493
000050 45 a9 6b 3c b8 c8 8a 3d
       0.014383619 0.06776565

network_body.observation_encoder.processors.2.fc.seq_layers.0.weight f4 [12, 12]
000000 1d cd e1 3e 16 81 ae bd 02 a8 d2 be 5d ef a2 bc
       0.44101802 -0.08520715 -0.41143805 -0.019889528
000010 fa 20 99 39 9f fc 88 be 45 75 a9 3e 83 84 a0 bd
       0.00029207004 -0.26755235 0.33097282 -0.078377746
000020 67 f0 6c 3d e7 cc b9 be 68 a1 84 be 84 c2 8c 3e
       0.057846453 -0.3628914 -0.25904393 0.27492154
000030 ed 8b 8a 3e 21 5a 20 be 81 be a5 3e a3 72 ae be
       0.2705988 -0.15659381 0.32371905 -0.34071836
000040 0a 7e 17 bf 6b c9 50 3f 7b 73 8a 3d 82 a5 05 3e
       -0.59176695 0.8155734 0.067603074 0.13051417
000050 04 17 d8 bc da f8 bf be 04 d9 25 bd 41 51 6f 3e
       -0.026378162 -0.37494546 -0.040490165 0.2337084
000060 54 c9 6f be 07 d6 92 3e da ca 0c 3f 9b 8e f1 3d
       -0.23416644 0.28678915 0.54997027 0.11794778
000070 46 8c 11 bd 8f 31 36 3e 62 2b 88 3e d4 fa c2 bd
       -0.035534166 0.17792343 0.26595598 -0.09520498
000080 28 05 9b 3d e5 c1 7f be c9 c5 12 be 57 89 16 3e
       0.07569343 -0.24976309 -0.14333262 0.14700828
000090 7f 3d 3c bd 07 79 c9 be 82 70 47 be 62 4d 30 be
       -0.045957085 -0.3935015 -0.19476512 -0.17217019
0000a0 96 91 65 3d ad e4 37 3e dc 8a 1d 3d 2f c8 65 be
       0.056047045 0.17958327 0.038462505 -0.22439645
0000b0 bb 52 bc bd 8f 3d b1 3e 10 8e ea be af 43 07 3f
       -0.09195467 0.34617278 -0.4581151 0.5283765
0000c0 11 24 2b bd d7 e8 35 3d c7 92 02 3d fa 13 a1 be
       -0.041782442 0.044411507 0.03187826 -0.31460553
0000d0 6e da 88 bd 40 bc f1 3d 67 94 c7 bb 2b 80 c0 3d
       -0.06682287 0.11803484 -0.006090689 0.09399446
0000e0 6e d6 82 3e ac 6c 97 3e 53 07 e9 3d ef 9c 1d ba
       0.25554222 0.29575098 0.1137835 -0.00060124596
0000f0 e6 55 7b 3e 11 5b 68 3e ae 0d 07 bf 19 d2 c0 3e
       0.24544486 0.22690989 -0.5275525 0.37660292
000100 45 7f cd 3c 5b ac 16 3e a2 77 b0 3d 9a f2 e3 ba
       0.0250851 0.14714186 0.08616568 -0.0017391026
000110 8b b7 b1 3c 62 00 8b be 5d 74 e2 bd 31 d9 c0 be
       0.021693965 -0.2714873 -0.11057351 -0.37665704
000120 e0 8e 92 bd 19 9b 41 bd 54 15 ec 3e 4d c7 aa bd
       -0.071561575 -0.047267053 0.46110022 -0.08338795
000130 0d a7 73 bd 30 67 7b 3d 64 8f 64 3d 8a 4c 84 3d
       -0.059485484 0.061377704 0.05580081 0.06459911
000140 ab a3 f1 3e 0d c3 eb be d4 26 b1 bd 5b 6e 0c bf
       0.4719518 -0.4604725 -0.08649984 -0.5485589
000150 52 f5 da be f0 41 dc 3e d8 31 ee 3d 30 2e cc be
       -0.4276529 0.43019056 0.11630601 -0.39878988
000160 ff 09 4c 3e 9c fc a4 3e 24 e8 1d 3e 9f 1f 85 3d
       0.19925688 0.32223976 0.15420586 0.06500172
000170 e3 3b 96 3f 0f 40 a1 3d a9 af c1 be fe 6c f8 be
       1.1737026 0.07873546 -0.3782933 -0.48520654
000180 4a dd 92 3d 2a 7e 20 bf ed e4 3a bf 88 2f 60 3e
       0.07171114 -0.6269251 -0.73005563 0.21893132
000190 59 25 94 be dd 5e 94 3d 71 80 06 3e de 2b 08 bd
       -0.28934744 0.07244656 0.13134934 -0.03324496
0001a0 b7 bb 71 3e 03 5c 49 bf 66 be a4 3d 3c 9a e3 be
       0.23606764 -0.78656024 0.08044128 -0.4445361
0001b0 52 7f 66 3e 0e f1 a4 bd 27 cb b9 be 56 2a ad bd
       0.22509506 -0.0805379 -0.36287805 -0.084553406
0001c0 2d 9f 5e be 17 17 5c be 6c b0 12 be e4 d3 ef 3e
       -0.21740408 -0.21493183 -0.14325112 0.46841347
0001d0 4b 70 17 3f 4f 5d e7 3e 4e 6a 5f be c5 0f 0b 3e
       0.5915572 0.45188376 -0.21817896 0.13580234
0001e0 44 4c 8a be 47 44 dd bd a4 db 98 be 5f 5a d7 bd
       -0.2701131 -0.108040385 -0.29855072 -0.10515284
0001f0 d5 d3 d4 3e 60 d4 bb 3d 4e 75 af 3e 33 fe e9 bd
       0.41567865 0.09171367 0.34269184 -0.11425438
000200 76 f3 82 be c9 1a 62 be 98 8a f8 bd 2c 06 67 be
       -0.2557637 -0.2208053 -0.1213581 -0.22560948
000210 26 46 7c 3e d5 51 84 be 42 fa 94 3e ad bf cb 3d
       0.24636135 -0.25843683 0.29097182 0.09948669
000220 5d 95 5c be 05 ed 42 bc 1a b8 d1 3d 5e 31 f4 bd
       -0.21541353 -0.01189733 0.10240193 -0.119234785
000230 ca 8e b4 be 62 1d 97 be 48 35 4e bc 94 1d 6e be
       -0.3526519 -0.29514605 -0.012585945 -0.2325347

network_body.observation_encoder.processors.2.fc.seq_layers.0.bias f4 [12]
000000 e9 38 dd 3c a5 70 3a 3b 7b fc 20 3d d5 c2 dc bc
       0.027004676 0.002844849 0.039303284 -0.026948372
000010 15 6c 0b 3d 8a db 42 3d 68 1c b5 3b 9d 3a e1 3c
       0.034038622 0.04757265 0.005527068 0.02749377
000020 a1 98 0e 3d 91 22 1d 3d 39 ec 54 3c 96 27 0d bc
       0.034813527 0.038363043 0.012995773 -0.008615395

network_body.observation_encoder.processors.2.fc.seq_layers.2.weight f4 [12, 12]
000000 b0 8f 3e be 7b 3c 27 bc ea dd 63 3e 5f 56 86 be
       -0.186095 -0.010207291 0.22252622 -0.2623777
000010 50 04 11 bf 9b d5 bc be d1 2d 22 bd 9c 7c 9d be
       -0.56647205 -0.36881718 -0.039594475 -0.30759132
000020 ef 76 09 3e 35 92 b6 3e a8 03 4e be 40 d1 82 be
       0.13424276 0.35658422 -0.20118582 -0.2555027
000030 e8 e7 5b bd a2 7e 57 3d e6 76 c9 be 9a 86 8e 3e
       -0.05368796 0.052611 -0.39348525 0.27837068
000040 36 55 b2 3e 8a 40 9a be e3 b3 51 be 43 0c c1 be
       0.34830636 -0.30127364 -0.20478778 -0.37704667
000050 4d 55 c6 3e ea 62 22 3f f1 ad aa 3d cd 72 7c be
       0.38736954 0.6343218 0.08333958 -0.24653168
000060 ab 7f f2 bd c0 d3 fc bd 86 31 35 3e 77 88 95 be
       -0.11840757 -0.123450756 0.17694673 -0.29205677
000070 b6 55 71 3e 5a 39 84 3d 2b 34 75 be 4f f6 ba be
       0.23567852 0.064562514 -0.23945682 -0.36516044
000080 ed 24 92 be 22 5e ef bd 6f d2 02 3f 7c 5f 21 be
       -0.28543797 -0.11687876 0.51102346 -0.1575908
000090 d6 16 85 3e 8e ad 01 3e e2 e0 c7 3e a6 b2 ec be
       0.25993985 0.12663862 0.3903876 -0.46230048
0000a0 4e f8 ae 3c 3f ad 12 bf 69 be 27 bd 75 05 19 be
       0.021358635 -0.572956 -0.040953074 -0.14943488
0000b0 7a 7f 7d bd 34 2a a8 be d3 d4 a4 be 67 0f 06 3e
       -0.06188915 -0.32844698 -0.32193622 0.13091813
0000c0 12 f9 24 3e 3a 24 ca be fb 46 8e 3e a2 32 24 bf
       0.16110638 -0.39480764 0.2778853 -0.6413976
0000d0 a4 80 4f 3d b4 df 12 3d 4d 7f 9d 3c 27 ad 81 3e
       0.05065979 0.03585787 0.01922574 0.25327417
0000e0 07 68 e6 be 0d 48 bb be 5a 95 7e be de d5 08 be
       -0.45001242 -0.36578408 -0.2486166 -0.13362834
0000f0 29 02 c5 be 79 6d 1e 3e 0a ca aa 3e 75 14 32 bf
       -0.3847821 0.15471448 0.3335727 -0.69562465
000100 63 9f bd 3e f8 cc 90 be f4 b3 5e 3e cb 25 c8 3e
       0.37035665 -0.2828138 0.21748334 0.39091334
000110 97 9d 73 be 85 82 73 be 51 9c cc 3d 72 c5 11 3d
       -0.23790585 -0.23780258 0.099907525 0.03558869
000120 57 44 7b 3e 53 e9 3e 3e 54 89 f5 be 23 9b 4e bc
       0.24537788 0.18643694 -0.47956336 -0.01261023
000130 61 6d 02 3e ce 0f 03 3f 0b ed 8c be 4e ff 64 be
       0.12737037 0.5119599 -0.275246 -0.22363016
000140 78 45 b5 3d ed b2 9b bd 33 d8 04 3d 63 d8 b2 bc
       0.08851141 -0.07602487 0.032432746 -0.021831697
000150 03 01 de 3e aa 9c 27 3e c5 ba 1f bf 05 4c 87 3e
       0.43360147 0.16368356 -0.6239436 0.26425186
000160 a2 5a 8b 3e e2 04 fd 3e 59 ca 5a 3c db 22 0a 3f
       0.27217585 0.49417788 0.0133539075 0.53959435
000170 91 51 e3 3e 6a 37 f9 3e 22 0e 40 3e b4 47 18 bf
       0.44398168 0.4867509 0.18755391 -0.5948441
000180 5e 3b 8f bc f5 44 b2 3e 89 f8 c2 be 0c 54 2a 3e
       -0.017484363 0.34818235 -0.38080242 0.16633624
000190 33 31 b7 3e 71 36 cb bd 9e 75 87 3e 2e 09 c5 be
       0.35779724 -0.09922493 0.26456922 -0.38483566
0001a0 2d 8b c6 3d c8 c7 01 3f df ff ec bc 39 f5 2a 3e
       0.096945144 0.50695467 -0.028930603 0.16695108
0001b0 39 bf 8f 3e b2 59 14 3d cc 77 fd 3e b9 2f a5 be
       0.2807558 0.036218353 0.4950546 -0.32262972
0001c0 8e 55 95 be d9 f8 ee bc b0 34 d3 3e b9 2e 00 3d
       -0.29166836 -0.029171394 0.41251135 0.03129456
0001d0 63 27 24 3e 3b 03 b3 be 77 c0 44 bd a0 4a ba 3e
       0.1603065 -0.34963402 -0.04803511 0.3638506
0001e0 ec 68 b4 bd 54 37 14 3d 90 32 a6 3e e1 cf 20 3e
       -0.08809075 0.036185578 0.3246045 0.157043
0001f0 a1 27 c8 3e b5 b7 8c be 39 cd 86 bd 00 cc 48 3e
       0.39092734 -0.27483907 -0.06582112 0.1960907
000200 35 59 a4 be 4e 16 72 3e 93 f1 50 3e 62 95 ed 3e
       -0.3209931 0.23641321 0.20404653 0.46403033
000210 f8 f5 db be 4f f5 d6 3e 18 67 23 be 61 8e 21 3e
       -0.42961097 0.4198403 -0.15957296 0.1577697
000220 7a 8c 85 3e f9 34 b6 3e 18 e6 11 bf 1b ff dc bd
       0.26083738 0.3558729 -0.5699172 -0.10790845
000230 c7 eb ba 3e 78 f1 89 be 77 2c 81 3e 89 78 64 be
       0.3650801 -0.2694204 0.25229236 -0.22311606

network_body.observation_encoder.processors.2.fc.seq_layers.2.bias f4 [12]
000000 e1 d4 2d 3d 2a 3b 97 3b 7c eb 2e 3d e9 a7 e8 3c
       0.042439345 0.004615207 0.042705044 0.028400378
000010 6a b6 5b 3d 7c d9 bb 3c cd 02 b1 3c e7 4b db 3c
       0.05364076 0.022930853 0.02160778 0.026769591
000020 d3 f9 d8 3c 01 fe 81 bb 8c 17 0b 3c cb b3 42 3c
       0.026486313 -0.003967047 0.008489501 0.011883686

network_body._body_endoder.pre_attention.query.bias f4 [52]
000000 00 00 00 00 00 00 00 00 00 00 00 00 00 00 00 00
       0.0 0.0 0.0 0.0
000010 00 00 00 00 00 00 00 00 00 00 00 00 00 00 00 00
       0.0 0.0 0.0 0.0
000020 00 00 00 00 00 00 00 00 00 00 00 00 00 00 00 00
       0.0 0.0 0.0 0.0
000030 00 00 00 00 00 00 00 00 00 00 00 00 00 00 00 00
       0.0 0.0 0.0 0.0
000040 00 00 00 00 00 00 00 00 00 00 00 00 00 00 00 00
       0.0 0.0 0.0 0.0
000050 00 00 00 00 00 00 00 00 00 00 00 00 00 00 00 00
       0.0 0.0 0.0 0.0
000060 00 00 00 00 00 00 00 00 00 00 00 00 00 00 00 00
       0.0 0.0 0.0 0.0
000070 00 00 00 00 00 00 00 00 00 00 00 00 00 00 00 00
       0.0 0.0 0.0 0.0
000080 00 00 00 00 00 00 00 00 00 00 00 00 00 00 00 00
       0.0 0.0 0.0 0.0
000090 00 00 00 00 00 00 00 00 00 00 00 00 00 00 00 00
       0.0 0.0 0.0 0.0
0000a0 00 00 00 00 00 00 00 00 00 00 00 00 00 00 00 00
       0.0 0.0 0.0 0.0
0000b0 00 00 00 00 00 00 00 00 00 00 00 00 00 00 00 00
       0.0 0.0 0.0 0.0
0000c0 00 00 00 00 00 00 00 00 00 00 00 00 00 00 00 00
       0.0 0.0 0.0 0.0

network_body._body_endoder.pre_attention.value.bias f4 [52]
000000 26 79 a5 bd 59 22 f7 bc 62 56 aa bd 86 77 57 bd
       -0.08079748 -0.030167745 -0.083172575 -0.05260422
000010 cb e9 bc bd cb ad 05 bd c0 49 59 3d 41 41 47 3d
       -0.0922428 -0.032636445 0.05304885 0.048646215
000020 e2 0c ad bc 66 ef 58 bd 1c fe 2e 3d f7 98 b0 3c
       -0.021124307 -0.052962683 0.042722806 0.021557314
000030 3b 86 5a bd b3 89 02 bd a7 12 c2 bd 5e ac 95 bd
       -0.05335067 -0.0318696 -0.09476214 -0.07308267
000040 be 63 47 bd 94 25 38 bd 79 db ba 3c 12 3e e9 3c
       -0.048679106 -0.044957712 0.02280973 0.02847198
000050 e4 1b d8 3c fd 89 f4 3b f7 de 88 3c 36 dc ba 3c
       0.026380487 0.0074627385 0.01670788 0.022810083
000060 91 9d 78 3c 85 45 ef bb c7 99 53 3d c0 05 ba 3c
       0.0151742855 -0.0073019885 0.051660325 0.02270782
000070 9c a5 5d 3d c0 98 5a 3b 32 41 e2 3c 50 00 c7 3c
       0.054113016 0.0033355206 0.027618978 0.024292141
000080 eb c0 f7 3c c4 95 1d 3d 99 18 b8 3c f0 52 66 3c
       0.030243358 0.038472906 0.022472667 0.01405786
000090 3d 0c f2 3c b0 90 e3 3c 4c 3b b2 3c d3 a2 85 3d
       0.029546851 0.027778953 0.02175679 0.06525197
0000a0 45 3e da 3c 11 6d 7a bc 28 fa 2a 3d fe bc 31 3c
       0.02664102 -0.0152847925 0.041742474 0.010848282
0000b0 e6 29 0a 3d 92 99 d9 3b 09 f5 0e bb c5 82 74 bc
       0.033731364 0.0066406215 -0.0021813533 -0.014923756
0000c0 fa 6f 01 3c 08 6f 23 bc ba 26 05 3b 54 7d e1 bb
       0.007900232 -0.009975202 0.0020317272 -0.0068813954

network_body._body_endoder.pre_attention.norm.weight f4 [52]
000000 28 ce 60 3f cf cf 71 3f f2 57 63 3f 2d a1 71 3f
       0.8781457 0.94457716 0.8880607 0.9438656
000010 e6 8a 5d 3f e5 e5 70 3f 77 07 64 3f 96 7a 6b 3f
       0.8654007 0.9410079 0.8907389 0.91983926
000020 2f d5 70 3f 43 b6 70 3f 6c f9 6c 3f fd 8b 71 3f
       0.9407529 0.9402811 0.9256809 0.9435423
000030 7f b8 69 3f 60 4c 71 3f 65 33 5f 3f d1 b8 64 3f
       0.91297144 0.94257164 0.87187797 0.8934451
000040 6d d4 69 3f 89 25 70 3f 4c df 74 3f df 14 6e 3f
       0.9133976 0.93807274 0.95653224 0.93000597
000050 14 03 78 3f ac 37 7c 3f dd b3 6f 3f 23 41 77 3f
       0.96879697 0.9852245 0.93633825 0.96583766
000060 f0 09 7a 3f 4f bb 80 3f 4b f9 6f 3f b5 be 76 3f
       0.97671413 1.0057162 0.93739766 0.96384746
000070 5c 84 77 3f b2 c0 71 3f 3e 71 76 3f 9a 9e 78 3f
       0.9668634 0.94434655 0.96266544 0.97117007
000080 fd fd 73 3f 60 67 74 3f a5 03 70 3f a7 eb 7b 3f
       0.9530943 0.9547024 0.9375556 0.9840645
000090 53 da 73 3f 38 cf 74 3f 69 2c 72 3f e5 cb 72 3f
       0.9525501 0.9562869 0.94599015 0.9484237
0000a0 8d b7 78 3f 40 a7 86 3f a3 ca 75 3f 00 38 94 3f
       0.97155076 1.0519791 0.96012324 1.157959
0000b0 1d d8 82 3f 3f ca 8c 3f 41 7a 8f 3f 71 6b 9b 3f
       1.0222203 1.0999221 1.1209184 1.2142164
0000c0 17 6f 83 3f 08 96 8c 3f 5b ae 89 3f eb 4b 8a 3f
       1.0268277 1.0983286 1.0756334 1.0804418

network_body._body_endoder.pre_attention.norm.bias f4 [52]
000000 15 f2 02 be 44 04 6b bd 77 e3 d6 bd 7f 03 6b bd
       -0.1278766 -0.057377115 -0.10492604 -0.05737638
000010 64 92 0c be 3b e1 6f bd 3e 52 a1 3d 69 57 53 3d
       -0.13727719 -0.058564406 0.078770146 0.051597033
000020 01 8f 68 bd cf 5b 86 bd cf 5d 3c 3d 47 d9 bf 3c
       -0.056777004 -0.0656048 0.0459879 0.023419036
000030 5c 6b a2 bd 8b 35 7f bd c3 e8 00 be 2d 24 d5 bd
       -0.079306334 -0.062306922 -0.12588792 -0.104072906
000040 3b fb a8 bd 1b ed 84 bd 80 92 1a 3d 90 6d 3d 3d
       -0.082510434 -0.06490537 0.03773737 0.046247065
000050 f6 be 83 3c b0 a3 e0 3b 9d 2d 99 3b 43 35 1b 3d
       0.016082268 0.0068554506 0.004674627 0.03789259
000060 b5 8a c0 3c b1 68 53 3c 0f 39 7f 3d 1a 43 f0 3b
       0.02350364 0.012903378 0.062310275 0.007332218
000070 fc d9 6e 3d 3a 58 2c 3c a7 eb 0e 3d 88 8f 04 3d
       0.058313355 0.010519082 0.034892704 0.032363445
000080 8d dd 04 3d c4 3b bb 3c 4d 8a 19 3d 36 40 e6 3c
       0.03243785 0.022855647 0.03748541 0.02810679
000090 1a 36 38 3d 05 1f 51 3d ae 84 de 3c 16 31 6c 3d
       0.04497347 0.051054973 0.027162876 0.057664
0000a0 cc 03 2e 3d 74 af de 3a 9d c1 59 3d d8 cc 4f 3c
       0.04248409 0.0016989545 0.05316316 0.012683116
0000b0 0d bb 12 3d 81 d1 ea 3b d5 59 01 3c ac e4 ee bb
       0.035822917 0.007166088 0.007894953 -0.0072904434
0000c0 0b 7d 02 3d 9c 50 63 bb 0f ba f3 3b 90 49 ba bb
       0.03185753 -0.0034685498 0.0074379514 -0.005685039

network_body._body_endoder.post_attention.query.bias f4 [104]
000000 00 00 00 00 00 00 00 00 00 00 00 00 00 00 00 00
       0.0 0.0 0.0 0.0
000010 00 00 00 00 00 00 00 00 00 00 00 00 00 00 00 00
       0.0 0.0 0.0 0.0
000020 00 00 00 00 00 00 00 00 00 00 00 00 00 00 00 00
       0.0 0.0 0.0 0.0
000030 00 00 00 00 00 00 00 00 00 00 00 00 00 00 00 00
       0.0 0.0 0.0 0.0
000040 00 00 00 00 00 00 00 00 00 00 00 00 00 00 00 00
       0.0 0.0 0.0 0.0
000050 00 00 00 00 00 00 00 00 00 00 00 00 00 00 00 00
       0.0 0.0 0.0 0.0
000060 00 00 00 00 00 00 00 00 00 00 00 00 00 00 00 00
       0.0 0.0 0.0 0.0
000070 00 00 00 00 00 00 00 00 00 00 00 00 00 00 00 00
       0.0 0.0 0.0 0.0
000080 00 00 00 00 00 00 00 00 00 00 00 00 00 00 00 00
       0.0 0.0 0.0 0.0
000090 00 00 00 00 00 00 00 00 00 00 00 00 00 00 00 00
       0.0 0.0 0.0 0.0
0000a0 00 00 00 00 00 00 00 00 00 00 00 00 00 00 00 00
       0.0 0.0 0.0 0.0
0000b0 00 00 00 00 00 00 00 00 00 00 00 00 00 00 00 00
       0.0 0.0 0.0 0.0
0000c0 00 00 00 00 00 00 00 00 00 00 00 00 00 00 00 00
       0.0 0.0 0.0 0.0
0000d0 00 00 00 00 00 00 00 00 00 00 00 00 00 00 00 00
       0.0 0.0 0.0 0.0
0000e0 00 00 00 00 00 00 00 00 00 00 00 00 00 00 00 00
       0.0 0.0 0.0 0.0
0000f0 00 00 00 00 00 00 00 00 00 00 00 00 00 00 00 00
       0.0 0.0 0.0 0.0
000100 00 00 00 00 00 00 00 00 00 00 00 00 00 00 00 00
       0.0 0.0 0.0 0.0
000110 00 00 00 00 00 00 00 00 00 00 00 00 00 00 00 00
       0.0 0.0 0.0 0.0
000120 00 00 00 00 00 00 00 00 00 00 00 00 00 00 00 00
       0.0 0.0 0.0 0.0
000130 00 00 00 00 00 00 00 00 00 00 00 00 00 00 00 00
       0.0 0.0 0.0 0.0
000140 00 00 00 00 00 00 00 00 00 00 00 00 00 00 00 00
       0.0 0.0 0.0 0.0
000150 00 00 00 00 00 00 00 00 00 00 00 00 00 00 00 00
       0.0 0.0 0.0 0.0
000160 00 00 00 00 00 00 00 00 00 00 00 00 00 00 00 00
       0.0 0.0 0.0 0.0
000170 00 00 00 00 00 00 00 00 00 00 00 00 00 00 00 00
       0.0 0.0 0.0 0.0
000180 00 00 00 00 00 00 00 00 00 00 00 00 00 00 00 00
       0.0 0.0 0.0 0.0
000190 00 00 00 00 00 00 00 00 00 00 00 00 00 00 00 00
       0.0 0.0 0.0 0.0

network_body._body_endoder.post_attention.value.bias f4 [104]
000000 7d e7 66 3c b2 d0 5c bc ce e7 2a bc c6 18 e1 3c
       0.014093277 -0.013477491 -0.010431243 0.027477633
000010 f9 0c 83 bc e6 fe 9b bc 33 74 36 bc 75 cf 16 3a
       -0.015997397 -0.019042443 -0.0111361025 0.00057529594
000020 1b 3c 83 bc a6 df 04 3c 25 6f 28 3c 45 78 1b bc
       -0.016019871 0.008109963 0.010280405 -0.009489124
000030 cb 96 b2 3c 11 60 20 bc 97 05 9c bc 83 c2 9b 3c
       0.02180042 -0.009788529 -0.019045634 0.019013649
000040 ad 68 63 3c 14 b2 87 3b 43 5e 91 bc d2 f0 67 3c
       0.013879937 0.0041411016 -0.017745143 0.014156537
000050 ee ed bb 3c 54 51 48 ba 20 33 ed 3b 7c d5 4b bb
       0.022940602 -0.00076415134 0.0072387606 -0.0031102588
000060 6f 25 1f bc 6a f6 7f bc 43 bf ae bc 4c 62 d0 bc
       -0.009713515 -0.015622715 -0.021331435 -0.025437497
000070 c5 4a a1 bc 21 9d 3b bb 63 cd 38 35 7c 54 40 3c
       -0.019688973 -0.0028627592 6.884422e-07 0.011738893
000080 8c 24 9f 3a d7 1f 00 bd b2 d4 a8 bc 43 21 c1 3c
       0.0012141629 -0.031280365 -0.020609234 0.02357543
000090 17 30 ef 3c 7a ee a0 bc 13 fc fd bc 12 da c6 3c
       0.029197736 -0.019644964 -0.031003987 0.024273906
0000a0 35 db f9 3b 1f 90 81 bb 8f e0 84 bc 01 00 90 bb
       0.0076250085 -0.003953948 -0.01622036 -0.0043945317
0000b0 d4 46 49 bc 4d f5 9b 3c 40 66 48 3c 9a df 3e bc
       -0.012284953 0.019037867 0.01223141 -0.01164999
0000c0 c5 93 48 3a 46 34 6b bc b1 a3 f8 bb 27 32 66 3c
       0.0007651414 -0.014355725 -0.007587873 0.014050043
0000d0 c1 2b a1 3b 18 e4 15 bc 36 ec 35 bc fd 43 26 bc
       0.004918546 -0.00914862 -0.01110368 -0.010148046
0000e0 8b 95 85 bc 4b a4 82 3c bb 93 cc bb bf 0b ca 3b
       -0.01630666 0.015947482 -0.006243197 0.006165951
0000f0 7c 1f 9c bc 11 a3 ee bb 86 b5 38 bc ce 33 a9 3c
       -0.019057982 -0.0072826226 -0.011273747 0.020654585
000100 ff 0a 26 bc 54 e3 5d bc c0 72 92 3c 6f 22 42 bc
       -0.010134458 -0.013542969 0.017876983 -0.01184903
000110 dc 94 c4 3c 8d 90 0d 3c 6f e6 8f 3c fd bc 8f bb
       0.023996763 0.008640421 0.017565934 -0.004386543
000120 8b e1 b6 bc 27 c6 40 3c 34 73 60 bb 1a 96 29 3d
       -0.022324344 0.011765993 -0.0034248354 0.041402914
000130 ad 67 81 bb 5e 1b a4 3c c4 3f 0b b9 bf e6 ca bc
       -0.0039491267 0.020032581 -0.00013279828 -0.024768231
000140 29 fe 0e bb 80 5a 01 3d a5 46 92 3c 8e 42 13 3c
       -0.0021818972 0.03158045 0.017855952 0.008988036
000150 19 d1 8e bc f1 1f 24 3b 92 bd dd 3c 2f e3 8e bb
       -0.01743369 0.0025043453 0.027067933 -0.0043605785
000160 a8 4c f2 3c 69 94 62 3c 5b ed f9 3b 8c a4 ad 3b
       0.029577568 0.013829329 0.007627172 0.0052991565
000170 76 4d 50 bc fc 4b 61 bb 53 6a 71 bc 00 79 20 bb
       -0.012713781 -0.0034377566 -0.014734822 -0.0024486184
000180 fe d3 88 bc 5c ab 71 bb f1 d0 f6 39 74 ef c7 bb
       -0.016702648 -0.003687582 0.0004707645 -0.006101543
000190 f1 2d fa 3c 27 a0 4c bc 17 2e a0 bc d0 1f b8 bc
       0.030539485 -0.012489355 -0.019553227 -0.022476107

network_body._body_endoder.post_attention.norm.weight f4 [104]
000000 95 64 7c 3f 0e 5a 69 3f c1 8c 81 3f a0 cf 7f 3f
       0.98590976 0.9115304 1.012108 0.99926186
000010 f8 3e 7d 3f 69 88 83 3f 5c b7 81 3f cc 7b 71 3f
       0.9892421 1.0276004 1.0134082 0.94329524
000020 ac 22 80 3f d1 a0 7e 3f a2 ca 7c 3f 5e 5b 82 3f
       1.0010581 0.99464136 0.98746693 1.0184133
000030 82 6f 76 3f 5c 08 81 3f 69 87 69 3f 70 7d 80 3f
       0.962639 1.0080676 0.91222245 1.003828
000040 9d 97 7c 3f 6f a8 7f 3f 95 b5 84 3f e4 a5 77 3f
       0.98668844 0.99866384 1.0367914 0.96737504
000050 b8 5f 7a 3f 7e 1c 7e 3f 72 a0 75 3f ba 78 71 3f
       0.97802305 0.99262226 0.95947945 0.9432484
000060 e2 29 85 3f 62 88 7a 3f 56 d5 80 3f 62 b3 81 3f
       1.0403407 0.97864354 1.0065105 1.0132868
000070 ab f8 7c 3f 30 61 80 3f 47 da 81 3f 58 cb 84 3f
       0.9881694 1.0029659 1.0144738 1.0374556
000080 5e 5e 71 3f d8 f6 7d 3f 34 ce 85 3f c2 d6 7f 3f
       0.9428462 0.9920478 1.0453553 0.9993707
000090 69 fb 78 3f 7a 9a 78 3f 73 cf 78 3f dd 98 80 3f
       0.9725862 0.9711071 0.9719154 1.004665
0000a0 fb e7 75 3f 08 46 7c 3f 58 39 72 3f f5 a3 80 3f
       0.960571 0.9854436 0.9461875 1.0050036
0000b0 8e 5f 7a 3f b8 03 80 3f da 3a 79 3f 5c 05 81 3f
       0.97802055 1.0001135 0.97355425 1.007976
0000c0 10 36 73 3f 67 79 80 3f 19 28 7f 3f 7e b2 7c 3f
       0.9500437 1.0037049 0.9967056 0.9870986
0000d0 89 67 81 3f 4f 0d 80 3f d0 e5 81 3f 6a fc 67 3f
       1.0109721 1.0004061 1.0148258 0.9061953
0000e0 0c 7f 87 3f 04 20 7f 3f 51 21 7c 3f 99 21 82 3f
       1.0585647 0.99658227 0.98488337 1.0166503
0000f0 d6 40 6c 3f b5 f3 81 3f f4 c4 81 3f 00 8d 86 3f
       0.9228643 1.0152498 1.013823 1.051178
000100 f6 04 78 3f 85 de 7f 3f 0e 18 72 3f 5c ec 7a 3f
       0.9688257 0.9994891 0.94567955 0.98016906
000110 64 48 80 3f a3 c6 7b 3f e2 d0 83 3f 4f 9f 7e 3f
       1.0022092 0.9834997 1.0298121 0.99461836
000120 42 bb 7a 3f fa a4 81 3f ab 97 70 3f 18 c5 7f 3f
       0.9794198 1.0128472 0.93981427 0.99910116
000130 f1 04 78 3f c2 f0 7c 3f 21 4b 82 3f 81 dd 83 3f
       0.9688254 0.9880487 1.0179178 1.0301973
000140 f5 82 81 3f af 28 81 3f ca 70 7d 3f ed d3 81 3f
       1.011809 1.0090541 0.9900023 1.01428
000150 1f c6 7c 3f a2 74 7f 3f 11 02 71 3f d3 cb 83 3f
       0.9873981 0.9978734 0.9414378 1.0296577
000160 1a 31 82 3f 5a 24 84 3f 6e 3d 73 3f 72 c4 6e 3f
       1.0171235 1.0323594 0.9501561 0.932685
000170 95 4b 81 3f e9 b4 85 3f 9e 2f 7d 3f 0e 79 83 3f
       1.0101191 1.0445834 0.98900783 1.0271318
000180 2d 8c 83 3f e7 c4 81 3f 95 3f 81 3f b0 5f 80 3f
       1.0277153 1.0138215 1.0097529 1.0029202
000190 b9 cb 72 3f 62 37 7b 3f 02 97 7b 3f 0c 3a 81 3f
       0.94842106 0.9813138 0.98277295 1.009584

network_body._body_endoder.post_attention.norm.bias f4 [104]
000000 d3 7a 8f 3c 92 33 38 bc d5 70 30 bc 2f 6d 01 3d
       0.017514622 -0.011242764 -0.010769089 0.031598266
000010 6f 47 8f bc 91 21 a4 bc 27 07 22 bc a4 f2 41 3c
       -0.017490117 -0.020035537 -0.009889401 0.011837635
000020 23 b0 51 bc d1 61 4d 3c 71 7c b8 3b e3 2e d1 bb
       -0.012798342 0.012535528 0.005630069 -0.006383763
000030 bd dc d1 3c bc 45 21 bc f6 18 d4 bc a9 e7 97 3c
       0.025617952 -0.009843286 -0.025890809 0.018543081
000040 cf d0 35 3c b9 36 48 bb b7 ed b8 bc 5d 36 a3 3c
       0.011097147 -0.0030550195 -0.022574289 0.019923383
000050 0e a8 f7 3c 65 84 b1 bb 07 f3 68 3c c1 5b 81 bc
       0.030231502 -0.005417394 0.0142180985 -0.015790822
000060 db bf c4 bb a0 a7 b9 bc 2b 45 96 bc 3c 0c 98 bc
       -0.0060043163 -0.022662938 -0.018343529 -0.018560521
000070 fb 0d bc bc d7 78 0d bc df a0 79 b8 4e 9e 27 3c
       -0.022955885 -0.0086347675 -5.951605e-05 0.010230614
000080 e1 92 ae 3a e6 40 fb bc 43 f8 a2 bc 54 38 a5 3c
       0.001331892 -0.030670594 -0.019893771 0.02016846
000090 37 9b 22 3d f7 34 00 bd 84 6c 36 bd 57 c0 dd 3c
       0.039698806 -0.03130051 -0.044537082 0.027069254
0000a0 20 1c 03 3c 01 90 42 bc 7e f5 91 bc 6e f0 76 ba
       0.008002311 -0.0118751535 -0.017817255 -0.0009419982
0000b0 ed d3 74 bb 74 2c 52 3c 88 03 f6 3b df 85 74 bc
       -0.0037357763 0.012827981 0.007507745 -0.0149244955
0000c0 8d ff f8 3a f7 d1 93 bc f6 a1 3b ba a8 cc a1 3c
       0.0018997059 -0.018044455 -0.0007157618 0.019750908
0000d0 e2 e7 20 3b c1 3c d9 bb 77 f2 b6 ba f1 00 f7 bb
       0.0024552275 -0.006629557 -0.0013957758 -0.007537954
0000e0 a9 f6 b9 bc d7 88 e6 3c ee 1b 2b bc 76 66 5f 3a
       -0.022700625 0.028141422 -0.010443671 0.0008522043
0000f0 94 ef de bc 1c 4f 37 bc 78 ce 8e bc 7b 00 90 3c
       -0.02721385 -0.011188295 -0.017432436 0.017578354
000100 df 15 2c bc 06 e3 d3 bc b5 c2 4a 3c 3e 85 0a bc
       -0.010503261 -0.02586509 0.012375523 -0.008454619
000110 88 21 9b 3c 3e c7 77 3b 4a 30 3e 3c 5c 26 40 3c
       0.018936887 0.0037807967 0.011608193 0.011727896
000120 1b 75 c0 bc 78 e1 81 3c 5c 30 ad bb b9 8c 10 3d
       -0.02349334 0.015854582 -0.005285306 0.035290454
000130 3b 0d 9b 3b b8 c2 2b 3c 7d 38 25 3c 86 08 f1 bc
       0.004731802 0.010483436 0.010084269 -0.02942301
000140 19 ec d1 3b 2d ce e7 3c b4 d6 9f 3c e6 c2 36 3c
       0.006406319 0.028296554 0.019511558 0.011154866
000150 ea 0f 9f bc 45 2e 3b 3c cb 8a a1 3c 10 5c 1a b7
       -0.019416768 0.011424606 0.019719502 -9.20055e-06
000160 e4 41 10 3d eb de 46 3c 9f 66 89 3b 22 67 34 bb
       0.03521909 0.012138109 0.0041931416 -0.0027527292
000170 c7 aa ec bb 74 e9 2c bc 1d d5 37 bc 70 5d 82 3b
       -0.0072225067 -0.010553706 -0.011220244 0.003978424
000180 5d 70 89 bc df 51 04 bc 99 ec ea bb 31 e9 21 bc
       -0.016777212 -0.00807616 -0.007169318 -0.009882257
000190 5a 25 3c 3d 53 fb ff bb d3 92 86 bc 85 69 14 bc
       0.04593406 -0.0078119426 -0.016427433 -0.009058361

network_body._body_endoder.norm1.weight f4 [52]
000000 3d 53 65 3f 2d d5 74 3f 0f 63 69 3f b6 0f 74 3f
       0.89580137 0.9563778 0.91166776 0.95336473
000010 41 75 62 3f 86 ec 72 3f c5 ed 5e 3f 0f d9 68 3f
       0.88460165 0.94892156 0.8708156 0.90956205
000020 39 1c 73 3f 3e 0b 72 3f 7d 67 69 3f 49 3c 6f 3f
       0.9496494 0.94548404 0.91173536 0.9345136
000030 3c 9b 6d 3f 78 e1 73 3f 0e 2c 64 3f 72 93 69 3f
       0.92814994 0.95265913 0.8912972 0.9124061
000040 0a b8 6c 3f 8b e5 72 3f e7 bf 71 3f c9 ab 69 3f
       0.9246832 0.94881505 0.94433445 0.9127775
000050 68 c3 76 3f 08 39 7c 3f ba 6b 6c 3f e0 6e 74 3f
       0.96391916 0.9852452 0.9235188 0.9548168
000060 e1 dc 76 3f 8f 4d 7f 3f 3c 4d 6c 3f 5b 7a 74 3f
       0.96430784 0.9972772 0.9230535 0.954992
000070 ce 3c 76 3f 30 c1 6f 3f 4f 97 73 3f 47 4c 76 3f
       0.9618653 0.93654156 0.95152754 0.9621014
000080 cf ca 70 3f 5f 19 74 3f 7d 51 6c 3f 1b 5e 78 3f
       0.9405946 0.95351213 0.9231184 0.97018594
000090 03 03 71 3f 11 1b 72 3f a4 81 70 3f 9a 27 71 3f
       0.9414522 0.9457255 0.93947816 0.9420105
0000a0 9b a0 76 3f e0 2c 86 3f 5d f5 70 3f 3a 2a 94 3f
       0.96338814 1.0482445 0.94124395 1.1575387
0000b0 c5 f7 81 3f f2 c6 8c 3f 7d 8f 8f 3f b6 e8 9b 3f
       1.0153738 1.0998213 1.1215664 1.2180393
0000c0 17 40 82 3f b0 27 8c 3f 1f 74 89 3f c6 25 8a 3f
       1.0175809 1.0949612 1.0738562 1.0792778
