Assets/oon/lidar_f.onnx (onnx, 180754 bytes, 42 tensors)

network_body.observation_encoder.processors.0.fc.seq_layers.0.weight f4 [22, 22]
000000 84 18 a3 bd 27 4f d3 3e ae b8 b8 be 99 6b 8d be
       -0.0796366 0.41271326 -0.360784 -0.27621153
000010 fd 6a 9e bd 4c db 17 be de 19 be 3d c0 7c b6 be
       -0.0773525 -0.14829749 0.092822775 -0.35642052
000020 0c 22 1a 3e c9 e6 54 be 87 05 31 3e bd 96 40 3e
       0.1505205 -0.20791163 0.17287265 0.18807502
000030 0d ea bc bb 67 0a b5 3e 53 a8 b2 3e 58 6e 99 3e
       -0.0057652057 0.353595 0.34894046 0.29966998
000040 e5 da b3 bd c2 96 a3 bd 37 d6 ad 3c 5e b2 98 3d
       -0.08781985 -0.07987739 0.02122031 0.07455896
000050 b2 b4 88 bd 9c dd 2e be 97 6c 10 be 3f c3 e2 bd
       -0.0667509 -0.17076725 -0.14103924 -0.110723965
000060 09 d8 3f 3d 14 32 3e 3e a6 bf a9 be 8e f6 5a 3d
       0.046836887 0.18573791 -0.3315403 0.05345779
000070 9e aa 76 3e 4a f4 22 3d bb 27 fb 3e 68 c1 36 3d
       0.24088523 0.039783753 0.4905375 0.04461804
000080 87 44 2c bc 22 5f 86 3e 18 ce b6 bd 46 4f 7c be
       -0.010514385 0.26244456 -0.08926028 -0.24639615
000090 0e eb 50 be bd af f1 3d 12 ed 6d 3e 03 fd 79 3d
       -0.20402166 0.118010975 0.23234966 0.061032306
0000a0 55 69 be 3d 73 d7 90 3e 15 71 8e bd d6 b3 17 be
       0.09297434 0.28289375 -0.069551624 -0.14814696
0000b0 9b a8 93 3d 0f 3d 61 3e 05 bf d2 3e 88 96 1a bf
       0.07209893 0.21995948 0.4116136 -0.6038594
0000c0 74 5e 7d 3d 36 8d ff bd 15 f8 18 3e d5 cb 88 3d
       0.061857656 -0.12478106 0.14938386 0.06679503
0000d0 4c b8 0e 3e f9 41 f9 be a3 03 23 3e 0c f6 37 3d
       0.13937491 -0.48683146 0.15919356 0.044912383
0000e0 dc 73 6e 3e f3 9b 0c 3c 37 c4 0b bd b2 9a e1 bb
       0.23286384 0.008582103 -0.034122672 -0.006884896
0000f0 96 92 df 3d 46 38 ac 3e bb 4c 36 3e a5 ef a3 bd
       0.10916631 0.33636683 0.17802708 -0.08004693
000100 a3 70 bb 3d c5 2a 45 be d6 b2 53 3c f1 3a 58 be
       0.09152343 -0.19254597 0.012921056 -0.21116234
000110 7a 32 27 bd cd a3 83 3d 95 9a 12 3e 37 d1 9f 3d
       -0.040819623 0.06427727 0.14316781 0.078035764
000120 8a 57 c3 bc 54 ed 94 bc ae a3 fd bd 6f 7c 22 be
       -0.023845453 -0.018179573 -0.12384735 -0.1586778
000130 15 c6 05 3f 51 69 28 bd ea 74 4b 3d 41 a7 f5 bb
       0.52255374 -0.041116063 0.049672045 -0.007496745
000140 4a 8b eb be f0 c5 1e be c3 ab 4b 3e fa 47 69 3e
       -0.46004707 -0.15505195 0.1988974 0.22781363
000150 d5 eb bb 3e e1 e2 9a be 54 e8 47 3d 0b a5 23 bd
       0.36703363 -0.3025122 0.04880555 -0.03995232
000160 af 5a e3 3d 26 a7 36 3e cd 59 a6 be c5 84 d6 bc
       0.11101281 0.178372 -0.32490388 -0.026186356
000170 bf e6 0d be 31 ee a0 be 29 9a 5f 3e 62 8f a9 3c
       -0.13857554 -0.31431726 0.21836151 0.020698253
000180 61 6f 6b be 9b 1e c7 be 8d 62 34 3d 09 13 cd 3d
       -0.22991706 -0.38890538 0.044039298 0.10013396
000190 4e 5e 0c be 0b 81 af 3d 65 1f 4a 3e 3a 5c dc bb
       -0.1370785 0.08569535 0.19738539 -0.0067248615
0001a0 26 7d 4c 3e 24 bd 8b 3d a5 85 11 3e 01 a1 08 be
       0.19969615 0.06823185 0.14211138 -0.13342668
0001b0 47 7c 0b be 88 79 61 bd a4 20 50 3e b8 a0 b0 3c
       -0.13621627 -0.05504754 0.20324951 0.021561012
0001c0 f1 e7 0a be 6e 89 b3 bd d3 44 fa 3d 0b 64 77 3d
       -0.13565041 -0.08766447 0.122201584 0.060398143
0001d0 41 48 19 be b3 ee c8 3d 0e ab 35 3d 82 ad 0a 3e
       -0.14968969 0.09811153 0.044352584 0.1354275
0001e0 0f fc 2d be 9c 5f 79 bd c7 ac 21 3e 06 d7 9b be
       -0.16990684 -0.060882196 0.15788566 -0.30437487
0001f0 fd 70 ad bd a4 b6 c4 3d 71 5e 40 3e 11 1e ee 3b
       -0.084688164 0.096051484 0.18786027 0.007266768
000200 fe e9 8a 3d d2 2b 4a be 63 ac 22 3e e1 1d 8c 3e
       0.06782912 -0.19743279 0.15886073 0.27366546
000210 f7 ae 4b 3e 9f 83 9a bd 40 3a e2 3c 42 29 18 3e
       0.19890963 -0.07544636 0.027615666 0.14859489
000220 13 c5 98 3e ad cb 98 3c 17 b7 c5 bd a6 f4 df bd
       0.29837856 0.018651808 -0.09654062 -0.10935335
000230 7b e6 03 be 06 21 44 be 80 e8 79 be 86 f5 7e be
       -0.1288089 -0.19153222 -0.24405098 -0.24898347
000240 ac bf bd bd a3 15 f8 bd 1d c8 03 3e 4c cb 72 3e
       -0.09265074 -0.12113502 0.12869306 0.23710364
000250 7f 80 33 3e ba 01 b0 bd 1a 9b b0 3d 98 6b ac 3e
       0.17529486 -0.08594079 0.08623333 0.33675838
000260 20 40 e7 3e 46 00 31 3c 44 ed 08 bf bf e5 db 3e
       0.4516611 0.010803288 -0.5348704 0.4294872
000270 f6 25 35 3e f8 97 6d be de a2 df 3c bb 49 dd bb
       0.17690262 -0.23202503 0.02729934 -0.006753174
000280 67 8e 92 be e4 1e 1a 3d 4b b5 c0 3e 71 87 42 3e
       -0.2862427 0.037627116 0.37638316 0.1899698
000290 79 71 3f be d8 25 09 be 05 fa af 3d ec 11 85 bd
       -0.1869563 -0.13393342 0.08592609 -0.06497559
0002a0 04 35 4d 3e 3e fb bd be d9 4c 36 3e 1a 7e 41 3e
       0.20039755 -0.37105745 0.17802753 0.1889576
0002b0 8c 02 09 3e 5b 87 49 3b 51 ab 70 3e b3 19 c6 be
       0.13379878 0.0030750844 0.23502852 -0.38691482
0002c0 c3 cc ab be c1 20 af bd 5d c1 b8 bd 74 e8 37 bd
       -0.33554658 -0.08551169 -0.09021256 -0.04489942
0002d0 62 e2 64 3d 33 51 0c be 3e 56 ad be e1 e7 8a bc
       0.055879958 -0.1370285 -0.3385486 -0.016956272
0002e0 24 9a d0 3e 67 f3 ca 3a 3b 1c 6e be 2d 71 66 3d
       0.407426 0.0015483917 -0.23252957 0.056260277
0002f0 ac f0 05 3f 29 b4 0c be ab ed 3b 3e 12 51 a8 bd
       0.5232036 -0.137406 0.18352382 -0.08218588
000300 39 ee a9 3b 1a 76 6d be 53 fa ad be a9 d1 62 3d
       0.005185869 -0.23189583 -0.33980045 0.05537573
000310 c4 cc 37 be 4e 82 b6 bd 55 d4 08 bc f7 a5 10 3d
       -0.17949206 -0.089115724 -0.008351405 0.035314526
000320 2c 3c 0b bc ba 65 0c 3e 44 d8 82 3d 4c 1b 1d 3d
       -0.008498233 0.1371068 0.06388906 0.03835611
000330 34 04 ff 3d f7 c3 a5 be 85 80 81 be a3 6c fe bc
       0.124519736 -0.32376072 -0.25293365 -0.031057661
000340 04 29 57 3d a7 b2 89 be 9b a8 4e 3e db a5 7f bd
       0.05252935 -0.26894113 0.20181505 -0.06241403
000350 51 01 63 3d 04 c9 12 be 0a 00 3b 3d aa 02 af 3e
       0.055421177 -0.14334494 0.045654334 0.3418172
000360 42 bc fe 3d 92 fe 47 bd 4d 84 ac bd 0d 6d 13 bd
       0.12438251 -0.04882676 -0.08423672 -0.03599267
000370 8e 3c 24 3e 87 63 1e 3e 66 2e 7d be 74 83 ca 3e
       0.16038725 0.15467654 -0.24724731 0.39553416
000380 15 2f bc 3e d3 de 8b be 3e b3 24 3e d9 95 61 3b
       0.3675467 -0.2731844 0.16084 0.0034421592
000390 ec 85 48 be 2f 17 07 bd a0 bd 17 be 16 df 0c bf
       -0.19582337 -0.032981094 -0.1481843 -0.550279
0003a0 e1 b5 8c 3e 71 da a6 3e 35 5a 68 3e e3 1b 3e 3d
       0.27482513 0.32588533 0.22690661 0.046413314
0003b0 97 51 95 3e 4e 66 68 be 55 4c 45 3d 8a d7 a8 3e
       0.2916381 -0.22695276 0.0481685 0.32976943
0003c0 4c 4c 7a 3e b2 00 db bc 04 f6 ca bd 4a 07 2d be
       0.24443167 -0.02673373 -0.09910205 -0.16897312
0003d0 9a 48 02 3d 6f 54 37 3e bc 6b 18 3e 1c 63 9d 3e
       0.03180752 0.17903303 0.14884847 0.30739677
0003e0 4b 9d 4f bd f3 fd 51 3e 1b f4 a6 be 69 52 0d 3e
       -0.050687116 0.2050703 -0.32608113 0.13800968
0003f0 6d fe 44 be 9e 6c 1f 3e b7 fb 2e be 0d 51 09 3f
       -0.1923768 0.15568778 -0.17088209 0.536393

network_body.observation_encoder.processors.0.fc.seq_layers.0.bias f4 [22]
000000 51 c9 ec bb 4e 7f 22 bb 72 6c 28 bc a6 4c 32 bb
       -0.007226147 -0.0024795118 -0.010279762 -0.002720633
000010 39 f1 d7 3c e1 fe ef 3c 9d 47 14 bd 06 d3 63 3c
       0.026360141 0.02929634 -0.03620111 0.013905292
000020 6b c4 2a bc 19 0f 3a bc 79 a4 6f bd 97 67 c3 3c
       -0.010422806 -0.011356139 -0.058506463 0.023853106
000030 bb f3 70 bc af 45 ba 3c d9 a2 2b 3d c7 94 7a 3d
       -0.014706547 0.022738306 0.04190335 0.06117704
000040 0e b1 36 bd 8f 00 b3 3a 8f 19 67 3a ae 21 54 3c
       -0.044602446 0.0013656783 0.0008815759 0.012947483
000050 2b cd b1 bc 5b 83 ef bb
       -0.021704277 -0.00730936

network_body.observation_encoder.processors.0.fc.seq_layers.2.weight f4 [22, 22]
000000 54 c3 85 bd 8e b4 9f be 4c 81 af be 18 4e 8f bd
       -0.065313965 -0.3119244 -0.34278333 -0.06997317
000010 0e a6 33 be 3f 25 4c bd 2d 95 b3 3e 7c c2 6f 3e
       -0.17543814 -0.04984021 0.3507475 0.23414034
000020 08 56 63 3e 03 ad 6b bd 2d 76 76 be 11 42 6a be
       0.22200787 -0.057538044 -0.24068518 -0.22876765
000030 10 cd 4e 3e 0d 16 15 3e 06 c1 99 be a5 36 1b 3e
       0.20195413 0.14559193 -0.30030078 0.15157564
000040 94 30 ab be 81 21 25 be a9 a5 cb bc 4d 86 11 3e
       -0.334355 -0.16126062 -0.024859266 0.14211388
000050 7c e1 e3 3d e1 3a f1 bd 87 e3 97 be c8 69 93 3d
       0.11126992 -0.117788084 -0.29665777 0.071979105
000060 ff f0 20 be 2d 2a c5 bc ce d5 44 3e 62 c9 b1 be
       -0.15716933 -0.024067963 0.19222185 -0.34723955
000070 34 2a a8 3b e4 ab a9 3e c2 7f 40 3e be 55 9c bc
       0.005131984 0.33138955 0.18798736 -0.019083854
000080 18 1b c5 be 67 16 40 be ff 60 12 be 86 b2 16 3c
       -0.38497233 -0.18758546 -0.14294814 0.009197837
000090 e8 9f e3 3c 83 12 d9 3e fa 06 b5 3e e5 aa 0c bc
       0.02778621 0.42396936 0.35356885 -0.008585666
0000a0 7d 18 55 3e e3 60 6c 3d 73 ce 98 3d 3c 5f b7 bd
       0.20810123 0.057709586 0.07461252 -0.089537114
0000b0 eb 3d 9f bd 42 04 91 3e 9f 13 be 3e ef b5 a2 be
       -0.07775482 0.2832356 0.37124345 -0.3177943
0000c0 53 24 6d 3d e2 c2 02 be 7c 91 af bd dd 89 98 3d
       0.05789597 -0.12769654 -0.08572671 0.0744817
0000d0 2c 59 91 bd 1d 96 d8 3e 4e 83 e5 bd 4c 92 14 be
       -0.07097086 0.42302027 -0.11206685 -0.14508933
0000e0 b3 19 84 bc d7 07 4f 3e 43 fa 63 3e 6e c6 20 3e
       -0.016125536 0.20217834 0.22263436 0.15700695
0000f0 df 84 85 be 94 5b 0b 3e 3d 18 f6 3d 44 f3 08 be
       -0.26077935 0.13609153 0.12016342 -0.13374048
000100 95 b0 50 be f4 4f db 3e 6b 3b 8b be 26 07 bb 3d
       -0.2037986 0.42834437 -0.2719377 0.09132223
000110 18 84 55 be 75 1c 1b bd 0d ef 54 be 98 5f 3d 3e
       -0.20851171 -0.037868936 -0.20794316 0.18493497
000120 63 63 6c 3d f2 21 ed 3e ed 80 90 3e 27 59 1c be
       0.05771197 0.4631496 0.28223363 -0.15268384
000130 d7 18 5c be a2 e8 87 be c9 b3 64 3d 2f 06 37 be
       -0.2149385 -0.26544672 0.05583552 -0.17873453
000140 1a e9 91 bd 55 50 71 be 65 d4 56 3e 8d dd 13 be
       -0.07124539 -0.235658 0.2097946 -0.14439984
000150 1b d1 77 bd 88 53 3b 3e 07 5e 03 be 1e e1 7a 3d
       -0.060502153 0.18293583 -0.12828837 0.061249845
000160 91 03 68 3d 8a 72 21 3d 1f 82 e3 3b ba 1c 52 be
       0.056644026 0.039415874 0.006943002 -0.20518771
000170 92 42 9a bd 77 81 3f 3e 27 c3 26 be 4a 31 6e bd
       -0.075322285 0.1870173 -0.16285382 -0.058152474
000180 32 14 85 3e a8 e8 e5 bc 36 15 8f bc 33 38 15 bc
       0.2599197 -0.02806504 -0.017466169 -0.009107637
000190 13 29 4d 3e c1 78 dd bc 88 4f c2 be 89 c8 f2 bd
       0.200352 -0.027035119 -0.37951303 -0.11854655
0001a0 0f 44 f6 3d 71 84 97 bd 4f b6 29 be f9 06 64 3d
       0.120247 -0.07398308 -0.16573451 0.055670712
0001b0 9b a6 0a ba 17 fc 81 be 8f d3 0f be 24 2f fd bd
       -0.00052891084 -0.25387642 -0.14045547 -0.12362507
0001c0 48 69 93 3e 0a 32 c8 bd ef e4 bb 3e f5 87 39 bd
       0.2879126 -0.09775169 0.366981 -0.045295674
0001d0 12 63 5f be 3b 52 af 3d 0a ac 91 3e 76 b6 26 3e
       -0.21815136 0.08560606 0.28451568 0.16280541
0001e0 0a b3 9c bd b6 42 c2 3d 9c 7b 4b bd a7 51 0b 3b
       -0.076513365 0.0948538 -0.04967843 0.0021258385
0001f0 5e a5 a2 bd 82 9d 28 3d cb cf ad bd fc 41 ff bd
       -0.079416975 0.041165836 -0.08486899 -0.124637574
000200 a5 bc 58 3e 3c ff 07 3e b4 58 02 3e 0a 8d 23 3d
       0.21165712 0.13280958 0.1272915 0.039929427
000210 d1 f9 a6 3d ef 6b e1 bd a6 9d 3f be 79 a2 73 3e
       0.081531174 -0.11006915 -0.18712482 0.23792447
000220 55 f0 02 be cf ed 3c 3f 25 88 c6 be 3e 06 30 bd
       -0.12786992 0.7380037 -0.38775745 -0.042974703
000230 2f b5 1c be 85 6a c3 bd 4a e2 14 be b1 76 e8 bc
       -0.15303491 -0.09541801 -0.14539447 -0.028376909
000240 ce d0 88 be 65 5c e8 3d b7 f8 fe bd 42 b3 a3 bd
       -0.26721805 0.11345748 -0.12449782 -0.07993175
000250 8c ee 47 bd 72 6d 07 3d aa 78 30 3c e9 52 13 bd
       -0.04881148 0.03306336 0.010770956 -0.03596774
000260 77 d3 d6 bb a7 52 04 be 5a 5b f6 3d 33 d0 62 3e
       -0.0065559703 -0.12922154 0.12029143 0.22149734
000270 1c ae ad 3c 35 04 94 3d 7e 76 24 be 51 67 e7 3c
       0.021201186 0.07227365 -0.16060826 0.028247507
000280 60 24 17 be f1 34 93 bb 0d 0b 32 3e c0 82 91 3d
       -0.1475997 -0.004492395 0.17387028 0.07105017
000290 fd 98 3c be 8d 11 de 3d ad 25 7e 3d 81 4b c1 be
       -0.18417735 0.10843191 0.06204765 -0.37752917
0002a0 c6 cb 90 3d 44 d3 00 3d c7 6c 59 bd f9 a6 87 3e
       0.07070117 0.03145148 -0.053082254 0.26494578
0002b0 cb 71 65 be 5f cb 49 3e e2 99 55 be 3b 48 4f bd
       -0.2240669 0.19706486 -0.20859483 -0.050605994
0002c0 8a 41 be 3d c2 22 17 be d4 c3 85 3a a2 78 d8 bd
       0.09289844 -0.14759353 0.0010205456 -0.10569884
0002d0 bb 11 ba 3d d9 5d bf 3e 4a 7e 13 3e cf 03 21 3e
       0.09085413 0.37376288 0.14403644 0.15724109
0002e0 10 79 4c 3d 15 0a 61 bc 2a e5 be 3c de c7 e8 3d
       0.04992014 -0.013735314 0.023302633 0.11366247
0002f0 1d 6b 9a be af f8 84 bc 0b 73 4d 3b b6 7f ae bd
       -0.30159846 -0.016231863 0.0031349089 -0.08520453
000300 49 d8 d8 3c 69 e0 aa bd 60 6e 0a 3e 49 0c 11 3e
       0.02647032 -0.08343584 0.13518667 0.14164843
000310 5a 53 a4 3d df 2f 43 be 9a ae 0f 3d 28 62 0b 3e
       0.080237105 -0.1906123 0.035078622 0.13611662
000320 86 54 a4 3e 8b 64 4d 3e 40 4d 0f 3e f8 42 de bc
       0.32095736 0.20057885 0.13994312 -0.027131543
000330 91 c7 93 3e e4 34 f2 3c 51 55 1b be 54 be 90 3e
       0.28863195 0.029566236 -0.15169264 0.2827021
000340 d1 75 59 bd 27 4a f6 3b 12 05 a3 bb 1b 66 14 3e
       -0.053090874 0.007516164 -0.0049749697 0.14492075
000350 98 94 c7 3d 43 55 55 3e 2c 5e a2 be 0d 12 3a 3e
       0.09745139 0.20833306 -0.31712472 0.18170948
000360 cb 5b 86 bd 02 65 dc bd 3e 39 3b be e3 69 40 be
       -0.06560477 -0.10761453 -0.18283555 -0.18790393
000370 ca c7 99 be 7f 10 3c 3e 54 e2 83 be ba bd c1 be
       -0.3003524 0.18365668 -0.25758612 -0.37840062
000380 74 c0 02 be 40 e6 0c 3e 1e a3 e8 bd 3f 08 c6 3e
       -0.12768728 0.13759708 -0.11359237 0.38678166
000390 81 e0 47 be 8f 68 d9 bb 45 89 b7 3a 66 18 29 be
       -0.19519235 -0.006634779 0.0014002702 -0.16513214
0003a0 98 f9 13 3e 3c 82 03 3e 24 aa 1c be 91 c3 1d 3d
       0.14450681 0.12842649 -0.15299278 0.038516585
0003b0 f9 3e f9 bd f1 c2 a0 be 01 db 8c bd 7e d1 7d bd
       -0.12170214 -0.31398728 -0.06877709 -0.061967365
0003c0 af 1b f8 3d a4 f3 14 3e 8f f0 85 3e b3 48 cf 3c
       0.12114655 0.14546067 0.26160094 0.02530322
0003d0 90 b9 99 bd 86 2a 93 be 75 8c 03 3e e1 24 c3 bd
       -0.07506096 -0.2874338 0.12846549 -0.095285185
0003e0 26 30 6c bd 5e 3a 15 be e4 26 42 3e 56 0b ee 3d
       -0.057663105 -0.14573047 0.18960148 0.11623256
0003f0 9a 3c 17 3e 0d af b3 bd 1e b2 64 3e b1 d4 dd ba
       0.14769211 -0.08773623 0.22333571 -0.0016924349

network_body.observation_encoder.processors.0.fc.seq_layers.2.bias f4 [22]
000000 39 68 31 bd ba c8 07 bd 6f b8 5b bd 2b 31 41 bc
       -0.043312285 -0.033150412 -0.053642686 -0.011791508
000010 99 95 72 bd 4d 8b 06 bd cc 2f 85 3d 5a d7 74 3c
       -0.0592247 -0.03284769 0.06503257 0.014943922
000020 87 9c 0d 3d 16 59 c4 bc f8 15 8c 3d 43 ac c5 3b
       0.034573104 -0.02396826 0.06840128 0.006032498
000030 a3 5b 23 3d f4 87 da 3c bb 6c ed 3c bd c8 70 3c
       0.039882313 0.026676156 0.02898251 0.014696297
000040 bf 16 b3 3d b6 01 99 3c c7 94 5a 3b da 9c ff 3a
       0.08744573 0.018677574 0.0033352838 0.0019501701
000050 77 2d 61 bd 33 21 5a 3d
       -0.054975 0.053254317

network_body.observation_encoder.processors.1.fc.seq_layers.0.weight f4 [12, 12]
000000 1e ff 0c be 07 52 7c bd b1 4d dd be 6a 40 da bc
       -0.13769194 -0.061601665 -0.43223336 -0.026642043
000010 a9 0c fe 3e f1 9c 6d 3e 08 82 69 3c 31 75 65 be
       0.49619034 0.232044 0.014252193 -0.22407986
000020 e5 3e bc 3c 4a 57 17 3d 06 e7 ff 3d 64 5f 33 3e
       0.02297921 0.03694848 0.12495236 0.17516857
000030 df 25 1c 3f 8b b3 dc 3d 39 c9 dc be 31 7f c6 be
       0.60995287 0.107764326 -0.4312227 -0.38768914
000040 67 fd 3a be 48 e4 c7 3e 18 bc e7 bd b8 d1 a5 3e
       -0.18260728 0.39041352 -0.11315173 0.32386565
000050 4c 91 d5 be 7d ea db 3c 4b 19 1b 3f 0d a4 00 3e
       -0.41712415 0.026845211 0.6058547 0.1256258
000060 cd 79 b5 be 2e 6c 50 be ce 06 0b 3f 72 53 9e 3e
       -0.3544449 -0.20353767 0.5430726 0.3092304
000070 74 81 80 3c 37 67 4c 3d be e1 2b 3e 13 b5 ac 3b
       0.015686728 0.04990312 0.16785333 0.005270609
000080 b1 9c ca bd 4d ce ff 3c f1 05 9c 3e 16 1f 09 3d
       -0.09893168 0.031226302 0.30473283 0.03347691
000090 1c 5e 75 be 66 ce 13 3e e5 0b 5e 3e c8 7d 7f be
       -0.23961681 0.14434204 0.21684225 -0.24950325
0000a0 a2 6b a5 3d 14 fe 1e 3e 3c 4d be be 17 f3 17 bd
       0.0807717 0.1552661 -0.371683 -0.037097063
0000b0 ab a6 b2 3d 53 fa 11 be 51 d4 a7 3e 27 a7 b3 3e
       0.08723196 -0.14255647 0.32779172 0.35088465
0000c0 d1 ba f5 3e fe 4b 20 3e 80 ff 86 be f0 a1 b9 bc
       0.47994092 0.15653989 -0.26366806 -0.022660226
0000d0 0d 26 27 3f 9b 29 d0 be 98 0e 41 3e ef ae f2 3e
       0.65292436 -0.40656742 0.18853223 0.4739909
0000e0 12 f6 47 be b0 9c ae 3d 7b df 44 be af ba 4b bf
       -0.19527462 0.085259795 -0.19225876 -0.7958173
0000f0 66 df 67 3e c1 5d af bd 7d 87 1f bd 9f 84 38 bf
       0.22643813 -0.08562804 -0.03894757 -0.72077364
000100 e1 79 c7 3e bb 2e 24 3d f2 5b f3 3e d1 26 a5 be
       0.38960174 0.04008363 0.47531086 -0.32256177
000110 53 6e 35 3e f5 e8 37 3f a9 52 5c be df c7 02 3f
       0.17717867 0.7183984 -0.21515907 0.5108623
000120 6f d6 10 bf 20 2f d0 bd 54 a2 87 3e b9 35 2f be
       -0.565772 -0.101652384 0.26491034 -0.17110337
000130 4a 6e 43 bd 16 32 d6 3d 66 cc a8 3e bd c2 0a 3e
       -0.0477126 0.10458772 0.32968444 0.1355085
000140 25 da d1 be 93 01 0a 3d 5e 2c 0e be d3 43 09 3f
       -0.40986744 0.033692908 -0.13884112 0.53619117
000150 97 82 d6 be d5 16 d4 be 0c 3c 21 bd 72 7c 46 be
       -0.41896507 -0.4142367 -0.039363906 -0.1938341
000160 77 59 7e 3d df 5b a4 be be 06 3f be 67 1e 3a be
       0.06209704 -0.32101342 -0.18654916 -0.1817566
000170 82 59 a2 3e cb 3a 96 be f2 40 d0 bd 82 6b 0b be
       0.31708914 -0.2934173 -0.10168637 -0.1361523
000180 68 0b a8 bd 17 bd 0f bf 90 40 c5 bd 0b 89 10 3f
       -0.082053006 -0.56147903 -0.09631455 0.5645911
000190 28 29 00 3f f2 e7 0b 3e 5e ee 9d 3d 1f 1a ae 3d
       0.500628 0.13662699 0.077114806 0.08501076
0001a0 9a a0 10 3e 41 1e 01 bc a0 fe 95 3e 67 c5 e9 be
       0.14123765 -0.007880748 0.29295826 -0.4565842
0001b0 25 37 71 3e 34 67 39 3d d4 8f 5b bf 5b 5e ff 3e
       0.23556192 0.045264438 -0.8576634 0.49876675
0001c0 9f a0 e8 bd dd 46 2d be 46 07 47 bb b6 77 f2 bd
       -0.11358761 -0.16921563 -0.0030369326 -0.11839239
0001d0 ca 44 24 3e d1 48 39 be c9 4a d0 3e ed fc c4 bd
       0.16041866 -0.18094184 0.40682057 -0.09618554
0001e0 7c 10 55 3e da 84 e5 bc 77 e8 88 3d 91 3f 29 3d
       0.2080707 -0.02801745 0.06684964 0.041320387
0001f0 c0 be b7 3e 33 9a 8a 3e bd 8c 4a 3e ec 30 09 3e
       0.35887718 0.2707077 0.1978025 0.13397568
000200 d3 e2 73 3c dd 41 45 3e 2b 25 c2 be ba 2e ad bc
       0.014885622 0.19263406 -0.37918982 -0.021140445
000210 f9 77 89 3e 35 aa 4c 3f 04 8e 00 3e 19 60 e6 3d
       0.26849344 0.79947215 0.12554175 0.11248798
000220 54 b0 bb 3e e0 36 8d 3d 16 f1 1f 3e 2f 0b 35 3c
       0.36657965 0.06895232 0.1561931 0.01105003
000230 d8 96 b4 bc 94 dc 2c 3d 15 7d 5b be e2 f4 2e be
       -0.022044584 0.042202547 -0.21434434 -0.17085603

network_body.observation_encoder.processors.1.fc.seq_layers.0.bias f4 [12]
000000 e2 09 4c 3d 01 b4 84 bd 2c 63 19 bd 79 8a 4b 3d
       0.049814112 -0.064796455 -0.037448093 0.049692605
000010 dc 2f 58 3d be 4e 97 bd 8a 2f 18 bd 13 88 b2 3d
       0.052780017 -0.07388066 -0.03715471 0.0871736
000020 23 38 12 bd 04 0e 8e 3c d7 5b 0b 3d 16 fd bd 3b
       -0.035698067 0.017340668 0.034023132 0.0057979925

network_body.observation_encoder.processors.1.fc.seq_layers.2.weight f4 [12, 12]
000000 88 9f 13 bf db 73 47 be 39 01 9e bd 54 5e 44 be
       -0.576653 -0.19477789 -0.07715077 -0.19176608
000010 9d 9c a0 be 85 98 14 3e c3 31 01 3d 18 bc 8a 3d
       -0.31369486 0.14511307 0.031541597 0.06774157
000020 f4 e2 4c 3e 9c 2f 94 be 5b d5 1b 3d 46 9d 1d 3f
       0.20008451 -0.28942573 0.03804527 0.61568105
000030 b4 eb e5 bd 40 2b a1 3e 4d 58 dd 3d 82 be 47 be
       -0.112265974 0.3147831 0.10807858 -0.19506267
000040 58 0d 48 3e ca 04 d0 3d aa f6 04 3d fb 4a 22 be
       0.1953634 0.101571634 0.0324618 -0.15848915
000050 1d e2 87 3e 32 3d a5 3d ad 60 59 be 32 65 23 bf
       0.26539698 0.08068313 -0.21228285 -0.63826287
000060 9c a1 ef bc b9 de c7 3e 30 55 0e 3e 7a a1 be be
       -0.029251866 0.3903711 0.13899684 -0.37232572
000070 a9 d4 93 be 7d d8 12 3e be e8 24 be df b5 69 be
       -0.28873184 0.14340396 -0.16104409 -0.22823285
000080 b3 22 52 bd c6 19 1b 3f ae 93 ab bd e7 c2 88 be
       -0.051302623 0.605862 -0.08377777 -0.267112
000090 96 86 2d 3d 57 39 09 be 52 4f 9b 3e d7 1b 10 3e
       0.04236468 -0.1340078 0.30333954 0.1407312
0000a0 61 9c 03 bf 77 30 17 bd b2 94 96 3d 49 44 a8 3e
       -0.5141049 -0.036911454 0.0735258 0.32864597
0000b0 52 6f 4b 3e 4b dc c2 be ce 49 ee bd a0 fa 2f 3e
       0.19866684 -0.38058695 -0.11635171 0.1718545
0000c0 38 9b 13 be c7 6c 95 bd 86 2d 83 3e e1 dd a5 3e
       -0.1441468 -0.07296138 0.2562067 0.32395843
0000d0 2c b0 d5 be 35 a9 02 bf bf 74 97 be eb aa 4d bf
       -0.4173597 -0.5103944 -0.29581258 -0.80338925
0000e0 82 3f dd bd 54 61 a7 3d f5 0c a3 3e d1 67 0c 3e
       -0.10803129 0.08172861 0.31845823 0.13711478
0000f0 39 0b 66 bf 3d 65 b6 bc 2e 86 96 3e 2e d5 34 bd
       -0.89860874 -0.022265071 0.29399246 -0.044148616
000100 d6 7b 1e bf 1a a2 f5 bd a3 3d 8e 3e 46 0c 33 3e
       -0.6190771 -0.11993809 0.277814 0.1748515
000110 65 64 f9 be ca 8c 8c be ae bf 13 bd 5a 70 07 bf
       -0.48709407 -0.27451164 -0.036071472 -0.5290581
000120 66 1c f6 be bd b1 90 3e 5a 0d 5d 3f d6 58 a2 3e
       -0.4806854 0.28260604 0.863485 0.317084
000130 74 b0 64 3e 56 7f d6 3e 4d b4 f5 bd 97 c0 98 be
       0.22332937 0.41894025 -0.1199728 -0.29834434
000140 94 8f 9d be b9 fe 28 bd e6 72 e6 be 22 06 b6 3d
       -0.30773604 -0.041258547 -0.45009536 0.088878885
000150 43 4d da 3c c0 15 b9 bd 71 42 cd be 50 c1 9a bc
       0.02664817 -0.090373516 -0.40089753 -0.018891007
000160 21 b9 77 bd e4 68 f6 bc a7 d8 ac 3e 04 18 2d be
       -0.060479287 -0.030079313 0.33759043 -0.16903692
000170 c4 7a 1b bf 1a 18 b9 3e a7 89 91 be 08 a9 ed bd
       -0.607342 0.361512 -0.28425333 -0.11604506
000180 e1 08 94 3e df 60 47 be 6d 38 2d 3e 72 2f 6e be
       0.28913024 -0.19470547 0.16916056 -0.23260286
000190 ba e8 f3 3d b8 e2 1a 3e 40 ca f5 be a1 30 1a 3e
       0.119096234 0.15125549 -0.48005867 0.15057613
0001a0 3a e6 6b be 82 6b 6b be f6 88 dd 3e 0c 96 13 bf
       -0.23037043 -0.2299023 0.43268555 -0.5765083
0001b0 27 6f 6b be d0 ee 48 bf ae df fc be 44 51 f2 bd
       -0.2299162 -0.784894 -0.49389404 -0.118319064
0001c0 c0 87 7c be a9 ad 4b be 70 68 f2 3e 8a cd 90 3e
       -0.2466116 -0.19890465 0.47345304 0.28281814
0001d0 4b ee a2 be 5c 45 26 bf 73 d6 09 bc cc 42 b4 bc
       -0.31822428 -0.64949584 -0.008412945 -0.022004507
0001e0 e7 d5 ca be 9b f5 6b be 07 97 9e bc a2 a6 22 be
       -0.3961632 -0.2304291 -0.019359125 -0.15883878
0001f0 e7 ed 0e 3e 48 1b b5 bd 2f 67 00 3c fe 1c c6 3d
       0.1395794 -0.08843094 0.007837101 0.096734986
000200 95 dc a5 be 23 0f 81 be b7 31 96 3e 0c e8 c8 bd
       -0.32394853 -0.2520686 0.29334804 -0.098098844
000210 c0 f3 90 3e f3 3c d1 bd 96 42 f0 b9 b2 ca 1e 3e
       0.28310966 -0.10216703 -0.00045825978 0.1550701
000220 46 d5 a0 3e fe 74 37 be 64 1b 46 be 5f 78 b5 bd
       0.31412715 -0.17915723 -0.19346386 -0.088608496
000230 c8 23 6f 3e 01 44 0d 3e ec 61 18 be c4 24 94 be
       0.23353493 0.13795473 -0.14881104 -0.289343

network_body.observation_encoder.processors.1.fc.seq_layers.2.bias f4 [12]
000000 44 5a 12 bd e4 dd 6a bc 16 f8 b7 bd 6e e8 58 3d
       -0.035730615 -0.014335129 -0.089828655 0.052956037
000010 21 02 5f bb 16 3f f7 bb af 15 74 bd 9c c0 be 3c
       -0.0034028369 -0.007545362 -0.05959099 0.023285203
000020 39 ee ab 3d c4 6d bf bc 38 5e 80 3d 1d 76 64 3c
       0.08395047 -0.02336777 0.06267971 0.013944176

network_body._body_endoder.pre_attention.query.bias f4 [34]
000000 00 00 00 00 00 00 00 00 00 00 00 00 00 00 00 00
       0.0 0.0 0.0 0.0
000010 00 00 00 00 00 00 00 00 00 00 00 00 00 00 00 00
       0.0 0.0 0.0 0.0
000020 00 00 00 00 00 00 00 00 00 00 00 00 00 00 00 00
       0.0 0.0 0.0 0.0
000030 00 00 00 00 00 00 00 00 00 00 00 00 00 00 00 00
       0.0 0.0 0.0 0.0
000040 00 00 00 00 00 00 00 00 00 00 00 00 00 00 00 00
       0.0 0.0 0.0 0.0
000050 00 00 00 00 00 00 00 00 00 00 00 00 00 00 00 00
       0.0 0.0 0.0 0.0
000060 00 00 00 00 00 00 00 00 00 00 00 00 00 00 00 00
       0.0 0.0 0.0 0.0
000070 00 00 00 00 00 00 00 00 00 00 00 00 00 00 00 00
       0.0 0.0 0.0 0.0
000080 00 00 00 00 00 00 00 00
       0.0 0.0

network_body._body_endoder.pre_attention.value.bias f4 [34]
000000 4b 55 23 bd bb ba f8 bc b4 2a 64 bd 39 c5 62 3a
       -0.039876264 -0.030362478 -0.055704787 0.0008650604
000010 9f 4d 5d bd 3c d6 a8 bc 39 be 7c 3d 9f c3 f8 3c
       -0.054029103 -0.020609967 0.061704848 0.030366717
000020 5d f3 0e 3d 40 4a cb bc 3d 35 8a 3d 9f d0 62 3b
       0.034900058 -0.024815679 0.06748436 0.003460921
000030 51 67 55 3d 4d d9 be 3c ad 18 09 3d 0e 24 b3 3b
       0.052100483 0.023296976 0.0334708 0.0054669445
000040 aa a6 b0 3d b0 18 7c bc 5a cf aa 3b 04 78 d5 3b
       0.08625539 -0.015386745 0.0052127065 0.006514551
000050 8c a0 63 bd 9e 37 74 3d 5f 7e 3b bd 2b 33 70 bc
       -0.05557303 0.059623353 -0.045774814 -0.014660637
000060 52 28 cd bd e6 2b 1a 3d 78 c5 1b bc 68 9f 8a bc
       -0.10017456 0.03763952 -0.009507529 -0.016921714
000070 7f 03 89 bd 12 c9 a2 3c 25 c0 90 3d ff 62 bf bc
       -0.0669012 0.019871268 0.07067899 -0.023362635
000080 7a 1e 82 3d 88 90 23 3c
       0.06353469 0.009983189

network_body._body_endoder.pre_attention.norm.weight f4 [34]
000000 61 67 7b 3f 21 81 77 3f 1c 15 71 3f 11 78 89 3f
       0.9820462 0.9668141 0.94172835 1.0739766
000010 67 aa 6f 3f f9 7b 67 3f 42 6e 7a 3f 61 da 60 3f
       0.9361939 0.9042354 0.9782449 0.8783322
000020 83 68 73 3f c9 c1 7a 3f 9d 0e 83 3f f5 0f 79 3f
       0.9508135 0.9795194 1.0238835 0.97289973
000030 8a fa 79 3f 8c 4a 7d 3f 03 bb 76 3f 4d 19 6c 3f
       0.9764792 0.98941875 0.9637911 0.92226106
000040 14 6b 74 3f e6 a2 7e 3f 9d 05 6b 3f 05 ac 6b 3f
       0.9547589 0.99467313 0.9180544 0.92059356
000050 89 70 6f 3f f1 a0 80 3f 1d c2 84 3f 9e 4f 84 3f
       0.9353109 1.0049115 1.0371739 1.0336797
000060 ca 54 8d 3f ff 48 8e 3f 4c 11 7e 3f a3 a3 88 3f
       1.10415 1.1116027 0.9924514 1.0674938
000070 42 03 82 3f be 13 7f 3f 1e 7b 82 3f 21 3f 72 3f
       1.0157244 0.996395 1.0193822 0.9462758
000080 d1 fa 7a 3f e5 be 78 3f
       0.98038965 0.9716628

network_body._body_endoder.pre_attention.norm.bias f4 [34]
000000 af 40 e4 3c 4b d6 37 3d 95 17 1a 3d 81 7b 97 bc
       0.027862875 0.0448821 0.037620146 -0.018491508
000010 0b 48 dd 3b ee 97 3b 3d 40 9e 82 bc 7a 24 d1 bc
       0.006752973 0.04579919 -0.0159446 -0.025530089
000020 3e 36 10 bd 73 b3 fe 3b 13 3d 0a bd c5 63 9e bc
       -0.03520798 0.007772857 -0.03374965 -0.019334683
000030 10 44 1d bd 2e 32 46 bd 1d 78 22 bd f9 76 3b bb
       -0.038394988 -0.0483877 -0.03966533 -0.0028604849
000040 87 c3 a1 3b 74 4b 2e 3d 01 b1 47 bd e6 dd 45 3c
       0.0049366388 0.042552426 -0.04875279 0.0120768305
000050 23 51 fd bc a0 34 07 bd 86 27 43 3b a8 36 c9 bc
       -0.030922478 -0.03300917 0.0029778196 -0.024562195
000060 36 e3 ce bc b8 e0 af 3b b5 8c b7 bb 25 b5 9e 3c
       -0.025254827 0.0053673647 -0.0056014904 0.019373486
000070 c3 a6 4b bc 4e 90 4d 3b 51 fd 31 3c 9f dc 50 3d
       -0.012429896 0.003136653 0.010863618 0.05099165
000080 b1 5d 29 3d 02 d1 50 3d
       0.041349117 0.050980575

network_body._body_endoder.post_attention.query.bias f4 [68]
000000 00 00 00 00 00 00 00 00 00 00 00 00 00 00 00 00
       0.0 0.0 0.0 0.0
000010 00 00 00 00 00 00 00 00 00 00 00 00 00 00 00 00
       0.0 0.0 0.0 0.0
000020 00 00 00 00 00 00 00 00 00 00 00 00 00 00 00 00
       0.0 0.0 0.0 0.0
000030 00 00 00 00 00 00 00 00 00 00 00 00 00 00 00 00
       0.0 0.0 0.0 0.0
000040 00 00 00 00 00 00 00 00 00 00 00 00 00 00 00 00
       0.0 0.0 0.0 0.0
000050 00 00 00 00 00 00 00 00 00 00 00 00 00 00 00 00
       0.0 0.0 0.0 0.0
000060 00 00 00 00 00 00 00 00 00 00 00 00 00 00 00 00
       0.0 0.0 0.0 0.0
000070 00 00 00 00 00 00 00 00 00 00 00 00 00 00 00 00
       0.0 0.0 0.0 0.0
000080 00 00 00 00 00 00 00 00 00 00 00 00 00 00 00 00
       0.0 0.0 0.0 0.0
000090 00 00 00 00 00 00 00 00 00 00 00 00 00 00 00 00
       0.0 0.0 0.0 0.0
0000a0 00 00 00 00 00 00 00 00 00 00 00 00 00 00 00 00
       0.0 0.0 0.0 0.0
0000b0 00 00 00 00 00 00 00 00 00 00 00 00 00 00 00 00
       0.0 0.0 0.0 0.0
0000c0 00 00 00 00 00 00 00 00 00 00 00 00 00 00 00 00
       0.0 0.0 0.0 0.0
0000d0 00 00 00 00 00 00 00 00 00 00 00 00 00 00 00 00
       0.0 0.0 0.0 0.0
0000e0 00 00 00 00 00 00 00 00 00 00 00 00 00 00 00 00
       0.0 0.0 0.0 0.0
0000f0 00 00 00 00 00 00 00 00 00 00 00 00 00 00 00 00
       0.0 0.0 0.0 0.0
000100 00 00 00 00 00 00 00 00 00 00 00 00 00 00 00 00
       0.0 0.0 0.0 0.0

network_body._body_endoder.post_attention.value.bias f4 [68]
000000 5a 60 a2 bc 9e 29 95 3b a5 0f 20 3a 38 b8 19 3d
       -0.019821335 0.0045520803 0.0006105847 0.0375292
000010 49 d3 b5 bc 9b ec 56 3c 60 92 ca bb fc c7 9a 3c
       -0.022195475 0.013117935 -0.006182 0.018894188
000020 8f c4 c2 3b db 8a 3e 3c 06 8e 6e 3c be 73 03 3c
       0.0059438418 0.011629785 0.014560228 0.008023201
000030 46 30 4d 3c 6b 2a 26 bc 4c 42 45 3d b7 ad bf 3c
       0.012523716 -0.010141949 0.04815893 0.023398263
000040 dc 9f 9b bc 0f e7 df 3c 19 58 6f bc 03 e4 8f 3b
       -0.018997125 0.027331857 -0.014608406 0.004391195
000050 83 6d 24 bc 27 1b 0f bc 7b 0c b6 bc 2b 0a 72 bb
       -0.010035875 -0.008734501 -0.022222748 -0.003693233
000060 8a a7 19 bd 87 b9 32 3c 6c 9a e2 bb 99 1e 00 3c
       -0.037513293 0.010908491 -0.006915381 0.007819795
000070 8f 2e b4 bc 33 15 d3 bb c7 c6 9c bb 09 0c d0 3c
       -0.021994857 -0.006441736 -0.0047844383 0.025396364
000080 96 55 27 3c be 9d 9c 3c 2f 32 2f 3c b2 a8 8f bd
       0.010213276 0.019118186 0.010693117 -0.07014598
000090 8a 98 22 bd 89 60 7a bc 85 36 7c 3c 93 86 f1 bc
       -0.039696254 -0.015281805 0.015393858 -0.029483115
0000a0 93 ef b0 3c 21 b3 4e bc 24 12 c8 3a 41 66 99 3c
       0.021598613 -0.01261595 0.0015264195 0.018725516
0000b0 76 fe 17 3c f2 41 4b 3b 16 34 e8 39 45 99 1a bc
       0.009276977 0.0031014648 0.00044289295 -0.009435956
0000c0 ae af ad bb 06 98 e2 bc 5e 55 d6 3c 8b 03 83 3c
       -0.0053004837 -0.027660381 0.026163753 0.0159929
0000d0 20 64 a2 ba be fd b5 bc c5 0e 6e 3b f6 97 82 3c
       -0.0012389459 -0.02221572 0.0036324721 0.015941601
0000e0 86 38 0d bc 06 c4 0d 3c 7f e1 bb 3c 47 2d 09 3b
       -0.008619433 0.008652693 0.022934673 0.0020931528
0000f0 15 fa 6d 3b 4f d0 2a 3c 4b 0e 13 bc 6b d4 13 bd
       0.003631239 0.010425641 -0.008975576 -0.03609125
000100 df a6 34 bc 9c 3c 50 3b 12 f4 ab bc 1b c2 cf 3c
       -0.011026113 0.0031774407 -0.020990405 0.025361111

network_body._body_endoder.post_attention.norm.weight f4 [68]
000000 d2 6d 7b 3f 98 fc 81 3f 9c d9 85 3f a5 aa 76 3f
       0.9821445 1.015521 1.0457034 0.9635413
000010 38 06 85 3f f7 06 7f 3f 4a 0f 7f 3f 05 00 86 3f
       1.0392523 0.9962 0.99632704 1.0468756
000020 0a c9 78 3f 8a f4 73 3f 83 d7 81 3f 87 a0 82 3f
       0.9718176 0.9529501 1.0143894 1.0205239
000030 f1 09 82 3f c7 71 7f 3f 6c 4d 73 3f 93 9f 7b 3f
       1.0159284 0.99782985 0.9504001 0.98290366
000040 a8 45 7e 3f 5e e2 7f 3f 28 b4 7a 3f 5a 6f 73 3f
       0.99325037 0.99954784 0.97931147 0.95091784
000050 73 0d 70 3f 39 a8 7b 3f 8c 78 80 3f c9 1c 80 3f
       0.9377052 0.9830356 1.0036788 1.0008785
000060 14 4c 80 3f e6 e2 75 3f 74 a0 84 3f 22 90 82 3f
       1.0023217 0.96049345 1.0361466 1.0200236
000070 67 b9 85 3f f2 03 77 3f f7 44 7b 3f 07 6d 85 3f
       1.0447205 0.96490395 0.98152107 1.0423898
000080 2c 47 7d 3f a9 86 6c 3f 45 61 82 3f 30 c8 82 3f
       0.98936725 0.92392975 1.0185934 1.0217342
000090 0e c1 80 3f 93 0e 7e 3f 14 d1 74 3f c3 4f 86 3f
       1.0058916 0.9924099 0.9563153 1.0493091
0000a0 34 75 7c 3f c9 3d 89 3f a0 cc 7d 3f 01 19 79 3f
       0.9861634 1.072198 0.9914036 0.9730378
0000b0 2d 83 76 3f b0 c1 84 3f e0 30 82 3f 2e 96 83 3f
       0.9629391 1.0371609 1.0171165 1.0280206
0000c0 47 64 77 3f 62 af 7d 3f b5 b0 84 3f 7b 7d 7a 3f
       0.96637386 0.9909574 1.0366427 0.9784772
0000d0 cd 02 8a 3f ae 6f 79 3f 4e 6f 83 3f 4e 17 7f 3f
       1.0782105 0.97436035 1.0268342 0.99644935
0000e0 2f 67 81 3f 96 e3 7d 3f 78 c0 7b 3f f6 4f 79 3f
       1.0109614 0.99175394 0.9834056 0.97387636
0000f0 4e 66 7b 3f 6b 15 81 3f 53 f0 80 3f af d9 76 3f
       0.9820298 1.0084661 1.0073341 0.9642591
000100 12 a9 7f 3f df ba 80 3f be f7 7c 3f 4f 63 7d 3f
       0.99867356 1.0057029 0.98815525 0.9897966

network_body._body_endoder.post_attention.norm.bias f4 [68]
000000 ce 76 bf bc 09 60 7c ba a7 26 7d bc 94 f2 34 3d
       -0.02337208 -0.00096273475 -0.01545111 0.044176653
000010 0b 28 8d bc 54 90 61 3c 24 fc 76 bc 38 9e 04 3d
       -0.017231008 0.013767321 -0.015074763 0.03237745
000020 04 90 66 b9 42 f0 f5 3b d1 59 ad 3c dc 24 7a 3c
       -0.0002198816 0.0075054476 0.021160992 0.015267577
000030 fe 07 c3 3b 4c 86 59 bc 8a ff 66 3d 61 4e de 3c
       0.0059518805 -0.013276648 0.056396045 0.027136983
000040 9f f9 48 bc 0e f2 95 3c 97 53 46 bc 26 a5 f7 3b
       -0.012266546 0.018303897 -0.01210489 0.007557529
000050 b1 67 75 bc 7b e5 6b bc 35 0e af bc 73 4f a9 bb
       -0.014978335 -0.014397974 -0.02136908 -0.005166942
000060 c1 e5 3f bd ff 93 ac 3c 29 b4 3d bc 78 4c 0a bb
       -0.04684997 0.021066664 -0.011578598 -0.0021102708
000070 cd db 98 bc a5 2b 4c bc ab 23 19 3c ae 18 fd 3c
       -0.018659497 -0.012461578 0.009346883 0.030895557
000080 c1 40 44 3c c1 03 61 3c 34 2a 64 3c 75 43 8c bd
       0.011978329 0.013733805 0.013926078 -0.06848804
000090 4c 09 40 bd 3e 6b f3 bb e5 52 48 3b b8 49 1f bd
       -0.046883866 -0.0074285557 0.0030566987 -0.038888663
0000a0 39 cd 70 3c 3a 82 4e bc 26 22 a0 bb 20 51 0d 3d
       0.014697366 -0.012604291 -0.0048868833 0.034501195
0000b0 bb 94 c7 3b 7d ca 90 3b c4 57 c2 3b 5a a6 21 bc
       0.006090728 0.0044186697 0.0059308726 -0.009866321
0000c0 fd 0d dc ba 25 a8 fb bc f7 c1 1c 3d 26 96 bc 3c
       -0.0016788837 -0.030719826 0.038270917 0.023020815
0000d0 b1 fc 2e 3b 3b 5d 8a bc 39 bb aa b8 19 50 06 3c
       0.0026700909 -0.016890159 -8.1411046e-05 0.008197808
0000e0 cd d3 84 bc ed d3 bd 3c 79 58 c2 3c 15 09 4f 3c
       -0.016214276 0.023172343 0.023723828 0.012636443
0000f0 5f d3 04 bb 96 a5 c2 bb 0d 36 72 bc 8b 83 da bc
       -0.0020267589 -0.0059401495 -0.0147833945 -0.026674053
000100 92 60 d9 bb 37 f2 25 3c 05 94 ed bc b4 87 fc 3c
       -0.0066338265 0.010128549 -0.029001245 0.030826427

network_body._body_endoder.norm1.weight f4 [34]
000000 3b 68 77 3f 10 77 74 3f fa 14 6c 3f e8 1b 88 3f
       0.9664342 0.95494175 0.9221951 1.0633516
000010 67 a1 68 3f c0 00 63 3f 17 8a 80 3f 19 22 67 3f
       0.9087128 0.8867302 1.0042142 0.90286404
000020 93 27 73 3f 80 30 78 3f ba 42 83 3f 9d c7 77 3f
       0.9498226 0.96949005 1.0254738 0.9678896
000030 10 52 7b 3f b7 8a 7e 3f c8 a9 77 3f 6c 74 6a 3f
       0.9817209 0.9943041 0.9674344 0.91583896
000040 95 6e 78 3f d1 c2 7c 3f 3c 83 6d 3f 8c 2f 6b 3f
       0.97043735 0.98734766 0.9277837 0.91869426
000050 1e fe 6b 3f f9 9a 81 3f 5d 6e 86 3f 0b 77 84 3f
       0.9218463 1.0125419 1.050243 1.0348829
000060 19 54 8b 3f 7c b9 8f 3f 35 3c 7f 3f c1 da 88 3f
       1.088504 1.122848 0.99701244 1.0691758
000070 7d d4 81 3f 27 1f 7d 3f e6 76 83 3f 8f 8c 74 3f
       1.0142971 0.9887566 1.027066 0.95526975
000080 7b 21 80 3f a5 be 79 3f
       1.0010217 0.97556525

network_body._body_endoder.norm1.bias f4 [34]
000000 3f e4 1f 3d 0a 6f 7d 3d ea 6f 5d 3d 51 2c 6b bc
       0.03903603 0.061873473 0.054061808 -0.014353828
000010 ae 40 bb 3c a9 f6 83 3d 08 41 38 bc c5 90 94 bc
       0.02285799 0.06443531 -0.011245973 -0.018135438
000020 ff ea fd bc 15 b5 a6 3c 75 c4 09 bd f1 81 78 bc
       -0.030995844 0.020350019 -0.03363462 -0.015167699
000030 d0 c7 10 bd dc 87 34 bd d8 6f 20 bd d8 67 86 3a
       -0.035346806 -0.044074878 -0.039169163 0.0010254337
000040 03 f6 c5 3b 34 a2 71 3d 74 02 2f bd 0c bf b5 3c
       0.00604129 0.05899258 -0.04272695 0.022185825
000050 2d ee c9 bc ad 35 07 bd 6d c2 1d 3c b1 1a c6 bc
       -0.024649704 -0.033010174 0.009628874 -0.02418265
000060 32 c2 9d bc cc a4 c6 3b c1 72 38 ba 86 3f be 3c
       -0.019257639 0.006062126 -0.00070361426 0.02322365
000070 7c bd 78 bb 66 02 8d 3b 72 e0 5c 3c 1f c4 67 3d
       -0.0037954738 0.0043032644 0.013481246 0.05658352
000080 15 4f 27 3d ee 53 62 3d
       0.040846903 0.055255823

network_body._body_endoder.norm2.weight f4 [68]
000000 46 1e 74 3f 7e f7 85 3f fe 49 83 3f 3a ad 7e 3f
       0.95358694 1.0466154 1.0256956 0.9948307
000010 53 cd 81 3f 7f 3f 84 3f df 7b 86 3f a5 aa 88 3f
       1.0140785 1.0331877 1.0506552 1.0677077
000020 a5 14 77 3f 6c b1 7f 3f e8 fb 82 3f 2b ec 7e 3f
       0.96515876 0.998801 1.0233126 0.99579114
000030 6d 81 7e 3f dd e6 71 3f d7 6b 79 3f 03 1f 7c 3f
       0.9941624 0.94492894 0.97430176 0.9848482
000040 14 7d 83 3f 5c 8e 81 3f 85 86 7b 3f f7 cd 80 3f
       1.0272546 1.012157 0.98252136 1.0062855
000050 4c 5c 7f 3f b7 18 83 3f 2f 69 86 3f 71 97 6f 3f
       0.9975021 1.0241917 1.050085 0.93590456
000060 3a 4a 81 3f b2 23 75 3f c2 2e 84 3f 1c 2e 80 3f
       1.0100777 0.9575759 1.0326769 1.0014071
000070 e1 6c 76 3f c2 6b 83 3f 88 d6 83 3f 97 2a 7b 3f
       0.96259886 1.026726 1.0299845 0.9811186
000080 ed 39 85 3f 3b f1 6b 3f 3a 63 85 3f fb bc 89 3f
       1.0408303 0.92164963 1.0420907 1.0760797
000090 9a f6 82 3f d1 68 83 3f a1 f6 7e 3f 8f 9a 7c 3f
       1.0231507 1.0266362 0.99595076 0.9867334
0000a0 52 62 7d 3f c3 7a 89 3f f0 e9 82 3f 4a 5e 7f 3f
       0.9897815 1.0740589 1.0227642 0.9975325
0000b0 97 3b 74 3f 59 20 86 3f 97 bc 83 3f e1 53 87 3f
       0.95403427 1.0478622 1.0291928 1.0572473
0000c0 53 e8 7e 3f b0 6c 80 3f 6e ab 84 3f e6 42 80 3f
       0.9957325 1.0033169 1.0364816 1.0020416
0000d0 21 59 8b 3f 5f 42 7d 3f 14 3e 7e 3f 5c ec 6f 3f
       1.0886575 0.989294 0.99313474 0.9372003
0000e0 73 38 82 3f 5e 72 7e 3f 1d a1 5c 3f f5 0c 85 3f
       1.0173477 0.9939326 0.8618334 1.0394579
0000f0 45 47 80 3f e5 cb 7e 3f 5b 0e 7e 3f a7 25 7c 3f
       1.002175 0.9952987 0.99240655 0.9849495
000100 d3 8b 80 3f 99 57 81 3f cf 6b 84 3f 9c 3a 84 3f
       1.0042671 1.0104858 1.03454 1.0330386

network_body._body_endoder.norm2.bias f4 [68]
000000 cf 3a 4d bc 05 d6 50 bb 73 f6 f7 bc 31 7b 5a 3d
       -0.012526228 -0.0031865847 -0.030268883 0.05334014
000010 1b 2e 2e 3a dc cc c9 3c 00 af 8e bc 16 28 13 3d
       0.00066444435 0.024633817 -0.01741743 0.0359269
000020 3a f8 6d bc ba 78 f4 3b ce 17 c0 3c 4f 9b 96 3c
       -0.014524514 0.007460681 0.023448851 0.018384604
000030 26 22 95 ba 36 c8 cc bc 26 3a 8a 3d c6 01 2f 3d
       -0.0011377975 -0.024997812 0.06749372 0.0427263
000040 c8 26 5e 3c 2d cb 24 bc 06 b2 45 3b 0b 70 eb bb
       0.013559051 -0.0100582065 0.0030165925 -0.0071849874
000050 11 65 a2 bc df 53 8e 3b 37 06 f3 bb 6d 77 05 bb
       -0.019823583 0.0043434943 -0.0074165124 -0.0020365373
000060 70 81 04 bd 67 90 89 3d 18 50 fa bc 75 65 b0 bc
       -0.032350004 0.06716996 -0.03055577 -0.021532753
000070 df 19 8f bc fb 5b e9 bc 2a 9f 2f 3d ca 64 ea 3c
       -0.017468391 -0.028486243 0.0428764 0.028612513
000080 49 b7 9c 3c 40 cd a8 3c ca 58 4a 3c 28 69 04 bd
       0.019130366 0.020605683 0.0123502705 -0.032326847
000090 44 f5 45 bd 27 28 ba bc 0b e2 97 bc bc aa 73 bd
       -0.048329607 -0.022724224 -0.018540403 -0.059488997
0000a0 01 16 bb 3b 5f 1e 20 bc a2 0d 41 bc f6 78 7c 3d
       0.00570941 -0.009772866 -0.0117830355 0.061638795
0000b0 a8 60 fd bc 2d 8b 99 3c 61 92 23 3c a4 f7 67 bc
       -0.030929878 0.018743122 0.00998363 -0.014158163
0000c0 85 95 20 3c 25 77 20 bd 02 d4 79 3d b4 33 3a 3d
       0.009801273 -0.039176125 0.060993202 0.045459464
0000d0 11 3e 3d 3c 23 d2 a4 3c c3 47 59 bc 3c 72 33 bc
       0.011550442 0.020119732 -0.013261738 -0.010952529
0000e0 d4 eb 63 3a 84 6a 55 3d 67 7a dd bc e1 24 fa 3c
       0.0008694504 0.052103534 -0.027035905 0.030535163
0000f0 da 31 8e bc 40 d7 1e bd 1d 98 de 3b 4c 9c 8f 3c
       -0.017357755 -0.038779497 0.0067930357 0.017530583
000100 d2 83 ff bc db ee ec 3c 07 10 af bc 5c c2 14 3d
       -0.031190787 0.028922489 -0.021369947 0.036318168

network_body._body_endoder.mlp.0.weight f4 [68, 34]
000000 6c 44 b3 3d 40 87 8e 3d de e0 2a bd a9 42 4f 3d
       0.08753285 0.06959391 -0.041718356 0.05060068
000010 ed 48 e3 bc 96 6f 0f 3e bd 00 ba 3d 8f 55 2f 3d
       -0.027744735 0.1400741 0.09082172 0.042806204
000020 54 a8 66 3d d9 93 fb 3d 8f af 1b be 4a 56 32 3d
       0.056312874 0.12284059 -0.15203689 0.043539323
000030 72 ff d1 bd 90 a2 d7 3d 4a 30 12 be 3b 2e 88 3d
       -0.102538005 0.10529053 -0.14276233 0.06649443
000040 b0 20 19 3e 12 c1 bf bc 85 8c f9 bd 64 48 27 bd
       0.14953876 -0.023407493 -0.12185005 -0.04084052
000050 37 95 3e 3d c4 30 0c 3e c5 e1 18 3e 6a 15 00 3e
       0.04652902 0.13690478 0.14929874 0.12508169
000060 80 ed d2 bd d9 d5 b2 3d fb 41 fa bd fc ab 60 3e
       -0.10299206 0.087321945 -0.12219616 0.21940607
000070 36 08 46 3e f5 01 1a be b6 43 b3 bd 3d b4 a5 3d
       0.1933907 -0.15039809 -0.08753149 0.08091018
000080 cb fe 11 3d b0 9e 3e 3d c7 83 ee bd 97 4f b7 39
       0.03564338 0.046538055 -0.11646228 0.0003496378
000090 b0 52 64 bc c3 7e 75 bd fd 74 a5 3d 70 bf b4 3d
       -0.01393573 -0.059935343 0.08078954 0.08825576
0000a0 fe 11 b3 bd 81 d6 99 3d 38 a7 97 bd c7 1b b7 3d
       -0.08743666 0.075116165 -0.07404941 0.08940845
0000b0 d1 98 a7 bd 65 3f e4 bd 4a 54 d0 3c e3 2d 17 3d
       -0.08183444 -0.11144904 0.025430817 0.036908995
0000c0 c3 07 12 bd e9 8a 16 3e aa 59 e1 3c 76 07 9d bd
       -0.035651933 0.14701428 0.027508575 -0.07667439
0000d0 0f 02 ad 3d 30 93 56 bc 79 11 0c bc b4 c0 44 bd
       0.08447658 -0.013096616 -0.008549088 -0.04803534
0000e0 cb b3 57 3e 71 92 3c be 42 65 be bc 7b 55 f2 3c
       0.2106468 -0.18415238 -0.023241643 0.029581776
0000f0 3b 82 ba bc a4 e4 31 3e 73 2a 71 3e 4c cb 02 be
       -0.022767177 0.17372376 0.2355135 -0.12772864
000100 82 88 ff bd e2 44 c7 bc 14 90 ce 3c 7d bd 08 3e
       -0.12477209 -0.024324838 0.025215186 0.13353534
000110 02 51 1f be b2 48 23 3d ae f4 97 3d 2e 22 6c 3d
       -0.15558246 0.03986425 0.07419716 0.057649784
000120 e2 e3 57 be 11 44 24 be 06 43 18 3e b1 7c f9 3d
       -0.21083024 -0.1604159 0.14869317 0.12181986
000130 c4 de b5 bd d9 e4 88 bd b2 a8 c8 3d 8c 11 d6 bd
       -0.0888038 -0.06684274 0.09797801 -0.104525656
000140 38 5a ed bc a2 8d 48 be 0d 95 b3 3b 31 e4 86 3d
       -0.028973684 -0.19585279 0.0054804147 0.06586493
000150 e5 0a 94 3d c9 83 fc bd 62 8b ab 3b ac f6 d1 3d
       0.072286405 -0.123298235 0.0052351216 0.10252127
000160 34 03 22 be be 4a 1c 3e ef de 0a 3c 0d 4d 38 be
       -0.15821534 0.15262887 0.008476003 -0.17998143
000170 42 f2 e6 3d bf e2 58 3e 2e 58 d6 bc 87 ee 00 3e
       0.11276676 0.21180247 -0.026165094 0.12590991
000180 66 1e 55 bb 70 5c 05 be 8a 4b f3 3d b0 59 39 bc
       -0.003251934 -0.13023543 0.11879642 -0.011312887
000190 c7 b3 ff 3d 7d 73 d3 3d 60 e0 cf 3b eb ec d5 3d
       0.12485462 0.10324762 0.0063438863 0.10445579
0001a0 6e c9 da bd 39 ea 41 3e f1 27 7c bb 9e d8 fe 3d
       -0.10682951 0.18937005 -0.0038475955 0.1244366
0001b0 0f 69 5d 3e 55 f8 76 3d ef 91 47 3c 84 40 f8 bc
       0.21622108 0.06029542 0.012180789 -0.030304201
0001c0 d4 60 b1 3c c5 ae 01 be a8 6e 3f 3e 5a a6 ad bd
       0.021652617 -0.12664326 0.18694556 -0.08478995
0001d0 8c ee 39 3e 71 08 bd 3c 3d bc 88 bd a7 ab fe bc
       0.18157405 0.023075314 -0.066765286 -0.03108771
0001e0 63 81 db bd 5a 6f 95 bd 07 30 ce 3d 38 39 4c 3d
       -0.10718038 -0.07296629 0.10067754 0.049859256
0001f0 08 81 97 3a 97 3c c9 3c 4e e2 e4 bd 71 69 77 bc
       0.001155884 0.024565024 -0.11175977 -0.015100823
000200 6b 60 9b 3d 70 c2 4b 3b e5 b8 1b 3e e9 0c 9f 3d
       0.0758675 0.0031091236 0.1520725 0.07766134
000210 d9 ef 05 be 83 f4 a6 bc 13 78 0d bc 26 d5 7a 3d
       -0.13079776 -0.020380264 -0.008634585 0.06123843
000220 78 b2 45 bd 2a 54 66 bd 7b 99 73 bd 44 29 12 3e
       -0.048265904 -0.05623261 -0.059472542 0.14273554
000230 47 ea 0a 3e 24 37 db 3d 75 73 ab 3d c6 68 0e 3e
       0.13565932 0.107038766 0.08371631 0.13907155
000240 1f d8 45 3b 8e b2 6e bd bb 6e b7 bc f1 f8 ad 3d
       0.0030188633 -0.05827575 -0.022391668 0.084947474
000250 54 b7 2a 3e a4 90 a2 bd eb b0 3b 3e fa 1a be bd
       0.16671497 -0.07937744 0.18329208 -0.09282489
000260 f5 32 c0 3d 33 2f 2d be 72 2e 8c bd f8 9e 08 be
       0.09384719 -0.16912536 -0.06844796 -0.13341892
000270 3c f8 8d bc f3 85 2b bd 19 43 ca 3d 0d 93 b4 3d
       -0.017330281 -0.04187579 0.09876079 0.0881711
000280 cb 34 5a be 08 80 84 3d b1 26 d6 3d 72 f3 f6 3c
       -0.21309201 0.064697325 0.104565986 0.03014538
000290 26 e9 b3 3d ad c2 5d 3d d4 8b cb 3d bb a1 46 bd
       0.08784704 0.054140735 0.099387795 -0.048494082
0002a0 46 cb 1c 3d 17 4d e7 bd f4 26 48 3d 13 84 34 bd
       0.038279794 -0.112940006 0.048865274 -0.04407127
0002b0 ac 75 1b 3d 7a fe 86 be e4 21 4c 3e 56 5b 1e 3d
       0.037954018 -0.26366025 0.19934803 0.038661323
0002c0 b7 12 c6 bd be 81 18 3e 36 63 a1 bd dc 43 63 be
       -0.09671538 0.14893243 -0.07880251 -0.22193855
0002d0 16 ba 16 3d 3d 15 09 3e 69 19 7f bd cd 56 32 3e
       0.03679856 0.13387008 -0.062280092 0.17415924
0002e0 0c 9e e7 3d 43 c0 1b be 60 99 0b be e5 4e 83 bd
       0.11309442 -0.15210061 -0.13632727 -0.06411532
0002f0 ef de 1b be b7 22 17 3d 93 da f5 3c 33 bb 5c 3e
       -0.15221761 0.03689834 0.03001145 0.21555786
000300 85 c4 fe bc e7 99 60 3b 25 74 ae 3d db 5f 03 3e
       -0.031099567 0.003427142 0.085182466 0.12829535
000310 ff 57 0e be 51 ba 43 3e 13 51 a5 bd 98 18 53 be
       -0.13900755 0.19114043 -0.08072104 -0.2061485
000320 06 90 83 3c d8 90 a8 bd 8a cb c0 3d d4 6b 41 3e
       0.016059887 -0.08230752 0.09413822 0.1888879
000330 e9 0b 16 3e 11 df 9f 3b 42 75 33 3e 33 68 8e 3d
       0.14652981 0.0048788865 0.17525199 0.06953468
000340 2a 84 1a 3e 03 ef 10 be 68 b4 ac bd 9b 48 d9 bd
       0.15089479 -0.14153676 -0.08432847 -0.106095515
000350 93 b4 0a 3b 2a f1 83 3d 12 1b 8f bd 17 4a d9 3d
       0.002116476 0.06442483 -0.06987585 0.10609835
000360 cb 5c 49 be 12 71 da 3c a7 a4 a8 bd df 21 5c bd
       -0.19664304 0.026665244 -0.0823453 -0.05374324
000370 0b fd 59 be 33 b2 46 3d 39 e3 ca bd 4d 5f af 3c
       -0.21287934 0.048509788 -0.099066205 0.021407748
000380 d8 02 23 bd b3 29 f8 bc 5b 27 cc bd 77 13 e8 3c
       -0.039797634 -0.030293321 -0.09968444 0.028329594
000390 43 e7 49 3e 4e 59 94 be 94 c0 a5 bd a0 bc 4c be
       0.19717126 -0.28974384 -0.08093372 -0.1999383
0003a0 ae e8 3e bd 53 5d 06 3e d8 3b 4a bd c0 8e 0a 3d
       -0.04660862 0.13121538 -0.049373478 0.033827543
0003b0 0d 7a e9 bd a2 0d 5b bd 24 3d 0f be c4 2d a8 3d
       -0.114002325 -0.0534798 -0.13988167 0.08211854
0003c0 5f 8f 66 bd ac 23 48 3e cd f0 30 3e 25 96 af bd
       -0.056289073 0.19544858 0.17279358 -0.0857356
0003d0 32 3d 86 bd 7d 77 14 be f4 86 3c bd 7e ba d4 bc
       -0.06554641 -0.14498706 -0.04602714 -0.025967833
0003e0 bf d7 a8 3d 93 de eb 3c 93 f2 de 3d 29 88 cd bb
       0.08244275 0.028792655 0.10886111 -0.006272335
0003f0 c4 01 d2 bc 60 3f da 3d 64 01 b4 bd 96 0c 39 be
       -0.025635608 0.10656619 -0.08789328 -0.18071207

network_body._body_endoder.mlp.0.bias f4 [68]
000000 db e7 02 be 30 3a a3 3d 52 57 32 3d 0a 7a 0e 3e
       -0.12783758 0.07970083 0.043540306 0.13913742
000010 ca 54 ab 3d 76 46 0c bd 35 fa 8f 3d 21 f2 ae 3d
       0.083657816 -0.034246884 0.07030145 0.08542276
000020 43 29 5c bd cd 17 05 be f2 ad db bd 3a b0 04 be
       -0.053750288 -0.1299736 -0.10726537 -0.1295785
000030 37 7c e5 39 3b ce 1c 3d a4 da 0d be c7 24 fd 3b
       0.0004377083 0.038282614 -0.13852936 0.0077253315
000040 1a 64 1d be c9 6c dd 3d 11 90 0b 3e 51 73 da 3b
       -0.15370217 0.10811765 0.13629176 0.006666579
000050 50 91 4f 3e e2 d6 dd 3d 26 c7 48 3e c0 2e 13 3e
       0.20270276 0.10832001 0.19607219 0.14373302
000060 45 1e 08 bc 0a 9c b1 bd 3c fc 94 bb bd 68 d0 3d
       -0.008307998 -0.0867234 -0.0045466702 0.10176227
000070 7c 81 89 bd 10 b7 ce 3c c3 7c e1 3c 7c 07 aa bc
       -0.0671415 0.025233775 0.027525311 -0.020755522
000080 95 c0 cb ba 88 1f fa 3c 84 38 54 3d b0 d5 72 3c
       -0.0015545065 0.030532613 0.05181171 0.014821455
000090 f7 87 df 3d a6 fd 40 3e 77 ff 19 3e 84 20 db bd
       0.10914605 0.18846759 0.15038858 -0.10699561
0000a0 5c 0a 1b 3e e4 27 9a bd c5 99 2a 3c e1 04 4b 3e
       0.1514067 -0.0752714 0.010412638 0.1982608
0000b0 9e 2d 04 3e c1 74 a9 bd 93 07 7c bd 45 18 b3 3d
       0.12908027 -0.08274222 -0.06153066 0.087448634
0000c0 30 27 25 3e 82 34 80 3d 5a 71 b3 bd 8a 5b 17 be
       0.1612823 0.06260015 -0.087618545 -0.14781013
0000d0 4b 61 ca 3c de 7a 0e bd c1 82 33 3e 03 4d 94 bd
       0.024704596 -0.034785144 0.17530347 -0.07241251
0000e0 79 75 0f be 88 5c 05 3e 06 f1 35 3e 6b eb b7 bd
       -0.14009656 0.13023579 0.17767724 -0.08980449
0000f0 3d bf 7b bd ce 81 0c 3e 09 14 0d 3d ff d9 da 3d
       -0.061461676 0.13721392 0.034442935 0.10686111
000100 77 96 bc 3d 89 fc 1b 3e 98 5b a4 bd ef 77 a3 bd
       0.092083864 0.15233053 -0.080252826 -0.0798186

network_body._body_endoder.mlp.1.weight f4 [68]
000000 6c a6 85 3f 9c aa 89 3f 6d e5 77 3f 68 51 65 3f
       1.0441413 1.0755191 0.9683445 0.8957734
000010 a7 99 71 3f 97 e0 81 3f 2b 9c 93 3f 6c 49 81 3f
       0.9437508 1.0146664 1.1532034 1.0100532
000020 7f 9f 6e 3f 3b e8 79 3f 4f 82 95 3f b2 45 71 3f
       0.9321212 0.9761998 1.1680392 0.9424697
000030 d1 ec 80 3f 9d 7e 7f 3f ee 5e 84 3f bc 49 7f 3f
       1.0072271 0.9980257 1.034147 0.99721885
000040 f6 f8 87 3f 5c 21 8d 3f 28 62 76 3f 08 35 73 3f
       1.0622852 1.1025805 0.96243525 0.95002794
000050 1f 3b 7e 3f e9 88 7c 3f 01 09 7e 3f 2d 23 87 3f
       0.9930896 0.9864641 0.9923249 1.055761
000060 82 06 a2 3f bf 69 7c 3f 31 f4 6d 3f 34 4a 8c 3f
       1.2658236 0.98598856 0.9295073 1.0960145
000070 67 d5 81 3f 14 10 83 3f 8b 15 87 3f 5f ca 80 3f
       1.014325 1.0239282 1.0553449 1.0061759
000080 44 d4 96 3f c0 14 6e 3f 4a b3 6f 3f 94 b6 74 3f
       1.1783528 0.9300041 0.9363295 0.9559109
000090 11 02 81 3f 2a 94 85 3f dd 8a 6e 3f f1 00 83 3f
       1.0078756 1.0435841 0.9318064 1.0234662
0000a0 09 2b 7e 3f 42 7f 8b 3f 3c d1 7b 3f e7 4c 73 3f
       0.99284416 1.0898211 0.9836614 0.9503922
0000b0 03 b0 6b 3f 16 8f 86 3f 9f f9 85 3f 6a ac 7b 3f
       0.9206545 1.0512416 1.0466803 0.9830996
0000c0 88 95 7f 3f 7b ad 72 3f 1c 0a 94 3f 1c 72 80 3f
       0.9983754 0.9479596 1.1565585 1.0034823
0000d0 fc 1e 6b 3f bd 7e 72 3f 43 c1 80 3f 2b d5 8f 3f
       0.91844153 0.9472464 1.0058979 1.1236929
0000e0 9a 30 73 3f 34 83 6b 3f 7f 7b 7f 3f e2 46 96 3f
       0.94996035 0.91997075 0.99797815 1.1740382
0000f0 60 32 7b 3f cb 89 7f 3f de 38 9b 3f d9 c3 80 3f
       0.9812374 0.9981963 1.212673 1.0059768
000100 92 2a 71 3f 8a ea 7f 3f 13 81 80 3f c9 0f 84 3f
       0.9420558 0.99967253 1.003939 1.0317317
