Assets/oon/Lidar1.onnx (onnx, 116216 bytes, 27 tensors)

network_body.observation_encoder.processors.0.fc.seq_layers.0.weight f4 [22, 22]
-0.16278398 0.07828624 -0.10096405 -0.25989124 0.19039337 0.31548348 -0.30209118 0.05498312
-0.2943999 0.20318294 -0.36261138 -0.061244316 -0.0013346416 0.05198155 -0.17988455 -0.1315742
0.32773128 -0.10854858 -0.18874294 0.12706858 0.25507504 0.0902189 -0.1652227 -0.1334086
0.33084604 -0.11924268 -0.115567796 0.04232872 -0.071992554 -0.24349049 0.058315724 -0.008495933
0.37206295 0.21845685 0.03313769 -0.09446169 -0.021182578 0.029088376 0.07241053 0.10903628
0.20958452 0.22496459 -0.11267389 0.3513429 0.062535845 -0.10506559 -0.24147055 0.31465518
0.020175396 -0.34235764 -0.10573708 -0.025063718 0.17422156 0.13129684 0.11545201 -0.40852502
0.123111926 -0.25303417 -0.020153766 0.1629587 -0.47072992 -0.22869661 0.29598972 -0.037125405
-0.22489724 -0.032021448 0.350125 0.01689893 0.33057985 -0.35314158 -0.04282164 0.22972909
-0.17893128 0.049885333 -0.116957694 -0.16144776 0.120956294 0.32277435 -0.23306236 -0.0067979186
0.11633897 0.27180862 -0.19422175 0.15776707 -0.26039842 -0.35376495 0.40192428 -0.11179894
-0.06835376 -0.04798726 0.0148073295 0.25634596 0.32152766 -0.21611832 -0.3927471 -0.11552477
0.18483937 0.18940261 0.15343592 0.14957443 -0.114939354 0.0116696535 0.061297543 0.23398048
0.15533529 -0.18489078 -0.26102164 -0.08965938 -0.26495913 -0.30265638 -0.21859565 0.36271504
0.17463994 0.31245783 0.046339158 -0.09377559 0.15107727 -0.29847282 0.05116028 0.40843076
0.34100237 0.060063314 0.058342483 0.21220252 -0.046561643 0.27117187 -0.043809976 0.07743075
0.037809506 -0.2370668 0.013549346 -0.17370293 0.21392943 0.08958915 -0.38029066 0.22727469
-0.18751888 0.281762 -0.17037289 0.061555892 -0.18914045 -0.06543072 0.26509258 0.142565
0.0553286 -0.31928092 0.14105117 -0.25965276 -0.083590046 0.10528686 -0.16368566 0.12777361
0.15090118 -0.24812983 0.073956974 -0.21667711 0.1862183 -0.35411844 0.24765761 0.11690534
-0.07203393 0.3556706 -0.16763467 0.31389877 -0.03830188 0.1642462 -0.03031499 0.04314326
-0.2545852 0.2514639 -0.044891547 -0.384286 0.15793242 -0.24418113 -0.18875276 -0.48928833
0.009725874 -0.088417865 0.344471 -0.16587122 -0.15247233 -0.09555774 0.25650954 -0.3233593
0.18591641 0.053947147 0.10296446 0.0820555 0.21686092 0.12731117 0.03784754 0.17551261
-0.059939567 -0.097695135 -0.15951358 0.13514595 -0.36633357 -0.09927879 -0.20657064 0.1679442
-0.47645643 0.056143537 0.49687088 -0.1860205 0.32703453 -0.08959976 0.10131529 -0.24866681
-0.02477069 -0.21794717 0.16280708 0.07092302 -0.48583034 -0.35813037 -0.08119665 0.12747648
-0.4958624 -0.1847798 -0.1807318 -0.16787176 0.008438498 0.0511014 -0.0070846737 0.09918357
0.24730025 0.07210035 -0.11667624 -0.35868764 -0.13329278 -0.043180972 0.09828408 -0.4789183
0.10811806 -0.20979379 0.0070126303 -0.010782864 -0.29863137 0.36056697 -0.26577768 0.300606
0.108527094 0.18182625 0.03328023 0.080435336 0.03330559 0.18715364 -0.052352317 0.024216203
0.35437828 -0.03703696 -0.082255356 -0.15056975 0.26819345 -0.092025824 0.17715542 -0.1194959
00000000: d8b0 26be 8954 a03d 3dc6 cebd 7710 85be
00000010: 7bf6 423e 0d87 a13e b2ab 9abe fb35 613d
00000020: 95bb 96be 300f 503e 33a8 b9be 52db 7abd
00000030: 24ef aeba 9bea 543d a833 38be 63bb 06be
00000040: 65cc a73e b84e debd d445 41be 441e 023e
00000050: 3299 823e b0c4 b83d 2430 29be 449c 08be
00000060: a764 a93e 8235 f4bd cfae ecbd e160 2d3d
00000070: d570 93bd 9255 79be 78dc 6e3d 8732 0bbc
00000080: 097f be3e 27b3 5f3e 63bb 073d 2175 c1bd
00000090: 1687 adbc bf4a ee3c f94b 943d 6a4e df3d
000000a0: 539d 563e 1e5d 663e 92c1 e6bd 37e3 b33e
000000b0: cb12 803d a12c d7bd 0e44 77be 7c1a a13e
000000c0: df46 a53c 8049 afbe af8c d8bd 6d52 cdbc
000000d0: 2367 323e ae72 063e 1a72 ec3d 312a d1be
000000e0: 1b22 fc3d b28d 81be 8319 a5bc a5de 263e
000000f0: 8303 f1be 722f 6abe f78b 973e cf10 18bd
00000100: 764b 66be ec28 03bd 9643 b33e a06f 8a3c
00000110: c341 a93e f9ce b4be be65 2fbd 1a3e 6b3e
00000120: c339 37be 9054 4c3d 8487 efbd 9052 25be
00000130: efb7 f73d ae42 a53e e6a7 6ebe 13c1 debb
00000140: 2043 ee3d 802a 8b3e 11e2 46be b18d 213e
00000150: f152 85be ae20 b5be 05c9 cd3e d8f6 e4bd
00000160: 0efd 8bbd 4a8e 44bd 719a 723c c73f 833e
00000170: 469f a43e 1f4e 5dbe 2616 c9be 4098 ecbd
00000180: 8846 3d3e c2f2 413e 4e1e 1d3e 0a2a 193e
00000190: 5365 ebbd 1332 3f3c 2213 7b3d 9498 6f3e
000001a0: 3710 1f3e 0254 3dbe a1a4 85be 569f b7bd
000001b0: b9a8 87be c7f5 9abe 8ad7 5fbe c9b5 b93e
000001c0: d0d4 323e 79fa 9f3e 21ce 3d3d 6b0d c0bd
000001d0: 00b4 1a3e 6ed1 98be 718d 513d d61d d13e
000001e0: dd97 ae3e f304 763d 87f8 6e3d 9e4b 593e
000001f0: 6cb7 3ebd 0ad7 8a3e 1772 33bd 0394 9e3d
00000200: 24de 1a3d a4c1 72be 13fe 5d3c 2edf 31be
00000210: 5110 5b3e 847a b73d 75b5 c2be b2ba 683e
00000220: f304 40be 1c43 903e 3b76 2ebe 0822 7c3d
00000230: 09ae 41be 8b00 86bd 37ba 873e 8ffc 113e
00000240: 3ea0 623d ca78 a3be b86f 103e 35f1 84be
00000250: 4231 abbd a3a0 d73d 379d 27be 16d7 023e
00000260: d785 1a3e bf15 7ebe c176 973d 9be0 5dbe
00000270: 03b0 3e3e 034f b5be f599 7d3e 116c ef3d
00000280: 8686 93bd 751a b63e 6ca8 2bbe 57b7 a03e
00000290: 6fe2 1cbd 2830 283e 2457 f8bc fdb6 303d
000002a0: fe58 82be e0bf 803e 33e0 37bd 22c1 c4be
000002b0: 09b9 213e 9e0a 7abe 6748 41be 0084 fabe
000002c0: 4659 1f3c 6d14 b5bd 815e b03e 25da 29be
000002d0: b521 1cbe c7b3 c3bd 3855 833e 5a8f a5be
000002e0: df60 3e3e aff7 5c3d 08df d23d b70c a83d
000002f0: ca10 5e3e dc5d 023e 0606 1b3d 94b9 333e
00000300: 3183 75bd 6314 c8bd 8757 23be b363 0a3e
00000310: 1390 bbbe ae52 cbbd 4187 53be 90f9 2b3e
00000320: 19f2 f3be c4f6 653d dc65 fe3e 287c 3ebe
00000330: 1271 a73e 1480 b7bd 647e cf3d 83a2 7ebe
00000340: e7eb cabc 8b2d 5fbe e6b6 263e 1740 913d
00000350: c1be f8be dd5c b7be 6e4a a6bd 3289 023e
00000360: ade1 fdbe ea36 3dbe c211 39be 93e6 2bbe
00000370: a041 0a3c b44f 513d 8d26 e8bb c120 cb3d
00000380: 473c 7d3e 59a9 933d f4f3 eebd e8a5 b7be
00000390: e77d 08be 88de 30bd 2a49 c93d c834 f5be
000003a0: 006d dd3d 2fd4 56be 35ca e53b 9caa 30bc
000003b0: 36e6 98be 3c9c b83e 0314 88be 08e9 993e
000003c0: 7443 de3d a930 3a3e da50 083d 48bb a43d
000003d0: 716b 083d 34a5 3f3e 626f 56bd 0f61 c63c
000003e0: 1271 b53e 11b4 17bd 7f75 a8bd f52e 1abe
000003f0: a750 893e 0978 bcbd 3b68 353e 44ba f4bd

network_body.observation_encoder.processors.0.fc.seq_layers.0.bias f4 [22]
-0.006213096 -0.016820878 0.016390529 -0.05089675 0.0042646746 -0.02902583 -0.002787668 -0.025060162
0.034131426 0.02166585 0.00010346201 0.005894752 0.017239487 -0.0148892095 0.010669581 -0.021373345
0.00063722493 -0.02272481 0.042312115 -0.021778129 -0.01727548 -0.023461655
00000000: 3a97 cbbb f0cb 89bc 6e45 863c 1c79 50bd
00000010: afbe 8b3b 94c7 edbc 4fb1 36bb f84a cdbc
00000020: 65cd 0b3d 957c b13c bef9 d838 c428 c13b
00000030: d339 8d3c dff1 73bc 77cf 2e3c 2717 afbc
00000040: 710b 273a 6129 babc 784f 2d3d 0c68 b2bc
00000050: 4f85 8dbc a832 c0bc

network_body.observation_encoder.processors.0.fc.seq_layers.2.weight f4 [22, 22]
0.21509674 -0.41096222 0.052656773 -0.084228836 -0.000997272 0.27798986 -0.087555245 -0.06706054
0.14468434 -0.023695637 -0.09723221 -0.18388656 -0.28305432 -0.02033504 0.21739003 -0.009788511
0.13215013 -0.12866718 -0.27259305 -0.22704652 -0.06776633 0.013364728 -0.14224969 0.17198037
-0.07481704 0.06253687 -0.57189083 0.16357303 -0.0035360747 0.34254768 0.030248659 -0.23502252
-0.22009526 0.39288428 -0.11003547 0.2731364 0.3418184 0.2406438 -0.17551635 0.010717269
-0.43509266 0.057232566 0.20965308 0.09758112 -0.15641089 -0.014073763 0.013043381 0.0841594
-0.20340197 0.11644729 0.18283695 0.029016163 0.29909527 0.52344084 0.09391416 0.20142536
0.35710952 0.051974192 0.17518458 -0.00978978 -0.13296112 0.41806272 -0.15406296 -0.13932617
0.403382 0.027460642 0.23692046 -0.23475492 -0.20709626 0.15440193 0.18341106 0.013047568
-0.30644837 -0.2543078 0.15170848 -0.08737142 0.3121951 0.4934143 0.15679242 -0.22626528
-0.13468301 -0.21288143 -0.07051208 -0.5486371 0.3385987 -0.045289025 -0.43883184 0.0058330637
0.0043722847 0.29235005 -0.39463434 -0.06140498 -0.007085733 0.17413725 -0.06719045 0.020587409
0.33814505 0.28124136 0.24548262 -0.09281309 -0.17197067 -0.052111384 -0.08044384 0.22355224
0.3199636 0.00038174842 -0.20916326 -0.14707349 -0.34262836 -0.24235736 -0.15291375 0.073986776
0.42777595 0.17965974 -0.24779052 -0.43058488 -0.23647104 0.09306507 0.5107587 -0.43001875
0.18957847 -0.0610504 -0.2141489 -0.12862144 -0.40610957 -0.26897934 0.25216714 0.6335049
0.2045957 0.04041674 0.29118663 0.32215962 0.018323649 -0.09810476 -0.25800613 0.052288067
0.21430822 -0.074669585 -0.28761312 -0.33441865 -0.4758292 0.45649794 0.041891616 0.19203809
0.26541105 -0.0793264 0.075736 0.11615684 0.044591177 0.2136276 -0.1535853 -0.036261145
0.059492815 0.076424934 0.22976717 0.014393829 -0.0012957149 -0.16679059 0.24380259 -0.07307367
-0.16175331 0.13290064 0.36849332 0.021095565 -0.051255625 0.12992576 -0.13346274 -0.43781537
0.120611526 -0.03633242 -0.250108 0.10711012 0.1668131 -0.3798244 0.42377013 -0.25226507
0.16909686 -0.21793905 0.2790358 -0.174564 -0.15649983 0.0927206 -0.23282894 0.00034819468
-0.027547404 0.22205399 -0.12160858 0.020135896 0.2810195 0.13061969 0.46710458 -0.34202674
-0.21133263 -0.08999324 -0.3008948 -0.08766169 -0.0046460726 0.033477508 -0.18220775 -0.3159943
-0.28315908 -0.08425941 0.008500094 -0.31220073 0.038247894 -0.16244368 0.055354793 -0.11117582
0.021321137 0.16815162 -0.022382813 0.0623107 -0.015205092 0.09176142 0.019565456 0.45209634
-0.06357097 0.23408894 0.12295664 -0.019386781 -0.1911593 -0.098157875 -0.22835732 0.19025521
0.07588644 0.10992065 -0.16201407 0.14237384 -0.25868282 -0.043440778 0.10410572 0.32481712
-0.016157417 0.044102225 -0.14461371 -0.40426195 -0.0857823 -0.012974967 -0.0058049066 0.22827879
0.034551 -0.43942168 0.19953234 0.0062050545 0.024605906 -0.18826139 0.14147231 0.10753387
0.012780735 0.13792738 -0.19700941 -0.43230325 -0.03250389 -0.037635684 -0.48360217 -0.10455108
00000000: 5242 5c3e a469 d2be a1ae 573d 2b80 acbd
00000010: e5b6 82ba b054 8e3e 2a50 b3bd 0957 89bd
00000020: 2228 143e 5a1d c2bc ae21 c7bd c24c 3cbe
00000030: 7fec 90be ab95 a6bc 7e9b 5e3e fe5f 20bc
00000040: 5d52 073e 54c1 03be 5191 8bbe e27e 68be
00000050: 13c9 8abd bbf7 5a3c e7a9 11be 9f1b 303e
00000060: ad39 99bd 5513 803d 7067 12bf b07f 273e
00000070: 7dbd 67bb 6962 af3e 09cc f73c bea9 70be
00000080: a760 61be 2128 c93e 475a e1bd 89d8 8b3e
00000090: d202 af3e 546b 763e 8fba 33be 7c97 2f3c
000000a0: 77c4 debe b26c 6a3d 4caf 563e 9cd8 c73d
000000b0: 2d2a 20be a495 66bc e8b3 553c c35b ac3d
000000c0: 9b48 50be eb7b ee3d 9c39 3b3e 4eb3 ed3c
000000d0: 0423 993e 3800 063f 1156 c03d 7342 4e3e
000000e0: 0fd7 b63e e4e2 543d 9663 333e 5065 20bc
000000f0: f626 08be 510c d63e aec2 1dbe 85ab 0ebe
00000100: 1688 ce3e 24f5 e03c 479b 723e 9863 70be
00000110: 0b11 54be 8a1b 1e3e 1cd0 3b3e 77c5 553c
00000120: cde6 9cbe a234 82be 7859 1b3e c9ef b2bd
00000130: 09d8 9f3e cda0 fc3e 318e 203e 16b2 67be
00000140: 58ea 09be 97fd 59be a368 90bd 7b73 0cbf
00000150: cf5c ad3e fc80 39bd 91ae e0be 4923 bf3b
00000160: 6245 8f3b e8ae 953e 830d cabe ca83 7bbd
00000170: 702f e8bb 0951 323e 269b 89bd eda6 a83c
00000180: 5921 ad3e defe 8f3e cc5f 7b3e ca14 bebd
00000190: 1419 30be bf72 55bd bdbf a4bd e1ea 643e
000001a0: 45d2 a33e 6825 c839 e52e 56be 6f9a 16be
000001b0: fc6c afbe 872c 78be 6c95 1cbe 6186 973d
000001c0: 7305 db3e b9f8 373e ccbc 7dbe 9f75 dcbe
000001d0: 7725 72be e698 be3d 15c1 023f 6b2b dcbe
000001e0: dc20 423e fc0f 7abd d949 5bbe 57b5 03be
000001f0: 98ed cfbe a9b7 89be 0d1c 813e 612d 223f
00000200: 8981 513e 068c 253d 6a16 953e 1bf2 a43e
00000210: 7a1b 963c 26eb c8bd 6119 84be 032c 563d
00000220: 9d73 5b3e 5eec 98bd 0742 93be ec38 abbe
00000230: e39f f3be 19ba e93e 8b96 2b3d a2a5 443e
00000240: f5e3 873e e175 a2bd 7a1b 9b3d a3e3 ed3d
00000250: 3da5 363d 32c1 5a3e 7745 1dbe 9186 14bd
00000260: bdae 733d ad84 9c3d 1648 6b3e 18d4 6b3c
00000270: fad4 a9ba 27cb 2abe 63a7 793e a6a7 95bd
00000280: a9a2 25be 1b17 083e 28ab bc3e 9bd0 ac3c
00000290: 6bf1 51bd 420b 053e 75aa 08be 5629 e0be
000002a0: 2d03 f73d 4ed1 14bd 280e 80be 8d5c db3d
000002b0: 0ed1 2a3e 5878 c2be 66f8 d83e e328 81be
000002c0: ba27 2d3e 6a2b 5fbe c8dd 8e3e e8c0 32be
000002d0: 7e41 20be 4ce4 bd3d b66a 6ebe e68d b639
000002e0: 18ab e1bc 1f62 633e eb0d f9bd 09f4 a43c
000002f0: cae1 8f3e 2bc1 053e 5528 ef3e 211e afbe
00000300: 9567 58be 604e b8bd e20e 9abe f987 b3bd
00000310: 153e 98bb b61f 093d ab94 3abe 01ca a1be
00000320: 3afa 90be 3390 acbd fa43 0b3c c6d8 9fbe
00000330: d3a9 1c3d a357 26be b5bb 623d 26b0 e3bd
00000340: aaa9 ae3c f02f 2c3e 295c b7bc 8139 7f3d
00000350: c71e 79bc 69ed bb3d bc47 a03c 2c79 e73e
00000360: 7f31 82bd 03b5 6f3e b1d0 fb3d 07d1 9ebc
00000370: 43bf 43be ff06 c9bd 80d6 69be 43d2 423e
00000380: 5a6a 9b3d 141e e13d 04e7 25be 73ca 113e
00000390: 1372 84be f5ee 31bd 6135 d53d 6e4e a63e
000003a0: 8f5c 84bc 89a4 343d 9e15 14be 6cfb cebe
000003b0: a1ae afbd f594 54bc 1637 bebb eac1 693e
000003c0: 5985 0d3d e1fb e0be 3552 4c3e c553 cb3b
000003d0: 5392 c93c 98c7 40be 1ede 103e b83a dc3d
000003e0: 4a66 513c d63c 0d3e d6bc 49be da56 ddbe
000003f0: cd22 05bd e027 1abd b49a f7be e01e d6bd

network_body.observation_encoder.processors.0.fc.seq_layers.2.bias f4 [22]
-0.015020145 0.002234762 -0.016537873 0.017289257 -0.0034044415 -0.020769518 -0.022905318 0.04251982
0.002950854 0.0042001884 -0.007380891 -0.006855095 -0.011632067 -0.0006425825 0.0020711974 -0.02986118
-0.013152222 -0.032019805 -0.00038731564 0.022046229 0.015146466 0.010299448
00000000: 0e17 76bc 1675 123b 6f7a 87bc 33a2 8d3c
00000010: 0d1d 5fbb d624 aabc efa3 bbbc 4329 2e3d
00000020: 1d63 413b bca1 893b 67db f1bb b4a0 e0bb
00000030: 6d94 3ebc fb72 28ba edbc 073b 6f9f f4bc
00000040: 6b7c 57bc 3327 03bd a010 cbb9 4b9a b43c
00000050: e228 783c 04bf 283c

network_body.observation_encoder.processors.1.fc.seq_layers.0.weight f4 [12, 12]
-0.15095977 -0.2248757 0.72184604 0.49321312 0.13300857 0.122878894 0.06731966 -0.6280395
0.20212631 0.22651224 -0.46021676 0.03736343 -0.42607656 -0.45059362 -0.2849759 -0.12049023
0.12193791 0.1548266 0.1752073 -0.24237056 0.2553315 0.53113616 0.314175 0.5675039
0.1052963 0.18521866 0.1760829 -0.25175077 0.11842824 -0.24167301 0.002346174 0.1474502
-0.1204477 -0.35637036 0.04509588 0.043070614 -0.037168875 -0.2392586 0.32939813 0.3104003
0.01042385 -0.11227314 0.29961842 0.25348735 0.33000582 0.11104769 -0.27168787 -0.4946123
0.10958562 0.4787687 0.6890004 -0.18705483 -0.19467056 -0.10519744 -0.2736913 0.18965538
0.055480715 -0.052397132 0.38648885 0.3810867 0.25749528 -0.024238324 -0.17955552 -0.31162706
0.5378076 -0.054175038 0.47858402 -0.3943041 -0.18975711 -0.4243553 -0.5293112 0.013269665
0.31230956 -0.10736449 -0.10213919 0.40727141 -0.28140244 0.12655568 -0.10777059 -0.36087653
0.1356293 -0.43318123 0.08146145 0.66577786 -0.09134259 -0.2940754 0.40631178 -0.6687892
-0.11592903 -0.13242318 0.046253286 -0.044587735 0.2638095 0.24864815 0.5480805 -0.28744283
0.123257056 0.27740583 0.11366858 0.3111785 -0.06176763 -0.2898055 -0.27760518 -0.2282404
-0.12619609 0.01882428 -0.32412177 0.47650626 -0.050873466 0.52337635 -0.48344287 0.02252499
-0.5145262 0.1914705 -0.62478083 0.14924364 0.023139639 0.96209085 -0.047770612 0.23210743
-0.18276541 0.3336797 0.18919587 0.78330946 -0.22305816 0.38002065 -0.030713309 0.080079846
-0.19509636 0.27412027 0.4297456 0.2274314 -0.11250421 -0.26018658 -0.16226277 0.18130094
-0.2689492 -0.35158154 0.32412645 -0.47568077 0.29605934 0.31418785 -0.12154369 0.17233157
00000000: 3395 1abe d145 66be e7ca 383f 6e86 fc3e
00000010: 6633 083e eea7 fb3d e4de 893d 32c7 20bf
00000020: 33fa 4e3e d3f2 673e 88a1 ebbe 650a 193d
00000030: b526 dabe 35b4 e6be 5ce8 91be 95c3 f6bd
00000040: 95ba f93d dd8a 1e3e 8b69 333e fd2f 78be
00000050: cfba 823e 8af8 073f 8cdb a03e f047 113f
00000060: 96a5 d73d f6a9 3d3e 134f 343e 7ae5 80be
00000070: 818a f23d 2179 77be 45c2 193b 2ffd 163e
00000080: 49ad f6bd 2d76 b6be 75b6 383d d06a 303d
00000090: 643e 18bd 3500 75be dfa6 a83e caec 9e3e
000000a0: ccc8 2a3c 76ef e5bd 9667 993e 18c9 813e
000000b0: 86f6 a83e f96c e33d ac1a 8bbe d33d fdbe
000000c0: 6d6e e03d 2c21 f53e 5562 303f 4d8b 3fbe
000000d0: b857 47be c171 d7bd 4421 8cbe 0535 423e
000000e0: bf3f 633d 609e 56bd dee1 c53e cc1d c33e
000000f0: 6cd6 833e 738f c6bc 67dd 37be 958d 9fbe
00000100: c2ad 093f a5e6 5dbd f708 f53e 3ae2 c9be
00000110: b04f 42be 1945 d9be f080 07bf 0269 593c
00000120: 0ae7 9f3e eae1 dbbd 5a2e d1bd e185 d03e
00000130: fb13 90be d097 013e d4b6 dcbd cfc4 b8be
00000140: 68e2 0a3e eec9 ddbe 43d5 a63d 6b70 2a3f
00000150: d311 bbbd 0d91 96be 1908 d03e c535 2bbf
00000160: 336c edbd f199 07be 1674 3d3d a1a1 36bd
00000170: 0a12 873e 9f9d 7e3e 014f 0c3f b52b 93be
00000180: 326e fc3d 2308 8e3e 13cb e83d ca52 9f3e
00000190: 0e00 7dbd 6361 94be 4422 8ebe dab7 69be
000001a0: 8c39 01be 6035 9a3c 4af3 a5be a1f8 f33e
000001b0: b260 50bd fefb 053f d385 f7be 5486 b83c
000001c0: fdb7 03bf d810 443e a3f1 1fbf 53d3 183e
000001d0: 578f bd3c 964b 763f 1eab 43bd 92ad 6d3e
000001e0: db26 3bbe 11d8 aa3e 90bc 413e f886 483f
000001f0: 5c69 64be 1192 c23e 7a9a fbbc e700 a43d
00000200: 57c7 47be 7e59 8c3e 9e07 dc3e c7e3 683e
00000210: 9b68 e6bd 2d37 85be 3628 26be f4a6 393e
00000220: b6b3 89be 7f02 b4be e7f3 a53e 6e8c f3be
00000230: 1795 973e 3bdd a03e e6eb f8bd b077 303e

network_body.observation_encoder.processors.1.fc.seq_layers.0.bias f4 [12]
0.063284226 -0.024958042 0.025917822 0.029873516 0.015485819 0.010364585 -0.022988662 0.0853148
0.0035533356 -0.0189355 -0.02785669 -0.018091487
00000000: 299b 813d cf74 ccbc 9d51 d43c 4eb9 f43c
00000010: 3cb8 7d3c 38d0 293c b852 bcbc 87b9 ae3d
00000020: 14df 683b 9f1e 9bbc b733 e4bc 9934 94bc

network_body.observation_encoder.processors.1.fc.seq_layers.2.weight f4 [12, 12]
-0.43100145 0.19457896 -0.25466615 0.24663822 -0.5276066 -0.34333742 0.34456733 -0.21503836
0.14728047 -0.11630287 -0.07927992 0.6937483 0.66654617 0.36536646 -0.046808947 0.06723222
0.10716327 0.4405877 -0.48866332 -0.30585164 -0.17010023 0.18593542 -0.07710225 -0.18641841
0.41392136 0.3637053 -0.0376313 0.31112033 -0.28739104 -0.3506186 -0.43985313 0.6212356
0.29878327 -0.1723958 -0.1701687 -0.42732352 0.33274165 -0.037693623 0.21208815 -0.17462532
0.35664925 0.45419383 -0.19275032 0.061278306 0.14156863 0.30625507 0.19628064 -0.14775497
-0.011927379 -0.010939834 -0.12526907 0.14120747 0.44669652 0.2819251 0.014130717 0.039555125
0.08159511 -0.3202354 0.15874936 -0.2021488 0.3711981 -0.48869088 0.33402342 0.36953565
0.21700288 0.21032873 0.33358815 0.24004476 -0.039972454 -0.3749469 -0.039343704 -0.07082785
0.30187652 0.3467109 0.16620371 -0.21482143 -0.00044408388 0.11821055 0.40585577 0.6253815
-0.006918335 -0.043627974 -0.018394856 -0.08192709 -0.5487835 0.4027271 0.20732597 -0.03208831
-0.2582518 -0.014901971 0.30633652 0.01305118 -0.13736854 0.19067779 -0.27151406 0.03989647
0.111829564 0.16700374 0.4030944 -0.14823821 -0.39328554 0.61791754 -0.6185291 0.22700174
-0.05066463 0.23999229 -0.42202953 -0.21996725 -0.27762887 0.15975387 -0.22498631 -0.23796403
-0.26336396 -0.37509587 0.12446599 -0.009102808 0.06599755 0.19158764 -0.16211946 0.10568816
-0.13950445 -0.3288702 0.4190581 -0.4060455 -0.020195525 0.0207715 0.26149872 0.30695713
0.32908505 -0.69646996 0.18904865 -0.48771366 -0.05042536 -0.11363669 0.07140695 -0.104714364
0.08022451 0.23706195 -0.049681596 -0.7371191 0.26506123 0.14801072 0.24162425 0.26400852
00000000: 39ac dcbe b53f 473e 9a63 82be bb8e 7c3e
00000010: 3a11 07bf ecc9 afbe 216b b03e 0433 5cbe
00000020: b1d0 163e 3330 eebd 835d a2bd 7d99 313f
00000030: c5a2 2a3f 5011 bb3e bdba 3fbd 0cb1 893d
00000040: 6b78 db3d b694 e13e 1432 fabe 9698 9cbe
00000050: c12e 2ebe db65 3e3e c9e7 9dbd 78e4 3ebe
00000060: 80ed d33e 9537 ba3e 4723 1abd 2a4b 9f3e
00000070: eb24 93be 4884 b3be 6e34 e1be 4c09 1f3f
00000080: 1ffa 983e 8688 30be b440 2ebe 26ca dabe
00000090: 1d5d aa3e a164 1abd a32d 593e fbd0 32be
000000a0: bb9a b63e 188c e83e 5760 45be f6fe 7a3d
000000b0: 5ef7 103e 77cd 9c3e cbfd 483e 144d 17be
000000c0: 0e6b 43bc fd3c 33bc 8946 00be b198 103e
000000d0: 68b5 e43e 7d58 903e 8684 673c 8e04 223d
000000e0: 561b a73d e5f5 a3be 318f 223e 1800 4fbe
000000f0: ad0d be3e b135 fabe 1e05 ab3e c733 bd3e
00000100: 0136 5e3e 6a60 573e 11cc aa3e 4bce 753e
00000110: 28ba 23bd 0af9 bfbe dd26 21bd 310e 91bd
00000120: 8f8f 9a3e 1784 b13e 4e31 2a3e 26fa 5bbe
00000130: eed3 e8b9 5f18 f23d 54cc cf3e 0119 203f
00000140: 33b3 e2bb 3fb3 32bd cfb0 96bc 64c9 a7bd
00000150: 137d 0cbf 3f32 ce3e 424d 543e 086f 03bd
00000160: 9439 84be 6627 74bc 24d8 9c3e 9ed4 553c
00000170: 57aa 0cbe 0a41 433e e403 8bbe 7b6a 233d
00000180: e606 e53d 0703 2b3e 6462 ce3e c2cb 17be
00000190: b95c c9be d82f 1e3f ec57 1ebf 2573 683e
000001a0: b785 4fbd 8ac0 753e 4114 d8be 183f 61be
000001b0: 5f25 8ebe 8596 233e d062 66be d8ac 73be
000001c0: a4d7 86be 910c c0be 06e8 fe3d f223 15bc
000001d0: b929 873d 8d2f 443e a502 26be 0973 d83d
000001e0: 41da 0ebe ad61 a8be c98e d63e 32e5 cfbe
000001f0: 1671 a5bc fe28 aa3c 29e3 853e 7c29 9d3e
00000200: d67d a83e db4b 32bf f895 413e 9bb5 f9be
00000210: d38a 4ebd 5aba e8bd cf3d 923d 7c74 d6bd
00000220: bf4c a43d 5ec0 723e ee7e 4bbd d6b3 3cbf
00000230: 1bb6 873e 1f90 173e 596c 773e 202c 873e

network_body.observation_encoder.processors.1.fc.seq_layers.2.bias f4 [12]
-0.015717184 -0.008204425 0.04816804 -0.0030009232 -0.027523315 0.04445163 -0.05307068 -0.022971395
0.04624207 -0.023147028 -0.0047877384 -0.03111316
00000000: 53c1 80bc da6b 06bc da4b 453d 23ab 44bb
00000010: 9378 e1bc ea12 363d a460 59bd 822e bcbc
00000020: 5368 3d3d d69e bdbc 76e2 9cbb 07e1 febc

network_body._body_endoder.attention.query.bias f4 [34]
0.0 0.0 0.0 0.0 0.0 0.0 0.0 0.0
0.0 0.0 0.0 0.0 0.0 0.0 0.0 0.0
0.0 0.0 0.0 0.0 0.0 0.0 0.0 0.0
0.0 0.0 0.0 0.0 0.0 0.0 0.0 0.0
0.0 0.0
00000000: 0000 0000 0000 0000 0000 0000 0000 0000
00000010: 0000 0000 0000 0000 0000 0000 0000 0000
00000020: 0000 0000 0000 0000 0000 0000 0000 0000
00000030: 0000 0000 0000 0000 0000 0000 0000 0000
00000040: 0000 0000 0000 0000 0000 0000 0000 0000
00000050: 0000 0000 0000 0000 0000 0000 0000 0000
00000060: 0000 0000 0000 0000 0000 0000 0000 0000
00000070: 0000 0000 0000 0000 0000 0000 0000 0000
00000080: 0000 0000 0000 0000

network_body._body_endoder.attention.value.bias f4 [34]
0.014777756 -0.0045137024 -0.007976705 -0.015694482 0.0072289705 -0.012004988 -0.030406581 0.0038416379
0.023917409 0.027071394 0.028978657 -0.005563029 -0.0244559 0.048690055 -0.008915682 -0.011538477
-0.022665797 -0.008543292 -0.03854932 0.015305114 0.0351708 0.06173727 -0.017608486 -0.03335782
0.055493124 -0.0015444952 -0.0149147725 0.026439425 -0.0061880304 -0.027908713 0.029542008 0.0045046634
-0.0049116905 -0.032467518
00000000: 671e 723c aee7 93bb bab0 02bc b791 80bc
00000010: 00e1 ec3b 92b0 44bc 3917 f9bc fdc3 7b3b
00000020: 71ee c33c d4c4 dd3c a664 ed3c 124a b6bb
00000030: bd57 c8bc 396f 473d 1513 12bc e10b 3dbc
00000040: 9fad b9bc 2af9 0bbc e4e5 1dbd 4dc2 7a3c
00000050: 420f 103d 38e0 7c3d ac3f 90bc 36a2 08bd
00000060: c24c 633d a970 caba 175d 74bc 7e97 d83c
00000070: f6c4 cabb d0a0 e4bc 1502 f23c db9b 933b
00000080: 3ff2 a0bb a9fc 04bd

network_body._body_endoder.attention.norm.weight f4 [34]
0.917213 1.0060847 0.9667062 0.9842361 1.0069741 1.0474364 1.037532 1.0354458
1.0057062 0.9609022 0.9627698 1.0467999 1.0229985 1.0257015 1.048424 0.99652976
1.0315084 0.94208825 1.0210996 1.0321624 1.0554302 1.0905116 0.98914295 0.906673
1.1004525 0.9483667 1.0076063 0.9346496 1.0323179 1.0442846 0.99056244 0.9362046
0.94901663 1.1012366
00000000: 79ce 6a3f 62c7 803f 0f7a 773f e6f6 7b3f
00000010: 87e4 803f 6512 863f d9cd 843f 7d89 843f
00000020: fbba 803f b0fd 753f 1578 763f 8afd 853f
00000030: 9df1 823f 304a 833f c232 863f 931c 7f3f
00000040: 7808 843f b22c 713f 64b3 823f e61d 843f
00000050: 5618 873f e295 8b3f 7938 7d3f b91b 683f
00000060: a1db 8c3f 29c8 723f 3ef9 803f 3245 6f3f
00000070: fe22 843f 1eab 853f 8095 7d3f 1bab 6f3f
00000080: c1f2 723f 52f5 8c3f

network_body._body_endoder.attention.norm.bias f4 [34]
0.04048825 0.003066977 0.012563782 0.029097397 -0.016152158 -0.020097625 -0.028015485 0.043191593
0.004156404 -0.016304212 -0.005234519 -0.012469738 0.01937215 0.05204977 -0.0049338113 -0.011606134
-0.02178035 -0.022335421 -0.02318246 0.020373806 -0.03480998 0.03898308 -0.041156832 -0.002843305
0.019041961 -0.012249588 0.0015644351 0.042490304 -0.040423267 0.018218474 0.03735091 -0.017450048
-0.021427793 0.011902653
00000000: 02d7 253d 56ff 483b 52d8 4d3c aa5d ee3c
00000010: 8851 84bc c6a3 a4bc bb80 e5bc abe9 303d
00000020: 7232 883b 6990 85bc 5486 abbb df4d 4cbc
00000030: 58b2 9e3c 2432 553d cfab a1bb a727 3ebc
00000040: b46c b2bc c6f8 b6bc 24e9 bdbc f8e6 a63c
00000050: e994 0ebd b9ac 1f3d 1194 28bd be56 3abb
00000060: e3fd 9b3c 7fb2 48bc bb0d cd3a 500a 2e3d
00000070: de92 25bd e93e 953c 45fd 183d 67f3 8ebc
00000080: 5789 afbc 5803 433c

network_body._body_endoder.norm.weight f4 [34]
1.023826 1.0227987 1.0160825 0.9812917 1.0470419 1.0372474 1.0332963 1.036942
1.0301517 0.99487686 1.0121574 1.029231 1.0754085 1.0373244 1.0882363 1.0103023
1.0493717 0.9421839 0.9852863 1.0888199 1.0460113 1.0392165 1.0845362 0.93614805
1.025924 1.0493298 1.0642402 1.0177596 1.0461826 1.0484403 0.9701923 0.915168
1.0127342 0.9918817
00000000: bb0c 833f 11eb 823f fe0e 823f ef35 7b3f
00000010: 7805 863f 86c4 843f 0e43 843f 84ba 843f
00000020: 03dc 833f 40b0 7e3f 608e 813f d7bd 833f
00000030: fca6 893f 0cc7 843f 544b 8b3f 9651 813f
00000040: d051 863f f732 713f b93b 7c3f 735e 8b3f
00000050: b3e3 853f 0c05 853f 15d2 8a3f 66a7 6f3f
00000060: 7a51 833f 7050 863f 0639 883f f245 823f
00000070: 50e9 853f 4b33 863f 865e 783f 7348 6a3f
00000080: 46a1 813f f6eb 7d3f

network_body._body_endoder.norm.bias f4 [34]
0.028629119 0.006745705 -0.0008628441 0.020390071 -0.006990276 0.02288806 0.0016574607 0.014411689
-0.0035441648 -0.00024137166 0.020710224 -0.018847724 0.00859069 0.062475894 -0.021197474 -0.004804511
0.00931404 0.002129509 -0.016788078 0.015809558 -0.058117624 0.0013084935 -0.036636885 0.0058587063
-0.030135635 0.027467342 0.055338565 0.013635587 0.021774216 0.010543505 -0.017791832 -0.0116663175
0.0006340158 0.010152147
00000000: 9d87 ea3c 130b dd3b 7d30 62ba 1409 a73c
00000010: af0e e5bb be7f bb3c 273f d93a 011f 6c3c
00000020: 3845 68bb b618 7db9 7da8 a93c 8b66 9abc
00000030: f7bf 0c3c b9e6 7f3d 53a6 adbc 296f 9dbb
00000040: ea99 183c 3c8f 0b3b 2787 89bc 0c83 813c
00000050: bf0c 6ebd c281 ab3a 8f10 16bd 64fa bf3b
00000060: 02df f6bc 3103 e13c b1aa 623d cc67 5f3c
00000070: d75f b23c aabe 2c3c 2dc0 91bc 1524 3fbc
00000080: 1534 263a 3155 263c

network_body._body_endoder.lin_layers.seq_layers.0.weight f4 [68, 34]
0.5011103 -0.29685152 -0.07502132 0.33208475 -0.08024657 0.072954245 -0.26264566 -0.49731457
-0.00064026576 0.20600045 0.14222388 -0.47883296 0.35098058 0.09503726 -0.044615958 -0.020917824
0.2843808 0.05709187 0.16775881 -0.2283632 0.042437878 0.09638545 -0.27508187 -0.18680303
-0.032995705 0.017949814 0.13397881 -0.1437253 -0.008987564 -0.21108043 -0.29563275 -0.14592224
-0.00032674707 0.19472805 -0.0030488176 -0.34941402 -0.09317866 -0.21516807 0.10084934 0.32310265
-0.2673816 -0.011525882 -0.33705738 0.15834159 0.12388799 0.03886278 0.09888665 -0.041393735
-0.1830913 0.24800226 -0.05391352 0.3464026 -0.033758454 -0.16091682 0.08791994 -0.07500388
-0.1929505 -0.24386387 0.18207684 0.15660755 -0.09969683 -0.029768543 0.03211935 -0.19271062
-0.00097630743 -0.042094834 0.19254795 -0.22737874 -0.011284118 -0.11778146 0.10471092 0.27808708
-0.14142096 -0.29297462 -0.01781627 0.15402669 0.27326688 -0.14777422 -0.08697026 0.088504456
-0.23249151 0.13477513 0.11469984 -0.019807428 -0.058961213 -0.42852542 0.2509061 -0.20979203
-0.16069546 -0.20742764 -0.0842436 -0.1443754 -0.078472376 0.067298196 -0.14205673 0.060938887
0.039994575 -0.13054879 -0.094323985 0.08993312 0.17005134 0.40611854 0.07502621 -0.1001807
-0.019070357 -0.026163124 0.04261164 0.015840108 0.036898028 0.03759215 0.16634293 -0.40486738
0.30362073 -0.36427605 -0.08078535 -0.08888466 -0.024503006 -0.26692858 -0.006269107 -0.21932371
0.25915718 0.0932738 -0.28360936 0.011398811 -0.0025376745 -0.0814726 -0.12739436 0.16831882
0.05894459 0.034681257 -0.10268373 0.017070051 -0.15303533 0.20650718 -0.1306799 0.20433004
-0.12693429 0.24846579 -0.2555539 -0.0332042 0.34666532 0.122092225 -0.0856338 -0.20184729
-0.061610673 -0.19567324 0.09132077 0.12316955 -0.39005178 0.004477487 -0.11130148 0.025034789
0.20108497 0.06768007 -0.061787263 0.06763515 -0.12758963 0.1586721 -0.042274877 -0.006564675
0.02590774 -0.23435457 -0.17045286 -0.03303729 0.20734045 -0.01866295 0.06500983 0.12690657
0.01026825 0.24675576 -0.20901066 0.040891524 0.010095825 -0.28133908 0.24294358 0.2507167
-0.15127182 -0.18931511 -0.120212294 -0.12140276 0.22944592 0.36588264 0.03132844 -0.11444463
-0.048596203 -0.13380703 -0.36269325 0.054006804 0.017469132 0.1277361 0.46705243 0.27404565
0.07632152 0.022179553 -0.0705362 0.20441055 0.083943024 -0.10465921 0.18335913 0.06935693
0.16728921 -0.32263753 -0.040754613 -0.18590225 0.14970385 -0.26974255 -0.1525247 0.057364624
0.117952116 0.12466842 0.06445058 0.044412408 0.13248068 -0.008286461 -0.28829473 0.13453808
-0.19811642 -0.043571383 0.28501305 0.073083006 -0.15894046 -0.15733609 -0.2322323 0.16363075
-0.39413565 0.112816796 0.1037829 -0.0068163965 -0.23221107 0.13481097 -0.16025998 -0.10250928
0.2572425 -0.16216426 -0.020208117 0.3098802 -0.2967702 0.23239186 -0.016899819 0.057460427
0.22358716 0.038347825 -0.42562607 -0.30045715 0.03485604 0.16342522 0.016786348 0.05425305
-0.36853114 -0.10728591 -0.1485009 -0.33572182 -0.27884936 -0.11704332 0.15387316 0.14558113
00000000: c448 003f ecfc 97be c7a4 99bd 0307 aa3e
00000010: 5058 a4bd 0969 953d 7e79 86be 04a0 febe
00000020: 82d7 27ba c8f1 523e 23a3 113e 9829 f5be
00000030: bab3 b33e e5a2 c23d 39bf 36bd db5b abbc
00000040: 5c9a 913e 2ad9 693d f7c8 2b3e 0bd8 69be
00000050: 57d3 2d3d bc65 c53d 88d7 8cbe 4b49 3fbe
00000060: 8126 07bd 7d0b 933c be31 093e ba2c 13be
00000070: 9340 13bc 7825 58be 2d5d 97be a46c 15be
00000080: 404f abb9 ca66 473e acce 47bb 65e6 b2be
00000090: 74d4 bebd 0555 5cbe 198a ce3d b66d a53e
000000a0: 3ee6 88be 0ed7 3cbc c992 acbe 4c24 223e
000000b0: fdb8 fd3d 942e 1f3d 1585 ca3d 7a8c 29bd
000000c0: 497c 3bbe 4ef4 7d3e 6cd4 5cbd ae5b b13e
000000d0: 4e46 0abd 61c7 24be 5f0f b43d a29b 99bd
000000e0: d194 45be 73b7 79be 5a72 3a3e bb5d 203e
000000f0: da2d ccbd 29dd f3bc 948f 033d ef55 45be
00000100: e2ee 7fba a26b 2cbd 4a2b 453e f9d5 68be
00000110: 05e1 38bc 6837 f1bd ae72 d63d 6e61 8e3e
00000120: a8d0 10be c500 96be 6df3 91bc 2cb9 1d3e
00000130: a3e9 8b3e 2052 17be 771d b2bd d341 b53d
00000140: 4112 6ebe 7e02 0a3e c0e7 ea3d 3043 a2bc
00000150: 5081 71bd af67 dbbe c476 803e b9d3 56be
00000160: 5a8d 24be e967 54be e987 acbd 25d7 13be
00000170: 20b6 a0bd a3d3 893d 5277 11be 0e9b 793d
00000180: 5ad1 233d 95ae 05be ef2c c1bd db2e b83d
00000190: f021 2e3e c5ee cf3e 57a7 993d 8a2b cdbd
000001a0: 7039 9cbc 0c54 d6bc 8b89 2e3d 1dc3 813c
000001b0: 6322 173d 3afa 193d cd55 2a3e c74a cfbe
000001c0: 2d74 9b3e 6482 babe ca72 a5bd 2909 b6bd
000001d0: 87ba c8bc ddaa 88be 156d cdbb 6596 60be
000001e0: 40b0 843e 5606 bf3d 3f35 91be 14c2 3a3c
000001f0: 1d4f 26bb 1bdb a6bd ab73 02be c55b 2c3e
00000200: e26f 713d ef0d 0e3d d94b d2bd 7ed6 8b3c
00000210: 4bb5 1cbe 9e76 533e f4d0 05be e53b 513e
00000220: 10fb 01be d16d 7e3e f6d7 82be 2101 08bd
00000230: 1e7e b13e 7d0b fa3d c660 afbd 0eb1 4ebe
00000240: 795b 7cbd 915e 48be 6206 bb3d 5140 fc3d
00000250: deb4 c7be e2b7 923b 08f2 e3bd c215 cd3c
00000260: 38e9 4d3e d99b 8a3d a414 7dbd 4c84 8a3d
00000270: dba6 02be f07a 223e 6c28 2dbd 7c1c d7bb
00000280: 783c d43c a5fa 6fbe 328b 2ebe 1c52 07bd
00000290: 0e51 543e 0be3 98bc e023 853d ccf3 013e
000002a0: 293c 283c 8bad 7c3e e406 56be df7d 273d
000002b0: f668 253c ad0b 90be 34c6 783e f05d 803e
000002c0: 00e7 1abe d2db 41be dd31 f6bd 03a2 f8bd
000002d0: dff3 6a3e f854 bb3e 4052 003d f261 eabd
000002e0: d00c 47bd b604 09be eeb2 b9be 3d36 5d3d
000002f0: 6d1b 8f3c 41cd 023e 7f21 ef3e b64f 8c3e
00000300: 754e 9c3d e5b1 b53c 4975 90bd 0051 513e
00000310: 52ea ab3d 9157 d6bd 7fc2 3b3e 020b 8e3d
00000320: dd4d 2b3e bf30 a5be 4fee 26bd 295d 3ebe
00000330: f74b 193e b21b 8abe 6f2f 1cbe 2bf7 6a3d
00000340: e190 f13d 2852 ff3d aafe 833d c9e9 353d
00000350: 04a9 073e f0c3 07bc 5e9b 93be 5ac4 093e
00000360: 08df 4abe e877 32bd 3bed 913e 8bac 953d
00000370: 4ac1 22be b61c 21be 4ece 6dbe d28e 273e
00000380: 26cc c9be 7e0c e73d 218c d43d 145c dfbb
00000390: bdc8 6dbe e30b 0a3e 311b 24be 63f0 d1bd
000003a0: 4ab5 833e 630e 26be 7e8b a5bc 9ea8 9e3e
000003b0: 43f2 97be 22f8 6d3e 7d71 8abc a05b 6b3d
000003c0: 08f4 643e 9c12 1d3d a9eb d9be 85d5 99be
000003d0: 35c5 0e3d f158 273e 8683 893c 7238 5e3d
000003e0: 1db0 bcbe b7b8 dbbd 9f10 18be bbe3 abbe
000003f0: 58c5 8ebe 68b4 efbd ed90 1d3e 3813 153e

network_body._body_endoder.lin_layers.seq_layers.0.bias f4 [68]
0.055319548 0.02697569 -0.10365902 -0.082551084 0.07897928 0.061108783 -0.009138906 -0.0037356259
0.074954055 0.01434292 0.03616859 0.0010412359 0.02097041 0.06677888 -0.007332883 -0.09545447
0.06911081 0.052303433 0.023599869 -0.07068424 0.0130842235 0.0015497012 0.050353248 -0.035884954
-0.03001838 -0.0032338183 -0.10087834 -0.086830206 0.015056046 0.063693345 0.04350128 -0.033589646
0.06863406 0.02458604 -0.11088964 0.062306184 0.017646028 0.04343451 0.028405113 -0.050945412
0.03276865 0.00936561 0.035001785 -0.013024018 -0.000577701 0.032687332 0.07157659 0.046012737
0.07911629 0.04055361 0.038809218 0.025590757 -0.027077978 0.04250165 -0.03895615 0.0012512059
-0.042433303 -0.016875446 0.01424557 -0.03202882 0.048626862 -0.030842938 0.00420021 0.023781748
-0.05917061 0.054168858 -0.021969361 0.024472961
00000000: c096 623d 1ffc dc3c 2e4b d4bd 8b10 a9bd
00000010: e4bf a13d 344d 7a3d 5abb 15bc 67d1 74bb
00000020: 8381 993d 91fe 6a3c 8425 143d 147a 883a
00000030: 23ca ab3c 5ec3 883d ae48 f0bb a27d c3bd
00000040: f889 8d3d 203c 563d 8354 c13c e6c2 90bd
00000050: 365f 563c 581f cb3a 353f 4e3d 1afc 12bd
00000060: 1be9 f5bc 78ee 53bb 4e99 cebd 09d4 b1bd
00000070: a2ad 763c a871 823d 662e 323d 4c95 09bd
00000080: 0490 8c3d aa68 c93c 1c1a e3bd c534 7f3d
00000090: 678e 903c 62e8 313d d7b1 e83c 23ac 50bd
000000a0: 6c38 063d 3772 193c 085e 0f3d b162 55bc
000000b0: dc70 17ba 27e3 053d bf96 923d da77 3c3d
000000c0: b907 a23d 8b1b 263d 6af6 1e3d b5a3 d13c
000000d0: a3d2 ddbc 3616 2e3d 7c90 1fbd 81ff a33a
000000e0: 8bce 2dbd 603e 8abc 4066 693c a730 03bd
000000f0: f62c 473d 54aa fcbc eaa1 893b f1d1 c23c
00000100: e25c 72bd 2ae0 5d3d 17f9 b3bc 857b c83c

network_body._body_endoder.lin_layers.seq_layers.2.weight f4 [68, 68]
0.22803248 -0.23174562 -0.16780864 -0.12083651 0.13717277 -0.04904942 -0.038529523 -0.018284548
0.06761325 0.14553781 -0.108512186 0.1194123 0.29264864 0.22114435 -0.14117643 -0.052346434
0.18865523 0.18339075 -0.07175468 0.02604934 -0.118135855 0.050378732 -0.08785192 -0.15141995
-0.064966045 0.23867829 -0.043470595 -0.04231794 0.11832647 -0.24526586 -0.10366456 -0.057975978
0.055375706 -0.13472661 -0.12926067 0.16221948 0.121663734 -0.15529191 0.0464045 -0.2750034
-0.066573456 -0.18146281 -0.18632011 0.14024696 -0.17090987 -0.0011302837 0.14146172 0.39165443
0.1553368 -0.13028087 0.15168302 0.06505446 -0.13411944 -0.21548524 -0.031891163 0.047605
0.05645338 -0.106969625 0.06536804 -0.20844491 0.08690154 0.064040445 -0.06340294 -0.053520344
-0.22689463 -0.029665714 -0.1541958 -0.039533243 0.13898945 -0.08556001 -0.090228215 -0.17961459
0.0026380236 -0.15304041 0.043254867 -0.044796668 -0.13910827 -0.024777075 -0.20374043 -0.06069417
-0.12620896 0.094202206 -0.043255206 -0.031640712 0.06788352 0.20925438 -0.16905123 0.17202419
0.043997876 0.08734386 -0.36324948 0.021210833 0.16997361 -0.056836724 -0.09018808 0.10901026
-0.09962763 0.2530644 0.11539055 0.06864496 -0.18054564 -0.22730865 0.14784609 0.04856808
-0.042683184 -0.029187687 0.09678613 -0.22414023 0.11308674 0.00020811186 0.11363818 0.1467437
-0.253603 0.0044347285 -0.077784374 0.21167836 -0.122836515 -0.09326899 -0.38014743 0.108533464
-0.030342624 0.17874493 0.08327565 0.1524828 0.26257983 -0.31273606 -0.124747634 0.2629324
-0.042048976 0.14358453 -0.15146089 -0.033876482 -0.1787051 0.06421057 0.037191026 -0.01566996
-0.0029368391 -0.113872066 -0.28432977 0.14161035 -0.04288759 -0.028914772 -0.17173602 0.2129301
-0.15190372 -0.041485596 0.23017666 0.01742033 -0.1006246 -0.079887904 0.0073172683 0.023286931
0.06191036 0.102077246 0.25367764 -0.061090704 0.22757763 0.027589696 0.24424505 0.047755018
0.17885593 -0.14253141 -0.19834813 0.10914119 -0.045439515 0.16692187 0.0046706866 -0.26174855
0.111516625 0.2445702 0.11099364 0.022585995 -0.08476519 0.16470577 -0.14333153 -0.13067311
0.08698949 0.096181825 -0.19978324 0.06084168 0.2088318 0.025581574 0.06670385 -0.10223376
0.20841856 -0.055271607 0.07221158 -0.12207694 0.17080572 0.23664553 -0.0021999315 0.106112204
0.06744307 0.109347634 0.0098054195 0.31297097 0.102477044 0.1491102 -0.022660123 0.07434634
-0.16811173 0.15188357 0.00988789 -0.2211759 -0.187429 -0.0331561 0.027629774 -0.112045646
-0.16822715 -0.08190952 -0.05872907 0.031102447 0.03812466 -0.23180842 0.1295553 -0.0900288
0.07495455 -0.14577034 0.041653063 -0.18302126 0.1653337 0.2164948 -0.004809204 0.13661635
-0.37753406 0.21329342 0.02729269 0.278248 0.10260422 0.1075003 -0.28307036 0.17446621
-0.016360361 0.040651493 0.0095628835 -0.12947214 0.18621677 0.038945474 -0.06583341 0.15220955
0.20700389 -0.034090538 0.05614871 0.10602498 0.16567512 -0.061693475 0.11623281 -0.05778055
0.009564388 -0.004114931 0.025543403 0.14733432 -0.024212334 -0.16497333 -0.14517622 -0.043628033
00000000: 5981 693e b94e 6dbe 07d6 2bbe 2279 f7bd
00000010: 0577 0c3e 0be8 48bd 22d1 1dbd 7ac9 95bc
00000020: d178 8a3d dd07 153e a33b debd 708e f43d
00000030: 0bd6 953e aa73 623e 8e90 10be 3769 56bd
00000040: d62e 413e c9ca 3b3e 1ef4 92bd 6d65 d53c
00000050: 36f1 f1bd ee59 4e3d b5eb b3bd d50d 1bbe
00000060: eb0c 85bd 1568 743e 390e 32bd 9455 2dbd
00000070: 2655 f23d f926 7bbe 164e d4bd 3878 6dbd
00000080: a3d1 623d c6f5 09be e95c 04be dd1c 263e
00000090: d62a f93d d804 1fbe a512 3e3d 3fcd 8cbe
000000a0: aa57 88bd 63d1 39be b3ca 3ebe e69c 0f3e
000000b0: ff02 2fbe 0726 94ba 57db 103e ee86 c83e
000000c0: 9c10 1f3e 5968 05be cb52 1b3e 463b 853d
000000d0: 9b56 09be 2aa8 5cbe 4fa0 02bd 76fd 423d
000000e0: a93b 673d e412 dbbd aedf 853d 9572 55be
000000f0: 6ff9 b13d a327 833d 67d9 81bd 2638 5bbd
00000100: 1157 68be 8305 f3bc 81e5 1dbe 9ced 21bd
00000110: 4053 0e3e 163a afbd 92c9 b8bd e3ec 37be
00000120: b1e2 2c3b a0b6 1cbe 042c 313d b67c 37bd
00000130: 6672 0ebe 4bf9 cabc 55a1 50be 739a 78bd
00000140: ec3c 01be 16ed c03d 5f2c 31bd b199 01bd
00000150: 8406 8b3d c846 563e c41b 2dbe 1c27 303e
00000160: 1e37 343d 56e1 b23d d6fb b9be 57c2 ad3c
00000170: 900d 2e3e a0cd 68bd 87b4 b8bd c540 df3d
00000180: 9209 ccbd a891 813e e151 ec3d bb95 8c3d
00000190: f5e0 38be 99c3 68be f764 173e 53ef 463d
000001a0: 90d4 2ebd 041b efbc ce37 c63d 0485 65be
000001b0: 059a e73d 9a38 5a39 22bb e83d fb43 163e
000001c0: 41d8 81be 3351 913b 6a4d 9fbd 36c2 583e
000001d0: b691 fbbd d003 bfbd afa2 c2be cb46 de3d
000001e0: 1891 f8bc e908 373e 6d8c aa3d 7324 1c3e
000001f0: dd70 863e f11e a0be b07b ffbd 139f 863e
00000200: 8c3b 2cbd d307 133e 9018 1bbe 11c2 0abd
00000210: 78fe 36be d580 833d 9e55 183d 4a5e 80bc
00000220: fc77 40bb c235 e9bd ac93 91be 4e02 113e
00000230: e6aa 2fbd acde ecbc 91db 2fbe 590a 5a3e
00000240: a68c 1bbe cdec 29bd 6eb3 6b3e 14b5 8e3c
00000250: 4514 cebd 459c a3bd b2c5 ef3b 3cc4 be3c
00000260: b895 7d3d e00d d13d 09e2 813e 3f3a 7abd
00000270: 1c0a 693e c903 e23c 601b 7a3e c49a 433d
00000280: 0226 373e c1f3 11be c61b 4bbe 6b85 df3d
00000290: c91e 3abd 91ed 2a3e 8f0c 993b e803 86be
000002a0: d462 e43d 9c70 7a3e a250 e33d 4406 b93c
000002b0: 5f99 adbd a1a8 283e 80c5 12be 2ccf 05be
000002c0: 8c27 b23d fafa c43d fa93 4cbe 2035 793d
000002d0: 01d8 553e 7390 d13c 079c 883d ef5f d1bd
000002e0: ad6b 553e 7b64 62bd aae3 933d 7a03 fabd
000002f0: b2e7 2e3e 3553 723e ba2c 10bb 5b51 d93d
00000300: 981f 8a3d a7f1 df3d e9a6 203c bb3d a03e
00000310: 7cdf d13d 58b0 183e b9a1 b9bc e542 983d
00000320: 7b25 2cbe 5e87 1b3e d100 223c ef7b 62be
00000330: 63ed 3fbe b1ce 07bd d657 e23c 3078 e5bd
00000340: bd43 2cbe 2ec0 a7bd e58d 70bd 8fca fe3c
00000350: 9a28 1c3d 305f 6dbe 25aa 043e 0561 b8bd
00000360: c581 993d d244 15be 679c 2a3d ed69 3bbe
00000370: 3d4d 293e d0b0 5d3e 8796 9dbb 28e5 0b3e
00000380: 254c c1be 9769 5a3e eb94 df3c 8676 8e3e
00000390: 2922 d23d 1e29 dc3d 99ee 90be 45a7 323e
000003a0: 2a06 86bc 2e82 263d a4ad 1c3c 5894 04be
000003b0: 9caf 3e3e 4a85 1f3d abd3 86bd d2dc 1b3e
000003c0: d4f8 533e 85a2 0bbd 31fc 653d a023 d93d
000003d0: bda6 293e 4cb2 7cbd 780b ee3d 4cab 6cbd
000003e0: f3b3 1c3c 8bd6 86bb 6640 d13c cfde 163e
000003f0: f258 c6bc c5ee 28be 13a9 14be 4fb3 32bd

network_body._body_endoder.lin_layers.seq_layers.2.bias f4 [68]
0.045232132 0.06040037 0.030409886 0.06460077 -0.011661122 -0.007504199 -0.09441804 0.025513623
0.064841196 -0.041646853 -0.08009384 -0.10575075 -0.06282508 0.036472432 -0.015107905 -0.0036670782
0.17736237 0.062466703 0.073457986 0.111691654 0.015802952 -0.017768735 0.027787024 0.016023962
0.072314546 -0.01610493 0.036611196 -0.061389692 0.055629015 -0.04513061 -0.09205452 0.0038839579
0.017837536 -0.03784698 -0.037481282 0.005367168 0.02733262 0.048592944 -0.07662234 0.04590028
0.03900709 0.02348363 0.0061595766 0.06691977 0.041427378 0.062409047 0.022206984 0.052412324
0.029271971 0.0637922 -0.00676942 -0.015801938 0.016553054 0.06997664 -0.015639916 -0.02119623
0.023159929 -0.0019631186 -0.020339273 -0.06311832 0.045193274 0.049606536 -0.01833721 0.042432576
-0.02844741 -0.055664606 0.032634676 -0.027937163
00000000: 5445 393d 6166 773d 271e f93c 694d 843d
00000010: 4a0e 3fbc c9e5 f5bb 3f5e c1bd f201 d13c
00000020: 76cb 843d e495 2abd 3d08 a4bd d993 d8bd
00000030: 6faa 80bd 1e64 153d 2587 77bc 5d53 70bb
00000040: 7b9e 353e 16dd 7f3d 2471 963d 98be e43d
00000050: 3175 813c bd8f 91bc 9da1 e33c af44 833c
00000060: a619 943d 7cee 83bc 9ff5 153d c273 7bbd
00000070: 40db 633d e0da 38bd 1587 bcbd 008a 7e3b
00000080: 0620 923c 6f05 1bbd f985 19bd 12df af3b
00000090: a9e8 df3c 6509 473d 2cec 9cbd ef01 3c3d
000000a0: e6c5 1f3d be60 c03c 46d6 c93b 3b0d 893d
000000b0: c1af 293d a1a0 7f3d 6ceb b53c 4eae 563d
000000c0: c6cb ef3c 7ca5 823d 03d2 ddbb 1173 81bc
000000d0: 459a 873c ea4f 8f3d 481f 80bc b7a3 adbc
000000e0: e4b9 bd3c aaa7 00bb 8c9e a6bc 2e44 81bd
000000f0: 951c 393d 3930 4b3d eb37 96bc c8cd 2d3d
00000100: 8b0a e9bc 9200 64bd f0ab 053d 7adc e4bc

network_body._body_endoder.fc.weight f4 [128, 68]
-0.1635202 -0.21093698 0.181448 0.17003943 -0.025679983 -0.18199605 0.22939873 0.07261801
0.027050573 -0.15135103 0.19048695 -0.07892619 0.1345955 0.0506072 0.0056363074 -0.09090366
0.08945016 0.16787826 -0.018908748 -0.1408314 -0.1217047 -0.10044626 -0.22900818 0.08401397
-0.13874799 0.039785136 -0.10366436 0.045326345 0.082453825 -0.057357613 0.1764492 -0.08840997
-0.10472719 0.25110042 0.13639192 0.17797993 -0.012323499 0.027591025 -0.1522974 0.030573672
-0.20443112 0.015306327 0.12949358 0.18004769 0.04226732 0.122212045 -0.076271206 -0.13162275
-0.034159776 0.103986815 -0.19512488 0.20803276 0.13289939 -0.22274987 -0.081146635 -0.07677663
0.14317498 0.0029250858 -0.047526546 0.1825453 -0.18528871 0.099074215 -0.024918329 0.06717936
0.16020256 -0.13002467 -0.0008793621 0.09313004 0.083410256 0.036614925 0.03560649 -0.16285776
-0.22178671 -0.041328084 0.15204562 -0.1277562 -0.26716188 -0.14084902 -0.06810681 0.015508622
0.22132783 0.11385662 0.10983827 0.10880291 -0.14663084 -0.09986965 -0.037663493 -0.053326245
0.16045909 -0.14242706 -0.0831787 0.00429036 0.14647707 -0.20037124 -0.18178159 -0.035117794
0.11456903 -0.1039597 0.18395457 -0.038282618 -0.07552822 -0.14814268 -0.14069135 0.09305451
0.17379992 -0.039497085 0.070340015 0.017524092 0.08598014 0.041701864 0.046840142 -0.18069917
-0.11388032 -0.15646634 0.016059918 0.07788858 -0.09886961 -0.025500584 -0.10144189 -0.06205325
-0.16990605 0.13633773 0.082089916 0.08464505 0.10546676 -0.0155821 -0.02176806 0.1608834
-0.018205551 0.19427794 -0.024830494 -0.07556943 0.13401127 0.086432196 0.13625866 -0.110066265
-0.1233032 -0.00715022 -0.021694476 0.026563859 -0.13648881 -0.0031823006 -0.089317136 0.04920806
-0.14873664 0.11666408 0.118878596 0.011175468 0.10211003 -0.0149864 -0.12901607 -0.11204185
-0.26284683 0.03949806 0.17425463 -0.095792584 0.063251056 -0.0014956226 -0.103841916 0.09015238
-0.109872624 -0.10072787 0.041806933 -0.09431508 0.051172305 0.007705128 -0.036217146 0.16615333
0.012133081 0.06210992 -0.07185744 0.024703413 0.18998575 0.15265283 0.12517926 0.11114217
0.07047533 0.07249552 -0.038435083 -0.16320057 0.025107168 0.070682846 -0.10823336 0.07004728
0.077156365 -0.15311761 0.14044635 -0.0024852026 0.06148128 -0.06444481 0.08414918 -0.020036962
-0.06219262 0.10491771 -0.11864658 -0.09646819 -0.10217523 0.083305046 0.029321827 -0.08104894
0.1592318 0.10943782 0.19046758 0.20005631 0.10518731 0.16467075 -0.08463535 -0.11439334
0.09118986 -0.14498422 0.029673515 -0.09139387 0.031512313 0.05491536 -0.010621225 0.15972696
0.2630679 -0.07653163 0.15677406 -0.043429308 -0.09342178 -0.08102941 -0.039577924 -0.093859255
0.05662002 0.041093674 0.08847906 -0.06662347 0.09444485 -0.0844673 -0.14865747 0.16827364
0.116276644 -0.07310844 0.19902033 0.06686659 0.030876303 0.027028983 0.09479913 -0.11625457
0.024810852 -0.038832027 0.17780532 -0.00023680336 -0.1628033 0.049191028 -0.032350082 0.042070705
-0.15195237 -0.07697625 0.087740585 -0.048964452 -0.1217676 0.07662071 0.054092135 0.04340203
00000000: d771 27be ddff 57be 81cd 393e d11e 2e3e
00000010: d45e d2bc 2c5d 3abe 80e7 6a3e c0b8 943d
00000020: 2a99 dd3c c4fb 1abe 030f 433e 0ea4 a1bd
00000030: 67d3 093e 7f49 4f3d c6b0 b83b b32b babd
00000040: a531 b73d 47e8 2b3e 85e6 9abc 1b36 10be
00000050: 5040 f9bd c5b6 cdbd 1f81 6abe 840f ac3d
00000060: f413 0ebe bdf5 223d fb4d d4bd 1ea8 393d
00000070: 8ddd a83d d1ef 6abd 19af 343e 4910 b5bd
00000080: 367b d6bd 3c90 803e 53aa 0b3e 5f40 363e
00000090: 80e8 49bc 9306 e23c daf3 1bbe a375 fa3c
000000a0: 6456 51be 63c7 7a3c f799 043e 6c5e 383e
000000b0: 7f20 2d3d 4f4a fa3d 1434 9cbd 1dc8 06be
000000c0: 1feb 0bbd 0af7 d43d d1ce 47be 8a06 553e
000000d0: c716 083e 8b18 64be 3530 a6bd 113d 9dbd
000000e0: 769c 123e ccb2 3f3b 32ab 42bd 28ed 3a3e
000000f0: 53bc 3dbe 6ce7 ca3d 8621 ccbc 5595 893d
00000100: 240c 243e 3025 05be fe84 66ba f6ba be3d
00000110: ffd2 aa3d 88f9 153d 1cd8 113d 2fc4 26be
00000120: 0e1c 63be a347 29bd d9b1 1b3e 85d2 02be
00000130: 71c9 88be ba3a 10be 957b 8bbd e017 7e3c
00000140: c3a3 623e a92d e93d e3f2 e03d 0fd4 de3d
00000150: 6526 16be 7688 ccbd 0945 1abd 9f6c 5abd
00000160: 634f 243e 66d8 11be 9859 aabd 2696 8c3b
00000170: 16fe 153e 1e2e 4dbe f424 3abe add7 0fbd
00000180: 2ba3 ea3d d3e8 d4bd 965e 3c3e 3cce 1cbd
00000190: 8aae 9abd b7b2 17be 6511 10be 5d93 be3d
000001a0: 9bf8 313e b2c7 21bd 6d0e 903d af8e 8f3c
000001b0: 5b16 b03d 93cf 2a3d 73db 3f3d 3409 39be
000001c0: 163a e9bd b638 20be 1790 833c 0c84 9f3d
000001d0: 267c cabd 9ae6 d0bc c4c0 cfbd 8c2b 7ebd
000001e0: dafb 2dbe 1e9c 0b3e c21e a83d 625a ad3d
000001f0: f5fe d73d 104c 7fbc ee52 b2bc 9ebe 243e
00000200: cf23 95bc ccf0 463e 5269 cbbc 25c4 9abd
00000210: 403a 093e 5d03 b13d 6487 0b3e 6c6a e1bd
00000220: 6386 fcbd 654c eabb 9db8 b1bc 739c d93c
00000230: b9c3 0bbe 258e 50bb e7eb b6bd 648e 493d
00000240: 6b4e 18be 94ed ee3d 9f76 f33d 4f19 373c
00000250: 101f d13d 8489 75bc ca1c 04be 3376 e5bd
00000260: dc93 86be b8c8 213d ce6f 323e e72e c4bd
00000270: c589 813d c408 c4ba 12ab d4bd d0a1 b83d
00000280: e604 e1bd 6a4a cebd bf3d 2b3d 4428 c1bd
00000290: 0d9a 513d 4c7b fc3b 6e58 14bd 1924 2a3e
000002a0: d5c9 463c f966 7e3d fe29 93bd d05e ca3c
000002b0: a08b 423e 0651 1c3e fe2e 003e 829e e33d
000002c0: 5f55 903d 8878 943d 1b6e 1dbd 0d1e 27be
000002d0: 8cad cd3c 2bc2 903d 74a9 ddbd f374 8f3d
000002e0: 2804 9e3d ddca 1cbe 2bd1 0f3e c8de 22bb
000002f0: cbd3 7b3d a4fb 83bd 6856 ac3d 8e24 a4bc
00000300: b0bd 7ebd 19df d63d fafc f2bd 1d91 c5bd
00000310: 3f41 d1bd d69b aa3d 5434 f03c fdfc a5bd
00000320: a90d 233e f020 e03d ef09 433e 90db 4c3e
00000330: 726c d73d 739f 283e 4c55 adbd 0e47 eabd
00000340: c0c1 ba3d be76 14be df15 f33c b62c bbbd
00000350: 0e13 013d eeee 603d a604 2ebc 778f 233e
00000360: d6b0 863e 9dbc 9cbd 6189 203e eee2 31bd
00000370: eb53 bfbd bff2 a5bd 761c 22bd 4839 c0bd
00000380: 65ea 673d d751 283d 8234 b53d e371 88bd
00000390: 4d6c c13d 31fd acbd aa39 18be ed4f 2c3e
000003a0: 7322 ee3d e1b9 95bd fccb 4b3e 5af1 883d
000003b0: 4df0 fc3c e36b dd3c 0c26 c23d e016 eebd
000003c0: 2140 cb3c 550e 1fbd 9912 363e 6b4e 78b9
000003d0: e9b5 26be 887c 493d 8581 04bd 5552 2c3d
000003e0: 6799 1bbe b9a5 9dbd 56b1 b33d f38e 48bd
000003f0: 4b61 f9bd 52eb 9c3d b78f 5d3d 54c6 313d
