Assets/oon/lidar_f1.onnx (onnx, 383519 bytes, 46 tensors)

network_body.observation_encoder.processors.0.fc.seq_layers.0.weight f4 [22, 22]
00000000: c1ce 09be 6574 273e a55d 213e 32f9 d83c
00000010: 6fb2 173d 4b01 51bd f4c5 983e 9f5d 14bf
00000020: 6c0a bc3e 0e9c d8be 5536 fe3d 6347 b3bc
00000030: 6672 79be ff5c 363e b1b5 403e 69ec d93d
00000040: a959 ccbe 270c ef3d 6ea6 aebb 827f a0bc
00000050: 28c1 1e3e 7f60 41bd 9bbd d6ba caeb a83d
00000060: 3d1c ba3d de31 2e3d 18dd a83e 78f5 0ebe
00000070: 9b36 c1be 4723 ba3d a784 6d3e fced 1bbf
00000080: de5b 453e 56bd 3c3d 633b b23d 7cf9 0dbd
00000090: 2f16 323e 01f3 1bbe 9f90 c3bc 4fc6 0cbf
000000a0: 26b9 00be 284f 1cbe a427 f1bb d92e a13c
000000b0: 4f4b 773e d073 d33c 9528 8d39 dafa 3c3e
000000c0: d9f2 b2bd a5be 4dbe c85a b73c cea5 e33d
000000d0: 8b35 78be 1b0d 923e 84c3 86be 302a 08bd
000000e0: 63e9 393e 49f6 0dbe 5bb9 d43e 46bc b6be
000000f0: 6b3c d4bb 0c17 4f3e c625 143d b33f 96be
00000100: 3dd3 f0bd 4414 8ebd 4005 06bd b4cc e63d
00000110: 6c84 053e b4b9 17bc d4c4 c0bd 80a2 083e
00000120: 718a 91bd 22d0 9ebc b25e 1dbc 6364 15be
00000130: d7f0 cfbe 9586 c33d b3d8 9c3d 9ec4 11bf
00000140: d55e 86bc 8fc4 323e 7e16 85bc 5274 4fbe
00000150: 6102 23be 569a 053e 2c4c 10be 0702 8abd
00000160: 46fb 2bbe 245d 833d e00b 61be 86f9 82bd
00000170: c456 9bba da6f d83d ac0e b63e b870 8bba
00000180: 5e19 a23d 9125 85bd ffc7 ba3e f40c 8dbc
00000190: 64af 903d 16c0 433c d90b 9cbe 6543 4b3e
000001a0: 1173 2b3e f005 30bd 80cf 39be 61a5 e03e
000001b0: 88a3 dd3d b13a b43e 0641 05be cc0e bbbe
000001c0: b4cc 7fbd 8108 a6be 8a1b a5bb 920c 3f3e
000001d0: d3a1 7f3d 0338 af3e 0380 97be 59ca e6bd
000001e0: 95ac 59bd a1d2 643e 75c9 153e 78fd b4be
000001f0: 382f 363e 6f07 68be e547 b23d 321c 8dbd
00000200: 26de 673d f9f6 9c3e 69f1 d13d e1ca 093d
00000210: ac25 0f3f 489b 6d3d 0a39 a1be 284a 083e
00000220: 9264 6c3e 2bd4 26be 6454 6cbe f035 58be
00000230: bc4e 783e 0143 b03d 0e29 64be 2589 9a3d
00000240: 9634 b33d a892 20bc 3329 26bd dbd4 ab3e
00000250: c8c6 3abd 8828 783c 2a85 343d 4e21 0bbe
00000260: 4e4c 38bd 45c7 b63d 47bc 833c 1cd6 863e
00000270: 06e5 92be fefc 98be 3b15 ad3e a5c7 f83d
00000280: 2fc0 1fbd 2710 c63e 1b61 aebe a137 4c3e
00000290: 058d bebe a4df 00bd 0819 843e 286d 1cbe
000002a0: 3f97 99bd 7421 adbc dd17 c8be 369d 6d39
000002b0: 76ac 54be 28b5 aabd ee0c d4be 4422 ff3d
000002c0: 2183 afbd 0086 863e 8662 863e 40ef ee3d
000002d0: 03c6 3f3e 36d4 9dbe c7b8 323e 38b1 183e
000002e0: e306 fe3d b195 e23d c0c7 183e c119 87be
000002f0: c559 83be 1044 8c3e f98c aebe a724 373e
00000300: ef0d 513e 3e1c a6bd aab6 b2be 5f43 093d
00000310: d432 aa3d bea0 813e c46c bb3e e46c ef3c
00000320: 7598 71be b81e 273e 29c0 0b3c 5b0e 833d
00000330: a01f 813b 8761 01be 5a57 b03d 9e62 6e3e
00000340: 0103 a4be 2ef7 adbd 1c22 6abe 9384 91be
00000350: 30b0 e63d d6f7 acbe badc a5be 7864 8fbd
00000360: c27d 69bc e65d a0be 71f9 b5be bdcf 943e
00000370: c108 0b3e b29c 86bd 302c f23c 8524 e6be
00000380: 06a3 413e b603 763e b414 883e 553c a03d
00000390: 8f36 d23d 6a72 b6bd 3614 183e 57c8 be3e
000003a0: 49a0 49be f8fe ee3c 58b7 103e 8788 0b3e
000003b0: 53b0 34be a49a d0bd ca77 143e 99a5 bb3e
000003c0: 7442 993d f2a3 3b3e fff9 3cbe 66a1 843d
000003d0: 0de7 afbd 1d04 733e 6afa 93bd fbf3 473e
000003e0: 9b57 393c 956a fabd b8bd b2be 77a9 8f3e
000003f0: 1813 c73e 8ad2 df3e 7004 f53e 1494 1d3e
-0.13457777 0.16352995 0.15758379 0.026486013 0.037035402 -0.051026624 0.29838526 -0.57955354
0.367267 -0.4230656 0.12412707 -0.021884626 -0.24360046 0.17808913 0.1881931 0.10640795
-0.39912155 0.1167224 -0.0053298986 -0.01959205 0.15503371 -0.047211166 -0.0016383411 0.08248098
0.09087417 0.042528026 0.3298118 -0.13960826 -0.37736973 0.0908876 0.23195134 -0.6091001
0.19273326 0.046079002 0.08702733 -0.034661755 0.17391275 -0.15229417 -0.023872672 -0.54990095
-0.12570629 -0.1526457 -0.007359462 0.019675659 0.24149822 0.02581206 0.00026923852 0.18455067
-0.08737726 -0.20092256 0.022382155 0.11115609 -0.24239175 0.28525624 -0.26321042 -0.033243358
0.18155436 -0.13863482 0.41547665 -0.35690516 -0.006476929 0.20223635 0.036168836 -0.29345474
-0.117590405 -0.06937459 -0.03271985 0.11269513 0.13038796 -0.009260584 -0.09412542 0.13343239
-0.07106484 -0.019386355 -0.009605097 -0.14589076 -0.40613434 0.09547154 0.076585196 -0.5694064
-0.016402641 0.17457794 -0.016246077 -0.20259216 -0.15918876 0.13047156 -0.14091557 -0.06738668
-0.16795072 0.064142495 -0.21977186 -0.06395249 -0.001185142 0.10568209 0.3555807 -0.0010638451
0.07914995 -0.06501306 0.3648071 -0.01721809 0.07064703 0.011947652 -0.3047779 0.19849928
0.16743113 -0.042974412 -0.18145561 0.43876174 0.10822207 0.35201028 -0.13013086 -0.36534727
-0.06245108 -0.32428363 -0.0050386833 0.18657139 0.062410187 0.3422242 -0.29589853 -0.112690635
-0.053143103 0.22345974 0.14627631 -0.3534963 0.1779145 -0.22659086 0.08705119 -0.068901435
0.05660834 0.30657175 0.102511235 0.033640746 0.5591686 0.058009416 -0.3148883 0.13309538
0.2308524 -0.16291873 -0.23079067 -0.21114326 0.24248785 0.0860653 -0.22281286 0.075456895
0.08750264 -0.009800591 -0.040566634 0.33560833 -0.04559973 0.015146382 0.044072308 -0.13586923
-0.044994645 0.089247264 0.016080989 0.26335227 -0.28690356 -0.29880518 0.3380526 0.12147454
-0.03900164 0.38684198 -0.3405846 0.19943096 -0.37216964 -0.03146328 0.25800347 -0.15276015
-0.07499551 -0.021134116 -0.39080706 0.00022660647 -0.20768914 -0.08335334 -0.41416115 0.124577075
-0.08569933 0.2627411 0.26247042 0.11666727 0.18727879 -0.30825967 0.174533 0.14911354
0.12403657 0.110637076 0.14919949 -0.26386836 -0.25654426 0.27395678 -0.3409193 0.17885076
0.20415471 -0.081108555 -0.34904987 0.033511516 0.08310476 0.2531795 0.3660642 0.029226728
-0.23593314 0.16320312 0.008529701 0.063992225 0.0039405376 -0.1263486 0.08610411 0.23279807
-0.32033542 -0.084944114 -0.22864574 -0.2842146 0.11264074 -0.33782834 -0.32394964 -0.07001585
-0.014251174 -0.3132164 -0.3554187 0.29064742 0.13577558 -0.06572856 0.029562086 -0.44949737
0.18909845 0.24024853 0.26578295 0.078240074 0.102643125 -0.089085415 0.1485146 0.37262222
-0.1969005 0.029174313 0.1413244 0.136263 -0.17645387 -0.10185745 0.14498821 0.36649778
0.07483378 0.18324259 -0.18454741 0.06476097 -0.08588991 0.23732038 -0.07225497 0.19526665
0.011312391 -0.1222736 -0.3491037 0.2805898 0.38881755 0.43715316 0.47854948 0.15388519

network_body.observation_encoder.processors.0.fc.seq_layers.0.bias f4 [22]
00000000: 7da9 57bc ce45 6bbd 497c a63c 09d2 f2bc
00000010: d645 d6bc ffa1 9fbc 02bf 9f3b 14b3 f3bc
00000020: 6733 7e3c 81d5 4c3c 3769 90bb 29a7 823a
00000030: 5abb efbc cfc4 5dbc 1230 8c3b ea3d f8bc
00000040: 03cf b13b 38eb 9b3b 0fdd 9c3c 0e95 aebc
00000050: 2210 503d 2fc9 a03a
-0.013162968 -0.057439618 0.020322936 -0.029641168 -0.026156347 -0.019486425 0.004875065 -0.029748477
0.015515185 0.012502075 -0.004407074 0.000996803 -0.02926414 -0.013535692 0.0042781914 -0.03030296
0.005426289 0.004758265 0.019148378 -0.02131131 0.050796635 0.0012266989

network_body.observation_encoder.processors.0.fc.seq_layers.2.weight f4 [22, 22]
00000000: d014 52be 5163 7f3e a1b2 1dbd 2507 4d3e
00000010: a72b 50bc fd7c 97be 103f e5be 7481 98bd
00000020: 689f 9fbd 8768 3fbe c047 a13d c0ef dabd
00000030: 5462 10be ebb0 bebe 9a67 3c3e e873 01be
00000040: 784a 443d a9db 3abe 2bf2 0a3e 8bd0 57be
00000050: ac37 2a3e 7254 8bbe 8f12 c43d a792 8dbe
00000060: 2b85 2e3d be5d 3abe 65d8 0b3d 8f70 5cbe
00000070: e73c 2ebe d85b 25be 5b8f 273e 98ae 7a3d
00000080: 5617 f0be a67b da3e 91e5 953b 0b3f 9abc
00000090: a538 44be d73d f73d 910a 1d3d e898 a13d
000000a0: bb90 58be 1f62 f4bd c986 22be 44b3 85be
000000b0: 3b85 65be ecc6 903e 5562 8fbd 00cd 9e3d
000000c0: a224 32be d756 87bc c4c7 0fbd f6cd febd
000000d0: 49ae 05bf 7693 44bc 7118 613e 5170 b6bb
000000e0: 1193 673e 76be 75be fad7 21be e8bd 863e
000000f0: 3d16 15bd b29e d8be 5557 bcbe 0e70 4c3e
00000100: fef7 a23d c552 c1be 52c3 623e 50c9 1fbe
00000110: 24c5 d4be e65b 21be 66d8 ecbb 0a1d e1bd
00000120: 3a78 d93d 6a68 2a3e 857b 46be a9ff 313e
00000130: 29c0 8dbc 70d4 213d a258 27bd ac5c 83be
00000140: 1edd 25be 47c5 213e 3899 6fbd 56a7 76bd
00000150: 0c94 333e 49a9 b4bd 0a65 5fbd 4445 8e3e
00000160: 114f 403e 5595 063e 7956 fb3d fda3 64be
00000170: 8f32 dfbd 8936 22be 2bdb c9be 54c0 a3be
00000180: f4ee 14bd c96a 88bd 9d11 1b3e b644 94bd
00000190: d036 d9bd cd10 333d d249 7f3e ccd7 0cbe
000001a0: 97e5 d1be e633 ef3b 5306 b7bc e43f dd3e
000001b0: 920c 75be 4168 323d cbf8 083e 00fd acbd
000001c0: c457 0ebd 4b2e 10be 058a b83d c8f5 3abe
000001d0: 19f3 963d 6985 74be 4c42 46be d4c2 ff3d
000001e0: aac6 4abd 5236 e1bb ef66 af3e 9c78 e53c
000001f0: 17cc e93d a0bb 693e 4b9f f7be 7228 12bd
00000200: e885 403e 4aa2 aabc 5b27 503e f600 b3bd
00000210: aed2 f23d 0bbd 703e 9e2c 80be 9098 053d
00000220: 97c6 3c3e c642 7ebe 7e90 b7bb 8d6f a43e
00000230: f926 01be 7caa 00be cc67 6fbe cc12 2bbe
00000240: e773 49bd ed0b b53e 3abd bebb 8f5e 4dbe
00000250: dea0 663c 1751 8b3d 0cfd b0bc 1fc2 513e
00000260: 8e8c 97be d2b6 463e a69b 89be 9439 453e
00000270: f1c3 653e 985a 4a3e 7b99 2bbd 67d1 68be
00000280: 8227 68bd 9e0c 343e 1fd5 aabe 68f1 a03e
00000290: fd73 60be 3daa a93e 5272 533e 1e48 cc3d
000002a0: 7e5f 8b3e b4c5 51be 2def bdbe 2e7d 6a3e
000002b0: ac70 d23d 1092 ad3e 74de 37be cde1 85be
000002c0: 5104 953e 95e5 183e 39b5 95be 81a5 123c
000002d0: cd36 dcbd 378b 08be c332 133e 9a2b 26be
000002e0: b92d 903e c685 48be aa83 84bd 603e 863e
000002f0: abf8 263e e28e fabd e4ee 8e3d 852d afbe
00000300: cecf c0bd cf1f 4c3e 580b 80be 3bb5 55be
00000310: 57af 2dbd 7bea b2bc 6ca6 09bc df32 f6bd
00000320: 4f50 dcbd ef1d 14be 6bad 71be 3263 b03c
00000330: b133 18bd c62f 1fbd 09ca a7be 675d fd3d
00000340: 7e99 923e 99aa d63d 69c5 2e3e 3a09 86bd
00000350: b8d2 063f e2d1 a13e 2f8e ba3d ab77 b8bd
00000360: 05b1 28bd 0411 0a3e 04a3 013e 4242 d4be
00000370: 27ba d33d 0cb6 ee3c 016c 753e 4fb9 9b3e
00000380: 5787 123d 13b4 75be 2a00 8fbd 36e3 85bc
00000390: aaf5 39be 0c32 2d3e 44cc db3e 1534 acbe
000003a0: d138 cb3d 8346 e9be 0959 b1bd 95e2 f2bb
000003b0: 7c5c 363d 0409 40bd 2d4d 593e 99a2 653e
000003c0: 3fab 183e ca17 5c3d 980d f03b a998 c6be
000003d0: b8f7 84bd 8352 93bc a6bf dc3e 0047 8bbe
000003e0: 89e1 b43d a865 393e 260d 973c 7b6a 163e
000003f0: 1e5b 3a3e e593 9f3e ee3f 273d 889f 533d
-0.20515752 0.2494023 -0.038500432 0.20022257 -0.01270572 -0.29587546 -0.44774675 -0.07446566
-0.07794076 -0.18692218 0.07875013 -0.1069026 -0.14100009 -0.37244353 0.18398896 -0.12641871
0.04792258 -0.18247856 0.13568942 -0.21075647 0.166228 -0.27212864 0.09573852 -0.2765095
0.042607468 -0.18199822 0.034141917 -0.21527313 -0.1701542 -0.16148317 0.1636328 0.06120166
-0.46892804 0.4267246 0.0045744856 -0.01882889 -0.19162233 0.12072342 0.038340155 0.07890493
-0.2114896 -0.119327776 -0.15871729 -0.2611333 -0.22414105 0.28276765 -0.07001177 0.077539444
-0.17396787 -0.0165209 -0.03510262 -0.12441628 -0.52219063 -0.011998048 0.2198198 -0.0055675884
0.22614695 -0.23998436 -0.15805045 0.26316762 -0.03639816 -0.42308575 -0.3678538 0.1996462
0.07957457 -0.3775846 0.22144821 -0.15604138 -0.41556656 -0.15757713 -0.007227945 -0.10991867
0.106186345 0.16641393 -0.19383056 0.17382683 -0.017303543 0.039509237 -0.04085601 -0.2565664
-0.16197631 0.15797912 -0.05849573 -0.060218178 0.17536944 -0.08821351 -0.054539718 0.2778722
0.18780161 0.13142903 0.12272353 -0.22328182 -0.10898315 -0.15841116 -0.39425024 -0.31982672
-0.036360696 -0.06660993 0.15143438 -0.07239668 -0.10606158 0.043717194 0.24930504 -0.13754195
-0.40995476 0.007299888 -0.022341883 0.43212807 -0.23930576 0.043556456 0.13376157 -0.084466934
-0.03475167 -0.1408016 0.090107 -0.1825782 0.07370586 -0.23879017 -0.19361228 0.124883324
-0.049505867 -0.0068729306 0.3425822 0.028011613 0.1141588 0.2282548 -0.48363718 -0.035683103
0.18801081 -0.020829339 0.20327513 -0.08740418 0.1185659 0.23509614 -0.2503404 0.032616198
0.18435131 -0.2483016 -0.0056019416 0.32116356 -0.12612523 -0.12565035 -0.23379439 -0.16706389
-0.0491828 0.3536066 -0.0058208974 -0.20055602 0.01407644 0.06802576 -0.021605037 0.20484208
-0.29599422 0.19405678 -0.26876563 0.19260246 0.22438027 0.19761121 -0.041894417 -0.2273613
-0.056678303 0.17582938 -0.33365723 0.31434178 -0.21919246 0.33137694 0.20649078 0.09974693
0.27221292 -0.20485574 -0.3709654 0.22899315 0.10275397 0.339005 -0.17955953 -0.26148835
0.29104856 0.14931329 -0.29239824 0.008950592 -0.1075264 -0.13334356 0.14374833 -0.1622757
0.28159884 -0.1958228 -0.064704254 0.26219463 0.16305797 -0.12234284 0.069791585 -0.34214416
-0.094146356 0.19934009 -0.25008655 -0.20869915 -0.042403545 -0.021840325 -0.0084014945 -0.12021422
-0.10757505 -0.14464544 -0.2360131 0.021531675 -0.03715867 -0.03886392 -0.32771328 0.12371331
0.2863273 0.10481758 0.17067493 -0.065447286 0.5266528 0.3160544 0.091091506 -0.090072
-0.041184444 0.13483053 0.12659842 -0.414568 0.1033824 0.029139541 0.23966981 0.30414817
0.0357736 -0.23994474 -0.06982453 -0.016343694 -0.1816012 0.16913623 0.4292928 -0.33633485
0.09922946 -0.4556161 -0.0865956 -0.0074122646 0.044521794 -0.046883598 0.21220846 0.22425307
0.14909075 0.053733625 0.0073258393 -0.38788345 -0.06492561 -0.01798368 0.43114966 -0.27202606
0.0883208 0.18105185 0.018438887 0.14689057 0.18198821 0.31167522 0.040832452 0.051665813

network_body.observation_encoder.processors.0.fc.seq_layers.2.bias f4 [22]
00000000: d0c5 4c3d ac6f f03c 5fd3 4abd ce5c c8bb
00000010: cd88 253c c200 d53c c161 2939 ecaa 23bd
00000020: ec6f 1abd 7ee2 3abc d39a 0dbd 2c5f 943c
00000030: 0dcf 04bb b095 4c3c ab74 da3c 44a6 40bd
00000040: c885 a23b 0c00 79bd 9046 57bd 5937 ee3b
00000050: 1f46 a9bb 0c41 953b
0.049993336 0.029350124 -0.049517985 -0.006114579 0.010103417 0.026001338 0.00016153512 -0.039957926
-0.037704393 -0.011406539 -0.03457148 0.018111788 -0.0020265013 0.01248686 0.02666696 -0.047033563
0.0049597956 -0.06079106 -0.052557528 0.0072697815 -0.00516583 0.0045548733

network_body.observation_encoder.processors.1.fc.seq_layers.0.weight f4 [22, 22]
00000000: 61b4 2cbd 6524 6e3d 309d 42bd 8b73 8b3d
00000010: 61d2 de3d 7325 713d dba4 ea3d 5afc 3abe
00000020: 06fe 2ebd b631 65be cb5d 50ba 6a2f 733d
00000030: 66c0 b33e 5d20 4cbe 3d04 e4bd ef17 82be
00000040: f35f eabd 782d 123d abe9 37be 6e77 d5bc
00000050: 4d3a 25be 94aa 3ebe 9877 713e a6c8 183e
00000060: ca42 573e 7be9 e6bd d38e 59be 2a6e a5be
00000070: a836 46bc 0c09 6b3e 07ec 9cbd 8a90 663e
00000080: 7dc2 0d3e 2736 ddbd b216 683e 40d1 4f3d
00000090: e058 4ebd e76c c93d b3fd 2fbe 1583 36be
000000a0: b25b 35be 28a7 97bd 546b ca3c 3456 533e
000000b0: 92af f23e b9b2 893c b36b 95be 887f 66be
000000c0: c393 0e3e 030d 2c3e 27d2 f6be 45b0 20be
000000d0: 80df 123e 1ffc a43c c58d d2bd ca13 c1be
000000e0: b981 e93d 0b83 1b3e c6b7 51be 3ff6 683e
000000f0: f914 1f3e 9d67 1a3e 9cd1 9f3d a2ec d9bb
00000100: adab c8be d2a7 843d 94a4 343e 2279 053e
00000110: b4ff bc3d 0b0c 84bd 5146 cfbe 27bb b0bc
00000120: 44f3 bdbd e512 0a3e 14b2 a0bd d9f2 cabd
00000130: 02a1 9ebd aff3 9c3d 617a 8ebe c15d 86be
00000140: 5245 8e3e 49ff fbbd c29e 9f3d c7bc 9cbd
00000150: 6514 dbbe 11bf 89be 1245 da3a ec02 d53e
00000160: d646 b23e 0724 a63d cbb5 a8be 5090 f83c
00000170: ddd1 d1be ce7a 753e 5abb 7d3c ad3c 013f
00000180: ac8d d5be 5abe e33d abc6 953d 25ac 143e
00000190: f862 91bd 198d c3bd ee84 28be a450 aebd
000001a0: 8fa1 043e 94e7 053d 0aeb 5c3e de93 7f3e
000001b0: 569e 81bd 5e7e 0ebf 85f6 953e de5e d7bd
000001c0: 41e5 863d 68eb cbbd 4119 26be 5f4e 93be
000001d0: 3cbb 87bd cabe 04be ef93 3d3e 5708 b53e
000001e0: 254c 11be 1129 113e 91dd 493e 20cb 28bd
000001f0: 4246 d2bd 97da 89bd 519e db3d 2426 423e
00000200: f5de 023d d809 973e eab7 15be dfcc 91be
00000210: f701 d6bd d339 febd bc86 9ebd ab33 72bd
00000220: bd5d 86be b256 15be b0c5 62be 38fb 23be
00000230: 495e 5c3d b0f2 c8bd a098 e63c b040 173f
00000240: 0e7a 1abc f705 44be 824e 2d3e 9b53 06be
00000250: 9afa ef3d 05bc 823e 4905 19bd b8f4 dcbd
00000260: e0a6 893c 5ec2 353e e7ff a7bd 1900 cd3c
00000270: 3aa3 70be c40e 5ebb fd35 ab3b cdb0 8e3e
00000280: cd3e 6fbe 3637 233e 16d7 88be 6102 36bd
00000290: e631 e4b8 4cb0 0b3d 40d4 8abd a883 84be
000002a0: 50ba c8bd 3329 9fbe 8e32 f1bc 98f4 1cbe
000002b0: 216d c1bd e97c cebd 1595 8e3e b095 b63e
000002c0: 9e4f 613e 279c 8a3d 4ac5 50be 3648 0abe
000002d0: 0d4a 83be 067e d1bd 519e da3c 22c5 093f
000002e0: 2487 923e 89ec d5bd dcf9 e53d 644f 773c
000002f0: 2c36 87be 0a55 92bd ece6 ec3e 2969 803d
00000300: b1b4 743e 0cb2 5d3e 1d24 473e d327 a0bd
00000310: b811 933e 4242 553e 82cf 5ebd 5a0f 873c
00000320: f5be 993e 3932 ecbe eadd 153d 601c 6b3c
00000330: b3c2 263c 07a7 72bb 6178 683e ad7b c33e
00000340: 2670 b33d 28a0 8c3e f8fe 053f 9c59 a43d
00000350: f88c b83d 9f5b 203e 0a96 79be b13b 2ebc
00000360: 7db5 143e 9747 8f3e 0d8c 4b3d 332e 113e
00000370: 19f1 12be 1b42 06bd d0d2 2dbd b555 15bf
00000380: 590e d5bd 59c9 033e 6d01 863e 1fc7 803e
00000390: b461 213e 1a49 74be 7bde 6b3d 054e 6b3d
000003a0: 2634 57be 00b9 903d 9e46 b0bd bbe5 7dbe
000003b0: eb6d 2abd aa5f a53d b054 e63e 5d96 0d3e
000003c0: 07c3 713e 8dc8 1b3e 6e4e e3be 3428 36bf
000003d0: 7e63 313c f909 3ebd ca3a 2ebe bcc6 2ebc
000003e0: b08f d6bd f840 fdbd 607f 6a3e 1607 ddbd
000003f0: 9caa 2dbe 0727 9c3e b223 853d 0409 b53e
-0.04216421 0.058140177 -0.047513187 0.068091474 0.1087997 0.058873605 0.11457225 -0.18260327
-0.042722724 -0.22382244 -0.00079485466 0.05937139 0.35107726 -0.1993422 -0.11133621 -0.25408885
-0.11444082 0.035687894 -0.17960231 -0.026057925 -0.16135521 -0.18619758 0.23580778 0.14920291
0.21021572 -0.112750016 -0.2124589 -0.3231061 -0.012097992 0.2295267 -0.07662206 0.22516075
0.13843723 -0.10801344 0.22664908 0.050736666 -0.050377727 0.098352246 -0.17186622 -0.17823441
-0.1771076 -0.074049294 0.024709381 0.20638353 0.47399575 0.016808854 -0.2918373 -0.22509587
0.13923554 0.16801839 -0.4820721 -0.15692241 0.14343071 0.020139752 -0.10280947 -0.3771041
0.11401696 0.15186708 -0.2048026 0.22750185 0.15535344 0.15078588 0.07803652 -0.0066505233
-0.39193478 0.06477322 0.17640907 0.1303449 0.09228459 -0.064476095 -0.40483335 -0.021573616
-0.09274915 0.1348377 -0.07846466 -0.09909601 -0.077455536 0.076636665 -0.27827743 -0.26243404
0.27787262 -0.12304551 0.077939525 -0.07653194 -0.42788997 -0.26903585 0.0016652665 0.41603792
0.3481967 0.081123404 -0.32951197 0.030342251 -0.40980425 0.23972628 0.015486563 0.5048321
-0.4170965 0.11120291 0.073132835 0.14518793 -0.07098955 -0.095483966 -0.16456959 -0.08511475
0.12952255 0.032691553 0.21574035 0.2495875 -0.06329028 -0.5566157 0.29289642 -0.10516141
0.065866955 -0.099570096 -0.16220571 -0.2877073 -0.06627509 -0.12963405 0.18513463 0.35357925
-0.14189203 0.14175822 0.19713427 -0.04120934 -0.10267307 -0.06731146 0.10723556 0.18959862
0.03195091 0.29499698 -0.14620939 -0.28476617 -0.104495935 -0.12413373 -0.07740542 -0.059131306
-0.26243392 -0.14583853 -0.22145724 -0.16013801 0.053800855 -0.09811914 0.02814895 0.5908308
-0.009428514 -0.191429 0.1692448 -0.1311783 0.1171772 0.25534073 -0.037358556 -0.10788864
0.016803205 0.17749926 -0.082031064 0.02502446 -0.23499766 -0.0033883313 0.0052249418 0.27869263
-0.233638 0.1593903 -0.26726598 -0.044435862 -0.000108811815 0.034103677 -0.06778765 -0.25881696
-0.09801161 -0.3108612 -0.029443052 -0.1532768 -0.09444643 -0.100824185 0.27848116 0.35661077
0.22003028 0.06768065 -0.2038776 -0.13504109 -0.25642434 -0.10229115 0.02668682 0.53816426
0.2861873 -0.10445506 0.112292975 0.015094612 -0.26408517 -0.07145126 0.4626993 0.06270058
0.23897053 0.2164995 0.1944737 -0.07820096 0.28724456 0.20826057 -0.054397114 0.016486812
0.300285 -0.46132067 0.036588587 0.014350027 0.010178256 -0.0037025826 0.22702171 0.38180295
0.08761625 0.2746594 0.52342176 0.08024904 0.09011263 0.1565995 -0.24373642 -0.010634349
0.14522357 0.27984306 0.04969411 0.1417778 -0.14349784 -0.032777887 -0.042437375 -0.58333904
-0.10403127 0.12869777 0.26172963 0.25151917 0.15759927 -0.23856011 0.05758522 0.057447452
-0.21015987 0.07066536 -0.08607219 -0.24794666 -0.041608732 0.08074887 0.44986486 0.1382689
0.23609553 0.15213223 -0.44395775 -0.71155095 0.010826943 -0.04639623 -0.17014614 -0.010667499
-0.10476625 -0.123659074 0.22900152 -0.10792367 -0.16959614 0.30498526 0.06500949 0.3535844

network_body.observation_encoder.processors.1.fc.seq_layers.0.bias f4 [22]
00000000: cc5c 123d 6da5 dd3c 6afa c8bc b12f 083d
00000010: 48cc 5bbd 7141 a23c 656b 73bc 7cc6 d5bb
00000020: 1be6 1cbd d584 2abd 5a2b eabc e04c 423c
00000030: 41d8 07bc 85fe 973c 80d3 4fbc e964 0ebd
00000040: 759d 09bc 1474 253d 5823 86bc b1f6 953b
00000050: 8def 21bd 673a 453d
0.03573303 0.02705642 -0.02453347 0.033248607 -0.053661615 0.019806596 -0.014857148 -0.0065239053
-0.038305383 -0.041630585 -0.028585125 0.011859149 -0.008291305 0.018553982 -0.012684703 -0.034764204
-0.008399357 0.040393904 -0.016374275 0.004576527 -0.039535094 0.0481514

network_body.observation_encoder.processors.1.fc.seq_layers.2.weight f4 [22, 22]
00000000: 3656 62be f33f 29be 7dc2 a4bd 03a9 6fbe
00000010: af3e 61bc 743d 0dbf 41eb d43c 4245 95be
00000020: 809b 5d3d fa03 a23e 84e8 1a3e 6c04 a1be
00000030: cee8 be3d 71fe ddbe dd49 7f3e 5cba a5be
00000040: 48f5 eb3d 0114 763d c01b 253e 178b b63e
00000050: 281b f63e b8cf ba3d 19da 2abe 7732 27be
00000060: 7fe6 833c 600a 8ebe 1cd5 f0bc 024d 00be
00000070: 5eeb d9be 6cbc ce3e eaa7 883d 5d88 033f
00000080: ca1a eebd 6a7a ac3d de67 67bd e6f5 f7bd
00000090: df44 2bbe 05b7 5cbe d997 163e 0edb e33d
000000a0: 1ec4 53be 8d2d 0abe a74b a3bd 327a c13d
000000b0: d451 2fbe e6bf 403e 8059 f83d 619f 1d3e
000000c0: f10f 69be 134d 0fbe 6021 bb3d 6a74 bf3d
000000d0: 12a1 47be def3 bcbe 1393 ffbe 85f9 813e
000000e0: 8c3d 473e a0ee 983d 15ad a13e d0f3 863e
000000f0: ce04 b9bd 0032 553e 2b54 4a3d 9100 be3d
00000100: 248a d8bd 8713 873d ab1f 0dbf 9583 633e
00000110: 9959 1abc 9477 cdbd cc42 1cbe e639 27bb
00000120: f1bc 7ebe 7fcb 64be 4d0d 45bd aa87 6d3e
00000130: bf1c d8bc fd18 a63d 87d1 e1bb 5f0e 9a3d
00000140: 5161 24be 1477 47bd 31d5 96be b6c0 ac3d
00000150: 5ae0 803e 2aff 68be c2ab 01be 09cd 833c
00000160: 39c5 9cbe 8482 f2bd 5173 a83d 32b2 79bd
00000170: 67dd b93e 87e2 913e 8932 b3be 38f4 3c3d
00000180: 520d 7ebd ec2c 2a3e 18ff 05be 5484 1f3d
00000190: cfc0 a1bd 0599 a8bd f848 07be 33fd 313e
000001a0: 835b c8be 3727 cd3c 4f92 143d 0878 a9bd
000001b0: e817 15be 3d01 a7be 7d4a 74bc 94d4 b6bc
000001c0: 558a f63d 5518 edbd b601 a5be 854c cc3d
000001d0: c67c 26be 1734 933e 34d3 053e 28a7 a33d
000001e0: ba9f f1bd 1ec7 553d 7512 bdbe 71e9 83be
000001f0: 2146 963e 0e0f d0bd 9c16 633e b368 8e3e
00000200: 328f 0dbe 68b0 8c3d c61e 12be 6b4d b23d
00000210: 4cb1 a73e e943 b8bd 0753 50bc ce60 c7be
00000220: 6501 8abe b577 8abe b66e 42bd c6bb 49bd
00000230: c884 c13d 73bf aabe a491 beba a9d6 07be
00000240: 3fa7 94bd 1b38 55bb 3b84 e23d bf4c 00bf
00000250: 5258 4f3d 7f38 2fbe ca6d 463d e93c 4e3e
00000260: a572 5a3e 4655 b53e 82f3 18be 29e2 77bc
00000270: d91b 22be e1a8 873e 80ce 90be e1df 193e
00000280: d350 09be 41dc 0a3c e297 f6bd 6f97 4cbc
00000290: 1f45 b2be a168 c6bd c3dc 55bd 0f3f d1bd
000002a0: 6bf5 0a3e 7f2d adbe da0e bbbd 70f9 b03d
000002b0: 625b 7abd a025 553d 78fa 903e 1961 3e3e
000002c0: a027 9cbe 40c3 ddbd 640b f9bb 1aa4 b9be
000002d0: e11e 103e b555 0bbe 934b 8b3d 0b68 f6be
000002e0: dca3 12bd ede4 44be 6bbc 573e d64d 603d
000002f0: 4685 56be 7487 0e3e 9093 8cbe 6a7a 413e
00000300: 9e11 e0bd cd76 553e d3e5 7cbd e492 1bbb
00000310: 6063 8b3e 5c48 0a3e 196d a83e 7e54 d43d
00000320: 2704 a2bd c231 563e 8c3e 4bbe 6c73 6f3d
00000330: 4382 6cbe cf69 62bd e8dd d43d f306 74be
00000340: 741d 563e c4ae f53e db58 903e 45e9 d9bc
00000350: ee47 cb3d 8b9f a8bd a22e 54bd adb4 e93d
00000360: d018 eb3d 25ad 053e d2e0 9dbd bd1d e33e
00000370: 177f e6be 52c5 8cbe 50bd b9be f7b7 44be
00000380: 6c5d 43bd ebd2 303e fac1 4e3e 3bcc a43c
00000390: 413d 60be 6a3d b4be d88b 78be df12 60bd
000003a0: d620 acbe 625b d3bd 263e 3f3d bbfb 27be
000003b0: 9c1f 3bbe cd47 c3bd b170 f33e 4b89 25be
000003c0: 4db6 f5bd b409 ce3d 0f04 863e f443 bf3d
000003d0: fd9b 733e 44a7 9ebd 2d74 6f3e c983 94bb
000003e0: 87e5 95bd 586a 313c bf3e 8ebd 6054 b3be
000003f0: 0cd0 253e 817f 5a3e 5b7b 92be 25fb f83d
-0.221032 -0.16528301 -0.08044908 -0.23404317 -0.013747855 -0.55171895 0.025991084 -0.29154402
0.054103374 0.3164366 0.1512776 -0.31448686 0.09321748 -0.43358186 0.2493052 -0.32368743
0.11521393 0.06007767 0.16123867 0.35652992 0.48067594 0.091216505 -0.1668476 -0.16327845
0.01610112 -0.2774229 -0.029398493 -0.12529376 -0.42562383 0.4037813 0.06672652 0.5137995
-0.11626203 0.08421786 -0.05649554 -0.12107448 -0.16725491 -0.21554191 0.14706363 0.11125766
-0.20680282 -0.13493939 -0.07973414 0.09447135 -0.17121059 0.18823203 0.12126446 0.1539283
-0.22759987 -0.13994245 0.09137225 0.09348376 -0.19495037 -0.36904806 -0.49916896 0.2538568
0.19457072 0.07467389 0.31577364 0.2635789 -0.090341195 0.20819855 0.049396675 0.09277452
-0.10573223 0.065955214 -0.55126446 0.22218163 -0.009420776 -0.10032573 -0.15259856 -0.0025516688
-0.24876763 -0.22343253 -0.048108388 0.23196283 -0.026380895 0.08110235 -0.0068914327 0.07522272
-0.16052748 -0.048697546 -0.29459527 0.08435194 0.25171167 -0.22753587 -0.12663177 0.01608898
-0.3061922 -0.118413 0.0822512 -0.060960956 0.3630173 0.2849314 -0.34999493 0.046131343
-0.062024422 0.16618699 -0.13085592 0.038944557 -0.078981034 -0.08232311 -0.13211429 0.17381744
-0.39132318 0.025043113 0.036272343 -0.08274847 -0.14559901 -0.32618132 -0.0149103375 -0.022318162
0.120381035 -0.115769066 -0.32227868 0.099755324 -0.16258535 0.2875068 0.13068849 0.07990867
-0.117980435 0.052191846 -0.36928144 -0.2576404 0.2935038 -0.101591215 0.22176594 0.27814254
-0.13824156 0.06869584 -0.14269552 0.087061726 0.32752454 -0.08997328 -0.012715108 -0.38941044
-0.2695419 -0.27044454 -0.047468863 -0.04925134 0.09449154 -0.3334919 -0.0014539254 -0.1326548
-0.07258462 -0.0032534662 0.11060377 -0.50117105 0.05062134 -0.17111395 0.048444547 0.20140423
0.21332796 0.3541662 -0.14936641 -0.015129604 -0.15830936 0.26496032 -0.28282547 0.1502681
-0.13409738 0.008475364 -0.12040688 -0.012487276 -0.3481836 -0.09687925 -0.052212488 -0.102171056
0.13570182 -0.33823773 -0.09133692 0.086413264 -0.061122306 0.052037835 0.28316092 0.18591727
-0.3049898 -0.108282566 -0.007600235 -0.36258012 0.1407428 -0.13606913 0.06801524 -0.48126253
-0.0358008 -0.19227953 0.2106797 0.05476173 -0.20949277 0.13918859 -0.2745633 0.18894354
-0.1094086 0.208461 -0.061742615 -0.0023738677 0.27224255 0.13504165 0.32895735 0.10367678
-0.07910948 0.20917419 -0.19848078 0.058459684 -0.23096566 -0.05527669 0.10393888 -0.23830776
0.20909673 0.47984898 0.2819279 -0.02660049 0.09925829 -0.082335554 -0.051802285 0.11411414
0.11479342 0.1305433 -0.07708897 0.44358626 -0.45018837 -0.27494293 -0.36277246 -0.19210802
-0.047696516 0.17267959 0.20191184 0.020116916 -0.21898367 -0.35203105 -0.24272096 -0.054705497
-0.33618802 -0.10320164 0.04669013 -0.16404621 -0.18273777 -0.09535179 0.47546914 -0.16165654
-0.11997662 0.100604445 0.2617497 0.09339133 0.23789974 -0.07746747 0.23384161 -0.0045323116
-0.073191695 0.010828577 -0.069455616 -0.3502531 0.16192645 0.21337701 -0.28609738 0.12157277

network_body.observation_encoder.processors.1.fc.seq_layers.2.bias f4 [22]
00000000: 2c39 9abc b1ad 39bc bb98 2e3d 21ee 8a3c
00000010: 831a 47bc 20fe e23c 5a2b 803c 65bb 623d
00000020: 4f7c acbc d0a8 2c3d 7e83 06bb 69b1 073d
00000030: 9f8e e93c 9463 bd3b 5753 e53c aa5f b53c
00000040: ea69 da3c eec7 003d de65 ae3b 258f c5bc
00000050: 8ae6 c73c 8e6f 183c
-0.01882609 -0.011332915 0.042626124 0.016959252 -0.012152317 0.027709067 0.015645672 0.055354495
-0.021055369 0.04215318 -0.0020525153 0.033128176 0.02851039 0.005779693 0.027993841 0.022140343
0.026661832 0.031440668 0.005322202 -0.024116108 0.024401922 0.00930394

network_body.observation_encoder.processors.2.fc.seq_layers.0.weight f4 [12, 12]
00000000: 8a2c d73e cfe1 fd3d 13d8 6a3e 55f5 ed3e
00000010: 56f6 46be 1897 37be 28d1 783e 771e babd
00000020: a5b6 ffbe 473a 18be 9ea5 d5be 9a74 05be
00000030: e4cf cdbe ff9a 64be a72a babe 886e 21be
00000040: 0cbb 0ebd e044 d3be 4070 fd3e 9fd6 dc3c
00000050: 7b49 403e 75b5 953e 3a06 b53e f632 32be
00000060: 6bb8 e0bd 8185 153e 1365 08be 9136 33bd
00000070: d507 f5be f256 9fbe 41ff a4bd 99e0 17bf
00000080: 005c 423e 54fb 6abf e35d 43bd 5033 d93e
00000090: e73f 893e d7aa 0f3f b56d a43e f85f 20be
000000a0: 6354 0abf 8e35 ee3d 5b31 85be e6bc 5fbc
000000b0: 30ed 0e3e de27 01bf cdd4 8f3e 8ba9 d5bd
000000c0: 83cc 1cbe 2b9a bf3d b68f 823e 33d0 eebd
000000d0: 1e0f 82bc 8388 70be dc4b d93d 5985 23bd
000000e0: 2135 ed3c e55d 0fbe 43b9 4b3d c6c3 973e
000000f0: dc0e 1c3e f2b1 b9be f53c d53e 96d8 98be
00000100: 823d 833d 98f9 ef3e dd30 79be ee5f 91be
00000110: b873 1abf 2de9 a3bc c6c5 de3e e3a6 cfbe
00000120: c689 8dbe 551f 41be 7f79 8c3e 51ee 0fbe
00000130: 600b 553e 2550 063d ce4c 07bf face 2dbe
00000140: d320 b2bb 3cb1 623e de95 aabe 6085 53be
00000150: bb40 b6bd 6999 403e 6925 34be 2f87 3ebe
00000160: 4bd6 21bf 3d7c 2a3e 50e6 97bd 7181 813c
00000170: 6ddd 8e3e b0c6 083e 8d8c ca3b 6702 1dbf
00000180: 0867 1bbf fef0 e0bd 17a5 1dbf 0fc7 273d
00000190: 847e a93e 56c7 af3e daf0 e9be 8fd7 3b3e
000001a0: e79f 3cbe 9e0d 6bbe dd6d 2e3d 4ccd 323e
000001b0: f12b 86bd c771 843e 86c0 95be 97df 7fbe
000001c0: 9cec bb3c e291 d83e 7e08 7cbd c4d1 df3c
000001d0: e64b 06be c679 8f3e 5dcc 9fbe 2128 c3be
000001e0: 8dd7 1c3f c05d c0be eaa2 01bf 581c cd3e
000001f0: 07b6 743e 935d a3be e9c2 da3e ebe5 e1bd
00000200: b617 edbe ca5d 5e3e b113 a53e c1a0 b23e
00000210: 5d3d b93e a704 0dbf cd23 28bd 0414 bbbe
00000220: 0511 c9bd 1174 873e 712b 9abe 7099 c23d
00000230: 188c 8abd 76c5 26bf 3540 363d 1c05 c1bd
0.42026168 0.12396585 0.22933988 0.46476236 -0.19429907 -0.17928731 0.24298537 -0.09087842
-0.49944034 -0.14865981 -0.41727918 -0.13032761 -0.4019767 -0.22324751 -0.36360666 -0.1576482
-0.03484635 -0.41263485 0.49499702 0.026957808 0.1877803 0.29240003 0.35356313 -0.17402253
-0.10972675 0.14601709 -0.13319807 -0.04375321 -0.47857538 -0.31121022 -0.08056498 -0.59327084
0.18980408 -0.91789746 -0.04769696 0.4242196 0.26806566 0.56120056 0.3211495 -0.15661609
-0.54035014 0.116313085 -0.26014218 -0.013655877 0.13957667 -0.5045146 0.28092042 -0.104327284
-0.1531239 0.09355577 0.25500268 -0.116608046 -0.015876349 -0.23489575 0.10610172 -0.039922092
0.028955998 -0.14000662 0.049737226 0.2964155 0.15240043 -0.36268574 0.4164807 -0.29852742
0.06408216 0.46870112 -0.24335046 -0.283935 -0.6033282 -0.020008648 0.43510264 -0.40557012
-0.27644175 -0.18859608 0.27436444 -0.14055754 0.2080512 0.032791276 -0.5285157 -0.16973487
-0.005436042 0.22137922 -0.33317465 -0.20656347 -0.08899065 0.18808521 -0.17592396 -0.18606256
-0.6321761 0.16648956 -0.074169755 0.015808793 0.2790331 0.13357043 0.0061813057 -0.6133179
-0.6070409 -0.109834656 -0.6158003 0.04096132 0.33104336 0.3433177 -0.45691568 0.18343948
-0.18420373 -0.22954413 0.042585243 0.17461127 -0.0655135 0.25868055 -0.29248446 -0.24987637
0.022939973 0.422988 -0.061531536 0.027321704 -0.1311489 0.28022593 -0.31210604 -0.38116553
0.61266404 -0.37571526 -0.5063921 0.40060687 0.23897563 -0.3190733 0.4272683 -0.110301815
-0.46307153 0.21715465 0.32241586 0.3488827 0.3617963 -0.55085224 -0.041049767 -0.36538708
-0.09817699 0.2645574 -0.30111268 0.09501922 -0.06765002 -0.6514505 0.044494826 -0.09424803

network_body.observation_encoder.processors.2.fc.seq_layers.0.bias f4 [12]
00000000: f8c9 7c3b a86b 3dbd ed09 0b3c ecb7 5e3d
00000010: 1f56 e7bc e015 c6bb 7668 cb3c 1388 56bd
00000020: 0f14 de3c 039c bebb 2d04 993c a819 1cbd
0.0038572531 -0.046245247 0.008486253 0.05437462 -0.028239308 -0.006045088 0.024830084 -0.052375864
0.027109174 -0.005816938 0.018678749 -0.038110405

network_body.observation_encoder.processors.2.fc.seq_layers.2.weight f4 [12, 12]
00000000: 383d f83e 601d e2be 548c 3bbf 59f3 813e
00000010: b860 6fba 28e4 263e 43e1 8b3e 028d 00bf
00000020: bdc8 87be 662f fdbe 6dad fd3d 587c 363c
00000030: 6945 64be 3c29 883e fa62 a53e b2aa 833d
00000040: 4876 5bbe 653c c7be 31e4 14bf 2a11 ee3d
00000050: fb5f 0d3d d5a0 443e f999 c53c bfcc 2b3d
00000060: fe19 33bd 0be5 e63e 3a79 efbc e134 283e
00000070: 4445 023f aa28 973e a963 1abf 231a 8a3e
00000080: b6c3 29bf 3382 443e cbf0 e7be 5455 0bbf
00000090: 0cf9 1cbe 4afd efbe 7040 233e 489a 083e
000000a0: 006c 1b3e 4590 91be 2ef1 65bf b292 603e
000000b0: 59ee 903e cd82 2d3d faf2 fd3d 41ed 82bd
000000c0: 9db1 e83e 5c3f 9cbe a5bc 80be fdbb 483e
000000d0: 0b65 583d 534a 5f3d 156a 2e3e 959c 83be
000000e0: bedb 13be b5bd 4cbf a412 0abd 85ec 9abc
000000f0: 127a 0c3e ff58 bc3e 0913 77bd 7b47 77be
00000100: ef17 d13e 0b73 fa3e 031b 523e 4b5b 943e
00000110: d703 bdbd aa9d 6cbe 4fa4 a13e 6818 15be
00000120: bb89 02be 8e87 743d 3778 d0bd a5fa b0be
00000130: 9208 02bf 126d e63c 0785 353e d793 7fbe
00000140: f8f4 2e3e 781f 013f b2f2 a53e 0fa4 aebe
00000150: ced0 8abe 398b 47be d044 9f3e b8bf 8cbe
00000160: 6e37 afbd f5c5 213f 397e 8c3d 327b fabe
00000170: 7006 05be 9baa bfbe c72f 793e 5141 c4bc
00000180: 0910 b53d 9b62 b1bd 4636 333d 9336 fbbd
00000190: de9b 1fbe 9544 263e 3c2e ad3d 2db4 353f
000001a0: 7a4b c13e 6c85 b7bb bd7f 55bd 4103 fe3e
000001b0: 103f 77be 0a21 cbbd c809 123e 3e73 0dbe
000001c0: 7799 f83d 5956 16be 6f60 bdbd 6c18 5f3e
000001d0: 8b26 e63e 4c7b 82b8 f8e9 843e 5035 84be
000001e0: 6aab 09bf 38c5 123f d8b4 503e a162 99bb
000001f0: 2902 e53d a1fd 95be 47a5 dd3e 4a7b f9be
00000200: 5cf9 8abd 4c27 8dbd ad8b 53be 2699 bf3d
00000210: ddc1 8f3e 8a22 c63d c050 c8be ee9f e3be
00000220: cca6 e0bd 1f48 4c3e b126 7f3e ae95 583e
00000230: ce11 5f3e ccbb c0bc c5ba 413f 2daa 093f
0.48484206 -0.44163036 -0.73261 0.25380972 -0.00091315387 0.16297972 0.273203 -0.5021516
-0.2652034 -0.49450225 0.12386594 0.011138044 -0.22292103 0.2659396 0.32302076 0.06429042
-0.2143184 -0.38913265 -0.5816069 0.116243675 0.034515362 0.19201978 0.024121271 0.041943308
-0.04372596 0.4509662 -0.02923261 0.16426422 0.5088694 0.29523212 -0.6030832 0.26973066
-0.66314256 0.19190292 -0.45300898 -0.54427075 -0.15329379 -0.46872932 0.1594255 0.13340104
0.15177917 -0.2843038 -0.89821136 0.2193096 0.28306845 0.04236107 0.1239986 -0.06392909
0.45448008 -0.3051709 -0.25143924 0.19602962 0.052830737 0.05451424 0.17032655 -0.257054
-0.14439294 -0.7997697 -0.033709183 -0.01891161 0.13718441 0.3678665 -0.060320888 -0.24148361
0.40838572 0.48915896 0.20518117 0.289759 -0.09229248 -0.23107019 0.3157067 -0.14560091
-0.12747853 0.059699588 -0.10179179 -0.34566227 -0.5079433 0.02812818 0.17726527 -0.2495874
0.17085636 0.5043864 0.32411724 -0.34109542 -0.2711243 -0.19486703 0.31107187 -0.2749002
-0.08555494 0.63192683 0.068600126 -0.48922116 -0.12990737 -0.3743485 0.24334632 -0.023956927
0.08840949 -0.086613856 0.04375293 -0.122662686 -0.15586802 0.162371 0.08456084 0.7097805
0.37752897 -0.005600622 -0.052123774 0.49611858 -0.2414515 -0.09918411 0.14261544 -0.13813493
0.12138646 -0.14681377 -0.09246909 0.2178666 0.4495128 -6.221849e-05 0.25959754 -0.25821924
-0.5377718 0.5733218 0.20381486 -0.004680947 0.11182053 -0.29295066 0.4329016 -0.48726875
-0.06785843 -0.06892261 -0.20658751 0.093553826 0.28077593 0.096745566 -0.39124107 -0.44457954
-0.10969314 0.19949387 0.24917103 0.21150848 0.21784136 -0.023527049 0.7567561 0.5377529

network_body.observation_encoder.processors.2.fc.seq_layers.2.bias f4 [12]
00000000: e93c 0d3d 6a92 3cbc d92b 76bc b455 ebbc
00000010: 8ea7 933c 8aeb 85bd 44f1 aa3c 0b3a 463c
00000020: 5408 57bd 403c 38bb bc79 573c 3926 d0bc
0.034481917 -0.011509517 -0.0150251025 -0.02872739 0.018024232 -0.06539066 0.020866998 0.012098799
-0.052498177 -0.0028112084 0.013151582 -0.025408851

network_body._body_endoder.pre_attention.query.bias f4 [56]
00000000: 0000 0000 0000 0000 0000 0000 0000 0000
00000010: 0000 0000 0000 0000 0000 0000 0000 0000
00000020: 0000 0000 0000 0000 0000 0000 0000 0000
00000030: 0000 0000 0000 0000 0000 0000 0000 0000
00000040: 0000 0000 0000 0000 0000 0000 0000 0000
00000050: 0000 0000 0000 0000 0000 0000 0000 0000
00000060: 0000 0000 0000 0000 0000 0000 0000 0000
00000070: 0000 0000 0000 0000 0000 0000 0000 0000
00000080: 0000 0000 0000 0000 0000 0000 0000 0000
00000090: 0000 0000 0000 0000 0000 0000 0000 0000
000000a0: 0000 0000 0000 0000 0000 0000 0000 0000
000000b0: 0000 0000 0000 0000 0000 0000 0000 0000
000000c0: 0000 0000 0000 0000 0000 0000 0000 0000
000000d0: 0000 0000 0000 0000 0000 0000 0000 0000
0.0 0.0 0.0 0.0 0.0 0.0 0.0 0.0
0.0 0.0 0.0 0.0 0.0 0.0 0.0 0.0
0.0 0.0 0.0 0.0 0.0 0.0 0.0 0.0
0.0 0.0 0.0 0.0 0.0 0.0 0.0 0.0
0.0 0.0 0.0 0.0 0.0 0.0 0.0 0.0
0.0 0.0 0.0 0.0 0.0 0.0 0.0 0.0
0.0 0.0 0.0 0.0 0.0 0.0 0.0 0.0

network_body._body_endoder.pre_attention.value.bias f4 [56]
00000000: 9c9f 5d3d 6ce7 0a3d 98d1 24bd 2922 b7bb
00000010: 1b96 28bc 7839 eb3c 0b6f 1b3c 2b04 12bd
00000020: bffe 18bd cffc df3a d460 10bc e825 ce3c
00000030: d1d3 13bb c7fd 4e3c beba 2a3d e7fd 27bd
00000040: b55e 1ebc 808e 75bd fda1 1dbd 726b b33c
00000050: 8f69 813c 1bd5 323c 42ed 02bc 52bb 29bc
00000060: 439c 1c3d ca5b 4d3c 0a5d 63bb 930f 143d
00000070: 97c0 3a3b 7514 633d 8caa 3abc b7c5 343d
00000080: bcb2 9ebc 0466 493d e235 c63c 1682 9e3c
00000090: 4be3 113d 16a7 373c bb76 fd3c 606c c23c
000000a0: 1dfc 203c f01d 00bd 8b0d 013d bfdf a13c
000000b0: eee8 823c 984e 90bc a7d7 e3bc 9c84 e4bc
000000c0: 0c0f 593b ef39 7ebd b665 713c d7e3 943c
000000d0: 8644 42bd 9914 f3bb fdb6 a93c 5df2 20bd
0.054107293 0.033912107 -0.040238947 -0.005588789 -0.010289694 0.028713927 0.009486924 -0.035648506
-0.03735232 0.0017088893 -0.008812148 0.02516456 -0.0022556672 0.012633747 0.041681997 -0.041013625
-0.009666135 -0.05995035 -0.038484562 0.02190182 0.015797405 0.010915066 -0.007991137 -0.010359602
0.03823496 0.012534091 -0.0034692907 0.036147665 0.002849614 0.05543943 -0.011393201 0.044133868
-0.019372337 0.049169555 0.024195615 0.01934914 0.035617154 0.01120927 0.030940404 0.023733318
0.0098257335 -0.03127855 0.031507056 0.01976001 0.01598021 -0.017615601 -0.027812792 -0.027895264
0.003312054 -0.06206697 0.014733722 0.018175049 -0.04742863 -0.007418227 0.020717138 -0.039293636

network_body._body_endoder.pre_attention.norm.weight f4 [56]
00000000: b1ad 743f 390a 733f 192a 763f bf70 6b3f
00000010: 23ff 753f a024 863f 8723 653f aec0 7d3f
00000020: 3544 7c3f 7fbf 663f cbf4 693f a550 763f
00000030: 8ce6 753f a64b 873f b0e9 773f eb80 783f
00000040: 7dd7 6d3f fc12 7e3f b739 7d3f 6de9 763f
00000050: 87f7 653f 488f 723f ab42 6c3f cd21 613f
00000060: 0092 723f 5533 833f 8605 6c3f e205 773f
00000070: 3b98 6a3f 38d8 7b3f 41fc 6b3f ef60 813f
00000080: 0ebe 6e3f 0d68 703f 03ee 7a3f 302e 5e3f
00000090: aa70 603f b7a4 773f 743d 5a3f 75f0 6e3f
000000a0: f947 6d3f 88ad 763f 8383 773f e8ad 693f
000000b0: 0bc3 903f 96b1 873f da4e 843f 2432 7d3f
000000c0: 64c2 833f 1812 813f 174e 8a3f 3a4a 753f
000000d0: 15b8 723f fb8e 8e3f ea2d 6d3f c99a 903f
0.9557753 0.94937474 0.96157986 0.9196891 0.9609243 1.0479927 0.89507335 0.9912213
0.98541576 0.9013595 0.9138915 0.96216804 0.9605491 1.0569961 0.96840954 0.97071713
0.92906934 0.9924772 0.9891619 0.9644993 0.8983082 0.9474988 0.9228923 0.879422
0.9475403 1.025004 0.9219593 0.9649335 0.91638535 0.983768 0.92181784 1.0107707
0.9325875 0.9390877 0.9801943 0.86789227 0.8767191 0.9673571 0.8525002 0.9333566
0.92687947 0.9635854 0.96685046 0.91280985 1.1309522 1.060107 1.0336564 0.98904634
1.0293698 1.0083647 1.0805081 0.95816386 0.94812137 1.1137384 0.92648184 1.1297237

network_body._body_endoder.pre_attention.norm.bias f4 [56]
00000000: 23d0 b03b 95ea e8bb 6e9b 343d 795c 51ba
00000010: 4724 573d 49f2 0d3c 61e3 b93c 87f0 263d
00000020: 5fd2 753c d7e8 083d 9141 6c3d 5b32 51bd
00000030: 492b f2bc eef7 4dbc 193c 25bd 999e 0b3d
00000040: fc32 a2bc 84da e13c 21e6 603d 2eaf 2c3c
00000050: a336 5d3c 9229 4bbd e134 d2b8 01cd f43c
00000060: b409 f9bc c171 6c3c 4527 553b 7b8e 00bc
00000070: 57cb fe3c 4bd0 c7bc 4a00 883d 142b 3fbc
00000080: 7b84 fa3c a8ca c7bc acce 4bbd 6f41 923c
00000090: fd3b 103a 2334 9ebc dc5c d53b 38ac 31bd
000000a0: 179f 1cbb 7631 043d 934d 33bd 765b e6bc
000000b0: d972 c6bb b5a9 2939 f5e3 e63b 56c3 053b
000000c0: 4862 423c faa9 28bc bdec 8dbc 2c69 f6bc
000000d0: 1f6c cf3c d7eb a0ba f474 1a3c cb68 c7bc
0.0053959056 -0.0071080425 0.04409354 -0.0007986497 0.05252483 0.008663722 0.02269143 0.04075673
0.01500377 0.03342518 0.057679716 -0.051073413 -0.029561656 -0.012571318 -0.040340517 0.034086797
-0.019799702 0.027570017 0.054906968 0.010539813 0.013501796 -0.04960019 -0.0001002343 0.02988291
-0.030400135 0.014431418 0.0032524627 -0.00784647 0.03110282 -0.024391314 0.0664068 -0.0116679855
0.03058075 -0.024388626 -0.049757645 0.017853467 0.0005502103 -0.01931197 0.006511314 -0.04337713
-0.0023898536 0.032273732 -0.043775152 -0.028119784 -0.0060561714 0.00016180317 0.0070462176 0.0020410619
0.011864252 -0.010294432 -0.0173248 -0.030079447 0.02532011 -0.0012277317 0.009427298 -0.024341961

network_body._body_endoder.post_attention.query.bias f4 [112]
00000000: 0000 0000 0000 0000 0000 0000 0000 0000
00000010: 0000 0000 0000 0000 0000 0000 0000 0000
00000020: 0000 0000 0000 0000 0000 0000 0000 0000
00000030: 0000 0000 0000 0000 0000 0000 0000 0000
00000040: 0000 0000 0000 0000 0000 0000 0000 0000
00000050: 0000 0000 0000 0000 0000 0000 0000 0000
00000060: 0000 0000 0000 0000 0000 0000 0000 0000
00000070: 0000 0000 0000 0000 0000 0000 0000 0000
00000080: 0000 0000 0000 0000 0000 0000 0000 0000
00000090: 0000 0000 0000 0000 0000 0000 0000 0000
000000a0: 0000 0000 0000 0000 0000 0000 0000 0000
000000b0: 0000 0000 0000 0000 0000 0000 0000 0000
000000c0: 0000 0000 0000 0000 0000 0000 0000 0000
000000d0: 0000 0000 0000 0000 0000 0000 0000 0000
000000e0: 0000 0000 0000 0000 0000 0000 0000 0000
000000f0: 0000 0000 0000 0000 0000 0000 0000 0000
00000100: 0000 0000 0000 0000 0000 0000 0000 0000
00000110: 0000 0000 0000 0000 0000 0000 0000 0000
00000120: 0000 0000 0000 0000 0000 0000 0000 0000
00000130: 0000 0000 0000 0000 0000 0000 0000 0000
00000140: 0000 0000 0000 0000 0000 0000 0000 0000
00000150: 0000 0000 0000 0000 0000 0000 0000 0000
00000160: 0000 0000 0000 0000 0000 0000 0000 0000
00000170: 0000 0000 0000 0000 0000 0000 0000 0000
00000180: 0000 0000 0000 0000 0000 0000 0000 0000
00000190: 0000 0000 0000 0000 0000 0000 0000 0000
000001a0: 0000 0000 0000 0000 0000 0000 0000 0000
000001b0: 0000 0000 0000 0000 0000 0000 0000 0000
0.0 0.0 0.0 0.0 0.0 0.0 0.0 0.0
0.0 0.0 0.0 0.0 0.0 0.0 0.0 0.0
0.0 0.0 0.0 0.0 0.0 0.0 0.0 0.0
0.0 0.0 0.0 0.0 0.0 0.0 0.0 0.0
0.0 0.0 0.0 0.0 0.0 0.0 0.0 0.0
0.0 0.0 0.0 0.0 0.0 0.0 0.0 0.0
0.0 0.0 0.0 0.0 0.0 0.0 0.0 0.0
0.0 0.0 0.0 0.0 0.0 0.0 0.0 0.0
0.0 0.0 0.0 0.0 0.0 0.0 0.0 0.0
0.0 0.0 0.0 0.0 0.0 0.0 0.0 0.0
0.0 0.0 0.0 0.0 0.0 0.0 0.0 0.0
0.0 0.0 0.0 0.0 0.0 0.0 0.0 0.0
0.0 0.0 0.0 0.0 0.0 0.0 0.0 0.0
0.0 0.0 0.0 0.0 0.0 0.0 0.0 0.0

network_body._body_endoder.post_attention.value.bias f4 [112]
00000000: 8621 2e3a 9391 41bb c00a 953c edb3 14bc
00000010: 16cb e33b 9fca 93bb d5d4 a4bc e8d1 573c
00000020: 7b75 363b 3d8b 5cb9 84ef b33b b83f f93b
00000030: 9ace 913c 02a4 babc 2c5b 0f3c c956 b9bc
00000040: 3323 993c 4233 d8bb 453f 62bc a038 1d3c
00000050: fcfe fd3b 6a80 443c 25fd 59bb 6dd8 eabb
00000060: 832e 38bb e42e f838 9398 cfbb e648 973c
00000070: 41c1 6a3c 5076 7b3c 469b 97bb c461 fc3c
00000080: 8d08 803c 5252 83bc 9441 d0bc ce78 7f3c
00000090: d765 16b9 5a65 3f3c fe06 dfbb 50d9 103c
000000a0: 0155 143c 7a55 ef3b 67c9 ffbb ac94 433b
000000b0: 8f47 ccbc 2d3d 8f3a ad34 043c 7834 bcba
000000c0: b3a4 823c 943b c5bc 5dd5 97bc 8aba 453c
000000d0: 335c 9b3b e863 babc 0f2d cf3c 3de9 da3c
000000e0: 87de 67bb fd93 72ba 4730 85bb bf6c 6ebc
000000f0: 296d 393b e7d9 9a3b 3244 05bc 045b 723c
00000100: afca b43c 7411 0dbb e454 2fbb 2fdf 94bb
00000110: e7b2 5d3c f094 3dbc 7583 30bb 518f 1ebc
00000120: a203 89bb de80 edbb 13ac 483c c0eb edbc
00000130: f6c4 d737 83a9 a23c d565 843c b388 7abb
00000140: 1ad0 85bb 1d7b e93a f768 f2bb 5c52 ac3c
00000150: d9b4 8a3b 1f04 fd39 c965 ac3b 298b 91bc
00000160: e71a 12bc b7b8 37bc 8a6c 13bd 1923 8dbc
00000170: 5836 523c fce7 363c 1d5c 9b3b d6bb 5fbb
00000180: a458 8fbc 6ebb 5b3c 7171 b0bc b065 6f3c
00000190: 0ba7 53bc ee0e c5bb 0272 25bb 746a 81bb
000001a0: fe3d 163c 95a3 f7bb edcb fdbb 9267 bbbc
000001b0: 5546 08bc a1b3 82bb 330a c3bc 1949 28bb
0.00066425686 -0.0029536232 0.018193603 -0.009076101 0.0069517 -0.0045102383 -0.020121017 0.013172604
0.002784102 -0.00021032705 0.005491199 0.007606473 0.01779871 -0.022783283 0.008749764 -0.02262439
0.018693542 -0.0065979073 -0.01380903 0.00959602 0.007751344 0.011993507 -0.0033262458 -0.0071669132
-0.0028103895 0.000118342956 -0.006335327 0.018467378 0.014328302 0.015348032 -0.0046266643 0.030808337
0.015629077 -0.016030464 -0.025421895 0.015592767 -0.00014343053 0.011681879 -0.0068062535 0.008840874
0.00905347 0.007303891 -0.0078059915 0.0029843254 -0.024936466 0.0010928266 0.0080691995 -0.0014358899
0.015947675 -0.02407626 -0.018534357 0.0120684 0.0047412156 -0.022752717 0.02529004 0.026722545
-0.003538044 -0.00092536194 -0.004064593 -0.014552294 0.0028293824 0.004725683 -0.008133935 0.014792208
0.022069303 -0.0021525295 -0.002675348 -0.004543207 0.013531423 -0.011571154 -0.0026933823 -0.009677724
-0.0041813413 -0.007248028 0.012248057 -0.029043078 2.5721714e-05 0.01985622 0.016161839 -0.0038228452
-0.0040836455 0.001781318 -0.0073977667 0.021035366 0.0042329845 0.0004825899 0.005261157 -0.017766552
-0.008917547 -0.011213473 -0.035992183 -0.01722865 0.012830339 0.011163708 0.0047412054 -0.0034139059
-0.017498322 0.013411386 -0.021538468 0.0146116465 -0.012918244 -0.0060137426 -0.0025244956 -0.003949458
0.0091700535 -0.0075573423 -0.007745257 -0.022876535 -0.00831755 -0.0039886986 -0.023808574 -0.0025678335

network_body._body_endoder.post_attention.norm.weight f4 [112]
00000000: e31a 783f d78c 7a3f 16d6 803f 7ad1 803f
00000010: de91 833f 37d2 853f cd76 833f 8679 813f
00000020: 9189 7a3f 5377 803f c7ce 803f 94ea 7e3f
00000030: c193 843f e01f 763f ed18 7d3f 77b4 813f
00000040: bbd4 753f b997 7d3f f072 783f ecbf 7d3f
00000050: 76b0 733f cfed 773f 400d 793f fdf4 773f
00000060: 04da 7c3f bbba 6a3f 3227 783f 330f 7b3f
00000070: e2ce 813f a928 823f bd2c 7e3f a059 7f3f
00000080: 8955 833f 5cd8 753f 0f8d 753f 977d 763f
00000090: bff1 823f acfc 823f 4579 883f 8cfa 743f
000000a0: a6b3 843f fba4 743f 14d2 7d3f a2b0 7c3f
000000b0: b4b9 7f3f 35a9 833f feda 743f 3614 803f
000000c0: 5617 813f 0803 803f 9845 773f fd10 793f
000000d0: 4fc3 803f adad 733f 3881 803f cd45 7d3f
000000e0: 4be4 7d3f 2b65 773f 6328 843f 6823 853f
000000f0: ffdb 7e3f 3c5b 813f 3288 843f 27b3 843f
00000100: 90ad 803f 9be7 7a3f 2d27 853f 5e19 813f
00000110: 0dea 843f fa8d 753f 6991 803f c0fa 793f
00000120: 8c90 833f 809a 7c3f 68db 7b3f bf07 7b3f
00000130: 9288 783f 76f2 863f 20e4 7f3f ff21 6d3f
00000140: 9cae 7c3f f0ab 793f b3bc 793f c190 793f
00000150: b655 823f 88fa 823f 9fea 7c3f 06e3 7f3f
00000160: 4d52 853f af5b 7d3f 27b0 7c3f a8a8 7b3f
00000170: b665 783f 2b23 7d3f 33c4 803f f8dd 7f3f
00000180: 17d8 803f 9253 843f e1b5 7b3f 488a 7e3f
00000190: acba 7a3f 83d0 7c3f a9bb 7e3f 2fd1 833f
000001a0: 6345 853f 41ee 833f 6b69 803f 3444 7a3f
000001b0: fdcb 823f 4662 733f 0913 7a3f 00b5 7c3f
0.96916026 0.97871155 1.0065334 1.0063927 1.027889 1.0454777 1.027063 1.0115211
0.9786616 1.0036415 1.0063103 0.9957669 1.0357591 0.9614239 0.9886616 1.0133198
0.96027726 0.99059635 0.9705038 0.99120975 0.95191133 0.9684724 0.9728584 0.968582
0.98770165 0.9169118 0.9693481 0.9807007 1.0141261 1.0168658 0.99287015 0.9974613
1.0260478 0.96033263 0.95918363 0.96285385 1.0230025 1.0233359 1.0662009 0.95694804
1.0367324 0.9556424 0.9914868 0.9870702 0.99892735 1.0286013 0.95646656 1.0006168
1.0085247 1.0000925 0.96590567 0.9729155 1.0059603 0.95186883 1.0039434 0.9893463
0.9917647 0.96638745 1.0324825 1.040143 0.9955444 1.0105968 1.0354064 1.0367173
1.0052967 0.9800965 1.040258 1.0085866 1.0383927 0.95919764 1.0044376 0.9764824
1.0278487 0.9867325 0.9838166 0.98058695 0.9708339 1.0542743 0.99957466 0.9263
0.9870393 0.9752798 0.9755356 0.974865 1.0182407 1.0232706 0.98795503 0.99955785
1.0415741 0.98968023 0.9870629 0.98304224 0.970302 0.9888179 1.0059875 0.9994807
1.0065945 1.0338004 0.983244 0.9942975 0.9794109 0.98755664 0.99505097 1.0298213
1.04118 1.0307084 1.0032171 0.9776032 1.0218502 0.9507183 0.97685295 0.98713684

network_body._body_endoder.post_attention.norm.bias f4 [112]
00000000: d710 753c 2f5f e93b 2d6e bf3c f449 33bc
00000010: e77e 26bc 880b 6e3b da30 8dbc 43bc 6a3c
00000020: ddb9 993b efea e4bb 9692 9f3c 5ce0 833c
00000030: 8249 973b 7c10 96bc 2b69 1b3c ec92 abbc
00000040: 1ec0 d53c 3dc2 95bc eea8 9bbb 6992 893c
00000050: 4257 423c 8649 523c f424 2bbc 152d 3ebc
00000060: 4f4a c1bb bbd1 9eba f77f 44bc 6026 a43c
00000070: bab4 903b 25d0 053c eda0 873b c320 1a3d
00000080: 805c 5e3c b8a8 7fbc aa00 c6bc 66d1 a03c
00000090: 5c5c 5a3a ed3a af3b d545 99bb 3de4 063a
000000a0: a990 fa3b a666 21bb c169 b1b6 b836 3ebc
000000b0: 0438 e8bc bcac 893b f84f 853b daa9 4dbc
000000c0: 0da9 703c 0deb 0cbd 5e83 87bc 75fa 9d3c
000000d0: d05d 913b ab58 e3bc d74e c13c 80eb 013d
000000e0: b72b abba f549 313b 7fec 533b df7e c1bb
000000f0: a814 9b3b e427 7fbb 309f d8bb 3e85 bd3b
00000100: 88e7 993c d268 5839 c102 93bb 3d4c bdbb
00000110: 1f4e d03b 9343 edbb 238f 24bb 3c92 7abc
00000120: bbf1 b6bb f25a 6dbc 6cf5 ab3c 8d04 1cbd
00000130: ac2d 933b 922f a43c 4fdd a93c 1341 5d3c
00000140: 2d05 e93b 486a 483c 58c2 603c e521 ec3c
00000150: 2647 503c 4874 ed3b d88b b0bb 3486 d2bc
00000160: ed5f 86bc 4b7d 5bbb b384 0abd 219a 9dbc
00000170: 279b 453c 41b9 9f3c c078 623c 9ff9 613a
00000180: 4c6b c1bc 76dd 093c b6e3 bbbc 7e56 843b
00000190: bdcd cfbc d065 a3bc 517a 833b 029a 17ba
000001a0: 0ef1 bc3c 519a 2ebc b0a9 2bbc 16b4 1fbd
000001b0: d403 3abc 1e44 0cbc 85ac 65bc 076b a9bb
0.014957628 0.0071219425 0.023367966 -0.010942925 -0.010162092 0.003632279 -0.017235208 0.014327112
0.004691346 -0.006986014 0.019479077 0.016098194 0.004616917 -0.018318407 0.009485523 -0.020944081
0.026092585 -0.018281097 -0.0047503626 0.016793447 0.011861624 0.012834912 -0.010445822 -0.011607428
-0.005898751 -0.0012116948 -0.0119934 0.02003783 0.0044160755 0.008167301 0.004139057 0.0376289
0.013571858 -0.0156041905 -0.024170239 0.019631099 0.00083298027 0.0053476007 -0.004677514 0.00051457045
0.0076466394 -0.0024627834 -5.2873224e-06 -0.011609726 -0.028347023 0.0042014997 0.004068371 -0.012552703
0.014688742 -0.03440385 -0.016542133 0.019284466 0.004436232 -0.027752241 0.023597164 0.03171873
-0.0013059293 0.0027052138 0.0032337008 -0.005905017 0.004732687 -0.0038933689 -0.0066107735 0.005783706
0.01878716 0.00020638414 -0.0044864123 -0.0057769106 0.006356969 -0.0072407215 -0.002510973 -0.015293654
-0.0055830157 -0.014487015 0.02099105 -0.038090277 0.0044915285 0.020042215 0.020735411 0.013504284
0.0071112127 0.012232371 0.01371821 0.028824756 0.012712276 0.007246528 -0.0053877644 -0.025698759
-0.016403163 -0.0033491428 -0.033817958 -0.019238533 0.012060917 0.019497516 0.013822734 0.0008620265
-0.023610733 0.008414617 -0.02293573 0.004038631 -0.025366658 -0.019946009 0.004012384 -0.0005783142
0.023064163 -0.010656909 -0.010477468 -0.038990103 -0.011353452 -0.008561162 -0.014018183 -0.0051702294
