Assets/oon/lidar_f2.onnx (onnx, 383483 bytes, 46 tensors)

network_body.observation_encoder.processors.0.fc.seq_layers.0.weight f4 [22, 22]
00000000: e7d4 d9bd 15cc 1f3e 341f 133e 06eb 6b3c
00000010: 79cd 3f3d 9171 46bd c9d9 a13e c8dd 19bf
00000020: 9f13 c03e 40bb e5be b24e 173e f7a3 b3bc
00000030: 9854 77be 2419 363e 3595 363e 081f e03d
00000040: eccc cdbe b4f3 eb3d bf89 10bd ae02 bfbc
00000050: 1262 113e c9af f5bc 006d bb3c 83cd b43d
00000060: 7b6d a93d bdb4 fd3c 2a8a ab3e 6e98 02be
00000070: 3be1 b7be f2aa 9b3d ebb2 753e 48ac 1abf
00000080: 8b7b 5c3e 2a0f 593d cc85 a33d bde0 27bd
00000090: e462 3f3e 704d 16be 5db6 f2bc 821c 11bf
000000a0: 6555 f9bd 6e04 29be a7db 4d3c b04e cb3c
000000b0: 83af 553e ccbe bb3c 8a8f 483c 603d 3e3e
000000c0: 0ffa ccbd 85fb 4cbe b344 4dbc b574 e63d
000000d0: df15 7fbe 4cc3 953e e48f 83be dd95 1abd
000000e0: 5b02 413e 52d5 20be bd55 ea3e af3f bebe
000000f0: 9f3b 203c 2c9d 3f3e fa54 713d 4fe5 9dbe
00000100: b543 d6bd 8afe bebd 9377 cebc 441c ff3d
00000110: 287f 0e3e 79f7 4fbb ff71 b8bd 8d4f 223e
00000120: 40d4 a3bd 6ce2 d0bc f41f 75bc 675c 0dbe
00000130: 1b67 b8be 31c6 cb3d 5852 903d e3ed 15bf
00000140: 3ada ae3c b6fc 2d3e 6a26 f23b 0c3a 61be
00000150: ce16 18be ae2e e63d eabd fbbd 8395 9dbd
00000160: ce4b 3cbe fb9f 703d 0dbd 50be bb05 74bd
00000170: 1bbc 2abc 7986 e13d f9ef a83e 7255 a0bb
00000180: f5e6 773d fa16 9cbd 0bf9 b53e e372 cdbc
00000190: 14bd 743d 08d9 ad3b a4e1 8cbe 7007 4c3e
000001a0: ae29 413e a360 40bd b6d4 1dbe 70a5 e23e
000001b0: 45ac fc3d a928 b03e 7881 2bbe d37f b8be
000001c0: deac 92bd 3db1 9fbe df49 eabc cd72 323e
000001d0: 0b29 453d 76ab ba3e 32e8 8fbe f94b aabd
000001e0: 5de2 99bd 93a0 6c3e 0c35 1c3e 2acc b0be
000001f0: a8a3 253e 7ee6 74be beed a23d a1ff 98bd
00000200: 3d5f 8d3d f51b 9a3e 4609 de3d 3033 993c
00000210: af18 143f 2c91 6c3d d197 a1be c76a 043e
00000220: 874e 813e fec6 13be cb54 47be fd42 66be
00000230: a578 713e c8f2 883d 3b5a 4cbe 9776 9d3d
00000240: a93b 9d3d 1224 1ebc 6084 cfbc a820 b03e
00000250: 5a4f f4bc 0d9c 913c a567 ce3c f484 05be
00000260: 2ddd 4fbd d1be db3d a484 81bc b45e 833e
00000270: 616a 8cbe eb5d 96be 4708 a33e 5a72 ec3d
00000280: 9204 85bd fe07 c53e 1046 b1be 6f5d 4d3e
00000290: c5b2 c0be e02e 1bbd a24a 7e3e d19a 2abe
000002a0: e165 1ebd 417e 02bd 5f3a c2be 8941 0cbc
000002b0: 1132 30be 9592 b8bd 04df d5be 749b db3d
000002c0: fad4 eebd b6e7 813e 58a1 873e c168 fb3d
000002d0: 91c4 333e 1b4c a5be f198 1c3e 7dee 263e
000002e0: d41b 0c3e eaa3 f43d a403 033e 3dd6 88be
000002f0: 666c 86be ebfc 8d3e 522b b0be e77a 323e
00000300: 9392 473e 8374 a0bd 89da a2be 9f54 383d
00000310: 6a2b 983d 15ae 7e3e de24 a83e 9410 c03c
00000320: 10e3 71be 0c61 293e 6002 70b9 a7f9 703d
00000330: 1955 cebc dcd1 fdbd f1c8 9d3d 991b 733e
00000340: 76cb b3be b754 c6bd b3f8 88be 372f 9fbe
00000350: aa6e eb3d 34ff b7be f937 b2be 9e03 b1bd
00000360: 5a60 d13c 5e52 a5be 2c97 b9be d4f5 863e
00000370: 5845 ea3d 8ccc 88bd cd00 1c3d e75a e4be
00000380: 75ba 313e a1da 6c3e 3254 793e 9016 973d
00000390: 9d89 cf3d a60e b6bd c32b 233e 7a41 bd3e
000003a0: 79a2 5abe 47c2 8e3c e8c8 183e 1e18 053e
000003b0: 7f3f 3abe 5710 dcbd 7dc5 263e 92ca bc3e
000003c0: a374 b03d bc53 363e 7a45 54be ed2f 533d
000003d0: 437b afbd 8b4c 6f3e 480c a7bd 200c 303e
000003e0: 7e65 2abc 6eb3 f5bd 1719 b7be a623 8d3e
000003f0: 0c0e bc3e ad88 d73e 10c2 f23e 6dcb 163e
-0.10636311 0.15605195 0.14367372 0.014399296 0.046826813 -0.04844815 0.3161147 -0.60104036
0.3751497 -0.44869423 0.14776114 -0.02192877 -0.24153364 0.17783028 0.17830355 0.10943419
-0.40195405 0.11521092 -0.035287615 -0.023316707 0.14197567 -0.029991047 0.022879124 0.08828261
0.08272835 0.030969972 0.33503848 -0.1275346 -0.35914025 0.076009646 0.23994033 -0.6041913
0.21531503 0.052992977 0.07984504 -0.04098581 0.18690068 -0.14677978 -0.029627973 -0.56684124
-0.12174491 -0.16505596 0.012564576 0.024817795 0.20867734 0.022918127 0.012241254 0.185781
-0.100086324 -0.20017822 -0.012528586 0.11252729 -0.24910687 0.29250562 -0.25695717 -0.037740577
0.18848555 -0.15706375 0.45768538 -0.37157962 0.00977984 0.187123 0.05891893 -0.3083901
-0.10462133 -0.09325893 -0.025203502 0.12456563 0.13915694 -0.0031733199 -0.09006118 0.15850659
-0.07999468 -0.025498591 -0.0149612315 -0.1380478 -0.36016163 0.099499114 0.07046956 -0.5856611
0.021344293 0.16990933 0.007389833 -0.219948 -0.1485245 0.11239372 -0.122920826 -0.07694533
-0.18388292 0.05874632 -0.20384617 -0.059575778 -0.010420824 0.11011977 0.32995585 -0.0048929984
0.060522992 -0.0762157 0.35541567 -0.025079196 0.05975063 0.005305413 -0.275159 0.19924712
0.18863556 -0.04696716 -0.15413174 0.44266844 0.12337545 0.3440602 -0.16748607 -0.36035022
-0.07161878 -0.3118991 -0.028599678 0.17426606 0.048134845 0.3645894 -0.28106838 -0.08315272
-0.075138785 0.23108129 0.15254611 -0.34530765 0.16175711 -0.23916051 0.07955502 -0.07470632
0.06902931 0.30099455 0.108416125 0.018701166 0.57850164 0.057755634 -0.3156114 0.12931357
0.25255224 -0.14431378 -0.1946594 -0.22486492 0.23581178 0.06686932 -0.19956295 0.07688635
0.07677395 -0.0096521545 -0.025331676 0.34399915 -0.029822994 0.017774606 0.025195906 -0.13038999
-0.05074804 0.10729755 -0.015810318 0.2565819 -0.2742491 -0.2936853 0.31842253 0.11545248
-0.06495012 0.3848266 -0.34623766 0.20055173 -0.3763639 -0.0378865 0.24833158 -0.1666062
-0.038671378 -0.031858686 -0.3793516 -0.008560547 -0.17206599 -0.09012333 -0.4177171 0.1072301
-0.11661716 0.25372094 0.26490283 0.122758396 0.17555453 -0.32284626 0.15292718 0.16301914
0.1368249 0.119453266 0.12794358 -0.2672595 -0.26254576 0.27732024 -0.3440805 0.17429696
0.19489507 -0.07834723 -0.31807354 0.045002576 0.074301556 0.24871095 0.32840627 0.023445405
-0.23621774 0.16540927 -0.00022889068 0.058831837 -0.025187062 -0.12393543 0.07704342 0.23740996
-0.35116166 -0.09684127 -0.26752242 -0.3109071 0.11495717 -0.35936892 -0.3480833 -0.08643268
0.02555864 -0.32289404 -0.36248147 0.26359427 0.114390075 -0.06679639 0.0380867 -0.44600603
0.17356284 0.23130275 0.24348524 0.0737735 0.101336695 -0.08889513 0.15934663 0.36964017
-0.21351041 0.017426623 0.1492039 0.12997481 -0.18188284 -0.10745304 0.16286273 0.368733
0.08615997 0.1780538 -0.20729628 0.051559377 -0.08568432 0.23369043 -0.08156639 0.17192125
-0.010400174 -0.11997114 -0.3576133 0.2756626 0.36729467 0.42096463 0.47413683 0.14726038

network_body.observation_encoder.processors.0.fc.seq_layers.0.bias f4 [22]
00000000: 755e 3cbc bfb9 74bd 7151 9f3c 2816 00bd
00000010: f62a 09bd 4eb1 7fbc 6fcb b939 5f65 00bd
00000020: 2355 a53c 2c66 5b3c 9bae a3bb 6fc8 443b
00000030: 96ca 26bd 9bc3 3bbc 9556 bd3b 7a44 ffbc
00000040: 2165 943b 98ab d73b bad1 cc3c 731d 94bc
00000050: 1a13 613d 9379 40ba
-0.01149713 -0.059747454 0.019448014 -0.03127113 -0.033488236 -0.015606238 0.0003543752 -0.031346675
0.020182198 0.013391059 -0.00499518 0.0030026694 -0.040720545 -0.01146021 0.0057781436 -0.031160582
0.004528657 0.006581735 0.02500235 -0.018080449 0.054949857 -0.0007342335

network_body.observation_encoder.processors.0.fc.seq_layers.2.weight f4 [22, 22]
00000000: b86e 60be 4a8d 703e 88b3 63bc 764b 403e
00000010: 7d0a 85bc 625e 97be c519 e3be 28be 84bd
00000020: 6109 7cbd 8882 45be 08aa 813d e5d5 02be
00000030: 8965 0dbe b7d3 b5be d8e4 4f3e 20b5 f5bd
00000040: 12dc 583d 7089 29be 3855 153e 9b51 5cbe
00000050: 5d36 223e 0040 95be a4b8 9e3d 1dc6 8fbe
00000060: d27d 833d be04 3cbe 41fb a53c e0b4 51be
00000070: 1602 3dbe 9961 26be 84f7 2a3e faa8 553d
00000080: ac19 fabe af52 d43e 6441 2b3c a11b 6dbc
00000090: 4331 2bbe 9cb4 003e 95d4 6b3d e790 b43d
000000a0: ee9a 55be cca9 dbbd 7eda 12be 778a 8cbe
000000b0: caab 5abe 81fc 943e 1d0f abbd c51b bb3d
000000c0: 91be 2dbe be8a dcbc 4063 89bc a6c6 f5bd
000000d0: a068 08bf 574b 923b ca06 733e e505 463c
000000e0: 46bd 613e 3a37 7cbe 0418 36be af23 7f3e
000000f0: 0269 43bd ac42 e4be 5795 c1be ca39 4b3e
00000100: 79b6 973d 268b b3be ae93 813e 0a97 1bbe
00000110: eb38 e6be 02f8 15be 9c3a ee3b 6e7c dfbd
00000120: fe4e f63d 78a0 2f3e 14c0 4fbe a8ec 243e
00000130: cead 6c3b 6727 243d d869 07bd a120 80be
00000140: 8733 2bbe cc7b 463e c98b c1bd ade4 30bd
00000150: 0ffb 323e dc8f f0bd 04c0 a5bd db1c 953e
00000160: 3dee 5a3e b2f5 0f3e d8e9 de3d 5bca 5dbe
00000170: e5b1 dabd ad72 25be 811b bebe 0851 a8be
00000180: 6ae0 29bd 2532 7ebd de6a 213e f7ce 96bd
00000190: c7eb bebd 5cd4 043d cb5d 7d3e ed32 18be
000001a0: 2c70 d9be a45e a23c 4214 b6bc 43b2 d93e
000001b0: 7d59 76be d7eb 243d 72c5 1e3e bc67 adbd
000001c0: e980 45bd 9931 12be 50cd bf3d c0d3 3bbe
000001d0: 9f6f a93d dc09 75be 3793 46be 8ef6 f83d
000001e0: b803 4dbd 9bd8 7bbc 797e b43e da69 d13c
000001f0: 6a03 f03d 27b4 713e ee80 00bf 07af 4fbc
00000200: d5ca 3e3e 03c3 10bd 6615 413e b0c2 bbbd
00000210: 8d76 0d3e 9a04 793e de00 81be 9726 ab3c
00000220: e71a 3f3e cc92 7dbe 98cf c33b ff31 963e
00000230: 980f 0cbe c1cb 11be be32 6abe 3706 27be
00000240: d810 1abd 5cd0 af3e 607d fc3a d33a 47be
00000250: c4ac d13b 7488 af3d 301f 8cbc 8eb5 493e
00000260: 0dfa 92be 0072 3b3e af2c 87be b980 493e
00000270: 05c1 5d3e 41fd 563e 4105 14bd 5bb2 70be
00000280: 6292 39bd 49d9 2c3e 2242 b0be fac8 a73e
00000290: 99b7 50be a6e0 b13e 8829 4c3e 3373 bd3d
000002a0: 6049 833e 5871 5bbe f105 c0be cf5b 523e
000002b0: 2bc6 c93d 0374 b03e 3707 37be 87c2 7abe
000002c0: 7a77 a13e a9d6 1f3e 3c65 a6be f45e 823c
000002d0: 8315 b6bd 4c09 0bbe 7bb8 273e 4952 23be
000002e0: c43e 8e3e 2321 46be 668f 1bbd ee33 8c3e
000002f0: f9e6 263e aed7 fdbd 6156 4c3d e8d7 adbe
00000300: 12c1 fcbd 60ca 473e c07c 81be a6f1 6bbe
00000310: 6ff8 84bd f0d7 45bc 7d1d 6fbb 15e7 dfbd
00000320: 0edd c5bd 7770 e4bd 00b3 76be f679 c23b
00000330: 7ba8 eebc 2498 31bd cb42 a9be 7cb3 093e
00000340: 2575 8e3e b5cf ec3d 4ab5 293e ab1e 6cbd
00000350: 4e98 023f 4167 ac3e ce1a b23d 1da4 d3bd
00000360: 707a 4dbd d5de 0c3e c946 0d3e 230c d7be
00000370: 6198 003e dd9a 2b3d 3447 5f3e 1a2f a33e
00000380: d587 223d fdc2 80be 249a 5dbd b89b 89bc
00000390: fabd 47be 042a 383e 4e7a e33e b23d a2be
000003a0: d573 c83d 1a95 ebbe 5ede ddbd 8f08 2b3b
000003b0: 7540 893c b6e5 5dbd 2050 4e3e 9e01 553e
000003c0: b3fc 0d3e a248 943d 01e0 aebb e0c6 c5be
000003d0: 974b 59bd 7c06 2bbc a198 d73e b746 84be
000003e0: 5100 923d 42f4 333e 3ae2 683c dfcb 123e
000003f0: 666b 2c3e c8bf 953e 5fc5 343d 139e 5b3d
-0.21917236 0.23491398 -0.013897784 0.18778786 -0.016240353 -0.29564196 -0.44355598 -0.06481582
-0.061532382 -0.19288075 0.06331259 -0.12776907 -0.13808264 -0.35513088 0.2030214 -0.119974375
0.05294425 -0.16556334 0.1458329 -0.21515505 0.1584105 -0.2915039 0.07750061 -0.28080836
0.06420483 -0.18361184 0.020261409 -0.20479155 -0.18457827 -0.16248168 0.16695982 0.0521631
-0.4884771 0.41469333 0.010452602 -0.014471919 -0.1671801 0.12568897 0.05757578 0.088167004
-0.20859882 -0.107257456 -0.1434116 -0.2744939 -0.21354595 0.29098895 -0.08352492 0.09136156
-0.16967227 -0.026921626 -0.016770959 -0.1200078 -0.53284645 0.0044645476 0.23733059 0.012086366
0.22044858 -0.24630442 -0.17782599 0.24915956 -0.047707565 -0.44582117 -0.3780925 0.19846264
0.07407851 -0.350671 0.25307983 -0.15194336 -0.449653 -0.14645389 0.0072701704 -0.10912405
0.12026785 0.17151058 -0.20288116 0.16105902 0.0036114338 0.04007664 -0.033059925 -0.25024894
-0.16718875 0.19383162 -0.0945049 -0.043186832 0.17478584 -0.11746189 -0.08093265 0.29123577
0.21379943 0.14058569 0.10884446 -0.21659224 -0.10678462 -0.16157027 -0.3713036 -0.32874322
-0.041473784 -0.06205954 0.15763423 -0.07363694 -0.09322315 0.032429084 0.2474281 -0.14863177
-0.42468393 0.019820519 -0.022226457 0.42518815 -0.24057575 0.040263977 0.15505007 -0.084670514
-0.04821864 -0.14276733 0.09365332 -0.18342495 0.08273243 -0.23929542 -0.19392096 0.121564016
-0.050052375 -0.015371467 0.3525274 0.02556317 0.11719401 0.23603879 -0.5019673 -0.012676007
0.18632062 -0.035342228 0.18855819 -0.09167993 0.13814755 0.24318162 -0.25195974 0.020892425
0.18662606 -0.2476303 0.005975675 0.2933502 -0.13677824 -0.14237882 -0.22870919 -0.16310965
-0.03761372 0.34338653 0.0019263439 -0.19456033 0.006398769 0.08570948 -0.017104715 0.19698164
-0.287064 0.18305206 -0.26401278 0.1967801 0.21655662 0.20995046 -0.036137823 -0.23505537
-0.045305617 0.16879763 -0.34425455 0.3277052 -0.20382537 0.34741706 0.19937718 0.09250488
0.25641918 -0.21429956 -0.37504533 0.20542835 0.09852251 0.3446351 -0.17873846 -0.24488269
0.31536466 0.1560923 -0.3249911 0.015914418 -0.08890822 -0.13577765 0.16378967 -0.15949358
0.2778226 -0.19348578 -0.037978552 0.2738337 0.16299047 -0.12394653 0.049887065 -0.33953786
-0.12341513 0.19510794 -0.2529049 -0.230414 -0.064926974 -0.012075409 -0.0036486082 -0.10932747
-0.096613035 -0.111542635 -0.2409172 0.005934949 -0.029133072 -0.043357983 -0.33058771 0.13447374
0.2782375 0.115630545 0.16573063 -0.057646435 0.5101365 0.33672526 0.08696519 -0.103340365
-0.050165594 0.13756879 0.13796534 -0.42001447 0.12558128 0.041895736 0.21804506 0.31871873
0.03968032 -0.25148764 -0.054102078 -0.016797885 -0.19506064 0.17984778 0.4442925 -0.31687695
0.09787718 -0.46012193 -0.10833429 0.002609763 0.016754368 -0.054174148 0.20147753 0.20801398
0.13865928 0.07240416 -0.005336762 -0.38628292 -0.053050604 -0.010438558 0.42108634 -0.258352
0.071289666 0.17573646 0.014214093 0.14335583 0.16837844 0.2924788 0.04413354 0.05361755

network_body.observation_encoder.processors.0.fc.seq_layers.2.bias f4 [22]
00000000: e0f7 6d3d a3dc 053d feae 6bbd 350d a2bb
00000010: c5f9 063c e5fb ea3c 211e 74ba b72d 35bd
00000020: 578d 23bd 4523 43bc 8d27 28bd 479c 8b3c
00000030: 72f6 5b3b f773 4e3c 476f 1f3d 5692 4ebd
00000040: 9f26 763b b8cd 87bd bb8f 84bd 4336 043c
00000050: 61e9 0cba 24ba 913b
0.05809772 0.03268112 -0.057539932 -0.004945422 0.008238261 0.028684566 -0.0009312351 -0.04423305
-0.039929714 -0.011910264 -0.041053344 0.017042292 0.003356364 0.01260089 0.03892448 -0.050432526
0.003755964 -0.066310346 -0.06472727 0.008069578 -0.00053753523 0.0044472385

network_body.observation_encoder.processors.1.fc.seq_layers.0.weight f4 [22, 22]
00000000: 2d9b c0bd 0aa5 323d e0b5 c3bd 12f5 5f3d
00000010: 5de1 d93d a888 473d b925 bc3d ce0a 4dbe
00000020: cb7a 65bd 49e3 7ebe 06b2 aeba 7d44 923d
00000030: bd11 bf3e 4658 39be 01d0 0abe b767 6bbe
00000040: 2b58 03be 0177 1a3d 9392 30be e45a e2bc
00000050: ad68 31be 0032 3bbe 2735 813e 07da 183e
00000060: 9f88 6d3e 7181 d7bd 8f4e 2abe ccb9 9ebe
00000070: d56a 303c 88d4 893e 4e98 4ebd f742 733e
00000080: 46b0 003e fcbb cdbd 0c8d 453e 1eb9 233d
00000090: 59ff 80bd 91ab e13d 9082 30be c046 46be
000000a0: 120d 40be 37a8 77bd 9164 263c 2dab 533e
000000b0: f2d5 fc3e d3b4 d93c 53c2 97be a4e5 50be
000000c0: c415 2a3e 15f3 233e b496 fdbe 22f0 2abe
000000d0: 54ce fc3d f18c 283d 5a5e c2bd c56f b9be
000000e0: b54f 153e f0db 2a3e 6978 44be 7bcb 543e
000000f0: 43a8 253e 3d20 193e 6610 b33d 6646 30bc
00000100: fafe c7be 1b5c 943d e9bd 1c3e 9e0b fd3d
00000110: 0777 e03d 6ef1 86bd ac85 c5be e264 edbc
00000120: 7b1c 65bd 9f83 1f3e 9136 16bd 8a86 d5bd
00000130: 185e babd 9eee a93d 6b75 94be 74d0 88be
00000140: 75c7 7d3e 3c8e d1bd 73f7 8b3d 92b0 c7bd
00000150: eda2 d9be ae7c 82be fd6f d3bb 0eca d53e
00000160: 4d8c aa3e 0a05 9c3d 54ae b2be 2203 bf3c
00000170: f8e4 e6be 7ff6 6e3e d69f 1e3c 780a f33e
00000180: 9691 e0be a02d d03d d90a bc3d c6af 0a3e
00000190: b42b e7bc 492e bbbd 21c2 09be 544f c6bd
000001a0: 6051 033e 85ca 1e3d c8cd 5e3e 9388 6c3e
000001b0: e300 19bd c428 0cbf e60f 803e 167a ddbd
000001c0: cc14 303d abe7 d1bd b0d0 56be 1a17 92be
000001d0: 430c b0bc 2d11 11be ff22 353e bda1 b63e
000001e0: 5220 0bbe 841d 123e 6f61 7a3e 3779 b2bc
000001f0: d290 92bd ea2e 83bd ded3 e43d 8176 4b3e
00000200: 59a3 183d 76d2 903e c114 e0bd e893 8bbe
00000210: 68ac 0bbe a0da f3bd ba54 d5bd 84fa 80bd
00000220: 3c0b 92be 5526 0fbe 4a81 5dbe 4d71 2fbe
00000230: 9a53 413d c551 e0bd b996 5c3d cece 183f
00000240: 1892 3a3d d741 2abe 5e9c 283e 1602 02be
00000250: cd48 d93d 9358 883e dd5e 00bd c7dd ecbd
00000260: 994e d23c d3ea 3c3e 987e f4bd ed0c 873c
00000270: 2192 81be 63e4 23bb 84a1 57bc 3e39 983e
00000280: a832 5ebe 6df0 283e 379e 85be b603 66bd
00000290: ce9d 253d ad82 253d 3c22 0bbd 5aaf 7abe
000002a0: 9a96 b0bd e302 8dbe 4bf6 27bd 2694 14be
000002b0: 7c1c b9bd a903 debd 37c9 8d3e bdf4 b03e
000002c0: 3013 543e 740d 853d bf14 69be 5d25 0dbe
000002d0: 7921 95be be5b d3bd 3409 a83c 64a4 023f
000002e0: 0492 863e cb31 d5bd ccbd 023e 0490 363c
000002f0: b873 69be 3818 78bd dc6e f93e 350f 5e3d
00000300: af61 7e3e f5fc 6b3e 26db 443e 66ad bfbd
00000310: bfeb 9d3e df6a 563e 5899 0fbd 30b8 573c
00000320: 3d2a 9c3e 439a e7be 64b0 383d 7396 093d
00000330: bf5a 793a 345b 4cbc 4a7f 4f3e 6811 cc3e
00000340: afce a63d 9f79 883e c8d8 043f cfa5 973d
00000350: 9938 f73d c33d 103e 7d53 5cbe a13b f1ba
00000360: e36e ff3d 31e4 883e 8dfd 513d f19b 093e
00000370: d99f 15be 54f2 13bd 054c 96bd 499f 15bf
00000380: c8b4 b6bd 54bb 043e 1d73 653e 8e86 643e
00000390: ab6c 043e 70b9 74be c636 913d 591a 7a3d
000003a0: 8eff 40be b846 a03d 17b4 93bd 9d05 8abe
000003b0: bc33 30bd 2dd6 be3d 2c5a e33e b7a0 fe3d
000003c0: 528d 713e 6e5b 203e be0c f0be a58f 32bf
000003d0: 158a 0b3d 76f0 19bd fd1a 3dbe 1d55 8a3c
000003e0: f209 b8bc 308c cfbd 2583 5e3e ac63 afbd
000003f0: 7320 ffbd 899c a23e cc8c b23d 2b5f bd3e
-0.094045974 0.043614425 -0.09556174 0.054677077 0.10638688 0.04871431 0.091868825 -0.20023653
-0.056025308 -0.2489139 -0.0013328202 0.07141969 0.3731822 -0.1810008 -0.1355591 -0.22988783
-0.12826602 0.037711147 -0.17243414 -0.02763123 -0.17325087 -0.18280792 0.25235865 0.14926921
0.23196648 -0.10522736 -0.1663153 -0.31001127 0.010767658 0.2691996 -0.050438218 0.23756014
0.12567243 -0.10045621 0.19292086 0.039971463 -0.06298704 0.11019052 -0.17237306 -0.19362926
-0.18754986 -0.060463157 0.010155813 0.20670767 0.49381977 0.026575482 -0.29640445 -0.20400101
0.16609865 0.16010697 -0.4952904 -0.16693166 0.123440415 0.041150037 -0.094906524 -0.36218086
0.14581187 0.16685462 -0.19186558 0.20780747 0.16177468 0.14953704 0.08743362 -0.010758972
-0.3906172 0.0724413 0.1530682 0.123557314 0.10960203 -0.06589018 -0.38578546 -0.028978769
-0.055935364 0.15577553 -0.036673132 -0.10426052 -0.09099978 0.08297466 -0.28995833 -0.26721537
0.24783118 -0.10232207 0.068343066 -0.09750475 -0.42507115 -0.25485748 -0.006452559 0.41755718
0.33310166 0.076181486 -0.34898627 0.023316924 -0.45096564 0.23336218 0.009681663 0.47468925
-0.43861073 0.10164952 0.091817565 0.13543615 -0.028219081 -0.091396876 -0.1345296 -0.096830994
0.12824011 0.038767356 0.21758187 0.23098974 -0.03735436 -0.54749703 0.2501213 -0.10814302
0.042988583 -0.10249265 -0.20978045 -0.2853325 -0.021490222 -0.14166708 0.17689131 0.35670272
-0.13586548 0.14269072 0.2445123 -0.021786315 -0.071565285 -0.064054325 0.11173223 0.19869424
0.037265155 0.2828557 -0.109414585 -0.2726128 -0.13639987 -0.11906934 -0.10416551 -0.06297782
-0.28524196 -0.13979466 -0.21631351 -0.17133065 0.04719887 -0.10953096 0.053854678 0.5969056
0.045549482 -0.16626678 0.164659 -0.12696108 0.10609589 0.26630077 -0.03134047 -0.11565738
0.025672244 0.18448953 -0.11938208 0.016485656 -0.253068 -0.0025007955 -0.013161067 0.29731172
-0.21699011 0.16497965 -0.2609727 -0.056155883 0.040433697 0.040407825 -0.033968195 -0.24480954
-0.08622475 -0.27541265 -0.041006368 -0.14509639 -0.09038636 -0.10840542 0.27692577 0.3456172
0.20710444 0.064967066 -0.2276182 -0.13783784 -0.291271 -0.10320233 0.0205122 0.5103209
0.26283276 -0.10409888 0.12767714 0.011142734 -0.2279805 -0.06056997 0.48717391 0.05421372
0.24841951 0.23045714 0.19224223 -0.09359245 0.30843922 0.20939206 -0.03505835 0.013166472
0.30500975 -0.4523488 0.045090094 0.033590745 0.00095121184 -0.012472916 0.202634 0.3985703
0.081448905 0.2665529 0.5189328 0.07404672 0.12071342 0.1408606 -0.21516223 -0.0018404612
0.12472322 0.26736596 0.051267195 0.13438393 -0.14611758 -0.036119774 -0.07338718 -0.58446175
-0.089212 0.12962085 0.22407193 0.22316954 0.12932079 -0.23898864 0.07090525 0.061060283
-0.18847486 0.078259885 -0.07212084 -0.26957408 -0.043018088 0.093181945 0.44404733 0.12432998
0.23589066 0.15659878 -0.46884722 -0.69750434 0.034067232 -0.037582837 -0.18467326 0.016886288
-0.02246568 -0.101341605 0.21729715 -0.08563933 -0.12457361 0.31760052 0.08718261 0.3698667

network_body.observation_encoder.processors.1.fc.seq_layers.0.bias f4 [22]
00000000: 66ab 0f3d eda2 0a3d 47e4 b2bc fec2 163d
00000010: a20c 78bd 497b 603c 2211 88bc efb4 2fbc
00000020: 4892 2cbd 07ed 39bd 2232 0abd 306d 2e3c
00000030: 58ae 91bb 19f9 833c a419 2dbc 66f4 12bd
00000040: 6119 38bc 3589 333d f556 a2bc 8e17 993b
00000050: 4628 3dbd ac79 573d
0.035075568 0.033846784 -0.021837367 0.036807053 -0.060558923 0.0137012685 -0.016609732 -0.01072429
-0.042131692 -0.045392063 -0.033739217 0.0106461495 -0.004445832 0.01610999 -0.010565195 -0.035877608
-0.01123652 0.043832023 -0.019816855 0.0046719974 -0.046180986 0.05260627

network_body.observation_encoder.processors.1.fc.seq_layers.2.weight f4 [22, 22]
00000000: 9504 58be cde3 26be fc5b 99bd 33a6 62be
00000010: 9f7a 3b3c d915 0abf c36b e93b f82d 93be
00000020: bdae 463d 9424 923e 1615 093e 9ad5 b2be
00000030: 8bcf ca3d 4f1c dabe f06c 843e e4b5 a0be
00000040: 0598 0f3e 05c6 8a3d 7f33 433e 221d ae3e
00000050: c0db f93e 5a27 ee3d 64de 32be b56f 36be
00000060: ae50 033d 50c7 8abe 8e5d f83b a298 03be
00000070: a6e0 d9be 32f7 dc3e 44dd 9e3d 3e81 013f
00000080: b509 03be 05e4 9f3d a902 23bd 4217 09be
00000090: 1c12 20be f15a 4abe bee3 0f3e c6f6 9b3d
000000a0: 3b00 37be 0878 1fbe 7eab 1cbd be69 ec3d
000000b0: 7ed3 35be ef00 523e 4e21 e13d 614c 183e
000000c0: d81b 50be 07f0 02be e7c6 8f3d 3b89 bb3d
000000d0: dbaa 45be ba32 bdbe 94a7 ffbe 5071 743e
000000e0: 37e0 4b3e dd23 973d 9612 a23e cb8a 843e
000000f0: e47b bebd 7313 693e 7055 993d d4bf cc3d
00000100: cb0f d4bd df6b a33d 4f4e 0fbf 7f55 6b3e
00000110: 2aa4 b6bb 0f7b b6bd 63a4 edbd 24ca 5e3c
00000120: 33bf 85be 8ac1 57be 1b27 1ebd cfa8 623e
00000130: 06cc 1dbd ae1c 693d 4a12 ab3b 511f 873d
00000140: 9eb4 19be 9c6a 07bd 2801 93be f3bd a03d
00000150: 8db1 943e 63f3 74be eb5f e0bd ec84 0e3d
00000160: 433c 9bbe f2d4 debd c3aa a03d 34f6 1cbd
00000170: b867 b43e 16aa 993e 6f5f b3be 9e7f 603d
00000180: 173c 43bd 528d 233e 4b70 e7bd fda8 be3c
00000190: 0fa4 a0bd 96a9 87bd 7750 04be c43b 2f3e
000001a0: 332e b8be 3140 863c f92d 413d 90a1 c5bd
000001b0: 0fe3 27be 0f36 a6be a918 a5bc 81db 13bc
000001c0: cafe da3d 68fe fcbd b753 9bbe 9a41 d53d
000001d0: b11e 47be 2db7 8e3e d1e2 023e 7d81 8d3d
000001e0: 4809 04be 5ae6 043d 0454 b8be 97ba 80be
000001f0: 7ff1 943e 0ca9 b8bd 9c4c 683e 9f16 993e
00000200: afbb f5bd 8420 b03d 6eca 08be befb d73d
00000210: afd6 a63e 380b b1bd b5e0 13ba 3a65 c8be
00000220: 6992 8cbe 3865 85be b355 0cbd 82d3 48bd
00000230: da81 a53d dbf8 a8be a5fe cdba c2c4 02be
00000240: 9a3c 9cbd beaa 4139 bd1e e43d e1a3 04bf
00000250: cc9a 383d 01e3 2abe 1c9e 113d 4e45 4b3e
00000260: 5b0f 503e da04 b03e d671 24be ed46 4f3a
00000270: a058 2bbe 0ab7 853e a23f 84be e0df 253e
00000280: 02a8 1ebe eecb 343b c732 e6bd d877 62bc
00000290: 09ed b3be ba77 e8bd cd51 3dbd 3338 d1bd
000002a0: 0451 093e c626 a9be e645 b6bd 11d1 cb3d
000002b0: e4bc 0cbd b1a1 843d 8556 973e 8ff8 4c3e
000002c0: f64a 97be d6fa cebd e30e 85ba 13b7 b1be
000002d0: 3cca fd3d 2ad9 0abe 183b a23d 165f f0be
000002e0: 9316 1ebd 2a23 48be 5453 5a3e 9fe1 383d
000002f0: 6efc 52be 3ca2 103e aa95 7fbe 7175 303e
00000300: 67fd c6bd c2e1 4e3e 51f6 7bbd 9f9b abbc
00000310: 15f3 713e 111a 043e 884e a53e ca24 e93d
00000320: 0569 b5bd f38c 523e 221b 34be bf96 883d
00000330: 2667 7abe 6259 62bd 8544 ce3d 3016 77be
00000340: a887 4e3e 7584 ef3e 100b 903e 042c cfbc
00000350: 08c8 c03d c787 9ebd 8f1a 5fbd 6c22 033e
00000360: 2d89 0b3e cd88 103e 206d 79bd ad15 ea3e
00000370: 6790 e5be 4942 8ebe 093d bcbe a9e3 45be
00000380: 4a27 a4bd 73a3 233e 80fb 5c3e 0fa9 6c3c
00000390: 59f3 65be aa93 adbe e59b 63be 260d f5bc
000003a0: 1f78 b5be 778d bfbd b208 063d 0e9a 40be
000003b0: c159 3fbe d501 b9bd 1c8a dd3e 4a3c 2dbe
000003c0: 4cc9 03be fc47 ac3d 975a 753e 4021 e43d
000003d0: d263 643e d772 98bd f702 733e ce04 c937
000003e0: 5641 86bd 13a7 663c ef2c 80bd 59fb a9be
000003f0: c7c1 303e 3114 613e a06b 90be b508 f23d
-0.21095498 -0.16297837 -0.07488248 -0.22133712 0.011442809 -0.53939587 0.007123442 -0.2874601
0.048506487 0.28543532 0.1338695 -0.3492859 0.09902867 -0.42599723 0.25864363 -0.31388772
0.14022835 0.067760505 0.19062613 0.34006602 0.48800468 0.116285995 -0.17467648 -0.1781605
0.032059364 -0.27105188 0.007579512 -0.12851194 -0.42554206 0.43157345 0.07757047 0.5058783
-0.12796672 0.07807163 -0.03979746 -0.13387778 -0.15631908 -0.19761254 0.1405172 0.07615428
-0.17871182 -0.15573132 -0.038249485 0.11543606 -0.17756459 0.20508169 0.109926805 0.14872886
-0.20323122 -0.12786876 0.070203595 0.09157034 -0.19303457 -0.36952764 -0.4993254 0.2387135
0.1990975 0.07379887 0.31654805 0.2588714 -0.09300974 0.22761326 0.07486999 0.09997526
-0.10354575 0.07979559 -0.55978864 0.22981833 -0.005573769 -0.0891019 -0.1160362 0.013597999
-0.26122436 -0.21069923 -0.038611513 0.22134708 -0.03852465 0.056912117 0.005220686 0.0659777
-0.15010306 -0.033060655 -0.2871182 0.0784873 0.2904171 -0.2392097 -0.10955795 0.034794733
-0.30319414 -0.1088046 0.0784507 -0.038320735 0.3523538 0.30012578 -0.35033748 0.054809205
-0.047664728 0.15971878 -0.11300715 0.02327394 -0.07843792 -0.06624143 -0.1292132 0.17112643
-0.35972747 0.01638803 0.047162984 -0.09649956 -0.1639521 -0.32463118 -0.02015336 -0.009024502
0.106931284 -0.12353212 -0.30337307 0.10412903 -0.19445302 0.27874127 0.12781836 0.069094636
-0.12894166 0.032446243 -0.360016 -0.25142357 0.29090497 -0.09016618 0.22685474 0.2990007
-0.119986884 0.08599952 -0.13358471 0.10546063 0.32585666 -0.08644718 -0.0005641089 -0.3913973
-0.27455452 -0.26053786 -0.034261417 -0.049029835 0.08081408 -0.33002362 -0.0015716149 -0.1277037
-0.07628746 0.00018469521 0.11138675 -0.5181256 0.0450695 -0.16688158 0.035551175 0.19850656
0.20318358 0.343787 -0.1605905 0.0007906992 -0.16733027 0.2611621 -0.25829798 0.16198683
-0.15493777 0.0027587372 -0.11240154 -0.013822518 -0.3514178 -0.11350961 -0.04622059 -0.10215797
0.13409811 -0.33037394 -0.08900051 0.099519856 -0.034359828 0.06476153 0.29558197 0.20016693
-0.29549378 -0.10106437 -0.0010151531 -0.34709987 0.12392089 -0.13559404 0.079214275 -0.46947545
-0.038595747 -0.19544664 0.2132085 0.045137044 -0.20604107 0.14124388 -0.24959436 0.172323
-0.097163014 0.20203307 -0.061514203 -0.02094823 0.23627885 0.12900569 0.32286477 0.1138397
-0.088579215 0.2056158 -0.17588475 0.066693775 -0.2445341 -0.055261023 0.10071663 -0.24129558
0.20168936 0.46780744 0.2813344 -0.025289543 0.09413153 -0.07740741 -0.054468688 0.128061
0.13626547 0.14114685 -0.060895085 0.45719662 -0.44836733 -0.27784947 -0.36765316 -0.19325127
-0.08015306 0.1598032 0.21580315 0.014444604 -0.22456111 -0.3390172 -0.22227438 -0.029913496
-0.35443208 -0.09353154 0.032723136 -0.18808767 -0.18686582 -0.090335526 0.43269432 -0.1691753
-0.12869757 0.084121674 0.23960339 0.111391544 0.22303703 -0.07443779 0.237316 2.3963305e-05
-0.065554306 0.01407792 -0.062585704 -0.33199576 0.1726142 0.21980359 -0.2820711 0.11818067

network_body.observation_encoder.processors.1.fc.seq_layers.2.bias f4 [22]
00000000: af6d 60bc c304 6cbc 61b6 463d c989 bb3c
00000010: c644 9bbc 607a 023d 057a 853c c134 723d
00000020: 8cce cabc 3bbd 3c3d cafc 2ebc f762 143d
00000030: 1673 033d c0ba 0a3b f2c6 f93c 14d0 ab3c
00000040: 5060 e43c 1d5a 163d b800 013c 9e08 b7bc
00000050: 605e ef3c 4efb 0b3c
-0.013698026 -0.014405432 0.048513774 0.02289285 -0.018953692 0.031854987 0.016293535 0.05913234
-0.024756692 0.0460789 -0.010680387 0.036227193 0.032092176 0.002116844 0.030490372 0.020973243
0.027877957 0.036707032 0.0078737065 -0.022342976 0.029219806 0.008543802

network_body.observation_encoder.processors.2.fc.seq_layers.0.weight f4 [12, 12]
00000000: 7810 ca3e a02a f93d fceb 7d3e db99 ef3e
00000010: 3bed 53be 3e60 2cbe fc6c 883e 99f5 bfbd
00000020: 4437 f9be 25a9 24be a5df cfbe 0332 e6bd
00000030: 34cc bbbe e96a 66be a0f4 bebe a31a 1ebe
00000040: 37a6 28bd 00c4 debe 1981 f43e 35b9 123d
00000050: 19c3 463e 7658 9e3e 99e9 af3e 9c36 40be
00000060: b944 aabd e5c5 273e f7af 0ebe 740c 76bd
00000070: 0ef3 e5be 04dd a0be 3ff8 c0bd 6c20 1abf
00000080: 6523 243e 1770 67bf f34f 60bd 6835 d63e
00000090: d2e4 713e de8b 103f 1655 a83e 027b 31be
000000a0: 7505 03bf 0f00 0c3e 69cf 74be c8db 36bd
000000b0: 3f43 e33d c631 08bf a400 8e3e 1e6e b3bd
000000c0: 2bd7 2fbe 3383 c03d ce14 8e3e eef2 ecbd
000000d0: 1503 993b 86c9 5dbe 5d41 083e 2f72 5ebd
000000e0: ad56 093c 8e6f 21be 80b1 373d f5f7 a63e
000000f0: 9616 fd3d e539 c0be a615 dd3e 0de6 91be
00000100: 446c 363d 7110 f53e a23d 65be 305b 89be
00000110: 2371 15bf 280c 2abd be9f e13e f6d8 c4be
00000120: 37a3 9ebe 5183 4ebe a105 903e eced e2bd
00000130: 12b9 2e3e 92dc f93c 8876 03bf 3597 21be
00000140: d94f 033d 3fff 543e ba8a a4be 0a21 57be
00000150: 2893 54bd e03c 393e a154 3ebe 985e 40be
00000160: aaf0 23bf b7d1 1c3e 68a9 b4bd 49fc 103d
00000170: 2412 933e c96c 233e 1c28 99ba 785a 1ebf
00000180: c901 0fbf 6966 ddbd c54c 20bf 3f5d 403d
00000190: 908c 9d3e 3e50 a73e 9656 f2be 50ae 4c3e
000001a0: dab6 24be 86c5 46be b7ad 243d ac42 233e
000001b0: 4122 16bd 520a 853e 38a6 96be d6e5 85be
000001c0: 762d 113d 6e27 d03e 720b acbd a759 103d
000001d0: b918 13be ac7e 993e a316 a4be da69 ccbe
000001e0: ac93 253f 656e c9be 2087 06bf 7c6c d03e
000001f0: 1330 513e a021 adbe 33cf d33e b5d4 babd
00000200: 3250 dbbe 4eb6 703e 29a1 a53e 41ee a83e
00000210: de50 cc3e 62a5 10bf ca83 76bd 6d52 aabe
00000220: 3464 13be c05c 823e f3cd 9cbe 1b58 e93d
00000230: 45d1 b2bc c058 1fbf 9a9b 4f3d cf0f dcbd
0.3946569 0.12166333 0.24797052 0.4679707 -0.20695965 -0.16833588 0.26645648 -0.09373016
-0.48674977 -0.16080149 -0.40600315 -0.11240008 -0.36679232 -0.2250172 -0.3729601 -0.15439849
-0.04117414 -0.4350891 0.47754744 0.03582116 0.19410361 0.30926865 0.34357908 -0.18770832
-0.08313889 0.16384085 -0.13934313 -0.06007047 -0.44912 -0.31418622 -0.09422349 -0.6020572
0.16029127 -0.9040541 -0.054763746 0.4183762 0.23622444 0.5646342 0.32877415 -0.1733208
-0.511802 0.13671897 -0.23907246 -0.044643193 0.110968105 -0.5320095 0.27734864 -0.087612376
-0.17171924 0.09400024 0.27750248 -0.11569773 0.004669557 -0.21658906 0.13306184 -0.054308113
0.0083824815 -0.15765211 0.04484701 0.3261105 0.123578236 -0.3754417 0.4318058 -0.28495827
0.044536844 0.47864106 -0.22386792 -0.26827383 -0.5837576 -0.0415155 0.44067186 -0.38446778
-0.30983898 -0.2016728 0.28129295 -0.11080536 0.17062786 0.030500684 -0.5135274 -0.15780337
0.03205857 0.20800494 -0.3213709 -0.21008697 -0.05189815 0.18089628 -0.18586971 -0.18786085
-0.640391 0.15314375 -0.08821374 0.035396848 0.28724778 0.15959467 -0.0011684927 -0.61856794
-0.558621 -0.10810549 -0.6261714 0.046963926 0.30771303 0.32678407 -0.47331685 0.1998837
-0.16085377 -0.19411287 0.04020473 0.15943402 -0.03665376 0.25984436 -0.2942369 -0.26151913
0.035443746 0.40655082 -0.084006205 0.03524175 -0.143649 0.29979455 -0.3204852 -0.39924508
0.64678454 -0.39342037 -0.52549934 0.40707767 0.20428495 -0.33814716 0.41369018 -0.09122602
-0.42834622 0.23507044 0.32349518 0.32994273 0.39905447 -0.56502354 -0.060184278 -0.3326601
-0.14393693 0.25461388 -0.30625877 0.11393758 -0.021828303 -0.62244797 0.050685503 -0.10745203

network_body.observation_encoder.processors.2.fc.seq_layers.0.bias f4 [12]
00000000: d8a5 103c c0ea 5dbd 5630 ad3b 4549 633d
00000010: 1323 f4bc ff60 98bb 7159 c13c 6fc0 64bd
00000020: cafb d83c 228d cabb 76af 903c e368 10bd
0.008828603 -0.054178953 0.005285303 0.055489797 -0.029801881 -0.0046502347 0.02360222 -0.05584758
0.02648725 -0.006181375 0.017661791 -0.035256278

network_body.observation_encoder.processors.2.fc.seq_layers.2.weight f4 [12, 12]
00000000: 7e67 f73e 830e ddbe e489 3dbf 89a7 7b3e
00000010: 6a44 8d3c 8a3f 323e d728 843e 96ca 03bf
00000020: 864b 89be 32a2 00bf 689d 023e 3ecc 4ebb
00000030: d5a8 66be 9029 893e 372d a73e a1fd 8a3d
00000040: ef4c 6abe 2a6b cdbe 561e 12bf 130e 013e
00000050: f994 333d 510f 423e fb92 ca3c e938 6d3d
00000060: 9d01 1abd ba0a e03e b63f 84bc c3b3 1b3e
00000070: e39b 083f 3882 973e 0f65 1abf 2010 833e
00000080: 2401 2abf d6a3 4c3e 65e9 e7be e3b6 0cbf
00000090: 4336 17be 4933 f2be 46df 2c3e e366 f73d
000000a0: 8105 113e 7447 98be 1b8c 62bf a99b 683e
000000b0: 748d 933e 43a4 513d 965a fb3d 3c70 52bd
000000c0: 9655 eb3e e720 9abe 3b77 86be b3f5 3c3e
000000d0: b189 9c3d 9cdf 833d ff53 1d3e 9e2f 8cbe
000000e0: 845e 1bbe 99b1 4cbf 5b4f f0bc fcab 17bd
000000f0: 5a02 1c3e af31 c13e e50d 8dbd a559 83be
00000100: 4d8a db3e 0033 eb3e 75fb 4f3e b45c 913e
00000110: e22d c5bd a55a 79be 96cb a33e 8e87 21be
00000120: f3b8 08be b34f 763d 155d ccbd 7417 a9be
00000130: a10f 06bf 1001 bc3c a3c0 423e 92da 70be
00000140: c6fd 323e e498 fc3e 25f1 a23e a882 a5be
00000150: caf8 89be ab67 44be 02ec 963e 2cc2 95be
00000160: 169a b2bd ceb6 243f 6cbf 6f3d f8c0 fbbe
00000170: 4de3 05be 6fb1 bebe 644c 773e d61b efbc
00000180: 93e1 bb3d 14c9 a4bd 7fc3 1f3d 76f5 00be
00000190: f9e6 20be f0de 113e 3d51 a23d 13d8 343f
000001a0: 5f5b c43e 5d3a 47bc 559c 32bd c5af fc3e
000001b0: 5bbb 78be ab89 bfbd 74df 133e cbd3 05be
000001c0: 975a e23d 6a34 27be 947a adbd 80c2 693e
000001d0: 0562 e93e d8fa 9fbb f667 853e 19c6 7dbe
000001e0: 1c3e 08bf 166b 123f 80fe 3f3e 8c40 e73a
000001f0: 7cb9 ae3d 65c1 96be 6bd6 de3e 0573 f2be
00000200: e7dd 85bd 6b90 88bd 9c5c 59be 4eea c03d
00000210: 97a5 8f3e a1bd e23d 67ab c9be 170b e1be
00000220: c774 00be b079 3f3e 5580 803e 51c3 633e
00000230: 4c90 663e 7902 17bd 09ee 423f ae6e 0c3f
0.48321146 -0.43175134 -0.7403853 0.24575628 0.017244536 0.1740705 0.25812408 -0.51480997
-0.26815432 -0.5024749 0.12755358 -0.0031554843 -0.22525342 0.26789522 0.32651684 0.06786657
-0.2288091 -0.40120822 -0.5707754 0.12603025 0.043843243 0.18951155 0.024728289 0.057915602
-0.037599195 0.43758184 -0.016143661 0.15205292 0.53362864 0.29591537 -0.60310453 0.2559824
-0.6640799 0.19984373 -0.45295253 -0.54966563 -0.14766793 -0.47304752 0.16882047 0.12080171
0.14162256 -0.29742014 -0.88495034 0.2271563 0.28818858 0.051182043 0.12273137 -0.051376566
0.45963734 -0.30103227 -0.2626284 0.18453102 0.0764345 0.064391345 0.15364073 -0.2738008
-0.15172774 -0.7995849 -0.029334715 -0.03702925 0.15235272 0.37733218 -0.06887416 -0.2565433
0.42878953 0.45937347 0.20310767 0.2839104 -0.09627892 -0.24350984 0.3199126 -0.15774366
-0.13351803 0.0601346 -0.099786915 -0.33025706 -0.523676 0.022949725 0.19018798 -0.23520878
0.1747962 0.49335396 0.31824604 -0.32326245 -0.26947623 -0.19180171 0.29476935 -0.29249704
-0.08720796 0.6434144 0.058532164 -0.4917066 -0.1307499 -0.37244746 0.24150234 -0.029188078
0.09173884 -0.08046165 0.0390048 -0.12593636 -0.15713109 0.142452 0.07925651 0.70642203
0.3835096 -0.012159911 -0.04360612 0.49352852 -0.2429022 -0.0935243 0.1444071 -0.13069074
0.11052435 -0.16328588 -0.084706455 0.22828102 0.45582595 -0.004882198 0.26055878 -0.247826
-0.5321977 0.5719465 0.18749428 0.0017643138 0.08531472 -0.29444423 0.43522963 -0.47353378
-0.06536465 -0.066681705 -0.21226734 0.0941969 0.28056023 0.11071325 -0.39388582 -0.43953773
-0.12544547 0.18698764 0.2509791 0.22242476 0.22515982 -0.036867592 0.7614446 0.54856384

network_body.observation_encoder.processors.2.fc.seq_layers.2.bias f4 [12]
00000000: 4cb8 1f3d 2932 84bc 44d2 8fbc 4d7a 1bbd
00000010: de89 923c eae6 9abd 1625 ab3c b6eb 5c3c
00000020: 00e9 65bd c4e5 d9bb 8ca3 043c d517 d8bc
0.03899412 -0.0161372 -0.017556317 -0.037958432 0.017888006 -0.075635746 0.020891707 0.013483932
-0.05613041 -0.0066497047 0.008095633 -0.026378551

network_body._body_endoder.pre_attention.query.bias f4 [56]
00000000: 0000 0000 0000 0000 0000 0000 0000 0000
00000010: 0000 0000 0000 0000 0000 0000 0000 0000
00000020: 0000 0000 0000 0000 0000 0000 0000 0000
00000030: 0000 0000 0000 0000 0000 0000 0000 0000
00000040: 0000 0000 0000 0000 0000 0000 0000 0000
00000050: 0000 0000 0000 0000 0000 0000 0000 0000
00000060: 0000 0000 0000 0000 0000 0000 0000 0000
00000070: 0000 0000 0000 0000 0000 0000 0000 0000
00000080: 0000 0000 0000 0000 0000 0000 0000 0000
00000090: 0000 0000 0000 0000 0000 0000 0000 0000
000000a0: 0000 0000 0000 0000 0000 0000 0000 0000
000000b0: 0000 0000 0000 0000 0000 0000 0000 0000
000000c0: 0000 0000 0000 0000 0000 0000 0000 0000
000000d0: 0000 0000 0000 0000 0000 0000 0000 0000
0.0 0.0 0.0 0.0 0.0 0.0 0.0 0.0
0.0 0.0 0.0 0.0 0.0 0.0 0.0 0.0
0.0 0.0 0.0 0.0 0.0 0.0 0.0 0.0
0.0 0.0 0.0 0.0 0.0 0.0 0.0 0.0
0.0 0.0 0.0 0.0 0.0 0.0 0.0 0.0
0.0 0.0 0.0 0.0 0.0 0.0 0.0 0.0
0.0 0.0 0.0 0.0 0.0 0.0 0.0 0.0

network_body._body_endoder.pre_attention.value.bias f4 [56]
00000000: 39cd 7f3d b915 223d 51c3 4abd 1ead 65bb
00000010: da87 68bc d22d 033d a77a 5b3c 2b77 24bd
00000020: 9b7a 2abd e009 c63a 973f 76bc f924 cd3c
00000030: d7a1 7f3b f865 3d3c d199 573d 79d9 31bd
00000040: ff43 38bc ee3d 84bd a96d 42bd c40c cf3c
00000050: c944 ac3c b79e 373c 0e50 6dbb 6a6e 81bc
00000060: 8e48 323d 435c 9c3c e0e3 2bbc 42e8 2a3d
00000070: 351f 903a 5be8 6e3d 1213 4abc 9951 473d
00000080: 9b49 e7bc 63c6 663d 2ae7 ef3c f8f6 a93c
00000090: 2990 253d 231d 1b3c 4aa6 053d 55c3 ea3c
000000a0: a845 4d3c 9905 02bd fb19 103d 2c65 aa3c
000000b0: 7699 a33c 1ad6 b3bc f5f4 f6bc 5b7c 18bd
000000c0: 5883 473b ed02 95bd 89c0 893c 1669 963c
000000d0: 6da5 4dbd 90c2 32bc b4ba 803c 575e 26bd
0.062451575 0.039571498 -0.049502674 -0.0035045813 -0.014192546 0.03202612 0.013395942 -0.04015271
-0.041620832 0.0015109144 -0.015029809 0.025042044 0.0039006376 0.011559956 0.052636925 -0.04342029
-0.01124668 -0.06457125 -0.04746786 0.025274642 0.021028893 0.011207274 -0.0036211046 -0.01579972
0.043526225 0.019086963 -0.010491341 0.041725405 0.0010995629 0.05832706 -0.012333648 0.048661802
-0.02823334 0.05634154 0.029285032 0.020747647 0.040420685 0.009467396 0.03262929 0.028657595
0.012528814 -0.03174362 0.035181027 0.020800196 0.019970637 -0.021952678 -0.030146101 -0.03722797
0.0030443277 -0.07275949 0.01681544 0.018360656 -0.05020659 -0.010910645 0.015714027 -0.040617313

network_body._body_endoder.pre_attention.norm.weight f4 [56]
00000000: 6c2c 753f 2f52 723f 5f6c 783f 0a44 733f
00000010: bd26 753f 36db 873f 8c8d 613f a8e9 7d3f
00000020: 0fa4 7e3f a82c 673f 2822 6a3f f917 733f
00000030: 963a 703f 9f7d 883f bcd0 7b3f 7f51 773f
00000040: 0126 743f 234b 7c3f 892e 7b3f 2d47 773f
00000050: de5c 693f 4eca 723f 5fb0 673f d85a 623f
00000060: c151 743f ff0c 833f 620b 653f f616 753f
00000070: d9bc 693f 0e7a 7c3f f28b 653f 1da2 813f
00000080: 170d 6a3f fd19 723f e9f6 763f 77ce 593f
00000090: a582 5b3f 215d 773f f2bd 5c3f 0688 6e3f
000000a0: 2f8e 6b3f 0016 743f 0a38 793f f76b 653f
000000b0: 902a 913f 95dc 873f 4482 833f b7b8 7a3f
000000c0: f3f3 833f d2cd 813f dbf2 883f 4442 753f
000000d0: 879b 713f 7ed2 8e3f faf8 633f e68d 913f
0.9577091 0.9465665 0.9704036 0.95025694 0.95762235 1.0613773 0.8810661 0.99184656
0.99469084 0.90302515 0.9145837 0.94958454 0.93839395 1.0663337 0.9836538 0.9660873
0.9537049 0.9855215 0.9811788 0.9659298 0.9115733 0.9483994 0.90503496 0.88419867
0.95437247 1.0238341 0.89470494 0.9573816 0.91303784 0.9862374 0.89666665 1.0127598
0.91426224 0.94570905 0.96470505 0.85080665 0.8574622 0.9662648 0.86227334 0.93176305
0.9201383 0.9534607 0.97351134 0.89617866 1.1341114 1.0614191 1.0274129 0.979381
1.0308822 1.0140936 1.0699114 0.9580424 0.9437794 1.1157987 0.89051783 1.1371429

network_body._body_endoder.pre_attention.norm.bias f4 [56]
00000000: af4d d73b e0b5 ebbb 98f5 3a3d e054 113a
00000010: f3dd 4c3d a2ee 053c 8a23 c33c 732d 3c3d
00000020: 09ee 853c 0fb4 093d b064 7a3d 3cf0 58bd
00000030: cad4 fbbc ddb5 2fbc 7b0b 25bd 89fc 2a3d
00000040: 560e 9fbc b211 fe3c 65f8 633d 8738 713c
00000050: 1302 823c 6c32 57bd ff87 0bb8 2d84 b63c
00000060: 888f ffbc ff4f 753c d9e0 f2ba b537 23bc
00000070: f78b 063d 1c97 ecbc 66e4 973d b5de 71bc
00000080: cea2 f23c f70c debc 0fdb 58bd 3814 613c
00000090: c128 33ba 5dbc 9abc 011c b63b 5910 40bd
000000a0: 4c61 f5bb fb11 0c3d fef4 32bd 2b73 cabc
000000b0: ee4a edbb 659e ae39 498a 153c 4b42 403a
000000c0: 4fa4 1d3c d8f7 49bc 44a7 8abc ec69 14bd
000000d0: 39ec ef3c 5727 00ba 7e6d 2b3b 0a3f c1bc
0.00657054 -0.007193312 0.045644373 0.00055439584 0.050016355 0.00817457 0.023820657 0.04594178
0.016348856 0.033618983 0.06113118 -0.05296348 -0.030741114 -0.010724512 -0.04029415 0.041744743
-0.019416016 0.031014297 0.05565681 0.01472295 0.01587013 -0.05253832 -3.326684e-05 0.022279823
-0.03119637 0.014972686 -0.0018530145 -0.009962012 0.032848325 -0.028880648 0.074166104 -0.01476257
0.029618647 -0.027105791 -0.052943286 0.013737731 -0.0006834381 -0.018888647 0.0055575375 -0.04689059
-0.0074884053 0.034196835 -0.043690674 -0.02471312 -0.0072415983 0.0003330588 0.009127208 0.0007334097
0.009621694 -0.012327157 -0.016925462 -0.036233827 0.029287444 -0.00048886746 0.0026157792 -0.02358963

network_body._body_endoder.post_attention.query.bias f4 [112]
00000000: 0000 0000 0000 0000 0000 0000 0000 0000
00000010: 0000 0000 0000 0000 0000 0000 0000 0000
00000020: 0000 0000 0000 0000 0000 0000 0000 0000
00000030: 0000 0000 0000 0000 0000 0000 0000 0000
00000040: 0000 0000 0000 0000 0000 0000 0000 0000
00000050: 0000 0000 0000 0000 0000 0000 0000 0000
00000060: 0000 0000 0000 0000 0000 0000 0000 0000
00000070: 0000 0000 0000 0000 0000 0000 0000 0000
00000080: 0000 0000 0000 0000 0000 0000 0000 0000
00000090: 0000 0000 0000 0000 0000 0000 0000 0000
000000a0: 0000 0000 0000 0000 0000 0000 0000 0000
000000b0: 0000 0000 0000 0000 0000 0000 0000 0000
000000c0: 0000 0000 0000 0000 0000 0000 0000 0000
000000d0: 0000 0000 0000 0000 0000 0000 0000 0000
000000e0: 0000 0000 0000 0000 0000 0000 0000 0000
000000f0: 0000 0000 0000 0000 0000 0000 0000 0000
00000100: 0000 0000 0000 0000 0000 0000 0000 0000
00000110: 0000 0000 0000 0000 0000 0000 0000 0000
00000120: 0000 0000 0000 0000 0000 0000 0000 0000
00000130: 0000 0000 0000 0000 0000 0000 0000 0000
00000140: 0000 0000 0000 0000 0000 0000 0000 0000
00000150: 0000 0000 0000 0000 0000 0000 0000 0000
00000160: 0000 0000 0000 0000 0000 0000 0000 0000
00000170: 0000 0000 0000 0000 0000 0000 0000 0000
00000180: 0000 0000 0000 0000 0000 0000 0000 0000
00000190: 0000 0000 0000 0000 0000 0000 0000 0000
000001a0: 0000 0000 0000 0000 0000 0000 0000 0000
000001b0: 0000 0000 0000 0000 0000 0000 0000 0000
0.0 0.0 0.0 0.0 0.0 0.0 0.0 0.0
0.0 0.0 0.0 0.0 0.0 0.0 0.0 0.0
0.0 0.0 0.0 0.0 0.0 0.0 0.0 0.0
0.0 0.0 0.0 0.0 0.0 0.0 0.0 0.0
0.0 0.0 0.0 0.0 0.0 0.0 0.0 0.0
0.0 0.0 0.0 0.0 0.0 0.0 0.0 0.0
0.0 0.0 0.0 0.0 0.0 0.0 0.0 0.0
0.0 0.0 0.0 0.0 0.0 0.0 0.0 0.0
0.0 0.0 0.0 0.0 0.0 0.0 0.0 0.0
0.0 0.0 0.0 0.0 0.0 0.0 0.0 0.0
0.0 0.0 0.0 0.0 0.0 0.0 0.0 0.0
0.0 0.0 0.0 0.0 0.0 0.0 0.0 0.0
0.0 0.0 0.0 0.0 0.0 0.0 0.0 0.0
0.0 0.0 0.0 0.0 0.0 0.0 0.0 0.0

network_body._body_endoder.post_attention.value.bias f4 [112]
00000000: d860 c53b c2be 00bb 1608 983c d354 d0bb
00000010: 5103 ed3b f380 afbb 5065 a9bc 8694 1d3c
00000020: 3b70 9f39 5418 a839 df0e 923c cbbf c13b
00000030: b044 743c e57e d2bc a959 533c 6a4d 77bc
00000040: d14a ac3c 7ee2 69ba 174f dbbb 10f0 3e3c
00000050: 0228 b73b e533 713c 178f 83bb b6ef 7bbb
00000060: b41a c0bb e245 853b 2355 45bc 55ac b23c
00000070: 5ff3 573c f70a 873c 8bb3 a6bb b381 943c
00000080: 96ad 4f3c 1b08 78bc 6991 97bc 9f3e 743c
00000090: 77ff c1bb ef2d 33bb 9882 12bc 7bd0 0f3c
000000a0: db17 e2b9 ed82 403c 0da0 e7bb 8fe3 8f3b
000000b0: 9f14 8bbc 2e1b d43a f5cc a53a 33c5 26bb
000000c0: f08a 5c3c 4685 e0bc 9eb7 88bc 66ce 843c
000000d0: 4762 583c 7f52 cdbc 1977 b93c 527e a53c
000000e0: 9be0 37bc dfb2 f53a 6e86 cbba 72a0 59bc
000000f0: 0e0a d0bb 79fe bf3b 57c4 d5bb 9ce6 763c
00000100: 2251 ae3c c376 803a 5e47 3fbb 38ac 7439
00000110: 1d05 de3b bb49 99bc 442c 403b 1f6d 3bbc
00000120: 12ed 653a e642 0dbc c933 883c 432c 14bd
00000130: a520 5d3b 41f8 993c 57ba 9f3c 4e73 27bc
00000140: 43ba d33a cd8a f13b c5d2 08bb 05c3 c33c
00000150: 7843 b63a 2379 bfbb 98c4 773b 26ef 8dbc
00000160: bd4b 6cbc 8c5a 0abc e099 19bd f8f3 6bbc
00000170: 6488 443c 85d7 5e3c ff39 113c 077f 13bc
00000180: f69d 6dbc 6bfc 463c 676f b1bc 06ce 233c
00000190: 810f cabc fbc2 23bc 40e3 0cbb 39c0 2cbc
000001a0: 469d 823c 1e46 7dbc a1ad e4bb f0a5 07bd
000001b0: f18d 23bc 2eb3 0cbb 172a b1bc 8c78 c139
0.0060235076 -0.001964495 0.018558543 -0.006357768 0.0072330614 -0.005355948 -0.020678192 0.00961793
0.00030410461 0.00032061583 0.017829357 0.005912756 0.0149089545 -0.025695274 0.012899795 -0.015094141
0.021031769 -0.00089219946 -0.006692778 0.011653915 0.005589486 0.014721845 -0.0040148604 -0.003844244
-0.0058625583 0.0040671686 -0.012044224 0.02181069 0.013180583 0.01648472 -0.005087321 0.018128252
0.012675663 -0.015138651 -0.018501954 0.014907508 -0.0059203464 -0.002734061 -0.008942269 0.008777733
-0.00043123853 0.011749965 -0.00706864 0.004391141 -0.016977606 0.0016182417 0.0012649583 -0.002544713
0.01346086 -0.0274073 -0.016689118 0.0162117 0.013207025 -0.025063751 0.022639798 0.020201836
-0.011222984 0.0018745324 -0.0015527734 -0.013282882 -0.006348855 0.005859193 -0.0065236497 0.01506963
0.021278922 0.0009801019 -0.0029186825 0.0002333381 0.006775512 -0.018711915 0.002932326 -0.011439591
0.0008770983 -0.008621907 0.016626256 -0.036175024 0.0033741381 0.018795134 0.019498033 -0.010220362
0.0016153533 0.0073712827 -0.0020877582 0.023896703 0.0013905605 -0.005843298 0.0037806388 -0.017325949
-0.014422354 -0.00844444 -0.037500262 -0.014401428 0.011995409 0.013601189 0.008863925 -0.009002454
-0.014502993 0.012145142 -0.021659566 0.00999785 -0.024665596 -0.009995217 -0.0021497756 -0.010543876
0.015944134 -0.015458612 -0.006978706 -0.033117235 -0.009982572 -0.0021469104 -0.021626515 0.00036901643

network_body._body_endoder.post_attention.norm.weight f4 [112]
00000000: 71f6 783f a559 7c3f 0d7f 7f3f ce6a 7c3f
00000010: 69c8 833f 0380 863f 091d 823f 5dfe 813f
00000020: fec1 7c3f 0a37 7e3f 8203 813f c72b 803f
00000030: 6af7 853f 443a 763f 8b0a 7f3f 30ec 803f
00000040: 98db 773f 3215 7c3f 1288 733f 04cd 7f3f
00000050: 42d6 733f dc72 773f 986a 773f eccb 763f
00000060: 8692 7d3f 1d02 673f 7825 7b3f 9c50 7e3f
00000070: 4644 813f 5c7d 813f 3cd6 7b3f 4a52 7f3f
00000080: dc06 833f 40a4 763f 44b4 723f f2c1 733f
00000090: 2851 833f 50e9 813f e642 883f 3a3b 753f
000000a0: b62d 813f 1f1b 723f 90ba 7a3f 7288 7b3f
000000b0: 44c5 7c3f d05c 853f 6e2b 743f 663d 7f3f
000000c0: 8d39 833f 0a77 803f 8a13 753f 89c5 793f
000000d0: 43dc 7f3f 65ec 703f 8e6e 813f fe07 7b3f
000000e0: b065 803f bcd8 793f 8c29 843f a03b 843f
000000f0: b4c8 7e3f f96e 823f 7e08 863f 78f0 853f
00000100: 79da 803f 70d4 7c3f 3465 853f 3397 813f
00000110: 2f19 863f a56a 733f 3144 803f 3d64 7c3f
00000120: 2235 833f 77d3 7b3f 0b36 7b3f 79b8 783f
00000130: f39e 793f ef17 893f a10c 803f c343 6c3f
00000140: 065a 7d3f d9ed 763f e9f2 773f 1205 793f
00000150: 5534 843f 39e1 813f 1735 7b3f 8688 7f3f
00000160: 4199 853f 6f4a 7e3f b77a 7e3f 970e 7d3f
00000170: 4dcf 7d3f 1806 803f f525 813f bd3c 803f
00000180: fed7 803f 58a6 843f 9d02 7b3f c0d1 803f
00000190: d9d3 773f fc77 7c3f 5e41 7e3f 8517 853f
000001a0: a5a5 853f 4585 833f edc0 7d3f 59d5 753f
000001b0: 0ae4 823f f261 753f 2d34 7b3f 6077 7c3f
0.9725104 0.98574287 0.9980324 0.9860047 1.0295535 1.0507816 1.0165111 1.015575
0.9873351 0.9930273 1.0079195 1.001336 1.046613 0.96182656 0.9962546 1.0072079
0.9681945 0.9846984 0.951295 0.99922204 0.95248806 0.96659636 0.96647024 0.9640491
0.990517 0.902376 0.9810405 0.9934175 1.009896 1.0116382 0.9837377 0.9973494
1.0236468 0.96344376 0.94806314 0.9521781 1.0259142 1.0149326 1.0645416 0.957935
1.0092075 0.94572634 0.9794092 0.98255074 0.98738503 1.0418949 0.9537877 0.9970306
1.0251938 1.0036328 0.9573294 0.9756704 0.9994547 0.9411071 1.0111864 0.9805907
1.0031033 0.97596335 1.0325179 1.0330696 0.99525 1.0190116 1.0471342 1.046401
1.0066673 0.98761654 1.042151 1.0124267 1.0476435 0.950846 1.002081 0.9859045
1.025059 0.98369545 0.9812934 0.9715648 0.9750816 1.0710429 1.0003854 0.92290896
0.9896549 0.96456677 0.96855026 0.9727336 1.032847 1.0146858 0.98127884 0.99817693
1.0437394 0.99332327 0.99406 0.9885039 0.9914444 1.000186 1.0089709 1.0018536
1.0065916 1.0363264 0.9805086 1.0064011 0.9680763 0.9862058 0.9931849 1.0397803
1.0441176 1.0275046 0.99122506 0.9602867 1.0225842 0.9585258 0.9812649 0.9861965

network_body._body_endoder.post_attention.norm.bias f4 [112]
00000000: 0a47 9b3c 58c0 053c 0ea8 b63c 2f07 09bc
00000010: f8f0 33bc d358 a83a 192c 96bc 8512 2a3c
00000020: b33c 383a 842d 98bb 084c 143d 42d3 6f3c
00000030: 02b0 383a 28f7 babc d04a 913c 2ffd 46bc
00000040: e4ca f33c 28d4 33bc b66a 863b 00c8 a33c
00000050: 86d4 493c d5c1 793c 2e2a 2bbc cb1f 12bc
00000060: b71d 0ebc d955 b13b a153 99bc 17f6 d53c
00000070: e24a 183b 7739 133c 55ae d73a b4d3 e03c
00000080: ad70 243c 0ee1 5cbc c920 81bc 3e35 a63c
00000090: 1f92 80bb 383c 07bc 40fa 87bb 6a03 16ba
000000a0: dec6 20bb df07 523b 02de 8539 8b8b 26bc
000000b0: 6ce2 97bc 2d74 593b 34d6 61bb b0da 5cbc
000000c0: 5e07 4f3c 1640 20bd fb6e 53bc bb86 bc3c
000000d0: 35dd 533c 6c2f ecbc f916 bc3c 381b d33c
000000e0: bb08 36bc 34a0 823b 1ac1 c93b de35 e0bb
000000f0: 98ae 9cbb 18d3 4fbb 11fe c5bb 1a84 7f3b
00000100: 6c22 ac3c 9945 153b c3c7 c4bb 8787 0cb8
00000110: ad76 7b3a eaa6 61bc 44a7 0f3b 1477 96bc
00000120: d5c4 b0ba fe60 89bc 1d2f d53c 8f52 3abd
00000130: 0f53 cf3b f76b 993c 3ff6 d73c a62b 953b
00000140: 04be 3a3c 70d9 933c 8b1e 9b3c 5dc1 033d
00000150: 5584 123c 05b4 473a 448c 23bc b266 c8bc
00000160: 9125 aabc 5570 10bb 745e 0dbd 4850 8abc
00000170: eb26 4f3c f997 bb3c 6724 8d3c c89d cebb
00000180: 21a8 b0bc f0d4 cd3b 1e34 a7bc 6a15 07bb
00000190: 59b3 1bbd c70f b7bc e78f 523b 9cce f0bb
000001a0: bafe f43c eb9d 8ebc f58b 2fbc dd52 53bd
000001b0: bdc4 2cbc 212d 12bc e312 46bc 629e 77bb
0.018954773 0.008163534 0.022296932 -0.008363529 -0.010982744 0.0012843854 -0.018331574 0.010380392
0.0007028088 -0.0046440978 0.03620532 0.01463777 0.000704527 -0.022822931 0.017735869 -0.012145325
0.029759832 -0.010975875 0.0041020764 0.019992828 0.012318736 0.015243967 -0.010447068 -0.008918713
-0.008674077 0.005411845 -0.018716635 0.026118321 0.0023237993 0.008985869 0.0016455153 0.027444698
0.01003663 -0.013481392 -0.015762703 0.02028906 -0.003923669 -0.008254103 -0.004149705 -0.00057225546
-0.0024532597 0.0032048149 0.00025533146 -0.010165106 -0.018540584 0.0033180818 -0.003445995 -0.013479874
0.012636034 -0.039123617 -0.012904878 0.023013463 0.012931158 -0.028831206 0.022960173 0.025769815
-0.01111048 0.003986383 0.0061570527 -0.006842359 -0.0047815554 -0.0031711515 -0.00604225 0.003898865
0.021012507 0.002277708 -0.0060052588 -3.350482e-05 0.0009592574 -0.013772706 0.0021919766 -0.018367328
-0.0013486395 -0.016769882 0.026023442 -0.04548889 0.00632704 0.01872824 0.026362536 0.0045523224
0.011397842 0.018048018 0.018935462 0.032166827 0.008942683 0.00076180726 -0.009982172 -0.024463031
-0.020769866 -0.0022039611 -0.034513906 -0.016883984 0.012643556 0.022899615 0.017229272 -0.00630543
-0.021564545 0.0062814876 -0.020410594 -0.002061213 -0.038012836 -0.02234639 0.003212923 -0.0073488485
0.02990662 -0.017409286 -0.010714521 -0.051592696 -0.010544953 -0.008921892 -0.012089464 -0.0037783612
