Assets/oon/Lidar.onnx (onnx, 116216 bytes, 27 tensors)

network_body.observation_encoder.processors.0.fc.seq_layers.0.weight f4 [22, 22]
00000000: c45d 2bbe 4a72 9c3d 216a b5bd bdcd 86be
00000010: 486d 3e3e 0f96 a13e 7cf0 a5be c5ba 333d
00000020: dbfc 9abe 30f9 453e 7e06 b9be 040d 49bd
00000030: 148b 23bc 13f2 8b3d 0864 3dbe 8f6a 06be
00000040: aa27 9c3e 5f2d ecbd 994e 5abe 393d f33d
00000050: a62f 7c3e c57c 953d 30e2 30be 3456 11be
00000060: 16a5 a23e ee06 03be 7f15 edbd 22af 083d
00000070: 4580 77bd bc9f 7dbe aa4a 553d ace5 50bc
00000080: 28a0 be3e 8f32 543e 6b83 173d b95d d7bd
00000090: 83da 9cbc f5e8 113d 016d 9d3d 81bf e63d
000000a0: 8083 5a3e 0bfc 6e3e 82c2 d2bd 3136 bb3e
000000b0: 31be 643d 950c e9bd 12c9 70be b04e a03e
000000c0: d713 9b3b f036 abbe 4de4 0abe 2351 0bbd
000000d0: 79e9 2e3e 2237 e43d 0219 da3d 8fa2 cabe
000000e0: 7a4b d53d 775e 69be cd80 d8bc efc6 323e
000000f0: 47ee fbbe 0235 5cbe d665 8f3e ec02 02bd
00000100: 05a6 62be e44b 32bd 2c5f c13e 4d91 ea3c
00000110: 4249 ac3e a255 b4be 0151 00bd 939d 6c3e
00000120: 9dbe 1dbe 7b0b 653d 8a62 edbd fd01 15be
00000130: f327 013e 7c93 a13e 33fc 61be e9ea cebc
00000140: 4391 f13d 45dd 893e c96d 3abe aa4d 0f3e
00000150: 0835 73be 973c b7be a5ce c63e 3951 d3bd
00000160: f4b0 47bd 1729 40bd 40ea c43c d29e 873e
00000170: 2e1a a93e de16 60be 9ede c1be cb6d cabd
00000180: c87e 493e f578 543e abdf 263e 5b7e 173e
00000190: 06e3 dabd df32 8bba 49b6 7a3d 34a7 693e
000001a0: 22fb 243e b6c6 4bbe 7de4 87be 1443 b9bd
000001b0: a971 8fbe e45d 9abe 395a 55be 95ee ba3e
000001c0: 901c 2f3e 2a53 a33e 171b 503d a8c6 cfbd
000001d0: ae40 313e 4eb9 93be 014e 5a3d d1af d33e
000001e0: 6c61 b03e 4526 583d 7e25 903d a46d 473e
000001f0: 2941 3abd d432 8b3e 74b2 05bd 1834 8d3d
00000200: 3b7b 443d 001d 6abe 0113 4d3c d3ba 22be
00000210: f76c 463e ab75 a43d f6de cbbe 7ea0 5e3e
00000220: e963 40be 67bd 8e3e 1a3f 3dbe 897b 293d
00000230: 6f0c 48be 9f9e 9dbd d927 843e f47a 143e
00000240: f0c8 2f3d 76fe 9ebe 56bc 0f3e 359d 84be
00000250: 48fa afbd 3019 e13d b3a5 34be d6ef f53d
00000260: bf5d 293e ea19 82be 9360 6d3d f785 6dbe
00000270: ce8d 313e 3ca7 bcbe 0ba7 7d3e 5ce5 d33d
00000280: b6f8 a4bd 34f4 ac3e b116 34be 1549 943e
00000290: 7dbb 3ebd f8ca 203e fc4a 06bd edc8 343d
000002a0: 740c 7ebe 2262 7b3e 66b3 44bd afe8 bdbe
000002b0: b86c 2b3e 3283 75be e6f4 3abe a9a0 ffbe
000002c0: 337e 183d 3b8b a8bd 0e34 ba3e 7999 1abe
000002d0: 64ff 1dbe 2206 a8bd 3f13 893e 71bf 96be
000002e0: d7dc 473e 1312 8b3d cd33 dc3d 3053 9b3d
000002f0: f204 693e 6149 eb3d b605 273d 1da4 2f3e
00000300: a8bf 50bd 5c26 dbbd d2c6 17be 96ac 0c3e
00000310: a46f c0be 9190 c1bd d402 50be 8b54 2f3e
00000320: e108 f2be 2b47 5e3d d205 fb3e 5bab 36be
00000330: e1b2 9d3e ad65 bdbd 3bb6 c73d 7a73 7fbe
00000340: 0716 ccbc 77bb 50be 39a2 203e 543d a63d
00000350: aead f8be 48ec b5be 97b2 b9bd 49e4 033e
00000360: 3e92 fcbe 5b98 40be 03fa 43be 0eb4 32be
00000370: dcda 063d e2f2 8d3d 3f9e 893c b6af e23d
00000380: 48a3 7a3e 1b8b b53d 2134 eebd 5352 abbe
00000390: ab5a 02be 5e10 dbbc 633e db3d 1424 f3be
000003a0: f971 e63d 035c 53be 5463 463c 8e1d 9cbc
000003b0: 7dbd 9bbe 4523 b33e 43d4 83be 315b 953e
000003c0: d8f0 a63d c085 303e 8f9e 0d3d 8d0a b33d
000003d0: cf58 083d 688a 3e3e 3210 71bd 0c38 c33c
000003e0: 1a92 b03e 02ce 4cbd c0e1 c2bd b6c3 28be
000003f0: bd8a 843e 156e c1bd 74bd 2e3e 659e efbd
-0.16734987 0.076389864 -0.08858133 -0.2632884 0.18596375 0.31559798 -0.32410038 0.04387929
-0.30271038 0.19333339 -0.36137766 -0.04908468 -0.009981889 0.06833281 -0.1849519 -0.13126586
0.3049901 -0.11532091 -0.21319045 0.11876912 0.24627551 0.072991885 -0.17273784 -0.1419304
0.31766576 -0.12795612 -0.11576366 0.033370145 -0.06042506 -0.24767965 0.05207316 -0.012750071
0.37231565 0.20722412 0.036990564 -0.10515923 -0.019147163 0.035622556 0.076868065 0.11266995
0.21339226 0.23338334 -0.10291006 0.36564782 0.055845443 -0.11379353 -0.23514202 0.31310034
0.0047325897 -0.3344035 -0.13563652 -0.034012925 0.1708125 0.11143328 0.10649301 -0.39577147
0.10414787 -0.22789942 -0.026428604 0.174587 -0.4920523 -0.21504596 0.28007382 -0.031741068
-0.22133644 -0.043529406 0.37767923 0.028633738 0.3364964 -0.35221583 -0.03132725 0.23106985
-0.15404744 0.05591915 -0.115910605 -0.1455154 0.12612896 0.31557834 -0.22068863 -0.025258498
0.117952846 0.26926628 -0.18205942 0.1399447 -0.23750699 -0.35788414 0.38829532 -0.10318226
-0.04875274 -0.046914186 0.02403748 0.26488358 0.33027786 -0.21883723 -0.37865156 -0.098842226
0.1967727 0.20749266 0.1629626 0.14794295 -0.106878325 -0.0010620019 0.061208997 0.22817689
0.16111425 -0.19900021 -0.2654151 -0.09045997 -0.28016403 -0.30149758 -0.20835198 0.3651015
0.1710074 0.31899387 0.050807085 -0.101453125 0.1730983 -0.28852314 0.053297047 0.41345075
0.34449327 0.05277087 0.07038401 0.19475418 -0.045472298 0.27187216 -0.03264089 0.06894702
0.047969084 -0.22862625 0.012516738 -0.1589158 0.19377504 0.08030256 -0.39818543 0.2174091
-0.18788113 0.27878878 -0.18481103 0.041377578 -0.19535993 -0.0769627 0.2581165 0.14500028
0.04291624 -0.31053513 0.14036688 -0.2590119 -0.08592659 0.10991132 -0.17641334 0.12008636
0.16539668 -0.25410396 0.05795343 -0.23195635 0.1733925 -0.3684634 0.24770753 0.10346481
-0.0805525 0.33780062 -0.17586781 0.28962007 -0.04656552 0.15702426 -0.032786354 0.04413693
-0.24809438 0.24549153 -0.04802265 -0.37091586 0.16740692 -0.23975828 -0.18257484 -0.4992726
0.037229728 -0.08229681 0.3636784 -0.15097608 -0.15429455 -0.08204295 0.26772496 -0.29442933
0.19517837 0.06790557 0.10752068 0.07584226 0.22755793 0.11488605 0.04077693 0.17152448
-0.050964028 -0.10700676 -0.14821938 0.13737711 -0.37585175 -0.09451402 -0.20313579 0.17122094
-0.472724 0.05426709 0.49027878 -0.17838804 0.30800536 -0.09247909 0.097515546 -0.24946395
-0.024912847 -0.20384012 0.15686883 0.08117166 -0.48570007 -0.3553183 -0.090672664 0.12880053
-0.49330324 -0.18808119 -0.1913834 -0.17451498 0.032923564 0.06931092 0.01679909 0.110686705
0.2447635 0.08864423 -0.116310365 -0.33461246 -0.127299 -0.026741203 0.10705259 -0.47488463
0.11252207 -0.20640568 0.012108643 -0.019057062 -0.30418006 0.34987846 -0.2574788 0.29171136
0.08151406 0.17238522 0.03457504 0.08742247 0.03328782 0.18607485 -0.058853336 0.023830436
0.34486467 -0.05000115 -0.09515715 -0.16480908 0.258871 -0.094448246 0.17064458 -0.11700133

network_body.observation_encoder.processors.0.fc.seq_layers.0.bias f4 [22]
00000000: 3106 a4bb 4496 a3bc c804 a43c 86de 6abd
00000010: 7ce1 3f3b 96f2 08bd 8538 5abb 3a51 fbbc
00000020: 4855 003d 38bb cf3c 2d38 813b 1a9c f23b
00000030: 4603 c43c e431 9cbc 5f24 3f3c aa3b cbbc
00000040: 2679 34ba 119c acbc 7dda 1e3d 471a b7bc
00000050: 339f 42bc 1968 29bc
-0.005005621 -0.019969113 0.020021811 -0.05734112 0.0029278686 -0.033434473 -0.0033297848 -0.03067838
0.03133133 0.025357828 0.0039434643 0.0074038627 0.023927342 -0.019066758 0.011666386 -0.024808723
-0.00068845076 -0.021070512 0.038782585 -0.022351397 -0.011878776 -0.01033976

network_body.observation_encoder.processors.0.fc.seq_layers.2.weight f4 [22, 22]
00000000: df3b 543e 1363 d8be a535 283d eec0 98bd
00000010: 357b 433c eb70 943e e685 9bbd 2d02 8fbd
00000020: 966e 163e 417a b7bc d7d2 dcbd 28e3 41be
00000030: 1655 96be 2ea6 b1bc e949 613e fb47 18bc
00000040: faa0 133e 0765 05be 7479 86be 0472 62be
00000050: 5b61 99bd a10c 973c c535 18be aca6 383e
00000060: f2b6 9cbd 8af4 823d f7dc 16bf 00de 1e3e
00000070: 03b4 77b9 d350 a53e d984 103d c4e7 64be
00000080: 8984 4ebe 069d c83e 8b20 dabd c350 893e
00000090: c866 aa3e aca2 7b3e be04 21be bcb7 0a3b
000000a0: b43e d6be 55af 8c3d f170 4e3e 3a48 bb3d
000000b0: 6154 19be f5da e2bc f357 e5bb 81b9 ce3d
000000c0: a431 4abe db88 f33d 7016 473e 0164 0c3d
000000d0: bd2f 9b3e 56a9 063f c522 b03d 86a6 3d3e
000000e0: 16c0 b53e 6bb4 5c3d 6412 343e 1e54 8fbc
000000f0: e415 f7bd 5f08 d13e 2120 12be 2d6f 0dbe
00000100: f562 cb3e 2b87 ac3c 3494 713e 816a 7bbe
00000110: 6848 4bbe 07cf 153e 5286 483e 8d87 b53c
00000120: 5d09 96be 8293 78be 5c2c 063e 52c2 d3bd
00000130: c7ae 983e 8fc7 013f ab28 1a3e d894 5fbe
00000140: ca37 f0bd 60c1 64be 074f cabd efdd 06bf
00000150: 7f14 9e3e e142 5cbd 6631 dcbe 07ff de3b
00000160: 2729 713c 3466 9a3e 8ddb c4be d25c 8bbd
00000170: 7d53 9dbc a290 303e 1504 94bd 735f af3c
00000180: 3b53 a83e ebb1 8f3e 3308 803e 5fc8 98bd
00000190: 59fc 25be 848e 56bd 4abf 9cbd 2fa4 5e3e
000001a0: 5e34 993e fc55 343c 7e2d 5cbe dddf 16be
000001b0: 8af1 abbe 8515 81be db17 16be 77d7 503d
000001c0: a12e d93e 9e35 3c3e 0883 80be 6868 dabe
000001d0: be2d 62be 9e4c d23d 6109 003f ba6f dabe
000001e0: 47f9 393e c851 5bbd b27c 51be a5ba 02be
000001f0: af6b cbbe ee9d 92be c4ad 6d3e 5d9a 243f
00000200: 6685 523e d8c9 163d 7597 933e a30e a03e
00000210: ed52 d13c a825 efbd 8559 8ebe c162 8d3d
00000220: 332c 633e 28cc 81bd c1af 8dbe bab3 a9be
00000230: b08e f1be fc13 ee3e ef0f 013d 1374 3c3e
00000240: 7951 873e e4e8 a0bd 0f6b 9e3d 0d74 d73d
00000250: 2c03 603d 296a 523e 6978 0bbe 1cf6 1abd
00000260: 6060 593d b3ef 8e3d a862 653e d1fd 083c
00000270: 7a7e 323b a350 2cbe 0756 7c3e 8a07 abbd
00000280: 4559 23be 4dec 0f3e 696b c03e e3c2 c23c
00000290: 51e3 3cbd 1f86 f93d 081e 01be dcb6 e1be
000002a0: 7c0f 003e 1663 07bd 8184 7abe 8ba5 d43d
000002b0: 62a7 293e 47f5 c5be d9c4 d43e 0674 7cbe
000002c0: e4d0 333e 8b9d 5dbe 0a3e 823e cab2 24be
000002d0: 6495 22be 443b ba3d bb9b 6dbe a502 b637
000002e0: 53df 8fbc f653 5e3e ec76 ffbd fec0 d23a
000002f0: 836c 8b3e 5995 083e 274e e93e 5941 aebe
00000300: aede 42be 4526 d8bd 6785 96be 3a34 abbd
00000310: 9e5a 24bc 8074 003d 83a8 2ebe 0db8 98be
00000320: 3122 99be 62ec 98bd 5b35 443a a241 9ebe
00000330: 7873 8a3c a150 29be 9442 893d 8a80 e0bd
00000340: 6f6c ab3c d096 223e ba0c bbbc 4bc6 783d
00000350: d5c1 00bd 42f8 d13d 8a94 fd3c 00bf df3e
00000360: c6ab 40bd 83b7 733e 4663 063e 39c5 b7bc
00000370: 2155 4dbe c062 dabd 8b02 63be 6be0 3d3e
00000380: 1cee 8f3d 77ee de3d ecac 15be f975 0e3e
00000390: 3696 89be e13a 48bd 21a9 e63d cb71 a83e
000003a0: ef2f 85bc e807 3e3d 5844 10be ecdb cfbe
000003b0: f1bd c2bd 8ec5 803b a155 9bbc 5e5d 723e
000003c0: 9a0c 0e3d d669 e3be f41a 463e 60d0 6b3c
000003d0: 75b1 293d 6fe0 4dbe d195 043e 2852 cc3d
000003e0: 35f0 413c 0fe0 023e 5323 51be f7d4 d8be
000003f0: 027e 6fbc 93ee f5bc f8b3 f4be 066c dcbd
0.20725964 -0.42263088 0.041066784 -0.074586734 0.01193123 0.289924 -0.075938985 -0.06982837
0.14690623 -0.022397162 -0.10782402 -0.1893431 -0.2936179 -0.021685686 0.2200085 -0.009294505
0.14416876 -0.1302682 -0.26264536 -0.22113806 -0.07489272 0.01843864 -0.14864261 0.1803233
-0.076520815 0.063942984 -0.58930916 0.15514374 -0.00023622815 0.32288226 0.035282943 -0.22354037
-0.20167746 0.391823 -0.10650738 0.2681943 0.3328154 0.24573773 -0.15724465 0.0021166643
-0.41844714 0.068693794 0.20160271 0.091446355 -0.14973594 -0.027692297 -0.0069990098 0.10093976
-0.19745499 0.118913375 0.19442153 0.03427506 0.3030986 0.52602136 0.08600382 0.18520555
0.35498112 0.053882997 0.1758514 -0.017496165 -0.12064722 0.408267 -0.14270069 -0.13811941
0.39723936 0.021060547 0.23591691 -0.24552347 -0.1985184 0.14629756 0.19582489 0.022159362
-0.2930402 -0.2427502 0.1310286 -0.10339798 0.29820845 0.5069513 0.15054576 -0.21834123
-0.11729391 -0.22339392 -0.098783545 -0.52682394 0.30875012 -0.05377472 -0.43006438 0.006805304
0.014719284 0.301561 -0.38448754 -0.068048134 -0.01920485 0.17242673 -0.07227341 0.021407818
0.32876 0.28065428 0.25006256 -0.07460093 -0.16209544 -0.052382007 -0.07653673 0.21742319
0.29922765 0.011006828 -0.21501729 -0.14733835 -0.33582717 -0.2521173 -0.14657538 0.050986733
0.42418388 0.18379828 -0.2509997 -0.4265778 -0.22087762 0.1026852 0.5001431 -0.42663366
0.18161498 -0.05354479 -0.20457724 -0.12766512 -0.39730594 -0.28636116 0.23210818 0.6429804
0.205587 0.036813587 0.2882649 0.31261167 0.025552237 -0.11677104 -0.27802673 0.069036014
0.2218483 -0.06337768 -0.27673152 -0.33144933 -0.47179174 0.46499622 0.031509336 0.18403654
0.26429346 -0.0785692 0.077352636 0.10520182 0.054690525 0.2054831 -0.13620152 -0.037832364
0.053070426 0.06979313 0.22400916 0.008361296 0.002723603 -0.16827635 0.24642192 -0.08351047
-0.15952022 0.14054985 0.37581947 0.02377457 -0.046115223 0.12183785 -0.12609112 -0.44084823
0.12505907 -0.03305348 -0.24464609 0.10383137 0.16567758 -0.38663694 0.41556433 -0.24653634
0.17560154 -0.21642129 0.25437957 -0.16083828 -0.158773 0.09093335 -0.23203938 2.1697322e-05
-0.017562544 0.21711716 -0.124738544 0.0016079245 0.27231225 0.13338222 0.45567438 -0.3403423
-0.19030258 -0.10554174 -0.29398653 -0.08359571 -0.01003137 0.031361103 -0.1705647 -0.2982792
-0.29908898 -0.074669614 0.0007484757 -0.3090945 0.016900763 -0.16534664 0.06702152 -0.10962017
0.020925729 0.15877843 -0.022833217 0.060735982 -0.031434853 0.102524295 0.030954618 0.4370041
-0.047038816 0.23800473 0.13123807 -0.02243291 -0.20052005 -0.10663366 -0.22168939 0.1854264
0.07027838 0.10885327 -0.14616746 0.1391219 -0.26872414 -0.048884276 0.112627275 0.32899317
-0.016258208 0.04639426 -0.14088571 -0.40597475 -0.09508885 0.0039298004 -0.01896173 0.2366843
0.034679987 -0.44416684 0.1934622 0.014392942 0.041429 -0.20105146 0.12947775 0.099766076
0.011837055 0.12780784 -0.20423631 -0.4234998 -0.014617445 -0.030020988 -0.47793555 -0.10762791

network_body.observation_encoder.processors.0.fc.seq_layers.2.bias f4 [22]
00000000: 1ea7 3dbc d44f 893a dda5 5abc 5999 8d3c
00000010: 15e6 09bc 1525 8cbc 62bf 88bc b769 1b3d
00000020: 9041 db3b db11 583b 5ac0 ddbb 47fb 4dbc
00000030: f3b8 65bc c98d 30ba f878 bebb 93e1 eebc
00000040: 5d80 4ebc afe0 0abd 665f 723b 67df c23c
00000050: 8d73 373c 3d6a c33b
-0.011575488 0.0010476061 -0.013345209 0.017285036 -0.008416672 -0.017107526 -0.016692821 0.037942614
0.0066911653 0.0032969627 -0.006767315 -0.012572116 -0.014021146 -0.0006734995 -0.0058127604 -0.029160297
-0.012603846 -0.03390568 0.0036983131 0.023788167 0.011196983 0.0059635923

network_body.observation_encoder.processors.1.fc.seq_layers.0.weight f4 [12, 12]
00000000: 95cf 19be 5f36 6bbe 2b57 373f 1087 fe3e
00000010: 2637 0d3e d1ea eb3d 5f3a 7c3d bcc2 1fbf
00000020: 78fd 493e abce 813e b1f8 eabe 0c62 053d
00000030: 7f9d dfbe dafb e3be b441 8ebe 5517 f2bd
00000040: 8d3e fe3d d8fb 213e d446 373e 0049 81be
00000050: a097 813e a288 fd3e 9958 a33e 9182 123f
00000060: 9103 ae3d 3563 363e 299a 2d3e b6cd 71be
00000070: 83e6 0d3e 472b 85be 0144 0dbc 03d9 083e
00000080: a5eb 0fbe a12d a5be 4d0b 123d 8fbb ca3c
00000090: dfee e6bb 3a4b 70be 379f aa3e 9876 9c3e
000000a0: 6483 6b3c 60cc e2bd 10a1 9c3e cb59 813e
000000b0: 2cf3 a63e 11a3 033e f409 8cbe 075c 01bf
000000c0: 5009 f23d ee4f f33e 8c44 2e3f dec0 3dbe
000000d0: bb3e 47be 8fcc c5bd 9a88 88be 356c 403e
000000e0: cee0 623d fe30 67bc ddbc c53e aee9 c23e
000000f0: b5f7 823e 0dc5 f7bc d4bd 3cbe 709f 9cbe
00000100: 4673 0a3f 1646 82bd d8eb f23e fc91 c6be
00000110: 2b5f 45be 15f5 cabe 0ea4 08bf a108 bf3b
00000120: c474 a53e 2e23 d3bd 8d63 cdbd 1512 c73e
00000130: 68a6 99be 5df6 1d3e 2d3a b9bd a81f b4be
00000140: a7f9 1d3e 68ac d8be beef c13d 888a 323f
00000150: dd88 e6bd 4447 96be 8de1 d03e f836 2abf
00000160: 9612 e6bd ee3b 03be a4f0 5e3d 427d 86bd
00000170: ce39 853e c844 733e 8b0a 103f 8bf3 94be
00000180: 465e ff3d 9b79 8b3e f654 dc3d 9c9c a43e
00000190: 11cd 4fbd 32cb 93be a77e 8ebe 0e4a 76be
000001a0: fa86 0cbe d21d 6a3d ca82 a5be cc60 f53e
000001b0: f6d3 63bd 4630 073f f95b f4be 3230 8c3c
000001c0: e9b2 04bf 5c97 393e ae22 23bf 4121 243e
000001d0: 0822 dd3c 46d1 6c3f bca7 53bd 403b 6c3e
000001e0: dba5 29be f697 ab3e 2e49 3f3e 0ae7 453f
000001f0: bc14 6ebe d8e1 c63e 6d56 cfbc 0c73 b03d
00000200: c51c 3ebe be74 9e3e 582b dd3e 4562 6c3e
00000210: 9c32 d9bd 4b5e 84be 289d 24be 7bbf 373e
00000220: a12b 8cbe 2ec8 b0be 57a8 a73e 8d05 f5be
00000230: a20b 9a3e 38de 953e 3a41 fabd d9fc 363e
-0.15020593 -0.2296996 0.7161738 0.4971242 0.13790569 0.11519397 0.061579105 -0.62406516
0.19725597 0.25352988 -0.4589286 0.032564208 -0.43674847 -0.44528085 -0.27784503 -0.118208565
0.12414274 0.15818727 0.17898113 -0.25251007 0.25310993 0.49518305 0.31903532 0.5723048
0.08496774 0.17811282 0.16953339 -0.23613629 0.13857464 -0.2600958 -0.00862217 0.13364033
-0.14054735 -0.32261375 0.03565531 0.024747638 -0.0070475186 -0.23466197 0.33324596 0.3055923
0.014374588 -0.11074138 0.3059163 0.2526382 0.326074 0.12855174 -0.27351344 -0.5053105
0.118181825 0.4752192 0.68073344 -0.18530604 -0.19457524 -0.09658157 -0.2666672 0.18791278
0.05539017 -0.014110802 0.38620654 0.38068908 0.2557961 -0.030245328 -0.18431789 -0.3059039
0.54082143 -0.06361024 0.4744556 -0.38783252 -0.19274585 -0.39640108 -0.5337533 0.005829886
0.32315648 -0.10309444 -0.100287534 0.38880983 -0.3000977 0.15426011 -0.09044299 -0.35180402
0.15427266 -0.42319036 0.09469555 0.6974263 -0.11256573 -0.29351246 0.40797082 -0.66490126
-0.11234014 -0.1281583 0.05442871 -0.0656686 0.26020664 0.23756707 0.5626609 -0.2909206
0.12469153 0.27241215 0.107583925 0.32150733 -0.050732676 -0.28865963 -0.27831003 -0.24051687
-0.13723364 0.057157345 -0.32326347 0.47925413 -0.055622064 0.52808034 -0.4772642 0.017112825
-0.51835495 0.18124145 -0.6372479 0.1602831 0.026993766 0.92506826 -0.051673636 0.23069477
-0.16567175 0.33514374 0.1868026 0.7730566 -0.23250097 0.3884418 -0.025309766 0.086156934
-0.18565662 0.30948442 0.4319713 0.23084362 -0.10605356 -0.2585319 -0.16075575 0.17944138
-0.27377036 -0.34527725 0.3274562 -0.47855797 0.30087 0.29271102 -0.12219472 0.17869891

network_body.observation_encoder.processors.1.fc.seq_layers.0.bias f4 [12]
00000000: 6acf 833d d67f c2bc 9eb1 a53c 24d7 da3c
00000010: 9ca2 873c dd48 213c 3428 1cbc a481 b33d
00000020: aaf6 803b 65d9 a5bc 05a6 c2bc 649d 91bc
0.064360455 -0.023742598 0.020226296 0.026713915 0.01655703 0.009844032 -0.00953107 0.08764961
0.0039356546 -0.020245263 -0.023760805 -0.017775245

network_body.observation_encoder.processors.1.fc.seq_layers.2.weight f4 [12, 12]
00000000: c807 d8be 004d 4d3e 0b7c 82be 5325 713e
00000010: 0093 05bf 3cb0 acbe 04af b53e 2197 5abe
00000020: 3aba 153e 55a8 efbd eab5 9dbd 021d 333f
00000030: 36be 2a3f 77b7 b93e eb11 1abd fbca 883d
00000040: 8646 dc3d a7fe de3e e924 fbbe 6081 98be
00000050: 8f7e 24be aa2d 3e3e e524 aebd 5f47 2fbe
00000060: ce5e db3e bd26 ba3e 9f68 17bd e3f9 9e3e
00000070: e992 94be f634 b2be 300e debe e213 223f
00000080: 35c5 9b3e 236d 3fbe add9 2fbe 356f d4be
00000090: 03d6 a73e 8846 22bd 55ae 533e c8fb 2dbe
000000a0: 798f b23e d9a9 e73e eca9 49be 06de 753d
000000b0: 6230 143e 9d6b 9c3e f957 473e 5b52 15be
000000c0: 1c3b 96bc 2f3d 85bb 0ccc 0fbe 9339 143e
000000d0: 9301 e23e 0066 913e 2ba7 7b3c 85d8 293d
000000e0: b503 953d 1b7b a8be 28bc 2c3e b8ac 57be
000000f0: 01db bb3e cc55 fcbe 9095 a83e 489f c13e
00000100: a7e1 533e fff0 563e b10e a73e 0165 733e
00000110: d711 18bd f622 c1be 6732 2ebd 05b7 90bd
00000120: bf66 a43e 287c bb3e aa12 1c3e 9628 73be
00000130: 1a2b 453b fbfb fb3d aaff de3e d5f9 253f
00000140: 5d45 63bc b2bf 60bd 219d c13b 4839 94bd
00000150: 863a 0bbf d708 ce3e d0ba 5a3e fc38 0cbd
00000160: 03bc 80be caec 44bc 5f8c 9d3e a783 2d3c
00000170: 9d45 0ebe 984c 463e 1540 8bbe 4ae6 1c3d
00000180: 99f4 f93d 2b8a 203e 60bb d53e efb3 17be
00000190: 2de4 c9be 2509 1f3f 9388 1fbf ecad 633e
000001a0: 60e3 0cbd 9b60 793e e350 e2be 3458 4bbe
000001b0: b15d 8cbe 0852 273e a63d 66be 892a 76be
000001c0: 93b0 81be f304 bfbe 1bbc 033e 9c95 32bc
000001d0: 9429 6e3d 5977 463e a470 1cbe 68d0 c43d
000001e0: ee5d 15be 7a57 a8be 5ed4 d13e edbc cdbe
000001f0: 69e3 ecbc 2db1 8c3c 4f92 833e 302b 9d3e
00000200: 4bbe a73e f50f 33bf b7ca 433e 952d fcbe
00000210: 2045 5dbd fc7c e4bd d700 863d 6da4 e0bd
00000220: 3bd0 a13d ac17 703e 03b6 39bd 06b6 3dbf
00000230: 69ea 883e 9c00 1f3e 3874 7a3e efbc 853e
-0.42193437 0.20048904 -0.25485262 0.23549394 -0.5217743 -0.33728206 0.3548509 -0.21346714
0.14621821 -0.11702029 -0.07700713 0.6996614 0.6669649 0.36272785 -0.037614744 0.066793405
0.10755639 0.4355366 -0.49051598 -0.29786205 -0.16063903 0.18572107 -0.08503131 -0.1711707
0.42845768 0.3635768 -0.03696501 0.31050023 -0.29018334 -0.3480603 -0.433702 0.6331159
0.30423895 -0.18693976 -0.1717288 -0.41491094 0.32780465 -0.039618045 0.20671971 -0.16990578
0.34875086 0.4524677 -0.19693726 0.06002619 0.14471582 0.30550852 0.19467153 -0.14582197
-0.018338732 -0.0040661315 -0.14042681 0.14475088 0.44141826 0.28398132 0.01535968 0.041466255
0.07276098 -0.32906422 0.16868651 -0.2106198 0.36690524 -0.49284208 0.32926607 0.37816834
0.20691548 0.2099037 0.32628396 0.23768999 -0.03712639 -0.37721986 -0.042528536 -0.07066158
0.3210964 0.3661816 0.15241495 -0.23745951 0.0030085505 0.12303921 0.4355443 0.6483434
-0.013871518 -0.054870315 0.005908624 -0.07237488 -0.54386175 0.4024112 0.21360326 -0.034234032
-0.25143442 -0.012019346 0.30771157 0.01059047 -0.13893743 0.19365156 -0.27197328 0.03830556
0.122048564 0.15677707 0.41744518 -0.14814733 -0.39431897 0.6212333 -0.6231777 0.22234315
-0.03439653 0.24353258 -0.44202337 -0.19857866 -0.2741523 0.16339886 -0.22484455 -0.24039663
-0.25330028 -0.37308463 0.12864725 -0.0108999275 0.05814512 0.19381465 -0.15277344 0.09610063
-0.14586613 -0.3287924 0.40982336 -0.401832 -0.028917031 0.017174328 0.25697562 0.30697012
0.3276237 -0.69946223 0.19120298 -0.49253526 -0.054021 -0.111566514 0.06543129 -0.10968862
0.07901045 0.2344653 -0.045339596 -0.7410587 0.2674134 0.15527576 0.24458396 0.26120707

network_body.observation_encoder.processors.1.fc.seq_layers.2.bias f4 [12]
00000000: c37d 74bc 370b c6bb c14c 323d 6d95 88bb
00000010: ee77 bcbc d795 2f3d 7940 24bd b449 c2bc
00000020: 7982 193d 03bf abbc 7671 59bb 7898 e1bc
-0.014922562 -0.0060438174 0.04353023 -0.0041682036 -0.023006406 0.042867508 -0.04010055 -0.023716785
0.037477944 -0.020965105 -0.00331792 -0.027538523

network_body._body_endoder.attention.query.bias f4 [34]
00000000: 0000 0000 0000 0000 0000 0000 0000 0000
00000010: 0000 0000 0000 0000 0000 0000 0000 0000
00000020: 0000 0000 0000 0000 0000 0000 0000 0000
00000030: 0000 0000 0000 0000 0000 0000 0000 0000
00000040: 0000 0000 0000 0000 0000 0000 0000 0000
00000050: 0000 0000 0000 0000 0000 0000 0000 0000
00000060: 0000 0000 0000 0000 0000 0000 0000 0000
00000070: 0000 0000 0000 0000 0000 0000 0000 0000
00000080: 0000 0000 0000 0000
0.0 0.0 0.0 0.0 0.0 0.0 0.0 0.0
0.0 0.0 0.0 0.0 0.0 0.0 0.0 0.0
0.0 0.0 0.0 0.0 0.0 0.0 0.0 0.0
0.0 0.0 0.0 0.0 0.0 0.0 0.0 0.0
0.0 0.0

network_body._body_endoder.attention.value.bias f4 [34]
00000000: c53d 973c 370c e5bb 2d53 0abc 1489 77bc
00000010: a9a3 29bb b03e 05bc 1ba7 a1bc 0600 993a
00000020: f70d e03c 00df ba3c bc56 e93c 95c5 36bc
00000030: 3fc3 e7bc 8a3e 3f3d 806a 19bc 2303 33bc
00000040: 974e bcbc 9489 1abb a912 e1bc a890 883c
00000050: 2dc0 fd3c 49c0 613d a34a 8abc 09c9 d7bc
00000060: 81b8 393d d5e1 493a e593 5abb 3408 ac3c
00000070: bd89 ed39 30fd eebc b4ed bf3c 3022 1a3c
00000080: 6e03 eabb a3ab 10bd
0.018462071 -0.0069899815 -0.008442682 -0.015108366 -0.0025884903 -0.008132622 -0.019733002 0.0011672981
0.027350409 0.022811413 0.028483741 -0.011155506 -0.028291343 0.0466905 -0.0093637705 -0.010926041
-0.022986693 -0.0023580538 -0.027474718 0.01667054 0.030975426 0.055115018 -0.016881293 -0.026340978
0.045341972 0.0007701193 -0.0033352312 0.021000005 0.00045306786 -0.029173464 0.023428775 0.009407565
-0.007141522 -0.035319936

network_body._body_endoder.attention.norm.weight f4 [34]
00000000: fbfc 6d3f c26e 823f 7c67 7a3f 3672 7c3f
00000010: 9505 803f 20ce 843f bc06 833f 9d55 873f
00000020: ee29 7f3f f637 723f 0bd4 743f 36c4 833f
00000030: c3a7 813f 79f7 823f 994b 863f f69c 7f3f
00000040: 2663 833f 553e 733f 8c96 823f 9a85 843f
00000050: 85ef 853f 99c1 893f eec0 7d3f 6c79 693f
00000060: 2e50 8b3f 724e 703f 303c 823f 2a6f 6f3f
00000070: 3339 863f 829f 853f ffe2 7e3f 7a82 6e3f
00000080: fa4f 733f 6eda 8d3f
0.9296414 1.0190051 0.97814155 0.9861177 1.0001704 1.0375404 1.023643 1.0573002
0.99673355 0.9461664 0.9563605 1.0294254 1.0129322 1.0231773 1.049182 0.9984888
1.0264633 0.95016986 1.0202193 1.0353272 1.046372 1.0762206 0.9912251 0.912009
1.0883844 0.938697 1.0174618 0.93529 1.0486206 1.0439303 0.9956512 0.9316784
0.9504391 1.1082284

network_body._body_endoder.attention.norm.bias f4 [34]
00000000: b828 2b3d 3954 3a3c 01eb f23b 731e cd3c
00000010: 3b00 7fbc 86a5 d6bc 7250 83bc b71b 0a3d
00000020: 0419 093c ac12 7fbc f79f 11bc cc1c 71bc
00000030: 170c 423c 3ba9 643d 86b1 29bb 99c6 09bc
00000040: d552 f9bc 72b2 78bc 7025 90bc 6a0f a93c
00000050: 76e8 9dbc 88e8 133d e845 1dbd 7127 debb
00000060: af05 5a3c 4ee2 4fbc bd2a cc3b 37b4 103d
00000070: 7061 02bd 2a8d 803c 00c2 233d a34f 41bc
00000080: 180d dfbc 6f23 183c
0.04178688 0.011372619 0.0074132686 0.025038933 -0.01556402 -0.026201975 -0.01602957 0.033717837
0.008367781 -0.015568417 -0.008888236 -0.014716338 0.011843703 0.055825453 -0.0025893166 -0.008409166
-0.030435005 -0.015179263 -0.017595977 0.020637233 -0.019275885 0.03611043 -0.038396746 -0.006779604
0.013307019 -0.012688233 0.0062306807 0.035328116 -0.031831205 0.015692312 0.039979935 -0.011798772
-0.027227923 0.009285792

network_body._body_endoder.norm.weight f4 [34]
00000000: 3f07 843f b2b6 843f 6dea 823f c203 7c3f
00000010: 7109 853f 4f4a 833f 1b50 823f 159a 863f
00000020: d755 823f 2f6b 7b3f 0fbd 803f ca9a 813f
00000030: af1a 883f 40ed 833f cae2 8a3f c070 813f
00000040: b6bb 853f 5917 723f 6c77 7c3f e37f 8b3f
00000050: 3184 843f 5de1 843f b2c0 8a3f 183a 713f
00000060: 1e11 823f 71d3 843f 5623 893f f522 823f
00000070: f939 873f 0ff3 853f d7a6 793f 0308 6a3f
00000080: 9098 813f 7e1d 823f
1.0314711 1.0368254 1.0227791 0.98443234 1.0393506 1.0257052 1.0180696 1.0515772
1.0182446 0.98210424 1.0057696 1.0125363 1.0633143 1.0306778 1.085046 1.0112534
1.044791 0.94566876 0.98619723 1.0898403 1.0352842 1.0381275 1.0840056 0.9422927
1.0161474 1.0377027 1.0713909 1.0166918 1.0564567 1.0464801 0.975202 0.91418475
1.0124683 1.016525

network_body._body_endoder.norm.bias f4 [34]
00000000: d066 f93c db68 343c fdab 9bbb b90f 9a3c
00000010: abaa f1bb b22d 863c 9c81 263c 388a ea3b
00000020: 64dc eb37 0020 acb8 3e03 8b3c 8fee adbc
00000030: b101 0a3b 39cc 833d c9b7 99bc 0768 5abb
00000040: eb52 d339 e96e 093c 48bd 52bc 8a22 833c
00000050: 5cdb 27bd cae5 5d3b cc45 0cbd f0d4 4d3a
00000060: 87f6 0abd 1a9c e03c 10e0 6f3d cfda 023c
00000070: ad9b da3c 27fc 0d3c a49a 65bc 856b b8bb
00000080: d008 98bb 8924 413b
0.030444533 0.011011328 -0.004750727 0.018806325 -0.0073750815 0.016379211 0.010162737 0.0071575902
2.811681e-05 -8.2075596e-05 0.01696932 -0.021231918 0.0021058137 0.06435437 -0.018764393 -0.0033326165
0.00040306835 0.008388259 -0.012862511 0.01600768 -0.04098068 0.0033858889 -0.03424625 0.00078518596
-0.033926513 0.027418185 0.058563292 0.007986738 0.02668556 0.008666075 -0.01401392 -0.0056280517
-0.0046397224 0.002947124

network_body._body_endoder.lin_layers.seq_layers.0.weight f4 [68, 34]
00000000: 0d43 013f 125e 96be 9365 aabd 1263 a83e
00000010: 90df 9dbd 44a3 8d3d 6387 83be 034c 00bf
00000020: 73a6 93bc 71f4 523e 3a9e 0f3e 9701 eabe
00000030: cfe5 af3e 4b71 b33d 1c0e 38bd 2115 ccbc
00000040: f5a4 893e 1bb1 853d 7314 233e 81a4 74be
00000050: 0329 4b3d a906 b93d e896 8dbe c4bb 40be
00000060: 5403 16bd 1e0b b13c 1d62 103e 5388 0ebe
00000070: 1d1f f9bb 698f 5cbe 4296 95be 187e 20be
00000080: e448 c23a 745e 443e 1621 513a 920b b3be
00000090: 1599 bdbd a342 58be a093 ba3d 24f1 a53e
000000a0: 4394 88be b4fa 65bc 2378 b1be 1caa 273e
000000b0: ef8b f03d 290f 4a3d 4e88 cb3d 95c2 69bd
000000c0: a51c 31be 6cba 7c3e d4a0 73bd e641 b53e
000000d0: 960e 31bd 99ef 23be 9fd3 bb3d 8808 87bd
000000e0: a538 40be 341f 7fbe cdc1 3d3e d889 163e
000000f0: 1e10 ccbd b2a0 0abd 220b 183d aca9 42be
00000100: 05ef 50bb 2c71 19bd 63b1 423e 817b 70be
00000110: 916d 4abb 7238 00be e738 df3d 331e 8d3e
00000120: 3dce 16be d81b 98be 5391 ccbc 3591 193e
00000130: 26a9 8e3e 22f5 0bbe 5d4e aabd 913c 973d
00000140: d0d7 5bbe a8bb 0f3e 9854 d63d 39d0 b7bc
00000150: e222 55bd 2f01 dbbe d580 813e 1d29 5cbe
00000160: ca33 28be 5c00 55be fe57 b8bd bf56 21be
00000170: d7cb 97bd 3d9a 923d 561b 0dbe 983b 803d
00000180: ad4b 213d 3cc1 0abe 44fc cabd 0e45 cb3d
00000190: e50a 353e 6ee0 ce3e d00f 973d f9cd c0bd
000001a0: 2ee9 a8bc ff7a ecbc f51e 463d 8022 453c
000001b0: 8e03 193d d119 1b3d cd43 2b3e d3f3 cfbe
000001c0: 7c5c 9c3e 4a35 bbbe 01d5 9abd 641b b6bd
000001d0: dcf5 aebc 620c 89be 962b 6abb c52f 64be
000001e0: ca7c 843e c565 be3d 8cda 93be 11ec 683c
000001f0: 8a03 50bb 4b66 a3bd 9b5b 04be 05d7 2d3e
00000200: 6e4c 493d d7c6 063d bb51 d7bd 079c 613c
00000210: bcf6 1fbe 5e0e 553e f701 07be 92cd 543e
00000220: 45d5 f6bd 4af3 833e 5d0f 82be 2adc febc
00000230: 1670 b33e 0d79 083e 1ae4 a7bd b9b9 4abe
00000240: 76d7 91bd eea6 5bbe ab27 d13d 6c87 f13d
00000250: 1cce c8be d913 bcb9 f5dd dabd f578 753c
00000260: a684 533e 1e58 843d 461b 5fbd 98f9 883d
00000270: 204c 08be a1b5 2b3e d797 4fbd a2a4 1fbc
00000280: 4040 6e3c 0d63 6bbe a089 2bbe e6b7 c5bc
00000290: 8f1f 563e d117 acbc d6d7 6c3d 5550 fb3d
000002a0: 394a 693c e26d 803e a99d 67be 5ba1 523d
000002b0: 76bc 7f3c 4848 97be bb02 793e 22b7 813e
000002c0: 71e9 0ebe 370c 45be d8a1 e4bd d555 00be
000002d0: 27ff 693e 32a4 b43e eb44 4a3d 3227 d8bd
000002e0: 8a25 47bd 9314 edbd a5c6 b2be 3d6d 583d
000002f0: 86e7 223d 7642 f43d e41b e53e 4567 843e
00000300: bf16 b73d 2501 cd3c cf5f 95bd bebd 4c3e
00000310: 1592 bc3d ea32 f0bd e934 393e 692e a03d
00000320: 7e93 233e 5158 a2be da5b 51bd 2a96 36be
00000330: 7107 153e 396f 93be 1b27 1cbe 6a86 4a3d
00000340: 62bb fc3d b337 fb3d 8047 6a3d dbfd 243d
00000350: b391 103e e635 6b3b c93a 97be efb9 093e
00000360: 1c79 4cbe 87f6 01bd 33fa 943e dca9 973d
00000370: 3a2c 2bbe 6144 20be 3baa 6ebe fe0b 283e
00000380: 51f4 c6be 388f e53d d5d7 e73d a853 4ebc
00000390: 1fc3 64be 9436 0d3e 6e89 27be 404b ccbd
000003a0: f6a7 823e 5fe4 18be 6389 5fbc b74e a13e
000003b0: bac8 9cbe a3d5 603e 19c4 19bc 64fb 363d
000003c0: cabf 653e ed50 5e3d 1baa dcbe 807f 98be
000003d0: b07e fc3c 3aa0 2f3e 9d38 ac3c fa48 583d
000003e0: 4784 b9be 993e e7bd 56de 22be 12b5 adbe
000003f0: a7f2 92be 7821 fabd 92dd 213e ca03 123e
0.50492936 -0.29368645 -0.08320155 0.32888085 -0.07708657 0.06915906 -0.2568923 -0.50115985
-0.018023705 0.2060106 0.14025202 -0.45704338 0.34355018 0.08761843 -0.04493533 -0.024912419
0.26883665 0.06527921 0.1592577 -0.23890878 0.04959966 0.090344734 -0.27654195 -0.18821627
-0.036624268 0.021611746 0.14099927 -0.13919191 -0.007602586 -0.21539082 -0.292162 -0.15673101
0.0014822748 0.19176656 0.00079776475 -0.34969765 -0.09257714 -0.2111917 0.091101885 0.32410538
-0.26675615 -0.014036823 -0.3466197 0.16373485 0.1174544 0.049330864 0.099381074 -0.057070334
-0.17296083 0.2468049 -0.05947955 0.3540184 -0.0432268 -0.16009368 0.09171223 -0.06593424
-0.18771608 -0.24914247 0.1853096 0.1470102 -0.099640116 -0.033844657 0.037119992 -0.19010037
-0.0031880748 -0.037461445 0.1901298 -0.23484613 -0.003088806 -0.12521532 0.10899525 0.27562103
-0.14727111 -0.29708743 -0.02497164 0.14996798 0.27863425 -0.1366773 -0.08315728 0.07384599
-0.21469045 0.14036429 0.10465354 -0.022438155 -0.05203522 -0.4277434 0.25293604 -0.21500058
-0.16426006 -0.20800918 -0.09001158 -0.15755747 -0.07411926 0.07158325 -0.13779959 0.062613666
0.03937881 -0.13550276 -0.09911397 0.099252805 0.17679937 0.404056 0.07376063 -0.09414286
-0.020619001 -0.028867243 0.048369367 0.012032151 0.037356906 0.037866417 0.16725083 -0.4061571
0.3053931 -0.36564094 -0.075601585 -0.08891943 -0.02135747 -0.2676726 -0.0035731546 -0.22283848
0.25876456 0.09296755 -0.28877676 0.014216439 -0.003174039 -0.07978495 -0.1292557 0.16976555
0.049145155 0.032904472 -0.10513636 0.01377011 -0.15621465 0.20806262 -0.13184343 0.20781544
-0.12052397 0.25771552 -0.25402346 -0.031110842 0.35046452 0.13327427 -0.08197804 -0.1979741
-0.07121174 -0.21450397 0.10212644 0.11793408 -0.3921975 -0.00035872942 -0.10686866 0.014982452
0.2065607 0.064621195 -0.05446937 0.06688231 -0.1331029 0.16768505 -0.050681915 -0.009743841
0.014541686 -0.22987004 -0.16751719 -0.024135541 0.20910476 -0.02100745 0.057823025 0.122711815
0.0142388875 0.25083834 -0.22618736 0.05142341 0.015608897 -0.29547334 0.24317448 0.25335032
-0.13956238 -0.19242941 -0.11163682 -0.12532742 0.22851239 0.3528152 0.04938213 -0.10554351
-0.048619784 -0.1157619 -0.3491718 0.052838553 0.03977158 0.11926739 0.4474784 0.25860038
0.08939885 0.02502496 -0.07293665 0.19994256 0.092075504 -0.11728461 0.1808659 0.07821352
0.15974233 -0.31708005 -0.051112987 -0.1783072 0.1455362 -0.28795794 -0.15249293 0.049444593
0.12340428 0.12266483 0.057197094 0.040281158 0.1411808 0.003589028 -0.29537037 0.13449834
-0.19968075 -0.031729247 0.29097137 0.07405445 -0.1671609 -0.15651084 -0.23307125 0.16410825
-0.38858274 0.112089574 0.113204636 -0.012593187 -0.22340058 0.13790351 -0.16361019 -0.0997529
0.2551877 -0.14930867 -0.013643595 0.31505367 -0.30621892 0.21956496 -0.009385132 0.04467334
0.22436443 0.054276396 -0.4309853 -0.29784775 0.030822128 0.17150965 0.021023089 0.05280397
-0.36233732 -0.112912364 -0.15905127 -0.33927208 -0.28700754 -0.12213415 0.15807179 0.14259258

network_body._body_endoder.lin_layers.seq_layers.0.bias f4 [68]
00000000: e18d 613d f7da db3c 9982 c4bd 637e abbd
00000010: 07c9 9b3d d3a8 593d 7c33 4039 d5ed 92bb
00000020: 145f 953d 17bc 573c 8e0c e23c 4c8e bbbb
00000030: d37a c33c 26f7 803d 22ec 43bc 28b9 acbd
00000040: a1c2 7f3d c607 473d 0574 a53c d876 86bd
00000050: eb3b a33b da95 a1ba e5d6 543d e708 19bd
00000060: d8bb 06bd 5ca3 ae3a 73ad c4bd 4e67 b0bd
00000070: f2d5 9d3c b5d2 8a3d f71a 313d 20f1 c3bc
00000080: cf26 8a3d e684 0e3d 91ed d8bd d6e7 693d
00000090: 46d2 d23c 6414 353d 341f ab3c df70 40bd
000000a0: b30f dc3c 58e7 483c 977d 073d 9e36 39bc
000000b0: c813 ceba 6bc1 083d 78de 8d3d fb37 2b3d
000000c0: 1fda 9a3d 1dcc 153d 3e88 253d 121a 073d
000000d0: 669f d6bc eebf 363d acf2 02bd 2c91 493b
000000e0: d87b 33bd c00b 4fbc 5dec 873c 36b1 44bd
000000f0: 1f79 3b3d d8ad debc 6dc0 89ba 6c87 b73c
00000100: df2c 5fbd 4a28 593d ca5e cebc 37f0 f23c
0.055066947 0.026837809 -0.09595222 -0.08373716 0.07606702 0.05313952 0.00018329726 -0.004483918
0.07293525 0.013167403 0.027593877 -0.00572375 0.023862278 0.0629714 -0.011958154 -0.08433753
0.062441472 0.048591398 0.020196924 -0.065656364 0.004981508 -0.0012327984 0.051962752 -0.037362006
-0.032893986 0.0013323831 -0.09603395 -0.08613454 0.019267056 0.067784704 0.043238606 -0.023918688
0.067456834 0.03479471 -0.10592187 0.05710586 0.025735032 0.0442089 0.020888902 -0.046982642
0.026862955 0.012262188 0.033078756 -0.011304526 -0.0015722448 0.033387583 0.06927198 0.041801434
0.075611345 0.03657161 0.040413134 0.032983847 -0.026199054 0.044616632 -0.03196971 0.0030756695
-0.04381928 -0.012637079 0.016592199 -0.048020564 0.045769807 -0.027182505 -0.0010509618 0.022403441
-0.05448615 0.05301694 -0.025191683 0.029655559

network_body._body_endoder.lin_layers.seq_layers.2.weight f4 [68, 68]
00000000: a718 6d3e 9eca 76be 00cd 28be 515e e5bd
00000010: 25fd 053e 86b1 74bd d358 23bd dbaa 58bc
00000020: e3dd 673d 05b6 223e 8c88 ccbd 30bd df3d
00000030: 8745 923e 82d3 5e3e e200 16be c15f e5bc
00000040: c949 4d3e 44a8 3c3e 614f a0bd 049f 003d
00000050: 17ec b8bd dc80 3c3d 4643 c5bd 8371 f6bd
00000060: 71f6 20bd 36f8 743e e3c3 26bd 3b08 28bd
00000070: c296 f13d 17c3 80be 4375 cdbd bfdf 51bd
00000080: cafc 583d 9961 1fbe 942c febd 5785 263e
00000090: f4ca f63d 93c2 28be 4c79 0d3d f771 8bbe
000000a0: 829d 50bd 95e4 1cbe 8e03 31be e487 253e
000000b0: 978f 3cbe e0b5 a73b 4aeb 0a3e cf4d d23e
000000c0: 79c2 1a3e 9b53 05be ee33 123e 0f6c 983d
000000d0: 417d e1bd 474e 5fbe 2528 cbbc b1cc 2b3d
000000e0: 1d31 953d 480d 8abd db3d a43d 6ac8 49be
000000f0: bd0c 8c3d e964 9c3d eaba 42bd f5cc 45bd
00000100: c015 5ebe 81ce 39bd d322 0cbe bfed 25bd
00000110: 6664 093e 0e28 b3bd de73 bbbd ece5 34be
00000120: 05c4 803c 00d0 0cbe a0ed 4c3d 4b03 49bd
00000130: 4acb 11be 712c 72bc d0e7 58be b6a0 42bd
00000140: 8076 f5bd 73f5 bf3d 2eda 34bd 2f26 91bb
00000150: a7f9 773d c35c 5c3e 5642 35be 80f0 323e
00000160: 8e20 803d 72a9 ce3d ef8c bcbe 1eba b13c
00000170: 90f9 253e ea7f 1fbd e0b2 babd af60 e83d
00000180: dd0f e8bd 63b0 733e be66 fb3d efa8 913d
00000190: 5eff 43be fdd3 78be e17d 113e 3dcc 5b3d
000001a0: 9091 e5bc b783 11bd 92b1 df3d 1d71 67be
000001b0: 2f97 f03d 54b7 543b 8b07 ec3d 454b 1e3e
000001c0: 99f9 85be 3bcb 95bb 571a a2bd 5e89 533e
000001d0: 6c17 03be a640 c0bd cb73 c5be 08f9 fa3d
000001e0: 19d0 10bd a5d6 3a3e 8dbc bc3d c566 1b3e
000001f0: f760 863e e9e8 95be 3f2b debd ad87 813e
00000200: 9e1e 5bbd 0ddc 143e 2b92 01be 015a 19bd
00000210: 655c 39be ccd6 643d 8724 d53c 31ba afbc
00000220: 771f 8ebb e103 e1bd 670b 90be 8bbf 123e
00000230: 7807 e7bc 6899 a7bc 0842 32be 7b02 513e
00000240: 38c6 17be feec eabc 6519 513e 13ac ac3c
00000250: 2ae5 cfbd 0f4e 9abd 582e 3b3b f867 d43c
00000260: d9a9 4e3d 1074 c73d 5d6d 7d3e 2cf2 6fbd
00000270: 4daf 6c3e 2bbc 143d 51bf 763e 1912 b73c
00000280: 9123 163e c16c 07be 30fc 4fbe 68e6 de3d
00000290: bdfa 61bd 4db7 223e 9bfb 5b3c 0beb 87be
000002a0: 4a3d ce3d 75d7 7b3e ea8a d03d 4339 d13c
000002b0: bdf7 a2bd 14be 263e b63c fdbd dd06 17be
000002c0: d5fb a53d b225 c53d 3523 52be dba7 873d
000002d0: 7dea 583e 036a 033b 2e38 8f3d 5622 03be
000002e0: d1e2 543e e217 63bd 90c4 8c3d 9ef9 f0bd
000002f0: 44f0 133e 84f0 793e 3920 b4ba 6a99 df3d
00000300: ba36 763d 463d e93d 19a5 503c 56ed 983e
00000310: da9c ca3d 1e07 113e 2690 07bd e2ad 713d
00000320: ff21 37be 029e 1c3e 08bd 5cbc b4d8 64be
00000330: e5cd 3bbe 6e96 cebc 18cd ff3c 53fb e5bd
00000340: be2b 32be f061 aebd facf 6ebd 4f9d 0e3d
00000350: 8793 173d a6ad 64be 3bc8 0c3e 1ee1 bbbd
00000360: da69 8a3d 366e 0cbe 171e 253d 2d9c 41be
00000370: a3c2 273e d1ca 5e3e 8f9e 21bc 3272 093e
00000380: 38d1 b8be 9b62 4a3e a630 d13c 67ed 8f3e
00000390: bf9f d63d 7786 b53d 0eb3 8bbe c326 4b3e
000003a0: 9eda c1bc d74d 203d 15bb 013d 4ba4 0abe
000003b0: 38f3 343e 08fc eb3c 2734 87bd 8ccc 133e
000003c0: a72b 5f3e c1b3 0abd f794 323d d35c c93d
000003d0: 779a 2a3e 0041 6ebd fd37 f53d b6ba 66bd
000003e0: 42ce 333c 3135 4b3b 7043 d63c 7701 0e3e
000003f0: 2435 00bd 4d37 24be 69d7 14be d6eb 82bd
0.23153935 -0.2410073 -0.16484451 -0.1119963 0.13084848 -0.059739612 -0.03987963 -0.013224329
0.056608092 0.15889747 -0.09986982 0.109247565 0.2856867 0.21760371 -0.14648774 -0.02799976
0.20047678 0.18423563 -0.0782764 0.03140165 -0.090294056 0.046021327 -0.09631972 -0.120333694
-0.039297525 0.2392281 -0.040714156 -0.041023474 0.11796333 -0.25148842 -0.100321315 -0.05123877
0.052975453 -0.15564574 -0.12410846 0.16261803 0.12050429 -0.16480474 0.034539506 -0.27235386
-0.05093146 -0.15321572 -0.17286512 0.1616512 -0.1841415 0.0051181167 0.13566318 0.41074988
0.15113248 -0.13020174 0.14277622 0.074424855 -0.110102184 -0.21807204 -0.024799416 0.041943256
0.07284758 -0.067408144 0.080196105 -0.19705358 0.06838367 0.076364346 -0.047541536 -0.048291165
-0.21687984 -0.045362953 -0.1368516 -0.040509935 0.13417205 -0.08747874 -0.09152959 -0.17665833
0.01571847 -0.1375122 0.050031304 -0.049075406 -0.14237705 -0.0147811035 -0.2118218 -0.047516547
-0.11985493 0.093729876 -0.044153385 -0.0044296007 0.06054082 0.21519761 -0.17701086 0.17474556
0.06256209 0.10090913 -0.36826274 0.021695193 0.16208482 -0.038940348 -0.09116149 0.11346566
-0.11331151 0.23797755 0.12275456 0.071123 -0.19140384 -0.24299617 0.14208175 0.053661574
-0.028023511 -0.035526004 0.10922541 -0.22601743 0.11747586 0.0032457905 0.11524876 0.154584
-0.2616699 -0.004571346 -0.0791518 0.2065787 -0.12801903 -0.09387331 -0.38564906 0.1225453
-0.035354707 0.18245943 0.09215651 0.15175922 0.26245853 -0.2927926 -0.10848092 0.25298825
-0.053495996 0.14537068 -0.12653415 -0.03743935 -0.18101652 0.05586891 0.026018394 -0.021451088
-0.004337247 -0.10987068 -0.281337 0.1433088 -0.028201804 -0.020458892 -0.17408001 0.20411102
-0.14821708 -0.02867746 0.20419843 0.021078145 -0.101511315 -0.0753442 0.0028561559 0.025928482
0.050454948 0.09738934 0.2474875 -0.058580562 0.23113747 0.036312263 0.24096419 0.022347497
0.14662005 -0.1322508 -0.20311046 0.1088379 -0.055170763 0.15890236 0.013426687 -0.2654651
0.10070284 0.24593909 0.10182746 0.02554 -0.079574086 0.16283447 -0.12365095 -0.14748712
0.08104674 0.096263304 -0.20521243 0.06623813 0.211832 0.0020052202 0.06993137 -0.12806067
0.20789649 -0.0554427 0.06873429 -0.11766361 0.14447123 0.24408156 -0.0013742513 0.10917933
0.060110785 0.1138864 0.012734675 0.29868573 0.09893198 0.14162871 -0.033096455 0.05900372
-0.17884062 0.1529465 -0.013472803 -0.2234829 -0.18340261 -0.025218215 0.031225726 -0.11229577
-0.17399499 -0.08514774 -0.05830381 0.03481799 0.037005927 -0.22331867 0.13748257 -0.09173797
0.06758471 -0.13713917 0.0403119 -0.18907233 0.16382842 0.21757056 -0.0098644635 0.13422468
-0.3609712 0.19764178 0.025535893 0.2811081 0.10479688 0.08863538 -0.27285045 0.19839005
-0.023663815 0.039136734 0.031672556 -0.13539235 0.17670906 0.028806701 -0.06601744 0.14433497
0.21793996 -0.033862833 0.043599095 0.09832158 0.16660486 -0.058167458 0.119735695 -0.056330405
0.010974469 0.0031007046 0.026155204 0.13867746 -0.03130068 -0.1603672 -0.14535297 -0.063926384

network_body._body_endoder.lin_layers.seq_layers.2.bias f4 [68]
00000000: 1212 263d 7dce 753d 28b2 f43c 334b 7a3d
00000010: d4b2 11bc 0609 bdbb 1dc8 b9bd 053b f53c
00000020: 9150 773d de3b 25bd bceb a1bd a865 d3bd
00000030: 88b3 75bd 19be 243d eb8a 9ebc 8d95 34bc
00000040: 5d30 2f3e 7196 853d 5527 8f3d a9b0 e63d
00000050: 9ee6 403c 1333 b4bc be35 f03c 967a 713c
00000060: ca79 8f3d 5390 93bc 93a0 103d aad4 8bbd
00000070: adfe 683d 875b 42bd 5bd8 b9bd 41c5 023c
00000080: fb99 873c e65a 11bd 192a 0ebd f89a 303b
00000090: 2886 df3c 26b6 553d 238f 98bd 5c03 2d3d
000000a0: c9c3 293d 98d5 c83c 209a 383c bf40 953d
000000b0: 0ca6 3d3d 21d1 8e3d 45a6 963c ef10 533d
000000c0: 6dab c53c b18c 6b3d 4262 e4ba 7857 51bc
000000d0: 71d9 4b3c 796f 8d3d 2579 91bc d7b3 b2bc
000000e0: 3abb 9c3c e018 fcba 9bd4 93bc 5e71 79bd
000000f0: 7d7a 013d be5f 4d3d fe3d a3bc cde4 243d
00000100: 54a2 e0bc b5b1 37bd ac6c fc3c 85d2 b5bc
0.040544577 0.060011376 0.029870108 0.06110687 -0.008892734 -0.005768898 -0.09071372 0.02993537
0.06037957 -0.040340297 -0.07906291 -0.10322124 -0.059985667 0.040220354 -0.01935335 -0.011021984
0.17108293 0.06522835 0.06989924 0.11264164 0.011773733 -0.02199701 0.029322501 0.014738699
0.07005651 -0.018013155 0.035309386 -0.06827672 0.056883503 -0.04745057 -0.0907447 0.007981599
0.016552916 -0.035487078 -0.034708116 0.0026947837 0.02728565 0.052175663 -0.07449176 0.042239532
0.04144648 0.024515912 0.011267215 0.0728774 0.046300933 0.06973482 0.01838983 0.05152982
0.024129594 0.05750722 -0.0017424303 -0.012777202 0.012441979 0.06906027 -0.017757962 -0.02181427
0.019132245 -0.0019233488 -0.018045714 -0.06089913 0.031610955 0.050140135 -0.019927021 0.040257264
-0.027421154 -0.04484721 0.030813538 -0.02219511

network_body._body_endoder.fc.weight f4 [128, 68]
00000000: 09de 28be a7de 52be 037a 393e d83d 173e
00000010: db13 d3bc 2274 3abe c9e2 663e e428 9a3d
00000020: 588f 983c dd05 1fbe b0c6 413e b4b3 a5bd
00000030: 7bcb 073e 605b 6f3d d45d 5d3b d21f b4bd
00000040: 2218 c33d 5360 2c3e cc59 4bbc c66a 19be
00000050: 0496 f7bd 56f9 d6bd 21ce 6fbe 10b3 a83d
00000060: 5a15 07be 385a 063d 754d f6bd 9e98 043d
00000070: 7196 ab3d 4f0e 7abd 54a9 2f3e dd34 b7bd
00000080: 66ef bfbd 3390 803e e87c 0d3e f438 2f3e
00000090: 5779 51bc 6eb9 d73c 2e68 20be 71bb 0f3d
000000a0: 81d4 50be a13b 183c 92f5 f93d 997b 3b3e
000000b0: 4d60 463d 844b e53d cc77 8dbd 186d f8bd
000000c0: 62dd 14bd b51e d93d 342f 4cbe 1591 503e
000000d0: a364 093e 0526 59be afd2 abbd 3b35 a5bd
000000e0: 2b98 0b3e faa6 38bb a548 4abd 7878 383e
000000f0: 042f 4dbe 011d c53d fcfe 00bd 7fa5 913d
00000100: 65c7 213e 9ade 06be 3e9c c6bb bdcb c23d
00000110: 4d23 903d f38a 073d 89c6 213d f9f6 2bbe
00000120: b646 60be 0f5d 42bd 4b4c 1c3e 2190 04be
00000130: 8529 85be e3e8 11be ee2c 8cbd 9fa2 803c
00000140: 6b71 633e 280a f13d e0e3 d63d 726a d23d
00000150: 83ba 0ebe cf05 c6bd 47e0 e3bc 89be 69bd
00000160: e3fd 223e c700 11be 089b b1bd da0f 6f39
00000170: 1700 173e 8960 4dbe 1284 45be 1d67 3abd
00000180: 473a ef3d 8a2c d6bd 606d 3c3e b00b 1fbd
00000190: f22d 90bd 34f5 19be 1d9a 19be ff41 c43d
000001a0: d1f4 2f3e 53bb 49bd 410b 8b3d c987 153c
000001b0: 68f9 ac3d 6c5f 1d3d 21de 4c3d 6467 37be
000001c0: 5280 eebd 7e79 2ebe 85df b03c c337 ac3d
000001d0: c2f5 d6bd 4b7b bebc 7257 b7bd f456 89bd
000001e0: adeb 2abe 2e2a 0d3e fca4 a13d df2f 9d3d
000001f0: 02fe df3d 7aab d2bc 4fc2 c3bc efdc 233e
00000200: 58f1 01bd ccfa 4d3e 790f 01bd f8e7 9cbd
00000210: 0c65 0c3e ec6c a13d 2e42 083e f68d e0bd
00000220: 30f3 03be 6309 78bc 874e bdbc 9116 b93c
00000230: 7d10 0cbe c88d 4bbb 2d0e b4bd 89a5 4e3d
00000240: c9d1 10be c6f9 eb3d 865d f23d 3654 6a3c
00000250: dbdc d83d 55f2 8bbc 4ab0 09be 342e edbd
00000260: 86c7 83be 5606 1d3d 1b05 3c3e 5036 d2bd
00000270: c907 843d 57d1 8bba 68c9 e7bd 54d0 933d
00000280: df57 dcbd 46a2 d4bd 1400 123d 0ac2 debd
00000290: d2ef 2f3d dbb0 ce3b bd4f 11bd 104b 2d3e
000002a0: 58b6 943b cccc 763d 1201 99bd b918 ca3c
000002b0: 6f9d 3a3e 39e1 123e 1023 ff3d df83 de3d
000002c0: b84b 863d 6b62 8e3d b765 0fbd b2a7 2cbe
000002d0: fe64 ba3c 4af0 5f3d 17d9 d5bd 9a41 973d
000002e0: 4d54 963d 9de5 1bbe b8e3 0d3e d757 0cbc
000002f0: 0744 903d 5cc3 90bd 8a87 a43d 8983 dbbc
00000300: c006 6dbd e64b d53d 2b12 02be d131 c7bd
00000310: 29fa eebd d1b4 b93d b9c9 823c bc51 a2bd
00000320: 2cce 243e 88a9 d93d d708 3f3e d740 4f3e
00000330: 3dc2 dc3d 676d 283e e331 afbd 3395 e8bd
00000340: 914b bf3d d928 0cbe 9754 f73c 5bc4 bdbd
00000350: ee1e 113d 6fb3 633d e542 33bc 2732 233e
00000360: 85d0 873e 3e60 97bd 091d 1f3e 61f7 35bd
00000370: 28ca b9bd 48c9 a7bd 5a2e 12bd 8b32 bfbd
00000380: 9bf7 6d3d 3411 2b3d b6e4 be3d cc8d 89bd
00000390: 6cc2 c23d 0c0a aabd bca9 17be 94b4 233e
000003a0: da77 f13d f74c 95bd 58a5 4c3e 8530 8a3d
000003b0: fbc0 083d 38f3 bd3c f4d5 bd3d f0e7 e7bd
000003c0: 8ea9 cd3c 8796 2abd cf70 343e c1fa 35ba
000003d0: ecbb 26be defe 443d 3df8 0fbd 5bd2 323d
000003e0: 09bc 1cbe 5e60 a2bd d6f0 b33d 3348 40bd
000003f0: 6554 fbbd 669c 9f3d 4105 793d fdee 203d
-0.1649095 -0.20592748 0.1811295 0.14769685 -0.025766304 -0.18208364 0.22547449 0.075273305
0.01862304 -0.1552958 0.1892345 -0.08090916 0.13261215 0.05843675 0.003377785 -0.08795132
0.09526087 0.1683362 -0.012411546 -0.14982137 -0.1208916 -0.10496776 -0.23418476 0.082372785
-0.13191739 0.032800883 -0.120264925 0.03237211 0.08378304 -0.061048802 0.17154437 -0.0894563
-0.093718335 0.25110015 0.13817179 0.1711157 -0.012785277 0.026333537 -0.15664741 0.035090867
-0.20393564 0.00929156 0.12205042 0.18308868 0.048431683 0.11196044 -0.06907615 -0.12130183
-0.03634394 0.1060156 -0.19939882 0.20367844 0.13417296 -0.2120591 -0.08389794 -0.080667935
0.13632266 -0.0028175698 -0.049385685 0.18014705 -0.20037466 0.09624673 -0.031493172 0.07111644
0.15798719 -0.13170853 -0.006061106 0.09511516 0.07037983 0.033091497 0.03949598 -0.16793431
-0.21901974 -0.04745203 0.15263478 -0.12945606 -0.2600824 -0.14248995 -0.06844507 0.015702544
0.22211234 0.11769515 0.104926825 0.10274209 -0.13938336 -0.09669077 -0.027816905 -0.057066474
0.15917163 -0.14160453 -0.08672148 0.00022798721 0.14746128 -0.20056356 -0.19288662 -0.045508493
0.116810374 -0.10457714 0.18401098 -0.038829505 -0.070400134 -0.15034944 -0.15000196 0.095829
0.17183234 -0.049250912 0.06789256 0.009126612 0.08446008 0.03842108 0.050016526 -0.17910534
-0.11645569 -0.17038533 0.021590957 0.08409073 -0.10496093 -0.02325215 -0.08952226 -0.06706038
-0.16691466 0.13785622 0.078927964 0.07675146 0.1093712 -0.025716532 -0.023896364 0.16002248
-0.031724304 0.20115203 -0.031508896 -0.07661432 0.13710421 0.07882103 0.13306496 -0.10964577
-0.12885737 -0.015138957 -0.023108734 0.022593768 -0.13678165 -0.003105985 -0.08791766 0.050450835
-0.14142527 0.1152225 0.118342444 0.014302304 0.10589 -0.017083326 -0.13446155 -0.11581078
-0.25738162 0.03833612 0.18361323 -0.102642655 0.064467974 -0.0010667247 -0.11317712 0.0721747
-0.107589476 -0.10382514 0.035644606 -0.10876854 0.04295332 0.006307704 -0.035476435 0.16923165
0.0045383386 0.060253903 -0.07470907 0.024669992 0.18224119 0.14343728 0.124578595 0.10864996
0.06557411 0.069523655 -0.035009112 -0.16860846 0.022753235 0.054672517 -0.10441797 0.073855594
0.07340298 -0.1522431 0.13856399 -0.0085658645 0.07044225 -0.07068512 0.080336645 -0.02679612
-0.057867765 0.10414867 -0.12702243 -0.097262986 -0.11668808 0.09067691 0.01596533 -0.07925746
0.16094273 0.10628039 0.18655716 0.20239578 0.107792355 0.16447984 -0.08554437 -0.113565825
0.09340585 -0.13687457 0.030191703 -0.092659675 0.035429887 0.055591043 -0.010941242 0.159371
0.26526275 -0.073914036 0.1553842 -0.044425372 -0.09071761 -0.08192688 -0.035688736 -0.09335812
0.058097463 0.041764453 0.09320967 -0.06716499 0.09509739 -0.083026975 -0.14810842 0.15986854
0.11790438 -0.072900705 0.19984949 0.067475356 0.033387166 0.023187265 0.09269324 -0.113235354
0.025105264 -0.04164746 0.17621158 -0.00069419673 -0.16282624 0.048094623 -0.035148848 0.04365764
-0.15306105 -0.07928537 0.0878617 -0.046943855 -0.12271956 0.077935025 0.060796026 0.039290417
