Assets/oon/long.onnx (onnx, 533134 bytes, 53 tensors)

network_body.observation_encoder.processors.0.model.residual.weight f4 [16, 16, 1, 1]
000000 65 c8 75 be b7 17 a0 3d 2a ac 1e 3e f1 6d e8 bd
       -0.24002226 0.07817023 0.15495363 -0.11349095
000010 af c3 37 3e 6a f9 e6 3d 16 b5 c3 bd 61 22 29 be
       0.17945741 0.11278041 -0.09556024 -0.16517021
000020 6b 9d 2a be 50 3a a3 3d 54 11 04 bd bf d5 83 be
       -0.16661613 0.079701066 -0.032243088 -0.25749013
000030 42 af 85 bc ff ee 67 3e 0f 66 e1 bd 4e 74 0f 3e
       -0.016318921 0.22649764 -0.11005794 0.1400921
000040 fa 69 81 be a7 b3 64 3e 2e e5 95 bd 4a 1e 12 3e
       -0.25276166 0.22334157 -0.07319103 0.14269367
000050 31 12 c5 bd b7 9a 6d be 8d fa 06 be b1 f4 4f be
       -0.0962261 -0.2320355 -0.13181515 -0.20308186
000060 b7 9b f4 3d 1c 67 61 3e 27 7d 7b 3c c8 62 8f be
       0.11943763 0.2201199 0.015349663 -0.28005052
000070 50 2d 30 3e 3c 38 05 3e bf 7e 3c be e1 f3 8b bd
       0.17204785 0.13009733 -0.18407725 -0.068336256
000080 1e c4 2e be 27 af 7c 3e ca 0b ec 3d 42 11 6e bd
       -0.17067 0.2467619 0.11525686 -0.058121927
000090 48 fd c3 bd 11 64 2d 3e 92 fe 76 bd e7 47 88 bd
       -0.09569794 0.16932704 -0.06030137 -0.06654339
0000a0 57 28 24 be 1d 45 39 bd e2 62 e9 3d 71 c3 b5 bd
       -0.16031013 -0.045231927 0.113958135 -0.08875168
0000b0 e1 84 39 3d a7 aa 53 3e 78 6b 25 3c 98 ac aa 3d
       0.04529274 0.20670567 0.010096423 0.08333701
0000c0 41 20 52 3e 63 8c 9c be 5f 56 66 be 1b ac 0d be
       0.20520116 -0.30575857 -0.22493885 -0.13835184
0000d0 de 95 2b be 42 a7 ae 3e 0a cb a8 3e 22 ef 9e be
       -0.16756389 0.34111983 0.32967407 -0.3104182
0000e0 df 89 d0 3c 88 e5 9f 3c 99 60 c2 bd 29 44 a3 3e
       0.025456367 0.019518629 -0.09491081 0.3188794
0000f0 b0 dd 12 be 8f 4a 4c be 40 c0 6a bd 3f 39 e5 bd
       -0.1434238 -0.19950317 -0.05731225 -0.111925595
000100 3a 35 5c be 63 06 a2 3e 95 9d 03 bc a0 13 ac 3c
       -0.2150468 0.31645498 -0.008033176 0.021005452
000110 cb 83 e3 bd da 03 8d be a1 ee 4e be 42 f0 83 3e
       -0.11109122 -0.27542 -0.20208217 0.2576924
000120 4c f7 17 be 15 f4 69 bd b9 02 0d be f7 87 6d be
       -0.1484043 -0.05711754 -0.1377057 -0.23196398
000130 c2 d3 0f be 96 74 df 3d a1 cc 01 3e a7 ec 83 3e
       -0.14045623 0.10910909 0.12675716 0.2576649
000140 4c f9 32 be 27 e6 22 3e 74 bf 38 3e 37 33 81 3e
       -0.17477912 0.15908109 0.18041784 0.25234386
000150 76 26 a3 bd 2d f9 65 3d 2f 90 8a be b4 8b 2f 3e
       -0.0796632 0.056145836 -0.27063128 0.17143136
000160 f9 9a 0a be 93 f0 b7 3c 10 3c 06 be 7b d1 7a be
       -0.1353568 0.022453582 -0.1310885 -0.24493973
000170 38 5e 82 3d c9 a2 14 3d ae cc 9b bd b9 6f 5a 3e
       0.06365627 0.036288057 -0.07607399 0.21331681
000180 84 71 87 bd a6 ef c4 bd e1 71 2a 3e 2e 3e c9 3d
       -0.06613448 -0.09616022 0.16645004 0.09826313
000190 fe f7 3e be 07 60 eb bd 15 99 a3 bd 86 82 52 3e
       -0.18649289 -0.11492925 -0.079881825 0.20557603
0001a0 ad df 92 3d 5e 81 c9 bb 48 ee ef bd e6 b8 bc 3d
       0.07171569 -0.006149455 -0.117153704 0.09214954
0001b0 c3 2f b2 3b 76 a9 64 be 5c 47 9d bd f7 d5 24 be
       0.0054378225 -0.22330269 -0.07679626 -0.16097246
0001c0 08 b9 0c bc 2d 86 ac bc cb cb 59 3e 93 36 2c 3c
       -0.008589037 -0.021060074 0.21269147 0.010511058
0001d0 32 6b 79 3e a0 2c 99 be 21 9f 53 be 8e 93 c7 3d
       0.24357298 -0.2991686 -0.20666172 0.09744941
0001e0 d6 36 24 be 7f 05 5f 3e 9b e3 98 bd 06 dd 74 bd
       -0.16036543 0.2177944 -0.07465287 -0.059781097
0001f0 43 69 67 3e 40 7d 19 3e b8 59 89 be 4a fa 95 bd
       0.22598748 0.14989185 -0.26826262 -0.073231295
000200 ac 09 c7 3b 91 52 b7 bb fd 75 0e bd ea 69 8a be
       0.006074151 -0.0055945595 -0.03478049 -0.2703393
000210 15 57 06 3e 6a 7a 8a 3e 0c 93 5c bd de f9 14 be
       0.13119157 0.2704652 -0.053851172 -0.14548442
000220 2e 09 67 be f5 f2 e1 3d f7 37 0b be d0 26 50 be
       -0.22562096 0.110326685 -0.13595568 -0.20327306
000230 c0 79 35 3c 95 dd 21 3e 46 68 af 3c 09 1e e7 bb
       0.011076391 0.15807183 0.021412026 -0.007053141
000240 db d8 65 3e d5 ec 99 3d f5 b0 21 be 97 c7 dc bd
       0.22446005 0.07515875 -0.1579016 -0.10780256
000250 2d b5 90 bc 12 a9 a1 3e 04 48 22 bd 8b e8 89 be
       -0.017664516 0.31574303 -0.03961946 -0.2693523
000260 47 31 82 be 55 51 9b 3d c0 48 6d be 9d c3 3d 3e
       -0.2542822 0.07583872 -0.23172283 0.18531652
000270 ad c8 25 be ea d9 70 be 59 3a 12 3e 15 d4 26 3e
       -0.16189833 -0.23520628 0.1428007 0.1629184
000280 2f 42 31 3e af e0 87 be 48 ff 08 3e e8 70 81 bc
       0.17310403 -0.26538607 0.13378632 -0.015800908
000290 ad 24 e3 3d ef b0 3b bd b2 17 da 3d ea e5 9d bd
       0.1109098 -0.045823034 0.10649051 -0.07709868
0002a0 bf 46 af 3b 69 20 17 3d 79 14 46 be ba 03 87 3e
       0.0053490098 0.036896143 -0.19343747 0.2637003
0002b0 db 3d fc 3d d2 6b 87 bd c2 9e 1d 3e aa cf 66 3d
       0.123164855 -0.06612362 0.15392593 0.056350388
0002c0 d3 15 03 3e ab bd 5e be d1 a1 91 be 98 f3 47 be
       0.12801294 -0.2175204 -0.2844377 -0.19526517
0002d0 1e 7d 69 be 99 e3 0e 3d eb 1b c9 bb 9a c4 ee 3c
       -0.22801635 0.034885023 -0.0061373613 0.029146481
0002e0 26 d6 d2 bd 40 cf 5f 3e a3 44 b2 3d ce 1b 52 3e
       -0.10294752 0.21856403 0.08704498 0.20518419
0002f0 0c 31 8e be 04 0a a3 bc b8 e2 98 3e f2 01 17 be
       -0.27771795 -0.019902237 0.29860473 -0.14746836
000300 cc 7c 09 3d 90 5e db 3d 21 97 e7 bc 38 48 0d 3c
       0.03356628 0.10711396 -0.028270306 0.008623175
000310 e4 ee 07 be 21 1b 91 3e c3 32 fc 3d 96 76 fe bd
       -0.13274723 0.2834101 0.123143695 -0.12424962
000320 62 a5 d0 bd 84 3c 38 3e fe 5c 65 be 81 43 ac bc
       -0.10187794 0.17991835 -0.22398755 -0.021028282
000330 c2 af 76 be 98 5b 05 3e a7 e2 cb bd e4 7d 2b 3e
       -0.24090484 0.13023221 -0.0995534 0.16747242
000340 e8 b5 02 be 23 3c 23 be e6 70 7a 3e f5 8c 68 3d
       -0.12764704 -0.15940909 0.2445713 0.056775052
000350 87 fa 4d 3d 4c a1 b2 3c 21 ce 41 be 49 6b 49 be
       0.05028775 0.021805428 -0.18926288 -0.19669832
000360 de 49 73 3e f9 e8 6b be 93 f0 86 bd 72 7a 94 3d
       0.23758647 -0.23038091 -0.06588855 0.07249917
000370 51 9e 29 3d d0 fa 82 3e 4c ab 98 be aa b1 d3 bd
       0.041410748 0.2558198 -0.2981819 -0.10336621
000380 68 62 ec bd 65 d4 24 3e c3 cc 31 be 55 22 79 3c
       -0.11542207 0.16096647 -0.17363267 0.015205939
000390 b3 29 86 3e a0 3e 98 be 9e fb 18 3e f3 92 ae bd
       0.2620369 -0.2973528 0.14939734 -0.08524122
0003a0 22 2b a6 bd a7 c2 00 3d 20 d5 4a 3e 36 f1 bf bd
       -0.08113696 0.031435635 0.19807863 -0.09372179
0003b0 b4 f4 e5 3c 2e 4f 15 be 07 92 a9 3d a8 09 af 3d
       0.028070785 -0.14580986 0.08279806 0.08546764
0003c0 6c 93 71 be 44 b7 5a 3e 91 50 7e 3c 3e de d5 bd
       -0.23591393 0.21358973 0.015522138 -0.1044278
0003d0 a0 8d aa bc 55 31 4e be 29 dd 5d be d4 3a 1a 3e
       -0.020819485 -0.20136006 -0.21666397 0.15061504
0003e0 f7 be 14 3d 28 42 0f 3e 89 11 1f 3e 1b 28 41 bd
       0.03631493 0.1399008 0.15534033 -0.04715739
0003f0 aa c9 90 bd 29 3a 14 be 3e e9 bc bd fa 5b 57 3e
       -0.07069714 -0.14475311 -0.09224175 0.2103118

network_body.observation_encoder.processors.0.model.residual.bias f4 [16]
000000 85 4a 80 3d f6 45 2b 3e 4f 14 03 3e e2 80 a1 3b
       0.062642135 0.16725907 0.12800716 0.004928694
000010 c3 cc 54 3e 9f 8b e9 3d a3 13 27 3e 79 10 4b 3e
       0.20781235 0.11403584 0.16316085 0.19830503
000020 e9 6f a0 3d 9e 73 75 be 61 33 21 bd f1 89 81 3e
       0.07833845 -0.23969886 -0.03935564 0.25300553
000030 d3 7f 79 3e 90 60 e5 bd e4 8a 10 3e 01 93 7b be
       0.24365167 -0.112000585 0.14115483 -0.24567796

network_body.observation_encoder.processors.0.model.final_conv.weight f4 [2, 16, 1, 1]
000000 9b 65 8f 3e 67 f3 74 3e 4d 0e 63 3e b0 86 b7 be
       0.28007206 0.23920976 0.22173424 -0.35844946
000010 f0 2c 82 3e d7 6f 04 3e 4f 4a 8b 3d b7 c8 0e 3e
       0.2542491 0.12933289 0.068012826 0.13943754
000020 65 35 9f be 6a 16 9b bd b3 db b5 be 8e a5 a9 bd
       -0.31095424 -0.075726345 -0.3551918 -0.0828353
000030 36 7d 78 be 0b 14 98 3e 18 e5 c2 3d e1 da 6a 3d
       -0.24266514 0.29702792 0.095163524 0.057337645
000040 42 d2 95 3d 46 4a 4d 3d fe 40 ef bd c0 82 d1 3d
       0.07315494 0.05011966 -0.11682318 0.10230017
000050 ea fc 56 be 55 5b 67 be d1 54 35 3d 45 98 02 be
       -0.20994917 -0.22593434 0.04427034 -0.12753399
000060 46 9d 7f 3e 87 a4 90 3e ea 89 24 3e 88 69 51 3e
       0.24962339 0.28250524 0.16068235 0.20450413
000070 61 5c c9 bc 13 0c a4 bd b7 d4 7f be 43 8b 66 be
       -0.024580183 -0.080101155 -0.24983488 -0.22514062

network_body.observation_encoder.processors.0.model.final_conv.bias f4 [2]
000000 d9 cd a3 3d e2 62 18 3e
       0.07998247 0.14881471

network_body._body_endoder.attention.query.bias f4 [72]
000000 00 00 00 00 00 00 00 00 00 00 00 00 00 00 00 00
       0.0 0.0 0.0 0.0
000010 00 00 00 00 00 00 00 00 00 00 00 00 00 00 00 00
       0.0 0.0 0.0 0.0
000020 00 00 00 00 00 00 00 00 00 00 00 00 00 00 00 00
       0.0 0.0 0.0 0.0
000030 00 00 00 00 00 00 00 00 00 00 00 00 00 00 00 00
       0.0 0.0 0.0 0.0
000040 00 00 00 00 00 00 00 00 00 00 00 00 00 00 00 00
       0.0 0.0 0.0 0.0
000050 00 00 00 00 00 00 00 00 00 00 00 00 00 00 00 00
       0.0 0.0 0.0 0.0
000060 00 00 00 00 00 00 00 00 00 00 00 00 00 00 00 00
       0.0 0.0 0.0 0.0
000070 00 00 00 00 00 00 00 00 00 00 00 00 00 00 00 00
       0.0 0.0 0.0 0.0
000080 00 00 00 00 00 00 00 00 00 00 00 00 00 00 00 00
       0.0 0.0 0.0 0.0
000090 00 00 00 00 00 00 00 00 00 00 00 00 00 00 00 00
       0.0 0.0 0.0 0.0
0000a0 00 00 00 00 00 00 00 00 00 00 00 00 00 00 00 00
       0.0 0.0 0.0 0.0
0000b0 00 00 00 00 00 00 00 00 00 00 00 00 00 00 00 00
       0.0 0.0 0.0 0.0
0000c0 00 00 00 00 00 00 00 00 00 00 00 00 00 00 00 00
       0.0 0.0 0.0 0.0
0000d0 00 00 00 00 00 00 00 00 00 00 00 00 00 00 00 00
       0.0 0.0 0.0 0.0
0000e0 00 00 00 00 00 00 00 00 00 00 00 00 00 00 00 00
       0.0 0.0 0.0 0.0
0000f0 00 00 00 00 00 00 00 00 00 00 00 00 00 00 00 00
       0.0 0.0 0.0 0.0
000100 00 00 00 00 00 00 00 00 00 00 00 00 00 00 00 00
       0.0 0.0 0.0 0.0
000110 00 00 00 00 00 00 00 00 00 00 00 00 00 00 00 00
       0.0 0.0 0.0 0.0

network_body._body_endoder.attention.value.bias f4 [72]
000000 25 88 0b be 61 87 b1 bd 8e 22 5d 3e e6 2a 41 be
       -0.13626154 -0.086683996 0.21595213 -0.1886402
000010 39 e7 6a be 4e f1 0e bd 10 4b 25 bf 76 47 e0 bd
       -0.22939767 -0.034898095 -0.6456766 -0.1095113
000020 ba 53 25 be fe e8 1d bf 0a 00 e6 bd 8f 1f ad bc
       -0.1614522 -0.6168364 -0.11230476 -0.021133212
000030 87 fa 54 3e 03 f2 42 3d be 54 f3 3d 36 d6 05 be
       0.20798694 0.04759408 0.11881398 -0.13069996
000040 9c 6d d0 be 8e 89 b7 3c f7 13 97 be b0 ab 33 3e
       -0.40708625 0.022404458 -0.2950742 0.17545962
000050 59 27 4b bc bf da fa 3d dd c8 10 3f 4f a2 b8 bd
       -0.012399518 0.12248754 0.56556493 -0.09015333
000060 5d 77 72 be c5 6f 33 3f 9a 00 82 3d 33 d1 92 bd
       -0.23678346 0.7009242 0.06347771 -0.07168808
000070 8c b5 97 3e db 91 75 3e ec 39 2d be 14 aa 85 bd
       0.29630697 0.2398142 -0.16916627 -0.065265805
000080 d5 ef e3 3e f6 0b 11 3e 49 e8 8f 3d ab 76 01 3e
       0.44518915 0.14164719 0.07026727 0.12642924
000090 c8 fb e4 3d da ca 7a bc 45 c0 e0 3d d6 a2 a3 3e
       0.11180836 -0.015307153 0.109741725 0.3196017
0000a0 bd 77 a1 3d 02 f2 2c 3e 08 3b 33 3e 87 ea 43 3e
       0.078841664 0.16889194 0.17502987 0.19132434
0000b0 4c 74 bc bd 83 e6 28 3d 78 c4 ed 3e 67 76 d4 bd
       -0.09201869 0.041235458 0.46438956 -0.10374146
0000c0 6d 08 fb bc 5a e4 15 3e 73 06 08 3e c6 31 8e bd
       -0.030643666 0.1463789 0.1328371 -0.06943087
0000d0 c2 2f d7 3c b5 58 03 be f3 77 81 3d 33 fc a9 bd
       0.02626789 -0.12826808 0.063217066 -0.08300056
0000e0 06 72 4c 3e a8 3c 79 3e 88 cb 81 3c b2 48 01 3e
       0.19965371 0.24339545 0.015844122 0.12625387
0000f0 fc 44 6a 3d 65 02 bd bd fa 8d a5 be 34 0a 36 be
       0.057194695 -0.09228972 -0.32334882 -0.1777733
000100 94 ae 98 3e 54 9d 32 3e f9 21 0f bb 9e 15 31 3e
       0.29820693 0.17442828 -0.0021840318 0.17293403
000110 87 57 ee bd 97 3d ef bd a1 6c 9d bd 5d 6f 87 be
       -0.11637788 -0.11681669 -0.07686735 -0.2645215

network_body._body_endoder.attention.norm.weight f4 [72]
000000 d7 e7 a5 3f 8d bc 8b 3f ac 5d 91 3f 15 b2 98 3f
       1.2961377 1.0916916 1.1356711 1.1929346
000010 f5 53 88 3f dd cd c4 3f b1 4b f2 3f 34 14 42 3f
       1.0650622 1.5375324 1.8929349 0.7581208
000020 ac 6e 6c 3f 98 50 c8 3f f2 cb ad 3f 29 bc e2 3f
       0.9235637 1.5649595 1.3577864 1.7713672
000030 2c 3e 9a 3f 9c e4 48 3f c3 6d c9 3f 29 5d 89 3f
       1.2050223 0.7847383 1.5736622 1.0731555
000040 12 14 cc 3f 87 1d 79 3f bf 1d 83 3f 1d d4 91 3f
       1.5943625 0.9731068 1.0243453 1.1392857
000050 77 6b 80 3f e5 bf b8 3f 63 a9 b2 3f 4b 99 9c 3f
       1.0032796 1.4433562 1.3957943 1.2234281
000060 cd c7 8d 3f b6 a7 cc 3f 96 db 17 3f 62 bf c0 3f
       1.1076599 1.5988681 0.59319437 1.5058405
000070 c5 fd ab 3f 17 d7 aa 3f fb f9 68 3f 16 63 17 3f
       1.3436819 1.334689 0.9100644 0.5913557
000080 ea 2e a8 3f 9a 78 46 3f cc b4 5e 3f 04 99 4e 3f
       1.3139317 0.77527773 0.86994624 0.80702233
000090 a6 8f 1b 3f 88 d0 5f 3f 16 2f 2a 3f 42 d5 6c 3f
       0.60766065 0.8742757 0.664781 0.92512906
0000a0 a1 a3 b8 3e c5 d7 fe 3e 18 ff 6d 3f 76 fc ac 3f
       0.3606234 0.49773994 0.9296737 1.3514545
0000b0 c1 91 97 3f 70 af 97 3f fa 6f 8d 3f 57 7c c8 3f
       1.1841356 1.1850414 1.1049798 1.5662946
0000c0 ed 23 76 3f 89 47 66 3f f0 ec 25 3f c0 33 b9 3e
       0.9614857 0.89952904 0.6481466 0.36172295
0000d0 ee 79 3a 3f 1e da 89 3f b4 20 bd 3e 1e 9b 36 3f
       0.728423 1.0769689 0.36939013 0.7133044
0000e0 96 55 87 3f f1 2a 87 3f 26 0f 91 3f 45 82 95 3f
       1.0572994 1.055998 1.1332748 1.168038
0000f0 c6 2a 6f 3f eb d6 94 3f 14 05 96 3f 62 db 9a 3f
       0.9342464 1.1628088 1.17203 1.20982
000100 78 9c c7 3f 3a d2 8d 3f eb a8 82 3f 1e 11 87 3f
       1.5594625 1.1079781 1.02078 1.0552099
000110 a2 4e 41 3f af 66 a1 3f 74 41 6e 3f b0 b1 ab 3f
       0.7551061 1.2609462 0.93068624 1.3413601

network_body._body_endoder.attention.norm.bias f4 [72]
000000 23 db 2a 3d 5b 74 2e 3d 0b da 85 3d ce d6 c9 3d
       0.04171289 0.042591434 0.06535729 0.09855424
000010 31 2e fe bd 34 63 40 3a 4d 5b 25 bf 50 30 d7 bc
       -0.12411154 0.0007339001 -0.6459244 -0.026268154
000020 ad c7 1d be aa c4 f6 be 2b 37 7b 3d 85 65 f7 3c
       -0.15408202 -0.48196918 0.06133191 0.030199775
000030 b5 da ff 3d fe 81 63 ba e5 fc 6d 3d 69 8c ff bd
       0.12492887 -0.0008678733 0.058102507 -0.12477953
000040 83 32 49 be f3 ac 4d 3d a8 0b 37 be f5 b8 3e 3e
       -0.19648175 0.050213765 -0.1787554 0.18625243
000050 e7 cd db 3c a1 e2 e7 3d f0 dc 03 3f 3b 9b 43 bd
       0.02683158 0.11322523 0.51509 -0.04775546
000060 78 6b 41 be 92 98 09 3f bf aa 90 bc 4e d5 bd bd
       -0.18888652 0.5374843 -0.017659543 -0.092692
000070 c8 82 1d 3e b6 1c 93 3d eb 3b 4c be 2b 13 f6 bd
       0.1538192 0.071832106 -0.19944732 -0.12015375
000080 c9 8b 25 3e 64 fd ca 3d 64 6e 33 bb 23 55 01 3e
       0.16166605 0.09911612 -0.002737903 0.12630133
000090 fe a3 0f bd 2f d6 24 bc 16 f4 8a bc 13 b3 06 3e
       -0.035068505 -0.010060831 -0.016962092 0.13154249
0000a0 2f 93 92 bd a0 0a 00 3e c0 7f 07 3d f7 5d 5f 3d
       -0.07156979 0.12504053 0.033080816 0.05453297
0000b0 e3 2b 57 be ed c1 65 3c 8f 7a b4 3e d8 5c 2d be
       -0.21012835 0.014023286 0.35249755 -0.16929948
0000c0 46 53 cb bd c5 69 8c 3d 2a aa 77 3d 32 47 bb bd
       -0.099279925 0.068561114 0.060465015 -0.09144439
0000d0 e2 d0 cd 3c f4 61 f8 bd d2 61 c9 3c 2c 9f 2b bd
       0.025124017 -0.12128058 0.024582777 -0.041899845
0000e0 0a 72 91 3d a6 9d f7 3d 3f 17 cd 3c 32 64 f0 3d
       0.07101829 0.12090616 0.025035499 0.11737861
0000f0 52 b7 06 3e 0c 67 03 3d 86 e7 06 be a8 50 1f 3e
       0.13155869 0.032080695 -0.13174257 0.15558112
000100 03 50 08 3e 33 9b 72 bd cc 3f 97 bc 8e 15 e9 3d
       0.13311772 -0.05923004 -0.018463038 0.11381064
000110 1a 19 6a bd be 18 18 bd 22 be 43 bd 46 05 2e be
       -0.057152845 -0.03713297 -0.047788747 -0.16994199

network_body._body_endoder.norm.weight f4 [72]
000000 6f 1c 8b 3f 95 f4 90 3f 2f e9 81 3f 88 e5 85 3f
       1.0868052 1.132464 1.0149287 1.0460672
000010 f6 95 2c 3f 34 a7 9a 3f 37 f8 94 3e 54 e0 47 3f
       0.6741632 1.2082276 0.29095623 0.7807667
000020 94 07 1c 3f f2 9d ec 3e d1 6d 43 3f 4f da 6d 3f
       0.60949063 0.46214253 0.7633944 0.9291124
000030 f2 c6 ab 3f 92 4f 0a 3f a1 2f 85 3f cf 75 69 3f
       1.3420088 0.54027665 1.040516 0.91195387
000040 5c f2 5a 3f d9 05 5b 3f 20 75 f5 3e 4b 2a 63 3f
       0.8552606 0.855558 0.47940922 0.8873641
000050 12 5d d9 3e 49 f9 ee 3e 3d cb c6 3e 89 37 1a 3f
       0.4245382 0.46674564 0.38826934 0.6024099
000060 5a 49 47 3f 58 07 d0 3e fa ee 15 3f 5d 1e aa 3e
       0.778463 0.40630603 0.58567774 0.3322629
000070 d2 bc 50 3f e8 d9 01 3f b2 c6 9a 3e a5 0b 72 3e
       0.81538117 0.50723124 0.30229717 0.23637255
000080 79 76 02 3f b7 ff 1f 3f cb a6 ac 3e 02 9e 59 3f
       0.50962025 0.62499565 0.33721003 0.85006726
000090 42 d1 91 3e cd 46 32 3f c3 8e 02 3f 1a 06 b6 3e
       0.28479964 0.69639283 0.5099909 0.3555153
0000a0 37 16 24 3e 67 1c b1 3e 0e 63 82 3e de 2f e8 3e
       0.160241 0.34591982 0.25466198 0.4534902
0000b0 fc 7b 96 3e 34 1c 89 3e 66 bc bb 3e 9e c7 d5 3e
       0.29391468 0.2677933 0.36667174 0.41753858
0000c0 39 63 a5 3e e6 dc 04 3f 53 0b 45 3e f9 78 d6 3e
       0.32302263 0.51899564 0.19242601 0.4188917
0000d0 6d 2f 85 3e 6b 10 85 3e 15 22 05 3f a0 8e 16 3f
       0.26012745 0.25989088 0.5200513 0.5881138
0000e0 db 45 f3 3e 7a 78 2c 3f 5d b9 4d 3f ec 68 50 3f
       0.47514233 0.6737133 0.80360967 0.814101
0000f0 41 47 85 3f f6 58 ad 3f 7d f8 9d 3f b9 22 80 3f
       1.041237 1.3542774 1.2341458 1.0010597
000100 1e da b6 3f 05 de 0a 3f 99 16 2c 3f 57 17 2a 3f
       1.4285314 0.54245025 0.6722198 0.66441864
000110 87 af 37 3f dc 81 58 3f e8 4e c3 3f 32 85 98 3f
       0.7175221 0.8457315 1.5258455 1.1915648

network_body._body_endoder.norm.bias f4 [72]
000000 9f ff 8f 3e cd 1b d7 3d e7 1e 81 3d a8 42 30 3e
       0.2812471 0.105033495 0.06304722 0.17212927
000010 fc c4 17 3e d6 51 06 3d c4 fa 1b 3f ea d8 68 3e
       0.14821237 0.03279289 0.6092951 0.22738996
000020 cc 45 44 3d 24 dd e4 3e 31 19 04 3f e3 63 a0 3e
       0.047918126 0.44699967 0.5160094 0.31326208
000030 99 e2 c0 3d 63 9a f4 b8 c4 ba b6 3c 05 51 f5 3b
       0.0941822 -0.000116635834 0.022305854 0.007486465
000040 b4 8b b8 3d 8c 33 e7 3d 4f a7 e6 3b 77 24 46 bc
       0.09011021 0.11289129 0.0070389877 -0.012093655
000050 c5 aa 85 3c cc 1d b5 3d dd af 1c be 1c b3 1d 3d
       0.01631678 0.08843574 -0.15301462 0.03850089
000060 35 bf 20 3d f8 51 f7 be 32 65 c2 bc d2 c4 39 bc
       0.03924485 -0.48304725 -0.023729894 -0.0113384295
000070 59 6c 03 bd 09 b3 f4 3d df 71 61 be 44 f0 1c be
       -0.03208575 0.11948211 -0.22016095 -0.15326029
000080 53 ea 48 be 96 9d e4 3d 1f a5 8c 3d 0a 6c 76 3c
       -0.19620638 0.1116287 0.06867432 0.015040407
000090 cc 8d f8 bd 7d 37 60 bd 99 24 9a bd 63 19 ad bc
       -0.121364206 -0.054740418 -0.07526512 -0.02113027
0000a0 c4 89 12 be 8d 1e 3c 3d 3c 9b 3a bd 48 6a aa bc
       -0.14310366 0.045927573 -0.0455582 -0.020802632
0000b0 98 fe 34 be 41 aa 82 3d b9 b3 0c be 2b a9 cd bc
       -0.17675245 0.063801296 -0.13740434 -0.02510508
0000c0 07 bb 26 be 74 b5 03 bc 7a 10 aa bd f0 35 30 bd
       -0.16282283 -0.008038867 -0.08303924 -0.04302019
0000d0 05 20 ce bc cf 4c f3 bd 1a 65 a2 bd b7 9f 93 3c
       -0.025161752 -0.118798845 -0.0792944 0.018020494
0000e0 a2 46 20 bd e6 98 58 3c d2 2c 33 3d 3e ee 2a bd
       -0.03912986 0.013220048 0.043743916 -0.04173111
0000f0 6a 86 37 3e fd be 2b 3d f2 9f 1d 3b fa 4e a2 3e
       0.17922369 0.041930187 0.0024051634 0.3170088
000100 85 b2 7f bd e9 44 61 be f4 7e 7c be d8 a2 ec 3d
       -0.06242611 -0.21998943 -0.24657804 0.115544975
000110 c1 ba c5 3d 0b a3 23 3e e6 f9 d0 bc 93 32 f2 bd
       0.09654761 0.15980165 -0.025509786 -0.118260525

network_body._body_endoder.lin_layers.seq_layers.0.weight f4 [144, 72]
000000 ad d5 4f 3e 60 2c 92 3e d9 f5 04 3e 59 17 e0 3e
       0.20296355 0.2854948 0.12984408 0.43767813
000010 96 56 1f 3e 3b e9 5c be 8d e0 b9 3e 56 05 23 3e
       0.15560374 -0.21573345 0.3630413 0.15920004
000020 af a8 86 bd 6b 60 2e 3f a7 ab be 3d 74 b6 a7 3d
       -0.065751426 0.6811587 0.09310084 0.08189097
000030 90 7c bb 3e d3 ab eb bd f5 02 04 bf 2d cb 93 3e
       0.3661847 -0.11507382 -0.5156701 0.28865948
000040 26 4b ac bd 0e 81 43 be 5d 7b e9 3e 46 d5 01 bd
       -0.08412771 -0.19092199 0.4560193 -0.031697534
000050 01 25 fd 3e 17 ce 50 be 71 9d 5d be 3a 18 8e 3d
       0.49442294 -0.20391117 -0.2164209 0.069382146
000060 10 19 06 3f 89 32 15 bf d2 1a 2a 3f 65 01 bf 3d
       0.5238199 -0.58280236 0.66447175 0.09326438
000070 0c 2c 84 3e be a5 56 be 9b 8b 3f 3f 68 ab bf bd
       0.25814855 -0.20961663 0.74822396 -0.09358865
000080 6d 4b 79 be 44 77 e2 be 2f 7f b5 bc 1f 61 59 bf
       -0.24345179 -0.44231617 -0.022155372 -0.8491382
000090 a6 5c 48 3e 5b 36 13 3e de 22 b6 3e 6f 3d ff 3d
       0.19566593 0.14376204 0.35573477 0.124628894
0000a0 bb 29 0a 3e 61 91 8c 3d 0e 5f 20 3e 74 d3 24 bf
       0.13492481 0.06863666 0.1566126 -0.6438515
0000b0 92 7c f2 be 32 07 b8 bf 09 4c dd be b1 8d 07 bf
       -0.47360665 -1.4377196 -0.43222073 -0.5295058
0000c0 52 7a d7 3e 2b e1 b2 be 45 92 cf bd 6d 27 82 be
       0.4208551 -0.34937415 -0.101353206 -0.25420704
0000d0 e1 6c 2e 3e 44 15 af 3e 6b 7d a8 3e 96 a2 d2 bd
       0.17033722 0.34195912 0.32908186 -0.10284917
0000e0 94 bc d2 bc 22 4d 8e be 73 ff 32 be 3c 31 01 bf
       -0.025724687 -0.27793223 -0.17480259 -0.5046575
0000f0 21 1f f8 bd 5d 70 8c be 53 9f fb bc f3 1d 39 3e
       -0.12115312 -0.27429476 -0.03071562 0.18077831
000100 0c 43 d1 bd 2e bb 7b be 7f 89 da 3d 18 07 5e 3e
       -0.10217866 -0.24583122 0.106707565 0.21682394
000110 a0 4a 93 3d e7 89 9d 3d 43 9d bf bd b3 66 f6 be
       0.07191968 0.076923184 -0.09356167 -0.48125228
000120 c5 74 bd 3c b5 4e 50 be 4b 57 8b be 39 85 ca bd
       0.02312697 -0.20342524 -0.27215037 -0.098886915
000130 cc e1 d0 3d f9 e3 96 be 78 99 1a 3f 50 60 90 3e
       0.10199317 -0.29470804 0.60390425 0.2819848
000140 40 f8 87 3e 84 6a 88 3e ba c6 77 3e 6d bd cf 3d
       0.26556587 0.26643765 0.24196902 0.10143552
000150 f5 d5 18 bf a7 31 46 3e 39 9f c4 be 3e b0 5a bc
       -0.5970147 0.19354878 -0.38402727 -0.0133476835
000160 55 29 86 3e 36 e2 a4 be d5 d3 68 3f 2d d5 d9 be
       0.2620341 -0.32203835 0.9094823 -0.42545453
000170 1a e8 4d be 4b 63 bc be 9f 6f da be 79 2b fe 3c
       -0.20108071 -0.36794505 -0.42663285 0.031026589
000180 c1 f7 a5 3e 54 fb e7 be 8f 35 44 3c 73 9e b5 be
       0.32415584 -0.45308936 0.01197566 -0.3547245
000190 43 0c 13 bf 99 41 13 bf 0c 92 89 3e d2 99 67 3c
       -0.57440585 -0.5752197 0.26869237 0.014135795
0001a0 68 b6 2f be 2b e0 17 bf d0 bc c3 be ca 0e 1a bf
       -0.17159426 -0.5932643 -0.3822999 -0.60178816
0001b0 de 96 49 3e 3f e0 7c be bd 59 13 3f ed ec 2b 3e
       0.19686458 -0.24694918 0.57558805 0.16789599
0001c0 30 33 d6 3e 13 7e 7c 3c 2f 66 ab 3e 4e ad 90 3e
       0.41835928 0.015410918 0.33476397 0.2825722
0001d0 fb f1 56 3f a8 03 89 3c 68 0e b8 be 5b 32 f5 b9
       0.8396298 0.016725376 -0.3594849 -0.0004676756
0001e0 eb 3c 17 3f 85 e0 db bd ef 35 ed 3d 08 b0 4c be
       0.5907733 -0.10736183 0.11582553 -0.19989026
0001f0 ca b4 c3 3e 63 05 54 3f a9 3e 56 bd 9a 93 56 bd
       0.3822387 0.8282072 -0.05230585 -0.052386858
000200 01 d5 06 3e 3c 07 e7 bd d4 9f 99 3e 9c b6 b2 3a
       0.13167192 -0.11280677 0.30004752 0.0013634744
000210 92 e8 9b be 46 73 43 3e b4 9c 53 3e 9d 21 3f 3e
       -0.30450875 0.19086942 0.20665246 0.18665166
000220 fe 14 a4 be c2 d1 54 3e 77 5a 79 be 4f 8f 5b be
       -0.32047266 0.20783141 -0.24350916 -0.21441387
000230 78 30 2c 3e f1 86 95 3c 51 27 ce bc d1 6e 14 be
       0.16815364 0.018252822 -0.025165232 -0.14495398
000240 38 43 36 3d c2 a6 35 3e ed 0e 85 bd 34 f2 2e 3e
       0.0444977 0.17739394 -0.064969875 0.1708458
000250 cd 64 0c 3f 8b 50 87 3e b3 28 bb 3e f1 66 24 3f
       0.5484131 0.26428637 0.3655449 0.64219576
000260 40 27 6f 3e 93 b8 e3 3e 45 94 17 3f cc 30 3a 3e
       0.23354816 0.44476756 0.59210616 0.18182677
000270 cb d5 3d be 87 18 7c be 41 28 ed be 73 5f a7 bd
       -0.18538587 -0.24618731 -0.46319774 -0.08172502
000280 f4 39 80 3e bf 9a b7 bd bf 1e 95 3e 89 c7 92 be
       0.25044215 -0.08965062 0.2912502 -0.28667858
000290 e4 fd 5f be 0f 9d a2 bd 4f 35 d5 be 0e 4b 84 be
       -0.21874195 -0.07940113 -0.41642234 -0.25838512
0002a0 f1 3e 10 3f 3d 80 20 bf 68 db a9 bd 61 39 d7 be
       0.5634604 -0.62695676 -0.082938015 -0.42035964
0002b0 a0 1e 90 be cd 92 b5 bd cd 1b 97 3e 94 8d bb 3d
       -0.28148365 -0.08865891 0.29513398 0.09157863
0002c0 9d 3b c2 bd fb ab 09 be e8 70 b1 be c2 23 b4 be
       -0.094840266 -0.13444512 -0.34656453 -0.3518353
0002d0 f0 10 c2 3d 09 d4 bc bd 86 5a 2e 3e 5e a5 f1 be
       0.09475887 -0.0922013 0.1702672 -0.47196478
0002e0 ab e2 d7 bb e8 f5 0c bf f0 91 a2 bc 03 7f 51 bf
       -0.0065883 -0.55062723 -0.019844979 -0.8183443
0002f0 e7 73 d9 bd eb f3 bd be e6 db 66 be 4a 08 7a 3e
       -0.1061781 -0.37100157 -0.22544822 0.24417225
000300 73 10 cb bd ed 57 2b be 9b 3e 4f 3e c8 2f a9 3e
       -0.09915247 -0.1673276 0.20238726 0.33044267
000310 9d ab 24 be 51 b3 24 bd 32 c5 3c 3d 16 af c7 3e
       -0.1608109 -0.040210072 0.046086498 0.39000767
000320 d8 47 6f be c7 28 ea be a3 d5 2a bc 9a c8 be 3d
       -0.2336725 -0.45734236 -0.0104269115 0.093156055
000330 9b 39 47 3d 9f c2 84 3e af e3 9a 3e 19 52 94 3d
       0.04863892 0.25929734 0.30251834 0.072422214
000340 e0 38 42 be d5 6a aa bd d8 9d b1 3d 6a 20 f9 be
       -0.18967009 -0.08321158 0.086726844 -0.48657542
000350 5b 61 03 3e 01 cc 01 3f e1 6a a0 3d 80 7b 4d 3e
       0.12830107 0.5070191 0.078328855 0.20066643
000360 c1 95 3c 3e ab bc db bd 8b 5b 29 3f f0 b0 5f be
       0.18416502 -0.10729345 0.6615531 -0.2184484
000370 ea 02 53 3e 90 c2 65 3e c2 ce 99 3e e1 9b 0d 3d
       0.2060658 0.22437501 0.30040556 0.034572486
000380 cc 1b 53 3d 0c b8 8c 3e e9 a8 6b be bf 02 a1 3e
       0.05154018 0.27484167 -0.23013653 0.31447408
000390 47 cc fa bc 0d 02 55 3e 82 0d f1 be 2d 44 a1 3e
       -0.030614985 0.20801564 -0.47080618 0.31497326
0003a0 33 41 f5 3e 9a de 07 3e c1 fa 65 3e 07 4d 0b bf
       0.47901306 0.1326851 0.22458936 -0.5441441
0003b0 fc 7e e8 bd c7 c8 68 bf e6 8a 19 bf bd 8d 32 be
       -0.11352345 -0.9093136 -0.5997757 -0.17436881
0003c0 25 db 8c 3e 38 ca cb be 7d d8 f8 3d 99 2f 85 be
       0.27510944 -0.39802718 0.12150667 -0.26012877
0003d0 2c 37 a7 bd 11 b2 36 be 6e e3 14 3f d0 1d 0d 3f
       -0.0816482 -0.17841364 0.5815953 0.55123615
0003e0 2f c3 51 be 96 45 ae be c3 36 72 3e 98 39 2b be
       -0.20484613 -0.34037465 0.23653702 -0.16721189
0003f0 74 41 10 3f da 73 34 3e c4 83 e3 bd 41 fa 36 bf
       0.56349874 0.17622319 -0.11109117 -0.7147561

network_body._body_endoder.lin_layers.seq_layers.0.bias f4 [144]
000000 30 c4 e6 be 60 dc 14 bf c6 6e 19 bf 38 5d e5 be
       -0.45071554 -0.58148766 -0.5993465 -0.44797683
000010 c8 94 8f be 4e 90 81 be 0e c7 1b bf c4 d7 68 be
       -0.280432 -0.25305408 -0.6085061 -0.22738558
000020 ac 40 b9 be ec 2a 0d bf 56 d5 0b bf 3b 45 1f bf
       -0.36182153 -0.5514362 -0.546224 -0.6221501
000030 86 74 3a be db ac 02 bf 00 ab 0b be c5 f4 12 bf
       -0.18208513 -0.51045007 -0.1363945 -0.5740474
000040 1d f8 a8 be 64 e7 b6 be e6 be 61 be 4d b9 cf be
       -0.33001795 -0.35723412 -0.22045478 -0.4057106
000050 fd a9 2c bf a2 4e 94 be 62 29 07 bf 32 e4 e9 be
       -0.6744688 -0.28966242 -0.5279752 -0.45681912
000060 98 81 a3 be 16 95 06 bf ea f6 73 bc 4a 2d 2e bf
       -0.3193481 -0.5257124 -0.014890412 -0.68037856
000070 3f 01 d1 be fa 9e 08 bf 56 e6 e7 bd ae 70 90 be
       -0.40821263 -0.5336758 -0.1132323 -0.28210968
000080 0e 06 0c bf 83 2b 3c bf f8 9e 91 be 11 76 25 bf
       -0.5469674 -0.73503894 -0.28441596 -0.6463328
000090 58 f6 35 3e 89 6b 2f bf f7 5e 71 be 41 e8 0c bf
       0.17769754 -0.6852346 -0.23571382 -0.5504189
0000a0 bd ea 0b bf 71 ea 10 bf 52 ef 0d bf 6c 98 16 bf
       -0.5465506 -0.5660773 -0.554433 -0.5882633
0000b0 bd 0c ea be 6b a1 13 bf 06 bd 0b bf 63 fd 9e be
       -0.45712844 -0.5766818 -0.545853 -0.31052694
0000c0 d4 a0 c5 be 9e c9 8c be dc c0 9e be 35 52 e2 be
       -0.38599265 -0.27497572 -0.31006515 -0.44203344
0000d0 ff 0e c2 be 92 e6 21 bf c5 f9 00 bf 63 b5 59 3c
       -0.37902066 -0.6324245 -0.5038112 0.013287875
0000e0 ba 1e 2c bf 1e 8e f7 be 7f 0e 85 be 15 98 27 bf
       -0.67234385 -0.48350614 -0.25987622 -0.65466434
0000f0 62 92 77 be 20 d3 e2 be 09 08 ee be b6 58 92 be
       -0.24176934 -0.443017 -0.46490505 -0.28583306
000100 4c 3e 29 bf 39 10 7f be 54 48 52 be 58 3a 1b bf
       -0.6611068 -0.24908532 -0.20535403 -0.606359
000110 ec a2 2b bf 79 6a ad be 6f e2 14 3e 1b fa ac be
       -0.67045474 -0.33870295 0.14539503 -0.33784565
000120 bd a0 17 bf c5 9b 2e bf 76 82 2c bf 08 00 f8 be
       -0.5922964 -0.68206435 -0.6738657 -0.48437524
000130 88 78 dd be f4 9f d6 be 3a 88 07 bf 42 54 fb be
       -0.4325602 -0.4191891 -0.5294224 -0.4908772
000140 d7 af 12 bf 19 bd 31 bf a1 c0 d6 be 2c 09 78 be
       -0.5729956 -0.69429165 -0.4194384 -0.24222249
000150 87 85 e3 be 83 71 2c bf 5a 32 e1 be 1c 88 19 bf
       -0.4443781 -0.67360705 -0.43983728 -0.5997331
000160 cf fc 1a 3e 6d 41 ab be 1e 56 d0 be f7 f0 a2 be
       0.15135501 -0.33448353 -0.40690702 -0.31824467
000170 50 ea f5 be b1 5b d4 3d 26 a2 30 bf c9 e6 4f bb
       -0.4803033 0.10369051 -0.6899742 -0.0031723252
000180 42 7a 68 be 49 5b 2e bf 91 d3 e9 be fe 0d ef be
       -0.22702888 -0.6810804 -0.45669225 -0.46690363
000190 e5 ca f7 be 13 1a 07 bf 6c 35 de be d7 45 09 bf
       -0.48396984 -0.5277416 -0.43400133 -0.5362219
0001a0 73 91 e5 be d5 85 11 bf 36 d1 22 bf a3 a3 ff be
       -0.4483753 -0.56844836 -0.6360048 -0.49929532
0001b0 0b 62 b0 be 82 70 0a bf 83 d3 e4 bd ae f8 85 be
       -0.344498 -0.54077923 -0.11173155 -0.2616629
0001c0 79 da c6 be 88 73 0a bf 4d 60 a2 be 7e c6 21 be
       -0.38838556 -0.54082537 -0.31714097 -0.15798375
0001d0 b0 01 14 bf a2 73 0b bf be c3 de bd ca 24 a2 be
       -0.57815075 -0.54473317 -0.108771786 -0.31668693
0001e0 2b 8f 1d bf 46 20 31 bd 79 ae 09 bf 3d 52 ad bd
       -0.6154658 -0.04324367 -0.5378185 -0.08462951
0001f0 7b 1f 35 bf 0d 6d ff be 35 67 ef be b4 ea 98 be
       -0.7075116 -0.49887887 -0.46758428 -0.29866564
000200 99 2d 16 bf b7 9c 09 bf 13 d5 8b be 19 9a 1d bf
       -0.58663327 -0.5375475 -0.27311 -0.6156326
000210 6f c9 51 bf 6e 7c 0a bf 7a 71 28 bf 75 46 6f be
       -0.8194799 -0.54096115 -0.6579815 -0.23366721
000220 0b b8 48 be f5 a6 05 bf b8 ca f3 be 86 1e 6f bd
       -0.19601457 -0.5220788 -0.476156 -0.05837872
000230 cf 02 b5 be c0 c4 11 bf 57 25 1b be dc 8e fd be
       -0.35353705 -0.5694084 -0.15150963 -0.49523056

network_body._body_endoder.lin_layers.seq_layers.2.weight f4 [144, 144]
000000 e1 0a 2d 3e 4e be 83 3e 86 54 06 3c 07 d6 1e 3e
       0.16898681 0.25731128 0.008198863 0.15511332
000010 5e 22 ac be 00 46 96 3e 59 f8 28 be 7f 7c 6f 3d
       -0.3361997 0.2935028 -0.16500987 0.058468338
000020 aa 9b 64 be cb 69 fd 3c d3 e9 aa 3e 16 f2 1e 3e
       -0.22325006 0.030934235 0.3338152 0.15522036
000030 21 c9 b7 3e 4c 85 c2 3d c9 fc f6 3e 52 d3 04 3e
       0.35895637 0.094980806 0.48239735 0.12971237
000040 81 3e b8 3e e6 4f bd bd cc 9f 03 be 1a b6 df 3e
       0.35985187 -0.09243755 -0.12853926 0.4369362
000050 59 f3 36 be d5 82 1c 3d b1 f5 01 3e 29 6b b6 3d
       -0.17866267 0.03821071 0.1269138 0.08907158
000060 54 ce 91 3d f9 11 14 3e df 10 7c 3e db 47 ac 3d
       0.07119432 0.14459981 0.24615811 0.08412143
000070 d5 0b 85 3d e1 99 54 be 43 3a 66 bd 79 b2 6c 3d
       0.064963974 -0.20761825 -0.056207906 0.057787392
000080 5c 73 b8 3c 16 23 2d 3c 2b 30 98 3e 13 42 64 3d
       0.022515945 0.010567447 0.2972425 0.055727076
000090 14 8f bc 3d e0 58 b4 bd ac be 33 3e e3 eb 8a 3d
       0.092069775 -0.08806014 0.17553204 0.06783273
0000a0 45 23 b4 3e 46 d3 61 3e 62 c2 75 3e 5a 29 d6 bb
       0.3518316 0.2205325 0.23999932 -0.006535691
0000b0 1f 6c cb be e3 35 34 3e 35 bc af 3e 21 02 21 bf
       -0.39730927 0.17598681 0.34323278 -0.62893873
0000c0 2f 9b 25 3e bb 57 60 3e 70 37 19 3b 4f 2b 5c 3e
       0.16172479 0.21908467 0.002337899 0.21500896
0000d0 51 75 63 3e c9 e6 13 be a0 d7 a4 3e 2f e4 7a be
       0.22212721 -0.14443506 0.3219576 -0.24501108
0000e0 68 3e 5b 3e 42 ac 23 3d 23 da a1 3e 2c 76 ab 3c
       0.21410525 0.0399592 0.31611738 0.020930372
0000f0 d8 d7 8d be 93 2d a2 3e 59 dc 64 3e 75 06 c5 3e
       -0.27703738 0.31675395 0.22349681 0.3848149
000100 01 19 36 3e 78 dc ce 3e cf 10 76 3e a4 66 9e be
       0.17782976 0.4040258 0.2402985 -0.30937684
000110 36 02 71 bb c9 b9 b7 3d 9d 74 8d be 94 39 90 3e
       -0.0036775 0.089709826 -0.2762803 0.2816893
000120 3a 64 cb 3e 07 d3 93 bc 4c 2f 41 3c 57 eb ac 3b
       0.39724904 -0.018044962 0.011791062 0.005277078
000130 30 48 96 3e 64 bd a2 3e 26 49 5e 3e 1f fc a5 3e
       0.2935195 0.3178512 0.21707591 0.32418916
000140 8c 0b 93 be c7 d7 d7 3d f7 cd 9d 3e 7b ed e3 3e
       -0.28719747 0.10539203 0.308212 0.4451712
000150 fa c0 69 3d cc cd b5 be 87 e6 5b be 02 9b 41 3e
       0.057068802 -0.35508573 -0.21474658 0.18906787
000160 81 51 b8 3e 2c df 18 3e b5 ce 6d 3e ea 4c 6b 3b
       0.35999683 0.14928883 0.23223384 0.0035903999
000170 05 ea bd 3e b8 af 21 bf a1 a8 c4 bd 0a 56 99 3d
       0.37092605 -0.6315875 -0.09602476 0.07487114
000180 68 e5 6c be 92 48 19 3e d0 87 04 3e da 96 ed 3c
       -0.23134387 0.1496909 0.12942433 0.029002596
000190 7e 80 bf 3c 65 20 09 3f 58 cf 99 3c d9 21 b5 3c
       0.0233767 0.53565055 0.018775627 0.022110866
0001a0 5e 38 9b 3e a5 4e 5f bd e5 0c 72 bd 78 c3 25 3f
       0.30316442 -0.05451836 -0.05909433 0.64751387
0001b0 24 61 06 3d c7 c8 67 3e a9 6d c6 3d c1 1e 0f bf
       0.032807484 0.22635184 0.09688885 -0.559063
0001c0 e5 ea 9a 3e 72 0f b2 3e ab d3 64 3e dd 7d 84 be
       0.30257335 0.3477741 0.2234637 -0.25877276
0001d0 26 17 99 3d 7b 06 8b 3d 78 0f 82 be ed a3 b1 3e
       0.07475118 0.067883454 -0.25402427 0.34695378
0001e0 7d 37 c3 bd 5a 0b ec bd b1 f4 8b bd bd ed 1e be
       -0.09532068 -0.11525603 -0.068337806 -0.15520377
0001f0 5f 94 41 3d 66 78 ce 3c c8 40 02 3e 67 7b ac be
       0.04726064 0.025203895 0.12720025 -0.336879
000200 c1 a8 46 3e 02 e3 97 3d 9e f2 10 3d 31 42 51 3c
       0.19400312 0.07416345 0.035387628 0.012772129
000210 b5 ba 9e be 15 19 50 3e f1 23 a3 bc 8f 0d 75 be
       -0.3100182 0.20322068 -0.0199146 -0.23930953
000220 76 9a 0f 3e a6 af c4 3d d2 17 98 be 37 73 fc 3e
       0.14023766 0.09603815 -0.29705673 0.49306652
000230 3c d5 35 be 38 8b 36 3e d3 24 2e bd 37 44 11 3e
       -0.17757124 0.17826545 -0.042515587 0.14186178
000240 f1 9f 09 bd c3 f0 3c be b3 06 a7 3d a5 f4 1d 3e
       -0.033599798 -0.18451218 0.08155575 0.15425356
000250 46 2f 8b 3d cb 86 0d bf 0d 68 4d bd fa f2 0b be
       0.06796126 -0.552838 -0.05014806 -0.13666907
000260 37 6d 2a bd 79 9b 79 bd bf 7e 4f 3e 92 8d 6d bd
       -0.04160806 -0.060939286 0.20263194 -0.05799634
000270 4c b3 d5 3d 2b 61 30 3d de 17 cc be 73 e0 92 bd
       0.10434589 0.043061417 -0.3986196 -0.071717165
000280 de 96 e2 bd a7 e0 93 3d cf e9 79 be d2 88 98 bc
       -0.11063932 0.072205834 -0.24405597 -0.018619929
000290 4d 5b 89 3e c0 0b 14 3e 5c 58 a1 3e 88 de ee be
       0.2682747 0.14457607 0.31512725 -0.46654153
0002a0 ca 02 35 3d 73 4c eb 3d 79 ea 62 be b5 6b 6f 3e
       0.044192113 0.11489191 -0.22159757 0.2338093
0002b0 2d be 6e 3e 60 be 12 3e d3 b5 77 be 76 cf 75 bd
       0.23314734 0.14330435 -0.24190454 -0.060012303
0002c0 99 03 76 3e e3 3b 9d 3e 67 b2 c6 be e4 92 dc 3d
       0.2402481 0.30709752 -0.38807985 0.10770205
0002d0 7d df 21 be a5 91 3e 3d 78 31 91 bd fd 44 5d 3d
       -0.1580791 0.046525616 -0.070895135 0.05402087
0002e0 9a 24 ac 3e 7d 6f 17 3e 0c 01 b4 bd 9d 33 de 3d
       0.33621675 0.14788623 -0.08789262 0.10849688
0002f0 f8 90 53 be d2 7e e8 bd 44 5e ad bd 99 46 63 bc
       -0.2066077 -0.11352314 -0.08465245 -0.013871812
000300 85 7a 74 be d3 1b c6 3c e0 eb 3e be b4 f6 ea 3d
       -0.23874862 0.02418319 -0.18644667 0.11472836
000310 d7 5a 5b bd e2 62 1b 3e f7 40 a0 3e 40 04 d5 be
       -0.05355343 0.1517444 0.31299564 -0.41604805
000320 31 a7 25 3e bb 43 b7 bd 1c 17 8a be 34 11 b1 3d
       0.1617706 -0.089484654 -0.26970756 0.08645859
000330 5f a0 c9 be b4 2a 82 3d cd f6 72 3e cf 94 54 bd
       -0.39380166 0.06355801 0.2372696 -0.051899727
000340 59 42 f7 3d cc ef ce 3e 8b 1e 9e bd a5 ca a8 3e
       0.12073202 0.40417325 -0.07720669 0.32967106
000350 37 d6 96 bd 91 b0 1c bd 87 6a 0c be c1 1d d9 bd
       -0.07365077 -0.038254324 -0.13712512 -0.10601378
000360 84 ac 76 3e 38 76 c1 3d 0c f2 86 3e 06 08 93 be
       0.24089247 0.094463766 0.26356542 -0.2871706
000370 6c 62 12 3e 3e 94 52 3e 87 e4 41 3e da 96 a6 3c
       0.14295357 0.20564362 0.18934833 0.020335604
000380 23 60 84 be fd f7 72 3e d0 93 0f 3e 33 f8 53 3d
       -0.25854596 0.23727413 0.1402123 0.051750373
000390 be 56 04 3d 80 b4 05 3f 6a 1d d2 3d 74 0b 81 3e
       0.032309286 0.52228546 0.102595165 0.2520405
0003a0 bc 1d 9d 3d 5b aa c7 3d 56 43 1a be c9 a5 96 bd
       0.07671687 0.097492896 -0.15064749 -0.0735584
0003b0 81 d3 88 bc 3b 36 6d bc 94 8b 9a 3d be 7b 34 bc
       -0.016702415 -0.014478262 0.07546154 -0.011015831
0003c0 21 40 63 bd 20 8c 2b 3f f8 63 56 bc 64 44 64 bd
       -0.05548108 0.6701069 -0.013085358 -0.055729285
0003d0 92 d4 12 3e d3 ee 6f bd 17 ba a8 3e 83 a5 8c 3e
       0.14338902 -0.05857737 0.32954475 0.27470025
0003e0 a5 8b f3 3c 8e 97 e2 3d 32 8c 7d 3d d4 11 b6 3c
       0.029729674 0.11064063 0.06190128 0.022225298
0003f0 4c 29 f3 be e1 f3 a2 bd 7b dd a9 3e af 55 c7 be
       -0.47492445 -0.079566725 0.3317679 -0.3893256

network_body._body_endoder.lin_layers.seq_layers.2.bias f4 [144]
000000 7a 9a f9 be d6 6c 2a be 7a 06 b9 be 87 f5 cf bd
       -0.4875067 -0.1664308 -0.36137754 -0.101542525
000010 86 c7 5a be cf 4c b4 be 7f 1d c1 be 6a 56 87 be
       -0.21365175 -0.3521485 -0.37717816 -0.26433116
000020 b7 c6 ad be de 21 28 be cb 24 51 be 5d d2 f0 be
       -0.3394067 -0.1641917 -0.20424192 -0.47035494
000030 f0 ab 04 bf f0 35 84 be 58 58 97 be ff 09 b3 be
       -0.51824856 -0.258224 -0.29559588 -0.34968564
000040 f1 82 ab be a1 c5 50 bd a7 a6 35 be 6f d3 07 be
       -0.33498338 -0.050969724 -0.17739354 -0.1326425
000050 aa f9 1b be d6 9a 82 be c9 72 a6 be 2b 62 e6 bd
       -0.15231958 -0.25508755 -0.3250945 -0.11249193
000060 f6 a6 81 be 81 44 ab be 6f 7d b0 be ed 5c 7a bd
       -0.25322694 -0.33450702 -0.34470698 -0.061123777
000070 68 87 e9 be d5 7f 12 3d c5 79 ad be 2d 1d a3 be
       -0.4561112 0.03576644 -0.33881965 -0.31858197
000080 cc f6 20 be 07 73 81 be 02 b5 de be 0f 5d a2 bd
       -0.15719146 -0.2528307 -0.43497473 -0.07927906
000090 12 52 07 bf 8c b2 86 be 5b 80 ba be 87 d4 ff be
       -0.52859604 -0.26308095 -0.36426052 -0.49966833
0000a0 9c b0 70 be c7 b5 1b be 4b 21 98 be 4e 1b 9e be
       -0.23504871 -0.15206061 -0.297129 -0.30880207
0000b0 47 a7 5e be 6e 00 4d be d8 56 6e be 44 87 36 3c
       -0.21743499 -0.20019695 -0.23275316 0.011140648
0000c0 37 40 dc be 74 e6 69 be 1b e5 c5 be 55 ff 47 be
       -0.43017742 -0.22841817 -0.38651356 -0.19530995
0000d0 5b 74 d1 3c f6 b7 8c be d6 7f 5a be b2 33 8c be
       0.025568178 -0.274841 -0.21337828 -0.2738319
0000e0 f5 fb e8 be 6e 8b a5 be ff d9 82 be a7 10 bc be
       -0.45504728 -0.3233294 -0.25556943 -0.36731455
0000f0 be 9c 8f be 78 59 ab be 36 0c ff be db e2 bc be
       -0.28049272 -0.33466697 -0.49814004 -0.36891827
000100 78 69 bd be e1 d2 7a be b1 74 ce be 64 89 85 be
       -0.3699453 -0.24494506 -0.40323403 -0.26081383
000110 67 af a7 be 50 b6 53 be 9a ba ad be 54 80 2e be
       -0.3275101 -0.20675015 -0.33931428 -0.17041141
000120 33 54 88 be 67 04 bf be c1 08 af be 4b 22 5c be
       -0.2662674 -0.37308046 -0.34186366 -0.21497457
000130 88 36 06 be 59 14 9f be 37 ad c5 be 1f 0c 76 be
       -0.1310674 -0.31070212 -0.38608715 -0.24028061
000140 cb 48 71 be 49 0c a4 be f3 e5 78 bd 70 8c fc be
       -0.23562925 -0.32040623 -0.06076617 -0.49325895
000150 8a 94 8c be 3f 2c e3 be 66 2d b5 be b3 e3 e0 bd
       -0.27457076 -0.44369695 -0.353862 -0.1098093
000160 c2 18 68 be 15 bf d2 be 0b db 71 be 35 85 86 be
       -0.22665694 -0.4116141 -0.23618715 -0.26273504
000170 43 a1 1d be e6 32 b3 bd ee 60 07 be c2 0c 30 be
       -0.15393548 -0.087499425 -0.1322057 -0.17192367
000180 6e f8 40 bd 7e 5d bb be 0c c7 13 bf b7 d3 8d bc
       -0.04711192 -0.36594766 -0.57725596 -0.017312868
000190 76 86 21 bf 80 29 cd be 90 0b d1 be f7 17 11 bf
       -0.63095796 -0.40070724 -0.40829134 -0.5667719
0001a0 30 25 84 be c7 3d 75 be 1f 11 65 be 9d fa 90 be
       -0.25809622 -0.23949347 -0.22369812 -0.28316203
0001b0 77 f5 8f be 4a aa cf be 68 72 b0 be f7 58 6b be
       -0.28116962 -0.40559608 -0.34462285 -0.22983156
0001c0 7b de 0a be cc ac d5 be e8 e7 57 be 25 5e 97 be
       -0.13561432 -0.41733396 -0.21084559 -0.29564014
0001d0 72 11 c1 be b8 36 7c be 2b 6f e5 bd ee b1 a4 be
       -0.37708622 -0.24630249 -0.11202844 -0.32167
0001e0 ec a2 fc be 7c 09 e1 be 36 9a e2 be 92 64 f7 be
       -0.4934305 -0.43952549 -0.4425828 -0.48318917
0001f0 36 5c 8c be 2f fc 90 be 2b b7 29 bf 7c 01 26 be
       -0.274141 -0.283174 -0.6629512 -0.16211504
000200 2d 60 ac be e8 45 b0 be 69 ac 3f bc 45 15 db be
       -0.33667126 -0.34428334 -0.011698821 -0.42789665
000210 a8 c5 dc bd f8 c0 69 be a4 ba dc be c3 65 99 be
       -0.107798874 -0.22827518 -0.43111145 -0.2996045
000220 d6 0c 2b be ba 0b f6 be f8 87 83 be 2d 91 55 be
       -0.16704115 -0.48055822 -0.25689673 -0.20856161
000230 cc 0a 30 be f6 89 a1 be 0d 99 81 be ae 97 b2 be
       -0.17191619 -0.31550568 -0.2531208 -0.34881347

network_body._body_endoder.fc.weight f4 [128, 144]
000000 e8 fe a9 bd ec dd 11 be eb 1a c8 be d0 d8 79 be
       -0.08300573 -0.14244813 -0.39083037 -0.24399114
000010 31 2f 9a 3d b3 4b d6 be b5 b0 87 be 35 37 9a bd
       0.07528532 -0.4185463 -0.26502004 -0.07530061
000020 44 8b 80 be e6 ed 2f 3e d0 63 06 be d0 3c 87 be
       -0.2510625 0.17180595 -0.13124013 -0.26413584
000030 dd d7 3c be 00 67 3b bd 96 7b c0 be 52 91 11 be
       -0.1844172 -0.045752525 -0.3759429 -0.14215592
000040 bd 7e 8b be 6e 38 78 3e 81 45 3e 3e ae 75 6e be
       -0.2724513 0.24240276 0.18581201 -0.23287079
000050 f6 a6 0d be b8 27 6c be ad de 86 be 0d f0 10 bd
       -0.13833222 -0.23062027 -0.26341763 -0.03538518
000060 93 d3 5e bd a6 8e 9a 3c cb 1d 87 be 97 e1 18 3e
       -0.05440099 0.018866848 -0.26389918 0.14929806
000070 73 02 45 be 60 3e 7b 3e f9 2b 33 3e 0c 8f 19 be
       -0.19239216 0.24535513 0.17497243 -0.14995974
000080 bd 98 8a 3e 68 b1 d1 3c 56 e9 05 be f5 2e a2 3c
       0.27069655 0.02559729 -0.13077292 0.019797781
000090 c7 e1 3f be 74 84 10 be 49 f6 0a bd 93 c8 35 3d
       -0.18738471 -0.14113027 -0.033926282 0.044380736
0000a0 e4 fa 5f be ac d1 86 be d4 16 31 be d9 a0 f8 3d
       -0.21873051 -0.26331842 -0.17293864 0.12140054
0000b0 5f d5 d0 bd 1d f8 63 be ee f7 8f be bc 73 4e 3e
       -0.10196947 -0.22262616 -0.28118843 0.20161337
0000c0 7a a9 26 be 5b 72 46 be 32 19 9e be 25 c5 cf 3c
       -0.16275588 -0.1937956 -0.30878597 0.02536256
0000d0 3a ef d4 bd 84 27 8e 3d d7 d0 54 be 68 b0 86 3e
       -0.10397191 0.06941131 -0.20782791 0.26306462
0000e0 36 fa 35 be b8 e0 f7 bd 17 63 ff bd cb 76 57 bd
       -0.17771229 -0.121034086 -0.12470072 -0.052603524
0000f0 43 b3 1e be e7 f9 89 be 89 5e 42 bc ca 58 c9 3d
       -0.1549807 -0.26948473 -0.011863359 0.09831388
000100 92 3e 79 be 0c 1f f1 bb 56 0c ab 3d 8c 96 08 be
       -0.24340275 -0.0073584374 0.08351962 -0.13338679
000110 f5 8d 95 be 21 7c 93 3d ba bd 9c 3d 54 e7 b0 be
       -0.29209867 0.0720141 0.07653375 -0.3455149
000120 88 84 8c be c1 84 7d 3c 69 bd 81 be ea 20 27 3e
       -0.27444863 0.0154735455 -0.2533982 0.1632115
000130 12 3f 66 be ea 81 4d be 79 a6 da be 58 df 39 be
       -0.22484997 -0.2006909 -0.42705134 -0.18151605
000140 db b7 5b be 11 47 9a be f4 39 ac b8 5f 68 0f be
       -0.21456854 -0.30132344 -8.212394e-05 -0.14004658
000150 f9 22 1f be 78 2e a7 3c 72 a7 8f be 63 d1 8f be
       -0.15540685 0.0204079 -0.28057438 -0.28089437
000160 a0 fd 8f be 8e cb 9c be 07 08 f4 bd 17 e7 09 be
       -0.28123188 -0.3062405 -0.119155936 -0.1346706
000170 98 7e 22 be 99 98 47 be 3b 3d 84 3e c2 67 0b bc
       -0.15868604 -0.19491805 0.25827965 -0.0085086245
000180 71 61 61 be 55 b1 94 be ea 62 9a be fe 8a b9 3e
       -0.22009827 -0.29041544 -0.3015359 0.36238855
000190 94 9b 65 be dc a3 7c be 80 08 a8 be 2f d8 e3 bd
       -0.2242263 -0.24671882 -0.32818985 -0.11125218
0001a0 59 c2 8b be b7 bb 2e be 69 fa 88 3e 79 97 31 be
       -0.27296713 -0.17063795 0.26753548 -0.17342938
0001b0 7b c0 45 be ce 78 84 be ec b8 98 be e9 cb 4f be
       -0.19311707 -0.25873417 -0.29828584 -0.2029263
0001c0 de 2d 0e be 2a a2 95 be 3f ad 23 be ce a9 f1 3d
       -0.13884684 -0.29225284 -0.15984057 0.11799966
0001d0 9d 59 f8 bd 9b 2b 30 be 45 80 e4 bd 60 55 44 be
       -0.121264674 -0.17204134 -0.11157278 -0.19173193
0001e0 6b 01 4a be b5 c9 ad be 73 1e 0a 3d 18 99 59 be
       -0.19727103 -0.33942953 0.033720445 -0.21249807
0001f0 7d d4 e9 be 22 10 7f bd a3 0a 3f 3d ff a4 f4 bd
       -0.45669928 -0.062271245 0.046641003 -0.11945533
000200 ff ab ba be 17 e2 09 be 4c cd bd bd b0 de b2 bd
       -0.36459348 -0.13465153 -0.09267673 -0.087338805
000210 ae 9b 17 be f1 7a 97 be 3c d8 d6 bd 98 b3 00 3d
       -0.14805481 -0.29585984 -0.10490462 0.031421274
000220 b2 73 4f be 73 90 81 be 09 39 e5 bd b6 46 73 be
       -0.20258978 -0.25305519 -0.11192519 -0.23757443
000230 30 6d e4 be 89 f3 00 3c d6 42 81 be 79 0d bf be
       -0.44614553 0.007870563 -0.25246304 -0.37314966
000240 00 3e 41 be 9a 4e 0b be 55 a7 a0 be f6 81 8a be
       -0.18871307 -0.13604203 -0.31377664 -0.27052277
000250 95 03 4d 3e 04 aa b9 bd 95 76 98 be 4b 09 4e be
       0.20020898 -0.09065631 -0.2977797 -0.20120732
000260 28 d4 59 3d a5 18 46 bc 6e c9 d7 bc b0 72 4a be
       0.053180844 -0.012090837 -0.026341166 -0.19770312
000270 cd 18 ed bd a6 5d 9c be f4 c5 85 bd 25 94 34 be
       -0.11576996 -0.30540198 -0.06531897 -0.17634638
000280 64 97 99 be 58 e0 5a 3d 93 5c bc 3d cc 22 ce 3c
       -0.29998314 0.053436607 0.09197345 0.025163077
000290 d2 42 1c be 94 79 f6 bd 23 95 5a be 6f 89 0e be
       -0.15259865 -0.12034908 -0.21345954 -0.13919614
0002a0 d7 8c 05 be cb b3 a3 bd 06 30 54 be 1e 76 e5 3d
       -0.13042007 -0.07993277 -0.20721444 0.1120417
0002b0 af b1 51 be 04 18 29 3e 8a e9 b8 3e 71 d4 2f be
       -0.20477937 0.16513067 0.36115676 -0.17170884
0002c0 4a 2a 8c 3c 93 1c be 3b 54 7f e2 bb 6f d1 0d 3d
       0.017110009 0.005801746 -0.0069121514 0.03462356
0002d0 3e 94 71 bd 0d 8f 6c 3c 63 12 c7 bd 38 cb 0a be
       -0.058979265 0.014438403 -0.09720304 -0.13554084
0002e0 1f ee ea bd 41 55 38 be 3d 85 a4 3e 34 31 9b ba
       -0.11471199 -0.18001272 0.32132903 -0.0011840225
0002f0 09 51 17 be de 0c 3f be 8f 6c 45 be 2e 8f 89 3d
       -0.14777006 -0.18657252 -0.19279693 0.067167625
000300 07 97 d2 3c 9b fe 2f bd c1 c7 2a be ff 22 32 3e
       0.025706781 -0.04296742 -0.16677763 0.17396162
000310 f8 5f 0e be f1 72 dd bd 72 c3 cc bd 6e 8d 28 be
       -0.13903797 -0.10812939 -0.09998216 -0.16460201
000320 86 f0 9a bd 3c 3a a4 be ac b9 81 bd 4c 19 96 bd
       -0.075654075 -0.3207568 -0.06334242 -0.07329044
000330 04 1f 38 be 63 0d 52 bd 3b bc 4b bd bc c3 d7 3a
       -0.17980582 -0.051282298 -0.049740057 0.0016461532
000340 26 c0 68 be b5 91 c3 bc fe 43 74 bd 1f 13 b7 bd
       -0.22729549 -0.02387319 -0.059635155 -0.08939194
000350 25 4b 31 be 15 c0 e4 3d 77 7a de 3d 11 79 8f be
       -0.17313822 0.11169449 0.10863202 -0.28022054
000360 2f f6 89 be 45 a2 28 be 32 28 0e be 4c 8f 4d be
       -0.26945636 -0.16468151 -0.13882521 -0.20074195
000370 09 b3 3d bd d6 fd 00 be e7 f8 d0 be 46 b3 89 be
       -0.04631332 -0.1259683 -0.40814897 -0.26894587
000380 d2 f6 9b be 5b 6f 0b bd 8b b3 16 3d 03 b5 0a be
       -0.30461746 -0.034041744 0.03679232 -0.13545613
000390 a5 05 29 bd 25 e4 fb bd 89 ee fe bd 1a 70 af bc
       -0.04126515 -0.122993745 -0.12447841 -0.021415759
0003a0 1b e6 76 be d3 84 b3 bd 72 26 13 be 61 ca 13 bd
       -0.24111216 -0.087655686 -0.14370134 -0.036081675
0003b0 59 01 2d bd 88 0f 38 be 48 fa 44 3e 8b 42 48 be
       -0.042237613 -0.17974675 0.192361 -0.19556634
0003c0 a1 bb c1 be 95 cf f4 bd 58 5b aa be 99 f4 bf 3e
       -0.37838462 -0.11953656 -0.33272815 0.374913
0003d0 08 fb 4b bd 7f ba 3f be b6 73 57 be 3c df 41 bd
       -0.04979995 -0.18723486 -0.21040234 -0.047332034
0003e0 60 af 3d be 11 64 6a 3c a7 ac 43 3e f1 c3 80 be
       -0.18523932 0.014306084 0.1910883 -0.2514949
0003f0 43 1a 9e be f5 dc 1a be d4 ce cb 3b d6 a8 ff bd
       -0.3087941 -0.15123351 0.006219724 -0.12483375
