Assets/oon/new_nw.onnx (onnx, 808365 bytes, 64 tensors)

network_body.observation_encoder.processors.0.model.residual.weight f4 [16, 16, 1, 1]
000000 76 ad 83 bf fa e1 4f be 31 96 9e bd c6 33 28 3e
       -1.0287311 -0.20301047 -0.077434905 0.16426
000010 be 79 23 3f 56 62 35 3f 38 48 03 3d 00 01 ab be
       0.6385764 0.70853174 0.032051295 -0.333992
000020 ac 86 97 3f 79 d2 ee be c9 48 a3 3e ce 73 36 3f
       1.1837974 -0.46644953 0.31891468 0.71270454
000030 bd b1 a5 3f 44 ae 7d 3e 2d a9 8c bf d0 7a 8a bd
       1.2944866 0.24773508 -1.0989128 -0.06761706
000040 49 1c ac 3e d6 40 ab 3e 73 98 18 3e a1 4c ed be
       0.3361533 0.33447903 0.14901905 -0.46347526
000050 03 cb 32 3f 14 53 2c be a9 b3 0f 3f da 98 66 3f
       0.6984102 -0.16828567 0.56133515 0.9007698
000060 ae 70 fd bb 89 39 ed 3e 31 91 f5 bd 96 f9 a8 be
       -0.0077343797 0.46332958 -0.11990584 -0.3300292
000070 0a c4 4e 3f e1 9d a3 be 19 89 b0 3e e6 fd 12 3f
       0.8076788 -0.3195639 0.34479597 0.5741867
000080 9f c2 76 3f e7 f6 12 3f 7f f9 b9 be 07 41 be 3e
       0.9639072 0.57407993 -0.36323163 0.37158987
000090 ce 7f 43 3f 9f de b9 3e 05 c8 76 bf 23 75 83 3e
       0.7636689 0.3630266 -0.96398956 0.25675306
0000a0 f6 0a 06 bf 85 f1 bd 3c d8 4e bd be aa 1c cb 3d
       -0.52360475 0.023186455 -0.36974216 0.099175766
0000b0 b7 65 dc be d5 01 86 bf c4 22 e9 be 91 e6 a0 3e
       -0.43046352 -1.0469309 -0.45534337 0.31425908
0000c0 2f 9a b3 be af 7b 85 3e 24 9e 26 3f 92 0c 2f bf
       -0.3507857 0.26070926 0.65085053 -0.68378556
0000d0 8e d4 5e 3e d5 11 39 3e 46 e1 5f 3e b3 21 b3 3c
       0.2176077 0.18073209 0.21863279 0.021866655
0000e0 df 6f 59 3f c9 7a b5 3e 9e 8c f2 3e 6c 6c dd 3e
       0.84936327 0.3544524 0.47372907 0.43246782
0000f0 e9 fd 97 3f 18 bc 00 be 51 f0 09 3f 50 dc dd 3c
       1.1874362 -0.12571752 0.5388232 0.027082592
000100 2f ec 16 3e e1 00 f1 3e 5a 8e 77 bf ce f7 90 3d
       0.14738534 0.47070983 -0.96701586 0.07078515
000110 02 7c 44 3f 92 43 85 3e ac 50 82 3d 18 9b 1e 3f
       0.7675172 0.26028115 0.06363043 0.61955404
000120 33 76 0f 3f 8c 0b 3a 3f 54 01 66 bf ce 33 91 3f
       0.5603973 0.7267387 -0.89845777 1.1343935
000130 86 19 af bd 19 30 ea 3d fc 18 e0 be 64 7c 46 3e
       -0.0854979 0.11434955 -0.43769062 0.19383389
000140 7c 82 a5 be e5 7c 0b be 80 97 52 be 9a ac f1 be
       -0.32326114 -0.13621862 -0.20565605 -0.47201997
000150 66 ce 3c be c0 bb b7 be dd 31 20 bf 38 ed 2e bf
       -0.1843811 -0.3588543 -0.62576085 -0.6833072
000160 4e 96 31 be 9c b1 48 bf 98 f0 57 be 1c 1a a7 bd
       -0.17342493 -0.7839601 -0.21087873 -0.08159277
000170 b2 4a 0d 3e 75 84 38 bf 8d 1d 22 bf 4d 7e 1b bf
       0.13798025 -0.72077113 -0.6332634 -0.60739595
000180 86 c9 b7 3e 80 31 fc 3e 3f eb 7e be 69 23 2e 3f
       0.35895938 0.49256516 -0.24894427 0.6802278
000190 64 5a 22 3e dd fd 2c bd b8 ba 4c 3f 73 90 13 3f
       0.15854794 -0.04223429 0.7997241 0.57642287
0001a0 cf 4f a2 3e fc 60 9f 3d 37 3b 5a 3e c3 3f d1 be
       0.31701514 0.0778217 0.21311651 -0.4086896
0001b0 aa d6 e2 3e 62 b1 bc 3d 8a 45 39 3f fc fd 2e 3f
       0.443044 0.092135206 0.72371733 0.683563
0001c0 78 d7 e3 be 33 c0 37 bf 00 04 f8 bd a2 4a 60 3f
       -0.44500327 -0.7177765 -0.12110138 0.8761388
0001d0 05 b4 88 be 17 f2 58 3f 57 a5 59 3f 28 c6 60 bf
       -0.26699844 0.847444 0.85017914 -0.8780236
0001e0 34 4f ba 3e 4d 6d 23 bf 0d 0c 4f 3e cf 40 8d 3f
       0.36388552 -0.63838655 0.20219441 1.1035403
0001f0 d9 e2 84 3e 76 e1 1f 3f a4 8d 56 be cd 84 4f be
       0.2595432 0.624534 -0.20952469 -0.20265503
000200 d7 df d4 3e f2 84 18 3f ad 14 9d 3d d0 a5 ce be
       0.41577026 0.5957786 0.07669959 -0.4036088
000210 4b fc 3d 3f 78 bf e3 3e de d0 3a bf ec 56 20 3e
       0.74213094 0.44482017 -0.72974956 0.15658158
000220 8f c1 81 be 1b de 93 3d b3 df 1d 3e ce fa 07 3f
       -0.25342986 0.07220098 0.15417366 0.5311707
000230 84 df 89 bf 93 93 80 3e 4c 8e 04 bd 8b 8e f0 be
       -1.0771337 0.2511259 -0.032362267 -0.46983752
000240 0b b8 14 bd 2d 9f 3a bf f5 db 1c bf cf 2f 8d bd
       -0.03630833 -0.7289913 -0.6127313 -0.068938844
000250 60 08 fc bd 16 15 f5 3e 2a 7d cd 3e 3b ef 52 bf
       -0.12306285 0.4786765 0.40134555 -0.82396287
000260 57 09 ff be db 74 33 be d3 a0 29 bf 79 44 d6 bd
       -0.49811813 -0.17525046 -0.66261023 -0.10462279
000270 48 09 c4 3e cd 9c ae be b1 d1 00 3f 8e 51 38 bf
       0.3828833 -0.34104005 0.50319964 -0.7199944
000280 9d f8 87 be 67 2c 52 3f 19 32 91 be 9b 24 96 bd
       -0.26556864 0.82099 -0.28358534 -0.07331201
000290 a3 e7 84 3f 5a 00 17 3f 72 40 06 bf 5c ee 85 3e
       1.038319 0.5898491 -0.52442086 0.26158416
0002a0 c2 b9 be 3e 1f 83 ec 3e 46 da cd 3e 99 19 6f 3e
       0.37251097 0.46193787 0.40205592 0.23349608
0002b0 ba 69 d0 3e 28 16 ea 3e 49 fc fc bd da fe a4 be
       0.40705663 0.4572003 -0.12352807 -0.32225686
0002c0 d6 4a 18 3f 58 21 78 be 22 80 82 3f 62 91 16 3d
       0.5948919 -0.2423147 1.0195353 0.03675974
0002d0 90 71 ec 3e 49 a2 5e 3f 28 19 86 be fc 70 75 bd
       0.4618039 0.8696638 -0.26191068 -0.059922203
0002e0 51 0c 90 be e1 36 b7 3d a8 75 6f 3f e7 b8 18 3f
       -0.28134397 0.08946014 0.93538904 0.5965714
0002f0 46 df f5 3d c3 32 22 3f ed 56 01 bd ea 5f 36 3e
       0.12005477 0.63358706 -0.03157704 0.17810026
000300 1a bc 3b 3c c1 7b bf 3e f9 dc 45 be f9 84 74 bf
       0.011458421 0.37399104 -0.19322576 -0.955154
000310 9a 1f eb 3d fa b9 33 3f 49 7a 6c 3e f2 2a 0e 3f
       0.11480637 0.7020565 0.23093523 0.5553428
000320 f4 2f 7e 3e 26 a4 3b 3f cd d4 f9 3e af 89 e9 3e
       0.2482298 0.73297346 0.48795167 0.45612857
000330 40 8d 26 bf 3e f3 30 3f a3 25 25 3e 72 57 5c 3e
       -0.6505928 0.6912116 0.16127639 0.21517733
000340 4b bd 2b 3f 45 b2 cd 3d 79 07 81 be 91 30 83 3f
       0.67085713 0.10043768 -0.25201014 1.0249196
000350 53 41 fc 3e d3 7c d2 3e fc dd 2c 3f cc 2d 8a 3e
       0.49268588 0.41110858 0.6752622 0.26988065
000360 60 f1 ac 3e ec c8 2a 3f 66 a7 df 3d 4a 75 82 3e
       0.33777905 0.6671283 0.109206006 0.2548011
000370 ca 72 29 3f 6b 7a ae ba 33 5f 18 3f 2f fc 0b 3f
       0.6619078 -0.001331163 0.5952026 0.54681677
000380 35 fb 40 bf ea f5 cc bc 30 20 a1 be bd 03 31 bf
       -0.7538331 -0.025019605 -0.3146987 -0.6914633
000390 3f e4 2a bf e2 03 d8 be ea 4d d4 bd 0f 4c 83 be
       -0.66754526 -0.42190462 -0.103664234 -0.25643966
0003a0 20 21 b4 bd f1 44 7c bd 89 ec 8b be d2 98 38 bf
       -0.087953806 -0.061589185 -0.273289 -0.72108185
0003b0 29 97 ab 3e c9 ed f2 be 42 af c2 be ec 35 0f bf
       0.33513764 -0.4744704 -0.38024336 -0.55941653
0003c0 a8 1d 8c be a0 7c 4e bf 00 60 76 be ec 31 76 be
       -0.27366376 -0.8065891 -0.24060059 -0.24042481
0003d0 2c 22 55 3e 3f 94 11 3e 0b 6e a1 bd c3 46 d4 be
       0.20813817 0.14216708 -0.07882317 -0.41460237
0003e0 18 61 22 bf 84 4a 28 bf 09 a9 39 bf 1b 6e 18 be
       -0.63429403 -0.657387 -0.7252355 -0.14885752
0003f0 b7 66 9b be 92 25 d9 3c 4f ae 41 bf 20 c6 81 bf
       -0.30351803 0.026507173 -0.756566 -1.0138588

network_body.observation_encoder.processors.0.model.residual.bias f4 [16]
000000 49 14 bd 3d 3b 2f a2 3e 2a 71 4c 3e 3f 39 77 bd
       0.09232385 0.3167666 0.19965044 -0.06035733
000010 b4 f6 cd 3e 19 cd 9d be 47 91 a5 3d 07 7d 2b 3e
       0.40227282 -0.3082054 0.0808435 0.16746913
000020 b5 3c 8c 3c a0 4d c6 be 23 a9 79 3e 13 b6 34 3e
       0.017118791 -0.38731098 0.24380927 0.17647581
000030 67 0d eb 3e 8d 7f d9 3e f7 7e b6 be 8d d3 c3 be
       0.45908663 0.42480126 -0.3564374 -0.38247338

network_body.observation_encoder.processors.0.model.final_conv.weight f4 [25, 16, 1, 1]
000000 cc 65 a8 be ab c9 8e be 90 e7 3a be b1 ab 25 bf
       -0.32890165 -0.27888235 -0.18252397 -0.64715105
000010 bc a3 f8 bd e2 4b ff 3e 97 02 cf be 64 bb a5 be
       -0.12140605 0.49862581 -0.40431663 -0.3236953
000020 e1 e1 89 be 5c 5a ad 3d 31 53 dd be 8f e9 f5 be
       -0.26930144 0.084645 -0.43227533 -0.48029754
000030 7c d5 47 bd 59 a1 e5 be b6 aa eb 3e 8b d6 38 3e
       -0.04878758 -0.4484966 0.4602868 0.18050592
000040 06 84 52 be 29 d7 a0 be f5 ea 74 be a6 32 2a bf
       -0.20558175 -0.31414154 -0.23917754 -0.66483533
000050 7a ce 8b be 4c 23 71 3e 60 1d 16 bf 1c e5 11 bf
       -0.27305967 0.23548621 -0.5863857 -0.5699022
000060 dc 06 81 be e1 fd 6d 3e 46 6a 08 bf 1c ec 84 be
       -0.25200546 0.23241378 -0.5328716 -0.25961387
000070 40 f7 09 be 39 94 19 be 30 51 b7 3e b2 71 73 3e
       -0.13473225 -0.14997949 0.3580413 0.2377384
000080 5a 5f 51 be 7f 4e ce bd dc 50 1c bf 46 f8 ec bc
       -0.2044653 -0.10073566 -0.6106088 -0.02892698
000090 8d f7 e1 bd fd 2c 0c 3f c9 b8 82 bf ba 7a 20 be
       -0.11033545 0.54756147 -1.0212642 -0.15671816
0000a0 e1 17 15 bf d2 68 8b bd 7f f9 d4 be 69 0f 94 3e
       -0.5823956 -0.06807102 -0.415966 0.28918007
0000b0 71 34 1f bf 2a 86 bf be 02 11 65 3f f7 e5 ba 3e
       -0.62189394 -0.37407047 0.89479077 0.36503574
0000c0 00 7f 1d 3f 0a 94 57 bf 6b a1 32 3d a0 ab a2 bd
       0.6152191 -0.84210265 0.04361097 -0.07942891
0000d0 d0 fd aa 3f dd b5 82 3f 46 7a 44 bf db ea f6 3e
       1.3358707 1.021175 -0.76749074 0.48226056
0000e0 2e 4b 47 3f 58 85 9f be d1 50 e4 3e e3 f2 85 be
       0.7784909 -0.3115642 0.44592908 -0.2616187
0000f0 70 77 a7 3e e8 c3 72 bf 1e d0 6f bd 3a 2d 46 3e
       0.3270831 -0.9483018 -0.058548085 0.1935319
000100 e9 8e 73 bf 3e 6b f2 3e 68 3d 8d 3e 29 b2 65 bf
       -0.9513994 0.47347444 0.27585912 -0.89724976
000110 a0 a3 dd 3e c5 20 84 be 78 87 16 3f d7 29 43 bf
       0.43288898 -0.2580625 0.5880046 -0.7623572
000120 03 a8 2c 3f 16 34 5c bf 53 6b 43 bf df 52 56 bf
       0.67443866 -0.86016977 -0.7633564 -0.837202
000130 dd 42 d5 3e 3c ff f4 bc b9 67 b9 3e 9f b6 34 bf
       0.41652575 -0.029906861 0.36211947 -0.7059116
000140 c5 79 2a be 1a e5 8f be e6 51 2d be e2 36 db be
       -0.16648014 -0.28104478 -0.16925773 -0.4281531
000150 ce f0 01 bf bc 12 f3 3e 71 1d a8 be 46 4f 14 be
       -0.50758064 0.4747523 -0.32834962 -0.14483365
000160 bc 59 45 be 1a b0 d2 3c 2a 1e e4 be 9f 09 1c bf
       -0.19272512 0.025718737 -0.44554263 -0.6095218
000170 76 91 78 bc e5 0d c0 be 74 a6 09 3e 1d 92 8c 3e
       -0.015171399 -0.375106 0.13442403 0.27455226
000180 02 13 a1 be 7a 98 9c 3e 30 c9 d3 be a0 28 08 bf
       -0.31459814 0.3058508 -0.4136443 -0.5318699
000190 e1 c2 5e be 36 a0 99 3f 4f a1 30 be 20 94 c1 be
       -0.21754028 1.2002017 -0.17249034 -0.37808323
0001a0 a9 d0 bb bd d1 9e 6d 3c 67 41 39 3d 47 df c5 bd
       -0.09170658 0.014503197 0.04522839 -0.096617274
0001b0 56 56 e5 3d cf 4a 22 bd ee 71 29 3f 2c a5 db 3e
       0.11198108 -0.039622124 0.6618947 0.42899454
0001c0 b3 fc 94 be c0 fa b5 bf ca 0d 9c be 61 bf ac bf
       -0.29099044 -1.4217148 -0.3047927 -1.3495904
0001d0 7d 89 c9 3d 0e 22 17 3e 97 d1 06 3f e0 80 8b 3f
       0.09840677 0.14759085 0.5266356 1.0898705
0001e0 df 2c 07 bf fe 60 bb 3e ce 68 3d bf be 31 05 bf
       -0.5280284 0.36597437 -0.73988044 -0.52029026
0001f0 fc fe 87 bf 59 4a 0c 3f c0 bb 89 3e 1d d4 90 be
       -1.062469 0.54800946 0.26901054 -0.2828683
000200 50 2b bc be 80 40 3c bf 19 b3 d7 be a7 92 05 3f
       -0.36751795 -0.7353592 -0.42128828 0.521769
000210 3b 6d cd be 3d 8d 18 3e ca d1 e4 bc 07 24 12 bf
       -0.401224 0.14897628 -0.027932066 -0.57086223
000220 b1 7a 6c 3f 5c fb d9 3f 17 b6 4d be 4f 1d 94 bf
       0.9237471 1.7029834 -0.20088993 -1.1571444
000230 5e ad f4 be 68 6e 18 bf da 9b 8b be cd 4b ad be
       -0.4778852 -0.59543467 -0.27267343 -0.33846894
000240 a1 fa 8f be 90 fa 5d be 95 50 75 be 49 51 d3 be
       -0.28120902 -0.21677613 -0.23956521 -0.41272953
000250 8b 5c af be fc 10 09 3f 47 6c bc be 0d 97 aa be
       -0.34250292 0.5354154 -0.3680136 -0.33318368
000260 34 72 44 be 04 f3 11 bd be d7 0c bf b0 a4 1f bf
       -0.1918419 -0.03563215 -0.55016696 -0.6236067
000270 1e e3 d9 be 72 a8 45 be eb 8c ca 3e c3 7b 85 3e
       -0.4255609 -0.19302538 0.39560637 0.26070985
000280 a5 6c 3b 3f 5e 49 9d be 6c e0 3c bf f4 fd ef 3d
       0.73212653 -0.30720037 -0.7377994 0.117183596
000290 08 9c c6 3d 30 29 85 3e 5d b1 9a be cf 4f 30 be
       0.09697729 0.26007986 -0.30213442 -0.17217945
0002a0 2a b2 21 bf eb c2 f6 3e aa 52 af bf 48 7e 9c bf
       -0.6316248 0.48195586 -1.3697102 -1.2226038
0002b0 23 30 03 3f 4f 17 7c be 13 d1 88 3f dc dc 73 3e
       0.51245326 -0.24618267 1.0688804 0.2381472
0002c0 e4 f6 90 bc 57 e6 95 bd c1 b9 00 bf 15 7b 12 3f
       -0.017695852 -0.073193245 -0.5028344 0.5721906
0002d0 38 d8 91 bf 7a c6 bd 3f f6 1d f3 3d 0f fe c6 be
       -1.139411 1.4826195 0.11870949 -0.38865706
0002e0 91 89 af 3b a3 a8 6f bf ea 50 42 3f 9a 36 93 be
       0.0053569754 -0.93616694 0.75904715 -0.28752595
0002f0 fc 3e 1e bf 5b ca 54 bf 2e bb 60 3f 1e a5 c4 be
       -0.61814857 -0.8312127 0.87785614 -0.38407224
000300 b8 e7 a9 bf 77 8e 81 be a2 d2 95 bf 46 4d 03 bf
       -1.327384 -0.25304005 -1.1704905 -0.51289785
000310 cd 4b c9 bd cd 71 3b 3e 21 43 3c 3f 01 fb 76 3f
       -0.09828911 0.1830513 0.7353993 0.9647675
000320 c5 85 19 3e 07 af 22 3f 57 bf a6 bb 37 cf 9b bf
       0.14992435 0.6354832 -0.0050887275 -1.2172612
000330 c4 4f 32 3e 5f 3e 3e bf cb 7b de 3e 6d 96 9c 3f
       0.1741324 -0.7431392 0.43453822 1.2233406
000340 b3 79 b3 be 98 b6 91 bf bf eb 7f bf 11 df 97 be
       -0.35053787 -1.1383848 -0.99969095 -0.29662374
000350 c9 23 89 bf 52 5b 07 bf 54 f8 2c bf 0c cd 05 3c
       -1.0714046 -0.5287372 -0.6756642 0.008166563
000360 2c 8a 5d 3f 2a 9e 17 bf 26 35 3d bd 3b 38 0d 3f
       0.8653896 -0.59225714 -0.046193264 0.55163926
000370 b3 c4 61 3f b7 26 64 bf c6 ce 9e 3e 8a bb 3b be
       0.88190764 -0.89121574 0.3101713 -0.18333259
000380 cd 45 89 bf 86 bb 60 be 4e 72 93 3e 59 ae 0b 3f
       -1.0724427 -0.21946535 0.28798145 0.5456291
000390 bc 09 ff be b6 3d 3c 3f ff 75 7a bf 90 1e 0c 3e
       -0.49812114 0.73531663 -0.978363 0.13683534
0003a0 31 54 23 3c ee 0e d6 bc 5f 55 9f bf 4d b8 30 3f
       0.009968803 -0.026130166 -1.2447928 0.6903122
0003b0 52 02 0d bf 34 2f 18 bf 6e 1f 5b 3e 1e 26 c0 3d
       -0.55081666 -0.59447026 0.21398708 0.0938227
0003c0 f7 ae bd be 37 88 14 bf ca 84 5d be 43 96 c6 be
       -0.3704755 -0.5802035 -0.21632686 -0.38786516
0003d0 36 8e 9f be bb 76 f3 3e 82 64 0e bf 04 cc d2 be
       -0.31163186 0.47551522 -0.5562211 -0.41171277
0003e0 a5 62 c5 be d8 d1 54 3e 3e 63 26 be 3f 0c a1 be
       -0.38551822 0.20783174 -0.16248795 -0.31454656
0003f0 39 15 9e bc e5 40 fe bd 87 2e 52 3e 59 fa 2b 3e
       -0.01929723 -0.124147214 0.20525561 0.16794719

network_body.observation_encoder.processors.0.model.final_conv.bias f4 [25]
000000 7d 3c a3 3c dc e5 a5 bd 73 c2 c1 bc f8 71 26 3e
       0.019926304 -0.08100483 -0.02365229 0.16254413
000010 36 9b 0d be f7 f8 8e be 8f 69 9a be 33 8e 16 be
       -0.1382874 -0.2792432 -0.3015866 -0.14702682
000020 fb 44 7a bd 87 9f 85 be ba e6 ae be d0 57 c0 3d
       -0.06110094 -0.26098272 -0.34160405 0.09391749
000030 6b c4 6a be 03 95 48 bd 37 76 ce be 2b ce 82 be
       -0.2292649 -0.048970234 -0.40324566 -0.2554792
000040 6f 0c b7 be 77 2f c9 be e6 fb 3e be 5f ac b2 bd
       -0.35751674 -0.39294025 -0.18650779 -0.087242834
000050 05 ae d8 bd ff f6 06 be 08 2e 49 3d bd b5 62 bd
       -0.105800666 -0.13180159 0.049116164 -0.0553491
000060 f9 57 52 be
       -0.20541371

network_body.observation_encoder.processors.0.pooling_model.spatial_extractor.1.weight f4 [3]
000000 03 00 a5 3f bf 01 48 3f 1c 5f 6e 3f
       1.2890629 0.78127664 0.93113875

network_body.observation_encoder.processors.0.pooling_model.spatial_extractor.1.bias f4 [3]
000000 6e e1 94 3e 68 65 21 3e 6f 97 9a bc
       0.2907824 0.1576134 -0.018871037

network_body.observation_encoder.processors.0.pooling_model.spatial_extractor.1.running_mean f4 [3]
000000 12 f6 88 3c 61 6b e8 3d 43 31 8d 3e
       0.016718898 0.11348606 0.27576646

network_body.observation_encoder.processors.0.pooling_model.spatial_extractor.1.running_var f4 [3]
000000 f0 d1 84 36 a9 63 ee 35 e0 7b 4d 36
       3.9583465e-06 1.7761387e-06 3.0619485e-06

network_body.observation_encoder.processors.0.pooling_model.spatial_extractor.4.weight f4 [3]
000000 6f 12 0c 3f f9 fb 56 3f 2d 47 45 3f
       0.5471563 0.8397823 0.7706173

network_body.observation_encoder.processors.0.pooling_model.spatial_extractor.4.bias f4 [3]
000000 86 a4 e4 be bc 51 46 be e5 2a 88 be
       -0.4465677 -0.19367117 -0.26595226

network_body.observation_encoder.processors.0.pooling_model.spatial_extractor.4.running_mean f4 [3]
000000 76 9a aa 3f 5c a6 88 3f c8 a2 d4 bc
       1.3328388 1.0675769 -0.025956526

network_body.observation_encoder.processors.0.pooling_model.spatial_extractor.4.running_var f4 [3]
000000 77 cf 22 40 3f 73 20 40 67 c4 2e 3f
       2.5439126 2.507034 0.68268436

network_body._body_endoder.attention.query.bias f4 [108]
000000 00 00 00 00 00 00 00 00 00 00 00 00 00 00 00 00
       0.0 0.0 0.0 0.0
000010 00 00 00 00 00 00 00 00 00 00 00 00 00 00 00 00
       0.0 0.0 0.0 0.0
000020 00 00 00 00 00 00 00 00 00 00 00 00 00 00 00 00
       0.0 0.0 0.0 0.0
000030 00 00 00 00 00 00 00 00 00 00 00 00 00 00 00 00
       0.0 0.0 0.0 0.0
000040 00 00 00 00 00 00 00 00 00 00 00 00 00 00 00 00
       0.0 0.0 0.0 0.0
000050 00 00 00 00 00 00 00 00 00 00 00 00 00 00 00 00
       0.0 0.0 0.0 0.0
000060 00 00 00 00 00 00 00 00 00 00 00 00 00 00 00 00
       0.0 0.0 0.0 0.0
000070 00 00 00 00 00 00 00 00 00 00 00 00 00 00 00 00
       0.0 0.0 0.0 0.0
000080 00 00 00 00 00 00 00 00 00 00 00 00 00 00 00 00
       0.0 0.0 0.0 0.0
000090 00 00 00 00 00 00 00 00 00 00 00 00 00 00 00 00
       0.0 0.0 0.0 0.0
0000a0 00 00 00 00 00 00 00 00 00 00 00 00 00 00 00 00
       0.0 0.0 0.0 0.0
0000b0 00 00 00 00 00 00 00 00 00 00 00 00 00 00 00 00
       0.0 0.0 0.0 0.0
0000c0 00 00 00 00 00 00 00 00 00 00 00 00 00 00 00 00
       0.0 0.0 0.0 0.0
0000d0 00 00 00 00 00 00 00 00 00 00 00 00 00 00 00 00
       0.0 0.0 0.0 0.0
0000e0 00 00 00 00 00 00 00 00 00 00 00 00 00 00 00 00
       0.0 0.0 0.0 0.0
0000f0 00 00 00 00 00 00 00 00 00 00 00 00 00 00 00 00
       0.0 0.0 0.0 0.0
000100 00 00 00 00 00 00 00 00 00 00 00 00 00 00 00 00
       0.0 0.0 0.0 0.0
000110 00 00 00 00 00 00 00 00 00 00 00 00 00 00 00 00
       0.0 0.0 0.0 0.0
000120 00 00 00 00 00 00 00 00 00 00 00 00 00 00 00 00
       0.0 0.0 0.0 0.0
000130 00 00 00 00 00 00 00 00 00 00 00 00 00 00 00 00
       0.0 0.0 0.0 0.0
000140 00 00 00 00 00 00 00 00 00 00 00 00 00 00 00 00
       0.0 0.0 0.0 0.0
000150 00 00 00 00 00 00 00 00 00 00 00 00 00 00 00 00
       0.0 0.0 0.0 0.0
000160 00 00 00 00 00 00 00 00 00 00 00 00 00 00 00 00
       0.0 0.0 0.0 0.0
000170 00 00 00 00 00 00 00 00 00 00 00 00 00 00 00 00
       0.0 0.0 0.0 0.0
000180 00 00 00 00 00 00 00 00 00 00 00 00 00 00 00 00
       0.0 0.0 0.0 0.0
000190 00 00 00 00 00 00 00 00 00 00 00 00 00 00 00 00
       0.0 0.0 0.0 0.0
0001a0 00 00 00 00 00 00 00 00 00 00 00 00 00 00 00 00
       0.0 0.0 0.0 0.0

network_body._body_endoder.attention.value.bias f4 [108]
000000 7d eb 08 bd ac 41 4c 3f a2 61 32 be 2b 79 88 be
       -0.033427704 0.7978771 -0.17420056 -0.26654944
000010 91 16 6d be c9 d1 74 be a5 49 15 be 4c 8a 72 3d
       -0.2315314 -0.23908152 -0.14578874 0.05921392
000020 41 69 05 bf 64 c0 64 bf 7b f3 17 3e 7f 1e d2 bd
       -0.5211373 -0.89356065 0.14838974 -0.10259723
000030 40 23 ef 3d 56 c4 e0 ba 22 95 4b 3e fb dc dd bd
       0.11676645 -0.0017148356 0.19881108 -0.10833164
000040 59 66 a7 be 8c b4 5d be de df 34 bc be 16 41 bc
       -0.32695273 -0.21650904 -0.011039702 -0.011785207
000050 58 9e 83 3d 1e 40 f5 bb ab 2a 1d bd 10 ef 4a 3d
       0.06426686 -0.00748445 -0.03837077 0.049544394
000060 ff d2 8e 3d 02 1b 43 3f b8 8c 11 3e 76 8e 80 be
       0.06973838 0.76213086 0.14213836 -0.2510869
000070 ef 42 a4 3e 13 f4 55 3c 10 e1 f3 3d 66 13 90 3d
       0.32082316 0.01305868 0.11908162 0.0703495
000080 8d 1d 9f 3e 5b 78 3f 3e 7e 6f 00 3e e6 46 98 3e
       0.31077233 0.18698256 0.12542531 0.2974159
000090 2b 12 b0 3d 5c e4 c1 3e 2c f2 91 3e fb 22 e9 3d
       0.08597215 0.37869537 0.28505075 0.11383625
0000a0 17 a9 9e 3d ef ea ab bd bd 71 7c be 25 19 80 be
       0.07747095 -0.083944194 -0.24652763 -0.25019184
0000b0 b0 3f 91 3e 0e 91 79 3e 15 7f 08 3e b4 94 c4 bd
       0.28368902 0.2437174 0.13329728 -0.09598675
0000c0 cd ce 52 3e ba bb fb 3d 82 23 a4 3e 92 e4 b5 3d
       0.205867 0.122916654 0.3205834 0.08881487
0000d0 ab d7 f7 3d 9b 39 1f 3e f5 f7 1c bd a2 44 ff 3d
       0.12101682 0.15549318 -0.038322408 0.124642625
0000e0 dd e6 2e 3e 39 89 18 be 9c 7b d0 3d 14 a0 69 bd
       0.17080255 -0.14896096 0.101798266 -0.057037428
0000f0 c1 68 3e be 78 1d 55 3e 14 b3 06 3e b4 9b b1 bd
       -0.18594648 0.20812023 0.1315425 -0.08672276
000100 3d b1 cc 3d 1a 0b b2 bd bc c9 2c be 71 21 a5 3e
       0.09994743 -0.08693524 -0.1687383 0.32252076
000110 a3 12 80 3d 38 02 8e bd e3 6e 84 3d de ef ae 3e
       0.06253555 -0.06934017 0.064664625 0.3416738
000120 2f 9f 8a 3c cf 9a 47 3e 17 36 31 3e ab 77 4b 3c
       0.016921608 0.19492649 0.1730579 0.012418668
000130 d8 7c d4 be aa 98 17 be 75 51 0f be 29 82 76 bc
       -0.41501498 -0.1480433 -0.13995917 -0.015045681
000140 3e 2b fd bc dc 31 c9 3e a9 d8 6f 3d 94 92 c9 3e
       -0.030904409 0.39295852 0.058556233 0.39369643
000150 4e 7b 19 3e 75 2b 9b 3e 94 38 7a be 16 6b 3d be
       0.14988443 0.30306593 -0.24435645 -0.18497881
000160 c7 51 b1 3d 9a 85 b7 be 25 fd b4 be 6f a9 30 be
       0.08658176 -0.35844117 -0.35349384 -0.17252134
000170 e2 3f 38 be 5f f7 f6 3d 74 7b 10 bf 0a 1a 34 3e
       -0.1799312 0.12058901 -0.56438375 0.17588058
000180 d2 8b a2 bd 0b 6b 6a bc 6f 05 88 be 66 62 27 3d
       -0.07936825 -0.014307748 -0.26566646 0.040865324
000190 a0 18 42 bd bd cd d8 bd 7c 1f 82 be 37 b9 72 3d
       -0.047386765 -0.105861165 -0.25414646 0.059258666
0001a0 42 69 27 be de 18 2c 3d 57 55 31 be f2 28 4e be
       -0.16348746 0.042015903 -0.17317711 -0.20132807

network_body._body_endoder.attention.norm.weight f4 [108]
000000 6d 65 ca 3f 69 85 fb 3f fa 33 78 3f 1d 59 8d 3f
       1.5812203 1.9650089 0.9695431 1.104282
000010 19 39 88 3f 71 fd 80 3f 06 dd b1 3e 62 81 8c 3f
       1.0642425 1.0077344 0.3473894 1.0976985
000020 87 32 b8 3f 03 3e f3 3f 15 4f b0 3f b8 8a 49 3f
       1.439042 1.90033 1.3774134 0.78727293
000030 64 0f 95 3f 53 c7 c2 3f b2 76 ae 3f 31 32 c6 3f
       1.1645322 1.5217079 1.3629973 1.5484067
000040 60 06 76 3f cd 9c 80 3f 36 1b 44 3f 21 c2 6b 3f
       0.9610348 1.0047852 0.7660402 0.9209309
000050 7a b0 51 3f c9 f1 c5 3e 29 7f 83 3f 5f fb 57 3f
       0.81909907 0.3866103 1.0273181 0.84367937
000060 ae e2 5f 3f 6b 7a 04 40 29 fa 6a 3f d9 cf 9e 3f
       0.8745526 2.0699718 0.91787964 1.240718
000070 9d ba a6 3f 6e 3b a6 3f cd aa 65 3f 2b 63 c6 3f
       1.30257 1.2986887 0.89713746 1.5499014
000080 0f 62 88 3f 2f 7a 84 3f 05 0b 0c 3f 42 88 be 3f
       1.0654925 1.0349787 0.54704314 1.4885333
000090 2b a1 04 3f 57 67 15 3f cb 88 9f 3f 0a de 91 3f
       0.5180842 0.5836081 1.2463621 1.1395886
0000a0 d8 06 8a 3f c8 81 81 3f 10 30 67 3f df 63 87 3f
       1.0783339 1.0117731 0.9030771 1.0577353
0000b0 f7 3f 6a 3f 11 78 97 3f 15 99 72 3f 18 97 ad 3f
       0.9150385 1.1833516 0.94764835 1.3561735
0000c0 49 ba 26 3f bf cf b1 3f 73 28 87 3f 6c b8 8c 3f
       0.65128 1.3891524 1.0559219 1.0993781
0000d0 82 36 92 3f bc 4a 64 3f 33 e9 92 3f a4 c9 61 3f
       1.1422884 0.89176536 1.1477417 0.88198304
0000e0 d3 ce ac 3f 75 28 28 3f 61 a9 49 3e b0 a4 f3 3e
       1.3500618 0.6568673 0.19693519 0.47586584
0000f0 df 54 81 3f 7e f6 76 3f 28 7c 93 3f ec 2e c5 3f
       1.0104026 0.9646987 1.1522264 1.5404944
000100 39 b8 0b 3f 72 42 af 3f 34 c2 6a 3f f3 41 aa 3f
       0.54577976 1.3692153 0.9170258 1.3301376
000110 b9 70 d3 3e 96 22 a7 3f 1a 10 79 3f 26 9e 93 3f
       0.41296938 1.305743 0.97290194 1.1532638
000120 2a 2c 31 3f fc 79 79 3f 29 ba 71 3f 6c 63 17 3f
       0.69208014 0.9745176 0.9442468 0.5913608
000130 a8 71 bb 3f ab b1 88 3f b8 61 49 3f 38 1f 49 3f
       1.464406 1.067922 0.7866473 0.7856326
000140 89 7d 1c 3f 2c 27 8e 3f d7 99 0d 3f 56 0e 92 3f
       0.6112905 1.1105704 0.55312866 1.1410625
000150 0e 3e 58 3f f9 ee 8a 3f 40 45 5e 3f 63 14 65 3f
       0.8446969 1.0854179 0.8682442 0.8948423
000160 d5 97 55 3f 43 21 a6 3f f7 d7 aa 3f e1 e5 ac 3f
       0.834348 1.2978901 1.3347157 1.3507653
000170 d4 72 6e 3f e6 4e 23 3f 38 1a b9 3f 28 b4 21 3f
       0.93143964 0.63792264 1.4461126 0.6316552
000180 83 41 eb 3f 74 57 29 3f 38 5a 68 3f 02 50 4b 3f
       1.8379368 0.6614907 0.9076266 0.7941896
000190 ab 0a 6b 3f 8d 5c 5f 3f e6 0a 45 3f e8 56 ef 3e
       0.91813153 0.87250596 0.76969755 0.46745992
0001a0 01 94 a3 3f f6 6a 25 3f ef 3d 81 3f 4d 20 95 3f
       1.2779542 0.64616334 1.0097026 1.1650482

network_body._body_endoder.attention.norm.bias f4 [108]
000000 7a 83 3c 3e 8f 4f 67 3f 69 d8 c7 bd 55 5e 7c be
       0.1840953 0.9035577 -0.09758074 -0.2464536
000010 28 bb 68 ba e4 f5 81 be f3 63 44 be 63 78 34 3e
       -0.0008877986 -0.25382912 -0.19178753 0.17624049
000020 49 1c 05 bf 06 0c 77 bf 58 6c 6e 3d 43 54 dc bd
       -0.51996285 -0.9650272 0.058208793 -0.10758259
000030 af 1b e1 3b c1 41 87 ba 4a 35 22 3e 0d d4 13 be
       0.006869755 -0.0010319279 0.1584064 -0.1443636
000040 87 da 4e be 42 ec 84 be 0f c6 0b 3b 5f 67 6f bd
       -0.20200549 -0.259615 0.002132777 -0.05844819
000050 cf 24 18 bc b5 93 33 3d 30 a1 29 3e 3f 3a 68 3e
       -0.00928612 0.043842036 0.16565394 0.22678469
000060 e9 df 68 bd 94 77 6b 3f c0 a9 6a 3d 57 b4 57 be
       -0.056854162 0.91979337 0.057290792 -0.21064888
000070 26 9a 68 3e 2e 31 f8 bd 14 6a 06 3d c7 6c ff 3c
       0.22715053 -0.12118755 0.032816008 0.031179799
000080 c9 2a c2 3e b3 32 91 3e 82 a3 1d 3e d5 f7 06 3f
       0.37923267 0.28358993 0.15394405 0.5272191
000090 ab fa 7a 3d c3 9b b8 3e 95 5b 7f 3e c1 10 7b 3e
       0.06127421 0.36056337 0.2493728 0.2451811
0000a0 c1 d8 7d 3d 45 85 31 be 50 8c 97 be 4e ea e7 bc
       0.06197429 -0.17335995 -0.29599237 -0.028309967
0000b0 f6 40 d1 3e 1e 81 02 3e b2 84 41 3e 68 0f 33 3d
       0.40869874 0.12744567 0.18898275 0.043715864
0000c0 ae 59 4a 3e 25 28 4b 3e a6 b9 5a 3e b6 c3 16 bd
       0.19760773 0.19839533 0.21359882 -0.03680774
0000d0 71 5c 49 3d f2 df f7 3d d6 04 b8 bb 73 d9 0c bb
       0.049160425 0.12103261 -0.005615811 -0.0021491915
0000e0 d2 56 bf bc 66 87 23 be ca 5f 58 be 89 46 7f 3d
       -0.023356829 -0.15969619 -0.2113029 0.062323127
0000f0 4e ca 1a be 21 08 21 3c 0b 4e 59 bc 19 f8 17 be
       -0.15116236 0.009828598 -0.013263236 -0.14840735
000100 7e 28 50 3c 8e 05 5c be c2 dc 75 be 9c 98 78 3e
       0.012704967 -0.21486494 -0.24009994 0.24276966
000110 db 04 bb bd d0 f0 ca bd 87 18 fa bd 9e 78 59 3e
       -0.091317855 -0.099092126 -0.122117095 0.21237418
000120 17 df 24 be b6 d3 19 3e 7b 6d 4e 3e ad 06 2f bd
       -0.16100727 0.15022168 0.20158951 -0.042730976
000130 47 e9 05 bf 39 34 13 be e2 c3 75 be fb db fa bd
       -0.5230908 -0.1437539 -0.24000505 -0.12248989
000140 71 44 6e 3c 09 4d d8 3e 55 59 26 bc 60 b1 f3 3e
       0.014542685 0.42246273 -0.010153134 0.47596264
000150 a3 5f 73 3d 84 a4 af 3e e6 48 a8 be f8 ce 86 be
       0.05941738 0.34305203 -0.32868117 -0.2632978
000160 30 16 3a bd e2 f2 07 bf d3 2b e1 be 8e 96 72 be
       -0.045431316 -0.53104985 -0.43978748 -0.23690245
000170 8a 47 13 bd 1a af ef bb 27 d5 31 bf f0 2b 96 bc
       -0.035956897 -0.007314575 -0.6946587 -0.018331498
000180 e6 eb 13 3e b1 9f 80 3d 53 41 87 be 39 3a 86 3e
       0.14445457 0.06280459 -0.26417026 0.26216295
000190 db a6 ae 3d 3d 0c a5 bd 88 44 a4 be e0 39 16 3e
       0.08527919 -0.08058975 -0.32083535 0.14670515
0001a0 d4 9e 20 be 75 a7 a3 3d a0 0f 2b bd 8c 96 a6 bd
       -0.15685588 0.07990924 -0.041762948 -0.08134183

network_body._body_endoder.norm.weight f4 [108]
000000 74 f5 8f 3f b5 fa 96 3e dd fa d5 3e 1b 42 28 3f
       1.1246781 0.2948815 0.41792956 0.6572587
000010 03 33 1b 3f 99 d0 03 3f f2 f8 2f 3f 56 81 59 3f
       0.6062471 0.5149017 0.68739235 0.84962976
000020 ef 1a e9 3e 99 d1 96 3e 36 13 85 3f b4 b4 1f 3f
       0.4552836 0.29456785 1.0396488 0.62385106
000030 9d 5c 55 3f 93 cd 83 3f 92 46 8c 3f 0f c7 8d 3f
       0.8334444 1.0297111 1.0959036 1.1076373
000040 d8 44 e7 3e 43 a8 08 3f 73 56 03 3f 83 74 1f 3f
       0.4516971 0.53381747 0.51303786 0.6228716
000050 02 eb 18 3f d1 f8 e2 3e 23 54 bb 3d 47 3a 06 3f
       0.59733593 0.44330457 0.09146907 0.52432674
000060 12 41 f5 3e ff 98 ab 3e 68 f9 37 3f 6e f5 5f 3f
       0.47901207 0.33515164 0.7186494 0.8748387
000070 1c 65 32 3f e2 00 46 3f f7 c0 1f 3f b3 07 86 3f
       0.6968553 0.773451 0.62403816 1.04711
000080 8d 4c 26 3f fc e1 37 3f ce 46 3c 3f 15 c2 00 3f
       0.6496056 0.718292 0.7354554 0.50296146
000090 4a f4 f0 3e 15 b3 e8 3e 36 d1 80 3f 8e 0a 48 3f
       0.47061378 0.4544913 1.0063846 0.78141105
0000a0 70 b0 56 3f df 7c 2f 3f 24 0a f8 3e 3a 70 0c 3f
       0.8386297 0.68549913 0.48445237 0.54858744
0000b0 41 0a 25 3f b9 e3 5f 3f be d6 01 3f a3 20 82 3f
       0.6446877 0.8745685 0.50718296 1.016621
0000c0 f2 4a 05 3f 0f 59 78 3f 15 d3 74 3f af 84 4a 3f
       0.5206748 0.9701089 0.95634586 0.7910871
0000d0 d4 fb 63 3f 86 8c e6 3e 1b ae af 3e ee 1f 02 3f
       0.89056134 0.45029086 0.3431252 0.5082997
0000e0 45 4a dc 3e d3 7c 17 3d 12 2b 35 be f7 60 99 3d
       0.43025413 0.036984276 -0.17692211 0.07489198
0000f0 a7 69 ba 3d 0b 62 b9 3e 8a 77 08 3e 68 c9 08 3f
       0.09102183 0.36207613 0.1332685 0.5343232
000100 c2 c3 7c bb fb ec fd 3e aa 3e ec 3e 1f ae fc 3e
       -0.003856883 0.49594864 0.4614156 0.49351594
000110 b6 a4 7f 3e 62 0e a4 3e c0 40 8c 3e 4e 06 00 3f
       0.24965176 0.32042223 0.2739315 0.5000962
000120 30 36 bd bd 1a 20 95 3e 60 90 84 3e 95 37 bc 3c
       -0.09238851 0.29126054 0.258914 0.022975722
000130 ac bb 51 3e 52 3e ae 3e 81 49 7b 3e bc 8b 3d 3e
       0.20481747 0.34031922 0.24539758 0.18510336
000140 a6 23 10 3e 29 c2 0d 3f bf b8 3b bd 49 8f b8 3e
       0.14076099 0.5537439 -0.045830484 0.36046818
000150 23 7a 98 3e 80 87 e7 3e ad 4c b6 3d 84 96 22 3e
       0.29780683 0.45220566 0.089013435 0.1587773
000160 32 27 b1 3e 2e 1a a1 3e a2 fa bc 3e a2 bd 8e 3e
       0.34600216 0.31465286 0.36909968 0.27879053
000170 99 35 e1 3d 24 5e 56 bc 0a 4d f8 3e 55 10 3e 3d
       0.10996551 -0.013083968 0.48496276 0.046402294
000180 da 93 12 3f fa b6 84 3f 92 8e b5 3f 80 38 17 3f
       0.57256854 1.036834 1.4184134 0.5907059
000190 b8 fd b5 3f e5 7f 09 bd 6c 74 cd 3e ad 75 34 bd
       1.4218054 -0.033569235 0.40127885 -0.044057537
0001a0 4f d4 54 3f dc 91 62 3f 4f 8b 05 40 42 e6 a6 3f
       0.8313646 0.88503814 2.0866277 1.3039019

network_body._body_endoder.norm.bias f4 [108]
000000 27 8b 35 3e 09 b5 04 bf 36 8e 86 bd 39 e8 09 3e
       0.17728864 -0.5183874 -0.06570093 0.13467492
000010 c0 84 59 3d 75 bd 63 3e d9 e3 dc bd a4 87 6c 3e
       0.053105116 0.22240241 -0.10785646 0.23098618
000020 7d ae 93 3e 38 f6 17 3f ae 0e 77 3d ed bd 40 3e
       0.28844061 0.59360075 0.060316734 0.18822451
000030 5d 42 b1 bc 88 86 95 3d 8f 04 48 3e 34 fa 83 bd
       -0.02163809 0.073010504 0.19532989 -0.06444207
000040 5b 9e 28 be 18 0e 53 3d 05 96 18 3d 41 10 f3 bd
       -0.16466658 0.051527113 0.037252445 -0.118683346
000050 ea b4 8a bd c3 9d 23 be ad 85 9a bd 18 8a ba bc
       -0.06772788 -0.1597815 -0.07545028 -0.022770926
000060 ab 11 ad bc e9 8d e9 be f3 c1 8f bd d9 2a da bd
       -0.021126589 -0.4561608 -0.07019415 -0.10652704
000070 89 ea a0 be 70 eb c7 bd 6d f5 3b be e7 0a 5a be
       -0.31428936 -0.09761703 -0.18355341 -0.21293221
000080 c6 3c ba bd 16 db 27 bd 40 3e 9c 3d 8b 3f 16 be
       -0.09093623 -0.04098042 0.07629061 -0.14672677
000090 27 b4 05 3e 8b 50 3c 3e ee 6c bb 3d 0b 1c dd 3c
       0.13057004 0.183901 0.09151636 0.026990911
0000a0 d2 9c 91 3d 14 b6 35 bd 69 17 38 be 8c 6f 0d 3e
       0.07109989 -0.044363096 -0.1797768 0.13812083
0000b0 70 31 81 3e 1e 2c ce 3d 37 cc 11 bc 84 22 66 3d
       0.2523303 0.100670084 -0.008898786 0.05618526
0000c0 2d fc 81 3e a6 43 4b 3e 52 16 71 3e 91 48 1f ba
       0.25387707 0.19850025 0.23543671 -0.0006076182
0000d0 f6 ba 87 3d 01 d6 31 3e 17 f0 d7 3d 5d bf d4 3c
       0.06627457 0.17366792 0.105438404 0.025970155
0000e0 df 78 c8 3d 8a c8 04 3d 6c f7 cd bd 77 8e c7 3b
       0.09788679 0.03241781 -0.100569576 0.006089981
0000f0 64 77 96 3c e8 51 3a 3c 03 39 5c 3d 7f a4 c1 bd
       0.018367477 0.011372067 0.053765308 -0.09455203
000100 77 73 2e bd c0 64 3a be 6d 75 e6 bc 0a c5 4d be
       -0.042590585 -0.18202496 -0.028132165 -0.20094696
000110 dd 65 92 bc 2c 62 25 be 12 35 5f 3b b1 32 c1 bc
       -0.017870838 -0.16150731 0.0034058732 -0.023583742
000120 f5 c4 cc bc 56 ff 51 bd 88 a7 8d 3e d6 3c 6e ba
       -0.02499626 -0.051268898 0.2766688 -0.0009088045
000130 ed 3b bd 3d db 76 38 bd e8 40 7e 3d 9f f4 65 bd
       0.092399456 -0.045035224 0.06207362 -0.056141492
000140 c2 69 11 3d bc c3 88 bd b6 31 30 3c 00 51 49 3d
       0.03550125 -0.06677958 0.0107540395 0.049149513
000150 b1 10 9a 3d db bc 1a bc 53 1d d6 ba 64 c1 9c bd
       0.07522715 -0.009444441 -0.0016335644 -0.07654074
000160 0d 23 dd ba 84 c5 fb 3c 67 60 06 3e e5 df f6 bd
       -0.0016871408 0.030733831 0.13122712 -0.12054423
000170 3b c9 9a 3c 87 6c 8a 3d 09 c3 76 bd 0a fb 94 3c
       0.018894782 0.06758981 -0.060244594 0.018186111
000180 f4 e6 82 be 86 75 28 3d ec 52 9c be 51 63 86 3e
       -0.25566828 0.041127704 -0.30532014 0.26247647
000190 67 65 3f 3e 6d 48 aa bd fc a4 db be 9b 0f e8 bb
       0.18691026 -0.08314595 -0.4289931 -0.0070819384
0001a0 2e 43 f7 3d 7f e0 c4 3d 8a db 56 bd 42 09 04 bd
       0.120733604 0.09613132 -0.052455463 -0.03223539

network_body._body_endoder.lin_layers.seq_layers.0.weight f4 [216, 108]
000000 78 75 67 bc fa 19 bb be 9b e8 a4 3e 81 e1 de 3e
       -0.014127128 -0.36543256 0.32208714 0.4353142
000010 fd 56 98 3d 58 a3 23 3f f3 14 6b 3e 8e 1f 01 3f
       0.07438467 0.6392112 0.2295721 0.50438774
000020 35 d6 03 3f 16 1b ee 3e 8c f6 e9 3d 79 59 e4 3d
       0.5149873 0.4650504 0.11423978 0.11149878
000030 f9 a1 41 bc b8 40 5f 3e 64 50 34 be cd a9 31 3e
       -0.011818402 0.21802032 -0.17608792 0.1734993
000040 84 ec 40 3f 98 d7 e9 3e f0 37 c8 3c 80 15 3b be
       0.75360894 0.45672297 0.024440736 -0.1826992
000050 c5 91 1c bf f3 f5 3e be f2 3f 3e be 72 21 b3 be
       -0.61159927 -0.1864851 -0.1857908 -0.34986454
000060 06 b8 5d be 0f 7a f3 be 14 1d 15 bf 71 dc 9d 3e
       -0.2165223 -0.4755406 -0.58247495 0.30832246
000070 13 f6 e3 be ab 6c 96 bc 12 37 d9 be 91 30 64 be
       -0.44523677 -0.018362364 -0.42424828 -0.22284152
000080 76 aa 87 be 10 b2 f1 be f6 64 2c bf b1 9c 80 be
       -0.2649724 -0.47206163 -0.67341554 -0.25119546
000090 fd fa 16 be 2d 0e 99 be 18 10 4c be 2d 05 1d bf
       -0.14744182 -0.29893628 -0.19928014 -0.6133602
0000a0 ff e9 16 3f bd 94 f0 3e a7 ba 0b 3f 07 e1 11 3e
       0.589508 0.46988478 0.54581684 0.14245997
0000b0 3e bf 98 be a0 99 93 be e7 c5 81 be 1e dd 14 3f
       -0.29833406 -0.28828144 -0.253463 0.581499
0000c0 19 2a 78 be 92 1d e7 be 5f b6 10 bf f6 10 ca 3c
       -0.24234809 -0.45139748 -0.56528276 0.02466629
0000d0 44 24 c4 be 41 53 ab bd db aa c5 3d 13 3f 01 be
       -0.38308918 -0.08365489 0.09651729 -0.12621717
0000e0 7d c3 10 bd 11 ea c0 bd 0a 17 45 3e 57 b3 9e be
       -0.035342682 -0.094196446 0.1924707 -0.309962
0000f0 24 2b a0 3d aa ef 20 bf fa 3f c5 be d6 01 42 be
       0.078207284 -0.628657 -0.38525373 -0.18946013
000100 a1 9d c3 bd 97 6f 1c be 01 1d 39 3f 10 61 a9 be
       -0.0955155 -0.15276943 0.7230988 -0.33081865
000110 c4 b7 c8 3e 40 66 c4 3e 96 e6 02 3e da 63 ba be
       0.39202702 0.3835926 0.12783274 -0.36404306
000120 48 dd 09 3e 15 61 32 be 4c 7f 96 bd e5 a5 f2 3d
       0.13463318 -0.17419846 -0.07348499 0.11848048
000130 e5 dc 18 3e 42 0f cc 3e d4 31 2a 3f e2 ec 5e 3e
       0.14928015 0.3985539 0.6648228 0.21770051
000140 9c e5 98 3e be 89 30 bc 96 be d9 3e 4f 63 9d be
       0.29862678 -0.010775028 0.42528218 -0.3073983
000150 b5 e6 f2 3e 1b f0 83 be 24 07 8c 3e e3 d1 c8 3d
       0.4744164 -0.25769123 0.27349198 0.09805658
000160 1f dc 03 3f 24 50 a4 3d 59 4a 01 3f 7c ec 0a 3e
       0.51507753 0.08023098 0.5050407 0.13566774
000170 1c 7f a1 bd 29 c9 3c bc 20 c5 96 3e 9b 20 a7 3e
       -0.07885572 -0.01152257 0.2944727 0.32642063
000180 65 8e 8c bd 9e fd d9 be 7c 1a c8 be 90 07 30 bf
       -0.06863097 -0.42576307 -0.39082706 -0.6876154
000190 ae c5 0f 3f fb 21 cd 3d c2 c6 42 3e 05 8f 8e bd
       0.5616101 0.10016247 0.19021133 -0.069608726
0001a0 44 c6 e8 3e 05 f5 ea be 58 20 12 3f 05 b2 89 3e
       0.45463765 -0.4589006 0.570806 0.2689363
0001b0 e2 45 00 be 1c f4 14 bf d8 4c 4f 3e 01 32 3f 3e
       -0.12526658 -0.5818498 0.20244157 0.18671419
0001c0 10 02 79 3e 65 b6 0e 3e 3d 89 e9 3e 48 7c 26 bd
       0.24317193 0.13936765 0.45612517 -0.040645868
0001d0 82 55 c7 3e d7 d1 d7 3d d2 d9 4e be 81 85 d1 bb
       0.38932425 0.10538071 -0.2020028 -0.0063940887
0001e0 13 0b 75 ba ac 35 84 bd f5 cb a7 bd 9f ac 36 be
       -0.00093476585 -0.064555496 -0.081931986 -0.17839287
0001f0 ca a1 a2 3e 2a 57 f6 3d d2 76 95 3c d0 f1 77 be
       0.3176406 0.12028344 0.018245135 -0.24213338
000200 ba 0a 99 be 06 c8 dc 3d 10 c8 ab bd 14 93 7d be
       -0.29890996 0.10780339 -0.08387768 -0.24763137
000210 f4 be 75 be a9 74 c1 be 3a bb da be c6 38 8e 3d
       -0.23998624 -0.37784317 -0.42720968 0.069444224
000220 86 7a 9a be 6c b8 60 3d 67 2e b2 be 3b 0a f9 bd
       -0.30171603 0.05486338 -0.34801027 -0.121601544
000230 22 06 95 be 37 5c ec be e1 c6 8f be 59 30 f9 bd
       -0.2910624 -0.46164104 -0.2808142 -0.12167425
000240 8f bf 69 be 2e fd 90 be 01 a8 9b bd e9 f5 35 bd
       -0.2282698 -0.2831816 -0.076004036 -0.04442397
000250 42 be 5e be a6 02 16 3f 31 ca 0b 3f 45 de 06 3e
       -0.21752265 0.5859779 0.54605395 0.13170727
000260 03 3e 8f be b5 0b 77 3b 51 b4 8d bd 04 d7 23 3e
       -0.27977 0.0037696187 -0.06919158 0.1599999
000270 06 14 0b bf 26 c7 06 bd 90 39 db be 1c e0 d1 3b
       -0.5432743 -0.032904766 -0.42817354 0.0064048897
000280 04 6a 6a bd cb f7 84 be b6 3f 91 3d 20 c2 ec 3c
       -0.05723001 -0.259703 0.0709223 0.02890116
000290 cd 3c 05 3d 89 97 8d 3e 7e ee 97 3e 9d 2a d0 3d
       0.032528687 0.27654675 0.29674143 0.10164378
0002a0 e3 ff d7 3d 19 87 85 bd 61 6a 0c 3e ae 54 4f 3e
       0.105468534 -0.065199085 0.13712455 0.20247146
0002b0 f3 91 63 bd 2a 40 0b 3e 32 b1 b0 3e 2e fc 8c be
       -0.05555911 0.13598695 0.3451019 -0.27536148
0002c0 cf 34 3e 3e e1 16 83 bd 95 28 85 3d a7 e6 13 bf
       0.18574832 -0.06400848 0.06501881 -0.5777382
0002d0 c2 d4 71 be fd 48 ca be c2 e2 a7 be f9 ac 8b be
       -0.23616317 -0.3950881 -0.3279019 -0.27280405
0002e0 03 2f fa bc 0b 6f 04 3e 98 05 2f 3e b5 8e b8 3e
       -0.030539995 0.12932985 0.17091978 0.36046377
0002f0 a2 12 c7 3e e9 85 b9 bd 8f 80 f8 3c ba 3f 86 be
       0.38881403 -0.090587445 0.030334739 -0.26220495
000300 f2 f1 3d be 6a 12 b7 be 64 48 39 3e 3c 16 72 3e
       -0.18549326 -0.35756236 0.18094021 0.23641294
000310 cb 11 47 3e 0a b8 fc 3d 9c 58 b8 3e ed de a8 3e
       0.19440381 0.1233979 0.36005104 0.3298258
000320 6d d8 fe bd f3 4e 4f be fe ff e1 3e aa 91 30 be
       -0.12443624 -0.2024496 0.4414062 -0.17243066
000330 7f bd e0 bc 90 21 99 3e a5 be 4b 3c ed 2b 39 bd
       -0.027434109 0.2990842 0.01243559 -0.045207907
000340 e7 62 0e 3f 26 1c ef 3e 26 98 a9 3e 4a 45 ae 3d
       0.55619663 0.46701163 0.33123893 0.085093096
000350 dc 09 2d bc d8 73 05 be 71 6c b8 3e b4 f4 f1 3e
       -0.010561433 -0.13032472 0.36020234 0.47257006
000360 a7 5f 95 3d a3 5a c2 be 4c a9 fc 3e 03 1b 3e 3e
       0.07293635 -0.37959775 0.49347913 0.18564992
000370 4f 68 9a 3e 82 b3 81 3d 32 60 8f 3e 71 7e 53 bd
       0.30157706 0.063330665 0.2800308 -0.051634256
000380 16 1b 29 3e 9f fb 47 3e ee 8c 08 be 94 c7 45 3d
       0.16514239 0.1952958 -0.1333501 0.048286036
000390 02 bd 1b 3e 2e f4 b4 be 57 0e b7 be be df 07 be
       0.1520882 -0.35342544 -0.35753128 -0.13268945
0003a0 b2 03 40 3e e9 11 39 3e 4a cb 80 bd ca 94 cd bd
       0.1875141 0.18073238 -0.06288774 -0.10038145
0003b0 47 ea 8c be 62 13 a9 3d 3b 86 ca 3c aa 02 6a be
       -0.2752249 0.0825565 0.02472221 -0.22852579
0003c0 8a d0 34 3e 15 81 c2 be 4b 95 e9 be 6c d3 ac 3d
       0.17657676 -0.37989107 -0.45621714 0.08438763
0003d0 4f 63 95 be 91 75 ee be e0 56 b2 be 36 d7 fe be
       -0.2917733 -0.4657407 -0.34831905 -0.49773568
0003e0 23 b2 9f be b1 31 bf be 08 e8 e9 be 32 9c aa be
       -0.31190595 -0.373426 -0.45684838 -0.33322293
0003f0 0c 50 24 3e 55 30 a4 be df 80 8b be 23 d3 92 be
       0.1604616 -0.32068124 -0.27246758 -0.2867671

network_body._body_endoder.lin_layers.seq_layers.0.bias f4 [216]
000000 37 b6 34 bf 65 b3 d1 be 0e 4b 0d bf b5 b3 0d bf
       -0.7059054 -0.4095718 -0.5519265 -0.55352336
000010 9d 10 7d be 7a f0 c4 be fe ea 07 bf 22 af 2c bf
       -0.24713369 -0.3846472 -0.53092945 -0.6745473
000020 0b 96 ed be 6c 9c 2b bf 79 c0 0b bf 10 91 f4 be
       -0.46403536 -0.67035556 -0.54590565 -0.47766924
000030 41 fc c6 be c6 7e 2b bf 04 bd ee be 3f 03 34 bf
       -0.3886433 -0.66990316 -0.46628582 -0.70317453
000040 34 2b 11 bf e9 b0 15 bf 08 3b 08 bf 99 fd fd be
       -0.5670655 -0.5847307 -0.53215075 -0.49607542
000050 42 15 ef be a5 a1 0b bf 2e 32 ff be 1a 73 2b bf
       -0.46695906 -0.54543525 -0.49842972 -0.66972506
000060 de 04 6b bc 98 18 f4 be de e9 26 bf 2f 39 f0 be
       -0.014344422 -0.47675014 -0.65200603 -0.46918628
000070 cf ec 64 be b7 9d 18 bf 7d 6f 2b bf 06 50 0a bf
       -0.2235596 -0.59615654 -0.6696699 -0.54028356
000080 04 7a 18 bf 09 c4 08 bf 3f 31 27 bf c9 c3 6e be
       -0.5956118 -0.53424126 -0.6530952 -0.23316874
000090 81 d0 a9 be 23 e8 20 bf 20 ab 01 bf ca e2 e3 be
       -0.33166888 -0.6285421 -0.5065174 -0.44508964
0000a0 0e 03 fb be 37 86 d8 be f5 fa 07 bf f6 a1 01 bf
       -0.49025768 -0.42289898 -0.53117305 -0.5063776
0000b0 8e 88 23 bf 4f db 0d bf c0 da 13 bf 61 59 05 bf
       -0.6388024 -0.55412763 -0.5775566 -0.52089506
0000c0 82 f6 31 bf 21 0d 1c bf 37 09 12 bf 98 1f 9e be
       -0.69516766 -0.60957533 -0.5704531 -0.3088348
0000d0 89 c5 27 bf 5e 2e 09 bf cb 82 11 bf 61 0c 1c bf
       -0.6553579 -0.53586376 -0.568402 -0.6095639
0000e0 0b 78 df be cf 61 1d bf 31 18 fc be 23 16 2d bf
       -0.43646273 -0.6147737 -0.49237207 -0.676119
0000f0 47 6e 04 bf 03 3e f7 be 26 ef c8 bd 63 58 13 bf
       -0.5173077 -0.482895 -0.09811239 -0.5755674
000100 f9 2f 22 bf 5e 93 34 bf 6b 1a 1f bf bc f6 0a bf
       -0.6335445 -0.70537364 -0.62149686 -0.54282737
000110 bb b7 d0 be ed da d3 be 26 d4 da be 77 41 0a bf
       -0.40765175 -0.41377965 -0.4273998 -0.5400614
000120 d1 3f 35 bf 58 0a 10 bf a7 d4 bb be f5 5d 21 bf
       -0.708005 -0.56265783 -0.36685678 -0.6303399
000130 41 37 16 bf a9 a3 02 bf f5 52 fe be 74 3a 0b bf
       -0.5867806 -0.51030976 -0.49672666 -0.5438607
000140 ea 6d cb be 82 0b 1c be 83 d5 0d bf 2d 06 28 bf
       -0.39732295 -0.15238765 -0.5540392 -0.65634423
000150 98 80 d9 be a0 89 40 be 92 f0 ef be ad f9 15 bf
       -0.42480922 -0.188025 -0.46863228 -0.585841
000160 27 8d 85 be d7 c0 18 bf f6 4c 1f bf 4c e2 27 bf
       -0.26084253 -0.5966925 -0.6222681 -0.65579677
000170 a2 41 2d bf 0c 22 db be 83 fe 10 bf 2b f8 85 be
       -0.6767827 -0.42799413 -0.56638354 -0.261659
000180 2a f2 07 bf fb 93 01 bf e0 a4 00 bf 98 f5 01 bf
       -0.5310389 -0.50616425 -0.5025158 -0.5076537
000190 93 3d 94 be a1 da 1b bf 29 0f e2 be e8 2a d7 be
       -0.28953227 -0.60880476 -0.4415219 -0.42024922
0001a0 4c 9f 28 bf ff 9e 1b bf 03 25 2a bf 63 7d 9a be
       -0.6586807 -0.60789484 -0.66462725 -0.30173787
0001b0 41 d8 d3 be 69 59 00 bf 9a 8b c7 be 43 e8 ea 3d
       -0.41375926 -0.5013643 -0.38973695 0.11470082
0001c0 27 48 15 bf ae 57 6c 3e ba 4e 07 bf 6c 5c fc be
       -0.5831322 0.23080322 -0.528545 -0.49289262
0001d0 12 74 1a bf 96 42 a8 be 3b ba 29 bf d7 75 2b bf
       -0.6033336 -0.328633 -0.6629979 -0.66976684
0001e0 78 a9 2f bf f1 28 ec be 17 ec 1c bf 4c b9 cd be
       -0.68617964 -0.46124986 -0.61297745 -0.40180433
0001f0 35 f5 c5 be 7d 4b 13 bf 4c 19 14 bf 56 0e fa be
       -0.3866364 -0.5753706 -0.578511 -0.48839062
000200 76 a5 1f bf 50 90 f7 be dd 1e 20 bf cb 95 04 bf
       -0.6236185 -0.4835229 -0.62547094 -0.51791066
000210 39 ef 0b bf be f3 1c bf ea d8 cd be 5d 2b 2b bf
       -0.546619 -0.6130942 -0.40204555 -0.6686304
000220 cf 1d 98 bd 8e 15 1c bf 89 4d dd be 41 fb bb be
       -0.074275605 -0.6097039 -0.43223217 -0.3671513
000230 3d 09 e3 be c7 58 35 be f6 94 67 be 62 42 02 bf
       -0.44342986 -0.17709647 -0.22615418 -0.5088254
000240 59 39 65 be 1a 25 1c bf 33 86 24 bf 49 c4 1f bf
       -0.22385158 -0.6099411 -0.6426727 -0.6240888
000250 28 4e 86 be e7 b2 05 bf af 97 04 bf 8e c0 ad be
       -0.26231503 -0.5222611 -0.5179395 -0.3393597
000260 44 d0 f5 be fe aa fb be 19 df 0a bf cf 78 89 be
       -0.48010457 -0.49153894 -0.5424667 -0.26849982
000270 b3 29 dc be 02 58 09 bf b1 d9 77 be d4 32 22 bf
       -0.43000564 -0.53649914 -0.24204136 -0.6335881
000280 44 ad 20 bf 0f 20 0a bf 5f fb 10 bf 97 e1 24 bf
       -0.6276438 -0.5395517 -0.5663356 -0.6440672
000290 04 32 04 bf 3a 08 ad be 7f db 28 bf e0 49 ec be
       -0.5163882 -0.3379534 -0.65959924 -0.46150112
0002a0 c7 12 30 bf b6 86 3c bf c3 2c 42 be 6b 26 21 bf
       -0.6877865 -0.7364305 -0.18962388 -0.62949246
0002b0 a9 bd 1b bf 1c 59 d7 be f1 71 0e bf b6 f7 32 bf
       -0.60836273 -0.42060173 -0.5564261 -0.69909227
0002c0 8a 5f 0f bf da c3 cd be 60 fc 09 bf 21 7c 07 bf
       -0.56005156 -0.40188485 -0.5390072 -0.5292378
0002d0 ee 32 e5 be 8d 9a 2e bf 77 69 f0 be d7 ad 05 bf
       -0.4476542 -0.68204576 -0.46955463 -0.52218384
0002e0 24 79 15 bf 2f 1a c8 be 84 f2 bd bd 0e cb 1e bf
       -0.5838797 -0.39082476 -0.09274772 -0.62028587
0002f0 c0 76 b9 be f0 ba b7 be eb 09 37 bf d6 d4 27 bf
       -0.36223412 -0.3588481 -0.7149951 -0.65559137
000300 84 e0 f0 be 03 bc dd be cc 3a d2 be 6c 2f b1 be
       -0.47046292 -0.43307504 -0.41060483 -0.34606493
000310 2d 75 39 bf ed eb f6 be c9 09 ef be 15 06 c8 be
       -0.7244442 -0.48226872 -0.46687153 -0.3906714
000320 32 d0 0c bf 24 10 2f bf d1 d1 ae be b4 f8 2f bf
       -0.5500518 -0.68384004 -0.34144452 -0.68738866
000330 09 8c fb be ca 86 1f bf 0a 9e 3a be 25 67 17 bf
       -0.49130276 -0.62315047 -0.1822435 -0.5914176
000340 42 4e 2c bf 4c ee 37 bf 68 9f f6 be e9 85 c7 be
       -0.6730691 -0.7184799 -0.48168492 -0.38969353
000350 10 33 db be 24 05 05 bf 87 7f e6 be 6d a0 f7 be
       -0.42812395 -0.5196097 -0.4501917 -0.48364583
