Assets/oon/now_w.onnx (onnx, 808851 bytes, 63 tensors)

network_body.observation_encoder.processors.0.model.residual.weight f4 [16, 16, 1, 1]
-1.0287311 -0.20301047 -0.077434905 0.16426 0.6385764 0.70853174 0.032051295 -0.333992
1.1837974 -0.46644953 0.31891468 0.71270454 1.2944866 0.24773508 -1.0989128 -0.06761706
0.3361533 0.33447903 0.14901905 -0.46347526 0.6984102 -0.16828567 0.56133515 0.9007698
-0.0077343797 0.46332958 -0.11990584 -0.3300292 0.8076788 -0.3195639 0.34479597 0.5741867
0.9639072 0.57407993 -0.36323163 0.37158987 0.7636689 0.3630266 -0.96398956 0.25675306
-0.52360475 0.023186455 -0.36974216 0.099175766 -0.43046352 -1.0469309 -0.45534337 0.31425908
-0.3507857 0.26070926 0.65085053 -0.68378556 0.2176077 0.18073209 0.21863279 0.021866655
0.84936327 0.3544524 0.47372907 0.43246782 1.1874362 -0.12571752 0.5388232 0.027082592
0.14738534 0.47070983 -0.96701586 0.07078515 0.7675172 0.26028115 0.06363043 0.61955404
0.5603973 0.7267387 -0.89845777 1.1343935 -0.0854979 0.11434955 -0.43769062 0.19383389
-0.32326114 -0.13621862 -0.20565605 -0.47201997 -0.1843811 -0.3588543 -0.62576085 -0.6833072
-0.17342493 -0.7839601 -0.21087873 -0.08159277 0.13798025 -0.72077113 -0.6332634 -0.60739595
0.35895938 0.49256516 -0.24894427 0.6802278 0.15854794 -0.04223429 0.7997241 0.57642287
0.31701514 0.0778217 0.21311651 -0.4086896 0.443044 0.092135206 0.72371733 0.683563
-0.44500327 -0.7177765 -0.12110138 0.8761388 -0.26699844 0.847444 0.85017914 -0.8780236
0.36388552 -0.63838655 0.20219441 1.1035403 0.2595432 0.624534 -0.20952469 -0.20265503
0.41577026 0.5957786 0.07669959 -0.4036088 0.74213094 0.44482017 -0.72974956 0.15658158
-0.25342986 0.07220098 0.15417366 0.5311707 -1.0771337 0.2511259 -0.032362267 -0.46983752
-0.03630833 -0.7289913 -0.6127313 -0.068938844 -0.12306285 0.4786765 0.40134555 -0.82396287
-0.49811813 -0.17525046 -0.66261023 -0.10462279 0.3828833 -0.34104005 0.50319964 -0.7199944
-0.26556864 0.82099 -0.28358534 -0.07331201 1.038319 0.5898491 -0.52442086 0.26158416
0.37251097 0.46193787 0.40205592 0.23349608 0.40705663 0.4572003 -0.12352807 -0.32225686
0.5948919 -0.2423147 1.0195353 0.03675974 0.4618039 0.8696638 -0.26191068 -0.059922203
-0.28134397 0.08946014 0.93538904 0.5965714 0.12005477 0.63358706 -0.03157704 0.17810026
0.011458421 0.37399104 -0.19322576 -0.955154 0.11480637 0.7020565 0.23093523 0.5553428
0.2482298 0.73297346 0.48795167 0.45612857 -0.6505928 0.6912116 0.16127639 0.21517733
0.67085713 0.10043768 -0.25201014 1.0249196 0.49268588 0.41110858 0.6752622 0.26988065
0.33777905 0.6671283 0.109206006 0.2548011 0.6619078 -0.001331163 0.5952026 0.54681677
-0.7538331 -0.025019605 -0.3146987 -0.6914633 -0.66754526 -0.42190462 -0.103664234 -0.25643966
-0.087953806 -0.061589185 -0.273289 -0.72108185 0.33513764 -0.4744704 -0.38024336 -0.55941653
-0.27366376 -0.8065891 -0.24060059 -0.24042481 0.20813817 0.14216708 -0.07882317 -0.41460237
-0.63429403 -0.657387 -0.7252355 -0.14885752 -0.30351803 0.026507173 -0.756566 -1.0138588
00000000: 76ad 83bf fae1 4fbe 3196 9ebd c633 283e
00000010: be79 233f 5662 353f 3848 033d 0001 abbe
00000020: ac86 973f 79d2 eebe c948 a33e ce73 363f
00000030: bdb1 a53f 44ae 7d3e 2da9 8cbf d07a 8abd
00000040: 491c ac3e d640 ab3e 7398 183e a14c edbe
00000050: 03cb 323f 1453 2cbe a9b3 0f3f da98 663f
00000060: ae70 fdbb 8939 ed3e 3191 f5bd 96f9 a8be
00000070: 0ac4 4e3f e19d a3be 1989 b03e e6fd 123f
00000080: 9fc2 763f e7f6 123f 7ff9 b9be 0741 be3e
00000090: ce7f 433f 9fde b93e 05c8 76bf 2375 833e
000000a0: f60a 06bf 85f1 bd3c d84e bdbe aa1c cb3d
000000b0: b765 dcbe d501 86bf c422 e9be 91e6 a03e
000000c0: 2f9a b3be af7b 853e 249e 263f 920c 2fbf
000000d0: 8ed4 5e3e d511 393e 46e1 5f3e b321 b33c
000000e0: df6f 593f c97a b53e 9e8c f23e 6c6c dd3e
000000f0: e9fd 973f 18bc 00be 51f0 093f 50dc dd3c
00000100: 2fec 163e e100 f13e 5a8e 77bf cef7 903d
00000110: 027c 443f 9243 853e ac50 823d 189b 1e3f
00000120: 3376 0f3f 8c0b 3a3f 5401 66bf ce33 913f
00000130: 8619 afbd 1930 ea3d fc18 e0be 647c 463e
00000140: 7c82 a5be e57c 0bbe 8097 52be 9aac f1be
00000150: 66ce 3cbe c0bb b7be dd31 20bf 38ed 2ebf
00000160: 4e96 31be 9cb1 48bf 98f0 57be 1c1a a7bd
00000170: b24a 0d3e 7584 38bf 8d1d 22bf 4d7e 1bbf
00000180: 86c9 b73e 8031 fc3e 3feb 7ebe 6923 2e3f
00000190: 645a 223e ddfd 2cbd b8ba 4c3f 7390 133f
000001a0: cf4f a23e fc60 9f3d 373b 5a3e c33f d1be
000001b0: aad6 e23e 62b1 bc3d 8a45 393f fcfd 2e3f
000001c0: 78d7 e3be 33c0 37bf 0004 f8bd a24a 603f
000001d0: 05b4 88be 17f2 583f 57a5 593f 28c6 60bf
000001e0: 344f ba3e 4d6d 23bf 0d0c 4f3e cf40 8d3f
000001f0: d9e2 843e 76e1 1f3f a48d 56be cd84 4fbe
00000200: d7df d43e f284 183f ad14 9d3d d0a5 cebe
00000210: 4bfc 3d3f 78bf e33e ded0 3abf ec56 203e
00000220: 8fc1 81be 1bde 933d b3df 1d3e cefa 073f
00000230: 84df 89bf 9393 803e 4c8e 04bd 8b8e f0be
00000240: 0bb8 14bd 2d9f 3abf f5db 1cbf cf2f 8dbd
00000250: 6008 fcbd 1615 f53e 2a7d cd3e 3bef 52bf
00000260: 5709 ffbe db74 33be d3a0 29bf 7944 d6bd
00000270: 4809 c43e cd9c aebe b1d1 003f 8e51 38bf
00000280: 9df8 87be 672c 523f 1932 91be 9b24 96bd
00000290: a3e7 843f 5a00 173f 7240 06bf 5cee 853e
000002a0: c2b9 be3e 1f83 ec3e 46da cd3e 9919 6f3e
000002b0: ba69 d03e 2816 ea3e 49fc fcbd dafe a4be
000002c0: d64a 183f 5821 78be 2280 823f 6291 163d
000002d0: 9071 ec3e 49a2 5e3f 2819 86be fc70 75bd
000002e0: 510c 90be e136 b73d a875 6f3f e7b8 183f
000002f0: 46df f53d c332 223f ed56 01bd ea5f 363e
00000300: 1abc 3b3c c17b bf3e f9dc 45be f984 74bf
00000310: 9a1f eb3d fab9 333f 497a 6c3e f22a 0e3f
00000320: f42f 7e3e 26a4 3b3f cdd4 f93e af89 e93e
00000330: 408d 26bf 3ef3 303f a325 253e 7257 5c3e
00000340: 4bbd 2b3f 45b2 cd3d 7907 81be 9130 833f
00000350: 5341 fc3e d37c d23e fcdd 2c3f cc2d 8a3e
00000360: 60f1 ac3e ecc8 2a3f 66a7 df3d 4a75 823e
00000370: ca72 293f 6b7a aeba 335f 183f 2ffc 0b3f
00000380: 35fb 40bf eaf5 ccbc 3020 a1be bd03 31bf
00000390: 3fe4 2abf e203 d8be ea4d d4bd 0f4c 83be
000003a0: 2021 b4bd f144 7cbd 89ec 8bbe d298 38bf
000003b0: 2997 ab3e c9ed f2be 42af c2be ec35 0fbf
000003c0: a81d 8cbe a07c 4ebf 0060 76be ec31 76be
000003d0: 2c22 553e 3f94 113e 0b6e a1bd c346 d4be
000003e0: 1861 22bf 844a 28bf 09a9 39bf 1b6e 18be
000003f0: b766 9bbe 9225 d93c 4fae 41bf 20c6 81bf

network_body.observation_encoder.processors.0.model.residual.bias f4 [16]
0.09232385 0.3167666 0.19965044 -0.06035733 0.40227282 -0.3082054 0.0808435 0.16746913
0.017118791 -0.38731098 0.24380927 0.17647581 0.45908663 0.42480126 -0.3564374 -0.38247338
00000000: 4914 bd3d 3b2f a23e 2a71 4c3e 3f39 77bd
00000010: b4f6 cd3e 19cd 9dbe 4791 a53d 077d 2b3e
00000020: b53c 8c3c a04d c6be 23a9 793e 13b6 343e
00000030: 670d eb3e 8d7f d93e f77e b6be 8dd3 c3be

network_body.observation_encoder.processors.0.model.final_conv.weight f4 [25, 16, 1, 1]
-0.32890165 -0.27888235 -0.18252397 -0.64715105 -0.12140605 0.49862581 -0.40431663 -0.3236953
-0.26930144 0.084645 -0.43227533 -0.48029754 -0.04878758 -0.4484966 0.4602868 0.18050592
-0.20558175 -0.31414154 -0.23917754 -0.66483533 -0.27305967 0.23548621 -0.5863857 -0.5699022
-0.25200546 0.23241378 -0.5328716 -0.25961387 -0.13473225 -0.14997949 0.3580413 0.2377384
-0.2044653 -0.10073566 -0.6106088 -0.02892698 -0.11033545 0.54756147 -1.0212642 -0.15671816
-0.5823956 -0.06807102 -0.415966 0.28918007 -0.62189394 -0.37407047 0.89479077 0.36503574
0.6152191 -0.84210265 0.04361097 -0.07942891 1.3358707 1.021175 -0.76749074 0.48226056
0.7784909 -0.3115642 0.44592908 -0.2616187 0.3270831 -0.9483018 -0.058548085 0.1935319
-0.9513994 0.47347444 0.27585912 -0.89724976 0.43288898 -0.2580625 0.5880046 -0.7623572
0.67443866 -0.86016977 -0.7633564 -0.837202 0.41652575 -0.029906861 0.36211947 -0.7059116
-0.16648014 -0.28104478 -0.16925773 -0.4281531 -0.50758064 0.4747523 -0.32834962 -0.14483365
-0.19272512 0.025718737 -0.44554263 -0.6095218 -0.015171399 -0.375106 0.13442403 0.27455226
-0.31459814 0.3058508 -0.4136443 -0.5318699 -0.21754028 1.2002017 -0.17249034 -0.37808323
-0.09170658 0.014503197 0.04522839 -0.096617274 0.11198108 -0.039622124 0.6618947 0.42899454
-0.29099044 -1.4217148 -0.3047927 -1.3495904 0.09840677 0.14759085 0.5266356 1.0898705
-0.5280284 0.36597437 -0.73988044 -0.52029026 -1.062469 0.54800946 0.26901054 -0.2828683
-0.36751795 -0.7353592 -0.42128828 0.521769 -0.401224 0.14897628 -0.027932066 -0.57086223
0.9237471 1.7029834 -0.20088993 -1.1571444 -0.4778852 -0.59543467 -0.27267343 -0.33846894
-0.28120902 -0.21677613 -0.23956521 -0.41272953 -0.34250292 0.5354154 -0.3680136 -0.33318368
-0.1918419 -0.03563215 -0.55016696 -0.6236067 -0.4255609 -0.19302538 0.39560637 0.26070985
0.73212653 -0.30720037 -0.7377994 0.117183596 0.09697729 0.26007986 -0.30213442 -0.17217945
-0.6316248 0.48195586 -1.3697102 -1.2226038 0.51245326 -0.24618267 1.0688804 0.2381472
-0.017695852 -0.073193245 -0.5028344 0.5721906 -1.139411 1.4826195 0.11870949 -0.38865706
0.0053569754 -0.93616694 0.75904715 -0.28752595 -0.61814857 -0.8312127 0.87785614 -0.38407224
-1.327384 -0.25304005 -1.1704905 -0.51289785 -0.09828911 0.1830513 0.7353993 0.9647675
0.14992435 0.6354832 -0.0050887275 -1.2172612 0.1741324 -0.7431392 0.43453822 1.2233406
-0.35053787 -1.1383848 -0.99969095 -0.29662374 -1.0714046 -0.5287372 -0.6756642 0.008166563
0.8653896 -0.59225714 -0.046193264 0.55163926 0.88190764 -0.89121574 0.3101713 -0.18333259
-1.0724427 -0.21946535 0.28798145 0.5456291 -0.49812114 0.73531663 -0.978363 0.13683534
0.009968803 -0.026130166 -1.2447928 0.6903122 -0.55081666 -0.59447026 0.21398708 0.0938227
-0.3704755 -0.5802035 -0.21632686 -0.38786516 -0.31163186 0.47551522 -0.5562211 -0.41171277
-0.38551822 0.20783174 -0.16248795 -0.31454656 -0.01929723 -0.124147214 0.20525561 0.16794719
00000000: cc65 a8be abc9 8ebe 90e7 3abe b1ab 25bf
00000010: bca3 f8bd e24b ff3e 9702 cfbe 64bb a5be
00000020: e1e1 89be 5c5a ad3d 3153 ddbe 8fe9 f5be
00000030: 7cd5 47bd 59a1 e5be b6aa eb3e 8bd6 383e
00000040: 0684 52be 29d7 a0be f5ea 74be a632 2abf
00000050: 7ace 8bbe 4c23 713e 601d 16bf 1ce5 11bf
00000060: dc06 81be e1fd 6d3e 466a 08bf 1cec 84be
00000070: 40f7 09be 3994 19be 3051 b73e b271 733e
00000080: 5a5f 51be 7f4e cebd dc50 1cbf 46f8 ecbc
00000090: 8df7 e1bd fd2c 0c3f c9b8 82bf ba7a 20be
000000a0: e117 15bf d268 8bbd 7ff9 d4be 690f 943e
000000b0: 7134 1fbf 2a86 bfbe 0211 653f f7e5 ba3e
000000c0: 007f 1d3f 0a94 57bf 6ba1 323d a0ab a2bd
000000d0: d0fd aa3f ddb5 823f 467a 44bf dbea f63e
000000e0: 2e4b 473f 5885 9fbe d150 e43e e3f2 85be
000000f0: 7077 a73e e8c3 72bf 1ed0 6fbd 3a2d 463e
00000100: e98e 73bf 3e6b f23e 683d 8d3e 29b2 65bf
00000110: a0a3 dd3e c520 84be 7887 163f d729 43bf
00000120: 03a8 2c3f 1634 5cbf 536b 43bf df52 56bf
00000130: dd42 d53e 3cff f4bc b967 b93e 9fb6 34bf
00000140: c579 2abe 1ae5 8fbe e651 2dbe e236 dbbe
00000150: cef0 01bf bc12 f33e 711d a8be 464f 14be
00000160: bc59 45be 1ab0 d23c 2a1e e4be 9f09 1cbf
00000170: 7691 78bc e50d c0be 74a6 093e 1d92 8c3e
00000180: 0213 a1be 7a98 9c3e 30c9 d3be a028 08bf
00000190: e1c2 5ebe 36a0 993f 4fa1 30be 2094 c1be
000001a0: a9d0 bbbd d19e 6d3c 6741 393d 47df c5bd
000001b0: 5656 e53d cf4a 22bd ee71 293f 2ca5 db3e
000001c0: b3fc 94be c0fa b5bf ca0d 9cbe 61bf acbf
000001d0: 7d89 c93d 0e22 173e 97d1 063f e080 8b3f
000001e0: df2c 07bf fe60 bb3e ce68 3dbf be31 05bf
000001f0: fcfe 87bf 594a 0c3f c0bb 893e 1dd4 90be
00000200: 502b bcbe 8040 3cbf 19b3 d7be a792 053f
00000210: 3b6d cdbe 3d8d 183e cad1 e4bc 0724 12bf
00000220: b17a 6c3f 5cfb d93f 17b6 4dbe 4f1d 94bf
00000230: 5ead f4be 686e 18bf da9b 8bbe cd4b adbe
00000240: a1fa 8fbe 90fa 5dbe 9550 75be 4951 d3be
00000250: 8b5c afbe fc10 093f 476c bcbe 0d97 aabe
00000260: 3472 44be 04f3 11bd bed7 0cbf b0a4 1fbf
00000270: 1ee3 d9be 72a8 45be eb8c ca3e c37b 853e
00000280: a56c 3b3f 5e49 9dbe 6ce0 3cbf f4fd ef3d
00000290: 089c c63d 3029 853e 5db1 9abe cf4f 30be
000002a0: 2ab2 21bf ebc2 f63e aa52 afbf 487e 9cbf
000002b0: 2330 033f 4f17 7cbe 13d1 883f dcdc 733e
000002c0: e4f6 90bc 57e6 95bd c1b9 00bf 157b 123f
000002d0: 38d8 91bf 7ac6 bd3f f61d f33d 0ffe c6be
000002e0: 9189 af3b a3a8 6fbf ea50 423f 9a36 93be
000002f0: fc3e 1ebf 5bca 54bf 2ebb 603f 1ea5 c4be
00000300: b8e7 a9bf 778e 81be a2d2 95bf 464d 03bf
00000310: cd4b c9bd cd71 3b3e 2143 3c3f 01fb 763f
00000320: c585 193e 07af 223f 57bf a6bb 37cf 9bbf
00000330: c44f 323e 5f3e 3ebf cb7b de3e 6d96 9c3f
00000340: b379 b3be 98b6 91bf bfeb 7fbf 11df 97be
00000350: c923 89bf 525b 07bf 54f8 2cbf 0ccd 053c
00000360: 2c8a 5d3f 2a9e 17bf 2635 3dbd 3b38 0d3f
00000370: b3c4 613f b726 64bf c6ce 9e3e 8abb 3bbe
00000380: cd45 89bf 86bb 60be 4e72 933e 59ae 0b3f
00000390: bc09 ffbe b63d 3c3f ff75 7abf 901e 0c3e
000003a0: 3154 233c ee0e d6bc 5f55 9fbf 4db8 303f
000003b0: 5202 0dbf 342f 18bf 6e1f 5b3e 1e26 c03d
000003c0: f7ae bdbe 3788 14bf ca84 5dbe 4396 c6be
000003d0: 368e 9fbe bb76 f33e 8264 0ebf 04cc d2be
000003e0: a562 c5be d8d1 543e 3e63 26be 3f0c a1be
000003f0: 3915 9ebc e540 febd 872e 523e 59fa 2b3e

network_body.observation_encoder.processors.0.model.final_conv.bias f4 [25]
0.019926304 -0.08100483 -0.02365229 0.16254413 -0.1382874 -0.2792432 -0.3015866 -0.14702682
-0.06110094 -0.26098272 -0.34160405 0.09391749 -0.2292649 -0.048970234 -0.40324566 -0.2554792
-0.35751674 -0.39294025 -0.18650779 -0.087242834 -0.105800666 -0.13180159 0.049116164 -0.0553491
-0.20541371
00000000: 7d3c a33c dce5 a5bd 73c2 c1bc f871 263e
00000010: 369b 0dbe f7f8 8ebe 8f69 9abe 338e 16be
00000020: fb44 7abd 879f 85be bae6 aebe d057 c03d
00000030: 6bc4 6abe 0395 48bd 3776 cebe 2bce 82be
00000040: 6f0c b7be 772f c9be e6fb 3ebe 5fac b2bd
00000050: 05ae d8bd fff6 06be 082e 493d bdb5 62bd
00000060: f957 52be

network_body.observation_encoder.processors.0.pooling_model.spatial_extractor.1.weight f4 [3]
1.1790981 0.9296695 1.0013146
00000000: b0ec 963f d2fe 6d3f 142b 803f

network_body.observation_encoder.processors.0.pooling_model.spatial_extractor.1.bias f4 [3]
0.08214769 0.059803415 0.043271933
00000000: 0c3d a83d 6df4 743d e93d 313d

network_body.observation_encoder.processors.0.pooling_model.spatial_extractor.1.running_mean f4 [3]
0.099860616 0.017128365 0.26311216
00000000: b983 cc3d c950 8c3c a3b6 863e

network_body.observation_encoder.processors.0.pooling_model.spatial_extractor.1.running_var f4 [3]
1.6993819e-06 1.1454089e-06 1.8753317e-06
00000000: 5116 e435 f3bb 9935 e8b3 fb35

network_body.observation_encoder.processors.0.pooling_model.spatial_extractor.4.weight f4 [3]
0.69524133 0.8966648 0.8158925
00000000: 56fb 313f d38b 653f 55de 503f

network_body.observation_encoder.processors.0.pooling_model.spatial_extractor.4.bias f4 [3]
-0.33058244 -0.12705782 -0.20420644
00000000: 1a42 a9be 721b 02be 7e1b 51be

network_body.observation_encoder.processors.0.pooling_model.spatial_extractor.4.running_mean f4 [3]
0.6743269 0.5198479 0.2702103
00000000: b0a0 2c3f c114 053f 0159 8a3e

network_body.observation_encoder.processors.0.pooling_model.spatial_extractor.4.running_var f4 [3]
0.44161204 0.33163643 0.13332517
00000000: f91a e23e 40cc a93e 6586 083e

network_body._body_endoder.attention.query.bias f4 [108]
0.0 0.0 0.0 0.0 0.0 0.0 0.0 0.0
0.0 0.0 0.0 0.0 0.0 0.0 0.0 0.0
0.0 0.0 0.0 0.0 0.0 0.0 0.0 0.0
0.0 0.0 0.0 0.0 0.0 0.0 0.0 0.0
0.0 0.0 0.0 0.0 0.0 0.0 0.0 0.0
0.0 0.0 0.0 0.0 0.0 0.0 0.0 0.0
0.0 0.0 0.0 0.0 0.0 0.0 0.0 0.0
0.0 0.0 0.0 0.0 0.0 0.0 0.0 0.0
0.0 0.0 0.0 0.0 0.0 0.0 0.0 0.0
0.0 0.0 0.0 0.0 0.0 0.0 0.0 0.0
0.0 0.0 0.0 0.0 0.0 0.0 0.0 0.0
0.0 0.0 0.0 0.0 0.0 0.0 0.0 0.0
0.0 0.0 0.0 0.0 0.0 0.0 0.0 0.0
0.0 0.0 0.0 0.0
00000000: 0000 0000 0000 0000 0000 0000 0000 0000
00000010: 0000 0000 0000 0000 0000 0000 0000 0000
00000020: 0000 0000 0000 0000 0000 0000 0000 0000
00000030: 0000 0000 0000 0000 0000 0000 0000 0000
00000040: 0000 0000 0000 0000 0000 0000 0000 0000
00000050: 0000 0000 0000 0000 0000 0000 0000 0000
00000060: 0000 0000 0000 0000 0000 0000 0000 0000
00000070: 0000 0000 0000 0000 0000 0000 0000 0000
00000080: 0000 0000 0000 0000 0000 0000 0000 0000
00000090: 0000 0000 0000 0000 0000 0000 0000 0000
000000a0: 0000 0000 0000 0000 0000 0000 0000 0000
000000b0: 0000 0000 0000 0000 0000 0000 0000 0000
000000c0: 0000 0000 0000 0000 0000 0000 0000 0000
000000d0: 0000 0000 0000 0000 0000 0000 0000 0000
000000e0: 0000 0000 0000 0000 0000 0000 0000 0000
000000f0: 0000 0000 0000 0000 0000 0000 0000 0000
00000100: 0000 0000 0000 0000 0000 0000 0000 0000
00000110: 0000 0000 0000 0000 0000 0000 0000 0000
00000120: 0000 0000 0000 0000 0000 0000 0000 0000
00000130: 0000 0000 0000 0000 0000 0000 0000 0000
00000140: 0000 0000 0000 0000 0000 0000 0000 0000
00000150: 0000 0000 0000 0000 0000 0000 0000 0000
00000160: 0000 0000 0000 0000 0000 0000 0000 0000
00000170: 0000 0000 0000 0000 0000 0000 0000 0000
00000180: 0000 0000 0000 0000 0000 0000 0000 0000
00000190: 0000 0000 0000 0000 0000 0000 0000 0000
000001a0: 0000 0000 0000 0000 0000 0000 0000 0000

network_body._body_endoder.attention.value.bias f4 [108]
-0.06266898 0.40760535 -0.08366138 -0.1115805 -0.13609597 -0.061113212 -0.0120834755 0.035831492
-0.26194602 -0.5443069 0.24884628 -0.009976561 0.2356452 0.058409534 0.25429666 0.0046329224
-0.1794309 -0.13445869 -0.03384531 -0.06871692 -0.05436792 -0.14233555 -0.1251754 -0.010464127
0.06250068 0.3216338 -0.0049823895 -0.22791371 0.13090953 0.020374728 0.046992425 0.005924003
0.16225296 0.059005156 0.049817253 0.17195906 0.08093684 0.29304048 0.20824023 0.14253289
0.17635663 0.0034656238 -0.087694384 -0.1625046 0.20864369 0.24063994 0.0524541 -0.10161982
0.11345389 -0.0168279 0.18370503 0.14844944 0.091934055 0.029289015 -0.0833202 0.12511717
0.11253706 -0.09953491 0.09324385 -0.035223406 -0.08851434 0.23256046 0.060819913 0.05334945
0.084364004 -0.02930973 -0.17607062 0.16842061 0.036190525 -0.040144738 0.012047437 0.17041181
0.05398886 0.14876142 0.15960883 0.087680146 -0.26347873 -0.110561565 -0.084825926 -0.016769605
-0.0009683406 0.30759838 0.06802859 0.23478541 0.09266864 0.16263723 -0.104078434 -0.11124079
0.116634704 -0.1708271 -0.2586512 -0.13670085 -0.07397325 0.16917887 -0.31088322 0.18849503
-0.28096306 -0.069471665 -0.032157686 -0.028874198 -0.09381519 -0.12757295 -0.14085045 -0.013720274
-0.123998776 0.059422757 -0.20773865 -0.1961268
00000000: 9858 80bd a6b1 d03e a856 abbd 5184 e4bd
00000010: be5c 0bbe d951 7abd c5f9 45bc 0bc4 123d
00000020: ca1d 86be b257 0bbf 8fd1 7e3e bb74 23bc
00000030: fa4c 713e d63e 6f3d 2c33 823e c5cf 973b
00000040: bcbc 37be 8aaf 09be 61a1 0abd 75bb 8cbd
00000050: e5b0 5ebd 69c0 11be fb2d 00be bb71 2bbc
00000060: 5b00 803d 2fad a43e 5043 a3bb 3662 69be
00000070: 260d 063e e7e8 a63c 217b 403d 241e c23b
00000080: a425 263e 64af 713d 2d0d 4c3d 0916 303e
00000090: 37c2 a53d 6709 963e ed3c 553e 24f4 113e
000000a0: d596 343e 851f 633b 1d99 b3bd 9b67 26be
000000b0: b1a6 553e 516a 763e 1cda 563d 0d1e d0bd
000000c0: 835a e83d aada 89bc 2c1d 3c3e 2103 183e
000000d0: ec47 bc3d 84ef ef3c c8a3 aabd b71e 003e
000000e0: d579 e63d f5d8 cbbd a2f6 be3d 6b46 10bd
000000f0: 0247 b5bd 5424 6e3e 4d1e 793d f484 5a3d
00000100: 09c7 ac3d f51a f0bc db4b 34be 7476 2c3e
00000110: 843c 143d cf6e 24bd 9d62 453c 6f80 2e3e
00000120: 6c23 5d3d ea54 183e 7f70 233e a691 b33d
00000130: afe6 86be 1a6e e2bd 37b9 adbd 6960 89bc
00000140: 3dd8 7dba 897d 9d3e 9352 8b3d 966b 703e
00000150: 0ec9 bd3d 608a 263e 1327 d5bd 36d2 e3bd
00000160: 2dde ee3d 4ded 2ebe ee6d 84be 4ffb 0bbe
00000170: 4a7f 97bd 3a3d 2d3e 162c 9fbe d704 413e
00000180: 64da 8fbe 2947 8ebd c7b7 03bd 9589 ecbc
00000190: 2e22 c0bd 7ca2 02be 1a3b 10be 00cb 60bc
000001a0: 12f3 fdbd 4765 733d 71b9 54be 77d5 48be

network_body._body_endoder.attention.norm.weight f4 [108]
1.3430843 1.5683392 1.0717835 1.0208803 1.3204567 0.8459119 0.55899686 1.0586715
1.2477027 1.5052387 1.252314 0.7751203 1.0540048 1.2291552 1.2345634 1.1858784
0.96045715 0.8913204 0.64655954 1.0790622 1.114949 0.7318135 0.6687191 0.6619625
0.8522777 1.5406928 0.87472016 0.9556869 1.1272157 1.1571395 0.95453393 1.3910248
1.0708883 1.0297374 0.72163004 1.3585132 0.5586075 0.6512934 1.0035444 0.8934353
0.8986891 0.8965248 0.90206414 1.179522 1.0374137 1.098504 1.0826647 1.2036886
0.78835785 0.991224 1.2403423 0.8908354 1.1317846 0.74266523 1.1134282 0.7597045
1.017631 0.5362682 0.28407586 0.53459316 0.94745296 1.2005858 1.0331875 1.0036582
0.5764213 1.3776339 0.9565114 1.3149939 0.39910918 0.9491686 0.79727817 0.9358639
0.46614924 0.9839469 0.85779715 0.70173085 1.3457686 1.0404712 0.8212298 0.8628877
0.5901287 1.1101773 0.29287946 1.0835236 0.6993739 0.97864205 0.6993736 0.72821724
0.8333112 0.91755825 1.1115396 0.9774273 0.99919873 0.6346292 1.1964045 0.9463047
1.8365307 0.86961514 1.0302982 1.2670982 1.3099952 0.9550377 0.81619495 0.51245016
1.0605211 0.48732084 1.331605 1.1357813
00000000: 30ea ab3f 57bf c83f 3430 893f 35ac 823f
00000010: ba04 a93f af8d 583f 6b1a 0f3f 8c82 873f
00000020: b9b4 9f3f a9ab c03f d34b a03f 496e 463f
00000030: a1e9 863f f554 9d3f 2c06 9e3f ddca 973f
00000040: 85e0 753f 932d 643f ed84 253f b61e 8a3f
00000050: a6b6 8e3f 2158 3b3f 2d31 2b3f 6076 293f
00000060: df2e 5a3f 6c35 c53f a9ed 5f3f e6a7 743f
00000070: 9b48 903f 261d 943f 565c 743f 1a0d b23f
00000080: de12 893f 6fce 833f bfbc 383f c3e3 ad3f
00000090: e700 0f3f 2abb 263f 2574 803f 2db8 643f
000000a0: 7d10 663f a682 653f aded 663f 94fa 963f
000000b0: f9c9 843f c79b 8c3f c294 8a3f 7812 9a3f
000000c0: d2d1 493f dbc0 7d3f 89c3 9e3f ca0d 643f
000000d0: 51de 903f 4f1f 3e3f d184 8e3f fe7b 423f
000000e0: bc41 823f df48 093f 6472 913e 19db 083f
000000f0: 478c 723f ccac 993f 7d3f 843f df77 803f
00000100: 5990 133f 4f56 b03f eedd 743f b851 a83f
00000110: 0a58 cc3e b7fc 723f 6c1a 4c3f c794 6f3f
00000120: 1dab ee3e f2e3 7b3f 9898 5b3f a2a4 333f
00000130: 2542 ac3f 292e 853f 1e3c 523f 35e6 5c3f
00000140: ad12 173f 4a1a 8e3f 4cf4 953e e7b0 8a3f
00000150: 2b0a 333f 4988 7a3f 260a 333f 726c 3a3f
00000160: e253 553f 19e5 6a3f ee46 8e3f ad38 7a3f
00000170: 7dcb 7f3f 0f77 223f c823 993f 0641 723f
00000180: 7013 eb3f 199f 5e3f d0e0 833f 4630 a23f
00000190: ecad a73f 5a7d 743f 27f2 503f ef2f 033f
000001a0: 28bf 873f 1e82 f93e 0872 aa3f 4861 913f

network_body._body_endoder.attention.norm.bias f4 [108]
0.1623537 0.6054867 -0.028408548 -0.13752516 0.05045976 -0.09472707 -0.038297374 0.17700581
-0.31239292 -0.63095635 0.0684056 -0.086838946 0.068683445 -0.025591368 0.21573262 -0.14209767
-0.105450906 -0.17704633 -0.016690113 -0.09077201 -0.11518345 -0.07332384 0.12239777 0.10774888
-0.0908821 0.51784503 -0.07769786 -0.18595685 0.07849019 -0.12756065 -0.0517188 0.03788892
0.25541216 0.15922591 0.043883372 0.41069093 0.06814766 0.272544 0.1789177 0.23001118
0.12500827 -0.09683141 -0.17161588 0.044975497 0.36026755 0.10046208 0.18926577 0.030373428
0.10581051 0.13589793 0.1308193 -0.01021045 0.02936328 0.029917264 0.016659504 -0.029836081
-0.0090793315 -0.047414426 -0.039720934 0.08186714 -0.026218405 -0.021625752 -0.024410753 -0.035845023
0.037187923 -0.13386323 -0.14383602 0.14997147 -0.075787336 -0.046872858 -0.04486113 0.15663658
-0.024569185 0.15231122 0.20592165 0.082405254 -0.34442344 -0.08677458 -0.16642073 -0.08892376
-0.00549078 0.34965438 0.037870903 0.32284784 0.0135406945 0.22647059 -0.13442901 -0.11860277
-0.023882153 -0.32937473 -0.3083315 -0.1991636 0.050334536 0.03505568 -0.43459877 -0.00986838
-0.08375722 -0.06012979 -0.020718193 0.12031856 0.051588375 -0.07404833 -0.24229252 0.08343609
-0.17565916 0.046771124 -0.07422315 -0.098410055
00000000: 0c40 263e 2d01 1b3f 0bb9 e8bc 65d3 0cbe
00000010: e5ae 4e3d 4400 c2bd b5dd 1cbd 0341 353e
00000020: f7f1 9fbe 5b86 21bf 3c18 8c3d 9ed8 b1bd
00000030: e8a9 8c3d fda4 d1bc 03e9 5c3e 0d82 11be
00000040: a5f6 d7bd a24b 35be b4b9 88bc ade6 b9bd
00000050: 4de5 ebbd cf2a 96bd afab fa3d 72ab dc3d
00000060: 6520 babd 7e91 043f 0e20 9fbd 796b 3ebe
00000070: 77bf a03d 429f 02be 18d7 53bd 6a31 1b3d
00000080: 62c5 823e 1e0c 233e 0dbf 333d 1546 d23e
00000090: 0091 8b3d e38a 8b3e 3436 373e 0d88 6b3e
000000a0: 2b02 003e 8c4f c6bd 13bc 2fbe 3a38 383d
000000b0: fd74 b83e 10bf cd3d e3ce 413e b2d1 f83c
000000c0: 2eb3 d83d d428 0b3e 7ff5 053e bb49 27bc
000000d0: 438b f03c 0d15 f53c 8379 883c cc6a f4bc
000000e0: 7ac1 14bc a135 42bd 6bb2 22bd f6a9 a73d
000000f0: fbc7 d6bc 7d28 b1bc 0ff9 c7bc 3bd2 12bd
00000100: 5d52 183d 7113 09be c049 13be 1f92 193e
00000110: 6436 9bbd c1fd 3fbd 4ec0 37bd 5765 203e
00000120: 5145 c9bc 79f7 1b3e 20dd 523e 16c4 a83d
00000130: 4558 b0be dfb6 b1bd 326a 2abe a91d b6bd
00000140: 00ec b3bb e605 b33e 851e 1b3d 504c a53e
00000150: cad9 5d3c e8e7 673e c2a7 09be 02e6 f2bd
00000160: 81a4 c3bc cea3 a8be a0dd 9dbe 8bf1 4bbe
00000170: 962b 4e3d 8b96 0f3d bb83 debe fcae 21bc
00000180: e888 abbd a84a 76bd 33b9 a9bc 9469 f63d
00000190: 554e 533d a7a6 97bd 881b 78be 8ae0 aa3d
000001a0: ffdf 33be 1493 3f3d 4f02 98bd 368b c9bd

network_body._body_endoder.norm.weight f4 [108]
0.98405516 0.3825986 0.4822717 0.7644761 0.9035927 0.59390223 0.70057833 0.84267527
0.6255038 0.40587854 1.0732552 0.7044304 0.8493712 0.85408175 1.0941285 0.86685383
0.651081 0.66696227 0.5820105 0.82762116 0.83701605 0.5235711 0.09942068 0.51400155
0.6443288 0.39546937 0.7194278 0.62008417 0.73639375 0.8020381 0.7228067 0.9597434
0.72477734 0.75768304 0.7546984 0.60783374 0.5719522 0.64035463 0.8660027 0.54345
0.8305114 0.705296 0.5486165 0.62968534 0.7737015 0.9758884 0.7068718 0.9952621
0.74877524 0.4241011 1.101522 0.8383702 1.0139785 0.60423875 0.6757078 0.55917287
0.5389394 0.09689723 0.016132075 0.27554542 0.28808028 0.74367625 0.41696706 0.6856894
0.30784836 1.1484149 0.50900424 0.7128159 0.31305236 0.50842494 0.39325973 0.47307542
0.20618993 0.4526642 0.14410143 0.22830524 0.36992472 0.4784785 0.41041577 0.41184783
0.287589 0.57325095 -0.016907679 0.5105256 0.36285004 0.5339327 0.1887127 0.112424776
0.58111644 0.258154 0.5010589 0.37818232 0.19359593 0.3116186 0.588487 0.58011115
0.66140616 1.2033423 1.3209718 0.9251632 1.5159593 0.1752279 0.4680957 0.2886287
0.7576977 0.68004954 1.616586 0.9380841
00000000: 0aeb 7b3f f7e3 c33e 51ec f63e b5b4 433f
00000010: da51 673f fa09 183f 1a59 333f 91b9 573f
00000020: 0421 203f 50cf cf3e 6d60 893f 8d55 343f
00000030: 6470 593f 1aa5 5a3f 670c 8c3f 22ea 5d3f
00000040: 3fad 263f 0abe 2a3f a4fe 143f fbde 533f
00000050: af46 563f c108 063f 129d cb3d 9b95 033f
00000060: bbf2 243f f67a ca3e 6c2c 383f d6bd 1e3f
00000070: 4d84 3c3f 5e52 4d3f dc09 393f beb1 753f
00000080: 028b 393f 84f7 413f ea33 413f fe9a 1b3f
00000090: 766b 123f 48ee 233f 5ab2 5d3f 8a1f 0b3f
000000a0: 659c 543f 478e 343f 2272 0c3f 0f33 213f
000000b0: 4d11 463f d2d3 793f 8df5 343f 7fc9 7e3f
000000c0: bcaf 3f3f c823 d93e acfe 8c3f 6e9f 563f
000000d0: 0cca 813f 64af 1a3f 30fb 2c3f f425 0f3f
000000e0: eff7 093f 0e72 c63d 6a27 843c 4a14 8d3e
000000f0: 427f 933e 9161 3e3f b57c d53e 5789 2f3f
00000100: 4d9e 9d3e 42ff 923f 1a4e 023f 1a7b 363f
00000110: 6648 a03e 2328 023f 5759 c93e f136 f23e
00000120: 7423 533e 9ac3 e73e 538f 133e d9c8 693e
00000130: c666 bd3e 22fb f43e 0422 d23e b8dd d23e
00000140: de3e 933e 93c0 123f f981 8abc ceb1 023f
00000150: 7bc7 b93e d0af 083f e73d 413e f63e e63d
00000160: 0cc4 143f c32c 843e 6545 003f 1da1 c13e
00000170: 033e 463e 798c 9f3e 16a7 163f 2a82 143f
00000180: ea51 293f 1f07 9a3f 9b15 a93f 7fd7 6c3f
00000190: f40a c23f f16e 333e 3daa ef3e 24c7 933e
000001a0: 7af8 413f ba17 2e3f 4aec ce3f 4826 703f

network_body._body_endoder.norm.bias f4 [108]
0.16335551 -0.3916781 0.021212814 0.1334808 0.076784536 0.2125468 0.03233356 0.21633892
0.22836733 0.5050128 0.08843224 0.1794129 0.048009712 0.067156166 0.25245395 -0.06617589
-0.08635122 0.030903015 0.0050216336 -0.14973694 -0.15601131 -0.2455104 -0.10294886 -0.14196146
-0.078377396 -0.39669827 -0.19733746 -0.105689034 -0.34539512 -0.12841097 -0.27117693 -0.20595221
-0.1442314 -0.10566874 -0.059722897 -0.1506782 0.11700421 0.079378225 0.014901248 0.0338145
0.14299883 0.01225201 -0.08715434 0.1683997 0.19557416 0.056010216 0.023208987 0.049108017
0.092282094 0.082476124 0.15327238 0.02862024 0.036765985 0.032393407 0.117067695 -0.085894555
0.11140874 -0.059606604 -0.043253247 -0.06893953 0.09359652 -0.036574442 -0.03968436 0.008854512
0.06572685 -0.04189446 0.10785441 -0.22346732 -0.04164917 -0.054818098 0.031746186 -0.09289141
0.020128831 -0.08458055 0.15496126 0.024631966 0.12324835 -0.08674867 0.036928385 -0.09387651
0.035622418 -0.10932011 0.03588706 -0.069347255 0.021439776 -0.06799098 0.041331444 -0.0450158
0.024225922 -0.039125793 0.011096792 -0.1060065 0.039624047 0.012297939 0.011201511 -0.063646585
-0.647311 -0.105657496 -0.031736206 0.120230764 0.10571796 -0.06795944 -0.2406655 0.04570979
0.04695316 0.11753713 -0.09687456 -0.033609383
00000000: ab46 273e 088a c8be 7fc6 ad3c 31af 083e
00000010: 3641 9d3d dea5 593e 3270 043d f387 5d3e
00000020: 20d9 693e 8548 013f f61b b53d 04b8 373e
00000030: d5a5 443d 2c89 893d a541 813e 3a87 87bd
00000040: e9d8 b0bd 5228 fd3c 848c a43b a454 19be
00000050: 6ec1 1fbe 1467 7bbe dad6 d2bd 585e 11be
00000060: 5484 a0bd 091c cbbe d512 4abe 7e73 d8bd
00000070: a1d7 b0be 2a7e 03be b4d7 8abe 23e5 52be
00000080: 65b1 13be da68 d8bd ff9f 74bd 634b 1abe
00000090: e79f ef3d 0d91 a23d 5d24 743c 1381 0a3d
000000a0: 496e 123e a8bc 483c fa7d b2bd f970 2c3e
000000b0: 9844 483e f86a 653d c620 be3c 7d25 493d
000000c0: 65fe bc3d 3ee9 a83d 6ff3 1c3e fe74 ea3c
000000d0: ee97 163d f3ae 043d 30c1 ef3d 7ce9 afbd
000000e0: 442a e43d 0e26 74bd 512a 31bd 2b30 8dbd
000000f0: 88af bf3d 15cf 15bd 118c 22bd 8412 113c
00000100: cc9b 863d 8699 2bbd c6e2 dc3d 9ed4 64be
00000110: 5298 2abd f188 60bd 4a08 023d da3d bebd
00000120: 38e5 a43c 9138 adbd 2aae 1e3e fac8 c93c
00000130: a269 fc3d 49a9 b1bd 3842 173d 5442 c0bd
00000140: d0e8 113d 39e3 dfbd 4ffe 123d ef05 8ebd
00000150: 78a2 af3c db3e 8bbd 294b 293d 7d62 38bd
00000160: 7175 c63c 5e42 20bd 52cf 353c f019 d9bd
00000170: d34c 223d 4b7d 493c 8b86 373c 2459 82bd
00000180: 2cb6 25bf f562 d8bd d3fd 01bd 8c3b f63d
00000190: a882 d83d 522e 8bbd 0471 76be 303a 3b3d
000001a0: f551 403d 4fb7 f03d 2b66 c6bd fea9 09bd

network_body._body_endoder.lin_layers.seq_layers.0.weight f4 [216, 108]
-0.010162562 -0.26799896 0.1122379 0.33577144 -0.011694227 0.48810717 0.112945616 0.33974597
0.4478 0.3402663 0.114713624 0.09069498 0.04625532 0.20696391 -0.16786544 0.18206625
0.41085058 0.4254385 0.1692368 0.076124184 -0.31432188 0.024040911 -0.10235225 -0.2026889
-0.14367492 -0.3693968 -0.38674593 0.21499321 -0.29160687 -0.05833674 -0.24642843 0.020625032
-0.12124489 -0.3292716 -0.3383143 -0.14666061 0.09903915 -0.13881657 -0.081576645 -0.27889636
0.38437888 0.37275058 0.3147999 0.07257171 -0.19491613 -0.00840624 -0.1946564 0.19002876
-0.105067365 -0.35412803 -0.40844303 -0.11861259 -0.2343604 -0.051454052 0.07922032 -0.08935667
-0.032231558 -0.022136863 0.07041631 -0.08341651 0.0056461236 -0.37825567 -0.09786672 0.13052031
-0.12324593 -0.008934369 0.36438516 -0.16836822 0.021242116 0.07146596 0.07336114 -0.22518194
0.16859698 -0.22768345 -0.04003441 -0.09504493 0.10049789 0.18356274 0.48411763 0.14124425
0.13132304 -0.06571405 0.23170803 -0.21168703 0.18593046 -0.3633262 0.06518483 -0.049518228
0.261239 0.021466494 0.389174 0.1624798 0.045694757 -0.05056913 0.28447187 0.3568186
-0.106037766 -0.17036617 -0.30755472 -0.30046785 0.5534357 -0.11181834 0.21306506 0.008398149
0.28099847 0.06397384 -0.1588295 -0.016000513 -0.0857375 -0.40584418 0.065628916 0.07355113
0.15562718 0.035054103 0.27848098 -0.0070419707 0.24387021 0.04508901 -0.25301823 -0.0071394863
0.19142988 -0.06275208 -0.085416235 -0.1632607 0.19823755 0.05250461 -0.07113331 -0.233075
-0.16270535 0.058680907 -0.110521175 -0.19512257 -0.2233393 -0.23424846 -0.30901906 -0.0078018433
-0.18474983 0.101907134 -0.257021 -0.14921461 -0.17518893 -0.33161113 -0.09027327 -0.0597704
-0.22587338 -0.14947057 -0.029565167 0.013689319 -0.028670076 0.46438423 0.30474904 0.108011946
-0.1755623 0.15827887 -0.04236337 0.0855712 -0.32850397 -0.11633757 -0.23887973 0.057055414
0.03039734 -0.12735833 0.11517688 0.09570761 0.10354794 0.30253208 0.18994872 0.14610389
0.036008537 -0.02413872 0.15331073 0.08469097 -0.07157846 0.019862257 0.119857766 -0.2782348
0.03347228 -0.2907601 -0.1369278 -0.5123637 -0.23320007 -0.38559112 -0.16550398 -0.26549795
-0.0984533 0.12927368 0.14316484 0.31167257 0.39364237 -0.0025706568 0.030941937 -0.10906823
-0.18707743 -0.21967342 0.10104794 0.17566535 0.13859197 0.087399475 0.24931872 0.25506133
-0.13223878 -0.12331772 0.28445205 -0.16179451 0.037006058 0.21823137 0.13634962 -0.073260844
0.5059277 0.3595101 0.2617997 0.020150304 -0.043227103 -0.051552843 -0.10803665 0.18364781
-0.27351096 -0.26979673 0.21559621 0.10099966 0.2536999 0.028771851 0.17904912 -0.11455789
0.037856575 0.19550264 0.05110824 0.022034222 0.29039553 0.018623473 -0.36514172 0.33880663
0.12809584 0.2836015 0.21547692 -0.2503294 -0.33805296 -0.13383529 -0.09786535 -0.24683635
0.19143327 -0.32652658 -0.3735657 -0.06868422 -0.17092162 -0.14232062 -0.099963576 -0.17180595
-0.23818782 -0.21393068 -0.37730876 -0.31101668 -0.03973275 -0.30317125 -0.15344882 -0.29260004
00000000: e080 26bc 2937 89be fcdc e53d 3cea ab3e
00000010: 2599 3fbc 2fe9 f93e 0850 e73d 2ff3 ad3e
00000020: 0b46 e53e 6237 ae3e faee ea3d 4abe b93d
00000030: 3876 3d3d 59ee 533e ebe4 2bbe 936f 3a3e
00000040: 025b d23e 13d3 d93e 694c 2d3e ffe6 9b3d
00000050: ccee a0be 72f1 c43c 0e9e d1bd ae8d 4fbe
00000060: 851f 13be 9421 bdbe 9003 c6be 2e27 5c3e
00000070: 7f4d 95be 81f2 6ebd bc57 7cbe d4f5 a83c
00000080: 3e4f f8bd 4a96 a8be 8837 adbe 332e 16be
00000090: 0ad5 ca3d ee25 0ebe a811 a7bd 81cb 8ebe
000000a0: 4fcd c43e 2ad9 be3e 742d a13e 7aa0 943d
000000b0: 1898 47be 53ba 09bc 0254 47be e696 423e
000000c0: 8f2d d7bd 4550 b5be 721f d1be 28eb f2bd
000000d0: 2cfc 6fbe 7cc1 52bd 433e a23d a100 b7bd
000000e0: 3d05 04bd 5e58 b5bc 6d36 903d 46d6 aabd
000000f0: 1e03 b93b baaa c1be 596e c8bd 1ea7 053e
00000100: 5d68 fcbd 7661 12bc b190 ba3e b868 2cbe
00000110: f203 ae3c bf5c 923d 5e3e 963d 1896 66be
00000120: b0a4 2c3e da25 69be 1ffb 23bd eba6 c2bd
00000130: d6d1 cd3d dff7 3b3e 44de f73e 55a2 103e
00000140: 8c79 063e 1695 86bd df44 6d3e 7cc4 58be
00000150: 8e64 3e3e e405 babe a07f 853d a0d3 4abd
00000160: 1ec1 853e 80da af3c d141 c73e 1b61 263e
00000170: 6d2a 3b3d 9321 4fbd 4ca6 913e edb0 b63e
00000180: 542a d9bd 7874 2ebe d077 9dbe ecd6 99be
00000190: f6ad 0d3f 0401 e5bd ba2d 5a3e 6498 093c
000001a0: 08df 8f3e b704 833d 33a4 22be 8213 83bc
000001b0: 2497 afbd cfca cfbe 7468 863d faa1 963d
000001c0: bb5c 1f3e e494 0f3d 0f95 8e3e 55c0 e6bb
000001d0: 1db9 793e 41af 383d 9b8b 81be 5af2 e9bb
000001e0: 3206 443e 2a84 80bd b5ee aebd d02d 27be
000001f0: c9fe 4a3e 130f 573d 57ae 91bd 36ab 6ebe
00000200: 3b9c 26be 645b 703d ed58 e2bd 36ce 47be
00000210: 0fb3 64be d4de 6fbe bf37 9ebe 9ba6 ffbb
00000220: 0f2f 3dbe b0b4 d03d 4298 83be b7cb 18be
00000230: ba64 33be efc8 a9be 31e1 b8bd cfd1 74bd
00000240: 5a4b 67be d00e 19be a632 f2bc 2a49 603c
00000250: 82dd eabc c5c3 ed3e 1108 9c3e 5e35 dd3d
00000260: 9bc6 33be db13 223e 3785 2dbd f43f af3d
00000270: ac31 a8be 6442 eebd e39c 74be f0b2 693d
00000280: d803 f93c 396a 02be dbe1 eb3d 5a02 c43d
00000290: f110 d43d 7ce5 9a3e eb81 423e 429c 153e
000002a0: b07d 133d 91be c5bc 7dfd 1c3e 7672 ad3d
000002b0: ba97 92bd 2cb6 a23c fd77 f53d cb74 8ebe
000002c0: 3b1a 093d 82de 94be cd36 0cbe 442a 03bf
000002d0: 00cc 6ebe 336c c5be e079 29be 59ef 87be
000002e0: e2a1 c9bd 5260 043e ce99 123e 8c93 9f3e
000002f0: 7e8b c93e 7778 28bb f279 fd3c 2a5f dfbd
00000300: 3a91 3fbe 12f2 60be 39f2 ce3d 9ee1 333e
00000310: 0eeb 0d3e 7ffe b23d 684d 7f3e 6697 823e
00000320: 9a69 07be 008e fcbd b3a3 913e 76ad 25be
00000330: aa93 173d 0b78 5f3e 3c9f 0b3e c809 96bd
00000340: 7a84 013f b511 b83e 9c0a 863e 4012 a53c
00000350: e70e 31bd 1329 53bd 5242 ddbd 2c0e 3c3e
00000360: a109 8cbe cc22 8abe 41c5 5c3e e9d8 ce3d
00000370: f4e4 813e f2b2 eb3c a758 373e 549d eabd
00000380: 7f0f 1b3d d831 483e e056 513d 1d81 b43c
00000390: b9ae 943e 4190 983c dbf3 babe 1078 ad3e
000003a0: 8e2b 033e 3734 913e fba5 5c3e 2d2b 80be
000003b0: 4715 adbe 1e0c 09be a16d c8bd abc2 7cbe
000003c0: 1507 443e 7e2e a7be 0144 bfbe 50aa 8cbd
000003d0: 1406 2fbe 7fbc 11be b4b9 ccbd e6ed 2fbe
000003e0: 82e7 73be a510 5bbe 9d2e c1be 943d 9fbe
000003f0: cfbe 22bd 4339 9bbe b021 1dbe accf 95be

network_body._body_endoder.lin_layers.seq_layers.0.bias f4 [216]
-0.39490205 -0.21432479 -0.3680188 -0.3488315 -0.22730199 -0.27249864 -0.34749573 -0.38205004
-0.34982395 -0.33441547 -0.33350906 -0.32601523 -0.28320053 -0.40122715 -0.3519217 -0.40211785
-0.32950857 -0.3008818 -0.19791824 -0.29350078 -0.37920672 -0.48976737 -0.28984624 -0.38082322
0.14241515 -0.20628656 -0.3716701 -0.24722505 -0.11666921 -0.30483758 -0.3613268 -0.32232472
-0.43902487 -0.2386157 -0.3163507 -0.18229814 -0.25328788 -0.33275557 -0.29408902 -0.2746551
-0.31534207 -0.22715136 -0.3188924 -0.249507 -0.45775512 -0.42285946 -0.30759978 -0.39635283
-0.41497612 -0.3959 -0.33893666 -0.3186633 -0.35317668 -0.26661414 -0.366278 -0.2955035
-0.25689563 -0.41100857 -0.29505447 -0.44633812 -0.37476808 -0.2878734 -0.038647912 -0.33242297
-0.45460972 -0.4197494 -0.3664301 -0.2968355 -0.25568482 -0.24880737 -0.37294942 -0.30248198
-0.38873088 -0.29612 -0.25213718 -0.36976054 -0.361374 -0.4741769 -0.2675068 -0.23624735
-0.28387904 -0.027224433 -0.340376 -0.33157948 -0.24532941 -0.19575071 -0.24960312 -0.32022125
-0.18785405 -0.28708994 -0.3952563 -0.3184674 -0.35802835 -0.2839939 -0.3126406 -0.08433829
-0.2768833 -0.25918937 -0.40885994 -0.37453467 -0.227767 -0.34233218 -0.2748328 -0.29094213
-0.37262645 -0.34016812 -0.42009163 -0.2518657 -0.27868983 -0.2879582 -0.31682175 0.072069086
-0.31951374 0.046309628 -0.40032393 -0.3157125 -0.31653234 -0.16656522 -0.3775162 -0.536102
-0.36536315 -0.13670987 -0.32863265 -0.32623175 -0.19558224 -0.29584977 -0.29846117 -0.27521464
-0.34510943 -0.33303148 -0.3837415 -0.3769225 -0.48922795 -0.4308877 -0.141439 -0.40959987
-0.036686655 -0.30414373 -0.32623947 -0.20250022 -0.26290202 -0.20751338 -0.18558775 -0.45496312
-0.112146854 -0.31223118 -0.33660057 -0.3588529 -0.3264031 -0.29378664 -0.29440346 -0.17603973
-0.22945614 -0.34678108 -0.30576208 -0.20573583 -0.21324663 -0.4560962 -0.25094536 -0.31100157
-0.40267578 -0.24433233 -0.32970724 -0.36478773 -0.28473487 -0.24056853 -0.39320126 -0.4224858
-0.25740835 -0.3552301 -0.060020506 -0.3514035 -0.31408554 -0.29056168 -0.27712026 -0.37659448
-0.33582157 -0.29842138 -0.34257534 -0.32290688 -0.34383085 -0.39678356 -0.3121189 -0.28102168
-0.27892435 -0.21537492 0.06859266 -0.35467654 -0.208099 -0.2735303 -0.43186325 -0.367824
-0.31300473 -0.41142765 -0.2593005 -0.30760747 -0.40667033 -0.30355388 -0.24566624 -0.35241348
-0.37425518 -0.36995918 -0.17994589 -0.40233168 -0.3546056 -0.27916723 -0.10734577 -0.35833898
-0.38759738 -0.38471752 -0.20868257 -0.21125963 -0.4598418 -0.25773856 -0.28762013 -0.35418335
00000000: 9a30 cabe f577 5bbe f66c bcbe 0b9a b2be
00000010: dac1 68be f184 8bbe f6ea b1be 109c c3be
00000020: 201c b3be 8138 abbe b3c1 aabe 78eb a6be
00000030: a9ff 90be a56d cdbe 152f b4be 64e2 cdbe
00000040: 59b5 a8be 2e0d 9abe 14ab 4abe bc45 96be
00000050: 6227 c2be cac2 fabe ba66 94be 43fb c2be
00000060: 47d5 113e c93c 53be 8b4b bebe 9028 7dbe
00000070: 44f0 eebd ac13 9cbe d4ff b8be bf07 a5be
00000080: dec7 e0be ad57 74be b8f8 a1be 5dac 3abe
00000090: f3ae 81be f05e aabe d692 96be 989f 8cbe
000000a0: 8474 a1be 5e9a 68be dd45 a3be c37e 7fbe
000000b0: e15e eabe 0981 d8be b87d 9dbe c2ee cabe
000000c0: c077 d4be 68b3 cabe 1b89 adbe d627 a3be
000000d0: 93d3 b4be a681 88be ca88 bbbe 3c4c 97be
000000e0: d387 83be b76f d2be 6111 97be 6e86 e4be
000000f0: 9ae1 bfbe 2464 93be 464d 1ebd 5833 aabe
00000100: 9bc2 e8be 65e9 d6be ba9c bbbe d3fa 97be
00000110: 1fe9 82be 5cc7 7ebe 3af3 bebe ebde 9abe
00000120: bc07 c7be 0a9d 97be 2018 81be 4151 bdbe
00000130: 0306 b9be 51c7 f2be a7f6 88be d3ea 71be
00000140: 9858 91be c605 dfbc c345 aebe c9c4 a9be
00000150: a237 7bbe e072 48be f697 7fbe 0af4 a3be
00000160: d05c 40be 74fd 92be 095f cabe 290e a3be
00000170: 7e4f b7be a667 91be 6e12 a0be 8eb9 acbd
00000180: a6c3 8dbe 78b4 84be 1756 d1be 02c3 bfbe
00000190: c13b 69be 2a46 afbe e2b6 8cbe 5ef6 94be
000001a0: e5c8 bebe 842a aebe 4016 d7be 8bf4 80be
000001b0: 6fb0 8ebe 426f 93be 7636 a2be f598 933d
000001c0: 4e97 a3be 2aaf 3d3d 42f7 ccbe 12a5 a1be
000001d0: 8710 a2be 1390 2abe ce49 c1be fb3d 09bf
000001e0: e110 bbbe acfd 0bbe 8a42 a8be d907 a7be
000001f0: b646 48be 9f79 97be e7cf 98be efe8 8cbe
00000200: 2fb2 b0be 1a83 aabe c479 c4be fcfb c0be
00000210: 167c fabe 509d dcbe 63d5 10be 13b7 d1be
00000220: bf44 16bd bab8 9bbe dc08 a7be 385c 4fbe
00000230: 189b 86be 637e 54be b70a 3ebe edf0 e8be
00000240: 40ad e5bd c4dc 9fbe e956 acbe 91bb b7be
00000250: 4f1e a7be 346b 96be 0dbc 96be c243 34be
00000260: 8df6 6abe 4a8d b1be d98c 9cbe 6aac 52be
00000270: 535d 5abe 7185 e9be e97b 80be 993b 9fbe
00000280: 852b cebe 4132 7abe 63cf a8be 75c5 babe
00000290: c5c8 91be 9957 76be ad51 c9be 0f50 d8be
000002a0: 07cb 83be b8e0 b5be 10d8 75bd 29eb b3be
000002b0: d2cf a0be 80c4 94be b5e2 8dbe fed0 c0be
000002c0: cef0 abbe b0ca 98be 0966 afbe 0d54 a5be
000002d0: 990a b0be 3727 cbbe 0cce 9fbe 13e2 8fbe
000002e0: 2ccf 8ebe 3e8b 5cbe 4f7a 8c3d 2a98 b5be
000002f0: e717 55be 2a0c 8cbe 2e1d ddbe 6d53 bcbe
00000300: 2842 a0be a5a6 d2be 09c3 84be ba7e 9dbe
00000310: 1837 d0be 6a6b 9bbe ee8f 7bbe 8a6f b4be
00000320: 609e bfbe 4a6b bdbe bc43 38be 6bfe cdbe
00000330: dd8e b5be 02ef 8ebe 19d8 dbbd 3578 b7be
00000340: 2a73 c6be b2f9 c4be e2b0 55be 7254 58be
00000350: 6270 ebbe 4ff6 83be f242 93be 8557 b5be

network_body._body_endoder.lin_layers.seq_layers.2.weight f4 [216, 216]
-0.1362546 0.08178096 0.14517233 0.071989454 -0.014540106 0.39097327 0.049391303 -0.10935304
-0.017918358 0.027942484 0.07562751 0.11132363 -0.06956285 0.22779186 0.068004444 0.12517945
0.339207 -0.0062166895 0.07766147 -0.1503733 0.011611287 -0.16283174 -0.060050342 -0.004331206
-0.05348997 0.031110583 -0.081618324 -0.07898599 -0.19396397 -0.14177543 -0.0009594114 0.14413989
0.03934455 0.04295389 -0.0085860295 0.06585258 -0.16653617 -0.0827702 -0.00981319 0.20037268
0.15867871 -0.06881319 0.004346654 -0.031592533 0.10053643 -0.13533865 0.023750247 0.112232976
0.12185007 0.012774071 -0.06188456 0.19842279 0.058091402 -0.07482052 -0.067329675 -0.07735
-0.022384347 0.111836866 -0.11504567 -0.028615218 0.17196709 0.07460307 -0.053175956 0.16830024
0.10720306 0.0861656 0.19453424 0.090343736 0.09072741 0.11261042 0.20527922 0.16731158
0.17643456 0.09711091 0.028747275 0.23436132 0.033469707 -0.067335 0.21633115 0.010634839
-0.091079995 0.11165918 -0.14165072 0.06776235 0.12285311 -0.038803354 0.2189798 -0.05883049
0.069477804 -0.056886982 -0.070116416 -0.025617015 0.115821086 0.16771348 -0.16846566 -0.0017983314
0.17681608 -0.19262987 -0.014087009 0.2123044 -0.13200876 0.0937921 0.010151006 -0.048803903
-0.07212362 -0.012400207 0.1583058 0.39752534 0.14519486 -0.10701641 -0.13611245 -0.16378461
0.18253155 0.11736817 0.06297597 0.16285622 -0.114508055 0.052851435 0.08974328 -0.05431146
0.06207572 0.17376815 0.010116127 0.045572985 0.10404037 -0.0718641 0.15500897 0.25009152
0.19858518 -0.09382554 -0.07581135 0.12365862 0.15277489 0.044280853 0.00217182 -0.072740845
-0.016035706 0.107760265 0.23135535 0.06416599 -0.22765428 -0.09421907 0.05569015 -0.0918
0.039467752 0.11397231 0.12478173 0.061062098 -0.1376732 -0.027904892 0.23767708 -0.017186483
-0.11190708 0.088885 -0.083496526 0.11856435 0.0064719184 -0.0032869563 0.17664212 0.0051330146
-0.035386693 0.19432214 -0.09299419 0.06842645 0.0219513 -0.056895617 0.100562945 0.048684683
-0.0139925545 -0.030901395 -0.10472552 0.039103504 -0.119053274 0.113856025 0.21482553 -0.03352874
-0.09394682 -0.018089028 -0.08539131 0.16921398 0.118849255 -0.11816723 0.12246458 0.014251903
0.058657244 0.18989861 0.025701338 -0.0010140049 0.06724795 0.37914255 -0.10285859 0.049720507
0.12927487 -0.032735303 -0.17854497 0.09319572 -0.048401255 -0.00983656 0.13729261 -0.08664656
-0.1469391 0.017641569 -0.037818074 0.20270321 -0.05655648 -0.10526891 -0.19467895 -0.007555671
-0.1526538 0.0265246 0.13395901 -0.038940523 0.046264954 0.07846964 0.08958415 0.05626258
-0.13937679 0.0074173934 0.19268388 0.16710722 -0.010753471 0.06471045 0.017493078 0.04981611
-0.030493591 0.11126192 0.0298883 0.061845053 0.2524585 -0.06342592 -0.1930536 -0.031335074
0.22262456 -0.1070478 0.18109389 -0.051578786 0.06626022 0.24744104 0.16944544 0.11287613
-0.25997874 0.25313517 -0.092560135 -0.0074969665 -0.33683833 -0.07929445 -0.009075458 0.12465096
0.2054902 0.091731355 -0.07670998 0.03359568 0.16034321 -0.03641124 -0.083607875 0.33924323
00000000: 5386 0bbe c77c a73d 0ea8 143e 356f 933d
00000010: a039 6ebc a62d c83e 894e 4a3d 7df4 dfbd
00000020: 85c9 92bc a3e7 e43c 99e2 9a3d a5fd e33d
00000030: f876 8ebd 4542 693e ea45 8b3d 0b2f 003e
00000040: 8aac ad3e 5fb5 cbbb fa0c 9f3d 75fb 19be
00000050: 443d 3e3c 5dbd 26be 59f7 75bd caec 8dbb
00000060: 4c18 5bbd 9fdb fe3c 8227 a7bd 68c3 a1bd
00000070: 7e9e 46be 942d 11be 0281 7bba 6899 133e
00000080: c027 213d 6bf0 2f3d 6bac 0cbc b8dd 863d
00000090: 7588 2abe 6c83 a9bd 81c7 20bc 7f2e 4d3e
000000a0: ac7c 223e eeed 8cbd 606e 8e3b 2c67 01bd
000000b0: 0be6 cd3d 3796 0abe e18f c23c 67da e53d
000000c0: 888c f93d 564a 513c aa7a 7dbd 582f 4b3e
000000d0: 40f1 6d3d 803b 99bd 24e4 89bd ad69 9ebd
000000e0: 615f b7bc ba0a e53d 109d ebbd 766a eabc
000000f0: 2418 303e 7fc9 983d 08cf 59bd e656 2c3e
00000100: 478d db3d 9777 b03d fc33 473e 2306 b93d
00000110: 4bcf b93d 4ba0 e63d b734 523e ba53 2b3e
00000120: 43ab 343e 16e2 c63d 687f eb3c 6afc 6f3e
00000130: 8817 093d efe6 89bd ea85 5d3e bf3d 2e3c
00000140: 2688 babd 91ad e43d e30c 11be fdc6 8a3d
00000150: 699a fb3d 44f0 1ebd 3e3c 603e 3df8 70bd
00000160: 614a 8e3d 5302 69bd 3299 8fbd c6da d1bc
00000170: 9b33 ed3d 15bd 2b3e 4382 2cbe fdb5 ebba
00000180: 460f 353e c440 45be 33cd 66bc 5366 593e
00000190: 4e2d 07be 1316 c03d 6850 263c 9ae6 47bd
000001a0: 8cb5 93bd 3d2a 4bbc ea1a 223e 7188 cb3e
000001b0: f6ad 143e 6b2b dbbd 1061 0bbe 27b7 27be
000001c0: 8de9 3a3e b95e f03d 8cf9 803d c8c3 263e
000001d0: 3383 eabd bf7a 583d 53cb b73d b275 5ebd
000001e0: 1c43 7e3d 47f0 313e 1dbe 253c bdaa 3a3d
000001f0: 1e13 d53d 7c2d 93bd acba 1e3e ff0b 803e
00000200: ea59 4b3e 9b27 c0bd fb42 9bbd bb40 fd3d
00000210: 0571 1c3e d75f 353d 1855 0e3b 27f9 94bd
00000220: 505d 83bc 6ab1 dc3d 6be8 6c3e 7569 833d
00000230: 341e 69be eef5 c0bd 5b1b 643d a301 bcbd
00000240: f0a8 213d 516a e93d 908d ff3d 401c 7a3d
00000250: 34fa 0cbe cd98 e4bc 9f61 733e abca 8cbc
00000260: 8a2f e5bd 5709 b63d 3a00 abbd ded1 f23d
00000270: 6312 d43b fa69 57bb ace1 343e d932 a83b
00000280: a3f1 10bd 62fc 463e bd73 bebd 2b23 8c3d
00000290: 36d3 b33c 610b 69bd f2f3 cd3d 9769 473d
000002a0: 0741 65bc ec24 fdbc 557a d6bd ff2a 203d
000002b0: 34d2 f3bd 592d e93d 39fb 5b3e 6f55 09bd
000002c0: 3167 c0bd 712f 94bc a4e1 aebd 6e46 2d3e
000002d0: 3d67 f33d a901 f2bd b6ce fa3d d080 693c
000002e0: 9442 703d c874 423e 9d8b d23c 5ce8 84ba
000002f0: 4bb9 893d f91e c23e 86a7 d2bd bba7 4b3d
00000300: a260 043e 7415 06bd 7ed4 36be 66dd be3d
00000310: 6540 46bd 8629 21bc 6f96 0c3e c073 b1bd
00000320: 3477 16be 0d85 903c 20e7 1abd 6e91 4f3e
00000330: c4a7 67bd 3a97 d7bd eb59 47be 9095 f7bb
00000340: 4751 1cbe 1e4a d93c 8d2c 093e 1980 1fbd
00000350: 5280 3d3d b1b4 a03d e577 b73d 9773 663d
00000360: cab8 0ebe 9b0d f33b ec4e 453e 281e 2b3e
00000370: 542f 30bc ea86 843d a54d 8f3c fa0b 4c3d
00000380: b2cd f9bc 4add e33d 4fd8 f43c 3d51 7d3d
00000390: 3e42 813e 73e5 81bd d8af 45be 3559 00bd
000003a0: b1f7 633e e13b dbbd ad70 393e 4744 53bd
000003b0: 70b3 873d 2f61 7d3e 1b83 2d3e 9a2b e73d
000003c0: ef1b 85be ef9a 813e 2b90 bdbd 1da9 f5bb
000003d0: 1376 acbe 2165 a2bd 3bb1 14bc 0149 ff3d
000003e0: 066c 523e a6dd bb3d 1f1a 9dbd a09b 093d
000003f0: 0331 243e f423 15bd 9b3a abbd 4ab1 ad3e
