Assets/oon/s_finished3.onnx (onnx, 146879 bytes, 8 tensors)

network_body._body_endoder.seq_layers.0.weight f4 [128, 138]
000000 0e c3 c2 3d e3 92 8b bd 9c 3a 84 3c dc f0 99 bc
       0.0950986 -0.06815126 0.016141228 -0.018791609
000010 49 31 81 bc 90 e4 af 3c 2c a1 2e be e4 01 0f 3d
       -0.015770571 0.021471292 -0.1705367 0.034913912
000020 f1 cc 1b 3e 16 66 52 be f5 1a f8 3d 57 62 25 3d
       0.15214898 -0.20546755 0.12114517 0.040376987
000030 25 e8 ea bc 94 cb 9e bd 60 57 f4 bd f9 5c a5 3c
       -0.028675148 -0.07753673 -0.11930728 0.020185934
000040 9e b4 31 3e 5f 0f 21 3d 59 d8 53 bd a1 34 c4 3d
       0.17354056 0.0393213 -0.051719997 0.09580351
000050 6f fa f3 3d 90 72 f3 3d 7c c6 62 3c c6 50 70 3d
       0.11913001 0.118870854 0.013841268 0.05867078
000060 81 3c f3 3d df 5c ca 3d cd cf c2 3c 58 1c cd bc
       0.118767746 0.09880995 0.023780728 -0.02503793
000070 56 ad e7 bd de 4a d6 bc 55 70 91 3d 3a 57 8f bd
       -0.11312358 -0.026158746 0.07101504 -0.06999059
000080 50 5a f2 bd a9 30 16 3e 36 b5 58 3d 26 74 55 bd
       -0.11833632 0.14667 0.05290719 -0.05211272
000090 e9 dd a8 be 01 d3 af 3d d5 53 b0 3c 06 32 4c 3d
       -0.32981804 0.08585168 0.02152435 0.049852394
0000a0 b9 7a 34 3b 3d 31 01 bd ee 0b 1f 3e 0c f9 3d 3d
       0.0027538969 -0.031541098 0.15531895 0.046380088
0000b0 bb 87 9a 3d a6 c5 b1 3d 23 69 b4 bc 9c 61 24 bc
       0.0754542 0.086802766 -0.02202279 -0.0100330375
0000c0 74 58 85 bd e9 e8 b0 bc 47 c3 ef 3d ab 8b 21 3e
       -0.06511012 -0.021595435 0.11707168 0.15775935
0000d0 c7 97 09 3d 29 7a 69 3d 93 72 58 3e 6d fa ad 3d
       0.03359201 0.057001267 0.21137457 0.084950306
0000e0 63 05 10 3d f2 91 a3 bd e1 59 67 bd 01 92 8e 3b
       0.035161387 -0.07986821 -0.0564822 0.004350901
0000f0 70 15 32 bd 20 97 da 3d 15 51 01 3e 7c 4e 16 bd
       -0.043477476 0.10673356 0.12628587 -0.036695942
000100 73 d0 a8 bd 10 cc 7a be 19 37 a6 3d 27 89 d1 bc
       -0.082428835 -0.24491906 0.08115978 -0.025578095
000110 bf 76 df 3d ec 60 90 3d 59 26 69 bd 5a 06 25 be
       0.10911321 0.070497364 -0.056921337 -0.16115704
000120 ec e9 b6 3d 98 f2 81 3d 08 73 a4 3c 5f 3e 49 be
       0.08931336 0.06345099 0.020074382 -0.19652699
000130 76 cb 33 bd 9b f6 cd bc 23 f7 8a 3c 6f 2d 0c be
       -0.043895207 -0.025142005 0.016963547 -0.13689207
000140 81 54 dc 3d 2d 41 92 bd fe 4c f9 bc ba f7 b7 3c
       0.10758305 -0.071413375 -0.03043222 0.022456992
000150 e8 8f 11 3d 99 bb 8e 3d 24 30 88 3d bb 5e b7 3d
       0.03553763 0.06969375 0.06649807 0.08953615
000160 3e 97 93 38 db 16 ac 3d c2 8b f0 3c 7c fc 52 3d
       7.037677e-05 0.08402797 0.029363517 0.05151032
000170 31 69 f7 3a 04 f6 8a bc 9e 14 a1 3d 06 39 f6 3b
       0.0018875954 -0.016963013 0.078652605 0.007514122
000180 6d 40 10 bd 87 b9 d9 3d ef b1 c3 3c d5 de 72 bd
       -0.03521769 0.1063109 0.023888556 -0.05929454
000190 00 41 2a 3c 88 a7 bc 3d 5e 6f 83 bd 34 12 3d 3e
       0.010391474 0.092116416 -0.06417726 0.18463975
0001a0 44 c1 07 be b3 66 e2 bc f9 0e 4d 3c 7d 37 ae 3d
       -0.13257319 -0.027636861 0.012515777 0.08506677
0001b0 80 bb ed 3a 27 5a f7 bc e8 06 6e bd 11 a4 a4 bd
       0.0018137544 -0.030194355 -0.058112055 -0.08039106
0001c0 e4 5b 7d 3d ae 63 34 be 6e 6e 34 3d 7f d0 0c bd
       0.06185521 -0.1761615 0.044050626 -0.034378525
0001d0 07 4c a4 bd 73 e5 37 bb 2b a3 de 39 27 f8 1f be
       -0.080223136 -0.0028060346 0.0004246471 -0.15622006
0001e0 03 b1 65 3b 8d 2f c8 bd 59 17 48 3e 5a bb 70 3c
       0.0035048134 -0.097746946 0.19540156 0.014693106
0001f0 ba ca 88 3d 6c 59 00 3e 3c c3 f7 3b 41 34 4a 3c
       0.06679292 0.12534112 0.0075611155 0.01234156
000200 69 2c 42 3f 00 50 da bb c8 c1 d0 bd a3 c5 02 3e
       0.75849015 -0.006662369 -0.10193211 0.12770705
000210 40 69 c5 3d 51 fe b4 bd 7c 19 60 3e d4 8b ae bd
       0.096392155 -0.088375695 0.21884722 -0.08522764
000220 01 50 95 bc 97 a3 dc 3d 0d 25 84 3c d1 fc f0 3c
       -0.018226625 0.1077339 0.016130948 0.029417427
000230 6d bf a0 bd fe 6a 52 3c b8 fe 1b bd 1e 4c 3f be
       -0.078490116 0.012842892 -0.038084716 -0.1868138
000240 2e f8 d5 3c 42 ae 04 3d de 82 0d 3d a1 10 cb 3d
       0.026119318 0.032392748 0.034548633 0.09915281
000250 6e 62 40 be 7e cc eb bc a1 c6 54 3d 20 8a ec bd
       -0.18787548 -0.028784033 0.05194724 -0.11549783
000260 62 02 b2 bc 05 90 c2 bc 69 b0 77 be ac 81 1f be
       -0.021729652 -0.023750314 -0.24188389 -0.1557681
000270 1a 2c 67 bd 6d 0e 20 be 55 72 76 3c 92 c7 a9 bd
       -0.056438543 -0.15630503 0.015041907 -0.08290018
000280 33 3c 0e bd 08 af 02 be 16 ea a1 3c 63 bc 1b be
       -0.03472538 -0.12762082 0.019764941 -0.15208583
000290 8b c7 55 be 88 a4 74 be 5d b2 d6 bd ef d6 51 bd
       -0.20876901 -0.23890889 -0.10483239 -0.051230367
0002a0 8a 31 2b 3b f7 39 d0 bd 92 06 bb 3b 9d de 2c 3d
       0.0026122057 -0.10167306 0.0057075704 0.042204488
0002b0 a8 fe c6 bd 1e 74 d4 bd ea 0d 9f bd e3 bf 04 be
       -0.097165406 -0.1037371 -0.07766326 -0.12963824
0002c0 25 bb 85 3d e4 54 31 bd 7e 69 ec bb c5 3f 09 bd
       0.065298356 -0.04329385 -0.007214724 -0.03350808
0002d0 10 07 d7 bd 6a 8c 84 bd 41 0a e7 bc b8 bc 9b 3c
       -0.10499394 -0.06472094 -0.028203132 0.019010887
0002e0 87 f5 1a be 50 80 b5 3d d9 f6 22 be 73 91 3c bd
       -0.15132724 0.08862364 -0.15914477 -0.04603715
0002f0 e8 02 37 bc 2e 96 04 bd fe 12 d5 3d d0 95 2d be
       -0.0111701265 -0.032369785 0.10404013 -0.1695168
000300 ac 91 c3 bd 06 d6 91 3c c3 0a a5 bc 63 22 82 be
       -0.09549269 0.01780225 -0.020146733 -0.2541686
000310 f5 06 36 be 44 06 48 be 36 cc 1d be 2a 27 40 be
       -0.17776091 -0.1953364 -0.15409932 -0.1876494
000320 33 5a d9 bd ea 2b 16 be b9 25 7c be 92 31 32 bc
       -0.10612907 -0.1466519 -0.24623765 -0.010876076
000330 0f 0d d8 3d 3f 43 7f bc da 34 41 be 35 2e 0e be
       0.10549366 -0.015579998 -0.18867818 -0.13884814
000340 e4 0f 80 bd 10 15 22 bd 83 1c c2 3c 8d 56 16 bb
       -0.06253031 -0.039570868 0.023695236 -0.0022939772
000350 6c d0 37 be 12 89 a2 bd 3f 31 50 3d 9d 9a 4a be
       -0.179506 -0.079363 0.050828215 -0.19785543
000360 85 f5 c4 bd 53 fb f9 3c d4 5b 31 bd 03 6c d2 3c
       -0.09617142 0.030515349 -0.043300465 0.02568627
000370 0b d0 db 3b b4 d6 d1 bd 1d 65 93 bb 13 6d ce bd
       0.0067081503 -0.102460295 -0.0044981376 -0.10079398
000380 c3 9a de bd 0a 1c b9 3d 43 fd 0f bc 9a 9c 4a bd
       -0.10869362 0.09038551 -0.00878841 -0.049465753
000390 3e b0 be 3d ff 55 48 be a1 30 6e bd 04 1c d7 3d
       0.09310959 -0.19564055 -0.058151845 0.105033904
0003a0 c8 f4 e5 bd c7 e3 0e 3e 80 87 e5 bd 16 da 6f be
       -0.11228329 0.13954078 -0.11207485 -0.23423037
0003b0 3a 17 b5 bd bb 3e 9d bc 19 ea 7f be ee da 2a bd
       -0.08842321 -0.019194951 -0.24991645 -0.041712694
0003c0 eb 9f 2f be 3d 53 33 be e8 6a 0c be c7 b3 ad bd
       -0.17150848 -0.17512222 -0.13712656 -0.084815554
0003d0 93 a2 3f be 2a 70 b6 bd ff 5a e1 bd e6 bf a4 bd
       -0.18714361 -0.08908112 -0.11003684 -0.08044414
0003e0 0a c7 c9 bc b5 15 03 3e 6c 1c 73 bd e7 fd 88 ba
       -0.024631042 0.1280125 -0.059353277 -0.0010451645
0003f0 01 d6 7d be ba 9b 46 3d f7 3d 29 bd b0 86 de bc
       -0.24788667 0.048488356 -0.04131886 -0.027163833

network_body._body_endoder.seq_layers.0.bias f4 [128]
000000 1b 83 89 3d 48 ec d3 bd 81 8d a7 3d 9d 6b 07 3e
       0.067144595 -0.103478014 0.081812866 0.13224645
000010 b0 bf ab 3d b0 97 01 bd 32 91 0b 3e 18 21 15 3e
       0.08386171 -0.0316388 0.13629606 0.14563406
000020 2a 80 90 bc 90 35 4b 3d 5a 3a ad bd e3 0d 08 3d
       -0.017639238 0.049611628 -0.08458395 0.03321637
000030 39 60 74 3d 08 a1 5c bd e9 3a 54 be e4 4e f4 bd
       0.059662078 -0.05386451 -0.20725597 -0.1192911
000040 56 ab 39 bd 88 e3 c3 3c ba 7d 9c 3d 6f 05 fa 39
       -0.045329414 0.023912206 0.07641168 0.00047687764
000050 ad 77 0d bc 1d f0 82 3b 05 14 00 3d d7 18 44 3d
       -0.00863449 0.003995909 0.031269092 0.04787525
000060 8e 14 9e 3d 2a 87 8f 3d b3 53 31 3d 61 a3 49 3d
       0.07718764 0.070082024 0.043292712 0.049228076
000070 7e 47 c1 3d 7d e3 e5 3d 01 f7 f1 3d c6 95 cc 3d
       0.09437464 0.112250306 0.118146904 0.099895045
000080 66 a0 36 bd 41 61 c8 3c a4 66 e7 3d f3 10 b2 3d
       -0.04458656 0.024460437 0.11298874 0.08694639
000090 90 91 d9 3d ee f7 06 bd 43 6e 1e 3d 98 24 8d 3d
       0.10623467 -0.032951288 0.038679373 0.06891745
0000a0 b7 bf 28 3d 22 a3 d2 3d 2b 77 ad bd 3d c6 44 bd
       0.04119846 0.10285021 -0.08469995 -0.048040617
0000b0 18 a2 fd bc c0 46 af 3c ae a8 97 3d 51 64 da bd
       -0.030961081 0.02139604 0.0740522 -0.10663665
0000c0 72 20 15 3d c9 bb 85 bc 2b 5c 29 bd 0f 94 1e 3d
       0.036407895 -0.016324895 -0.041347664 0.03871542
0000d0 ad e1 23 be d0 4c 0c be e3 d3 6f bd 27 ac d2 3d
       -0.16004057 -0.13701177 -0.05855168 0.10286742
0000e0 30 98 37 3d 4d 09 b1 3d aa 03 80 bc ef 24 4e 3d
       0.04482287 0.08644352 -0.015626747 0.05032819
0000f0 96 ea 87 bd 74 77 90 3d d8 26 ea 3d 6c 33 87 bb
       -0.066365406 0.07054034 0.1143319 -0.004126003
000100 7c 7f de 3d 52 5d ec bd 29 e3 8c 3c 98 87 81 3c
       0.108641595 -0.11541237 0.017198162 0.015811726
000110 6d 69 38 3d 57 de d1 3c 31 c8 a4 bd 3c f5 62 3d
       0.045022417 0.025618715 -0.08045996 0.055409655
000120 9a 3b 72 3d 45 cd cc bd 0a c2 ae 3d e5 b7 d1 3d
       0.05913887 -0.100000896 0.08533104 0.10240153
000130 fc 8a c4 3d f4 be 71 3d 72 6b b7 3d fc db 19 3e
       0.09596822 0.059019998 0.089560404 0.15025324
000140 9c d0 82 be 55 da 4e 3d 5e de 92 bc 5e e0 cd bd
       -0.2554978 0.050501186 -0.017928299 -0.1005256
000150 cd 56 65 bd b9 a9 86 3d b7 41 92 bd 23 d8 34 bd
       -0.055990983 0.06575341 -0.0714144 -0.044151437
000160 a6 4a 7c bd fd 0b 95 3d 37 fc a1 3d 2b 97 4c 3b
       -0.061594628 0.07277677 0.07909434 0.0031218033
000170 a1 2f 99 3d 79 c5 93 3d 5d b8 00 3e 43 e9 e8 3c
       0.074797876 0.07215399 0.12570329 0.02843154
000180 d6 c8 20 3d 87 f8 b4 3c 41 79 56 be a1 ac 24 be
       0.039254032 0.022091163 -0.20944692 -0.16081478
000190 5f d4 b0 3d a9 5f 04 3e 13 68 f1 bc c3 8e a6 3d
       0.086342566 0.12927116 -0.029468572 0.081326984
0001a0 0a a3 68 bd 03 19 f2 bc 54 49 9f bc 99 f0 07 3d
       -0.05679611 -0.029552942 -0.019444145 0.033188436
0001b0 86 84 96 3d 39 59 9b 3d e6 ef 9e bd f1 ca fc bc
       0.073494956 0.07585377 -0.07760601 -0.030858489
0001c0 fb 59 9d bc ca 09 ed bd f8 5a a9 bd 27 69 6b bd
       -0.019207945 -0.11574133 -0.08269304 -0.057473328
0001d0 63 e9 12 3d ec df 9d 3d cb d2 84 3d 26 a7 91 3d
       0.035867106 0.07708725 0.06485518 0.07111959
0001e0 bb 95 19 bd e8 fe 0f be 30 8b 86 bd 9b 70 14 3d
       -0.03749631 -0.14062083 -0.06569517 0.0362402
0001f0 cb 12 1a 3d 5d f9 b0 3c 01 42 8a 3d 6b e5 9e 3d
       0.03761558 0.02160328 0.067508705 0.07758602

network_body._body_endoder.seq_layers.2.weight f4 [128, 128]
000000 5f 9d 22 be 4c c6 26 3c 37 39 f7 bd 92 32 37 3d
       -0.15880345 0.010179114 -0.1207146 0.044725962
000010 bd 22 f8 bd 99 7d 53 bd 1f 62 b1 3d 3a 8e a7 3d
       -0.12116001 -0.05163345 0.08661293 0.081814244
000020 60 f3 e0 bd fd d2 e6 bd e8 e2 14 be a0 02 26 bc
       -0.1098392 -0.112707116 -0.14539683 -0.010132462
000030 6d aa 45 3e 11 51 84 bd 78 3f 17 be b4 ba fd bd
       0.19303294 -0.06460775 -0.14770305 -0.123891264
000040 7e 43 4b be cf 89 ee 3b 28 50 00 3d a5 95 9c bb
       -0.19849965 0.0072796117 0.031326443 -0.004778581
000050 4d 33 86 bd 76 2e ea bd d4 d6 86 3c 88 57 81 bd
       -0.065527536 -0.11434643 0.01645986 -0.063155234
000060 80 a5 a0 bd 33 12 08 3c 10 f4 54 3d 74 fc c9 3d
       -0.078440666 0.00830512 0.05199057 0.09862605
000070 16 cd ac 3d da c1 bf bd 6d 5b 03 be de 71 49 3e
       0.084375545 -0.09363146 -0.12827845 0.19672343
000080 e8 6c a0 3b c4 76 7e 3d c0 c2 26 3d 76 29 90 3d
       0.004895795 0.062124982 0.04071307 0.07039158
000090 de 46 39 3c ac ac a6 3d 56 8f 06 be 48 e0 51 3e
       0.0113084 0.08138403 -0.13140616 0.20495713
0000a0 05 d7 01 3e 65 cf 1b bd e1 89 d3 3d ac 42 e0 3d
       0.1267968 -0.038039584 0.10329033 0.10950217
0000b0 89 a5 41 bd 49 ef d3 bd 1d 4e df bd af 08 f1 bd
       -0.047277007 -0.103483744 -0.10903571 -0.117692344
0000c0 96 21 9c 3c 3f 60 7b bc a3 13 e8 3d f6 ac 1f bd
       0.019058984 -0.015342771 0.113318704 -0.038983308
0000d0 44 3e 13 3d cb f0 2a be a6 55 b9 3d e3 0e 46 3e
       0.035948053 -0.16693418 0.09049539 0.19341616
0000e0 cc 46 1a bd 4f d9 93 3a d9 07 9d bc d0 1d 55 bd
       -0.037665173 0.0011279973 -0.019168781 -0.052030385
0000f0 b5 7f 2e 3d 8f 7b d2 bc e0 98 9b bd dd ae fa bd
       0.04260226 -0.025693683 -0.07597518 -0.12240384
000100 2e b7 7a bb ac b6 53 3c a7 ec e2 3d a7 4e 14 be
       -0.0038256156 0.01292197 0.11080294 -0.14483128
000110 2d 61 7f bd 70 89 12 bd c3 14 d1 bb 17 bb 4a 3e
       -0.062348533 -0.035775602 -0.006380649 0.19797932
000120 b4 64 6e 3d 93 d0 d4 bd df 53 b3 3d 28 22 ee bd
       0.058201507 -0.10391345 0.087562315 -0.116276085
000130 f1 f6 36 bc d9 f3 1e bd 72 3f f7 3c eb 9e 44 3e
       -0.011167274 -0.03880677 0.03018162 0.19201247
000140 c2 04 94 bd ad 6d 5b bd e3 2a 0e 3e 1a 9d 3b bd
       -0.0722747 -0.05357139 0.13883547 -0.04580412
000150 e4 d7 32 3e cd 28 a2 bd b4 f6 a3 bd 0f 6d 0c 3e
       0.17465168 -0.079179384 -0.08006039 0.13713478
000160 ef 73 27 3d b8 39 ce 3c 60 82 2b 3d d0 13 e1 bd
       0.040882047 0.025174007 0.041872382 -0.10990107
000170 f6 63 07 bd c0 15 fc bb 2e 53 cc bd 15 c0 4c 3d
       -0.033054315 -0.0076930225 -0.09976803 0.04998787
000180 79 70 bc 3d ad 72 4c be 8a 8e ac bd 85 f4 c4 3d
       0.0920114 -0.1996562 -0.08425625 0.09616951
000190 8a 30 9c 3d 20 92 4a 3c b1 0d 33 3c fe 3c 8b bd
       0.076264456 0.0123639405 0.010928557 -0.06798743
0001a0 1a 4d b3 3d 81 a6 de 3c 43 52 04 3d ed 31 a3 bd
       0.0875494 0.027179005 0.032305013 -0.07968507
0001b0 19 0c d7 3c 9a c0 03 3d a4 6b ad bd 2b d3 09 be
       0.026250886 0.0321661 -0.084677964 -0.1345946
0001c0 2e 30 c4 bc f1 88 c9 bd 41 34 71 be 10 c1 8b bc
       -0.023948755 -0.098405726 -0.2355509 -0.017059833
0001d0 fb 03 bf 3d 07 40 49 bd c5 76 da bd 96 e8 06 be
       0.09326931 -0.049133327 -0.10667185 -0.13174662
0001e0 a6 c0 58 bd 49 5f 9b 3d 61 d8 88 be ab 10 c6 3c
       -0.0529181 0.075865336 -0.26727584 0.02417787
0001f0 05 84 94 bd 7d 8f 93 3d cd de c5 3d 36 fe 67 bd
       -0.07251743 0.072051026 0.096616365 -0.05663892
000200 36 63 c2 bd 36 73 3a be 99 95 17 be 5b b3 22 3d
       -0.09491579 -0.18208012 -0.1480316 0.039721828
000210 29 71 db bd 6d be 16 bb 25 b5 a0 3d d2 73 aa bd
       -0.10714943 -0.0023001686 0.078470506 -0.08322872
000220 65 cf 3a bd 22 ea a2 3d c3 e2 be bd 8a 94 21 be
       -0.045607943 0.079548135 -0.09320595 -0.1577932
000230 85 e4 84 3d 9c ba 16 bc d5 7a bf 3c 16 2e e2 bc
       0.06488899 -0.009199765 0.023374 -0.027609866
000240 c9 ba 05 3e c4 5b 41 bd 65 6d 80 3c eb f6 21 3d
       0.13059534 -0.047206655 0.015677163 0.03954212
000250 08 00 54 bd 82 14 ce 3d 95 85 43 bb c3 87 13 3c
       -0.051757842 0.10062505 -0.002983426 0.009004536
000260 07 1a f3 bb 02 50 17 bd 12 bc 1f 3e d3 af de 3d
       -0.007418874 -0.036941536 0.15599087 0.108733796
000270 89 b0 9c 3d 4e 0e 9e bc f2 43 9d bd e9 8e 3d be
       0.07650859 -0.01929393 -0.07678975 -0.18511547
000280 fe 7a a2 bb 9b c9 71 bd 33 5d a7 3d f8 f3 ab 3d
       -0.0049585095 -0.059030157 0.08172073 0.08396143
000290 cb 22 00 3e 9d 5a 71 bd 0e f2 8e ba 36 88 50 3c
       0.12513272 -0.058924306 -0.0010905878 0.012727788
0002a0 4f 29 20 bb 37 f2 c0 bd 30 67 d9 bd 63 7a ca 3b
       -0.0024438684 -0.09421199 -0.106153846 0.0061791404
0002b0 01 bc 8d 3e 30 43 f8 3d c9 c8 29 bc 44 4e 2f be
       0.27682498 0.1212219 -0.010362812 -0.171197
0002c0 ae 01 65 bd 1c a0 20 3d c1 a3 e0 3d d4 34 9d 3c
       -0.055909805 0.039215192 0.109687336 0.01919023
0002d0 3c 21 20 be 74 20 18 be d3 b9 24 bd 69 b9 f3 bd
       -0.15637678 -0.1485613 -0.04021628 -0.119005986
0002e0 98 df 2c 3e 76 74 37 3d 2e 5a 5c bd 97 21 fa 3c
       0.16882169 0.0447888 -0.05379694 0.030533595
0002f0 13 ca 19 be 27 28 8d bb 47 5d 0a 3e 55 50 a1 bc
       -0.15018491 -0.004307765 0.13512145 -0.019691626
000300 27 6c e1 bc e4 ed a1 bd 49 f4 dc bb a6 0f ab bd
       -0.027517391 -0.07906702 -0.0067429882 -0.08352594
000310 5e 89 8d 3b 61 3e b6 3d 15 eb 91 3d b1 55 c6 bd
       0.004319354 0.088986166 0.071249165 -0.09684313
000320 2b 5d a3 3d 62 cd 8f 3d e8 f9 af bc 6e df 35 bd
       0.07976755 0.070215955 -0.02148147 -0.044402532
000330 c9 52 6f 3d 62 bc 1a 3e c5 a5 88 bd 9a dd 97 bb
       0.05842856 0.15110925 -0.06672243 -0.0046345713
000340 94 30 3c bc 26 4b 15 3d 05 7e 8b bd 26 27 8b bd
       -0.011486191 0.03644862 -0.06811146 -0.06794576
000350 32 e9 f4 bd 05 84 69 3e 31 c5 d3 bd cf 69 77 bd
       -0.11958541 0.22804268 -0.10340346 -0.06040364
000360 87 32 e4 bd 9c d3 91 3d 13 be 24 3e b0 ca 87 3a
       -0.1114245 0.071204394 0.16088133 0.0010360088
000370 69 9d 02 3d ff b5 d3 bc 55 d4 e3 3d f9 49 4e 3c
       0.0318884 -0.025843618 0.111244835 0.012590879
000380 c9 cf 64 3d 07 aa 43 bd dd bb 56 be b7 ad 86 bd
       0.055862222 -0.047769573 -0.20970102 -0.06576102
000390 e7 98 91 3d ae ea f2 bc 46 4a de bd 70 a3 b2 3d
       0.07109242 -0.02965292 -0.1085401 0.087225795
0003a0 38 a6 96 3d d1 2b 49 3c 88 6b 79 39 08 34 fe bc
       0.073559225 0.012278513 0.00023786549 -0.03103067
0003b0 f2 86 70 3d 9b 07 ef bc 53 e2 f4 bc 9a 9b c2 bb
       0.058722444 -0.029178431 -0.029893076 -0.0059389593
0003c0 b0 fe c0 bd 69 58 96 3d 0d e3 42 bd 2a f5 87 bd
       -0.09423578 0.07341082 -0.047579814 -0.06638558
0003d0 a3 12 8d 3d 49 29 e5 3c e3 9c 85 bd be 8d 15 3d
       0.0688832 0.027973788 -0.065240644 0.03651213
0003e0 da 78 19 3e 36 ae 8e be 21 2d b0 bd de 46 07 bd
       0.14987507 -0.27867287 -0.08602358 -0.03302657
0003f0 52 cf f7 3d c6 d2 43 3d 53 5f 81 3d 69 8e 90 3d
       0.1210009 0.04780843 0.0631701 0.070584126

network_body._body_endoder.seq_layers.2.bias f4 [128]
000000 9c da de 3d c0 20 86 3d 20 bf 9f 3d 70 b7 c2 3d
       0.1088154 0.06549215 0.07800126 0.09507644
000010 6d 96 e4 3d 00 93 c9 3d 19 df d6 bd fc 6a a9 bd
       0.11161504 0.09842491 -0.10491771 -0.08272359
000020 20 2a d6 bd 22 e3 bb bd 37 02 b1 bd 49 80 be bd
       -0.104572535 -0.091741815 -0.086430006 -0.09301812
000030 db 7c d6 bc 5c 4c 5c 3d 90 0c db 3d 75 8e 77 3d
       -0.026182583 0.05378376 0.106957555 0.060438592
000040 4e 55 36 bd 00 d8 69 3c 33 96 23 bd ac a8 8c bd
       -0.044514947 0.01427269 -0.039938163 -0.06868109
000050 74 7e ca 3d 01 3a be bc e3 c8 d0 3d 02 e1 bc 3d
       0.098874 -0.023221018 0.10194566 0.09222604
000060 2b 17 c9 3d 44 b5 a2 bd c4 b4 90 bd 0a 06 2b 3e
       0.09818872 -0.0794473 -0.07065728 0.16701522
000070 6d ff a6 bd 88 16 b3 3d 41 b2 c7 3d 89 c7 95 bc
       -0.08154187 0.08744532 0.09750796 -0.018283622
000080 9c bb 1f bd 18 78 95 bd f6 90 df 3c 96 76 b1 bd
       -0.038997278 -0.07298297 0.027290802 -0.086651966
000090 7f 23 9f bd c4 41 68 3d 3d 43 db bd f1 9e e5 bd
       -0.07770442 0.056703344 -0.10706184 -0.11211956
0000a0 b3 37 87 3d 1f 1c b7 bd 5e 26 ab bd 42 b0 a5 3d
       0.06602421 -0.089409105 -0.08356927 0.08090259
0000b0 33 c9 86 3d 44 ae b4 bd f9 03 b0 3d 6c 76 05 3e
       0.065813445 -0.08822301 0.08594508 0.13033456
0000c0 b4 f2 8c bd 51 98 86 3d 99 75 d0 3d a3 a4 17 3e
       -0.068822294 0.06572021 0.1017868 0.14808898
0000d0 b4 4d b0 bd 5d 93 a9 3d c9 ad 06 3e bc 4f 09 3d
       -0.08608571 0.082800604 0.13152231 0.033523306
0000e0 aa 9c a8 bd 77 14 e0 bd 53 68 71 bd 90 fa e6 bc
       -0.08233006 -0.10941403 -0.058937382 -0.02819565
0000f0 81 80 e9 3d 60 76 7c bd 71 5d c2 3d 15 84 d3 3d
       0.11401463 -0.06163633 0.09490479 0.10327927
000100 74 26 91 bd 15 e0 90 3d 87 7f c7 bd 4d 88 ab bd
       -0.070874125 0.0707399 -0.09741121 -0.08375607
000110 ce c2 e4 bd 4a 2a be 3d e4 20 db 3d 4d 1c d6 3d
       -0.111699685 0.0928541 0.10699633 0.10454617
000120 2c 57 36 3d 3e e7 b7 3d ca 1f ab bd 4a f6 af 3d
       0.044516727 0.08979653 -0.08355673 0.08591898
000130 7e 79 ef 3d c8 5c 64 bd b4 27 bf 3c d0 40 b6 3d
       0.11693095 -0.055752546 0.023334362 0.08899081
000140 e8 72 13 bd 2c 56 46 bd 0b 47 14 bc 6f 13 8c 3c
       -0.035998255 -0.048422024 -0.009050141 0.01709911
000150 7f a0 a8 bd 36 79 f8 3d f9 b6 98 3d 82 82 61 bd
       -0.08233737 0.12132494 0.07456774 -0.055056103
000160 db f5 7d 3d fc e5 e6 3d 10 2e d8 bd 71 d7 c6 bd
       0.062002044 0.11274335 -0.10555661 -0.09709061
000170 b4 22 9a 3b 3b ca df 3d 3e ec c5 3d 8d 49 60 bc
       0.004703844 0.10927244 0.096642 -0.013689411
000180 94 d7 d9 bd 44 d4 95 bd 64 d2 c8 3d 42 ea ea bd
       -0.106368214 -0.07315877 0.09805754 -0.114704624
000190 fa f9 d5 3d c4 ce af 3d 41 9a c8 bd 63 c3 b3 3d
       0.1044807 0.08584359 -0.097950466 0.087775014
0001a0 10 82 ab bd 0a a4 d1 3d 8d 77 25 bd 0b 58 34 3b
       -0.08374417 0.10236366 -0.040397216 0.0027518298
0001b0 5a 28 fb 3c b7 ad dd 3d 8f 1e 99 bd 2e 66 a2 bd
       0.03065889 0.10824149 -0.07476532 -0.079296455
0001c0 1f 2a af bd ce c9 15 bd 65 5b b5 bd ba ae 52 3d
       -0.08552956 -0.03656941 -0.08855323 0.051436163
0001d0 c5 1b ac bd 33 71 3e bd 3f 76 e2 3d 01 f3 a5 bd
       -0.08403734 -0.046494674 0.1105771 -0.0810299
0001e0 31 3f 78 3d 9a 72 a0 bd 01 02 e0 3c 85 e9 86 bd
       0.06060714 -0.078343585 0.027344706 -0.06587509
0001f0 f0 7b 7e 3c 7c 5d b3 3d 55 c6 df 3d 98 b0 a8 bd
       0.015532479 0.08758065 0.10926501 -0.082368076

action_model._continuous_distribution.log_sigma f4 [1, 2]
000000 e4 ce 9c 3f ea f2 8f 3f
       1.2250638 1.1246006

action_model._continuous_distribution.mu.weight f4 [2, 128]
000000 c4 e5 92 bc 05 12 d3 3c e5 39 1f 3b a9 b8 e5 3c
       -0.017931826 0.025765428 0.0024295982 0.028042154
000010 da 2f 62 3d 60 61 a0 3b 06 21 da 3b 35 0d 8d 3c
       0.055221416 0.0048944205 0.0066567687 0.017218212
000020 76 5e 10 3a 30 bf ac bb 73 16 34 3d 90 04 8e bb
       0.000550724 -0.0052718148 0.04396672 -0.00433404
000030 51 41 0e be 22 7e d9 3c 78 5f ca 3c 52 1e 00 bc
       -0.13892104 0.026549403 0.024703726 -0.007819729
000040 c7 c1 a6 bd df 09 b1 bd fd a3 8f bd 61 6f 8d 3d
       -0.08142429 -0.08644461 -0.070137 0.069060095
000050 20 bb 20 3d 67 9f d2 3d 2f b2 d4 bc 14 cb 9f 3c
       0.039240956 0.1028431 -0.02596387 0.019506015
000060 3d a1 64 3d d2 99 06 bb 7d 1e d3 3c ed d6 4b bc
       0.05581783 -0.0020538461 0.025771374 -0.012441379
000070 3c b6 fd 3c 6c 60 bf 3c 7e d8 0a 3d 2a da 4b 3d
       0.030970685 0.023361407 0.03389787 0.049768604
000080 5e 61 53 3d a6 32 47 bd e4 63 f3 3d 4d 59 3f bc
       0.05160653 -0.048632286 0.11884287 -0.011679006
000090 db dc 8c 3d a8 18 f8 bd 26 bd 32 3c 0d f7 fd 3b
       0.06878062 -0.12114078 0.010909354 0.007750398
0000a0 d0 56 f0 3c f9 88 94 bc 05 45 8a bd 83 aa 32 bb
       0.02933827 -0.01813172 -0.06751446 -0.0027262277
0000b0 90 73 fd 3d 3d 0d 57 bd 3c e8 96 bb 3f c8 a7 bc
       0.123755574 -0.05250286 -0.004605321 -0.020481227
0000c0 0d d9 d4 3c f4 25 85 bc 5b ba c2 3d 9b 68 1a 3d
       0.025982404 -0.016253449 0.09508201 0.037697416
0000d0 03 89 85 3d 07 53 d0 3c 60 30 72 3d 8d b8 ac bd
       0.065202735 0.025430216 0.059128165 -0.08433638
0000e0 e2 19 07 3d 98 7f 03 3c 27 63 af 3c 75 6f 81 3d
       0.03298367 0.008026026 0.021409584 0.06320087
0000f0 83 de 83 bb 9b 93 c5 bd 6b a8 0e 3c f6 e6 b3 bc
       -0.004024328 -0.09647294 0.008707146 -0.021960717
000100 26 4d fe 3c 5d 2f 99 3d d2 f9 37 3d a6 fa 2d 3d
       0.031042647 0.07479737 0.04491598 0.042475365
000110 b3 eb 7e 3c f1 c9 66 3c 40 8e 32 3c 6c 27 8e 3b
       0.015559125 0.0140862325 0.010898173 0.0043381955
000120 53 7b d9 b9 76 33 04 bc a8 3c 2b bd 04 23 24 ba
       -0.0004148135 -0.00806891 -0.041805893 -0.0006261321
000130 22 ab bd 3c d6 ef 77 bd 7d b1 50 bd ad 63 0e 3c
       0.023152892 -0.06053146 -0.050950516 0.008690757
000140 d9 fd d8 3d f0 b6 54 3d ca 3e b6 bd 1f bf 68 3d
       0.105952926 0.051932275 -0.08898695 0.056822892
000150 66 ea 83 3d d2 ca 02 3e d0 cd f4 3a fd 88 94 bd
       0.06441192 0.12772682 0.001867706 -0.07252691
000160 6b 0d d1 3b 46 4a 88 bb 27 2f 90 bc 89 c0 0e 3d
       0.0063797734 -0.0041592447 -0.017600609 0.034851585
000170 e5 79 0c be 4f 7c d1 3c a9 71 32 3c 1f a4 1e be
       -0.13718374 0.02557197 0.0108913565 -0.15492295
000180 d2 e6 3e bc f6 4d 46 3d eb bb c2 3c 4a 5a ea bb
       -0.011651712 0.048414193 0.023771247 -0.0071518766
000190 c8 28 ef bd d6 b8 b5 3c 93 5b 05 3d 68 9b d5 bc
       -0.116777 0.022182863 0.032558035 -0.02607508
0001a0 08 7f 82 bd bc c3 46 bc 90 ad d1 3c 0c 1d b3 3d
       -0.063718855 -0.012131628 0.025595456 0.087457746
0001b0 c5 41 24 bb 99 c5 c7 3c 66 c5 9d bd 67 be fa bd
       -0.0025063616 0.024386214 -0.077036664 -0.122433476
0001c0 dd eb 15 3d a3 53 0b be 3b cf cb bc 9e 4a b1 bb
       0.03660189 -0.13606124 -0.024879089 -0.0054105064
0001d0 38 35 4f 3d ea 1b 3f 3d 0e 9f 95 3c a1 d7 06 3d
       0.050587863 0.04665748 0.01826432 0.032920483
0001e0 eb 01 03 3e 5f d9 4f 3d 9c 87 2e be bf 13 95 bd
       0.127937 0.05074441 -0.17043918 -0.07279157
0001f0 9f 5e 04 3e 09 63 35 3d 75 27 e3 3a 8b 34 82 3d
       0.1292672 0.0442839 0.0017330485 0.06357678
000200 55 67 45 3d 94 33 34 3d 5b d1 57 3d b5 d5 91 3d
       0.04819425 0.0439945 0.05268989 0.071208395
000210 08 80 96 3d 15 11 6c 3d a9 b9 cf bd 85 7a 58 bd
       0.07348639 0.05763348 -0.10142834 -0.05285122
000220 75 12 d5 bd 04 06 42 be 59 63 33 be 9b 4a 02 be
       -0.10403911 -0.18947607 -0.17518367 -0.12723772
000230 04 85 57 be 6a 3a 54 3c c8 bb bf 3d 18 29 02 3d
       -0.21046835 0.01295338 0.09361988 0.03177747
000240 c5 b5 0e bd 9b e9 f6 3c 26 71 48 be 24 22 71 be
       -0.034841318 0.030140689 -0.19574413 -0.2354818
000250 f4 65 a5 3d 96 6f a2 bc 86 de 6b 3d 29 89 2c 3d
       0.08076087 -0.019828599 0.05758526 0.042122994
000260 b1 57 67 3d 53 46 4b be 8c 17 1a be 3c bb 8d 3d
       0.056480113 -0.19851045 -0.15048045 0.06920478
000270 2d 66 30 be 2a e6 11 3d 28 40 ab 3d 30 a9 29 bd
       -0.17226477 0.035619892 0.08361846 -0.041421115
000280 c3 ab ae bd d6 02 1b be c1 e4 81 3c 9b b2 16 be
       -0.08528855 -0.151378 0.015856149 -0.1471657
000290 f0 d4 22 be 5b e7 c3 3c 12 4e ed bd 44 8a f4 bd
       -0.15901542 0.02391403 -0.11587156 -0.119404346
0002a0 06 e6 ba 3c 50 5a 3e be d2 85 c0 bd 6b a6 27 3d
       0.022814762 -0.18589139 -0.09400524 0.040930193
0002b0 68 65 e2 3c 6e 07 81 bd 41 72 9d 3c cb a7 b2 3d
       0.027636245 -0.06300245 0.01921952 0.0872341
0002c0 d2 52 70 be bb 75 12 3d 6d 1c a4 3c bf 02 bb 3d
       -0.23469093 0.035756808 0.020033086 0.09131383
0002d0 1b 73 d2 bd 35 cc 76 3d 89 d4 d6 3d ab 9e 8a 3d
       -0.10275861 0.06025334 0.104897566 0.06768545
0002e0 97 12 d9 bd 76 10 f2 bd ee 23 8b be b2 2c 34 bd
       -0.10599249 -0.11819546 -0.2717585 -0.043987937
0002f0 8f 94 d4 3d 4e f2 43 be 5f 2d 60 3d 40 ec 82 3d
       0.10379898 -0.191354 0.05473077 0.06392717
000300 bf 37 42 be d2 af d8 3c a1 41 c3 bd 77 79 0a be
       -0.18966578 0.026451025 -0.09534002 -0.13522898
000310 32 7b 28 be 30 33 1c 3d 1e 67 91 3d eb 72 8e 3d
       -0.16453245 0.038134754 0.07099746 0.069555126
000320 53 d8 a8 3c 59 16 78 3d d4 d7 14 be a1 f6 3c 3d
       0.020610964 0.060568187 -0.14535457 0.04613364
000330 7c 52 b9 3d 70 b6 97 bc 72 67 41 3d 4d 98 24 3d
       0.09048936 -0.01851961 0.047217794 0.040184308
000340 81 a7 40 be 92 7a 8a be ef 60 89 bb 44 9c f9 bb
       -0.18813898 -0.2704664 -0.0041924636 -0.0076175053
000350 4b 95 17 be 36 38 0a 3e 31 08 e7 3c d4 13 86 bd
       -0.14803044 0.13498005 0.028202148 -0.06546751
000360 40 90 e1 3c 89 39 af 3d 28 ab 08 be 24 98 c0 bd
       0.027534604 0.08555896 -0.13346541 -0.094040185
000370 f0 fd 19 bd dc 87 7f 3d b5 1a 9c 3d 68 20 06 bd
       -0.03759569 0.062385425 0.076222815 -0.03274575
000380 83 13 42 be cf b5 2d bd 43 08 4f 3d a8 3c 1c be
       -0.18952756 -0.042409714 0.05054499 -0.15257514
000390 0f 8a 00 3e e2 02 0d 3d 9e cd 46 be 36 39 48 3d
       0.12552665 0.034426577 -0.19414374 0.048882686
0003a0 c3 4d 28 be 0a 69 6c 3d c4 ad a4 be 10 16 d2 bc
       -0.16435914 0.05771736 -0.32163823 -0.025645286
0003b0 23 38 b7 3b 0e d6 a7 3d 49 4a ef bd 26 ec e6 bd
       0.005591409 0.081951246 -0.11684091 -0.112755105
0003c0 98 be 8a bd e4 ba ed bd b5 99 22 be 39 54 d3 3c
       -0.06774634 -0.11607912 -0.15878947 0.025796996
0003d0 1d 46 0c be 5e 98 d1 bd 95 5d 88 3d 06 fb 0c be
       -0.13698621 -0.1023414 0.06658474 -0.13767633
0003e0 db b2 35 bc 9d 77 4f be 18 b3 01 3d 1f 03 e3 bd
       -0.011090006 -0.20260473 0.031664938 -0.1108458
0003f0 e1 5d 76 bd cc 13 55 3d ec 30 5f 3d 6c 24 bf bd
       -0.060148124 0.052020833 0.054490015 -0.09333119

action_model._continuous_distribution.mu.bias f4 [2]
000000 41 f2 cb 3c 83 2c c9 3d
       0.02489579 0.09822943

action_model._discrete_distribution.branches.0.weight f4 [1, 128]
000000 9a 2b bd ba 1d c1 db 3b a7 44 ee ba 49 a3 16 bc
       -0.001443255 0.0067063705 -0.0018178419 -0.009194204
000010 46 26 96 ba 63 6b 17 bc 9d 52 8b bb 40 b9 d1 bb
       -0.0011455498 -0.009241912 -0.0042517916 -0.0064002573
000020 7d ea ea 3b dc c8 1c bc db 1c e5 ba fa 5d 07 3b
       0.0071690665 -0.009569373 -0.0017479913 0.002065538
000030 c4 7c 93 3b 0f bc 4c 3c 5b 63 73 bc ba 10 55 bb
       0.004500957 0.012496009 -0.014855231 -0.003251119
000040 5e dc a3 3b 9d d1 cc 3b 3c 39 11 bc bf 4a 27 bc
       0.005000635 0.006250574 -0.008863743 -0.010210692
000050 36 8f b6 ba 87 aa 0e 3c cb cc 87 3a a9 76 0a 3b
       -0.0013928178 0.008707649 0.0010360716 0.0021127856
000060 37 7b f9 bb a8 33 70 bc 12 42 0d bc 8f 66 97 bc
       -0.0076135653 -0.014660753 -0.008621709 -0.018481521
000070 e0 97 85 3c 90 96 7f bc 13 80 5b 3b fd e0 cc bb
       0.016307771 -0.015599862 0.0033493086 -0.0062524066
000080 77 0e 81 3b 48 50 6e bc df aa 81 3a a6 bc 14 bb
       0.003938492 -0.014545508 0.0009892842 -0.002269545
000090 12 45 19 3c 7f 47 eb bb 9d c7 18 bc cb 31 d9 bb
       0.009354847 -0.007180154 -0.009324935 -0.0066282502
0000a0 50 db 85 3b 2a 77 50 bb 07 96 6b bb 03 9c ec 3b
       0.004084982 -0.0031809309 -0.0035947578 0.0072207465
0000b0 4a b8 ef 3b 8f 66 a7 3c 2f 63 2f 3c 73 5b 31 bb
       0.00731567 0.020434646 0.0107048 -0.0027062565
0000c0 27 5a 23 3c 0e bd 37 3c dd d0 ba bb d3 d8 81 bb
       0.009970224 0.011214508 -0.005701168 -0.003962615
0000d0 8a f9 fa bb d5 2a 88 bb b1 0e 1e 3c 98 e0 a6 3b
       -0.007659142 -0.0041554966 0.009647057 0.0050926916
0000e0 f0 f8 f7 bb e6 13 23 3a c7 94 91 3b 67 e2 5f bc
       -0.0075675175 0.00062209216 0.0044427845 -0.013664818
0000f0 f4 7b 44 bb 52 07 77 3c d3 90 bc 3a 5f 57 cf bb
       -0.0029981108 0.015077429 0.0014386423 -0.006327554
000100 bf db 2e bb 5d b3 a9 3b 73 11 aa ba 1f 6e 87 3c
       -0.0026681272 0.0051788525 -0.0012975171 0.016532002
000110 37 81 76 3b 31 fa 2d bc ff 2c 53 b9 98 82 59 bc
       0.003761364 -0.010618732 -0.0002013929 -0.013275765
000120 5f 82 b3 bb db 8c 9b 3a a7 b2 07 bc 1d 0d 6c bc
       -0.005478188 0.001186754 -0.00828234 -0.014407423
000130 5d 90 66 3a 5f fd 37 3b f7 0e 82 bb b7 85 91 bb
       0.00087953155 0.0028074605 -0.003969069 -0.004440989
000140 7b 5b 5e bc 41 cb 14 3c 28 92 c7 bb 6a a6 a7 bb
       -0.013571615 0.009081663 -0.006090421 -0.0051162736
000150 bb f7 e6 bb 5f af 7e b9 da fe 0b bc 36 cf 22 bc
       -0.0070485747 -0.00024288658 -0.008544648 -0.009937098
000160 6f ac 18 bc 2b 56 6a bb 72 d9 a9 bb 59 08 c0 3a
       -0.009318455 -0.0035756927 -0.005183392 0.0014650925
000170 8f b7 b2 bb c9 85 c6 3b 2e 7b 2a bc 90 02 f0 bb
       -0.005454011 0.006058429 -0.010405345 -0.007324524
000180 e3 d8 cd bb af 87 36 bc d8 6f 0c 3c 25 89 52 bc
       -0.0062819584 -0.011140748 0.0085715875 -0.012850081
000190 03 35 32 3b 74 42 93 bc 07 28 3c 3c bc 13 1e 3c
       0.0027192242 -0.017976023 0.011484153 0.00964826
0001a0 8f 69 38 bb 02 04 28 bb 06 bf 13 3c 26 99 86 3b
       -0.002813909 -0.0025637154 0.0090177115 0.004107612
0001b0 af 3b 09 3c 73 34 81 bb 2b eb ce ba 4d d1 db 39
       0.008376046 -0.00394302 -0.0015786638 0.00041926876
0001c0 b9 68 b7 ba 4f 6a fc bb 29 5b 06 bc dd f0 ab bc
       -0.0013993002 -0.0077031027 -0.008200445 -0.020988876
0001d0 ac 08 06 3c cb 9e 2d 3c a2 5a 45 bb ec a6 aa 3c
       0.0081807785 0.010596941 -0.0030113836 0.020831548
0001e0 d1 ed 40 bc fc e3 3b 3b bd dd 28 3c 9f d5 28 bc
       -0.01177545 0.0028669825 0.010306773 -0.0103048375
0001f0 ed bc 68 bc 5d 0b 00 bc 9b ab 39 3c e0 c2 8a bb
       -0.0142052 -0.007815209 0.011332418 -0.0042346567
