Assets/oon/s_finished1.onnx (onnx, 146879 bytes, 8 tensors)

network_body._body_endoder.seq_layers.0.weight f4 [128, 138]
0.11280476 -0.058373295 0.010792198 -0.013022584 -0.016297596 0.027845925 -0.16800365 0.037596937
0.14923365 -0.1948048 0.123929136 0.048766285 -0.044723388 -0.08601628 -0.11727984 0.028804237
0.16715549 0.042872887 -0.04158426 0.10000338 0.100927904 0.108031124 0.0018715038 0.05947922
0.10968667 0.10258685 0.018247524 -0.022391794 -0.09709784 -0.028566977 0.06316075 -0.0785946
-0.1063916 0.14133279 0.05312282 -0.058953326 -0.32908425 0.08293812 0.008657784 0.04500572
0.026934508 -0.018373959 0.15695147 0.052621372 0.07594929 0.10043249 -0.0540215 -0.019326814
-0.07140717 -0.025341636 0.120954275 0.15746492 0.03548025 0.05608725 0.2231586 0.090396345
0.024399478 -0.08385415 -0.05932875 0.0060167657 -0.03819292 0.106541045 0.1185601 -0.04580324
-0.09920858 -0.26279035 0.06319601 -0.029943543 0.09890343 0.05947557 -0.060966164 -0.17054287
0.08482128 0.045602124 0.03838764 -0.20222907 0.0028784205 -0.00849259 0.013314895 -0.13561676
0.103369385 -0.060878254 -0.0026966392 0.038930114 0.028900413 0.08184946 0.075258404 0.11439891
-0.004252616 0.096549004 0.033681817 0.06456081 0.019267378 -0.0063508246 0.08952044 0.022498723
-0.03270897 0.12378261 0.023152327 -0.05595145 0.010885465 0.09921756 -0.08303419 0.17486493
-0.13029024 -0.02421325 0.0071843253 0.08178101 0.027953103 -0.015535274 -0.047680438 -0.0793867
0.06753159 -0.17358963 0.0528931 -0.026185464 -0.044160366 0.011318724 0.018949855 -0.15027592
0.012334114 -0.081074536 0.20127979 0.042876128 0.06289183 0.14031449 -0.010597013 0.1277786
0.6697473 0.0071633407 -0.09472629 0.11646607 0.09569431 -0.12322137 0.21317446 -0.1386876
-0.034708537 0.13439907 0.020204574 0.0020413508 -0.075990915 -0.008664714 -0.056960743 -0.19449145
0.00012367098 0.025434699 0.0077661546 0.0820053 -0.2029935 -0.04654618 0.060428582 -0.11764321
-0.024707297 -0.030892914 -0.2120198 -0.1502049 -0.024663994 -0.15455881 0.032575294 -0.07778229
-0.03023974 -0.12341796 0.043527175 -0.13878308 -0.21658538 -0.2342403 -0.13141586 -0.05497953
0.0005265163 -0.09894736 -0.012625513 0.029271817 -0.11648143 -0.10816601 -0.071750976 -0.14409158
0.059083123 -0.060527496 -0.039192673 -0.080590524 -0.11426179 -0.07655855 -0.035581835 0.0028425276
-0.16637294 0.08646283 -0.1753204 -0.0494354 -0.014628945 -0.034449708 0.08786241 -0.17277111
-0.095705666 0.016090307 -0.011920627 -0.2509606 -0.15597118 -0.1999965 -0.14501956 -0.19686201
-0.09966896 -0.14122796 -0.24095547 -0.0005949821 0.09994207 -0.01968183 -0.1687704 -0.12715594
-0.065669194 -0.046214756 0.02466955 -0.009811655 -0.20234002 -0.07979883 0.044887602 -0.2008726
-0.1288768 0.036531355 -0.044628594 0.0002633142 0.0108435275 -0.14397077 -0.00464295 -0.11798964
-0.13279407 0.07534922 -0.038720317 -0.049086086 0.08349979 -0.1994106 -0.07423595 0.10408885
-0.113549866 0.13556904 -0.13163917 -0.24428688 -0.07729915 -0.020502623 -0.24902335 -0.05110111
-0.17756318 -0.18661499 -0.14191234 -0.0874017 -0.18161185 -0.08508437 -0.10067165 -0.07325826
-0.01623146 0.13288537 -0.08005057 -0.006130239 -0.24837902 0.03253186 -0.05468024 -0.039626602
00000000: 2f06 e73d d618 6fbd c2d1 303c ad5c 55bc
00000010: 8982 85bc 231d e43c 2609 2cbe 3fff 193d
00000020: b5d0 183e e97a 47be 8fce fd3d 28bf 473d
00000030: df2f 37bd 4e29 b0bd 6a30 f0bd ddf6 eb3c
00000040: cf2a 2b3e 7b9b 2f3d 4254 2abd 92ce cc3d
00000050: 4ab3 ce3d 6c3f dd3d 3f4d f53a 7ca0 733d
00000060: 68a3 e03d 0e19 d23d d57b 953c ff6e b7bc
00000070: 3bdb c6bd 4b05 eabc 6c5a 813d 35f6 a0bd
00000080: d7e3 d9bd 8bb9 103e 5097 593d 0b79 71bd
00000090: bb7d a8be 76db a93d 61d9 0d3c eb57 383d
000000a0: c2a5 dc3c fc84 96bc e3b7 203e 8289 573d
000000b0: 4d8b 9b3d 8daf cd3d a645 5dbd 4453 9ebc
000000c0: ec3d 92bd 4399 cfbc e0b6 f73d 7c3e 213e
000000d0: bd53 113d bfbb 653d b083 643e b821 b93d
000000e0: 6ae1 c73c b9bb abbd b402 73bd 4a28 c53b
000000f0: 2e70 1cbd 3132 da3d a3cf f23d 2e9c 3bbd
00000100: de2d cbbd 758c 86be e96c 813d 294c f5bc
00000110: e28d ca3d a89c 733d a8b7 79bd caa2 2ebe
00000120: c7b6 ad3d 4bc9 3a3d 5c3c 1d3d 2315 4fbe
00000130: e2a3 3c3b 8124 0bbc b826 5a3c 1fdf 0abe
00000140: 54b3 d33d 7a5b 79bd 19ba 30bb 2f75 1f3d
00000150: 8fc0 ec3c b1a0 a73d 1421 9a3d fa49 ea3d
00000160: 8759 8bbb 7cbb c53d f2f5 093d 7538 843d
00000170: 9fd6 9d3c 941a d0bb 7e56 b73d 3e4f b83c
00000180: d7f9 05bd bd81 fd3d f3a9 bd3c 592d 65bd
00000190: f358 323c 9332 cb3d d40d aabd cb0f 333e
000001a0: ce6a 05be de5a c6bc 7d6a eb3b cd7c a73d
000001b0: e8fd e43c a987 7ebc 904c 43bd 7f95 a2bd
000001c0: 014e 8a3d 7bc1 31be 6fa6 583d e682 d6bc
000001d0: 80e1 34bd 2b72 393c ba3c 9b3c eee1 19be
000001e0: 0615 4a3c 680a a6bd 4a1c 4e3e e19e 2f3d
000001f0: 6fcd 803d 9aae 0f3e 189f 2dbc 65d8 023e
00000200: 8f74 2b3f 75ba ea3b dbff c1bd c385 ee3d
00000210: 61fb c33d 7c5b fcbd 684a 5a3e 1f04 0ebe
00000220: 8a2a 0ebd e99f 093e 1084 a53c 2fc8 053b
00000230: 20a1 9bbd 72f6 0dbc ab4f 69bd c428 47be
00000240: adad 0139 6e5c d03c 3a7b fe3b 65f2 a73d
00000250: 87dd 4fbe 35a7 3ebd f683 773d ecee f0bd
00000260: f566 cabc 2313 fdbc b81b 59be 50cf 19be
00000270: 250c cabc aa44 1ebe ac6d 053d 524c 9fbd
00000280: 55b9 f7bc 8ec2 fcbd 8d49 323d 271d 0ebe
00000290: 8fc8 5dbe b0dc 6fbe e191 06be 3732 61bd
000002a0: e905 0a3a eaa4 cabd 3ddb 4ebc 73cb ef3c
000002b0: d18d eebd 2486 ddbd 2df2 92bd be8c 13be
000002c0: 2501 723d aeeb 77bd 7f88 20bd a50c a5bd
000002d0: 1602 eabd bbca 9cbd 42be 11bd b349 3a3b
000002e0: ab5d 2abe 6d13 b13d 3187 33be c67c 4abd
000002f0: 3eae 6fbc 231b 0dbd 35f1 b33d e9ea 30be
00000300: 5501 c4bd d2cf 833c bc4e 43bc e87d 80be
00000310: e9b6 1fbe e2cb 4cbe 0280 14be 3296 49be
00000320: 3d1f ccbd 109e 10be 08bd 76be 93f8 1bba
00000330: 6eae cc3d ca3b a1bc 26d2 2cbe 2b35 02be
00000340: 927d 86bd af4b 3dbd cc17 ca3c 10c1 20bc
00000350: 3932 4fbe 926d a3bd 10dc 373d 8cb1 4dbe
00000360: 48f8 03be e7a1 153d 79cc 36bd 6f0d 8a39
00000370: 0da9 313c 136d 13be e323 98bb 8da4 f1bd
00000380: 2bfb 07be b150 9a3d 3299 1ebd 7e0e 49bd
00000390: f001 ab3d 4b32 4cbe 0509 98bd 892c d53d
000003a0: d58c e8bd 9cd2 0a3e 6bcc 06be 5726 7abe
000003b0: 044f 9ebd 1ef5 a7bc faff 7ebe 664f 51bd
000003c0: 1fd3 35be 0018 3fbe 7851 11be aaff b2bd
000003d0: 75f8 39be b740 aebd f02c cebd 6d08 96bd
000003e0: d7f7 84bc 1a13 083e 8ef1 a3bd 2ce0 c8bb
000003f0: 1257 7ebe 2140 053d 63f8 5fbd 814f 22bd

network_body._body_endoder.seq_layers.0.bias f4 [128]
0.048539672 -0.054309316 0.043726675 0.0812554 0.07259163 -0.012992891 0.09585386 0.10101507
-0.011064513 0.07290663 -0.04964396 0.059881564 0.056545015 -0.038151946 -0.17547505 -0.06403441
-0.022329941 0.034280702 0.040233 -0.026912471 0.023733655 0.012971416 0.027772281 0.044086903
0.056372873 0.08174092 0.0076772277 0.010327969 0.06270809 0.117920205 0.07907634 0.077455364
-0.027521841 0.03677043 0.08151303 0.07689096 0.0825868 -0.0027227502 0.02739329 0.032515764
0.025573812 0.114015564 -0.06372328 -0.04186849 -0.034268204 0.004006408 0.07785304 -0.06557178
0.0011494991 -0.021440351 -0.030320967 0.020123195 -0.081244394 -0.08174652 -0.041407246 0.08102106
0.026007218 0.06338922 -0.006947454 0.008023967 -0.061577305 0.053690396 0.09026947 0.003117657
0.0693456 -0.057776894 0.008736732 0.038127437 0.023184856 0.035399873 -0.08205267 0.045108955
0.04078005 -0.07006215 0.053998873 0.08077013 0.07565148 0.0219972 0.095399715 0.109753154
-0.15477079 0.040940855 -0.021032367 -0.05849685 -0.044763327 0.09848547 -0.06397002 -0.017397264
-0.016788887 0.04712003 0.06421496 -0.0182981 0.049492758 0.058136836 0.09468113 0.031039659
0.03628478 0.010242643 -0.12009429 -0.07890348 0.059277795 0.106295824 -0.016602797 0.05907952
-0.04096161 -0.033800848 -0.0073381905 0.038389783 0.03576594 0.053324506 -0.038359184 -0.036433384
-0.013526704 -0.08602753 -0.070859544 -0.028232513 0.0030166071 0.06729592 0.03861603 0.0503477
-0.030201327 -0.07763606 -0.041357514 0.029294427 0.0074637607 -0.007831351 0.03595466 0.045713834
00000000: 89d1 463d 7273 5ebd be1a 333d 3b69 a63d
00000010: ecaa 943d 22e0 54bc 074f c43d fde0 ce3d
00000020: ee47 35bc 1250 953d 7757 4bbd 5f46 753d
00000030: bf9b 673d 3745 1cbd bbaf 33be 7924 83bd
00000040: 48ed b6bc ec69 0c3d 5ccb 243d 8b77 dcbc
00000050: 156d c23c 1086 543c b282 e33c 7894 343d
00000060: 3ee7 663d c967 a73d 4191 fb3b a436 293c
00000070: 196d 803d 2680 f13d c7f2 a13d eba0 9e3d
00000080: 7c75 e1bc 979c 163d 4ef0 a63d 0279 9d3d
00000090: 4523 a93d 2b70 32bb e567 e03c 402f 053d
000000a0: 2c80 d13c fe80 e93d 5a81 82bd 4b7e 2bbd
000000b0: d15c 0cbd 3048 833b 6a71 9f3d 7f4a 86bd
000000c0: caaa 963a ada3 afbc ad63 f8bc 66d9 a43c
000000d0: 7663 a6bd b86a a7bd a59a 29bd 5fee a53d
000000e0: 170d d53c 35d2 813d 78a7 e3bb f576 033c
000000f0: 7c38 7cbd 76ea 5b3d 33df b83d 9b51 4c3b
00000100: 1105 8e3d 77a7 6cbd 8324 0f3c 842b 1c3d
00000110: 2bee bd3c 75ff 103d 3b0b a8bd 2bc4 383d
00000120: fb08 273d bf7c 8fbd ec2d 5d3d cf6a a53d
00000130: 2aef 9a3d 7933 b43c ed60 c33d 43c6 e03d
00000140: 3c7c 1ebe 99b1 273d 124c acbc 659a 6fbd
00000150: c059 37bd c0b2 c93d b702 83bd b584 8ebc
00000160: d988 89bc ef00 413d 2283 833d e6e5 95bc
00000170: ebb8 4a3d e420 6e3d 2ee8 c13d e246 fe3c
00000180: 599f 143d c2d0 273c fff3 f5bd 2698 a1bd
00000190: 46cd 723d a0b1 d93d 9702 88bc 5efd 713d
000001a0: 5cc7 27bd c272 0abd 3475 f0bb 9b3e 1d3d
000001b0: 4e7f 123d cc6a 5a3d 851e 1dbd 2c3b 15bd
000001c0: 1c9f 5dbc 342f b0bd cf1e 91bd df47 e7bc
000001d0: 45b2 453b 71d2 893d d82b 1e3d 6439 4e3d
000001e0: c668 f7bc a8ff 9ebd 7f66 29bd defa ef3c
000001f0: 9092 f43b 114f 00bc 3245 133d 6e3e 3b3d

network_body._body_endoder.seq_layers.2.weight f4 [128, 128]
-0.15407108 0.013490367 -0.11094382 0.05953814 -0.1216754 0.00093508576 0.0837918 0.09262513
-0.105192594 -0.09816948 -0.14142728 0.003307151 0.15314741 -0.067625426 -0.13015679 -0.0707856
-0.19065346 -0.032906655 0.020462736 -0.02364746 -0.05560871 -0.11260342 0.013757578 -0.035244007
-0.080868155 0.034617286 0.0006252766 0.09369207 0.08041815 -0.08433198 -0.11612191 0.20259598
0.0270768 0.06743075 0.045397084 0.059194885 0.022344492 0.053646073 -0.10470948 0.23104669
0.13224845 -0.0072776848 0.11080945 0.020615887 -0.033149734 -0.0934642 -0.076492496 -0.065105334
0.019681005 -0.046754967 0.11887245 -0.028926142 0.018452207 -0.14019364 0.08082546 0.1889908
-0.05450054 -0.008477822 -0.037134502 -0.08422439 0.113491714 -0.017458795 -0.071086906 -0.10492156
-0.030079624 0.015743058 0.05982249 -0.1259072 -0.06630633 -0.014526665 -0.07639297 0.12108625
0.051888313 -0.06891761 0.057493646 -0.113639705 -0.032041445 -0.022263888 0.03534636 0.16793355
-0.04428797 -0.098308116 0.14100404 -0.041109633 0.17222688 -0.030442761 -0.034883507 0.112166904
0.055268463 0.026862161 0.051854815 -0.08799676 -0.004113339 0.0011746051 -0.08443288 0.049467307
0.041765604 -0.18844257 -0.07351285 0.09947139 0.07466844 0.054973044 0.006238004 -0.061017796
0.083080634 0.030187914 0.02906431 -0.08637569 0.011810973 0.028074702 -0.01846436 -0.12798238
-0.07736224 -0.050140396 -0.19830021 -0.025695015 0.06663768 -0.0385985 -0.11800923 -0.13713606
-0.049080614 0.047866587 -0.27185604 0.029229207 -0.1266281 0.029631462 0.09330353 -0.058972184
-0.08945696 -0.17768848 -0.16336519 0.040717315 -0.09982379 -0.0024764135 0.041012693 -0.08596106
-0.048185393 0.070347875 -0.08575963 -0.16565554 0.06579517 0.004505279 0.03755297 -0.004642375
0.12891963 -0.06516784 -0.006010837 0.046961296 -0.052381627 0.085816726 0.012890588 0.008731657
-0.0066616195 -0.046433937 0.14614096 0.10157203 0.07086915 -0.02246355 -0.07057312 -0.19114918
0.005686521 -0.08269686 0.06783879 0.079584695 0.10704537 -0.071649164 0.008223031 0.0093302475
-0.01326648 -0.1159561 -0.09472602 -0.008761101 0.28704846 0.12812911 -0.018268209 -0.15328409
-0.06401632 0.06864083 0.124576345 0.019082444 -0.14108936 -0.12939228 -0.03538075 -0.12303538
0.18059018 0.038763423 -0.055167798 0.035815295 -0.14009859 -0.008921913 0.12707339 -0.023133384
-0.019917209 -0.071028866 -0.0071114446 -0.08904137 0.018399896 0.0900037 0.06906993 -0.12164445
0.0890542 0.07697797 -0.036931455 -0.050276432 0.06826751 0.14654659 -0.09205894 -0.00025824172
0.019114025 0.040967852 -0.05567943 -0.065179385 -0.11262231 0.2175688 -0.079947494 -0.05771782
-0.1023719 0.071365036 0.15885992 0.0048917555 0.04000025 -0.02636669 0.107076295 0.030502385
0.05958793 -0.043778922 -0.18300222 -0.049827 0.0667789 -0.033825204 -0.105638444 0.08726917
0.06781118 0.019268585 -0.006058948 -0.015805706 0.09067829 -0.034093358 0.014581275 0.0010384404
-0.097369656 0.085644804 -0.04124062 -0.05619453 0.083028875 0.020182263 -0.06303023 0.03562408
0.14828505 -0.25209737 -0.05383743 -0.036793247 0.09385763 0.046774957 0.066780575 0.08415225
00000000: cfc4 1dbe b306 5d3c 8336 e3bd 44de 733d
00000010: f430 f9bd 8b20 753a 099b ab3d 3fb2 bd3d
00000020: 376f d7bd 150d c9bd 50d2 10be c9bc 583b
00000030: add2 1c3e 337f 8abd d247 05be 0af8 90bd
00000040: a93a 43be 21c9 06bd 78a1 a73c 51b8 c1bc
00000050: f5c5 63bd 9f9c e6bd 7767 613c 055c 10bd
00000060: 349e a5bd dbca 0d3d 9ae9 233a a1e1 bf3d
00000070: 45b2 a43d 3fb6 acbd 53d1 edbd 5275 4f3e
00000080: 2ad0 dd3c 2219 8a3d 4bf2 393d 5676 723d
00000090: cc0b b73c fcbb 5b3d ed71 d6bd 8197 6c3e
000000a0: 236c 073e a579 eebb 11f0 e23d a6e2 a83c
000000b0: 04c8 07bd 296a bfbd 19a8 9cbd f255 85bd
000000c0: 0f3a a13c 2382 3fbd 6673 f33d 84f6 ecbc
000000d0: 1529 973c ec8e 0fbe d287 a53d ce86 413e
000000e0: f53b 5fbd 90e6 0abc 591a 18bd d67d acbd
000000f0: 586e e83d bf05 8fbc 0396 91bd 1de1 d6bd
00000100: 8b69 f6bc 96f7 803c 6d08 753d d1ed 00be
00000110: 9dcb 87bd 4001 6ebc eb73 9cbd 11fc f73d
00000120: d788 543d ad24 8dbd 757e 6b3d efbb e8bd
00000130: e43d 03bd c262 b6bc 58c7 103d c6f6 2b3e
00000140: 4d67 35bd c455 c9bd 5d63 103e 9362 28bd
00000150: 3e5c 303e 1963 f9bc 02e2 0ebd c3b7 e53d
00000160: 2f61 623d 090e dc3c b765 543d a537 b4bd
00000170: 30c9 86bb 35f5 993a 25eb acbd 3b9e 4a3d
00000180: 6912 2b3d 17f7 40be e88d 96bd a8b7 cb3d
00000190: c4eb 983d 6a2b 613d 2c68 cc3b cced 79bd
000001a0: 2e26 aa3d a54c f73c 4718 ee3c bde5 b0bd
000001b0: d082 413c ebfc e53c 9242 97bc d00d 03be
000001c0: 1870 9ebd 0460 4dbd 360f 4bbe 5a7e d2bc
000001d0: 5679 883d 7619 1ebd d3ae f1bd 656d 0cbe
000001e0: c108 49bd c10f 443d b730 8bbe 1772 ef3c
000001f0: ccaa 01be aebd f23c ec15 bf3d d18c 71bd
00000200: 3635 b7bd f8f3 35be 3449 27be 33c7 263d
00000210: 6a70 ccbd 534b 22bb edfc 273d 5a0c b0bd
00000220: 0c5e 45bd 8c12 903d bfa2 afbd 9ba1 29be
00000230: 9ebf 863d 05a1 933b 25d1 193d 101f 98bb
00000240: 8203 043e b776 85bd 8ef6 c4bb 7d5a 403d
00000250: 1e8e 56bd aec0 af3d 0b33 533c 390f 0f3c
00000260: b749 dabb 8331 3ebd faa5 153e ff04 d03d
00000270: d823 913d 7b05 b8bc a488 90bd 9cbc 43be
00000280: ff55 ba3b f95c a9bd 10ef 8a3d 4dfd a23d
00000290: 9a3a db3d ccbc 92bd e4b9 063c e5dd 183c
000002a0: a65b 59bc 647a edbd b7ff c1bd b98a 0fbc
000002b0: 04f8 923e 4734 033e 36a7 95bc 81f6 1cbe
000002c0: fd1a 83bd 9093 8c3d e221 ff3d c952 9c3c
000002d0: bb79 10be 697f 04be 68eb 10bd f9f9 fbbd
000002e0: a2ec 383e 65c6 1e3d a1f7 61bd 0fb3 123d
000002f0: 0176 0fbe 372d 12bc 871f 023e 3982 bdbc
00000300: 6a29 a3bc 9577 91bd 1f07 e9bb 525b b6bd
00000310: 61bb 963c dc53 b83d 8974 8d3d ba20 f9bd
00000320: 0c62 b63d a0a6 9d3d 7045 17bd a9ee 4dbd
00000330: d6cf 8b3d 4f10 163e 6689 bcbd 9e64 87b9
00000340: 0495 9c3c e8cd 273d 1d10 64bd c57c 85bd
00000350: 87a6 e6bd 5bca 5e3e 83bb a3bd 8569 6cbd
00000360: 5ca8 d1bd d527 923d 2dac 223e 054b a03b
00000370: 4dd7 233d f5fe d7bc d14a db3d 23e0 f93c
00000380: 7912 743d 8751 33bd ef64 3bbe 6517 4cbd
00000390: 60c3 883d 4c8c 0abd f858 d8bd 2eba b23d
000003a0: 97e0 8a3d 27d9 9d3c 248a c6bb f87a 81bc
000003b0: 8ab5 b93d 7aa5 0bbd 4de6 6e3c 471c 883a
000003c0: be69 c7bd 8b66 af3d edeb 28bd 3c2c 66bd
000003d0: 0b0b aa3d 4655 a53c fe15 81bd 8eea 113d
000003e0: 09d8 173e e812 81be a384 5cbd 84b4 16bd
000003f0: 6e38 c03d 1997 3f3d 41c4 883d 0458 ac3d

network_body._body_endoder.seq_layers.2.bias f4 [128]
0.06930621 0.03256953 0.05715491 0.07085719 0.07999649 0.07096405 -0.07930946 -0.053044006
-0.081261195 -0.076086715 -0.072772466 -0.068021275 -0.0002903532 0.033031356 0.07330467 0.043137144
-0.021907724 0.018701153 -0.020184474 -0.0599649 0.06944276 -0.020317888 0.08411569 0.064457744
0.069388814 -0.06352593 -0.05448648 0.1098683 -0.07078413 0.057723876 0.07026758 0.005719642
-0.022442937 -0.050626133 0.013929846 -0.062382247 -0.048301358 0.06332139 -0.07928781 -0.08417454
0.031787824 -0.07472538 -0.057160653 0.06120626 0.04534254 -0.06641635 0.0699653 0.094332054
-0.057626095 0.04934864 0.084777355 0.1015687 -0.049458556 0.05446637 0.08837687 0.024429793
-0.061347723 -0.087107696 -0.060086083 -0.010078824 0.08792254 -0.037711397 0.06935305 0.08048658
-0.059477672 0.052090935 -0.081582054 -0.05055594 -0.08502936 0.06826167 0.05184246 0.07914563
0.03186987 0.06552173 -0.058153737 0.066231206 0.08574106 -0.02220022 0.0076818946 0.06456286
-0.031505883 -0.056287155 0.009888262 0.021296935 -0.0703067 0.08012779 0.054607127 -0.0333161
0.03832206 0.08681921 -0.07599488 -0.06872008 0.026202912 0.07571025 0.07085288 0.01505203
-0.08518239 -0.063233994 0.073099904 -0.10159889 0.08131097 0.062890604 -0.09324012 0.07315659
-0.058955476 0.072114095 -0.048363823 0.007265493 0.019813143 0.073028296 -0.049090195 -0.05614459
-0.07253224 -0.0033317888 -0.052716974 0.03121782 -0.06982162 -0.033631485 0.07622168 -0.06406764
0.06080135 -0.070080996 0.037924003 -0.032480255 0.018211858 0.0556108 0.077846795 -0.06616043
00000000: 6af0 8d3d a167 053d 441b 6a3d 931d 913d
00000010: 33d5 a33d 9a55 913d 006d a2bd ac44 59bd
00000020: 456c a6bd 5ad3 9bbd bb09 95bd bd4e 8bbd
00000030: 8c3a 98b9 e34b 073d c220 963d 93b0 303d
00000040: d477 b3bc 2933 993c e959 a5bc c19d 75bd
00000050: 0138 8e3d b371 a6bc d944 ac3d 6c02 843d
00000060: b91b 8e3d e219 82bd 372d 5fbd a202 e13d
00000070: 45f7 90bd df6f 6c3d 73e8 8f3d d66b bb3b
00000080: 40da b7bc 595d 4fbd 023a 643c 8784 7fbd
00000090: a5d7 45bd a5ae 813d a661 a2bd b463 acbd
000000a0: f333 023d 9f09 99bd 4a21 6abd 6ab3 7a3d
000000b0: 19b9 393d 4c05 88bd f849 8f3d 2a31 c13d
000000c0: 5709 6cbd cd21 4a3d c09f ad3d 4003 d03d
000000d0: 0e95 4abd 2118 5f3d effe b43d fd20 c83c
000000e0: c047 7bbd 8565 b2bd d31c 76bd a721 25bc
000000f0: bc10 b43d 4477 1abd f908 8e3d 26d6 a43d
00000100: dc9e 73bd 4e5d 553d 7e14 a7bd bf13 4fbd
00000110: e023 aebd c6cc 8b3d c258 543d 1b17 a23d
00000120: fb89 023d 4230 863d 9d32 6ebd 3aa4 873d
00000130: 0299 af3d 3cdd b5bc 67b8 fb3b 8839 843d
00000140: 500c 01bd 5c8d 66bd 6002 223c e976 ae3c
00000150: f6fc 8fbd 0a1a a43d b9ab 5f3d 7676 08bd
00000160: 98f7 1c3d 45ce b13d 34a3 9bbd 1dbd 8cbd
00000170: 7da7 d63c fa0d 9b3d 511b 913d ca9c 763c
00000180: 1b74 aebd d380 81bd 67b5 953d 1413 d0bd
00000190: 5e86 a63d cacc 803d adf4 bebd 1fd3 953d
000001a0: 4c7b 71bd 8eb0 933d 2519 46bd 5f13 ee3b
000001b0: 2c4f a23c dc8f 953d cd12 49bd dff7 65bd
000001c0: c88b 94bd 245a 5abb c1ed 57bd 83bc ff3c
000001d0: a3fe 8ebd 2bc1 09bd 1d1a 9c3d e535 83bd
000001e0: d60a 793d a086 8fbd 3356 1b3d 040a 05bd
000001f0: 0931 953c 26c8 633d 246e 9f3d 1f7f 87bd

action_model._continuous_distribution.log_sigma f4 [1, 2]
0.96320796 0.90966153
00000000: cc94 763f 94df 683f

action_model._continuous_distribution.mu.weight f4 [2, 128]
-0.01739391 0.025167596 0.0069181 0.01775593 0.033920888 -0.0024928565 0.00038247107 0.032314524
-0.0025909678 -0.004412247 0.02586835 -0.010724085 -0.13212182 0.012958437 0.023628803 -0.014031618
-0.065944724 -0.07415891 -0.06074939 0.03878403 0.044202898 0.1050973 -0.035377666 0.020709971
0.05470673 -0.03274004 0.02873878 -0.00020098638 0.01699305 0.018174257 0.021235459 0.06874951
0.054094102 -0.043588907 0.10747986 -0.004810716 0.08152321 -0.10407304 0.021182653 0.017309384
0.00087243837 -0.026830949 -0.05639385 -0.006631714 0.1085976 -0.042156205 -0.0035853668 -0.014935311
0.028321782 -0.019369684 0.09386473 0.012180832 0.09188173 0.022860698 0.061408542 -0.07441338
0.02830843 -0.0007009372 0.011305472 0.081310295 -0.0037333816 -0.096579865 0.0009734238 -0.03494112
0.008334447 0.06636978 0.027854977 0.06315307 0.020345759 0.0079962015 0.016838472 -0.0035735937
-0.012699292 -0.014548921 -0.04753892 -0.010897341 0.01369974 -0.04461145 -0.028582862 0.0007393255
0.08640063 0.037302185 -0.072348356 0.0644586 0.04627892 0.10467769 -0.020667538 -0.06263487
0.004509217 -0.01714254 -0.011576676 0.050803345 -0.1029959 0.018639844 -9.732942e-05 -0.14348744
-0.018708557 0.031495713 0.01042696 -0.017258761 -0.10816373 0.0026265613 0.003934071 -0.033509314
-0.05489099 -0.01001178 0.019549008 0.08917903 0.0051918165 0.02844505 -0.055368956 -0.09129136
0.017354459 -0.123952456 -0.022455428 0.0030425696 0.03409794 0.056938097 0.007753605 0.0282235
0.13678846 0.04784889 -0.14249787 -0.05808175 0.12686871 0.04958942 -0.00018978704 0.016519526
0.026640136 0.038612295 0.053256862 0.071473934 0.07016493 0.053266037 -0.061115567 -0.038220517
-0.08195436 -0.15211391 -0.15037318 -0.09211657 -0.19545077 0.018740412 0.08566953 0.023305899
-0.022165917 0.030039687 -0.15300812 -0.19325387 0.07505102 -0.020272978 0.05477153 0.042068698
0.048025135 -0.1406075 -0.12628767 0.03843987 -0.13325776 0.03036542 0.08336735 -0.03122438
-0.07503704 -0.12030984 0.009744636 -0.11064253 -0.11347358 0.013320073 -0.081802726 -0.07682482
0.02199661 -0.12520517 -0.07864727 0.0400488 0.012425688 -0.04236232 0.018181583 0.081172906
-0.1763868 0.03367193 0.0134999715 0.06883498 -0.0619391 0.056726154 0.09389277 0.061196852
-0.077304564 -0.0800928 -0.21477169 -0.03060772 0.100110255 -0.16546507 0.05163488 0.055000704
-0.15781516 0.02992124 -0.07546702 -0.092827894 -0.12607467 0.04096431 0.044945057 0.06514929
0.022870777 0.05608788 -0.10461591 0.04371118 0.08545769 -0.0030605143 0.027777987 0.040309902
-0.16223839 -0.21243025 -0.0063481554 -0.013915854 -0.12802224 0.109860025 0.035489377 -0.04884507
0.024499282 0.08138087 -0.095110744 -0.070012316 -0.02630712 0.055580378 0.07379291 -0.030852972
-0.14681615 -0.023611637 0.0549546 -0.103309445 0.10545306 0.039070915 -0.15536636 0.04368916
-0.12302758 0.043841388 -0.254291 -0.026189378 0.009492974 0.07840217 -0.098979615 -0.091035284
-0.053296626 -0.097827435 -0.12479613 0.021710686 -0.11383589 -0.07417851 0.05994572 -0.11236517
-0.015629323 -0.14019443 0.032417193 -0.07524377 -0.05288754 0.040697508 0.05083371 -0.0541487
00000000: ac7d 8ebc 462c ce3c 3bb1 e23b e274 913c
00000010: a1f0 0a3d 315f 23bb 6686 c839 3c5c 043d
00000020: 3acd 29bb 9c94 90bb dde9 d33c 13b4 2fbc
00000030: f14a 07be a04f 543c 3191 c13c dfe4 65bc
00000040: 070e 87bd a0e0 97bd 5ad4 78bd 01dc 1e3d
00000050: 190e 353d 413d d73d 2ce8 10bd f5a7 a93c
00000060: 2a14 603d 6c1a 06bd 976d eb3c dfbf 52b9
00000070: 0235 8b3c 2ee2 943c fcf5 ad3c 8bcc 8c3d
00000080: c791 5d3d 488a 32bd 671e dc3d 36a3 9dbb
00000090: a4f5 a63d 3f24 d5bd 3e87 ad3c 69cc 8d3c
000000a0: 59b4 643a 94cc dbbc 3dfd 66bd d94e d9bb
000000b0: 6b68 de3d fcab 2cbd 79f8 6abb 3cb3 74bc
000000c0: 1503 e83c 2cad 9ebc 273c c03d 1d92 473c
000000d0: 7d2c bc3d 5c46 bb3c 8687 7b3d 0b66 98bd
000000e0: 15e7 e73c 19bf 37ba 963a 393c 0386 a63d
000000f0: c0ab 74bb aacb c5bd 5e2d 7f3a 6b1e 0fbd
00000100: 348d 083c e1ec 873d 1f30 e43c 6656 813d
00000110: 26ac a63c 8002 033c d6f0 893c f432 6abb
00000120: b110 50bc 995e 6ebc 2cb8 42bd c38a 32bc
00000130: e074 603c 7fba 36bd 9b26 eabc 4bcf 413a
00000140: d0f2 b03d 2dca 183d 602b 94bd df02 843d
00000150: f78e 3d3d 4261 d63d f84e a9bc b646 80bd
00000160: 0ec2 933b 836e 8cbc 19ac 3dbc 2b17 503d
00000170: 84ef d2bd 96b2 983c 561d ccb8 5fee 12be
00000180: b042 99bc a601 013d d7d5 2a3c 3f62 8dbc
00000190: f284 ddbd 6322 2c3b 61e9 803b 1041 09bd
000001a0: 60d5 60bd 7308 24bc 3e25 a03c 7fa3 b63d
000001b0: 1d20 aa3b 9805 e93c 8fca 62bd f7f6 babd
000001c0: f02a 8e3c c9da fdbd 72f4 b7bc d965 473b
000001d0: 48aa 0b3d ec37 693d f411 fe3b f834 e73c
000001e0: 4612 0c3e 33fd 433d f6ea 11be 21e7 6dbd
000001f0: dfe9 013e 471e 4b3d 9201 47b9 f553 873c
00000200: 6a3c da3c ed27 1e3d de23 5a3d ed60 923d
00000210: a1b2 8f3d 7d2d 5a3d 5154 7abd 1e8d 1cbd
00000220: b0d7 a7bd c0c3 1bbe 6dfb 19be 9da7 bcbd
00000230: 3f24 48be 7e85 993c 8273 af3d 03ec be3c
00000240: 4c95 b5bc ca15 f63c 29ae 1cbe 58e4 45be
00000250: 59b4 993d 8413 a6bc 1d58 603d 3a50 2c3d
00000260: 01b6 443d 6afb 0fbe 8e51 01be 2073 1d3d
00000270: b974 08be e7c0 f83c 80bc aa3d 45ca ffbc
00000280: 05ad 99bd 0165 f6bd f7a7 1f3c 8d98 e2bd
00000290: d664 e8bd 6f3c 5a3c 3088 a7bd 5556 9dbd
000002a0: 3c32 b43c c935 00be d211 a1bd 360a 243d
000002b0: 1d95 4b3c 1d84 2dbd 8bf1 943c fb3d a63d
000002c0: be9e 34be 94eb 093d fc2e 5d3c 5bf9 8c3d
000002d0: dbb3 7dbd af59 683d da4a c03d 8da9 7a3d
000002e0: db51 9ebd b207 a4bd 1ced 5bbe 0bbd fabc
000002f0: 9b06 cd3d ad6f 29be 197f 533d 6b48 613d
00000300: 4c9a 21be 631d f53c 748e 9abd 8d1c bebd
00000310: b819 01be 31ca 273d 4f18 383d fe6c 853d
00000320: 7f5b bb3c 68bc 653d de40 d6bd 7f0a 333d
00000330: 7104 af3d e992 48bb a98e e33c ff1b 253d
00000340: d221 26be 5187 59be 3004 d0bb 52ff 63bc
00000350: 4318 03be 4bfe e03d 4f5d 113d c511 48bd
00000360: b8b2 c83c 03ab a63d 6cc9 c2bd 9e62 8fbd
00000370: 0882 d7bc 40a8 633d bd20 973d 5fbf fcbc
00000380: f956 16be 316d c1bc 1318 613d e793 d3bd
00000390: c6f7 d73d d308 203d 5c18 1fbe 68f3 323d
000003a0: e2f5 fbbd 0793 333d 6e32 82be 1b8b d6bc
000003b0: 6b88 1b3c 5191 a03d d3b5 cabd b570 babd
000003c0: 904d 5abd c059 c8bd 1d95 ffbd 9cda b13c
000003d0: cb22 e9bd e7ea 97bd a589 753d b61f e6bd
000003e0: 1109 80bc 218f 0fbe e4c7 043d 6819 9abd
000003f0: 9ba0 58bd 6eb2 263d 0237 503d 07cb 5dbd

action_model._continuous_distribution.mu.bias f4 [2]
0.0137336375 0.074033394
00000000: 0d03 613c d29e 973d

action_model._discrete_distribution.branches.0.weight f4 [1, 128]
-0.001443255 0.0067063705 -0.0018178419 -0.009194204 -0.0011455498 -0.009241912 -0.0042517916 -0.0064002573
0.0071690665 -0.009569373 -0.0017479913 0.002065538 0.004500957 0.012496009 -0.014855231 -0.003251119
0.005000635 0.006250574 -0.008863743 -0.010210692 -0.0013928178 0.008707649 0.0010360716 0.0021127856
-0.0076135653 -0.014660753 -0.008621709 -0.018481521 0.016307771 -0.015599862 0.0033493086 -0.0062524066
0.003938492 -0.014545508 0.0009892842 -0.002269545 0.009354847 -0.007180154 -0.009324935 -0.0066282502
0.004084982 -0.0031809309 -0.0035947578 0.0072207465 0.00731567 0.020434646 0.0107048 -0.0027062565
0.009970224 0.011214508 -0.005701168 -0.003962615 -0.007659142 -0.0041554966 0.009647057 0.0050926916
-0.0075675175 0.00062209216 0.0044427845 -0.013664818 -0.0029981108 0.015077429 0.0014386423 -0.006327554
-0.0026681272 0.0051788525 -0.0012975171 0.016532002 0.003761364 -0.010618732 -0.0002013929 -0.013275765
-0.005478188 0.001186754 -0.00828234 -0.014407423 0.00087953155 0.0028074605 -0.003969069 -0.004440989
-0.013571615 0.009081663 -0.006090421 -0.0051162736 -0.0070485747 -0.00024288658 -0.008544648 -0.009937098
-0.009318455 -0.0035756927 -0.005183392 0.0014650925 -0.005454011 0.006058429 -0.010405345 -0.007324524
-0.0062819584 -0.011140748 0.0085715875 -0.012850081 0.0027192242 -0.017976023 0.011484153 0.00964826
-0.002813909 -0.0025637154 0.0090177115 0.004107612 0.008376046 -0.00394302 -0.0015786638 0.00041926876
-0.0013993002 -0.0077031027 -0.008200445 -0.020988876 0.0081807785 0.010596941 -0.0030113836 0.020831548
-0.01177545 0.0028669825 0.010306773 -0.0103048375 -0.0142052 -0.007815209 0.011332418 -0.0042346567
00000000: 9a2b bdba 1dc1 db3b a744 eeba 49a3 16bc
00000010: 4626 96ba 636b 17bc 9d52 8bbb 40b9 d1bb
00000020: 7dea ea3b dcc8 1cbc db1c e5ba fa5d 073b
00000030: c47c 933b 0fbc 4c3c 5b63 73bc ba10 55bb
00000040: 5edc a33b 9dd1 cc3b 3c39 11bc bf4a 27bc
00000050: 368f b6ba 87aa 0e3c cbcc 873a a976 0a3b
00000060: 377b f9bb a833 70bc 1242 0dbc 8f66 97bc
00000070: e097 853c 9096 7fbc 1380 5b3b fde0 ccbb
00000080: 770e 813b 4850 6ebc dfaa 813a a6bc 14bb
00000090: 1245 193c 7f47 ebbb 9dc7 18bc cb31 d9bb
000000a0: 50db 853b 2a77 50bb 0796 6bbb 039c ec3b
000000b0: 4ab8 ef3b 8f66 a73c 2f63 2f3c 735b 31bb
000000c0: 275a 233c 0ebd 373c ddd0 babb d3d8 81bb
000000d0: 8af9 fabb d52a 88bb b10e 1e3c 98e0 a63b
000000e0: f0f8 f7bb e613 233a c794 913b 67e2 5fbc
000000f0: f47b 44bb 5207 773c d390 bc3a 5f57 cfbb
00000100: bfdb 2ebb 5db3 a93b 7311 aaba 1f6e 873c
00000110: 3781 763b 31fa 2dbc ff2c 53b9 9882 59bc
00000120: 5f82 b3bb db8c 9b3a a7b2 07bc 1d0d 6cbc
00000130: 5d90 663a 5ffd 373b f70e 82bb b785 91bb
00000140: 7b5b 5ebc 41cb 143c 2892 c7bb 6aa6 a7bb
00000150: bbf7 e6bb 5faf 7eb9 dafe 0bbc 36cf 22bc
00000160: 6fac 18bc 2b56 6abb 72d9 a9bb 5908 c03a
00000170: 8fb7 b2bb c985 c63b 2e7b 2abc 9002 f0bb
00000180: e3d8 cdbb af87 36bc d86f 0c3c 2589 52bc
00000190: 0335 323b 7442 93bc 0728 3c3c bc13 1e3c
000001a0: 8f69 38bb 0204 28bb 06bf 133c 2699 863b
000001b0: af3b 093c 7334 81bb 2beb ceba 4dd1 db39
000001c0: b968 b7ba 4f6a fcbb 295b 06bc ddf0 abbc
000001d0: ac08 063c cb9e 2d3c a25a 45bb eca6 aa3c
000001e0: d1ed 40bc fce3 3b3b bddd 283c 9fd5 28bc
000001f0: edbc 68bc 5d0b 00bc 9bab 393c e0c2 8abb
