Assets/oon/s_finished2.onnx (onnx, 146879 bytes, 8 tensors)

network_body._body_endoder.seq_layers.0.weight f4 [128, 138]
000000 f9 05 d1 3d f0 72 8c bd 67 89 3b 3c 31 85 85 bc
       0.10206217 -0.0685786 0.0114463335 -0.016298862
000010 71 f1 6e bc 9c 65 b9 3c 45 a8 29 be a1 e7 28 3d
       -0.014583931 0.022631459 -0.16568096 0.041236524
000020 09 1b 22 3e f1 5d 47 be d2 bd f4 3d 39 cf 35 3d
       0.15830626 -0.1946943 0.11950268 0.044387076
000030 6f 12 23 bd 3b 5c ae bd f9 99 f3 bd 37 86 df 3c
       -0.0398125 -0.08513685 -0.11894602 0.027285678
000040 52 df 26 3e a3 49 24 3d 85 4d 60 bd d7 0d c8 3d
       0.16296127 0.040109288 -0.05476143 0.09768265
000050 cb 1c e5 3d 7c 66 f3 3d 74 b9 29 3a 27 76 74 3d
       0.111871324 0.11884782 0.0006474473 0.05968299
000060 d3 ec f0 3d b4 31 d5 3d e5 52 c4 3c b0 f7 c1 bc
       0.11763921 0.10409871 0.023965308 -0.023677677
000070 cb 49 fe bd 77 e4 14 bd 1f 45 70 3d e4 1b aa bd
       -0.12416419 -0.036350694 0.05865967 -0.08306101
000080 47 e4 f8 bd 02 7d 06 3e 02 c1 51 3d 67 99 87 bd
       -0.121529154 0.13133624 0.051209457 -0.06621056
000090 7c aa a8 be 58 aa 9f 3d 85 66 a9 3c fb 2e 21 3d
       -0.3294257 0.07796162 0.020678768 0.039351445
0000a0 ab c2 ec 3b 44 44 2e bd b8 93 1e 3e 36 f4 39 3d
       0.0072253547 -0.042545572 0.15486038 0.045398913
0000b0 dc bf 87 3d 00 69 b2 3d b6 16 0a bd 95 19 78 bc
       0.06628391 0.087114334 -0.033713065 -0.015142818
0000c0 12 9d 7f bd 0d c4 a4 bc bd 11 02 3e 70 12 21 3e
       -0.062405653 -0.020113016 0.12702079 0.1572969
0000d0 88 eb 08 3d 5e 62 52 3d 84 7d 63 3e f3 54 b3 3d
       0.033427745 0.05136334 0.22215849 0.08756437
0000e0 fb 3e ca 3c d4 01 a8 bd ef 89 7a bd 2f ec 22 3c
       0.024688235 -0.08203474 -0.0611667 0.009944006
0000f0 73 54 36 bd 2e ec db 3d 9b f4 f9 3d 6f 01 20 bd
       -0.04451413 0.10738407 0.12204858 -0.039063867
000100 17 dc b1 bd 34 1a 80 be 99 10 91 3d ca 4f e6 bc
       -0.08684557 -0.2501999 0.07083244 -0.028114218
000110 ba 9e ce 3d 6a a0 77 3d 0d dc 81 bd a5 f3 2a be
       0.100888684 0.060455717 -0.063407995 -0.16694506
000120 55 d4 b5 3d af 67 61 3d 21 34 d1 3c 48 7a 54 be
       0.0887839 0.05503052 0.025537552 -0.20749772
000130 a3 a9 d7 bc 7e 4f e5 bc db 0d f8 3b ab 6e 17 be
       -0.026326006 -0.027992006 0.007570011 -0.1478831
000140 ff dc db 3d e0 08 90 bd 93 07 82 bb ec 67 89 3c
       0.10735511 -0.07032943 -0.003968188 0.016773187
000150 2f 2c bd 3c fe 2b 94 3d d5 be 93 3d 76 a7 d4 3d
       0.023092357 0.07234953 0.07214133 0.10383503
000160 1d ec 56 3b f2 87 b5 3d 45 e5 0e 3d 6c fe 75 3d
       0.0032794543 0.0886382 0.034886617 0.06005709
000170 1b 8f 81 3c 7c e0 1f bc 56 3d b9 3d 66 13 49 3c
       0.015815308 -0.009758111 0.09044902 0.012272691
000180 ae ad c1 bc e0 a0 f2 3d b5 67 d6 3c 55 af 73 bd
       -0.023642387 0.11847091 0.026172498 -0.05949338
000190 4f 82 ed 3b 22 2d be 3d 40 e9 9b bd 17 f5 36 3e
       0.0072482 0.09285952 -0.07612848 0.17866932
0001a0 df 76 0e be 97 4e c8 bc 39 68 66 3a a5 b7 ae 3d
       -0.13912533 -0.024451537 0.0008789334 0.08531121
0001b0 23 3f b4 3b 52 81 a2 bc 92 9a 73 bd 37 86 a5 bd
       0.0055006905 -0.019837055 -0.05947358 -0.0808224
0001c0 95 5f 6a 3d d2 47 31 be 9e a0 00 3d 53 f8 17 bd
       0.05722006 -0.17312554 0.031403176 -0.037102055
0001d0 12 2d 8f bd 15 e4 90 b9 db 1a 5b bc 14 0b 22 be
       -0.06991018 -0.00027635755 -0.013373102 -0.15824538
0001e0 b9 7d 3c 3b bd 4b c8 bd 47 51 52 3e f2 83 be 3c
       0.002876146 -0.09780071 0.20538817 0.023256276
0001f0 7a 55 00 3d 62 8f e9 3d a9 82 eb 3a 03 11 88 3d
       0.031331517 0.11404301 0.0017968017 0.0664387
000200 88 f2 38 3f f9 48 c3 bb 01 8d d6 bd 2a d7 01 3e
       0.72245073 -0.0059596268 -0.10476113 0.12679735
000210 a2 61 be 3d 01 a8 d9 bd 50 8e 63 3e 73 ff fc bd
       0.09295966 -0.10627747 0.22222257 -0.123534106
000220 1a db a0 bc 73 ee fc 3d 05 78 ba 3c ac b9 24 3b
       -0.019635726 0.12350168 0.022762308 0.0025135083
000230 bc 62 a7 bd 48 68 13 bc ce cd 45 bd a5 ba 48 be
       -0.08173129 -0.008997031 -0.048291974 -0.19602449
000240 d5 57 60 3c 95 6c c7 3c 7b 2d 8c 3c d2 1a b4 3d
       0.013692816 0.024343768 0.01711153 0.08794178
000250 8b 52 3b be e3 4d 18 bd 47 44 6e 3d 94 73 f9 bd
       -0.18293206 -0.037183654 0.058170583 -0.12180248
000260 f8 fb d3 bc 21 86 06 bd 78 dc 6a be 53 25 24 be
       -0.025876984 -0.03284276 -0.22935665 -0.16029863
000270 57 82 35 bd f6 df 26 be 88 17 11 3d 11 05 a9 bd
       -0.044313755 -0.16296372 0.03542283 -0.082529195
000280 4d 87 bb bc 52 66 f7 bd f5 68 0d 3d af 9e 10 be
       -0.022891665 -0.12080063 0.034523923 -0.14123033
000290 ae 40 57 be 7d 38 6d be e0 7e cb bd 74 c0 22 bd
       -0.21020767 -0.2316608 -0.09936309 -0.03973432
0002a0 e8 fa b6 3b ef a8 ba bd f5 18 77 bc 49 7e fd 3c
       0.0055841096 -0.09114253 -0.015081634 0.030944007
0002b0 b9 e8 ce bd 09 46 e8 bd 9e 85 83 bd de 31 14 be
       -0.10102982 -0.11341483 -0.0642197 -0.14472148
0002c0 06 75 85 3d 68 46 82 bd 32 2d ea bc 1e ff 81 bd
       0.06516461 -0.06361085 -0.028586004 -0.06347488
0002d0 bf c2 e2 bd f9 ab b0 bd 4c b6 e4 bc aa 95 aa 37
       -0.11072301 -0.08626551 -0.027918957 2.0335272e-05
0002e0 5a 04 1a be ae a5 b1 3d 4b e8 27 be 92 e9 5a bd
       -0.15040722 0.08674179 -0.16397206 -0.053445406
0002f0 dc e8 af bb 43 1d 20 bd a0 a9 c1 3d 70 1f 32 be
       -0.005368335 -0.039090406 0.094561815 -0.17394805
000300 fe 36 d6 bd 5a 52 4e 3c 02 25 80 bc f0 81 82 be
       -0.10459708 0.012592876 -0.015642647 -0.2548976
000310 f7 ce 30 be bd 6d 53 be 0f a0 1e be f4 b1 4f be
       -0.17266451 -0.2064733 -0.15490745 -0.20282727
000320 e3 3a db bd 27 38 1b be 1d f5 7b be 40 aa 0a bc
       -0.10704591 -0.15158139 -0.24605222 -0.008463442
000330 d9 64 d7 3d bb 67 b6 bc d6 2c 32 be 70 d0 07 be
       0.10517282 -0.02226626 -0.17399916 -0.13263106
000340 0d 05 84 bd 03 e9 30 bd 09 7e b9 3c 2f a6 c8 bb
       -0.06446276 -0.043190967 0.022643106 -0.0061233263
000350 26 38 48 be d6 8e ad bd 3d 97 67 3d 42 85 4f be
       -0.19552669 -0.084745094 0.056540716 -0.20265678
000360 2b cc eb bd 38 f5 f7 3c 31 ed 36 bd e4 28 5f 3b
       -0.11513551 0.030268297 -0.044659797 0.0034051472
000370 58 65 b3 bc a0 bc 02 be 7f 51 82 bb 53 47 f8 bd
       -0.02189891 -0.12767267 -0.0039770002 -0.12122979
000380 39 2a fc bd ee f5 9f 3d fe f3 91 bc 48 2e 37 bd
       -0.12312741 0.07810579 -0.01781654 -0.04472187
000390 89 1a c1 3d 20 86 46 be a8 df 81 bd 0a 6f d2 3d
       0.09428889 -0.19387102 -0.06341487 0.10275085
0003a0 27 d0 ea bd 8c 42 0d 3e ef af 05 be 9e 95 72 be
       -0.11465483 0.13794917 -0.13055395 -0.23689887
0003b0 14 4a a6 bd 63 bb 63 bc 2d d2 81 be dc 40 33 bd
       -0.08119598 -0.013899657 -0.25355664 -0.043763027
0003c0 a8 84 3e be 80 a7 39 be 34 ab 05 be 57 06 b0 bd
       -0.18605292 -0.18130302 -0.1305359 -0.08594959
0003d0 83 0f 36 be 8f 24 ac bd 1a 2b e0 bd a1 fe 9d bd
       -0.17779355 -0.084054105 -0.10945721 -0.07714582
0003e0 39 ea e6 bc 9d 06 0d 3e 12 ee 96 bd 9a 9f be bb
       -0.028187858 0.13772054 -0.07369627 -0.005817366
0003f0 33 a5 82 be 21 e3 2d 3d d0 87 68 bd 0e ca 17 bd
       -0.25516662 0.042452935 -0.056770146 -0.03705793

network_body._body_endoder.seq_layers.0.bias f4 [128]
000000 9b a9 7e 3d 4b 32 a2 bd 0f 74 a1 3d 27 34 ed 3d
       0.062173467 -0.07919749 0.078834645 0.11582213
000010 af 9c b2 3d ee 12 80 bb dd 9e d9 3d a8 c8 0c 3e
       0.08721291 -0.0039085066 0.10626004 0.1374842
000020 35 7d 2f bc 15 7d 9b 3d 5c b9 82 bd 5a 59 74 3d
       -0.010711004 0.07592217 -0.06383011 0.059655525
000030 6c 0b 65 3d 68 cc 3c bd 9a b0 45 be b2 4e c7 bd
       0.055919096 -0.046093374 -0.1930565 -0.09731807
000040 31 b3 27 bd ef 13 e8 3c 2d aa 41 3d 8a c9 b6 bc
       -0.040942375 0.028329818 0.047281433 -0.022312898
000050 e2 9e ba 3c 93 78 4d 3a ea 30 08 3d ea d7 6c 3d
       0.02278084 0.00078380964 0.033249773 0.0578231
000060 18 4e 80 3d a0 17 a1 3d 51 53 6e 3c 63 27 d0 3c
       0.06264895 0.07865834 0.014546231 0.025409406
000070 d1 cc 9d 3d 17 a4 f7 3d 44 f9 ca 3d e8 ae c0 3d
       0.07705081 0.120918445 0.09910825 0.09408361
000080 65 2b 1c bd 13 63 55 3d 16 1b c1 3d e4 ef a2 3d
       -0.03812732 0.052096438 0.09428994 0.07955912
000090 df 57 cd 3d 76 0a 76 bc 10 e2 c8 3c cf 49 82 3d
       0.10026526 -0.0150171425 0.024521858 0.06361734
0000a0 8f 6b 1e 3d dc 5e fc 3d 70 27 8b bd fe 19 45 bd
       0.038676795 0.123227805 -0.067946315 -0.04812049
0000b0 7c be f2 bc 04 cc 1b 3c 82 72 a4 3d 75 9a b9 bd
       -0.029631846 0.00950909 0.08029653 -0.090626635
0000c0 0b 91 cd 3c 12 f5 7f bc d4 ba 26 bd 5a a2 d0 3c
       0.025093576 -0.015622394 -0.040705517 0.02546804
0000d0 a9 6a fe bd 57 98 de bd 41 f4 28 bd 21 d6 b1 3d
       -0.124226876 -0.108689 -0.041248564 0.0868342
0000e0 ef 4b 04 3d 1e e9 93 3d ec 43 43 bc eb 6c bf 3c
       0.03229898 0.07222198 -0.011918049 0.023367366
0000f0 01 b3 70 bd 43 d3 80 3d c4 30 cd 3d f2 1b f1 bb
       -0.05876446 0.06290295 0.10019067 -0.0073580677
000100 90 5e ab 3d 22 51 b0 bd 7e 26 4e 3c b1 a5 aa 3c
       0.08367646 -0.08609225 0.012582419 0.020830961
000110 21 ca d3 3c 30 e9 03 3d f6 ce b5 bd ad a2 87 3d
       0.025853219 0.032204807 -0.08877365 0.06622825
000120 f7 9d 3f 3d ed e4 ab bd b0 03 8d 3d bf ce aa 3d
       0.046781506 -0.083932735 0.06885469 0.08340215
000130 02 1e 97 3d 6c 41 30 3d e9 b9 ba 3d 88 3a 05 3e
       0.073787704 0.04303114 0.09117491 0.13010609
000140 25 50 5b be 2d f4 f7 3c f9 1f e8 3a bb 8e 83 bd
       -0.21417291 0.0302678 0.0017709724 -0.06423708
000150 ef b0 4f bd 46 b3 b7 3d 01 3b 87 bd 80 e4 d8 bc
       -0.050705846 0.089697406 -0.06603051 -0.026476145
000160 0b 86 2a bd 65 7b 62 3d 3b 97 93 3d 33 c4 96 3b
       -0.04163174 0.05529346 0.07206579 0.0046010255
000170 3c 2d 94 3d ce a1 7a 3d 06 ec f6 3d 07 09 89 3c
       0.0723519 0.061189465 0.12056737 0.016727937
000180 36 f9 e0 3c bf 06 6f 3c ec 62 2e be c8 8a f7 bd
       0.027462583 0.014589011 -0.17029923 -0.12087017
000190 c8 b5 88 3d 57 09 e8 3d 0e 70 0d bd ba 99 89 3d
       0.06675297 0.113299064 -0.03453069 0.06718774
0001a0 4d 7a 34 bd d6 d0 b8 bc 2d 16 42 bc 91 11 ea 3c
       -0.044061948 -0.022560518 -0.011846107 0.02857283
0001b0 ce 30 66 3d 71 b4 83 3d 64 55 4c bd 48 e0 03 bd
       0.056198888 0.06430901 -0.049886122 -0.032196313
0001c0 7a 90 68 bc 94 4d ce bd a2 8b 9c bd b5 a2 2f bd
       -0.014194602 -0.100733906 -0.0764382 -0.04287978
0001d0 a5 17 99 3c 17 49 99 3d ca 4d 43 3d 65 6d 6d 3d
       0.018688032 0.07484644 0.047681607 0.057965655
0001e0 d9 1c 0d bd f1 8e ec bd 93 b8 3d bd 13 1d 37 3d
       -0.03445134 -0.115507014 -0.0463186 0.04470546
0001f0 08 53 76 3c 52 4b 20 bc 57 33 6e 3d f2 c6 83 3d
       0.015034445 -0.009783583 0.05815443 0.0643443

network_body._body_endoder.seq_layers.2.weight f4 [128, 128]
000000 32 ff 24 be a0 c0 33 3c 0b 58 f4 bd 93 83 43 3d
       -0.16112974 0.010971218 -0.11930855 0.0477329
000010 b4 af 00 be b7 e3 49 bd f2 3a ae 3d a6 09 aa 3d
       -0.12567025 -0.04928943 0.08507337 0.083026215
000020 fb 3e f7 bd b9 b6 dd bd 5f d2 11 be 2e f3 11 3c
       -0.120725594 -0.10825867 -0.14240406 0.008908076
000030 76 33 38 3e 9d 89 8e bd 34 06 0b be ef 32 cc bd
       0.17988381 -0.069598414 -0.13576585 -0.09970652
000040 a3 a7 45 be a0 56 c5 bb 2b e8 f5 3c 5f 30 17 bd
       -0.1930223 -0.0060222894 0.030017933 -0.036911365
000050 31 b4 78 bd 5c bc ef bd 05 1a 9f 3c 76 b0 70 bd
       -0.06071872 -0.117058486 0.019421587 -0.058762036
000060 fe 44 9f bd 2a df 05 3d 5f 5b 77 3c 01 d3 c6 3d
       -0.07776831 0.03268353 0.015097468 0.097082146
000070 30 32 a8 3d 22 ad c3 bd c6 31 c7 bd 48 87 53 3e
       0.082126975 -0.09554507 -0.097262904 0.20657074
000080 ec 23 45 3c f6 fb 49 3d 36 ef 2d 3d 49 b6 45 3d
       0.01203249 0.049312554 0.042464457 0.048269544
000090 57 34 bd 3c a4 90 5d 3d 3d ea fa bd 97 a3 4e 3e
       0.023096247 0.05409302 -0.12251709 0.20179592
0000a0 5f 93 ef 3d aa 04 1e bd fb 93 d5 3d 79 ae 65 3d
       0.11698031 -0.038578667 0.10428616 0.056074593
0000b0 26 8d 19 bd e0 24 c6 bd 17 36 a8 bd a2 5c b7 bd
       -0.037488125 -0.09675002 -0.08213442 -0.08953215
0000c0 e6 a4 b7 3c 4b 90 3c bc 10 0c e6 3d 92 a1 09 bd
       0.022417497 -0.0115090115 0.112327695 -0.03360135
0000d0 59 30 02 3d 51 3f 1c be 9c 28 95 3d 64 42 41 3e
       0.03178439 -0.15258528 0.07283136 0.18872982
0000e0 23 35 27 bd 91 71 9a bb 0c b0 cf bc b1 f4 7d bd
       -0.04082216 -0.004713245 -0.0253525 -0.062000934
0000f0 66 23 7b 3d c0 e1 a4 bc 2d e1 a7 bd cf 59 f0 bd
       0.061313055 -0.020127177 -0.08197246 -0.1173588
000100 8a 01 e0 bb 78 26 5f 3c bc 48 a8 3d 06 6f 19 be
       -0.006836121 0.0136200115 0.08216998 -0.14983758
000110 8b 74 76 bd 01 c1 8f bc 4d 93 34 bd d3 e5 35 3e
       -0.060169738 -0.017548086 -0.04408579 0.17763452
000120 76 46 5c 3d 2c e7 b1 bd 5e c3 97 3d 5a 6d e8 bd
       0.053778134 -0.08686671 0.0741031 -0.11348982
000130 16 ad 42 bc f6 a3 c9 bc 32 df 04 3d 9e 87 34 3e
       -0.011882087 -0.024614315 0.032439418 0.17629859
000140 1d 78 70 bd d2 ce 89 bd b2 b7 1b 3e 21 5c 33 bd
       -0.0587083 -0.06728901 0.15206793 -0.043789033
000150 30 4a 36 3e 65 b6 2d bd f1 b4 6b bd d6 da 02 3e
       0.17801738 -0.042410273 -0.057545606 0.12778792
000160 1b 06 48 3d f3 85 d6 3c d6 ad 37 3d 5e 9e d8 bd
       0.048833948 0.026186919 0.044843517 -0.10577081
000170 a2 0a e2 bc 51 49 54 bb 22 2c d6 bd 0a 7a 2b 3d
       -0.02759296 -0.0032392333 -0.104576364 0.041864432
000180 a0 61 ad 3d 8d 96 47 be 2d ab 9e bd 6e 9e c4 3d
       0.08465886 -0.19491024 -0.07747493 0.096005306
000190 83 a5 95 3d 2a cc 02 3d 58 07 4e 3c ac 14 81 bd
       0.073069595 0.031932987 0.012574993 -0.06302771
0001a0 06 8e a1 3d fd 76 92 3c f1 e9 43 3c 10 c9 a5 bd
       0.07888417 0.017879004 0.011957631 -0.0809499
0001b0 fc c6 e4 3c 30 69 08 3d b4 38 a4 bd de 55 03 be
       0.027926914 0.03330344 -0.08018628 -0.12825724
0001c0 75 60 4c bd cf a8 a0 bd c3 78 5b be 54 d8 aa bb
       -0.049896676 -0.07844698 -0.21432786 -0.0052137766
0001d0 35 04 b0 3d 39 b1 18 bd 5f 98 e2 bd f4 a8 10 be
       0.085945524 -0.037278388 -0.11064219 -0.1412695
0001e0 bb d2 35 bd e4 06 92 3d f4 81 8f be ca 8d c5 3c
       -0.04439042 0.071302205 -0.28028834 0.024115462
0001f0 52 52 cf bd df 96 76 3d 6d c2 c2 3d 3c 48 49 bd
       -0.10123123 0.060202476 0.0950974 -0.049141154
000200 93 65 c3 bd 4d 8b 34 be 32 36 22 be 4d 5a 14 3d
       -0.09540858 -0.17631264 -0.15840986 0.03621893
000210 21 41 db bd 25 ff 89 bb 9e fd 44 3d 0c 76 aa bd
       -0.10705782 -0.004211324 0.04809343 -0.08323297
000220 f7 ef 4a bd b9 28 80 3d 74 79 ab bd ff eb 24 be
       -0.049545255 0.06257767 -0.08372775 -0.1610565
000230 a0 97 99 3d 09 28 8c 3b dc 1c 13 3d e3 8b b5 bb
       0.07499623 0.0042772335 0.035916194 -0.0055403574
000240 0c 5f 04 3e 34 23 68 bd fc ea 83 bb 57 84 2c 3d
       0.12926883 -0.056674197 -0.004025815 0.042118397
000250 ee f5 48 bd ff 7f a7 3d f2 3d c4 3b d0 5e 17 3b
       -0.04906266 0.0817871 0.00598883 0.0023097284
000260 ed 94 db bb 59 21 1d bd 1a d8 18 3e 25 de d3 3d
       -0.006701103 -0.03836188 0.14926186 0.10345105
000270 68 9c 8e 3d 74 ef af bc 57 d6 94 bd 59 cc 40 be
       0.06963426 -0.021476485 -0.072674446 -0.18827952
000280 b2 bc fb 3b c1 40 a3 bd 94 6d 90 3d 93 a4 af 3d
       0.0076824063 -0.07971335 0.0705215 0.08576312
000290 cf cd e9 3d 2d fc 86 bd 6b 11 db 3a 5b dc 09 3c
       0.11416208 -0.065910675 0.0016713565 0.008414353
0002a0 3c c2 01 bc 4c f1 e7 bd 9e 99 cd bd 5c 79 33 3b
       -0.007919844 -0.113253206 -0.10039066 0.0027385568
0002b0 62 a0 90 3e c9 6f 01 3e e6 35 90 bc 84 34 24 be
       0.28247362 0.12640299 -0.017603826 -0.16035658
0002c0 e1 ae 77 bd f8 89 60 3d 76 a8 d9 3d 8d 1f 8d 3c
       -0.060469512 0.054819077 0.106278345 0.017226959
0002d0 76 ef 0a be 09 f4 03 be 1b 17 14 bd 2b e0 fb bd
       -0.1356791 -0.12886061 -0.036154848 -0.12298616
0002e0 3d 98 32 3e 8f 88 2b 3d 2e 79 5e bd b2 b2 11 3d
       0.17440887 0.04187828 -0.054314785 0.035570808
0002f0 d3 ac 0a be 2c fa 10 bc d2 13 02 3e 42 85 ba bc
       -0.1354249 -0.008848708 0.12702873 -0.02276862
000300 3c 5c 89 bc 9d e8 90 bd 4b 3a b4 bb 06 3b c1 bd
       -0.016767614 -0.070756175 -0.005500113 -0.09435086
000310 f2 d0 85 3c fd 22 a6 3d a5 b8 89 3d cc 81 dd bd
       0.016334984 0.08112142 0.06724671 -0.108157724
000320 52 ae be 3d ac b1 a4 3d 0f 53 09 bd 96 8a 70 bd
       0.09310593 0.08041701 -0.033526476 -0.058725916
000330 25 b9 42 3d 30 b2 19 3e 77 cb ac bd e5 47 39 3a
       0.04753985 0.1500938 -0.08437245 0.0007067903
000340 6c 78 8e 3c 3e 25 af 3c a6 20 64 bd 79 87 83 bd
       0.017391406 0.021380063 -0.0556952 -0.06422324
000350 bd 5a e0 bd f8 ff 66 3e e0 ef b7 bd 57 c6 63 bd
       -0.10954807 0.22558582 -0.089812994 -0.055609073
000360 a8 aa d7 bd ad ba 8d 3d 4b 9c 25 3e f9 a2 bd 3a
       -0.10530597 0.06920371 0.16172902 0.0014468125
000370 af 5d 12 3d 50 06 d9 bc d3 b7 d0 3d 3e a8 3a 3b
       0.035733875 -0.026492268 0.10191312 0.0028481628
000380 66 a6 3f 3d 97 80 4c bd 4f 15 3b be 50 72 46 bd
       0.04678955 -0.04992732 -0.18269847 -0.04844886
000390 cd 49 89 3d ac 94 3e bd 7e 6a d8 bd fd 44 b1 3d
       0.067035295 -0.046528503 -0.10567187 0.086557366
0003a0 af 58 7c 3d 91 28 1d 3c db 79 e2 bb 96 dc b8 bc
       0.061608013 0.009592191 -0.006911499 -0.022566121
0003b0 ff 86 9a 3d 21 18 0c bd 5a da a5 bc d2 28 5f bb
       0.0754528 -0.0342027 -0.02024572 -0.003405143
0003c0 48 71 c2 bd 6f d2 9d 3d bb 87 39 bd db 1e 5a bd
       -0.09494263 0.07706153 -0.04529546 -0.053252082
0003d0 65 ea 91 3d 3f 3a 9e 3c f1 0b 77 bd f6 1f 88 3c
       0.07124785 0.019314883 -0.060314123 0.016616803
0003e0 cd 23 15 3e b6 5a 81 be b4 8a 99 bd 4f dc 15 bd
       0.14564438 -0.2526452 -0.07497159 -0.036587056
0003f0 25 aa ef 3d bf be 25 3d e9 56 87 3d ba 34 a4 3d
       0.11702374 0.040465113 0.06608374 0.08017869

network_body._body_endoder.seq_layers.2.bias f4 [128]
000000 de 45 b8 3d 77 ef 25 3d be e4 87 3d fe ed a1 3d
       0.08997701 0.040511575 0.06635426 0.079067215
000010 3d eb b6 3d e0 df a5 3d da b3 b9 bd a9 68 8d bd
       0.08931587 0.080993414 -0.09067507 -0.06904728
000020 f6 51 ba bd b8 9e a2 bd 0d 9a 9f bd 1c 0f a3 bd
       -0.09097664 -0.079404294 -0.07793055 -0.07961866
000030 0e 56 8e bc 59 6c 1c 3d 29 51 b1 3d 29 f1 56 3d
       -0.017375018 0.038189266 0.08658058 0.052476082
000040 47 26 02 bd b9 12 b7 3c 25 ef 13 bd 35 4c 70 bd
       -0.031774785 0.022347795 -0.036116738 -0.058666427
000050 fa 8b a1 3d ab 5e fd bc 6e 4f c5 3d 58 ac 98 3d
       0.078880265 -0.03092893 0.09634291 0.07454747
000060 cc 16 9b 3d 2b f2 86 bd 24 8f 7d bd 20 9d 0e 3e
       0.075727075 -0.065891586 -0.061904088 0.13927126
000070 0c f1 97 bd 77 05 87 3d 7e b3 a2 3d 73 4d 59 bc
       -0.07419023 0.06592839 0.07944392 -0.013263094
000080 fc d8 07 bd c3 00 81 bd d6 34 11 3c 8a 68 96 bd
       -0.033165917 -0.062989734 0.008862695 -0.07344158
000090 3c 0f 88 bd 56 aa 87 3d 05 b2 be bd f5 9e d0 bd
       -0.06643531 0.06624286 -0.09311298 -0.10186569
0000a0 5a 34 2c 3d 43 eb c0 bd 25 fc 89 bd 24 cb 91 3d
       0.042042114 -0.094198726 -0.06737546 0.07118824
0000b0 62 3e 32 3d 9b e8 9a bd 18 1c 9e 3d 92 36 e7 3d
       0.043516524 -0.07563897 0.07720202 0.11289705
0000c0 8a 5b 90 bd 14 4d 6c 3d 58 27 a5 3d 30 6a f2 3d
       -0.0704871 0.057690695 0.08064145 0.1183666
0000d0 ef ee 95 bd cb 1e 84 3d c0 b9 cf 3d 9a 14 0e 3d
       -0.073209636 0.06451186 0.10142851 0.034687616
0000e0 67 9a 91 bd 7b eb c7 bd 93 50 84 bd db b5 b1 bc
       -0.07109528 -0.09761711 -0.06460681 -0.02169316
0000f0 89 d5 cb 3d 8c fb 62 bd d7 5d a5 3d 12 88 c3 3d
       0.09952838 -0.055415675 0.08074539 0.09547438
000100 8e 1f 80 bd 68 a5 59 3d 2d c9 ba bd 3a 30 90 bd
       -0.062560186 0.05313626 -0.091204025 -0.070404485
000110 d5 ea c7 bd 34 c8 9e 3d d8 a7 93 3d b1 7d b6 3d
       -0.097615875 0.077530295 0.07209748 0.089106925
000120 35 4b 1f 3d ed 6d 9b 3d 04 6f 98 bd 6e 17 9a 3d
       0.038890082 0.07589326 -0.074430496 0.07524
000130 da 9f c8 3d 69 5b fb bc 73 4b 9b 3c 29 38 98 3d
       0.09796114 -0.030683236 0.018956875 0.07432587
000140 99 6b 0c bd e4 b7 6e bd 34 e5 13 3c 64 c4 ac 3b
       -0.0342823 -0.05828084 0.009026814 0.005272435
000150 49 0d 9c bd e1 3e b4 3d 1c 26 83 3d 11 3b 22 bd
       -0.076197214 0.08801056 0.06403753 -0.03960711
000160 52 f5 43 3d 21 c7 ca 3d 0e 93 c1 bd ec b3 b1 bd
       0.047841378 0.09901262 -0.094518766 -0.086768955
000170 a4 13 cb 3c 27 d4 b4 3d 1c a1 a5 3d 44 42 b2 3b
       0.024789639 0.08829527 0.0808737 0.0054400284
000180 a3 79 d2 bd 2b ac 97 bd d7 bf a8 3d e4 a7 d2 bd
       -0.102771066 -0.07405885 0.082397155 -0.10285929
000190 e3 0e cf 3d ab 83 91 3d e8 7b bf bd 8c 4c ac 3d
       0.10110261 0.07105192 -0.09349805 0.08413038
0001a0 b1 e7 8f bd 5b 08 b1 3d d2 49 4b bd 49 bb 71 bb
       -0.070266135 0.08644172 -0.049630947 -0.0036885312
0001b0 9c 9e c3 3c cb e7 b0 3d 71 44 7c bd 5c 38 87 bd
       0.023879342 0.08637961 -0.06158871 -0.066025466
0001c0 db cc a3 bd ed e1 79 bc e0 80 9a bd 50 94 20 3d
       -0.079980575 -0.015251619 -0.07544112 0.03920394
0001d0 c4 84 9f bd 9a a8 22 bd ab 40 b8 3d 74 02 93 bd
       -0.07788995 -0.039711572 0.089967094 -0.07178202
0001e0 63 33 52 3d 2e 07 a0 bd 7c 7c 31 3d 73 be 48 bd
       0.051318537 -0.078138694 0.04333161 -0.04900975
0001f0 7c 0a f7 3b 5a ca 7c 3d 90 ae b7 3d 3a bb 9e bd
       0.0075390916 0.061716415 0.08968842 -0.077505544

action_model._continuous_distribution.log_sigma f4 [1, 2]
000000 4e a3 8a 3f 93 f4 83 3f
       1.0831087 1.0309013

action_model._continuous_distribution.mu.weight f4 [2, 128]
000000 88 0b 89 bc a5 2c b2 3c d2 34 a1 3b 64 ac a0 3c
       -0.016729131 0.021749804 0.0049196268 0.019613452
000010 ad b1 12 3d 82 ce ea b9 2c fc 55 3c 91 0c d5 3c
       0.035813976 -0.00044785818 0.013060611 0.026006969
000020 63 53 ee 3b 14 75 cb bb 24 3f 2f 3d b9 9f 7b 3b
       0.007273124 -0.006209025 0.042784825 0.0038394763
000030 e0 de 0c be 4d eb 9f 3c 96 35 bc 3c 31 ab 6a bc
       -0.13756895 0.01952138 0.02297477 -0.014323042
000040 73 6b 6e bd 43 e4 8f bd bd fa 83 bd 79 05 4b 3d
       -0.05820794 -0.07025959 -0.06444309 0.049565766
000050 b1 83 26 3d d4 90 c7 3d 37 ea 10 bd ff 33 99 3c
       0.040652934 0.09744421 -0.035379615 0.018701551
000060 c4 e1 4e 3d 27 55 91 bc 5c 21 03 3d 81 75 72 bc
       0.050508276 -0.0177408 0.032014236 -0.014798523
000070 c5 24 cb 3c 4c 3c a2 3c c9 8f cf 3c ce 11 68 3d
       0.024797807 0.019804142 0.025337117 0.056657605
000080 c2 dd 5f 3d 76 08 2b bd 97 c1 db 3d 3d 4f 60 bb
       0.054654844 -0.041756116 0.10730284 -0.0034226917
000090 df 0c 95 3d b3 ba d7 bd 5f f3 cb 3c df d0 cd 3c
       0.072778456 -0.10533657 0.024896322 0.025124012
0000a0 f1 58 d1 3b e3 6f b3 bc b7 d0 67 bd 66 c8 c4 bb
       0.0063887765 -0.021903938 -0.05659553 -0.0060053347
0000b0 68 3b da 3d 5e 04 27 bd fc e9 04 bc bf f3 b5 bc
       0.10655862 -0.04077565 -0.008112427 -0.022210954
0000c0 10 99 d3 3c 3d 04 95 bc 2f e7 a4 3d 45 cf 42 3c
       0.025829822 -0.018190498 0.08051907 0.011890237
0000d0 81 5d a1 3d 7d 37 ba 3c 2e 31 70 3d ab 6b 9d bd
       0.078791626 0.022731537 0.05864065 -0.07686552
0000e0 23 74 ee 3c 7d 70 88 3b 8b 58 7f 3c ac 41 96 3d
       0.029108113 0.0041638003 0.015585075 0.07336745
0000f0 b6 ef 9e bb db 7b c7 bd 82 be 2d bb eb 2d 1c bd
       -0.004850353 -0.097404204 -0.0026511257 -0.03812973
000100 41 9b bf 3c 73 4f 84 3d 9d d3 34 3d 6a d2 67 3d
       0.02338946 0.06460466 0.044147123 0.05659715
000110 a5 6b 84 3c c4 58 d3 3b f5 a3 ed 3b c8 bf 5d bb
       0.01616461 0.0064497907 0.007252211 -0.0033836234
000120 22 08 24 bc b2 f6 52 bc 5f bc 2c bd 26 69 0a bc
       -0.010011705 -0.0128762 -0.042171832 -0.008447921
000130 63 47 74 3c 2f 56 2a bd 50 95 13 bd 3e b7 f3 39
       0.014909598 -0.041586097 -0.036031067 0.00046485098
000140 ee 61 b9 3d aa cd 2e 3d 3e 5a 9f bd 8b e0 47 3d
       0.09051882 0.042676605 -0.07780884 0.048798125
000150 1e ff 5a 3d ee 53 cd 3d 9b 25 14 bc 43 3c 82 bd
       0.053465955 0.10025774 -0.009042169 -0.0635915
000160 59 c1 83 3b 7a 91 80 bc 24 77 af bb da 58 3d 3d
       0.0040208516 -0.015694369 -0.005354779 0.046227314
000170 9a bd f1 bd b2 1b 90 3c c9 fe 2b 3b 15 28 19 be
       -0.11803742 0.017591331 0.0026244393 -0.14956696
000180 7c 33 36 bc 13 97 31 3d ac f8 2a 3c 55 b4 40 bc
       -0.011120673 0.043356966 0.010435265 -0.0117617445
000190 58 6f eb bd 61 db 08 3c 12 96 99 3c c5 67 09 bd
       -0.114958465 0.008353085 0.018748317 -0.033546228
0001a0 0e 67 57 bd 73 7f 4f bc 4c ba 6e 3c af 66 a7 3d
       -0.052588515 -0.012664664 0.014570784 0.08173882
0001b0 69 1f 00 3a 53 d0 c5 3c f3 4a 5f bd 18 a6 cb bd
       0.0004887493 0.024147188 -0.054514837 -0.09943789
0001c0 26 af f5 3c 1b 52 02 be 39 b6 8f bc 10 98 93 bb
       0.029990744 -0.12726633 -0.017542945 -0.0045042112
0001d0 3c b7 35 3d 6d 28 6d 3d cd f4 08 3c dd ee 23 3d
       0.0443642 0.05789988 0.008359146 0.04002272
0001e0 cc c1 00 3e f0 4a 4e 3d 06 ce 23 be 1a e4 7a bd
       0.12573928 0.050364435 -0.1599656 -0.06125269
0001f0 98 71 f3 3d 8c 9a 22 3d 5b 2a 3e b9 d6 12 21 3d
       0.11886901 0.03969817 -0.0001813559 0.039324604
000200 68 1f 12 3d ae 22 14 3d 5c 4e 5a 3d 0f 7b 90 3d
       0.035674483 0.036165886 0.053297386 0.070547216
000210 05 72 90 3d 1c 15 5b 3d e0 38 a1 bd bb 21 3d bd
       0.070529975 0.05348693 -0.07872176 -0.046174746
000220 c9 98 be bd 3e 9d 2f be d4 34 28 be be 2c d9 bd
       -0.09306485 -0.17149827 -0.16426402 -0.10604237
000230 74 8b 4d be 1b 66 5d 3c bb b8 b6 3d 4d 1f d5 3c
       -0.20072728 0.013513113 0.08921953 0.026015902
000240 e4 da c9 bc d5 d5 de 3c de 41 2f be aa da 5e be
       -0.024640508 0.027201572 -0.1711497 -0.21763101
000250 a3 b5 9b 3d 92 69 b4 bc 6d c0 5b 3d 0c 05 29 3d
       0.07603004 -0.022022996 0.05365031 0.04126458
000260 c1 a2 4c 3d cb 9d 30 be bc 48 0f be 9b a2 52 3d
       0.0499599 -0.17247693 -0.1399259 0.051424604
000270 76 e5 1d be b5 a9 00 3d 8c 4a a7 3d df a7 16 bd
       -0.15419564 0.031411845 0.081685156 -0.036781188
000280 5d b7 a2 bd c1 b2 09 be 2f 40 6d 3b 5a cb 03 be
       -0.0794513 -0.13447095 0.0036201586 -0.12870541
000290 52 ba 12 be d2 35 64 3c 59 b3 c8 bd 17 40 c1 bd
       -0.14328888 0.013928847 -0.09799833 -0.09436052
0002a0 b0 53 b9 3c 71 c7 1d be 81 d4 a7 bd 55 0f 25 3d
       0.022622913 -0.15408112 -0.08194829 0.040297825
0002b0 b9 95 37 3c a4 56 45 bd da 4a 5c 3c 06 40 ae 3d
       0.01120513 -0.04817833 0.01344558 0.08508305
0002c0 5a d6 55 be 9c e4 0b 3d e7 e2 8c 3b 2b 8a 9e 3d
       -0.2088255 0.034153566 0.00429951 0.07741197
0002d0 ce 0a af bd ed 7d 6d 3d ae a8 ca 3d 00 54 7c 3d
       -0.08546983 0.05798142 0.09895454 0.061603546
0002e0 eb a6 bd bd a9 75 ce bd 2d 7f 7c be f9 2b 26 bd
       -0.09260353 -0.10081036 -0.24657889 -0.04056928
0002f0 3a cd d0 3d 8e d1 34 be ee 41 5c 3d c3 ce 73 3d
       0.10195394 -0.17658064 0.053773813 0.059523355
000300 f0 cf 32 be 8d c2 d5 3c 9e 45 ad bd 6e 61 ee bd
       -0.17462134 0.026093746 -0.08460544 -0.11639677
000310 10 8a 14 be fe 62 19 3d ab 98 59 3d 14 81 83 3d
       -0.14505792 0.037447922 0.05312411 0.06421104
000320 bd 19 af 3c 68 86 68 3d 5d ed fc bd 5b a1 35 3d
       0.021374578 0.056768805 -0.12349961 0.044343334
000330 ff 1b b2 3d 71 3e b0 b9 e3 fa 00 3d 5f 44 20 3d
       0.08696746 -0.00033615858 0.031489264 0.039127704
000340 20 34 32 be 31 44 7e be fa 82 41 bb e3 53 91 bc
       -0.17402697 -0.248307 -0.002952753 -0.017740196
000350 0a 9d 0b be 8e 82 ea 3d 26 6c cf 3c 11 60 6c bd
       -0.13634124 0.114506826 0.025320124 -0.057708804
000360 3b 7d df 3c 43 a9 a6 3d 54 0a e4 bd ca 1e a0 bd
       0.027281394 0.08137753 -0.111347824 -0.078183725
000370 15 38 14 bd a2 3c 6d 3d ed e6 96 3d 0f 54 1b bd
       -0.036186296 0.057919152 0.07368264 -0.03792196
000380 e5 07 2e be ab 53 02 bd e2 d5 52 3d 0a 60 05 be
       -0.16995199 -0.031818073 0.051473506 -0.13024917
000390 33 f0 ea 3d 43 91 15 3d 78 ff 34 be 6d eb 31 3d
       0.114715956 0.036515485 -0.17675579 0.04343741
0003a0 d2 bc 12 be b2 b9 42 3d 23 e1 97 be 22 f6 12 bd
       -0.14329842 0.047540374 -0.29663953 -0.03587926
0003b0 87 e3 00 3c 39 75 a3 3d e4 d9 da bd 9a 72 cd bd
       0.007866747 0.07981343 -0.106860906 -0.10031624
0003c0 3d e1 74 bd 0b a5 d1 bd 46 4d 0d be c0 a9 a7 3c
       -0.059785116 -0.102365576 -0.13799009 0.020466685
0003d0 b7 65 ff bd 4d 5c b8 bd 27 bc 7b 3d 6f d9 fe bd
       -0.124705724 -0.0900198 0.061458733 -0.12443816
0003e0 5a a7 b0 bc c5 6e 33 be 5c 6f c9 3c 14 8d b1 bd
       -0.021564174 -0.17522724 0.024589233 -0.08669487
0003f0 69 39 7b bd 96 da 2b 3d 93 a4 56 3d 38 9e 95 bd
       -0.061334047 0.041956507 0.052403044 -0.073055685

action_model._continuous_distribution.mu.bias f4 [2]
000000 b8 0d 49 3c ac f6 ac 3d
       0.012271337 0.084454864

action_model._discrete_distribution.branches.0.weight f4 [1, 128]
000000 9a 2b bd ba 1d c1 db 3b a7 44 ee ba 49 a3 16 bc
       -0.001443255 0.0067063705 -0.0018178419 -0.009194204
000010 46 26 96 ba 63 6b 17 bc 9d 52 8b bb 40 b9 d1 bb
       -0.0011455498 -0.009241912 -0.0042517916 -0.0064002573
000020 7d ea ea 3b dc c8 1c bc db 1c e5 ba fa 5d 07 3b
       0.0071690665 -0.009569373 -0.0017479913 0.002065538
000030 c4 7c 93 3b 0f bc 4c 3c 5b 63 73 bc ba 10 55 bb
       0.004500957 0.012496009 -0.014855231 -0.003251119
000040 5e dc a3 3b 9d d1 cc 3b 3c 39 11 bc bf 4a 27 bc
       0.005000635 0.006250574 -0.008863743 -0.010210692
000050 36 8f b6 ba 87 aa 0e 3c cb cc 87 3a a9 76 0a 3b
       -0.0013928178 0.008707649 0.0010360716 0.0021127856
000060 37 7b f9 bb a8 33 70 bc 12 42 0d bc 8f 66 97 bc
       -0.0076135653 -0.014660753 -0.008621709 -0.018481521
000070 e0 97 85 3c 90 96 7f bc 13 80 5b 3b fd e0 cc bb
       0.016307771 -0.015599862 0.0033493086 -0.0062524066
000080 77 0e 81 3b 48 50 6e bc df aa 81 3a a6 bc 14 bb
       0.003938492 -0.014545508 0.0009892842 -0.002269545
000090 12 45 19 3c 7f 47 eb bb 9d c7 18 bc cb 31 d9 bb
       0.009354847 -0.007180154 -0.009324935 -0.0066282502
0000a0 50 db 85 3b 2a 77 50 bb 07 96 6b bb 03 9c ec 3b
       0.004084982 -0.0031809309 -0.0035947578 0.0072207465
0000b0 4a b8 ef 3b 8f 66 a7 3c 2f 63 2f 3c 73 5b 31 bb
       0.00731567 0.020434646 0.0107048 -0.0027062565
0000c0 27 5a 23 3c 0e bd 37 3c dd d0 ba bb d3 d8 81 bb
       0.009970224 0.011214508 -0.005701168 -0.003962615
0000d0 8a f9 fa bb d5 2a 88 bb b1 0e 1e 3c 98 e0 a6 3b
       -0.007659142 -0.0041554966 0.009647057 0.0050926916
0000e0 f0 f8 f7 bb e6 13 23 3a c7 94 91 3b 67 e2 5f bc
       -0.0075675175 0.00062209216 0.0044427845 -0.013664818
0000f0 f4 7b 44 bb 52 07 77 3c d3 90 bc 3a 5f 57 cf bb
       -0.0029981108 0.015077429 0.0014386423 -0.006327554
000100 bf db 2e bb 5d b3 a9 3b 73 11 aa ba 1f 6e 87 3c
       -0.0026681272 0.0051788525 -0.0012975171 0.016532002
000110 37 81 76 3b 31 fa 2d bc ff 2c 53 b9 98 82 59 bc
       0.003761364 -0.010618732 -0.0002013929 -0.013275765
000120 5f 82 b3 bb db 8c 9b 3a a7 b2 07 bc 1d 0d 6c bc
       -0.005478188 0.001186754 -0.00828234 -0.014407423
000130 5d 90 66 3a 5f fd 37 3b f7 0e 82 bb b7 85 91 bb
       0.00087953155 0.0028074605 -0.003969069 -0.004440989
000140 7b 5b 5e bc 41 cb 14 3c 28 92 c7 bb 6a a6 a7 bb
       -0.013571615 0.009081663 -0.006090421 -0.0051162736
000150 bb f7 e6 bb 5f af 7e b9 da fe 0b bc 36 cf 22 bc
       -0.0070485747 -0.00024288658 -0.008544648 -0.009937098
000160 6f ac 18 bc 2b 56 6a bb 72 d9 a9 bb 59 08 c0 3a
       -0.009318455 -0.0035756927 -0.005183392 0.0014650925
000170 8f b7 b2 bb c9 85 c6 3b 2e 7b 2a bc 90 02 f0 bb
       -0.005454011 0.006058429 -0.010405345 -0.007324524
000180 e3 d8 cd bb af 87 36 bc d8 6f 0c 3c 25 89 52 bc
       -0.0062819584 -0.011140748 0.0085715875 -0.012850081
000190 03 35 32 3b 74 42 93 bc 07 28 3c 3c bc 13 1e 3c
       0.0027192242 -0.017976023 0.011484153 0.00964826
0001a0 8f 69 38 bb 02 04 28 bb 06 bf 13 3c 26 99 86 3b
       -0.002813909 -0.0025637154 0.0090177115 0.004107612
0001b0 af 3b 09 3c 73 34 81 bb 2b eb ce ba 4d d1 db 39
       0.008376046 -0.00394302 -0.0015786638 0.00041926876
0001c0 b9 68 b7 ba 4f 6a fc bb 29 5b 06 bc dd f0 ab bc
       -0.0013993002 -0.0077031027 -0.008200445 -0.020988876
0001d0 ac 08 06 3c cb 9e 2d 3c a2 5a 45 bb ec a6 aa 3c
       0.0081807785 0.010596941 -0.0030113836 0.020831548
0001e0 d1 ed 40 bc fc e3 3b 3b bd dd 28 3c 9f d5 28 bc
       -0.01177545 0.0028669825 0.010306773 -0.0103048375
0001f0 ed bc 68 bc 5d 0b 00 bc 9b ab 39 3c e0 c2 8a bb
       -0.0142052 -0.007815209 0.011332418 -0.0042346567
