Assets/oon/simple_random.onnx (onnx, 482012 bytes, 17 tensors)

network_body._body_endoder.attention.query.bias f4 [138]
0	0x00000000	0.0
1	0x00000000	0.0
2	0x00000000	0.0
3	0x00000000	0.0
4	0x00000000	0.0
5	0x00000000	0.0
6	0x00000000	0.0
7	0x00000000	0.0
8	0x00000000	0.0
9	0x00000000	0.0
10	0x00000000	0.0
11	0x00000000	0.0
12	0x00000000	0.0
13	0x00000000	0.0
14	0x00000000	0.0
15	0x00000000	0.0
16	0x00000000	0.0
17	0x00000000	0.0
18	0x00000000	0.0
19	0x00000000	0.0
20	0x00000000	0.0
21	0x00000000	0.0
22	0x00000000	0.0
23	0x00000000	0.0
24	0x00000000	0.0
25	0x00000000	0.0
26	0x00000000	0.0
27	0x00000000	0.0
28	0x00000000	0.0
29	0x00000000	0.0
30	0x00000000	0.0
31	0x00000000	0.0
32	0x00000000	0.0
33	0x00000000	0.0
34	0x00000000	0.0
35	0x00000000	0.0
36	0x00000000	0.0
37	0x00000000	0.0
38	0x00000000	0.0
39	0x00000000	0.0
40	0x00000000	0.0
41	0x00000000	0.0
42	0x00000000	0.0
43	0x00000000	0.0
44	0x00000000	0.0
45	0x00000000	0.0
46	0x00000000	0.0
47	0x00000000	0.0
48	0x00000000	0.0
49	0x00000000	0.0
50	0x00000000	0.0
51	0x00000000	0.0
52	0x00000000	0.0
53	0x00000000	0.0
54	0x00000000	0.0
55	0x00000000	0.0
56	0x00000000	0.0
57	0x00000000	0.0
58	0x00000000	0.0
59	0x00000000	0.0
60	0x00000000	0.0
61	0x00000000	0.0
62	0x00000000	0.0
63	0x00000000	0.0
64	0x00000000	0.0
65	0x00000000	0.0
66	0x00000000	0.0
67	0x00000000	0.0
68	0x00000000	0.0
69	0x00000000	0.0
70	0x00000000	0.0
71	0x00000000	0.0
72	0x00000000	0.0
73	0x00000000	0.0
74	0x00000000	0.0
75	0x00000000	0.0
76	0x00000000	0.0
77	0x00000000	0.0
78	0x00000000	0.0
79	0x00000000	0.0
80	0x00000000	0.0
81	0x00000000	0.0
82	0x00000000	0.0
83	0x00000000	0.0
84	0x00000000	0.0
85	0x00000000	0.0
86	0x00000000	0.0
87	0x00000000	0.0
88	0x00000000	0.0
89	0x00000000	0.0
90	0x00000000	0.0
91	0x00000000	0.0
92	0x00000000	0.0
93	0x00000000	0.0
94	0x00000000	0.0
95	0x00000000	0.0
96	0x00000000	0.0
97	0x00000000	0.0
98	0x00000000	0.0
99	0x00000000	0.0
100	0x00000000	0.0
101	0x00000000	0.0
102	0x00000000	0.0
103	0x00000000	0.0
104	0x00000000	0.0
105	0x00000000	0.0
106	0x00000000	0.0
107	0x00000000	0.0
108	0x00000000	0.0
109	0x00000000	0.0
110	0x00000000	0.0
111	0x00000000	0.0
112	0x00000000	0.0
113	0x00000000	0.0
114	0x00000000	0.0
115	0x00000000	0.0
116	0x00000000	0.0
117	0x00000000	0.0
118	0x00000000	0.0
119	0x00000000	0.0
120	0x00000000	0.0
121	0x00000000	0.0
122	0x00000000	0.0
123	0x00000000	0.0
124	0x00000000	0.0
125	0x00000000	0.0
126	0x00000000	0.0
127	0x00000000	0.0
128	0x00000000	0.0
129	0x00000000	0.0
130	0x00000000	0.0
131	0x00000000	0.0
132	0x00000000	0.0
133	0x00000000	0.0
134	0x00000000	0.0
135	0x00000000	0.0
136	0x00000000	0.0
137	0x00000000	0.0

network_body._body_endoder.attention.value.bias f4 [138]
0	0xbe057b54	-0.13035327
1	0xbe408a0f	-0.18802665
2	0xbe704e74	-0.23467427
3	0x3c833f56	0.016021412
4	0xba9fa726	-0.0012180551
5	0xbdb7c876	-0.08973782
6	0xbcf1555d	-0.02945965
7	0xbe15cffb	-0.1463012
8	0x3d915705	0.07096676
9	0x3cf5eb30	0.030019373
10	0xbda51b5d	-0.0806186
11	0xbe62b33f	-0.2213869
12	0x3e22754f	0.15865062
13	0xbd7833c9	-0.06059626
14	0x3d792c5c	0.06083332
15	0xbcac5311	-0.021035703
16	0x3e8aeb96	0.27132863
17	0xbdfaa981	-0.122393616
18	0x3e2e80bd	0.17041297
19	0x3d446035	0.047943313
20	0xba07d173	-0.00051810517
21	0xbd369bd9	-0.04458222
22	0xbb923c0b	-0.004462724
23	0xbe1f669d	-0.15566488
24	0x3e725304	0.2366448
25	0x3e0b400e	0.13598654
26	0xbda118e6	-0.07866077
27	0xbde21604	-0.110393554
28	0x3e48acc9	0.19597162
29	0xbddd36ae	-0.10801445
30	0x3e8fa096	0.28052205
31	0xbe9089e4	-0.28230202
32	0x3e5a6699	0.213282
33	0xbe162a55	-0.14664586
34	0x3d24b3b9	0.04021046
35	0xbdf605cc	-0.120128244
36	0x3d94d3db	0.07266971
37	0x3c1aea10	0.009455219
38	0x3e32ca6f	0.17460035
39	0xbdf11d73	-0.11773195
40	0x3e8cf55f	0.27530953
41	0xbd60b0ea	-0.05485622
42	0xbe0d0418	-0.13771093
43	0x3c27703c	0.01021963
44	0x3d06b94e	0.032891564
45	0x3dfad6a9	0.122479744
46	0xbddb2764	-0.107008725
47	0x3d9e1a32	0.0771984
48	0xbeae0b25	-0.33992878
49	0x3b4319aa	0.0029769936
50	0xbc156f8d	-0.009120834
51	0xbdc5f069	-0.09664995
52	0xbd439eac	-0.047758743
53	0xbe8c9a3e	-0.27461427
54	0x3ddefaeb	0.108877026
55	0xbe963ce5	-0.29343334
56	0x3d3f321b	0.046678644
57	0x3e2dccf0	0.16972709
58	0x3e88d58a	0.26725417
59	0x3d37bd07	0.044858005
60	0x3e784b2c	0.24247426
61	0x3d37e603	0.04489709
62	0x3e688291	0.22706057
63	0x3db9ee09	0.09078605
64	0xbc0db7f3	-0.008649814
65	0xbdda0e2c	-0.10647234
66	0x3e97a9b4	0.2962166
67	0xbd74fff1	-0.059814397
68	0xbe587d0a	-0.21141449
69	0xbdd86668	-0.105664074
70	0x3e582db6	0.21111187
71	0xbe648fbd	-0.22320457
72	0x3e731fa5	0.2374254
73	0xbd95cd84	-0.073145896
74	0x3e0a0294	0.13477546
75	0x3d06af76	0.032882176
76	0x3e23d810	0.1600039
77	0xbe38a3ca	-0.1803123
78	0xbbd3aea1	-0.0064600264
79	0xbea038e7	-0.31293413
80	0x3e930361	0.28713515
81	0x3c09d441	0.008412422
82	0x3e2734d1	0.16328742
83	0xbcbc956b	-0.023020467
84	0xbe5bdfc6	-0.21472082
85	0x3d2730c1	0.04081798
86	0x3e411113	0.1885417
87	0xbbc5d0ef	-0.0060368697
88	0x3d5d00a1	0.053955678
89	0x3d7b05da	0.061284877
90	0xbd9f17bc	-0.07768199
91	0xbc79042b	-0.015198748
92	0xbd4499c3	-0.0479982
93	0x3c70526e	0.01466809
94	0x3dd85096	0.105622455
95	0x3df5bcab	0.11998876
96	0x3e1649fa	0.14676657
97	0x3cff6cef	0.031179873
98	0x3d407d27	0.046994355
99	0xbd6b4836	-0.057441913
100	0x3e465519	0.193684
101	0xbb3c8177	-0.002876369
102	0x3d34c732	0.04413528
103	0xbe42fe49	-0.19042315
104	0xbd8ff659	-0.07029409
105	0xbe0b354f	-0.13594554
106	0x3e36e6cd	0.17861481
107	0xbdf0263c	-0.11726043
108	0x3e42bb33	0.19016723
109	0xbd82a592	-0.06379236
110	0x3e22b21c	0.15888256
111	0xbc02a2fb	-0.007973428
112	0x3eac58b1	0.33661416
113	0x3e1d9831	0.15390088
114	0x3ebee723	0.37285718
115	0xbd24ed81	-0.040265564
116	0x3e0fe221	0.14051105
117	0x3e5da825	0.21646173
118	0x3e8b557b	0.27213654
119	0x3da2a72d	0.079420425
120	0x3e814b7c	0.25252903
121	0x3e8c20f5	0.27368894
122	0x3e7ac182	0.2448788
123	0x3e1c9be8	0.15293849
124	0x3e13e2a9	0.14441933
125	0x3ce9f599	0.028559493
126	0xbe5f8636	-0.21828541
127	0xbea702fd	-0.32619467
128	0xbd9a8a99	-0.07545967
129	0x3befb94e	0.007315791
130	0x3d3e4e83	0.046461593
131	0xbea80f09	-0.3282397
132	0xbd73da68	-0.05953446
133	0xbe2fc0f1	-0.17163445
134	0x3e8b71b4	0.27235186
135	0x3d0add9c	0.03390275
136	0xbdf0df25	-0.117613114
137	0xbdd82723	-0.1055434

network_body._body_endoder.attention.norm.weight f4 [138]
0	0x3f7b3541	0.98128134
1	0x3f703d7a	0.93843806
2	0x3fb13d3b	1.3846811
3	0x3f3d4fc2	0.73949826
4	0x3f7465b8	0.9546771
5	0x3fab134b	1.3365263
6	0x3f70f950	0.9413042
7	0x3f748a81	0.9552384
8	0x3f88a5d0	1.0675602
9	0x3f947436	1.1597965
10	0x3f7ed427	0.9954247
11	0x3f5bf8ff	0.8592681
12	0x3f4c6c96	0.7985319
13	0x3f6ab637	0.9168429
14	0x3f540637	0.82821983
15	0x3f864f40	1.0492935
16	0x3f99f309	1.2027293
17	0x3f789297	0.9709868
18	0x3f04daa5	0.51896125
19	0x3fa3e60e	1.2804582
20	0x3f7bd812	0.9837657
21	0x3f61f7b6	0.882686
22	0x3f58f088	0.8474202
23	0x3f59a0b6	0.8501085
24	0x3f678018	0.9042983
25	0x3f84d18c	1.0376449
26	0x3f92e9da	1.1477616
27	0x3f56b016	0.83862436
28	0x3f922edd	1.1420552
29	0x3f8fb90a	1.1228344
30	0x3f3b7115	0.73219424
31	0x3fac15d7	1.3444165
32	0x3f863261	1.0484124
33	0x3f698c11	0.9122935
34	0x3f70df9f	0.9409122
35	0x3f8ff9be	1.124809
36	0x3f6a19a9	0.91445404
37	0x3f488ddc	0.7834146
38	0x3f65c9cf	0.8976106
39	0x3f754883	0.9581377
40	0x3f83818d	1.0273911
41	0x3f4aa295	0.7915433
42	0x3fa06f3b	1.2533945
43	0x3f2e4337	0.6807131
44	0x3f6ed852	0.9329883
45	0x3f7820c3	0.9692499
46	0x3f50058e	0.81258476
47	0x3f8ef0d9	1.1167251
48	0x3fc0304b	1.5014738
49	0x3f97a102	1.1846011
50	0x3f83d8ac	1.0300498
51	0x3f62270d	0.88340837
52	0x3f753080	0.9577713
53	0x3f899f2a	1.0751698
54	0x3f4c264e	0.7974595
55	0x3f995c29	1.198125
56	0x3f72b0eb	0.94801205
57	0x3f882957	1.0637616
58	0x3f72cc50	0.94843006
59	0x3f93ec83	1.1556553
60	0x3f330a32	0.6993743
61	0x3f863ddd	1.0487629
62	0x3f56e1d1	0.8393832
63	0x3f5b2c51	0.85614496
64	0x3f45400a	0.7705084
65	0x3f319d40	0.6938057
66	0x3f60df39	0.8784061
67	0x3f4a1956	0.7894491
68	0x3f9fb453	1.2476906
69	0x3f7604ed	0.96101266
70	0x3f8beec1	1.0932237
71	0x3f9aa6ea	1.2082188
72	0x3f802d74	1.0013871
73	0x3f9dc13f	1.2324599
74	0x3f5e4adf	0.86832994
75	0x3f6a85db	0.916105
76	0x3f8f3d92	1.1190665
77	0x3fb440e3	1.4082302
78	0x3f58b38c	0.84648967
79	0x3f9dc663	1.2326168
80	0x3f3648c7	0.712048
81	0x3f52d7ab	0.82360333
82	0x3f50a66d	0.81503946
83	0x3f7c45be	0.9854392
84	0x3f8b5e3f	1.0888137
85	0x3f32938e	0.697564
86	0x3f8cb2c8	1.099206
87	0x3f3b49d4	0.7315953
88	0x3f706573	0.939048
89	0x3f91639e	1.1358526
90	0x3f5a3d30	0.85249615
91	0x3f741184	0.95339227
92	0x3f5924b3	0.84821624
93	0x3f7def5e	0.9919337
94	0x3f826d7c	1.0189662
95	0x3f8e9ea2	1.1142161
96	0x3f5bf44a	0.8591963
97	0x3f807774	1.0036454
98	0x3f9f8059	1.2461044
99	0x3f9c5266	1.2212646
100	0x3f6b2f35	0.9186891
101	0x3f9ced89	1.225999
102	0x3f8c7872	1.0974257
103	0x3f82b775	1.0212237
104	0x3f56ffad	0.8398388
105	0x3f76144f	0.9612474
106	0x3f79d6a7	0.9759316
107	0x3f3fbfbb	0.7490193
108	0x3f3428bb	0.7037465
109	0x3f390147	0.72267574
110	0x3f48cb2d	0.7843502
111	0x3f5031f1	0.81326205
112	0x3f66a919	0.9010177
113	0x3f8c3289	1.0952922
114	0x3f8cc37f	1.0997161
115	0x3f3fffeb	0.74999875
116	0x3f390369	0.7227083
117	0x3f56f0bd	0.8396109
118	0x3f1803a4	0.59380555
119	0x3f441858	0.76599646
120	0x3fafbf04	1.3730168
121	0x3f957555	1.1676432
122	0x3f4a1d0f	0.7895059
123	0x3f4dd9dc	0.8041055
124	0x3f401622	0.7503377
125	0x3f5b3b6d	0.8563755
126	0x3f7e6af7	0.99381965
127	0x3fcb91ca	1.5903866
128	0x3fc00f3d	1.500465
129	0x3fa1a1c9	1.2627498
130	0x3f4fcb42	0.8116952
131	0x3f69c1bc	0.9131124
132	0x3f8700bb	1.0547098
133	0x3f943289	1.1577922
134	0x3f9ab6db	1.2087053
135	0x3f55360f	0.8328561
136	0x3f8428bd	1.0324932
137	0x3f809c99	1.004779

network_body._body_endoder.attention.norm.bias f4 [138]
0	0x3cc05e76	0.023482542
1	0x3b7142ea	0.0036813566
2	0x3dc375c2	0.09543945
3	0x3cf3925c	0.029732876
4	0x3c2e454c	0.010636639
5	0xbda7287a	-0.08162017
6	0x3d010998	0.03150329
7	0xbccf993c	-0.025341623
8	0xb9d90dc5	-0.00041399724
9	0xbe1bab84	-0.15202147
10	0x3e054881	0.1301594
11	0xbdbea08b	-0.09307965
12	0x3d0562cc	0.032564923
13	0xbc59b84f	-0.0132885715
14	0xbd0cad16	-0.034344755
15	0xbda0ff5f	-0.07861208
16	0x3d95576b	0.07292064
17	0xbd940981	-0.07228375
18	0x3cdc4109	0.02688648
19	0xbd41f035	-0.04734822
20	0x3dd4b761	0.10386539
21	0xbd38405e	-0.04498326
22	0x3d86688e	0.06562911
23	0xbe175f0b	-0.1478235
24	0xbd2e0f75	-0.04249521
25	0xbd23f236	-0.040025912
26	0xbd8ee2a3	-0.06976821
27	0xbe266dca	-0.16252819
28	0xbc9fb7cf	-0.019496826
29	0xbd86c94f	-0.06581365
30	0xbbcd5881	-0.006266654
31	0xbd05df11	-0.032683436
32	0x3d6273aa	0.055286087
33	0x3cfb5063	0.03067798
34	0xbd375664	-0.044760123
35	0x3c0f354d	0.008740735
36	0x3d441521	0.047871713
37	0x3ce40efd	0.027839178
38	0xbbbe7b44	-0.0058130343
39	0xbd6b7116	-0.057480894
40	0x3ca61a40	0.020276189
41	0xbcdbdb99	-0.02683811
42	0x3d11e3d2	0.035617657
43	0x3ccd89e3	0.025090164
44	0x3d9bbad3	0.07603993
45	0x3dcc5ff6	0.099792406
46	0xbc743156	-0.014904341
47	0xbd386b92	-0.045024462
48	0xbc11b663	-0.008893582
49	0xbdb75c50	-0.08953154
50	0x3df3eebb	0.119107686
51	0xbcf3099b	-0.029667666
52	0x3df2dd6f	0.11858641
53	0x3d29de7d	0.041471947
54	0x3d8eb274	0.06967631
55	0xbd1ca93c	-0.038247332
56	0x3d8bae6c	0.06820378
57	0x3d3e1d38	0.046414584
58	0x3db7548e	0.089516744
59	0x3caf2673	0.021380639
60	0x3db980ad	0.09057746
61	0xbd8aa0f3	-0.0676898
62	0x3d2f7faa	0.04284636
63	0xbd0b81aa	-0.034059204
64	0xbd8b2b10	-0.06795323
65	0xbbdc630c	-0.0067256745
66	0x3c82ad9b	0.015951922
67	0xbdccdf5f	-0.10003542
68	0xbcc113af	-0.023568956
69	0xbdb694ff	-0.089151375
70	0x3cb420a2	0.021988217
71	0xbdbad7c2	-0.09123184
72	0xbc184645	-0.009294097
73	0xbd70f62a	-0.05882851
74	0x3ddd72a7	0.10812884
75	0x3cd55ad8	0.026044294
76	0xbd1c63da	-0.038181163
77	0x3c4b888c	0.012422692
78	0xbd0b59f8	-0.034021348
79	0xbd1dfb56	-0.03856977
80	0x3d54c4e7	0.051945593
81	0xbd6bf7d1	-0.057609383
82	0x3d95047e	0.072762474
83	0xbc8e5f72	-0.017379496
84	0x3d32cdd8	0.04365334
85	0xbd1fbb23	-0.038996827
86	0x3d4deaa4	0.0502726
87	0xbcd71640	-0.026255727
88	0xbb221f02	-0.002473772
89	0xbe02aa80	-0.12760353
90	0x3cf472e2	0.029839937
91	0xbcc0553e	-0.023478147
92	0x3dbcd245	0.09219793
93	0x3cb4cb26	0.022069525
94	0x3cd9cbfe	0.026586529
95	0x3d55df5a	0.052214958
96	0x3d5c44fe	0.053776734
97	0xbcaac5bb	-0.020846238
98	0x3c31ac20	0.01084426
99	0xbd1e21fa	-0.03860662
100	0x3df4e67a	0.119580224
101	0x3c8fed2c	0.017569147
102	0x3df5273f	0.11970376
103	0xbe1fa171	-0.15588929
104	0xbd23efdc	-0.04002367
105	0x3d1a86d1	0.037726227
106	0x3dbcda77	0.09221356
107	0xbd572792	-0.05252797
108	0xbd5c04c5	-0.053715486
109	0xbd8ec39c	-0.06970903
110	0xbda8ace9	-0.08236105
111	0xbe0bec9a	-0.13664475
112	0x3ac6b69f	0.0015160626
113	0xbd74e01d	-0.059784044
114	0x3dc67c5f	0.09691691
115	0xbd322d3a	-0.043500163
116	0xbb163449	-0.0022919348
117	0x3d204294	0.039125994
118	0x3dbbbd28	0.09166938
119	0xbdd34c83	-0.10317328
120	0xbc4c0e6c	-0.01245461
121	0x3da1ae23	0.07894542
122	0x3d0ef87d	0.034904946
123	0xbce44add	-0.027867729
124	0x3dce779d	0.10081408
125	0xbc61f659	-0.013791644
126	0xbe350fe9	-0.1768185
127	0xbd649819	-0.055809114
128	0x3d6c910f	0.057755526
129	0x3e2c155d	0.16805024
130	0x3dff0c3c	0.124535054
131	0xbdfc491b	-0.12318631
132	0x3d90a2d9	0.07062311
133	0x3d8490dc	0.06472942
134	0x3dada5b4	0.08478871
135	0x3d684c2f	0.05671328
136	0x3d5c897d	0.053842057
137	0x3a2ab3a9	0.0006511757

network_body._body_endoder.norm.weight f4 [138]
0	0x3f4865ca	0.7828032
1	0x3f314a46	0.6925396
2	0x3f82f087	1.0229653
3	0x3f338598	0.7012572
4	0x3f7447aa	0.9542185
5	0x3f9c328a	1.2202923
6	0x3f67fea0	0.906229
7	0x3f5af575	0.8553079
8	0x3f78c2f2	0.9717246
9	0x3f91d36e	1.1392648
10	0x3f601ab3	0.8754074
11	0x3f4816d8	0.78159857
12	0x3f6446ea	0.89170706
13	0x3f746a2c	0.95474505
14	0x3f82b298	1.0210752
15	0x3faf7f24	1.3710675
16	0x3f957021	1.1674844
17	0x3f8ab092	1.0835135
18	0x3f01fe3d	0.5077856
19	0x3f96b35d	1.1773487
20	0x3f655a00	0.89590454
21	0x3f66ebb1	0.90203387
22	0x3f5ddd8a	0.86666167
23	0x3f6a95d9	0.916349
24	0x3f750070	0.9570379
25	0x3f841164	1.0317807
26	0x3f830f45	1.0239035
27	0x3f4890cb	0.78345937
28	0x3f725bbb	0.9467122
29	0x3f5f818b	0.8730704
30	0x3f238253	0.63870734
31	0x3f8729b8	1.0559607
32	0x3f6f2f5d	0.93431646
33	0x3f525829	0.8216577
34	0x3f3af613	0.7303173
35	0x3f5e0c81	0.8673783
36	0x3f3404a9	0.7031961
37	0x3f33f19d	0.7029055
38	0x3f156632	0.5835906
39	0x3f1623a5	0.5864814
40	0x3f687c05	0.9081424
41	0x3f1a1d04	0.60200524
42	0x3f596021	0.84912306
43	0x3f178b31	0.59196764
44	0x3f32e568	0.69881296
45	0x3f54538e	0.82939994
46	0x3f28dc9c	0.65961623
47	0x3f7c82a6	0.98636854
48	0x3f9a5b6e	1.2059152
49	0x3f8cd8aa	1.1003621
50	0x3f5b2119	0.8559738
51	0x3f82cee5	1.0219389
52	0x3f632c49	0.8873945
53	0x3f76e729	0.9644647
54	0x3f78b43d	0.9715002
55	0x3f86844e	1.0509126
56	0x3f45a4b8	0.77204466
57	0x3f70468a	0.93857634
58	0x3f62cbee	0.8859242
59	0x3fa2e397	1.2725705
60	0x3f4b0175	0.792991
61	0x3fad5d6e	1.3544137
62	0x3f5b485d	0.8565729
63	0x3f9cbe91	1.2245656
64	0x3f323c07	0.69622844
65	0x3f4e0fa4	0.80492616
66	0x3f5939db	0.84853905
67	0x3f423f21	0.7587758
68	0x3f51fa43	0.82022494
69	0x3f71bbac	0.9442699
70	0x3f8f20f2	1.1181929
71	0x3f9548dc	1.166286
72	0x3f671f7d	0.9028242
73	0x3f9240b3	1.1425995
74	0x3f605234	0.8762543
75	0x3f495cda	0.78657305
76	0x3f76fa8b	0.9647605
77	0x3f7ae520	0.98005867
78	0x3f3168c0	0.6930046
79	0x3f7e31a1	0.9929448
80	0x3f0822ea	0.53178275
81	0x3f2129ab	0.62954205
82	0x3f573411	0.8406382
83	0x3f4a31df	0.7898235
84	0x3f77f5e1	0.96859556
85	0x3f3eac01	0.7448121
86	0x3f852143	1.0400776
87	0x3f5c8b31	0.8614989
88	0x3f520553	0.82039374
89	0x3f9d65d7	1.2296704
90	0x3f7e7284	0.99393487
91	0x3f8dea99	1.1087219
92	0x3f43a315	0.7642072
93	0x3f889fc2	1.0673754
94	0x3f70493e	0.9386176
95	0x3f8614f7	1.0475148
96	0x3f5987c7	0.84972805
97	0x3f82f5a1	1.023121
98	0x3f8d0a9a	1.101886
99	0x3faa5cd2	1.3309577
100	0x3f45be27	0.77243274
101	0x3fad8a49	1.3557826
102	0x3f2f748b	0.68537205
103	0x3f98b8a9	1.1931354
104	0x3f5f6d0b	0.8727576
105	0x3f875f71	1.0576001
106	0x3f71143b	0.94171494
107	0x3f676bde	0.9039897
108	0x3f4dbbcb	0.80364674
109	0x3f6ade84	0.9174578
110	0x3f3227c6	0.6959194
111	0x3f814d6b	1.0101751
112	0x3f52289c	0.82093215
113	0x3f89b5c6	1.0758598
114	0x3f7b13c9	0.98077065
115	0x3f787389	0.9705129
116	0x3f320426	0.6953758
117	0x3f770995	0.96498996
118	0x3f2a23e3	0.6646101
119	0x3f575ba2	0.84124196
120	0x3f92f36f	1.148054
121	0x3f917a2f	1.1365412
122	0x3f24c177	0.64357704
123	0x3f3df0ea	0.7419573
124	0x3f43225e	0.76224315
125	0x3f4c56ae	0.7981976
126	0x3f1415b1	0.578456
127	0x3fdf93d0	1.7466984
128	0x3fcb9fdd	1.5908161
129	0x3f87bd68	1.0604677
130	0x3fa87576	1.3160846
131	0x3f844101	1.0332338
132	0x3f6827c4	0.9068568
133	0x3f50f50a	0.816239
134	0x3facdc9d	1.3504826
135	0x3f5c11e8	0.8596482
136	0x3f9f8b0e	1.2464311
137	0x3f8cfae8	1.101407

network_body._body_endoder.norm.bias f4 [138]
0	0x3e22acfd	0.15886302
1	0x3e448833	0.19192581
2	0x3e95b971	0.29243043
3	0x3dd3b9be	0.10338162
4	0x3d374a2d	0.044748474
5	0xbd496a47	-0.04917362
6	0x3e0d9354	0.13825732
7	0x3d6f132b	0.05836789
8	0x3dbf7d96	0.093501255
9	0xbe5849bc	-0.21121877
10	0x3e98ffc2	0.29882628
11	0xbda0b34d	-0.07846699
12	0x3cc26bd8	0.023733065
13	0x3d8b694f	0.068071954
14	0xbd452020	-0.04812634
15	0xbe197935	-0.14987643
16	0x3c945692	0.018107686
17	0xbe273564	-0.1632896
18	0xbdf17bb2	-0.11791171
19	0xbe1dcf41	-0.15411092
20	0x3e5d01c9	0.21582712
21	0xbd7aeb78	-0.061259717
22	0x3e348881	0.17630197
23	0xbe888301	-0.26662448
24	0xbe0e3b53	-0.13889818
25	0xbd83ae9f	-0.06429791
26	0x3d81dfc3	0.06341507
27	0xbe431b23	-0.1905332
28	0x3d85228f	0.06500732
29	0xbe345992	-0.17612293
30	0xbe1930bc	-0.14959997
31	0x3d7a48af	0.061104473
32	0xbd8a5bba	-0.06755777
33	0xbc7886b9	-0.015168839
34	0xbe2a261a	-0.16616097
35	0xbc8e92a2	-0.017403904
36	0x3beb2022	0.0071754614
37	0xbca6d1f9	-0.020363795
38	0xbdda5cfe	-0.10662268
39	0xbe1a453a	-0.1506547
40	0xbd8647a7	-0.06556635
41	0xbd524865	-0.051338572
42	0x3dd35916	0.10319726
43	0x3e36e09f	0.17859124
44	0x3db88777	0.09010213
45	0x3e664370	0.22486663
46	0x3dc85700	0.09782219
47	0xbd6b61ab	-0.05746619
48	0x3dbf330f	0.093359105
49	0xbe0b0633	-0.13576584
50	0x3ea2fab3	0.31831893
51	0xbd0c6f2e	-0.034285717
52	0x3e9eaf12	0.30992943
53	0x3e7f4805	0.24929817
54	0x3dfea1f6	0.12433235
55	0x3d86e1fd	0.065860726
56	0x3e422e4f	0.18962978
57	0x3e0e9a69	0.1392609
58	0x3cd51fa9	0.026016073
59	0xbd75c780	-0.06000471
60	0xbda9fd02	-0.083002105
61	0xbe82b945	-0.25531974
62	0x3c099358	0.008396946
63	0xbdb16ab4	-0.0866293
64	0xbdd933f2	-0.10605611
65	0x3c2a5dac	0.01039831
66	0xbb8196a4	-0.0039547253
67	0xbe01bcb7	-0.12669645
68	0x3e146bc3	0.14494233
69	0x3d6a1727	0.057150986
70	0xbc66d26c	-0.014088254
71	0xbd47a5e6	-0.048742197
72	0xbd28e8aa	-0.04123751
73	0xbd9152de	-0.07095884
74	0x3e1a2497	0.1505302
75	0x3d85cd1c	0.06533262
76	0xbe262755	-0.16225941
77	0x3da63bab	0.081168495
78	0xbc32e7fc	-0.010919567
79	0x3d821ce4	0.06353167
80	0xbd882c4d	-0.06649075
81	0xbdde2410	-0.10846722
82	0x3c7ad09b	0.0153085245
83	0x3ddfae9b	0.10921975
84	0x3e3c72ec	0.18403214
85	0x3c6ae76c	0.014337402
86	0x3ddfe3b5	0.109321035
87	0xbc53cf9a	-0.012927914
88	0x3d399944	0.04531218
89	0xbe46e5a9	-0.19423546
90	0x3d2c61a5	0.04208531
91	0xbce114c1	-0.027475717
92	0x3e922b0b	0.28548464
93	0x3ddf0294	0.108891636
94	0x3d6f6208	0.0584431
95	0x3de4d101	0.11172677
96	0x3d96ff3b	0.073729
97	0xbdc30e9b	-0.0952427
98	0xbd74afd8	-0.05973801
99	0xbdc8d638	-0.09806484
100	0x3df5cbad	0.12001739
101	0xbd80d90a	-0.06291397
102	0x3e26c650	0.16286588
103	0xbe852e13	-0.26011714
104	0xbd878a30	-0.06618154
105	0x3aa4a478	0.0012561223
106	0x3e340104	0.17578512
107	0xbda22e55	-0.079189934
108	0xbdc415dc	-0.09574482
109	0xbdd33e29	-0.103145905
110	0xbe69a144	-0.22815424
111	0xbe506ac2	-0.20353225
112	0xbdfec146	-0.12439208
113	0xbe29b641	-0.1657343
114	0x3d5db801	0.054130558
115	0xbd80bd7b	-0.062861405
116	0xbe24b4ae	-0.16084549
117	0xbcef58f9	-0.02921723
118	0x3cbfebd7	0.023427887
119	0xbe752de2	-0.23943284
120	0xbdab9380	-0.08377743
121	0x3dbe7b83	0.09300902
122	0xbccaf25f	-0.024773775
123	0xbd457d17	-0.048214998
124	0x3db79fb9	0.089660116
125	0x3da6e046	0.081482455
126	0xbf0d66fe	-0.5523528
127	0x3d001d7a	0.03127811
128	0x3dfc4f9c	0.12319872
129	0x3d694af4	0.056956246
130	0x3e798218	0.24366033
131	0x3c590a2c	0.013247054
132	0x3dd6ba2c	0.10484728
133	0x3e27e267	0.1639496
134	0x3cbe992d	0.0232664
135	0x3e77eaf7	0.24210726
136	0x3e1613f6	0.14656052
137	0x3cbb594b	0.022869727

network_body._body_endoder.lin_layers.seq_layers.0.weight f4 [276, 138]
0	0x3df4d0a7	0.1195386
1	0x3ed54879	0.41656855
2	0x3e60e63a	0.21962824
3	0xbe02cca4	-0.12773377
4	0xbd48694f	-0.048928555
5	0x3e11b449	0.1422893
6	0x3e6b8bb6	0.23002514
7	0x3d739406	0.059467338
8	0x3e16ecc0	0.1473875
9	0xbce6f2c9	-0.02819194
10	0x3de5e72d	0.11225734
11	0xbdce77b9	-0.10081429
12	0xbb3e8e14	-0.0029076384
13	0x3de81db4	0.113337904
14	0x3e2fb4f4	0.17158872
15	0x3e88a840	0.26690865
16	0x3df46a44	0.11934331
17	0xbd7ea6a1	-0.06217063
18	0xbdcb0e7f	-0.09914874
19	0xbe444a6b	-0.19169013
20	0xbcfa06cd	-0.030520821
21	0x3d8d2a63	0.0689285
22	0x3e341766	0.17587051
23	0x3e7b9be1	0.24571182
24	0x3a32dcd2	0.0006823066
25	0x3e09209c	0.13391346
26	0x3e8f69c5	0.28010383
27	0xbdbf238d	-0.09332953
28	0xbcbec210	-0.023285896
29	0xbeb04075	-0.34424177
30	0x3e0c7529	0.13716568
31	0xbddf4f1d	-0.109037615
32	0xbde2c10d	-0.11071978
33	0xbd9771ac	-0.07394728
34	0x3b35c38f	0.002773497
35	0xbc98ce8b	-0.018653175
36	0x3e375d80	0.17906761
37	0xbd3affea	-0.045654215
38	0xbe646dfa	-0.22307578
39	0xbeee5193	-0.4654661
40	0x3d8e3fcc	0.06945762
41	0x3c2e8c35	0.010653545
42	0xbbf0d6e2	-0.007349835
43	0x3ce13e26	0.027495455
44	0x3e29827b	0.1655368
45	0x3e0a7caf	0.13524126
46	0x3d02b30e	0.03190904
47	0x3e865b62	0.26241595
48	0xbd9d357c	-0.07676217
49	0xbe20c0b9	-0.15698518
50	0x3cf5a563	0.02998609
51	0xbdc1ac7f	-0.09456729
52	0xbc3b9b69	-0.011450627
53	0xbd619bf2	-0.05508036
54	0x3e15166d	0.14559336
55	0x3e887c22	0.26657206
56	0x3e6fdd72	0.23424318
57	0x3e5e9257	0.21735512
58	0xbe0f9afc	-0.14023966
59	0x3de1c32f	0.110235564
60	0xbdf527d4	-0.11970487
61	0xbddb5ad1	-0.10710681
62	0x3d1d5664	0.038412467
63	0xbe38d00f	-0.18048118
64	0xbe5688c5	-0.20950611
65	0xbd2ffd44	-0.042966142
66	0x3dd322f7	0.103094034
67	0xbdb52cc1	-0.08846427
68	0xbd1902c6	-0.03735616
69	0x3d142589	0.03616861
70	0xbe3fa7af	-0.1871631
71	0xbe419a0c	-0.1890642
72	0x3ea0c507	0.3140032
73	0xbe65cb73	-0.22440891
74	0x3ba7e759	0.0051240143
75	0x3cb73780	0.022365332
76	0x3e2f2b70	0.17106414
77	0xbd8ff705	-0.07029537
78	0x3e03bf1f	0.12865876
79	0xbe046362	-0.12928537
80	0xbda11fab	-0.07867368
81	0x3d4a4a73	0.049387407
82	0x3de18391	0.110114224
83	0x3e389ec0	0.18029308
84	0x3e70f1ad	0.23529692
85	0x3dc3b9ba	0.09556909
86	0x3db4f368	0.088354886
87	0xbcb04f6e	-0.02152225
88	0xbe60a922	-0.21939519
89	0xbcb6ceaf	-0.022315351
90	0x3d3fadfe	0.04679679
91	0xbe48c7aa	-0.19607416
92	0x3d3504f4	0.044194177
93	0xbe117d0f	-0.14207862
94	0x3de387f2	0.11109914
95	0xbe08abbc	-0.13346761
96	0x3d8c75fb	0.068584405
97	0x3cc61b8e	0.024183061
98	0x3e6659e1	0.22495224
99	0x3e94986a	0.29022533
100	0x3db9f9a5	0.09080819
101	0xbdc8b573	-0.09800234
102	0x3d31be39	0.0433943
103	0xbd75da67	-0.060022738
104	0x3db59150	0.08865607
105	0xbe85c334	-0.2612549
106	0xbdc72e3d	-0.09725616
107	0xbe2f8037	-0.17138754
108	0xbe6f99c6	-0.23398504
109	0xbe6a58fa	-0.22885504
110	0xbd8fd090	-0.07022202
111	0xbe0250bf	-0.12726115
112	0x3e0383a6	0.12843189
113	0xbdca4843	-0.09877064
114	0x3e4c8e01	0.19976045
115	0x3bc8b058	0.0061245374
116	0x3d9b0d83	0.075709365
117	0x3c80cd9a	0.015723038
118	0x3d91e9ec	0.07124695
119	0xbe3a7a8c	-0.1821081
120	0x3db92e22	0.09042002
121	0xbce3f0a2	-0.027824704
122	0xbd1ae63a	-0.037817217
123	0xbe218983	-0.15775113
124	0xbd1bf235	-0.038072783
125	0xbe18e5f8	-0.14931476
126	0xbdd2bf30	-0.10290372
127	0xbcb1183b	-0.021618
128	0xbd2e40c4	-0.042542234
129	0x3ee6cfa3	0.4508029
130	0xbdbb79dc	-0.09154102
131	0xbe994cd8	-0.2994144
132	0x3e1722df	0.14759396
133	0xbd500004	-0.050781265
134	0x3d2792e4	0.04091157
135	0x3e050768	0.12991107
136	0x3dfcc432	0.12342109
137	0x3dc4beb0	0.09606683
138	0x3dd06cb5	0.10176984
139	0x3d19891e	0.03748428
140	0xbeb7d325	-0.35903278
141	0xbe592e35	-0.21209033
142	0xbc54910a	-0.012974033
143	0x3c72bc30	0.014815375
144	0xb907dc05	-0.00012956567
145	0xbd999305	-0.07498745
146	0xbe0c5e2a	-0.13707796
147	0xbd310897	-0.043221083
148	0x3e76a622	0.24086812
149	0xbdd15921	-0.10222078
150	0x3e035217	0.12824284
151	0xbc8d0393	-0.017213618
152	0x3e13d5b1	0.14436986
153	0x3e736028	0.2376715
154	0x3ddcd07e	0.10781954
155	0xbe3a5aa9	-0.18198647
156	0x3cbf5361	0.023355188
157	0x3d57dfd1	0.052703682
158	0xbdae69ee	-0.08516298
159	0xbcbcfd16	-0.0230699
160	0xbd353c58	-0.044247
161	0x3d375e12	0.044767447
162	0xbafd46c2	-0.0019323456
163	0x3d23e593	0.04001386
164	0x3dea673d	0.114454724
165	0x3ebef3db	0.37295422
166	0xbe1da2a9	-0.15394081
167	0x3ee484d2	0.44632584
168	0x3e238cc8	0.15971673
169	0x3c5f3c3b	0.0136252
170	0xbe000697	-0.12502514
171	0xbcd3f431	-0.025873275
172	0xbe366184	-0.17810637
173	0xbdad6d5b	-0.084681235
174	0x3dea052c	0.11426768
175	0x3e8d2d78	0.27573752
176	0xbeadbb94	-0.33932173
177	0x3bd29b2b	0.006427189
178	0x3e483d69	0.19554676
179	0x3e2bb432	0.16767958
180	0xbe813147	-0.25232908
181	0xbe19ce24	-0.15020043
182	0xbe4a2264	-0.19739681
183	0xbe2c3b22	-0.16819432
184	0x3e2b5fc9	0.16735758
185	0x3ee4df9b	0.44701847
186	0xbdf08b3e	-0.11745308
187	0xbc1cc53c	-0.009568509
188	0xbe57a742	-0.21059898
189	0xbe8157ca	-0.2526229
190	0xbe6a75a0	-0.22896433
191	0x3c9df2b8	0.019280776
192	0xbd5801f9	-0.052736256
193	0xbe4f800a	-0.20263687
194	0x3db21643	0.08695652
195	0x3e97a972	0.29621464
196	0xbdacd8a0	-0.084397554
197	0x3d3c2477	0.045933213
198	0x3ddaed7a	0.10689826
199	0x3ea7a9b2	0.32746655
200	0xbe2a280f	-0.16616844
201	0xbe77d5eb	-0.24202697
202	0x3ca25422	0.019815508
203	0x3e75bdfe	0.23998258
204	0x3e530e55	0.20610936
205	0x3dc7679d	0.097365595
206	0xbe1026d4	-0.14077312
207	0x3eae3137	0.34021923
208	0xbea7104a	-0.32629615
209	0x3d80b542	0.06284572
210	0xbda830e2	-0.08212449
211	0x3e9ee628	0.3103497
212	0xbee80042	-0.45312697
213	0xbdaf89e0	-0.085712194
214	0x3d25b5fd	0.04045676
215	0x3d419d0b	0.04726891
216	0x3e12637c	0.14295763
217	0x3e602890	0.21890473
218	0x3e0e50da	0.1389803
219	0x3e19cb4b	0.15018956
220	0x3e01b447	0.12666427
221	0x3e3faff7	0.18719469
222	0xbc43711b	-0.011928822
223	0xbd95b4bc	-0.07309863
224	0xbd3f5931	-0.04671592
225	0xbdb46ffb	-0.08810421
226	0xbd099f4a	-0.033599176
227	0x3d9a2e50	0.07528365
228	0x3e496968	0.19669116
229	0xbdc35c24	-0.09539059
230	0xbdd37296	-0.1032459
231	0xbe73fb94	-0.23826438
232	0x3da57230	0.0807842
233	0xbe5bfd8c	-0.21483439
234	0x3dc7803a	0.09741254
235	0xbe3b4271	-0.18287064
236	0xbe2a95c6	-0.16658697
237	0x3d20cac0	0.039255857
238	0xbdb2a448	-0.087227404
239	0xbdc8c0a1	-0.09802366
240	0xbd0044f1	-0.031315748
241	0x3e582ad4	0.21110088
242	0x3e890833	0.26764068
243	0xbda62776	-0.08112995
244	0x3e77907a	0.24176207
245	0x3c710b36	0.014712146
246	0x3d0f82e3	0.035036933
247	0x3d9b3e40	0.075802326
248	0xbe204f6f	-0.15655302
249	0x3e813d29	0.25241974
250	0x3e0a5d0e	0.1351206
251	0x3e90e05f	0.28296182
252	0xbd5dd4e8	-0.05415812
253	0x3e4cd99e	0.2000489
254	0x3e066e04	0.13127905
255	0xbdeb35dc	-0.11484882

network_body._body_endoder.lin_layers.seq_layers.0.bias f4 [276]
0	0xbe3f9a4e	-0.18711206
1	0xbe5faded	-0.21843691
2	0xbe8502f1	-0.25978807
3	0xbda7050e	-0.08155261
4	0xbe78efef	-0.24310277
5	0x3db6a948	0.089190066
6	0xbd8a85e2	-0.06763817
7	0xbdc5199c	-0.09624025
8	0xbdaaa115	-0.08331505
9	0xbe9215ab	-0.28532156
10	0xbe962934	-0.2932831
11	0xbed52146	-0.41626948
12	0xbe03bcad	-0.12864943
13	0xbe1ab67a	-0.15108672
14	0xbe739d2a	-0.23790422
15	0xbd11bff2	-0.035583444
16	0xbea279e2	-0.31733614
17	0xbd3fe1ba	-0.04684613
18	0xbe42e9eb	-0.19034545
19	0xbc93b498	-0.01803045
20	0x3ca84a7f	0.020543335
21	0x3c0ec1be	0.008713184
22	0xbdb10d3d	-0.08645103
23	0xbe86a721	-0.26299384
24	0xbdfcb213	-0.123386525
25	0xbb5cbf71	-0.0033683444
26	0xbdf4ddc9	-0.11956365
27	0xbe133566	-0.14375839
28	0xbe1fe783	-0.15615658
29	0x3db627b7	0.08894294
30	0xbeae3260	-0.34022808
31	0xbd97fc52	-0.07421173
32	0xbe565597	-0.20931087
33	0x3babb5ec	0.0052401926
34	0xbe3b3a3a	-0.1828393
35	0x3e57e6ce	0.21084139
36	0xbcbaeffe	-0.022819515
37	0xbd61e880	-0.05515337
38	0xbdd689ad	-0.10475478
39	0xbdd7d786	-0.10539155
40	0xbdba3bbc	-0.09093425
41	0xbe083d8b	-0.13304727
42	0xbe103434	-0.14082414
43	0xbde13cc9	-0.10997922
44	0xbd6f8d4c	-0.05848436
45	0xbdf83a78	-0.12120527
46	0xbe834706	-0.25640124
47	0x3df63e3f	0.12023591
48	0xbea28a30	-0.31746054
49	0xbdf29f91	-0.11846841
50	0xbe257b87	-0.16160403
51	0xbdd83ef0	-0.105588794
52	0x3bef2e83	0.007299246
53	0xbe615b56	-0.22007498
54	0x3d928fe0	0.07156348
55	0xbe83f689	-0.2577403
56	0xbea57d7d	-0.32322302
57	0xbe82cbcf	-0.2554612
58	0xbebd426e	-0.36964744
59	0xbe9d9f2f	-0.3078551
60	0x3dac8fb4	0.08425847
61	0xbe3e1e5b	-0.18566267
62	0xbedebb9c	-0.4350251
63	0xbed79302	-0.42104346
64	0xbe4bac11	-0.19889857
65	0xbe1fdd0b	-0.15611665
66	0x3e5c5455	0.21516545
67	0xbeb9f137	-0.36316845
68	0xbe9f2a52	-0.31086975
69	0xbe031014	-0.12799102
70	0xbd408473	-0.047001313
71	0xbdf47d75	-0.119379915
72	0xbd1b4374	-0.037906125
73	0xbef5e41b	-0.48025593
74	0xbe8a5eb9	-0.27025393
75	0xbdd4bd96	-0.10387723
76	0xbe6aec9b	-0.2294182
77	0xbebb445e	-0.36575598
78	0xbe2837ec	-0.16427583
79	0xbdcb26d1	-0.09919513
80	0x3d3a1c6f	0.045437273
81	0xbe72db9d	-0.23716588
82	0xbe804547	-0.25052854
83	0x3e680dbe	0.22661492
84	0x3b96f6e9	0.0046070707
85	0x3e02b203	0.12763219
86	0xbe3f0bb3	-0.18656807
87	0xbc626257	-0.013817391
88	0xbedbe3eb	-0.42947325
89	0xbd046806	-0.032325767
90	0xbd13f2d4	-0.03612025
91	0xbcdfd093	-0.027321136
92	0xbe801e8a	-0.250233
93	0xbe035269	-0.12824406
94	0xbda0dff9	-0.078552194
95	0xbd9bc0b7	-0.07605117
96	0xbe53fc09	-0.20701613
97	0xbedce9f8	-0.43147254
98	0xbe2ac748	-0.16677582
99	0x3da24d1b	0.07924863
100	0xbe045e21	-0.12926532
101	0x3cbcd779	0.023051964
102	0xbe92c4eb	-0.2866586
103	0xbea7f27d	-0.3280219
104	0x3d6a7ba5	0.057246823
105	0xbd240f55	-0.040053684
106	0xbe62eb4f	-0.22160076
107	0xbe4dac65	-0.20085295
108	0xbd606c15	-0.054790575
109	0xbd7ceb5c	-0.061747894
110	0xbec4dea5	-0.38451114
111	0xbe1659ff	-0.14682768
112	0xbe325411	-0.17414881
113	0xbe280401	-0.16407777
114	0xbdd37262	-0.10324551
115	0xbe3b8638	-0.18312919
116	0x3c9389a9	0.018009977
117	0xbd870576	-0.065928385
118	0xbdcc2821	-0.099685915
119	0x3bd5db58	0.006526392
120	0x3e2cfe05	0.16893776
121	0x3d47f153	0.04881413
122	0xbd91de0c	-0.0712243
123	0x3d9cce48	0.076565325
124	0xbd012609	-0.031530414
125	0xbdbd7f01	-0.0925274
126	0x3d788db2	0.060682006
127	0xbe8ccc11	-0.2749944
128	0xbe61d55a	-0.22054043
129	0x3d0f774d	0.035025883
130	0xbdd5e810	-0.10444653
131	0x3ddd7479	0.10813231
132	0xbe8d89d1	-0.27644208
133	0xbdaa707a	-0.083222345
134	0x3ddc4e93	0.10757174
135	0xbe561cc5	-0.20909412
136	0xbd315df9	-0.04330251
137	0xbe220d6a	-0.1582543
138	0x3d3ea56b	0.046544474
139	0xbe1397c6	-0.14413366
140	0xbe9f4b3b	-0.31112084
141	0xbd9e1a9a	-0.077199176
142	0xbe4ccdf4	-0.2000044
143	0xbe69f1ea	-0.22846189
144	0xbc5ec0e2	-0.0135957915
145	0xbde017b1	-0.10942019
146	0xbc4c79fc	-0.012480255
147	0x3db26c1f	0.08712029
148	0xbe09f691	-0.13472964
149	0xbdc19665	-0.094525136
150	0xbddd3627	-0.10801344
151	0xbd889bc2	-0.066703334
152	0x3e135d69	0.14391102
153	0xbe441426	-0.19148311
154	0x3dd7d3f5	0.105384745
155	0xbebc4da7	-0.36777994
156	0xbd68ee0b	-0.05686764
157	0xbe91f5f5	-0.28507963
158	0xbee0e28e	-0.43922848
159	0xbee2e195	-0.4431273
160	0xbddf706a	-0.10910113
161	0xbd4b996e	-0.04970687
162	0xbbfb49d9	-0.0076687154
163	0x3c4044f1	0.011735187
164	0xbe1a8963	-0.15091471
165	0xbd96d425	-0.07364682
166	0xbde6f993	-0.11278071
167	0xbe130a9f	-0.1435952
168	0xbe2fb1d8	-0.17157686
169	0x3b8439ac	0.0040351953
170	0xbe3d5f6c	-0.18493432
171	0xbe981173	-0.29700813
172	0xbd1a1425	-0.037616868
173	0xbdabb76b	-0.083845936
174	0xbd0fbce1	-0.03509224
175	0xbea90430	-0.33011007
176	0xbeafde42	-0.34349257
177	0xbddd31fc	-0.108005494
178	0x3da88eee	0.08230387
179	0xbe9a113b	-0.3009127
180	0xbd90aef1	-0.070646174
181	0xbe7d529e	-0.24738547
182	0xbdbc0834	-0.09181252
183	0xbe1d030e	-0.15333197
184	0xbed23b4e	-0.4106087
185	0xbd8776a8	-0.06614429
186	0xbd8bae87	-0.06820398
187	0xbdb0e282	-0.08636953
188	0xbcdd0f7c	-0.026984923
189	0x3e093521	0.13399173
190	0xbe1ba8ef	-0.15201162
191	0xbe458147	-0.19287597
192	0xbe137e12	-0.14403561
193	0xbe968e3b	-0.29405388
194	0xbe9d8392	-0.30764443
195	0xbe74aa6f	-0.2389314
196	0xbe01c6f8	-0.12673557
197	0xbdcbe056	-0.09954898
198	0xbcc6dc7f	-0.024275063
199	0xbe87c5cf	-0.26518103
200	0xbe889c30	-0.26681662
201	0xbeb49922	-0.3527308
202	0xbe49eaf8	-0.1971854
203	0xbdbfec44	-0.09371236
204	0xbe49ad32	-0.19694975
205	0xbdd38989	-0.10328967
206	0xbe46286a	-0.19351354
207	0xbe5e107a	-0.21685973
208	0xbe010f78	-0.12603557
209	0x3d285170	0.04109329
210	0xbdc286ba	-0.09498353
211	0xbdadd6ec	-0.08488259
212	0xbcd91413	-0.02649883
213	0xbde2c925	-0.110735215
214	0xbe9bf8e4	-0.30463326
215	0xbe38938a	-0.18025032
216	0xbd425e19	-0.04745302
217	0xbea2e4de	-0.31815237
218	0x3ce2baaa	0.027676899
219	0xbd973db9	-0.073848195
220	0x3da92422	0.08258845
221	0xbdaf35d5	-0.085551895
222	0xbdc5825c	-0.09644005
223	0xbe2f2bc7	-0.17106543
224	0x3d590b6d	0.052989412
225	0xbe26add0	-0.16277242
226	0xbe49d9d8	-0.19712007
227	0xbde63748	-0.11241013
228	0x3d06d3f6	0.032916985
229	0x3df95d63	0.12176015
230	0xbe98f693	-0.2987562
231	0x3e31d14f	0.17365001
232	0xbdbfe22b	-0.0936931
233	0xbdca331b	-0.09873029
234	0xbe39df86	-0.18151674
235	0xbdab750f	-0.083719365
236	0x3c525611	0.012837903
237	0xbce3b696	-0.027797025
238	0x3def8a2d	0.11696277
239	0xbe7f876b	-0.24954002
240	0xbe08e24a	-0.13367572
241	0xbdd53df3	-0.104122065
242	0xbecad5e1	-0.39616302
243	0xbd82d086	-0.06387429
244	0xbe0e8b9f	-0.13920449
245	0xbdbaf778	-0.09129232
246	0xbde2377e	-0.110457405
247	0xbe47efb2	-0.1952503
248	0xbe125c70	-0.14293075
249	0xbd9eb329	-0.07749016
250	0xbd9cbc1f	-0.07653069
251	0x3dc7b851	0.097519524
252	0xbe93e484	-0.2888528
253	0xbeaccec1	-0.3375149
254	0xbea6b7a5	-0.32561985
255	0xbe80b98d	-0.25141564

network_body._body_endoder.fc.weight f4 [64, 276]
0	0x3e31a2ee	0.17347309
1	0x3d85688b	0.065140806
2	0x3e465ced	0.19371386
3	0xbe371838	-0.17880332
4	0x3dd359e5	0.103198804
5	0x3e2b49bd	0.16727348
6	0x3d59de70	0.05319065
7	0x3e06d302	0.1316643
8	0xbe50142e	-0.20320198
9	0xbea6bd26	-0.32566184
10	0xbd0d7f31	-0.034545127
11	0x3d47662f	0.048681434
12	0xbd1088f0	-0.035286844
13	0xbe38a5ff	-0.18032072
14	0x3e50bb6d	0.20383997
15	0xbe0a7e66	-0.1352478
16	0x3e07f323	0.13276343
17	0x3dc88126	0.09790258
18	0x3da6c50f	0.08143055
19	0xbbafc77f	-0.005364358
20	0x3ea0498e	0.31306118
21	0x3e516460	0.20448446
22	0xbe213829	-0.1574408
23	0xbe09f58a	-0.13472572
24	0x3dae79b5	0.085193075
25	0xbe9f32c8	-0.3109343
26	0x3ed822de	0.42214102
27	0xbe1558d8	-0.14584672
28	0x3afa1e07	0.0019082435
29	0xbe0fd2b5	-0.14045222
30	0xbe043cfb	-0.12913887
31	0xbe00b50c	-0.12569064
32	0xbb3add95	-0.002851342
33	0x3c3619d2	0.0111145545
34	0x3e189720	0.149014
35	0xbe54855e	-0.20754
36	0xbc481b24	-0.012213502
37	0xbbbda007	-0.005786899
38	0x3e274d95	0.16338189
39	0x3dea9c22	0.11455561
40	0xbe1b1330	-0.15144038
41	0xbe80f8a9	-0.25189713
42	0xbb355d28	-0.0027673934
43	0xbe7c8e19	-0.24663581
44	0xbe1e73b6	-0.15473828
45	0x3deb8f70	0.11501968
46	0x3e1a34d5	0.15059216
47	0x3b2b3b07	0.0026127712
48	0x3eca527e	0.39516062
49	0xbeadbe2c	-0.33934152
50	0x3e21b3f9	0.1579131
51	0xbe3b7fec	-0.18310517
52	0x3d03dce8	0.032193094
53	0xbd8671ab	-0.06564649
54	0x3dc0247d	0.093819596
55	0xbd2ff565	-0.042958636
56	0x3c1be6e8	0.009515502
57	0x3c0ab1ea	0.00846527
58	0x3decba55	0.115589775
59	0xbd8ebdcd	-0.069697954
60	0xbd0c6040	-0.03427148
61	0xbe055089	-0.13019003
62	0x3ee2a4f1	0.44266465
63	0x3e187937	0.1488999
64	0x3e536acb	0.20646207
65	0xbcc721a9	-0.024308043
66	0x3d09657d	0.033544052
67	0xbd1676dc	-0.036734447
68	0x3c204bf8	0.009783737
69	0xbea935c3	-0.3304883
70	0xbdcfdaf4	-0.10149184
71	0xbe5b3dec	-0.2141034
72	0xbc8c39ed	-0.017117465
73	0x3d80b06e	0.06283651
74	0xbca07883	-0.019588714
75	0xbd8873f9	-0.06662745
76	0x3e337061	0.17523338
77	0x3e065788	0.13119328
78	0x3e00a2dd	0.12562127
79	0xbe1ae435	-0.15126117
80	0xbd3e3cf2	-0.04644484
81	0xbdb4b922	-0.08824374
82	0x3e118b54	0.14213306
83	0x3df8a726	0.12141256
84	0xbeb24dd5	-0.34825006
85	0xbd34c846	-0.044136308
86	0x3dc7bcdc	0.09752819
87	0xbe8c8840	-0.274477
88	0x3daefdce	0.08544503
89	0xbe43ea11	-0.19132258
90	0xbe86493c	-0.26227748
91	0x3e7e9dd7	0.24864899
92	0x3ee66a66	0.4500305
93	0xbe87e492	-0.26541573
94	0xbe432097	-0.19055401
95	0x3e006e67	0.12542115
96	0xbc51e646	-0.012811249
97	0x3e1d4372	0.1535776
98	0xbdde7e13	-0.108638905
99	0xbdf827c6	-0.12116961
100	0x3e46cd12	0.19414166
101	0x3b1382c7	0.002250837
102	0xbecfed9c	-0.4061097
103	0x3d48803a	0.04895041
104	0x3dc229b7	0.09480613
105	0xbe91a574	-0.28446543
106	0xbe86d1e6	-0.26332015
107	0xbda094d5	-0.078408875
108	0xbde49792	-0.11161722
109	0xbd9f7f0d	-0.07787905
110	0x3c1b0cb7	0.009463481
111	0xbe867bc0	-0.2626629
112	0xbeb4a3ee	-0.35281318
113	0x3e30b04a	0.17254749
114	0xbd8bbd87	-0.06823259
115	0x3dc31f60	0.09527469
116	0xbef56cec	-0.47934663
117	0x3e3bc580	0.18337059
118	0xbc88bd02	-0.016691688
119	0x3cd68789	0.026187675
120	0xbbe6cbcd	-0.007043338
121	0x3e2ed5fd	0.17073818
122	0x3cdc6e7b	0.02690815
123	0xbdcb4738	-0.09925693
124	0xbe63ad13	-0.22233991
125	0xbe29a4f3	-0.1656683
126	0x3da30652	0.0796019
127	0x3dd1a860	0.10237193
128	0x3e2b4c04	0.16728216
129	0xbde7ac29	-0.11312134
130	0xbe941f7c	-0.2893027
131	0xbe60956a	-0.21931997
132	0xbd9e5f8d	-0.077330686
133	0x3c9d4af1	0.019200774
134	0xbe0ba265	-0.13636167
135	0x3d0cdee5	0.034392256
136	0x3e67db09	0.22642149
137	0xbea0afd1	-0.31384137
138	0xbc6b4ed6	-0.014362058
139	0x3e37efb2	0.1796253
140	0x3decb96b	0.11558803
141	0x3d8c733e	0.06857918
142	0x3db59687	0.088666014
143	0xbe32244b	-0.17396657
144	0x3d873258	0.06601399
145	0x3e0dddd2	0.13854149
146	0xba6eda24	-0.0009111485
147	0x3df27b25	0.11839894
148	0xbcdb386e	-0.026760306
149	0xbdd165f5	-0.10224525
150	0xbd670750	-0.056403458
151	0x3d9455ce	0.072429284
152	0x3d623b8b	0.055232566
153	0xbe525391	-0.2053969
154	0x3d0d5874	0.034508184
155	0x3ebaeb40	0.36507607
156	0xbe43b83c	-0.19113249
157	0xbc86bfec	-0.016448937
158	0x3ecbc0b9	0.39795473
159	0xbe06a14e	-0.1314747
160	0xbe4087af	-0.18801759
161	0x3e9b2f09	0.30309322
162	0xbc35fbe4	-0.011107419
163	0xbe5891b0	-0.21149325
164	0xbe063f88	-0.13110173
165	0xbe07c122	-0.13257268
166	0x3dd58df2	0.104274645
167	0x3e76e89a	0.24112168
168	0xbe955ebb	-0.29173836
169	0xbc38be2a	-0.011275807
170	0xbed9b785	-0.42522827
171	0x3c7a059f	0.015260129
172	0xbd74097f	-0.05957937
173	0x3cdf3878	0.027248606
174	0xbdf55c65	-0.119805135
175	0xbe2251bf	-0.15851496
176	0x3f241229	0.6409021
177	0x3e9fff5e	0.31249517
178	0xbeb05e88	-0.34447122
179	0x3cbbeeab	0.022940954
180	0xbd8cf641	-0.06882907
181	0x3d523d48	0.051327974
182	0x3ddac74c	0.10682544
183	0xbd87356d	-0.06601987
184	0x3e141b2f	0.14463495
185	0xbdba357d	-0.09092233
186	0xbcd1dfbd	-0.025619382
187	0x3e1dc486	0.15406999
188	0xbd7cbcd7	-0.06170353
189	0x3ec4942b	0.38394293
190	0x3da17c2c	0.07885012
191	0xbd94d9f1	-0.072681315
192	0xbe46964b	-0.1939327
193	0x3f16db89	0.58928734
194	0xbd5cd065	-0.053909678
195	0x3df4ab96	0.1194679
196	0xbdd5b137	-0.10434192
197	0x3df6ccbf	0.12050771
198	0xbdd08ce8	-0.10183126
199	0x3d640adb	0.055674415
200	0x3dd8f82f	0.10594212
201	0xbd035683	-0.032064926
202	0xbedd12d5	-0.4317843
203	0xbe44a138	-0.19202125
204	0x3e54b54b	0.20772283
205	0xbbe709a6	-0.0070507107
206	0xbd742df1	-0.059614126
207	0xbe32e810	-0.17471337
208	0xbdc90966	-0.09816246
209	0xbe5bf416	-0.2147983
210	0xbe34fed5	-0.17675336
211	0xbe8b0885	-0.27154937
212	0x3d1680a0	0.03674376
213	0xbeb81d2c	-0.35959756
214	0x3e5b52b3	0.21418266
215	0x3dccea54	0.10005632
216	0xbe426197	-0.1898254
217	0xbced458e	-0.02896383
218	0x3d1cff2d	0.038329292
219	0x3d5457a3	0.05184139
220	0xbe926a93	-0.28596935
221	0x3d28bc25	0.041195054
222	0x3e08fb09	0.13377012
223	0x3e01d7b8	0.12679946
224	0xbeaf65d0	-0.34257364
225	0x3dcdf198	0.10055846
226	0x3e72947f	0.2368946
227	0xbc26ac0a	-0.010172853
228	0xbe6b9b91	-0.23008563
229	0x3cdfd9d9	0.027325558
230	0x3ce1ccd4	0.02756349
231	0x3c4397cc	0.011938047
232	0x3dd8eb72	0.10591783
233	0xbe403299	-0.18769301
234	0xbbc04060	-0.005867049
235	0x3e9a007f	0.30078503
236	0x3d499fe5	0.049224753
237	0x3c85cea1	0.01633388
238	0xbe957af1	-0.2919536
239	0x3e5af15f	0.21381138
240	0xbd85ab8f	-0.06526863
241	0x3e845320	0.2584467
242	0x3bdffd9a	0.0068356516
243	0xbe3bd2fc	-0.18342203
244	0x3d315992	0.04329831
245	0xbdedf19e	-0.116183504
246	0xbe0cf596	-0.13765559
247	0x3bb02f93	0.005376765
248	0xbe6efed2	-0.23339394
249	0x3d14f1a2	0.03636325
250	0xbe14ff2c	-0.14550465
251	0x3d441c06	0.047878288
252	0x3e85118f	0.2598996
253	0x3e1f4ef8	0.15557468
254	0x3ee6a176	0.4504506
255	0x3e92eb52	0.2869516

network_body._body_endoder.fc.bias f4 [64]
0	0xbd85390e	-0.06505023
1	0xbd68a2c8	-0.056795865
2	0xbe3f1f08	-0.18664181
3	0xbb266aea	-0.0025393316
4	0xbe233591	-0.15938403
5	0xbd8923ae	-0.066962585
6	0xbdd178f9	-0.10228152
7	0x3ddb22db	0.107000075
8	0x3c77000b	0.015075694
9	0xbd54098a	-0.05176691
10	0x3e1aae6d	0.151056
11	0x3da64ec1	0.0812049
12	0x3df176e3	0.11790254
13	0x3d8f3ad1	0.0699364
14	0xbd3af891	-0.045647208
15	0xbe068a53	-0.13138704
16	0x3bd91c11	0.00662566
17	0x3d76e078	0.060272664
18	0xbdc9c12c	-0.09851298
19	0xbd10faba	-0.03539536
20	0xbd1bdb54	-0.038050964
21	0x3da8c8b3	0.08241405
22	0x3d799846	0.060936235
23	0x3d4561f4	0.04818912
24	0x3dd4a64c	0.10383281
25	0xbd932b3f	-0.07185983
26	0xbdbcf26f	-0.09225928
27	0xbbecfda0	-0.007232383
28	0x3d2d3a63	0.04229201
29	0x3dfcee4b	0.12350138
30	0x3de11331	0.109899886
31	0x3d669e20	0.056303144
32	0x3c60078d	0.013673675
33	0xbe14b01c	-0.14520305
34	0xbdab611d	-0.08368132
35	0x3da9694c	0.08272037
36	0xbd7acfdf	-0.061233398
37	0x3d86bdfc	0.065792054
38	0xbde1ecd7	-0.11031502
39	0x3dad8e9e	0.08474468
40	0xbd18c0d7	-0.03729328
41	0xbda51fd2	-0.0806271
42	0x3d511cb5	0.051052768
43	0x3e079354	0.13239795
44	0xbb2897f2	-0.0025725332
45	0xbe3192fa	-0.17341223
46	0x3d8c8849	0.06861932
47	0x3d7a40f8	0.061097115
48	0x3dcb725a	0.0993392
49	0xbd615483	-0.055012237
50	0x3d1eb5b1	0.038747493
51	0x3bfb2c95	0.0076652267
52	0xbe146263	-0.14490657
53	0xbd449f11	-0.04800326
54	0xbe04b725	-0.12960489
55	0x3d1ee412	0.038791724
56	0xbdda479f	-0.10658192
57	0x3e32d112	0.17462566
58	0x3d9e84b3	0.07740154
59	0x3d0240e3	0.031800162
60	0x3daca022	0.084289804
61	0xbcc2ded4	-0.023787893
62	0x3dd17b9f	0.10228657
63	0xbe05f6f1	-0.13082482

action_model._continuous_distribution.log_sigma f4 [1, 2]
0	0x3ffe38bd	1.9861065
1	0x3febc174	1.8418412

action_model._continuous_distribution.mu.weight f4 [2, 64]
0	0xbe0611cd	-0.13092728
1	0x3dc08a2f	0.094013564
2	0xbe8284a3	-0.2549182
3	0x3e3f6d33	0.18694
4	0xbda58f39	-0.08083958
5	0xbe97dc21	-0.29660133
6	0xbd92a3d3	-0.07160153
7	0x3dcc8c02	0.09987642
8	0xbe280409	-0.1640779
9	0xbe6bd472	-0.2303026
10	0x3e4a0e6b	0.19732063
11	0x3e500f0a	0.20318237
12	0xbd98c54d	-0.07459507
13	0x3d049892	0.032372065
14	0xbe2277f9	-0.15866078
15	0xbe346364	-0.1761604
16	0xbd7ca2c4	-0.061678663
17	0x3d4b3fa0	0.049621224
18	0xbe83b8b8	-0.25726867
19	0x3dd6a100	0.10479927
20	0xbd04d803	-0.032432567
21	0x3d56a0ed	0.052399565
22	0x3d53af2c	0.05168073
23	0x3e01833a	0.12647715
24	0xbc51e8fc	-0.012811895
25	0xbd8ee873	-0.0697793
26	0x3e4ef7b2	0.20211676
27	0xbdf8d53f	-0.121500485
28	0xbe4dba8a	-0.2009069
29	0x3e4df289	0.20112051
30	0xbdf487c2	-0.11939956
31	0x3e5785e0	0.21047163
32	0xbe39e12d	-0.18152304
33	0xbe03e9fe	-0.1288223
34	0xbd96ced3	-0.07363667
35	0xbcc8a001	-0.024490358
36	0xbc7f8f37	-0.01559811
37	0x3d9df43c	0.077126
38	0xbde116c2	-0.10990669
39	0x3e100cc7	0.14067374
40	0xbdc5dfa3	-0.09661796
41	0x3e845cce	0.25852054
42	0x3ce87f3f	0.028380988
43	0xbd23b3de	-0.039966457
44	0xbe461ae5	-0.19346197
45	0xbd28b92f	-0.04119223
46	0x3d3bd193	0.045854162
47	0xbe25f26c	-0.16205758
48	0x3e1c7cff	0.15282057
49	0xbe4298de	-0.19003627
50	0x3d0a0645	0.033697385
51	0xbe2a81d4	-0.16651088
52	0xbdec5309	-0.11539275
53	0x3e4b681e	0.19863936
54	0xbe099b81	-0.13438226
55	0x3db1c5f3	0.08680334
56	0xbd7be77e	-0.061500065
57	0x3e86cd1d	0.26328364
58	0x3ce045fd	0.027377123
59	0xbe175874	-0.14779836
60	0x3d99cc97	0.075097255
61	0x3e58b2e2	0.21161988
62	0x3d831b3a	0.064016774
63	0xbd6ce6fc	-0.05783747
64	0xbb461355	-0.0030223925
65	0xbc2f611e	-0.010704307
66	0x3da27046	0.07931571
67	0xbd57c04b	-0.05267362
68	0x3df05dcc	0.1173664
69	0x3c9be3de	0.019029554
70	0xbd83959b	-0.06425019
71	0x3d81f36f	0.063452594
72	0xbe0fc409	-0.14039625
73	0xbd827887	-0.06370645
74	0xbd8d7cdc	-0.06908581
75	0xbc37beee	-0.011214955
76	0x3e03ac86	0.12858781
77	0x3d18519a	0.037187196
78	0x3c67cf51	0.014148549
79	0xbdf84d5f	-0.12124132
80	0xbcf90f5f	-0.030402837
81	0x3d1f2edc	0.038863048
82	0x3c8291de	0.015938696
83	0xbe158cf6	-0.14604554
84	0xbe063ed8	-0.1310991
85	0x3c93e435	0.018053154
86	0x3ccc73bb	0.024957528
87	0x3cb9e761	0.022693338
88	0xbe53c06e	-0.20678875
89	0x3db59209	0.088657446
90	0xbddd3727	-0.10801535
91	0x3c278a79	0.010225886
92	0xba4eaf8f	-0.00078844366
93	0xbc5c1742	-0.0134332795
94	0x3e048cbd	0.12944312
95	0xbd31501b	-0.043289285
96	0xbdc005b6	-0.09376089
97	0x3cae86c9	0.021304505
98	0xbcdfc3a3	-0.027314967
99	0xbca47f43	-0.020080214
100	0x3e3bebf3	0.18351726
101	0x3cc04cc9	0.023474114
102	0xbe274fe2	-0.16339067
103	0xbdbc1051	-0.091827996
104	0xbcf92ace	-0.030415919
105	0xbdcef324	-0.10104969
106	0x3e77ac84	0.24186903
107	0x3e4f50ff	0.20245741
108	0xbe019919	-0.12656058
109	0xbe265c76	-0.16246209
110	0x3dbf1296	0.09329717
111	0x3de84ffd	0.113433816
112	0x3d09cc73	0.033642244
113	0xbc3a587d	-0.011373636
114	0x3a1ea332	0.00060515397
115	0xbcabdc75	-0.020979146
116	0xbe2a0784	-0.1660443
117	0xbd26decf	-0.04073983
118	0xbddbdf2c	-0.10735926
119	0x3dd80146	0.10547118
120	0xbca62ee5	-0.020286033
121	0x3d3a6b1e	0.04551231
122	0x3bdbde64	0.0067098606
123	0x3beab1ed	0.0071623237
124	0x3cda2c5b	0.026632478
125	0xbd939163	-0.07205465
126	0x3d90a57f	0.07062816
127	0xbca56d91	-0.020193847

action_model._continuous_distribution.mu.bias f4 [2]
0	0x3d7694bd	0.06020044
1	0x3d28dd85	0.041226882

action_model._discrete_distribution.branches.0.weight f4 [1, 64]
0	0xbb1b7cab	-0.002372543
1	0x3c046173	0.008079874
2	0xbc123af4	-0.008925188
3	0xbb5ed40d	-0.0034000904
4	0x3c5fe242	0.013664784
5	0xbca58b63	-0.020208066
6	0x3c66b1e7	0.014080501
7	0x3b0ef283	0.0021812029
8	0xbc075ebc	-0.0082623325
9	0xbc1ceb56	-0.009577593
10	0xbbd38160	-0.0064546317
11	0xbcbc9f63	-0.02302522
12	0x3c829997	0.015942378
13	0x3c111b2c	0.008856576
14	0xbc992028	-0.018692091
15	0x3b59dea3	0.0033244274
16	0xbc0b121a	-0.0084882025
17	0xbc84a3cb	-0.016191384
18	0x3c15bed9	0.00913974
19	0x3b75807f	0.0037460623
20	0xbbf66315	-0.0075191357
21	0xbbafdbb6	-0.0053667678
22	0xbc9bf96f	-0.019039838
23	0x3b3490c5	0.002755211
24	0x3c119262	0.008884998
25	0xbbc883c7	-0.0061192247
26	0xbab59212	-0.0013852736
27	0x3cb385bc	0.021914355
28	0xbbd285e7	-0.006424654
29	0x3bd76fda	0.006574613
30	0xbcd11b57	-0.025525732
31	0xba2c32de	-0.0006568859
32	0xbb197a1b	-0.0023418728
33	0x3b8e2f3d	0.0043391273
34	0x3b098f8b	0.00209901
35	0xbb110284	-0.0022126744
36	0x3c1e91b2	0.009678291
37	0x3c1c0ad1	0.009524063
38	0xb9fc6d10	-0.00048146443
39	0xbb8550c4	-0.004068466
40	0xbb21f4bb	-0.002471252
41	0x3b7bd013	0.0038423582
42	0x3c2769b7	0.0102180755
43	0xbca79af2	-0.020459626
44	0xbbd5a8db	-0.0065203733
45	0xbc3e7a83	-0.011625889
46	0x3b7c8f8a	0.0038537704
47	0x3c102367	0.008797503
48	0x3cb3e589	0.021960037
49	0x3b5f9d1d	0.0034120746
50	0xbb0e0c36	-0.0021674759
51	0x3c6337ef	0.013868316
52	0xbc297590	-0.0103429705
53	0x3c9b108b	0.018928787
54	0x39760ae8	0.00023464451
55	0xbbeb1fb7	-0.0071754116
56	0xbc0dec7a	-0.008662337
57	0x3cc7769b	0.024348548
58	0x3bf6b0e2	0.0075284103
59	0x3c306217	0.010765574
60	0xbbda619b	-0.0066644675
61	0x3c0df701	0.008664847
62	0xbc87eb15	-0.016591588
63	0xbbf86f9a	-0.0075816633
