Assets/oon/simple_random_final.onnx (onnx, 482012 bytes, 17 tensors)

network_body._body_endoder.attention.query.bias f4 [138]
0	0x00000000	0.0
1	0x00000000	0.0
2	0x00000000	0.0
3	0x00000000	0.0
4	0x00000000	0.0
5	0x00000000	0.0
6	0x00000000	0.0
7	0x00000000	0.0
8	0x00000000	0.0
9	0x00000000	0.0
10	0x00000000	0.0
11	0x00000000	0.0
12	0x00000000	0.0
13	0x00000000	0.0
14	0x00000000	0.0
15	0x00000000	0.0
16	0x00000000	0.0
17	0x00000000	0.0
18	0x00000000	0.0
19	0x00000000	0.0
20	0x00000000	0.0
21	0x00000000	0.0
22	0x00000000	0.0
23	0x00000000	0.0
24	0x00000000	0.0
25	0x00000000	0.0
26	0x00000000	0.0
27	0x00000000	0.0
28	0x00000000	0.0
29	0x00000000	0.0
30	0x00000000	0.0
31	0x00000000	0.0
32	0x00000000	0.0
33	0x00000000	0.0
34	0x00000000	0.0
35	0x00000000	0.0
36	0x00000000	0.0
37	0x00000000	0.0
38	0x00000000	0.0
39	0x00000000	0.0
40	0x00000000	0.0
41	0x00000000	0.0
42	0x00000000	0.0
43	0x00000000	0.0
44	0x00000000	0.0
45	0x00000000	0.0
46	0x00000000	0.0
47	0x00000000	0.0
48	0x00000000	0.0
49	0x00000000	0.0
50	0x00000000	0.0
51	0x00000000	0.0
52	0x00000000	0.0
53	0x00000000	0.0
54	0x00000000	0.0
55	0x00000000	0.0
56	0x00000000	0.0
57	0x00000000	0.0
58	0x00000000	0.0
59	0x00000000	0.0
60	0x00000000	0.0
61	0x00000000	0.0
62	0x00000000	0.0
63	0x00000000	0.0
64	0x00000000	0.0
65	0x00000000	0.0
66	0x00000000	0.0
67	0x00000000	0.0
68	0x00000000	0.0
69	0x00000000	0.0
70	0x00000000	0.0
71	0x00000000	0.0
72	0x00000000	0.0
73	0x00000000	0.0
74	0x00000000	0.0
75	0x00000000	0.0
76	0x00000000	0.0
77	0x00000000	0.0
78	0x00000000	0.0
79	0x00000000	0.0
80	0x00000000	0.0
81	0x00000000	0.0
82	0x00000000	0.0
83	0x00000000	0.0
84	0x00000000	0.0
85	0x00000000	0.0
86	0x00000000	0.0
87	0x00000000	0.0
88	0x00000000	0.0
89	0x00000000	0.0
90	0x00000000	0.0
91	0x00000000	0.0
92	0x00000000	0.0
93	0x00000000	0.0
94	0x00000000	0.0
95	0x00000000	0.0
96	0x00000000	0.0
97	0x00000000	0.0
98	0x00000000	0.0
99	0x00000000	0.0
100	0x00000000	0.0
101	0x00000000	0.0
102	0x00000000	0.0
103	0x00000000	0.0
104	0x00000000	0.0
105	0x00000000	0.0
106	0x00000000	0.0
107	0x00000000	0.0
108	0x00000000	0.0
109	0x00000000	0.0
110	0x00000000	0.0
111	0x00000000	0.0
112	0x00000000	0.0
113	0x00000000	0.0
114	0x00000000	0.0
115	0x00000000	0.0
116	0x00000000	0.0
117	0x00000000	0.0
118	0x00000000	0.0
119	0x00000000	0.0
120	0x00000000	0.0
121	0x00000000	0.0
122	0x00000000	0.0
123	0x00000000	0.0
124	0x00000000	0.0
125	0x00000000	0.0
126	0x00000000	0.0
127	0x00000000	0.0
128	0x00000000	0.0
129	0x00000000	0.0
130	0x00000000	0.0
131	0x00000000	0.0
132	0x00000000	0.0
133	0x00000000	0.0
134	0x00000000	0.0
135	0x00000000	0.0
136	0x00000000	0.0
137	0x00000000	0.0

network_body._body_endoder.attention.value.bias f4 [138]
0	0xbdd10bfb	-0.10207363
1	0xbe3c8ccf	-0.18413089
2	0xbe887e3c	-0.2665881
3	0x3d47706a	0.04869119
4	0x3db5bf89	0.08874423
5	0xba9a19fc	-0.0011757012
6	0x3e1cf778	0.15328777
7	0xbd30e62a	-0.04318825
8	0x3e298f5b	0.16558592
9	0x3dd36c80	0.10323429
10	0xbdd24390	-0.10266793
11	0xbe3a673e	-0.18203446
12	0x3eac9ce5	0.3371345
13	0x3cbba0b6	0.022903781
14	0x3e3ca44e	0.18422052
15	0x3dc35b91	0.09538949
16	0x3e87ab1f	0.26497743
17	0xbd6406de	-0.05567061
18	0x3e51638d	0.20448132
19	0x3d70201b	0.05862437
20	0x3d42bed3	0.047545265
21	0x3d53442a	0.05157868
22	0xbdcb9de8	-0.099422276
23	0xbe39c2cc	-0.18140715
24	0x3e9ad259	0.30238608
25	0x3dd0754a	0.10178621
26	0xbd3aac74	-0.04557462
27	0xbcf09c10	-0.029371291
28	0x3dd15794	0.10221782
29	0xbe01edb6	-0.12688336
30	0x3ea4de4e	0.32200855
31	0xbe89b79f	-0.26897904
32	0x3dc9e125	0.09857396
33	0xbea6971a	-0.32537156
34	0xbc90b8f9	-0.017666327
35	0xbdb9c72d	-0.09071193
36	0xbd565f43	-0.052336942
37	0xbdcbb2a2	-0.09946181
38	0x3e0359c2	0.12827209
39	0xbe399059	-0.1812147
40	0x3e6c2b30	0.2306335
41	0xbd5850f8	-0.052811593
42	0xbe1dc30c	-0.15406436
43	0xbcb5109c	-0.022102647
44	0x3dae23d7	0.0850293
45	0x3dc89c31	0.09795416
46	0xbd641041	-0.055679563
47	0x3e3beff0	0.18353248
48	0xbe938cee	-0.28818458
49	0x3d1ee0cd	0.038788605
50	0xbd6aab24	-0.05729212
51	0xbdf9dcc4	-0.12200311
52	0xbd877db9	-0.066157766
53	0xbeb5d5c6	-0.3551466
54	0x3e4c4236	0.19947132
55	0xbe61c569	-0.22047962
56	0x3d8eb791	0.06968606
57	0x3e4a627e	0.19764134
58	0x3ea09756	0.3136546
59	0xbbdeb58c	-0.0067965444
60	0x3e85d09a	0.26135713
61	0x3de76e22	0.11300303
62	0x3eb2f9ec	0.349563
63	0x3dcd5ead	0.100278236
64	0xbdad87ac	-0.08473143
65	0xbd92002c	-0.07128939
66	0x3e846286	0.25856417
67	0xbd85bec3	-0.065305255
68	0xbe955845	-0.29168907
69	0xbe3fcff4	-0.18731672
70	0x3de0a9a0	0.109698534
71	0xbe218b0c	-0.15775698
72	0x3e763f4f	0.24047588
73	0xbd4aa2c0	-0.049471617
74	0x3d64f957	0.05590185
75	0xbd380a9f	-0.044932004
76	0x3ddf5fa0	0.10906911
77	0xbe82b184	-0.2552606
78	0xbda79e9a	-0.08184548
79	0xbec56106	-0.38550586
80	0x3e508979	0.20364942
81	0xbc3434fe	-0.010998962
82	0x3d292a9f	0.041300412
83	0xbdbdda20	-0.0927012
84	0xbe6f8ce0	-0.23393583
85	0xbcb2871f	-0.021792946
86	0x3e2f5db3	0.17125587
87	0xbda1f23a	-0.07907529
88	0x3d5a67ac	0.053321525
89	0x3e325329	0.17414536
90	0xbdf912b2	-0.12161769
91	0xbcc73ab7	-0.02431999
92	0xbd57e23b	-0.052705985
93	0x3d5e1d15	0.054226954
94	0x3df1e0d1	0.118104585
95	0x3e09802c	0.134278
96	0x3e46e5e1	0.1942363
97	0x3e121688	0.14266407
98	0x3e3ca098	0.18420637
99	0xb98e6169	-0.00027156927
100	0x3e0a8aa8	0.13529456
101	0xbe1e71ed	-0.15473147
102	0xbd946529	-0.07245857
103	0xbda9524a	-0.082676485
104	0x3ceaca0c	0.028660797
105	0xbe336b62	-0.17521432
106	0x3e09e5c7	0.1346656
107	0xbe26eff2	-0.1630247
108	0x3e1b7fa8	0.15185416
109	0xbdc9e9b9	-0.09859032
110	0x3e15ad79	0.14616956
111	0x3c00aa82	0.007853152
112	0x3e9293d6	0.28628415
113	0x3e7904fe	0.2431831
114	0x3ebddd45	0.37082878
115	0x3d709b38	0.058741778
116	0x3de099f2	0.10966863
117	0x3e020fa4	0.12701279
118	0x3e1db621	0.15401508
119	0x3dfeec75	0.12447444
120	0x3e5795a1	0.21053173
121	0x3e518ec5	0.20464619
122	0x3e26c467	0.16285859
123	0x3daa29d2	0.08308758
124	0x3c58b766	0.013227319
125	0x3d3c5a60	0.045984626
126	0xbe9f4618	-0.31108165
127	0xbe930f2a	-0.28722507
128	0xbda8f0f6	-0.08249085
129	0x3deb8870	0.11500633
130	0xbc32c1d9	-0.010910475
131	0xbeeb7513	-0.45987758
132	0xbe587f40	-0.21142292
133	0xbe7a1d28	-0.24425185
134	0x3e33fb72	0.17576388
135	0x3cd47d86	0.02593876
136	0xbe562182	-0.2091122
137	0xbdc0e9b3	-0.094195746

network_body._body_endoder.attention.norm.weight f4 [138]
0	0x3f7f7e52	0.99802125
1	0x3f881e14	1.0634179
2	0x3fb76988	1.432908
3	0x3f2406fd	0.64073163
4	0x3f4af318	0.7927718
5	0x3fb3d758	1.4050093
6	0x3f5d6b38	0.8649173
7	0x3f879b81	1.0594331
8	0x3f90257a	1.1261437
9	0x3f89e405	1.0772711
10	0x3f8ac6ed	1.0841957
11	0x3f4c1669	0.79721695
12	0x3f4ca2a1	0.7993565
13	0x3f5f15a0	0.8714237
14	0x3f3982da	0.7246529
15	0x3f73e41c	0.9526994
16	0x3f935c15	1.1512476
17	0x3f676bad	0.90398675
18	0x3ecf1808	0.40448022
19	0x3f971206	1.1802375
20	0x3f6a98ad	0.91639215
21	0x3f51e89e	0.8199557
22	0x3f53e863	0.8277647
23	0x3f1ed718	0.62046957
24	0x3f5a2504	0.8521273
25	0x3f878bcc	1.0589538
26	0x3f95f0d5	1.1714121
27	0x3f3d56e0	0.73960686
28	0x3f8db9c6	1.1072319
29	0x3f8146b7	1.0099705
30	0x3f32bc76	0.6981882
31	0x3fb6e524	1.4288678
32	0x3f8770bf	1.0581282
33	0x3f84dd00	1.0379944
34	0x3f50d022	0.81567585
35	0x3f969c62	1.1766474
36	0x3f744fb6	0.9543413
37	0x3f4f9f80	0.8110275
38	0x3f6a512c	0.9153011
39	0x3f924703	1.1427921
40	0x3f92923d	1.1450878
41	0x3f4a8b11	0.7911845
42	0x3fa31c6c	1.2743049
43	0x3f19cb42	0.6007577
44	0x3f670266	0.90238035
45	0x3f704141	0.9384957
46	0x3f533605	0.825043
47	0x3f847d49	1.0350734
48	0x3fc78e5b	1.5590318
49	0x3f8fd8ae	1.1238
50	0x3f787be1	0.97064024
51	0x3f4076c7	0.7518124
52	0x3f6afed1	0.9179507
53	0x3f845f9f	1.0341681
54	0x3f60f05a	0.8786675
55	0x3f92ac3e	1.1458814
56	0x3f5a95f5	0.85385066
57	0x3f85237b	1.0401453
58	0x3f60ec1f	0.8786029
59	0x3f945616	1.1588771
60	0x3f093f81	0.53612524
61	0x3f8b97f8	1.0905752
62	0x3f9093c3	1.1295093
63	0x3f31327d	0.69217664
64	0x3f464136	0.77443254
65	0x3f43e01a	0.76513827
66	0x3f582caa	0.8444315
67	0x3f2d236f	0.6763219
68	0x3fa626aa	1.2980549
69	0x3f7dbc12	0.991151
70	0x3f97dfa5	1.1865126
71	0x3f91b0fe	1.1382139
72	0x3f850e9b	1.0395082
73	0x3f9a4360	1.2051811
74	0x3f46dd5a	0.77681506
75	0x3f5f71ad	0.8728283
76	0x3f820dcc	1.016046
77	0x3fc2a49f	1.5206488
78	0x3f4964af	0.78669256
79	0x3fb3410c	1.4004226
80	0x3f20b7f7	0.6278071
81	0x3f68562b	0.9075648
82	0x3f55f077	0.83570045
83	0x3f6cc084	0.92481256
84	0x3f988fe5	1.1918913
85	0x3f31aeb3	0.69407195
86	0x3f96d3b4	1.1783357
87	0x3f3325a9	0.6997934
88	0x3f77d9a4	0.9681647
89	0x3f81c440	1.0138016
90	0x3f731367	0.9495148
91	0x3f7339dc	0.9501016
92	0x3f4dc94c	0.8038528
93	0x3f7f8d00	0.99824524
94	0x3f91b6e5	1.138394
95	0x3fa782a3	1.3086742
96	0x3f56b90c	0.8387611
97	0x3f6fd7a4	0.93688416
98	0x3fa8273d	1.3136975
99	0x3f83abbe	1.0286787
100	0x3f67cae0	0.9054394
101	0x3f993ee4	1.1972318
102	0x3f86f61b	1.0543855
103	0x3f7adaf5	0.9799035
104	0x3f419406	0.7561649
105	0x3f823087	1.0171059
106	0x3f6936d6	0.910993
107	0x3f3b6524	0.73201203
108	0x3f24fe89	0.6445089
109	0x3f382189	0.7192617
110	0x3f75c0d8	0.9599738
111	0x3f158b1b	0.58415383
112	0x3f7c774d	0.9861954
113	0x3f8d5eac	1.1044517
114	0x3f9da8cf	1.2317141
115	0x3f3b1261	0.7307492
116	0x3f3fb51c	0.74885726
117	0x3f37b471	0.71759707
118	0x3eeac257	0.45851395
119	0x3f2b7375	0.6697305
120	0x3fc5f0f7	1.5464162
121	0x3f9ce11c	1.2256198
122	0x3f60b1a8	0.8777108
123	0x3f3aca28	0.72964716
124	0x3f350d82	0.70723736
125	0x3f500b00	0.81266785
126	0x3f790ba8	0.9728341
127	0x3fdb3319	1.7124969
128	0x3fe02eb4	1.7514253
129	0x3f885ee6	1.0653961
130	0x3f3301d4	0.69924664
131	0x3f44b97a	0.76845515
132	0x3f623b4c	0.8837173
133	0x3f890698	1.0705137
134	0x3fb3ebf8	1.4056387
135	0x3f54e0bf	0.83155435
136	0x3f8c5b4a	1.0965359
137	0x3f8184e8	1.0118685

network_body._body_endoder.attention.norm.bias f4 [138]
0	0xbc161e1a	-0.00916245
1	0xbd419552	-0.047261544
2	0x3d75fef9	0.060057614
3	0x3b806db4	0.0039193276
4	0x3af502ad	0.0018692814
5	0xbd94d062	-0.07266308
6	0x3dd4bdcd	0.10387764
7	0xbc9be2b1	-0.019028993
8	0x3d8dc468	0.06922227
9	0xbddc28d9	-0.107499786
10	0x3dda7b84	0.1066809
11	0xbd836dbc	-0.064174145
12	0x3daca3fd	0.08429716
13	0x3c1e26fa	0.009652847
14	0x3d1ffbc1	0.03905845
15	0xbcd8e2b8	-0.026475295
16	0x3d8e7d5c	0.06957504
17	0xbdbd5654	-0.092449814
18	0x3d3b24c8	0.045689374
19	0xbccc9090	-0.024971277
20	0x3dcb09e5	0.099139966
21	0x3d2c9b54	0.04214032
22	0xbc65ae54	-0.014018614
23	0xbe45d1da	-0.19318333
24	0xbd9d3abd	-0.07677219
25	0xbd9b03f3	-0.07569113
26	0xbdea6e1b	-0.11446782
27	0xbe4752bd	-0.19465156
28	0xbd585838	-0.052818507
29	0xbe048551	-0.12941481
30	0x3c9ef7c6	0.019405257
31	0xbd2abe9d	-0.04168569
32	0x3c873894	0.01650647
33	0x3bc46d66	0.0059944866
34	0xbd9c63ca	-0.07636221
35	0x3d364669	0.044500742
36	0xbce7663f	-0.028246997
37	0xbc098947	-0.008394546
38	0xb8916d24	-6.934468e-05
39	0xbcd49201	-0.025948526
40	0x3cc63f85	0.02420021
41	0x3cd479ab	0.025936922
42	0xbb8d7a34	-0.0043175463
43	0xbc235bad	-0.009970588
44	0x3dd9ec5c	0.10640785
45	0x3dd44657	0.10364979
46	0xbd300080	-0.042969227
47	0xba3ddb55	-0.0007242461
48	0x3c0a1071	0.0084267715
49	0xbd94faaf	-0.072743766
50	0x3de2105f	0.11038279
51	0xbd11283e	-0.03543877
52	0x3e0b7b85	0.13621338
53	0xba134a2b	-0.0005618657
54	0x3e0012de	0.12507197
55	0xbc712cd1	-0.014720158
56	0x3da6b1fc	0.081394166
57	0x3d88ac54	0.06673494
58	0x3de65de8	0.1124838
59	0xbc774feb	-0.0150947375
60	0x3d49ddba	0.04928372
61	0xbd66d3b4	-0.05635424
62	0x3d3d9ac9	0.046290193
63	0xbc6f1ae9	-0.014593818
64	0xbd995078	-0.07486051
65	0x3c499961	0.012304635
66	0xbd80b2d4	-0.06284109
67	0xbdae1d67	-0.08501702
68	0xbdadfd10	-0.084955335
69	0xbe185812	-0.14877346
70	0xbd01c02c	-0.03167741
71	0xbde6df4f	-0.112730615
72	0xbc8ba57d	-0.017046684
73	0xbd813eed	-0.0631083
74	0x3e042c16	0.12907442
75	0xbcc2b28e	-0.023766782
76	0xbd8953c7	-0.067054324
77	0xbbd804e1	-0.0065923785
78	0xbcc89631	-0.02448568
79	0xbd278fd6	-0.040908657
80	0x3b4129a8	0.0029474292
81	0xbd033f02	-0.03204251
82	0xbcac5e53	-0.021041071
83	0xbb295c77	-0.0025842467
84	0x3cc152df	0.023599086
85	0xbd72bdbf	-0.059262987
86	0x3d8bcc78	0.06826109
87	0xbd672b22	-0.05643762
88	0xbd5bdbeb	-0.053676527
89	0xbd65da4e	-0.056116395
90	0x3d3e84c2	0.046513326
91	0xbb64ab66	-0.00348922
92	0x3e2bd981	0.1678219
93	0x3d289d3a	0.041165568
94	0x3d2fcf66	0.0429224
95	0x3d429a69	0.04751054
96	0x3dc44d65	0.09585074
97	0x3dcbfa9d	0.0995991
98	0x3d8ca066	0.06866531
99	0x3b2c5ae4	0.0026299292
100	0x3da72f04	0.081632644
101	0xbd153dbe	-0.036435835
102	0x3dc25795	0.09489361
103	0xbd4bd4f5	-0.04976364
104	0x3c242a70	0.0100198835
105	0x3d154306	0.03644087
106	0x3cc9217c	0.0245521
107	0xbdb61513	-0.08890738
108	0xbdabd0a6	-0.08389406
109	0xbd03c589	-0.032170806
110	0xbd6652a1	-0.056231145
111	0xbe135308	-0.14387143
112	0xbcdf807a	-0.027282942
113	0xbca02c22	-0.019552294
114	0x3dc3901d	0.09548972
115	0x3d2f08f1	0.042733137
116	0x3cd4571a	0.02592044
117	0x3d213516	0.039357267
118	0x3d164a99	0.036692236
119	0xbd05ebe6	-0.032695673
120	0xbd08eb94	-0.03342779
121	0x3d4a25fc	0.04935263
122	0x3cb3cce9	0.021948295
123	0xbc875847	-0.016521586
124	0x3d069f2d	0.032866646
125	0x3d56da18	0.052454084
126	0xbe3b2757	-0.18276726
127	0xbd20c4a4	-0.03925003
128	0x3d01c5d0	0.03168279
129	0x3e2a26aa	0.16616312
130	0x3dc999fc	0.09843823
131	0xbe29ea38	-0.16593254
132	0xbcce2263	-0.025162881
133	0x3d95f2f1	0.07321728
134	0x3dc4f999	0.096179195
135	0x3d6e5114	0.05818279
136	0x3ce3a222	0.027787272
137	0x3be46d3c	0.0069710296

network_body._body_endoder.norm.weight f4 [138]
0	0x3f2c952a	0.67415106
1	0x3f345d9a	0.70455325
2	0x3f6984f1	0.9121848
3	0x3f1ad88a	0.6048666
4	0x3f4fe378	0.81206465
5	0x3f953f6c	1.165998
6	0x3f577e48	0.84177065
7	0x3f662303	0.89897174
8	0x3f85ef7c	1.046371
9	0x3f938ed0	1.1527958
10	0x3f7757cc	0.9661834
11	0x3f3270e6	0.6970352
12	0x3f7a6200	0.97805786
13	0x3f831c88	1.0243082
14	0x3f6e30cb	0.930432
15	0x3fa92dd4	1.3217111
16	0x3f904cf9	1.127349
17	0x3f8360ba	1.0263894
18	0x3eccaa79	0.3997381
19	0x3f9238e8	1.1423616
20	0x3f2a08bc	0.6641958
21	0x3f5c8175	0.86135036
22	0x3f4d2074	0.80127645
23	0x3f29b58b	0.6629264
24	0x3f628c4e	0.8849534
25	0x3f83d69a	1.0299866
26	0x3f876ea9	1.0580646
27	0x3f33fe01	0.70309454
28	0x3f729d48	0.9477124
29	0x3f35fc46	0.71088064
30	0x3f0afbe1	0.54290587
31	0x3f722eac	0.94602466
32	0x3f65a9f6	0.89712465
33	0x3f67b7fe	0.90515125
34	0x3f1d420b	0.614289
35	0x3f6e4624	0.93075776
36	0x3f4729b3	0.77798
37	0x3f5520b9	0.83253056
38	0x3f0523cc	0.52007747
39	0x3f585647	0.8450665
40	0x3f78b456	0.9715017
41	0x3f234898	0.63782644
42	0x3f3ebaaf	0.74503607
43	0x3ef2c93b	0.47419152
44	0x3ef704d2	0.48245865
45	0x3f56c269	0.83890396
46	0x3f0dfb0a	0.5546118
47	0x3f65c083	0.89746875
48	0x3f929c3a	1.1453927
49	0x3f8754ac	1.0572715
50	0x3f4c4e2f	0.798068
51	0x3f7cf4a4	0.9881079
52	0x3f53797e	0.8260726
53	0x3f5afadb	0.85539025
54	0x3f867f7d	1.0507656
55	0x3f84de4f	1.0380343
56	0x3f2fccf3	0.686721
57	0x3f6fb971	0.93642336
58	0x3f54ff34	0.8320191
59	0x3fa89c5f	1.3172721
60	0x3f35a54a	0.70955336
61	0x3fbb6d71	1.4642774
62	0x3f85b37d	1.04454
63	0x3f8917c8	1.0710382
64	0x3f27f416	0.6560682
65	0x3f63f1b7	0.890407
66	0x3f5a90b3	0.85377043
67	0x3f2df48c	0.67951274
68	0x3f7ae02a	0.979983
69	0x3f78e100	0.9721832
70	0x3f99fa26	1.2029464
71	0x3f8cccd3	1.1000007
72	0x3f496b13	0.7867901
73	0x3f898a69	1.0745364
74	0x3f3ad769	0.7298494
75	0x3f590462	0.8477231
76	0x3f569f17	0.838365
77	0x3f989f87	1.1923684
78	0x3f1d794d	0.61513215
79	0x3f910d31	1.1332151
80	0x3eda633e	0.4265384
81	0x3f289ea7	0.65867084
82	0x3f5a1992	0.8519527
83	0x3f304ce8	0.6886735
84	0x3f73402d	0.950198
85	0x3f2cf5e7	0.6756272
86	0x3f83fc82	1.0311434
87	0x3f4a4f7b	0.7902753
88	0x3f42e5cc	0.7613189
89	0x3f987b90	1.1912708
90	0x3f8840bb	1.0644754
91	0x3fa8e9a4	1.3196301
92	0x3f4157fc	0.7552488
93	0x3fa1c622	1.263859
94	0x3f83540b	1.0260023
95	0x3f908bf0	1.1292706
96	0x3f514f32	0.8176147
97	0x3f7be859	0.9840141
98	0x3f89b319	1.0757781
99	0x3f972b81	1.1810151
100	0x3f480e70	0.7814703
101	0x3fb4274a	1.407449
102	0x3f27c39d	0.6553286
103	0x3f9e0d4e	1.234781
104	0x3f3ef793	0.7459652
105	0x3f918096	1.1367366
106	0x3f665e71	0.89987856
107	0x3f69b785	0.91295654
108	0x3f53fbcc	0.82806087
109	0x3f796a6b	0.97428006
110	0x3f64ae69	0.8932863
111	0x3f613460	0.8797054
112	0x3f635de7	0.8881516
113	0x3f82329a	1.0171692
114	0x3f60c94f	0.8780717
115	0x3f69be21	0.9130574
116	0x3f243318	0.6414046
117	0x3f65853b	0.8965642
118	0x3f1c83b6	0.61138475
119	0x3f48016b	0.78127164
120	0x3f937280	1.1519318
121	0x3f935a61	1.1511956
122	0x3f3bce0e	0.7336129
123	0x3f33ea4a	0.7027937
124	0x3f2bac81	0.67060095
125	0x3f43255f	0.762289
126	0x3f1580c2	0.58399594
127	0x3ff652d9	1.9244033
128	0x3feb6d05	1.8392645
129	0x3f6c2375	0.92241603
130	0x3f9938ee	1.1970499
131	0x3f713ab4	0.942302
132	0x3f3db99f	0.7411136
133	0x3f154e31	0.58322436
134	0x3fc6db91	1.5535756
135	0x3f59a2c9	0.85014015
136	0x3fa75880	1.3073883
137	0x3f91db66	1.139508

network_body._body_endoder.norm.bias f4 [138]
0	0x3e03302b	0.12811343
1	0x3e194b2d	0.14970084
2	0x3e84fd33	0.25974426
3	0x3db2a035	0.08721963
4	0x3d03cd1b	0.032178026
5	0xbd4c41fe	-0.049867623
6	0x3e50044c	0.20314139
7	0x3d871209	0.06595237
8	0x3e15c82a	0.14627138
9	0xbe3335d3	-0.17501001
10	0x3e90e56c	0.28300035
11	0xbd6bed7d	-0.057599533
12	0x3d1c560e	0.038168006
13	0x3d97cd6d	0.07412229
14	0xbc99f674	-0.018794276
15	0xbe00dfa3	-0.1258531
16	0x3c2be848	0.010492392
17	0xbe49096d	-0.19632502
18	0xbde96472	-0.113961115
19	0xbe10269b	-0.14077227
20	0x3e516b92	0.20451191
21	0x3c7581bf	0.014984547
22	0x3dd1755c	0.10227463
23	0xbea3c07d	-0.31982794
24	0xbe39a053	-0.18127565
25	0xbda4863c	-0.08033416
26	0x3cba3e6c	0.022734843
27	0xbe74160f	-0.2383654
28	0x3d461505	0.04835989
29	0xbe7a74f3	-0.24458675
30	0xbe0f3325	-0.13984354
31	0x3d4189b1	0.047250453
32	0xbdbfea28	-0.09370834
33	0xbc84bcce	-0.01620331
34	0xbe348c95	-0.17631753
35	0x3c213c2d	0.009841007
36	0xbd65080f	-0.05591589
37	0xbd1c500b	-0.038162272
38	0xbdca2d9e	-0.09871982
39	0xbdd5274d	-0.10407887
40	0xbd6a81cd	-0.057252694
41	0xbc1ef62b	-0.009702246
42	0x3d5924d9	0.053013656
43	0x3e1fa186	0.1558896
44	0x3dd95af9	0.10613055
45	0x3e72d870	0.23715377
46	0x3d8330e3	0.06405809
47	0xbcad191c	-0.021130137
48	0x3de04a81	0.109517105
49	0xbdea94a6	-0.11454134
50	0x3eab6db5	0.33482137
51	0xbc5d98fb	-0.013525243
52	0x3eae40af	0.34033725
53	0x3e5eef0b	0.21770875
54	0x3e26569e	0.1624398
55	0x3d98d59f	0.0746262
56	0x3e4834da	0.19551411
57	0x3e146da6	0.14494953
58	0x3ceb6608	0.028735176
59	0xbdd20eff	-0.102567665
60	0xbe10d37c	-0.14143175
61	0xbe846f2e	-0.25866073
62	0xbb4518df	-0.0030074639
63	0xbda4dff1	-0.08050526
64	0xbe00483d	-0.12527557
65	0x3cadbc67	0.021208001
66	0xbda91e20	-0.08257699
67	0xbdff2f36	-0.12460177
68	0x3daf10e6	0.08548145
69	0x3bb6182d	0.005557081
70	0xbd62f158	-0.055405945
71	0xbda15b90	-0.07878792
72	0xbd4f8dee	-0.050672464
73	0xbd937f5f	-0.072020285
74	0x3e46a29f	0.19397973
75	0x3d0fb73a	0.035086848
76	0xbe3706ea	-0.17873731
77	0x3d861b24	0.065481454
78	0x3cae0022	0.021240298
79	0x3d912608	0.07087332
80	0xbde295e8	-0.110637486
81	0xbd9623ca	-0.07331045
82	0xbd57dd99	-0.052701566
83	0x3e0f99ff	0.14023589
84	0x3e270836	0.16311726
85	0x3c7fa15c	0.015602436
86	0x3e07ae49	0.13250078
87	0xbc9e91b5	-0.019356588
88	0x3c962071	0.018326016
89	0xbe019739	-0.12655343
90	0x3db3bfa5	0.08776788
91	0x3c381b41	0.011236967
92	0x3ec7dca3	0.3903552
93	0x3e0c90fd	0.13727184
94	0x3dab0bda	0.0835187
95	0x3de7d942	0.113207355
96	0x3de4021e	0.11133216
97	0xbb5028e2	-0.003176265
98	0xbcee9b4b	-0.029126784
99	0xbda9e1f2	-0.08295049
100	0x3d8bab03	0.06819727
101	0xbdf429cc	-0.119220346
102	0x3e1cdfd4	0.15319759
103	0xbe46429d	-0.19361348
104	0xbd125d46	-0.035733484
105	0x3b87099d	0.004121019
106	0x3e006b7f	0.12541007
107	0xbdf51c2b	-0.11968263
108	0xbdfb9393	-0.12284007
109	0xbd8eb5b0	-0.06968248
110	0xbe5ad9dd	-0.21372171
111	0xbe5d19c3	-0.21591859
112	0xbe144e85	-0.14483078
113	0xbe13069e	-0.14357993
114	0x3d6af1a1	0.05735934
115	0xbb67d1c8	-0.0035372842
116	0xbe01426f	-0.12622999
117	0xbc98fb64	-0.01867456
118	0xbb7c7fcc	-0.0038528321
119	0xbe398e17	-0.18120609
120	0xbdc53af2	-0.096303836
121	0x3d96a3a5	0.073554315
122	0xbca0872a	-0.019595701
123	0xbcd1b88e	-0.025600698
124	0x3d078435	0.033085067
125	0x3e1ab69c	0.15108722
126	0xbf027a47	-0.5096783
127	0x3cee94f3	0.029123759
128	0x3dc5dee3	0.09661653
129	0x3d1d7ea6	0.03845086
130	0x3e6bdc02	0.23033145
131	0xbbcd80a7	-0.00627144
132	0x3d17c05d	0.037048686
133	0x3e3fbfd8	0.18725526
134	0x3d501dcd	0.05080967
135	0x3e828fab	0.25500235
136	0x3e0d17a0	0.13778543
137	0x3d0ed9a5	0.03487553

network_body._body_endoder.lin_layers.seq_layers.0.weight f4 [276, 138]
0	0x3d60911e	0.054825895
1	0x3efb4b4b	0.4908088
2	0x3dd4d0c7	0.103913836
3	0x3dbc059c	0.091807574
4	0xbe890fbd	-0.2676982
5	0xbeb66164	-0.35621178
6	0x3e3cd61d	0.18441053
7	0x3dd4c860	0.10389781
8	0x3e83fd04	0.25778973
9	0xbda09ea8	-0.07842761
10	0x3ec52af4	0.38509333
11	0x3ddcb8a4	0.10777405
12	0x3e4c408b	0.19946496
13	0x3ed55435	0.41665807
14	0x3f09dfa3	0.5385687
15	0x3f11b7f9	0.56921345
16	0x3f03e304	0.51518273
17	0x3c7c9dff	0.015418529
18	0xbda27522	-0.079324976
19	0x3d6fef36	0.05857774
20	0x3e48e97a	0.19620314
21	0x3e9bbce6	0.30417556
22	0x3e8cc981	0.27497485
23	0x3debc16c	0.11511502
24	0x3e66c800	0.22537231
25	0x3ef3dded	0.47630253
26	0x3e4935d7	0.19649445
27	0xbe964eb1	-0.29356912
28	0x3e49e9d8	0.1971811
29	0xbf0466e1	-0.5171948
30	0x3de6a02e	0.112610206
31	0xbeac569b	-0.33659825
32	0xbc3551ee	-0.011066897
33	0xbe5829b2	-0.21109655
34	0x3db1c1ab	0.08679517
35	0xbdf4695d	-0.11934159
36	0x3e72d20a	0.23712936
37	0xbdcff7c5	-0.1015468
38	0xbcf98da5	-0.03046305
39	0xbee13fe9	-0.43994072
40	0x3efc353f	0.49259374
41	0x3e07f97c	0.13278764
42	0xbcd02988	-0.025410429
43	0x3e68acc8	0.22722161
44	0x3e4c4db0	0.1995151
45	0x3eb6f748	0.35735536
46	0x3d9efba5	0.07762841
47	0x3e581aec	0.2110402
48	0xbea4c447	-0.32180998
49	0xbf0a9a1a	-0.5414139
50	0x3e862016	0.26196355
51	0xbccb736c	-0.02483531
52	0x3e270951	0.16312148
53	0x3d23476b	0.03986303
54	0x3e74dd36	0.2391251
55	0x3e3d4699	0.18483962
56	0x3f13bef3	0.5771324
57	0x3f05ea59	0.5231071
58	0x3e716bc5	0.23576267
59	0x3eacc03e	0.3374042
60	0xbc575c1a	-0.013144517
61	0xbd86f9cf	-0.06590616
62	0x3e6b39b3	0.2297123
63	0xbf18e591	-0.5972529
64	0xbea2a044	-0.31762898
65	0xbdaeaf38	-0.08529514
66	0x3dd56f1b	0.10421582
67	0xbea4210a	-0.32056457
68	0xbeac7f06	-0.3369066
69	0xbd5727f0	-0.05252832
70	0xbe1c0f61	-0.15240242
71	0xbeca7e96	-0.39549702
72	0x3d6c2abc	0.057657942
73	0xbf3fb5bd	-0.74886686
74	0x3df0c81d	0.117569186
75	0xbdfb5c4d	-0.12273464
76	0x3dc4dd11	0.096124776
77	0xbefde003	-0.4958497
78	0x3ce487ec	0.027896844
79	0xbf1b91ac	-0.6076915
80	0x3cd2689e	0.025684651
81	0xbdc6b63e	-0.09702729
82	0x3e9d9566	0.30778044
83	0x3e7ad755	0.24496205
84	0x3ea24b7c	0.31698215
85	0x3d7ec1d1	0.062196556
86	0x3e915d9b	0.28391728
87	0x3e0c49e2	0.13700059
88	0xbe657c50	-0.22410703
89	0xbe4a2c66	-0.19743499
90	0xbe1375e2	-0.14400437
91	0xbed02a2e	-0.4065718
92	0x3e1dd898	0.15414655
93	0xbd7d3b6d	-0.06182425
94	0x3df9a994	0.121905476
95	0xbc5eab56	-0.013590654
96	0x3e15c924	0.1462751
97	0x3e0d5139	0.13800515
98	0x3f222da7	0.6335091
99	0x3eff58cd	0.49872437
100	0x3e58ebc6	0.2118369
101	0xbe2bda90	-0.16782594
102	0xbcd1ffc4	-0.025634654
103	0xbedd8590	-0.43265963
104	0xbea636dd	-0.32463732
105	0xbf69986e	-0.91248214
106	0xbe3fe6ae	-0.18740341
107	0xbecc7c28	-0.39938474
108	0xbecdbfa3	-0.4018527
109	0xbecc32eb	-0.39882597
110	0xbe82433c	-0.2544192
111	0xbf142df5	-0.57882625
112	0xbdccbd6f	-0.09997069
113	0xbf0390a2	-0.5139257
114	0x3f006a59	0.50162274
115	0xbea0a236	-0.31373757
116	0xbe4e9cd7	-0.20177017
117	0xbe3f7110	-0.18695474
118	0xbc0e8fd2	-0.008701282
119	0xbece22c6	-0.40260905
120	0x3e798923	0.2436872
121	0x3cf852ec	0.030312978
122	0x3e040bc1	0.12895109
123	0xbdf97f26	-0.12182455
124	0x3da7a166	0.08185081
125	0xbdeefc77	-0.116692476
126	0xbd2bc5c6	-0.04193666
127	0xbe2298ba	-0.15878573
128	0xbf1d6b73	-0.6149208
129	0x3ea43015	0.32067934
130	0x3e026882	0.12735179
131	0xbea2ab53	-0.31771335
132	0x3ee50135	0.44727483
133	0xbe581707	-0.21102534
134	0x3efc4619	0.4927223
135	0x3ed53ee5	0.41649547
136	0x3f1547bb	0.58312577
137	0x3e0ae3a6	0.13563403
138	0x3e193d07	0.14964686
139	0x3d9bc50f	0.07605945
140	0xbeac39cf	-0.33637854
141	0xbe5615eb	-0.20906799
142	0xbc077dcb	-0.0082697375
143	0x3d098f5e	0.03358399
144	0x3cd28a45	0.025700698
145	0xbd7f83e4	-0.06238164
146	0xbdf856b1	-0.1212591
147	0xbd381cf3	-0.044949483
148	0x3e81561f	0.25261018
149	0xbdd87be1	-0.10570503
150	0x3e116b5a	0.14201108
151	0xbc9844e2	-0.018587533
152	0x3e2cd89f	0.1687951
153	0x3e88b23d	0.26698485
154	0x3e13b617	0.1442493
155	0xbe46e480	-0.19423103
156	0x3d8458f1	0.06462277
157	0x3e0dd5cf	0.13851093
158	0xbd62b16f	-0.055344995
159	0xbbfdfb43	-0.0077509
160	0xbc59f127	-0.013302124
161	0x3d3eb64b	0.046560567
162	0x3d0dae3f	0.034590002
163	0xbc9e6199	-0.019333648
164	0x3e360bd2	0.17777947
165	0x3eae26d2	0.34013993
166	0xbdfa6514	-0.1222631
167	0x3ec88eb4	0.39171374
168	0x3e272bd3	0.16325311
169	0x3ce34d78	0.0277469
170	0xbdfea34e	-0.12433492
171	0xbda2b478	-0.07944578
172	0xbe54415a	-0.20728055
173	0xbde33c28	-0.11095458
174	0x3d93dfd1	0.07220424
175	0x3e97bde3	0.2963706
176	0xbeb70191	-0.35743383
177	0xbc73be40	-0.014876902
178	0x3e45f6a7	0.19332372
179	0x3e3c2752	0.18374375
180	0xbe576e56	-0.21038184
181	0xbe144681	-0.1448002
182	0xbe33edd4	-0.17571193
183	0xbe0de323	-0.13856177
184	0x3e3a9a16	0.18222842
185	0x3ee838e9	0.4535592
186	0xbddd90b1	-0.10818613
187	0xbce25b72	-0.027631495
188	0xbe422f4f	-0.1896336
189	0xbe92c085	-0.28662506
190	0xbe5fef60	-0.21868658
191	0x3cf2b33e	0.029626485
192	0xbcb43950	-0.021999985
193	0xbe3a488a	-0.18191734
194	0x3e0092ae	0.12555954
195	0x3eb4feb0	0.3535056
196	0xbd352705	-0.044226665
197	0xb9c397d8	-0.0003730643
198	0x3dddb533	0.10825577
199	0x3e8c0eef	0.27355143
200	0xbe20a417	-0.15687595
201	0xbe8daeba	-0.27672368
202	0x3cf65eea	0.030074555
203	0x3e4f2da2	0.20232251
204	0x3e48e832	0.19619825
205	0x3d090ade	0.03345763
206	0xbe0ba84c	-0.13638419
207	0x3e8ba588	0.27274728
208	0xbeb25f51	-0.34838346
209	0xbcb7b815	-0.022426644
210	0xbd9b9076	-0.07595913
211	0x3e42e4cd	0.19032593
212	0xbee26416	-0.44216985
213	0xbdeeae50	-0.11654341
214	0x3d50e944	0.05100371
215	0xbc8646a4	-0.016391106
216	0x3e1fea3b	0.15616696
217	0x3e423e8a	0.1896917
218	0x3e116162	0.14197305
219	0x3e098c42	0.1343241
220	0x3e0e2e0a	0.1388475
221	0x3e4b6f15	0.19866593
222	0x3cf2e8a7	0.029651953
223	0xbd75c66d	-0.060003687
224	0xbcdfa493	-0.027300155
225	0xbd9c37c6	-0.076278254
226	0xbd0e21f6	-0.034700356
227	0x3ded23cf	0.115790956
228	0x3e266f91	0.16253497
229	0xbdabfbd6	-0.08397643
230	0xbdc995a5	-0.098429956
231	0xbe7bef8c	-0.24603099
232	0x3dad92a9	0.08475239
233	0xbe69b66c	-0.22823495
234	0x3de3a034	0.11114541
235	0xbe356ef9	-0.17718114
236	0xbdfacd3f	-0.12246179
237	0x3d2e2d11	0.042523447
238	0xbdba498b	-0.090960585
239	0xbe3632f0	-0.17792869
240	0xbd342b46	-0.04398658
241	0x3e2c4e42	0.16826728
242	0x3e8c45fa	0.27397138
243	0xbe08fbf8	-0.13377368
244	0x3e81f3e5	0.2538139
245	0x3bab33ed	0.005224696
246	0x3d81756b	0.06321224
247	0x3d9a884d	0.075455286
248	0xbe160860	-0.14651632
249	0x3e384324	0.17994362
250	0x3dcc7f7d	0.09985254
251	0x3e75b12d	0.23993368
252	0xbd6910b2	-0.056900688
253	0x3e27b564	0.16377789
254	0x3deaffa2	0.11474539
255	0xbe209955	-0.15683492

network_body._body_endoder.lin_layers.seq_layers.0.bias f4 [276]
0	0xbc6b46fe	-0.014360188
1	0xbe68415a	-0.2268118
2	0xbe69dc1c	-0.22837871
3	0xbd995bd2	-0.074882165
4	0xbe431612	-0.19051388
5	0x3c905eac	0.017623268
6	0xbd85b592	-0.065287724
7	0xbe39cb80	-0.18144035
8	0xbe1f13a4	-0.15534836
9	0xbea7ce8c	-0.3277477
10	0xbe9e4978	-0.30915427
11	0xbefee4b8	-0.49783874
12	0xbe0a813a	-0.13525859
13	0xbe1f7be3	-0.15574603
14	0xbe701add	-0.23447748
15	0xbdfd13de	-0.12357305
16	0xbea4f97c	-0.3222159
17	0xbd7e6b38	-0.06211397
18	0xbe1e9a77	-0.15488611
19	0x3c9fb670	0.019496173
20	0xbd90a3bf	-0.07062482
21	0x3dd830cf	0.105561845
22	0xbe019610	-0.126549
23	0xbe9d1f91	-0.30688146
24	0xbe5799f4	-0.21054822
25	0xbcb8ec2e	-0.022573557
26	0xbdfbefa6	-0.12301569
27	0xbe84a81a	-0.259095
28	0xbd54ec85	-0.051983375
29	0x3d493111	0.04911906
30	0xbed3d713	-0.41375026
31	0xbd47392b	-0.048638504
32	0xbe60af7f	-0.21941946
33	0xbde2fd2d	-0.11083446
34	0xbdc0de80	-0.094174385
35	0x3e28cd6b	0.1648461
36	0xbd56ef4f	-0.052474316
37	0x3c32d4fd	0.010915038
38	0xbe1507f6	-0.14553818
39	0xbdc088c0	-0.09401083
40	0xbdc89dab	-0.09795698
41	0xbe4c0099	-0.19922103
42	0xbd8e5126	-0.069490716
43	0xbdd03993	-0.101672314
44	0xbd797a29	-0.060907517
45	0xbe142b41	-0.14469625
46	0xbe907c6c	-0.28219926
47	0x3de6cbd1	0.11269344
48	0xbe8a1468	-0.26968694
49	0xbdff8858	-0.124771774
50	0xbe41d673	-0.18929462
51	0xbe1ec37b	-0.15504257
52	0xbdad7b4f	-0.08470785
53	0xbe41a650	-0.189111
54	0x3da3d367	0.07999306
55	0xbe694c09	-0.22782911
56	0xbe8751e8	-0.26429677
57	0xbe1a9087	-0.15094195
58	0xbee4595f	-0.44599435
59	0xbed23725	-0.41057697
60	0x3d5fc1c5	0.054628152
61	0xbe44ffe7	-0.19238244
62	0xbecb682c	-0.39727914
63	0xbefec368	-0.49758458
64	0xbe64913f	-0.22321032
65	0xbe5138b5	-0.20431788
66	0x3e8fb030	0.28064108
67	0xbec6193f	-0.38691136
68	0xbea59c4e	-0.32345814
69	0xbdc4a7d9	-0.09602327
70	0xbdeb0c72	-0.11476983
71	0xbde17c33	-0.11010017
72	0xbd916b3a	-0.0710053
73	0xbecc4f47	-0.39904234
74	0xbe7b42c5	-0.2453719
75	0xbe35212c	-0.17688435
76	0xbe988453	-0.29788455
77	0xbeb4f282	-0.3534127
78	0xbd69c2a1	-0.05707038
79	0xbd6f7d71	-0.05846924
80	0x3d038f32	0.032118984
81	0xbe38f4b5	-0.18062098
82	0xbe97455f	-0.29545113
83	0x3e759c4d	0.23985405
84	0xbbffbc65	-0.007804441
85	0x3dabc37a	0.083868936
86	0xbe621ca7	-0.22081243
87	0xbd4005eb	-0.046880644
88	0xbec5bd7e	-0.38621134
89	0xbd14a851	-0.03629333
90	0xbd9f2a1b	-0.07771703
91	0xbddbfa42	-0.10741092
92	0xbe855600	-0.26042175
93	0xbe1a3b1a	-0.15061608
94	0xbddd273b	-0.10798498
95	0xbdfb09c0	-0.12257719
96	0xbe87c6cb	-0.26518854
97	0xbee90981	-0.45515063
98	0xbd9dd00d	-0.07705698
99	0x3cf0acd0	0.029379278
100	0xbdb5c945	-0.0887628
101	0x3c173340	0.009228528
102	0xbe8ccc08	-0.27499413
103	0xbef27d12	-0.47361046
104	0x3e0bd96d	0.1365716
105	0xbdd98620	-0.106212854
106	0xbe78a52f	-0.24281763
107	0xbd56c9ed	-0.052438665
108	0xbd86182f	-0.065475814
109	0xbc0bde78	-0.008536927
110	0xbeea8b12	-0.45809227
111	0xbe17699c	-0.1478638
112	0xbe364c89	-0.17802633
113	0xbdec7bb2	-0.115470305
114	0xbe12ccc3	-0.14335923
115	0xbe86daf7	-0.26338932
116	0xbda98cc0	-0.08278799
117	0xbe02a8d9	-0.12759723
118	0xbe1140af	-0.14184831
119	0x3d5b40d0	0.053528607
120	0x3e77f0d3	0.24212961
121	0x3c117945	0.008879011
122	0xbde0ba90	-0.10973084
123	0x3dbd0937	0.09230273
124	0xbd209b20	-0.03921044
125	0xbde0a5b5	-0.10969106
126	0x3d7b1f92	0.061309405
127	0xbe857420	-0.2606516
128	0xbe8a501e	-0.2701425
129	0x3d81697f	0.0631895
130	0xbdc3b98e	-0.09556876
131	0x3e0bdf6d	0.13659449
132	0xbea7b88c	-0.32757986
133	0xbdbbb94f	-0.09166204
134	0x3e29d151	0.16583754
135	0xbe3c0d76	-0.1836451
136	0x3b9b54e3	0.004740344
137	0xbe57b24c	-0.21064109
138	0x3cd5adb1	0.0260838
139	0xbe28956e	-0.16463253
140	0xbde687d7	-0.11256378
141	0xbdcf68fc	-0.10127446
142	0xbe92f1eb	-0.28700194
143	0xbeb3eb9a	-0.35140687
144	0xbde5edec	-0.112270206
145	0xbe11cb1e	-0.1423764
146	0xbd0e559e	-0.03474962
147	0x3d92876c	0.07154736
148	0xbe3b8efc	-0.18316263
149	0xbdeee61c	-0.11664984
150	0xbcf8a553	-0.03035227
151	0xbdc4ad2a	-0.09603341
152	0x3e5b6801	0.21426393
153	0xbe11d2b9	-0.1424054
154	0x3e22b80e	0.15890524
155	0xbea115cb	-0.3146194
156	0xbe1c232f	-0.15247796
157	0xbe90ac30	-0.2825637
158	0xbf0ba9ff	-0.5455627
159	0xbec45b32	-0.38350827
160	0xbdf8f37b	-0.12155815
161	0xbe130432	-0.14357069
162	0x3d827a8c	0.0637103
163	0xbce4a457	-0.027910395
164	0xbe6af050	-0.22943234
165	0xbd4e06fc	-0.05029963
166	0xbde2bcac	-0.110711426
167	0xbe63f162	-0.22260049
168	0xbd4f96f6	-0.050681077
169	0x3e1c45c5	0.1526099
170	0xbe682fc3	-0.2267447
171	0xbe5cece3	-0.2157474
172	0x3dee4b5f	0.1163547
173	0xbe0b7c90	-0.13621736
174	0x3c438450	0.011933401
175	0xbe7a9172	-0.24469545
176	0xbec5f1d0	-0.3866105
177	0xbda76cf7	-0.0817508
178	0x3e5ad6da	0.21371022
179	0xbeca7a6a	-0.3954652
180	0xbda17e00	-0.07885361
181	0xbed4a7f7	-0.41534397
182	0xbdfcc5b4	-0.123423964
183	0xbdfb97a5	-0.12284783
184	0xbf01e2df	-0.507368
185	0xbd1d0dea	-0.038343348
186	0xbd904d58	-0.07046002
187	0xbda54163	-0.08069112
188	0xbd20a5c1	-0.039220575
189	0x3e063106	0.13104638
190	0xbdb6fcb9	-0.08934922
191	0xbe55dd3c	-0.20885175
192	0xbe0a6a54	-0.13517123
193	0xbed94da3	-0.42442045
194	0xbeb3c00c	-0.35107458
195	0xbe8329fa	-0.25617963
196	0xbe14de58	-0.14537942
197	0xbe2a9421	-0.16658069
198	0xbd449334	-0.047991946
199	0xbe94cb79	-0.29061487
200	0xbeb69523	-0.35660657
201	0xbed3c295	-0.41359392
202	0xbe8b457f	-0.2720146
203	0xbd66925b	-0.05629192
204	0xbe24a5b8	-0.16078842
205	0xbd97c9bb	-0.07411524
206	0xbea1f91e	-0.31635374
207	0xbe8ee5e7	-0.27909777
208	0xbde4a7cc	-0.11164817
209	0xbb12f842	-0.0022425805
210	0xbdbd008f	-0.09228622
211	0xbdf4ea80	-0.1195879
212	0xbd836c20	-0.064171076
213	0xbe744214	-0.23853332
214	0xbe3ac880	-0.18240547
215	0xbe565d36	-0.20933995
216	0xbd66136a	-0.05617086
217	0xbe9e4876	-0.30914658
218	0x3bc2765f	0.005934521
219	0xbd85a786	-0.06526093
220	0xbd2ca6fd	-0.04215144
221	0xbda74c77	-0.081688814
222	0xbdde4746	-0.10853438
223	0xbe567f35	-0.20946963
224	0x3d6ec0bb	0.05828927
225	0xbe15f56a	-0.146444
226	0xbd416fb1	-0.047225658
227	0xbe249f8b	-0.16076486
228	0xbc2e595c	-0.010641422
229	0x3d4a0230	0.049318492
230	0xbe665288	-0.2249242
231	0x3e5e1abe	0.21689889
232	0x3d562d7e	0.05228948
233	0xbdfbcd6b	-0.1229504
234	0xbde57768	-0.112044156
235	0xbdfe876f	-0.12428176
236	0x3daaf7ae	0.083480224
237	0xbddab5af	-0.10679185
238	0x3d6bb430	0.057544887
239	0xbea6f62e	-0.32609695
240	0xbdbbb44e	-0.0916525
241	0xbda02e61	-0.07821346
242	0xbe98195d	-0.2970685
243	0xbc06555f	-0.008199065
244	0xbe2cce2a	-0.1687552
245	0xbd668c4b	-0.056286138
246	0xbe2da025	-0.16955622
247	0xbe521170	-0.20514464
248	0xbe753b28	-0.23948348
249	0xbd318d91	-0.0433479
250	0xbda47d67	-0.08031731
251	0x3d68b133	0.056809615
252	0xbe318e1e	-0.1733937
253	0xbe8db5e5	-0.27677837
254	0xbe9018d0	-0.2814393
255	0xbeca8a9c	-0.39558876

network_body._body_endoder.fc.weight f4 [64, 276]
0	0x3ef5c247	0.47999784
1	0x3d208521	0.03918946
2	0x3e18a2f8	0.14905918
3	0xbe6e8b29	-0.23295273
4	0xbdc5cda2	-0.09658362
5	0x3e9a66f9	0.30156687
6	0x3cedc1b1	0.029023023
7	0x3cc8e142	0.024521474
8	0xbe2a0c46	-0.16606244
9	0xbf04d714	-0.51890683
10	0xbe8d6a18	-0.27620006
11	0xbdadaed4	-0.084806114
12	0x3dc49aba	0.09599824
13	0xbe967071	-0.2938266
14	0x3eefdbd0	0.4684739
15	0xbdd91ee1	-0.10601593
16	0x3e841c65	0.25802913
17	0x3dfcad65	0.1233776
18	0x3db41dba	0.087947324
19	0xbd2a8f51	-0.041640583
20	0x3e1ba037	0.15197836
21	0x3e2c7691	0.16842104
22	0xbe4c6095	-0.19958718
23	0xbe03d01e	-0.12872359
24	0x3ca0c813	0.019626653
25	0xbe7d8a68	-0.24759829
26	0x3f0101f3	0.503936
27	0xbe7c3cac	-0.2463252
28	0xbe7217e3	-0.23641925
29	0xbe3d8cb9	-0.18510713
30	0xbe209c6a	-0.15684667
31	0xbe3060a0	-0.1722436
32	0x3c0b3bea	0.008498171
33	0xbdd98966	-0.1062191
34	0x3e8042c4	0.25050938
35	0xbeb27284	-0.34852993
36	0xbc14f6af	-0.009092017
37	0x3e0977c3	0.13424592
38	0x3e3b6da1	0.18303539
39	0x3d4d02d1	0.050051514
40	0xbe82a56e	-0.25516838
41	0xbbf7c852	-0.007561722
42	0xbd5bfde7	-0.053708937
43	0xbedbf871	-0.42962983
44	0xbe4953aa	-0.19660822
45	0x3db2de87	0.0873385
46	0xbcc3402f	-0.023834316
47	0xbc12e9cd	-0.008966875
48	0x3f0f3a44	0.5594828
49	0xbed08f20	-0.40734196
50	0x3e9bcdf7	0.30430576
51	0xbe928019	-0.28613356
52	0x3da2df3d	0.079527356
53	0xbdc13c7c	-0.094353646
54	0x3e3bc0a8	0.18335211
55	0xbde3fc7d	-0.11132143
56	0x3dce25af	0.10065781
57	0xbccadfb2	-0.02476487
58	0xbce738d0	-0.028225332
59	0xbd3b31c7	-0.04570177
60	0xbd96524a	-0.07339914
61	0x3c8c709e	0.017143544
62	0x3edb140c	0.42788732
63	0x3c93d1b1	0.018044325
64	0x3ed93d16	0.42429417
65	0xbe40963a	-0.18807307
66	0x3dd3bf1c	0.103391856
67	0xbdd995d6	-0.10624282
68	0xbe906ca0	-0.28207874
69	0xbea4ca5a	-0.32185632
70	0xbd289b31	-0.041163627
71	0xbe0cd9c5	-0.13754947
72	0x3d2b8c57	0.041881885
73	0xbe174597	-0.1477264
74	0xbe1ffc6a	-0.15623632
75	0xbc058dfc	-0.0081515275
76	0x3d2a6e4f	0.041609105
77	0xbd0f9937	-0.035058226
78	0x3ed77fa2	0.42089564
79	0xbe66aa70	-0.22525954
80	0x3c47d124	0.012195859
81	0xbe2cf832	-0.16891554
82	0x3e4fc168	0.20288622
83	0x3e57c83d	0.21072479
84	0xbe8677d5	-0.262633
85	0xbd7c9195	-0.061662275
86	0x3e107f1b	0.14110987
87	0xbe831475	-0.25601545
88	0xbd0e74a2	-0.0347792
89	0xbe85ef59	-0.2615917
90	0xbe835ff9	-0.2565916
91	0x3ee71cc3	0.4513913
92	0x3ee0eac0	0.439291
93	0xbe4e9cf2	-0.20177057
94	0xbe9d4e24	-0.3072368
95	0x3dee91d4	0.11648908
96	0xbde692a9	-0.11258442
97	0x3e47e976	0.19522652
98	0xbe489db2	-0.19591406
99	0xbbc97184	-0.0061475653
100	0x3e96bf03	0.29442605
101	0xbdbf412f	-0.09338605
102	0xbf0d087c	-0.5509107
103	0x3d8d0971	0.068865664
104	0x3d80a03d	0.06280563
105	0xbe6de883	-0.23233227
106	0xbd63d298	-0.05562076
107	0xbdfd991e	-0.123827204
108	0xbdb251a4	-0.08706978
109	0x3dd46a32	0.10371818
110	0xbafb2123	-0.0019159656
111	0xbe8c5ea1	-0.27415946
112	0xbeac2779	-0.33623865
113	0x3ed2ed6a	0.41196758
114	0xbd6518cd	-0.055931855
115	0x3bc89f21	0.0061224853
116	0xbe930e73	-0.2872196
117	0x3e9b9454	0.30386603
118	0xbdeccc5c	-0.11562416
119	0x3df18583	0.117930435
120	0x3db1d234	0.08682671
121	0x3eb92ee4	0.36168587
122	0xbc79e4d2	-0.015252309
123	0xbd224872	-0.03961987
124	0xbe3f1e3e	-0.1866388
125	0xbde37589	-0.111064024
126	0x3e2da08b	0.16955774
127	0x3d75df5a	0.060027458
128	0x3dd53407	0.10410314
129	0xbe10441e	-0.14088485
130	0xbecb2659	-0.39677694
131	0xbe337fda	-0.1752924
132	0xbdde81cf	-0.10864603
133	0x3d114bcf	0.035472687
134	0xbe0246c2	-0.12722304
135	0xbc6ea6f5	-0.014566173
136	0x3e893f46	0.26806086
137	0xbee01775	-0.43767896
138	0x3de390a8	0.11111575
139	0x3d5461a3	0.051850926
140	0x3e7f34eb	0.2492253
141	0x3d9ee1ff	0.07757949
142	0xbd7ead8c	-0.062177226
143	0xbea73271	-0.3265567
144	0x3e90f9e9	0.28315666
145	0xbd109d3a	-0.035306193
146	0x3cd62849	0.026142256
147	0x3da65303	0.08121302
148	0xbd6f4935	-0.058419425
149	0xbe2748d1	-0.16336371
150	0xbcfc483a	-0.030796159
151	0x3d3609a2	0.04444278
152	0x3e013fed	0.12622042
153	0xbe9d240a	-0.30691558
154	0x3e313348	0.17304718
155	0x3f3fa101	0.7485505
156	0xbe0491cf	-0.12946247
157	0xbdcbb662	-0.09946896
158	0x3ecb3bc6	0.3969404
159	0xbea30cf2	-0.31845814
160	0xbe46a85e	-0.19400164
161	0x3ef642a4	0.48097718
162	0x3cf92650	0.030413777
163	0xbe2e4af8	-0.17020786
164	0xbde92de8	-0.11385709
165	0x3d5b993b	0.05361293
166	0x3e3ae7d5	0.182525
167	0x3e3124e3	0.17299227
168	0xbebc2cb7	-0.36752865
169	0xbda84f4f	-0.08218252
170	0xbf20a304	-0.6274874
171	0x3bde7d71	0.006789856
172	0xbe01aa6e	-0.1266267
173	0x3a13d342	0.0005639085
174	0xbdffb0b5	-0.12484876
175	0xbe84fa9d	-0.25972453
176	0x3f2e35ea	0.68051016
177	0x3ec52b88	0.38509774
178	0xbe8fef0e	-0.28112072
179	0x3d03be6f	0.032164034
180	0xbd1c9efa	-0.03823755
181	0x3d8abca5	0.06774262
182	0x3cd490da	0.025947977
183	0xbd340375	-0.04394861
184	0x3e2685d9	0.16261996
185	0x3c4fb133	0.012676525
186	0xbdb51f82	-0.088439
187	0x3e8659c2	0.26240355
188	0xbd8c2c0c	-0.06844339
189	0x3f073c4b	0.52826375
190	0xbb5b594e	-0.0033469978
191	0xbd17e969	-0.03708783
192	0xbe29812d	-0.16553183
193	0x3ee97000	0.45593262
194	0xbddf2e1c	-0.108974665
195	0x3df1904a	0.11795099
196	0xbd9bcd1f	-0.07607483
197	0x3dd2bbb4	0.10289708
198	0xbe2fc3b1	-0.17164494
199	0x3ec8b449	0.39200047
200	0x3d21f0c6	0.03953626
201	0xbd8dce4d	-0.069241144
202	0xbed775fd	-0.42082205
203	0xbeb851d3	-0.35999927
204	0x3ed34e1f	0.4127054
205	0xbcebcc2d	-0.028783882
206	0xbd9f9b14	-0.07793251
207	0xbe161ed7	-0.14660202
208	0xbe20aeb9	-0.15691651
209	0xbe81c69e	-0.25346845
210	0xbdff5967	-0.12468224
211	0xbd811df8	-0.06304544
212	0x3c16c20c	0.009201538
213	0xbeba9fc7	-0.36450025
214	0x3eaded40	0.3397007
215	0x3e1b6af3	0.15177517
216	0xbd9a50e4	-0.0753496
217	0x3d89fc28	0.06737548
218	0x3a5cf664	0.0008429049
219	0xbd85606f	-0.06512534
220	0xbd9f6cfc	-0.07784459
221	0x3d397372	0.045276113
222	0x3e33e511	0.1756785
223	0xbdddc543	-0.1082864
224	0xbe953f1c	-0.2914971
225	0x3e19830b	0.14991395
226	0x3eac3c8e	0.3363995
227	0x3d067846	0.032829545
228	0xbe07be6b	-0.13256232
229	0x3e09dba3	0.13462691
230	0xbc8e0c5e	-0.017339882
231	0x3e2939e0	0.16525984
232	0xbc7f9330	-0.015599057
233	0xbdab7a79	-0.08372969
234	0xbe2b2b1b	-0.16715662
235	0x3eabb0ff	0.33533475
236	0x3e3267be	0.17422387
237	0x3d83481f	0.064102404
238	0xbd411728	-0.047141224
239	0x3dec669b	0.11543008
240	0xbdbc2336	-0.091864035
241	0x3ed2cf3d	0.41173735
242	0x3dcbeb0e	0.099569425
243	0xbddf7d72	-0.10912599
244	0x3da4c62f	0.08045613
245	0xbd3ca8ed	-0.046059538
246	0xbda36158	-0.07977551
247	0x3d02eb12	0.03196246
248	0xbdfcbace	-0.12340318
249	0xbc46cceb	-0.012133817
250	0xbe0f6aae	-0.14005539
251	0x3d62ce1d	0.055372346
252	0x3e3c15bb	0.18367665
253	0x3e3ba4a4	0.18324524
254	0x3ef6a1b4	0.48170245
255	0x3e44f0b9	0.19232453

network_body._body_endoder.fc.bias f4 [64]
0	0xbd570d3b	-0.052502852
1	0xbc738901	-0.014864207
2	0xbdf0fe77	-0.11767285
3	0x3d537e57	0.05163416
4	0xbe12c638	-0.14333427
5	0xbd1a1389	-0.037616286
6	0xbded79d4	-0.115955025
7	0x3ddb82b9	0.10718293
8	0xbd258a2c	-0.040414974
9	0xbd7f12d0	-0.0622738
10	0x3e3a2b1f	0.18180512
11	0x3d7e2b8e	0.062053256
12	0x3df21b35	0.118215956
13	0x3d68208e	0.05667167
14	0xbd4d9bc2	-0.05019737
15	0xbe22d452	-0.15901306
16	0xbc3e4a3c	-0.011614379
17	0x3d76e7eb	0.060279768
18	0xbdb80e7c	-0.08987138
19	0xbcb35c6c	-0.021894656
20	0xbd1c457d	-0.038152207
21	0x3da8c6fc	0.08241078
22	0x3d7fe719	0.06247625
23	0x3cf91886	0.030407201
24	0x3d81e93b	0.06343313
25	0xbd6e30d4	-0.058152035
26	0xbd87736b	-0.06613811
27	0xbc022636	-0.0079436805
28	0x3d89bead	0.06725822
29	0x3e2160fd	0.15759654
30	0x3df4f136	0.1196007
31	0x3dd9de08	0.10638052
32	0x3c144185	0.009048824
33	0xbe22c394	-0.1589492
34	0xbdab4d6c	-0.083643764
35	0x3d99de94	0.075131565
36	0xbddbdd79	-0.10735602
37	0x3da81700	0.08207512
38	0xbcd0c285	-0.02548338
39	0x3c5da1b1	0.01352732
40	0xbd2d5a71	-0.04232258
41	0xbdd546e9	-0.10413916
42	0x3d86ed19	0.065881915
43	0x3df9fb24	0.122061044
44	0xbd9dfa6d	-0.077137806
45	0xbe5cedcd	-0.21575089
46	0x3d08798b	0.033319037
47	0x3d5ae369	0.05343953
48	0x3e117bb8	0.14207351
49	0xbdc7b080	-0.097504616
50	0x3d1e41c1	0.038636927
51	0x3d5e4d48	0.05427292
52	0xbe1c1555	-0.15242513
53	0xbd7744b8	-0.06036827
54	0xbe132eed	-0.1437337
55	0x3d1e6fb4	0.038680747
56	0xbddbd1b0	-0.10733354
57	0x3e38d800	0.18051147
58	0x3d5ded95	0.054181654
59	0x3d7b19a6	0.061303757
60	0x3dac628a	0.08417232
61	0xbd42addc	-0.047529086
62	0x3dd17e63	0.102291845
63	0xbdc944cd	-0.09827576

action_model._continuous_distribution.log_sigma f4 [1, 2]
0	0x40253c31	2.5817988
1	0x401b0fc0	2.4228363

action_model._continuous_distribution.mu.weight f4 [2, 64]
0	0xbe7b2841	-0.24527074
1	0x3e16bf06	0.14721307
2	0xbebc403c	-0.36767757
3	0x3e899dd3	0.26878223
4	0xbdc7119c	-0.097201556
5	0xbe845117	-0.25843117
6	0xbd36f48a	-0.044666804
7	0x3dfca21b	0.12335607
8	0xbe74e9d8	-0.2391733
9	0xbeb52953	-0.3538309
10	0x3e822a2f	0.2542281
11	0x3eb57ffd	0.3544921
12	0xbd281263	-0.04103316
13	0x3e0a642c	0.13514775
14	0xbe7a556e	-0.24446651
15	0xbea1677a	-0.3152426
16	0xbdd313ba	-0.10306497
17	0x3d966167	0.07342797
18	0xbea7432e	-0.32668442
19	0x3e4fac71	0.20280625
20	0xbd72beb9	-0.05926392
21	0x3d9da17d	0.07696817
22	0x3d9a9c51	0.07549346
23	0x3e0f852c	0.14015645
24	0x3d170855	0.03687318
25	0xbdc34b2a	-0.09535821
26	0x3ea95aee	0.33077186
27	0xbe73ea12	-0.2381976
28	0xbe6e4b8b	-0.23271005
29	0x3ea6344f	0.32461783
30	0xbdbf77fe	-0.093490586
31	0x3eb8b151	0.36072782
32	0xbe90abd6	-0.282561
33	0xbe0eab72	-0.13932589
34	0xbdc9ec46	-0.09859519
35	0xbb3c135a	-0.0028698058
36	0xbd989c71	-0.07451714
37	0x3e7b8646	0.2456294
38	0xbe30ab0e	-0.17252752
39	0x3e96b3d5	0.29434076
40	0xbe6551bf	-0.22394465
41	0x3edc0091	0.42969182
42	0x3d8c25ed	0.06843171
43	0xbc7bb94b	-0.0153640015
44	0xbeb91596	-0.3614928
45	0xbd80535d	-0.062659
46	0x3e269158	0.16266382
47	0xbe8599e7	-0.2609398
48	0x3dd14440	0.10218096
49	0xbe9a4428	-0.30130124
50	0x3d6b10e2	0.057389148
51	0xbe8e5c39	-0.27804735
52	0xbe6e6adb	-0.2328295
53	0x3e55a2d1	0.20862891
54	0xbe29488b	-0.16531579
55	0x3e46d5dc	0.19417518
56	0xbdafc0de	-0.08581708
57	0x3ea9d06c	0.33166826
58	0x3baf934d	0.005358136
59	0xbe56d24e	-0.20978662
60	0x3dcdf06c	0.100556225
61	0x3ec972d7	0.39345428
62	0x3db355f3	0.08756628
63	0xbc148596	-0.0090650525
64	0x3ca9f8cd	0.02074852
65	0x3e007b86	0.1254712
66	0x3e099071	0.13434006
67	0xbb80db2e	-0.0039323783
68	0x3dab040d	0.08350382
69	0x3d6452f3	0.05574317
70	0xbe0dc073	-0.13842945
71	0x3e125043	0.1428843
72	0xbe1f9197	-0.15582882
73	0xbd5c86c2	-0.053839453
74	0xbd003cfc	-0.03130816
75	0xbd595c25	-0.05306639
76	0x3e779bdd	0.24180551
77	0xbd8b79b1	-0.0681032
78	0x3da7285a	0.08161993
79	0xbe14afe4	-0.14520222
80	0xbd74f429	-0.05980316
81	0x3df2339e	0.118262514
82	0x3e0ee3eb	0.13954131
83	0xbe6a30da	-0.22870198
84	0xbe6a00ba	-0.2285184
85	0x3dcbe2a4	0.09955338
86	0x3dd89874	0.10575953
87	0xbcfc30f8	-0.030785069
88	0xbe4b3d00	-0.19847488
89	0x3d89da80	0.06731129
90	0xbe613495	-0.21992715
91	0xbd942f97	-0.072356395
92	0x3de8c182	0.11365034
93	0x3d139d40	0.036038637
94	0x3e6b3701	0.22970201
95	0xbdd54588	-0.10413653
96	0xbe186e01	-0.14885713
97	0xbb6706ee	-0.0035251933
98	0xbddddd22	-0.10833193
99	0x3cdae465	0.026720235
100	0x3e4acc8c	0.19804591
101	0x3c51b26d	0.012798888
102	0xbdaa744f	-0.08322965
103	0xbe31f062	-0.17376855
104	0xbcc19d45	-0.023634562
105	0xbdec500a	-0.11538704
106	0x3e48f642	0.1962519
107	0x3e812986	0.25226992
108	0xbd850769	-0.06495554
109	0xbe97ee7b	-0.29674134
110	0x3dbc1aad	0.091847755
111	0x3e4f5cff	0.20250319
112	0x3dd383f7	0.10327905
113	0xbd58273c	-0.05277179
114	0x3da47317	0.08029764
115	0x3d6a04eb	0.057133596
116	0xbe4e7c36	-0.2016457
117	0xbe1ebe15	-0.15502198
118	0xbe3a1fa1	-0.18176128
119	0x3dcd8b91	0.10036386
120	0xbdcebbc2	-0.10094406
121	0x3e15883d	0.14602752
122	0xbcfab355	-0.03060309
123	0x3ceb0f9b	0.028693965
124	0x3ddca718	0.10774058
125	0xbda9291f	-0.08259796
126	0x3e197c88	0.14988911
127	0xbdb6f632	-0.08933677

action_model._continuous_distribution.mu.bias f4 [2]
0	0x3daa2106	0.0830708
1	0x3df44e37	0.11928981

action_model._discrete_distribution.branches.0.weight f4 [1, 64]
0	0xbb1b7cab	-0.002372543
1	0x3c046173	0.008079874
2	0xbc123af4	-0.008925188
3	0xbb5ed40d	-0.0034000904
4	0x3c5fe242	0.013664784
5	0xbca58b63	-0.020208066
6	0x3c66b1e7	0.014080501
7	0x3b0ef283	0.0021812029
8	0xbc075ebc	-0.0082623325
9	0xbc1ceb56	-0.009577593
10	0xbbd38160	-0.0064546317
11	0xbcbc9f63	-0.02302522
12	0x3c829997	0.015942378
13	0x3c111b2c	0.008856576
14	0xbc992028	-0.018692091
15	0x3b59dea3	0.0033244274
16	0xbc0b121a	-0.0084882025
17	0xbc84a3cb	-0.016191384
18	0x3c15bed9	0.00913974
19	0x3b75807f	0.0037460623
20	0xbbf66315	-0.0075191357
21	0xbbafdbb6	-0.0053667678
22	0xbc9bf96f	-0.019039838
23	0x3b3490c5	0.002755211
24	0x3c119262	0.008884998
25	0xbbc883c7	-0.0061192247
26	0xbab59212	-0.0013852736
27	0x3cb385bc	0.021914355
28	0xbbd285e7	-0.006424654
29	0x3bd76fda	0.006574613
30	0xbcd11b57	-0.025525732
31	0xba2c32de	-0.0006568859
32	0xbb197a1b	-0.0023418728
33	0x3b8e2f3d	0.0043391273
34	0x3b098f8b	0.00209901
35	0xbb110284	-0.0022126744
36	0x3c1e91b2	0.009678291
37	0x3c1c0ad1	0.009524063
38	0xb9fc6d10	-0.00048146443
39	0xbb8550c4	-0.004068466
40	0xbb21f4bb	-0.002471252
41	0x3b7bd013	0.0038423582
42	0x3c2769b7	0.0102180755
43	0xbca79af2	-0.020459626
44	0xbbd5a8db	-0.0065203733
45	0xbc3e7a83	-0.011625889
46	0x3b7c8f8a	0.0038537704
47	0x3c102367	0.008797503
48	0x3cb3e589	0.021960037
49	0x3b5f9d1d	0.0034120746
50	0xbb0e0c36	-0.0021674759
51	0x3c6337ef	0.013868316
52	0xbc297590	-0.0103429705
53	0x3c9b108b	0.018928787
54	0x39760ae8	0.00023464451
55	0xbbeb1fb7	-0.0071754116
56	0xbc0dec7a	-0.008662337
57	0x3cc7769b	0.024348548
58	0x3bf6b0e2	0.0075284103
59	0x3c306217	0.010765574
60	0xbbda619b	-0.0066644675
61	0x3c0df701	0.008664847
62	0xbc87eb15	-0.016591588
63	0xbbf86f9a	-0.0075816633
