Assets/oon/simple_random_improved.onnx (onnx, 482012 bytes, 17 tensors)

network_body._body_endoder.attention.query.bias f4 [138]
0.0 0.0 0.0 0.0 0.0 0.0 0.0 0.0
0.0 0.0 0.0 0.0 0.0 0.0 0.0 0.0
0.0 0.0 0.0 0.0 0.0 0.0 0.0 0.0
0.0 0.0 0.0 0.0 0.0 0.0 0.0 0.0
0.0 0.0 0.0 0.0 0.0 0.0 0.0 0.0
0.0 0.0 0.0 0.0 0.0 0.0 0.0 0.0
0.0 0.0 0.0 0.0 0.0 0.0 0.0 0.0
0.0 0.0 0.0 0.0 0.0 0.0 0.0 0.0
0.0 0.0 0.0 0.0 0.0 0.0 0.0 0.0
0.0 0.0 0.0 0.0 0.0 0.0 0.0 0.0
0.0 0.0 0.0 0.0 0.0 0.0 0.0 0.0
0.0 0.0 0.0 0.0 0.0 0.0 0.0 0.0
0.0 0.0 0.0 0.0 0.0 0.0 0.0 0.0
0.0 0.0 0.0 0.0 0.0 0.0 0.0 0.0
0.0 0.0 0.0 0.0 0.0 0.0 0.0 0.0
0.0 0.0 0.0 0.0 0.0 0.0 0.0 0.0
0.0 0.0 0.0 0.0 0.0 0.0 0.0 0.0
0.0 0.0
00000000: 0000 0000 0000 0000 0000 0000 0000 0000
00000010: 0000 0000 0000 0000 0000 0000 0000 0000
00000020: 0000 0000 0000 0000 0000 0000 0000 0000
00000030: 0000 0000 0000 0000 0000 0000 0000 0000
00000040: 0000 0000 0000 0000 0000 0000 0000 0000
00000050: 0000 0000 0000 0000 0000 0000 0000 0000
00000060: 0000 0000 0000 0000 0000 0000 0000 0000
00000070: 0000 0000 0000 0000 0000 0000 0000 0000
00000080: 0000 0000 0000 0000 0000 0000 0000 0000
00000090: 0000 0000 0000 0000 0000 0000 0000 0000
000000a0: 0000 0000 0000 0000 0000 0000 0000 0000
000000b0: 0000 0000 0000 0000 0000 0000 0000 0000
000000c0: 0000 0000 0000 0000 0000 0000 0000 0000
000000d0: 0000 0000 0000 0000 0000 0000 0000 0000
000000e0: 0000 0000 0000 0000 0000 0000 0000 0000
000000f0: 0000 0000 0000 0000 0000 0000 0000 0000
00000100: 0000 0000 0000 0000 0000 0000 0000 0000
00000110: 0000 0000 0000 0000 0000 0000 0000 0000
00000120: 0000 0000 0000 0000 0000 0000 0000 0000
00000130: 0000 0000 0000 0000 0000 0000 0000 0000
00000140: 0000 0000 0000 0000 0000 0000 0000 0000
00000150: 0000 0000 0000 0000 0000 0000 0000 0000
00000160: 0000 0000 0000 0000 0000 0000 0000 0000
00000170: 0000 0000 0000 0000 0000 0000 0000 0000
00000180: 0000 0000 0000 0000 0000 0000 0000 0000
00000190: 0000 0000 0000 0000 0000 0000 0000 0000
000001a0: 0000 0000 0000 0000 0000 0000 0000 0000
000001b0: 0000 0000 0000 0000 0000 0000 0000 0000
000001c0: 0000 0000 0000 0000 0000 0000 0000 0000
000001d0: 0000 0000 0000 0000 0000 0000 0000 0000
000001e0: 0000 0000 0000 0000 0000 0000 0000 0000
000001f0: 0000 0000 0000 0000 0000 0000 0000 0000
00000200: 0000 0000 0000 0000 0000 0000 0000 0000
00000210: 0000 0000 0000 0000 0000 0000 0000 0000
00000220: 0000 0000 0000 0000

network_body._body_endoder.attention.value.bias f4 [138]
-0.12700947 -0.22642094 -0.2648251 0.07575038 0.08833403 -0.06778799 0.06166337 -0.08395211
0.1221586 0.11685467 -0.101462215 -0.1997742 0.23080702 -0.0059778625 0.12817171 0.10806489
0.26862422 -0.07059145 0.1877575 0.034153476 0.021724444 0.010324283 -0.068089545 -0.17636189
0.2790528 0.14328982 -0.10133702 -0.06807757 0.14770454 -0.12532 0.29106665 -0.26719937
0.21335198 -0.17642479 0.057869483 -0.08409365 -0.031577457 0.014003376 0.11008331 -0.10506439
0.27618656 -0.047398467 -0.13768087 0.012394202 0.07727981 0.1523192 -0.030004013 0.12161494
-0.30078533 0.034937315 -0.013778504 -0.091538526 -0.032327134 -0.32088718 0.12586753 -0.25072706
0.02265395 0.1641613 0.2677806 -0.015343711 0.24368589 0.076685145 0.2625363 0.07681674
-0.02304848 -0.1407952 0.28427595 -0.101992965 -0.22771128 -0.20050527 0.18653394 -0.16899371
0.25806028 -0.04663219 0.11656305 0.046709336 0.11414352 -0.22321862 -0.048815172 -0.35290605
0.2169178 0.011295242 0.10364898 -0.024987306 -0.2122379 0.021483809 0.14574735 -0.024886584
0.089326195 0.15046784 -0.058420066 0.038346734 -0.048231028 0.06167416 0.13177101 0.11594782
0.14905483 0.10429121 0.11564021 -0.04638918 0.12811396 -0.10500169 -0.04818505 -0.12911882
-0.015962768 -0.22243105 0.12442334 -0.18796611 0.16362266 -0.110485844 0.15828407 -0.0077869915
0.33283895 0.21742077 0.40281382 0.03356898 0.14718615 0.18421322 0.17282173 0.11308109
0.23999023 0.28888437 0.20879567 0.14872032 0.06754935 0.082178645 -0.27828193 -0.33163163
-0.14139897 0.076809 -0.0022732385 -0.39097247 -0.14042996 -0.18337677 0.24290161 -0.0009721418
-0.17166276 -0.113888085
00000000: c50e 02be e4da 67be 2897 87be 0423 9b3d
00000010: 79e8 b43d 6ed4 8abd bb92 7c3d 15ef abbd
00000020: 4a2e fa3d 8051 ef3d 6ccb cfbd 9c91 4cbe
00000030: ad58 6c3e f2e1 c3bb 723f 033e 2051 dd3d
00000040: 1d89 893e 4092 90bd 8143 403e 84e4 0b3d
00000050: 76f7 b13c 2e27 293c 8872 8bbd 3698 34be
00000060: 02e0 8e3e 91ba 123e c989 cfbd 416c 8bbd
00000070: dc3f 173e e353 00be b006 953e 5bce 88be
00000080: f178 5a3e b3a8 34be 8d08 6d3d 4b39 acbd
00000090: 5d57 01bd 6a6e 653c 5c73 e13d 002c d7bd
000000a0: 5368 8d3e e524 42bd 37fc 0cbe 0d11 4b3c
000000b0: e144 9e3d 90f9 1b3e faca f5bc 4111 f93d
000000c0: 8900 9abe 6e1a 0f3d 3cbf 61bc 8d78 bbbd
000000d0: 7569 04bd 534b a4be 6be3 003e 4c5f 80be
000000e0: c794 b93c e619 283e 8a1a 893e 3064 7bbc
000000f0: cb88 793e 1a0d 9d3d 286b 863e 1852 9d3d
00000100: 2ad0 bcbc 9e2c 10be 9e8c 913e b0e1 d0bd
00000110: 252d 69be 4151 4dbe c102 3f3e b00c 2dbe
00000120: 7a20 843e 6501 3fbd 9cb8 ee3d 4a52 3f3d
00000130: 14c4 e93d 6c93 64be 6bf2 47bd 1ab0 b4be
00000140: b31f 5e3e ae0f 393c eb45 d43d 2eb2 ccbc
00000150: e454 59be d0fe af3c cb3e 153e f3de cbbc
00000160: a7f0 b63d 3e14 1a3e e149 6fbd 7711 1d3d
00000170: e68d 45bd 0b9e 7c3d fbee 063e 0d76 ed3d
00000180: d4a1 183e a196 d53d c6d4 ec3d 9502 3ebd
00000190: 4e30 033e 200b d7bd b05d 45bd b937 04be
000001a0: 5ac4 82bc f7c4 63be aad1 fe3d 307a 40be
000001b0: b38c 273e 6746 e2bd 3815 223e 052a ffbb
000001c0: de69 aa3e 8da3 5e3e 9d3d ce3e a07f 093d
000001d0: f7b7 163e 64a2 3c3e 2ef8 303e 0f97 e73d
000001e0: 00c0 753e a7e8 933e 88ce 553e 244a 183e
000001f0: 5057 8a3d 474d a83d f87a 8ebe 9fcb a9be
00000200: e4ca 10be 094e 9d3d 9dfa 14bb 8b2d c8be
00000210: dfcc 0fbe 1fc7 3bbe 33bb 783e 55d7 7eba
00000220: 5dc8 2fbe 283e e9bd

network_body._body_endoder.attention.norm.weight f4 [138]
1.0170268 1.0430782 1.4322098 0.67074704 0.86309046 1.4453772 0.9567132 1.0162923
1.0544994 1.0759289 1.0283172 0.84813523 0.8057702 0.99665886 0.7280024 1.00982
1.1527665 0.9642002 0.47205746 1.226217 0.93393815 0.8127574 0.8028256 0.7116511
0.87212384 1.0026404 1.2892902 0.8165656 1.1281619 1.0508617 0.6851864 1.3520052
1.1256796 0.93106794 0.9095216 1.0823816 0.95711875 0.84562725 0.91597843 1.1428566
1.0899303 0.7670286 1.261846 0.63710576 0.9309169 0.935841 0.89413124 1.0628216
1.5997131 1.1268663 0.9896504 0.78485954 0.9414047 1.067783 0.8836804 1.2378317
0.85723186 1.002083 0.89259773 1.0687027 0.5626226 1.031066 1.0298704 0.7050948
0.8030877 0.70275855 0.80402905 0.76471215 1.2479873 1.0751225 1.1119641 1.1566417
1.0920428 1.205679 0.82075655 0.87233466 1.0782056 1.4366702 0.8057141 1.3322554
0.60981834 0.8575344 0.7433504 0.9838089 1.0560799 0.6434051 1.1025155 0.6928557
0.92238003 1.095435 0.8258594 0.9529446 0.79788977 1.0399681 0.98501843 1.2254628
0.84935987 1.0547193 1.2960745 1.1354268 0.8771574 1.1467099 1.0554858 0.9922657
0.7936592 0.9411587 0.9636294 0.66071117 0.66220766 0.6821839 0.87586856 0.6693854
0.91858864 1.1350508 1.1838255 0.7395053 0.75638723 0.8352964 0.47981715 0.73873293
1.494369 1.2084757 0.84490305 0.7895112 0.72078675 0.9152375 0.99708116 1.6851736
1.6366289 1.1454957 0.765915 0.88092333 0.94421184 1.109759 1.2468216 0.76110846
1.1045699 1.0102191
00000000: ef2d 823f 9683 853f a752 b73f 14b6 2b3f
00000010: 7ff3 5c3f 1f02 b93f 28eb 743f de15 823f
00000020: d6f9 863f 0ab8 893f e69f 833f 641f 593f
00000030: f546 4e3f 0925 7f3f 5e5e 3a3f c841 813f
00000040: da8d 933f d3d5 763f 84b1 f13e aef4 9c3f
00000050: 9216 6f3f de10 503f fb85 4d3f c42e 363f
00000060: 8243 5f3f 8556 803f 7607 a53f 710a 513f
00000070: 9c67 903f a382 863f 6068 2f3f 820e ad3f
00000080: 4516 903f 785a 6e3f 68d6 683f 7b8b 8a3f
00000090: bc05 753f 077b 583f 907d 6a3f 2049 923f
000000a0: d682 8b3f fd5b 443f 2b84 a13f 5d19 233f
000000b0: 9250 6e3f 4793 6f3f c9e5 643f 8a0a 883f
000000c0: 66c3 cc3f 283d 903f bb59 7d3f 8eec 483f
000000d0: e6ff 703f 1dad 883f e138 623f 4571 9e3f
000000e0: 8c73 5b3f 4144 803f 4981 643f 40cb 883f
000000f0: 0908 103f f8f9 833f cbd2 833f 1881 343f
00000100: 2897 4d3f fce7 333f d9d4 4d3f 2dc4 433f
00000110: 0cbe 9f3f 9d9d 893f d754 8e3f d60c 943f
00000120: 0fc8 8b3f b153 9a3f 1a1d 523f 5351 5f3f
00000130: a402 8a3f cfe4 b73f 4743 4e3f 5887 aa3f
00000140: 0e1d 1c3f 6087 5b3f 364c 3e3f e6da 7b3f
00000150: a02d 873f 32b6 243f 3a1f 8d3f fe5e 313f
00000160: 1921 6c3f 3737 8c3f 866b 533f 2df4 733f
00000170: 8142 4c3f ad1d 853f 2b2a 7c3f f7db 9c3f
00000180: a66f 593f 0b01 873f c5e5 a53f aa55 913f
00000190: 638d 603f 64c7 923f 291a 873f 2005 7e3f
000001a0: 402d 4b3f c7ef 703f 6bb0 763f 5e24 293f
000001b0: 7186 293f 9ba3 2e3f ec38 603f d75c 2b3f
000001c0: a028 6b3f 5849 913f 9887 973f 3850 3d3f
000001d0: 98a2 413f fcd5 553f 98aa f53e 9a1d 3d3f
000001e0: 7c47 bf3f 55af 9a3f 914b 583f 681d 4a3f
000001f0: 7b85 383f 014d 6a3f b640 7f3f c5b3 d73f
00000200: 0e7d d13f 9a9f 923f 0113 443f 3184 613f
00000210: deb7 713f 950c 8e3f da97 9f3f 01d8 423f
00000220: 8c62 8d3f dc4e 813f

network_body._body_endoder.attention.norm.bias f4 [138]
-0.017499901 -0.06920636 0.073807195 0.04275935 0.04129268 -0.08211346 0.06334871 -0.027832324
0.044927504 -0.12300172 0.101379804 -0.061467644 0.048116725 0.0074151563 -0.007681182 -0.011371387
0.052359156 -0.044231303 0.042792663 -0.06448152 0.1101603 0.016515907 0.032448877 -0.17029873
-0.05907551 -0.033089656 -0.14378239 -0.18938576 -0.042826585 -0.12466372 -0.03278573 -0.03255878
0.08870373 0.06131962 -0.017936528 0.025376301 -0.026356399 0.01257543 -0.022640428 0.006937098
0.04456029 -0.0076859645 0.016227603 0.014586358 0.11187198 0.12560818 0.03664322 -0.062528424
0.030517492 -0.07624736 0.13629632 -0.03254465 0.14864397 0.015623562 0.043048516 -0.010991795
0.052714802 0.051513344 0.07814622 0.0027491862 0.0571242 -0.054621093 0.028115705 -0.0022746015
-0.03436231 -0.009614675 -0.0007225567 -0.09253265 -0.022846498 -0.16929679 -0.0074633644 -0.093487255
-0.019625856 -0.07013357 0.15223187 0.029842457 -0.08444244 0.0014144704 -0.031810496 -0.027308494
0.01231675 -0.062248476 0.022147203 -0.01805932 0.029683718 -0.058914434 0.014931913 -0.03399421
0.0009833412 -0.11844981 0.063501246 0.011075839 0.118706584 0.046504613 0.01923671 0.048782066
0.04698198 0.035287607 0.022570182 -0.047859527 0.084421456 0.013690495 0.09815553 -0.05759253
-0.015920818 0.026325589 0.048657972 -0.078853145 -0.047717426 -0.055198453 -0.06796401 -0.14382699
-0.0126411775 -0.06742669 0.08764478 0.007122069 0.01503836 0.028799115 0.030894894 -0.098631606
-0.01935149 0.08906002 0.044599727 -0.029476142 0.073146716 0.027182765 -0.1269262 -0.04434941
0.020116875 0.16688538 0.07798278 -0.12179567 0.03785452 0.08076534 0.096517615 0.03562786
0.032459132 -0.026986446
00000000: f45b 8fbc 10bc 8dbd 3a28 973d 6e24 2f3d
00000010: 8322 293d 1a2b a8bd f8bc 813d 9d00 e4bc
00000020: e705 383d 53e8 fbbd 37a0 cf3d 7fc5 7bbd
00000030: 0b16 453d d7fa f23b 6db2 fbbb 0e4f 3abc
00000040: 8e76 563d e22b 35bd 5c47 2f3d e30e 84bd
00000050: b99b e13d 5e4c 873c 1de9 043d ca62 2ebe
00000060: 29f9 71bd 0589 07bd b13b 13be 57ee 41be
00000070: ee6a 2fbd b14f ffbd 544a 06bd 5b5c 05bd
00000080: 4daa b53d 482a 7b3d a0ef 92bc f6e1 cf3c
00000090: 60e9 d7bc 2d09 4e3c 6b78 b9bc 9950 e33b
000000a0: da84 363d 8bda fbbb c0ef 843c 9ffb 6e3c
000000b0: 231d e53d 6e9f 003e 3317 163d e70e 80bd
000000c0: d2ff f93c 9327 9cbd 4391 0b3e 8a4d 05bd
000000d0: 2036 183e f8f9 7f3c a453 303d ee16 34bc
000000e0: 7aeb 573d a8ff 523d 200b a03d b12b 343b
000000f0: 11fb 693d 5eba 5fbd e852 e63c 7b11 15bb
00000100: 7ebf 0cbd df86 1dbc f669 3dba c281 bdbd
00000110: 9428 bbbc 235c 2dbe 3d8f f4bb 3f76 bfbd
00000120: 67c6 a0bc 30a2 8fbd ace2 1b3e 2b78 f43c
00000130: 28f0 acbd c065 b93a b94b 02bd 10b6 dfbc
00000140: 32cc 493c 42f8 7ebd 0d6e b53c 24f1 93bc
00000150: 452b f33c 4350 71bd fca4 743c 833d 0bbd
00000160: 75e3 803a d095 f2bd f10c 823d 7077 353c
00000170: 701c f33d 9f7b 3e3d 4e96 9d3c b4cf 473d
00000180: 2d70 403d bd89 103d 1ae5 b83c 5a08 44bd
00000190: 28e5 ac3d 194e 603c c405 c93d 25e6 6bbd
000001a0: 606c 82bc c3a8 d73c 954d 473d c27d a1bd
000001b0: 5973 43bd c617 62bd b730 8bbd 6247 13be
000001c0: f11c 4fbc 0117 8abd 1b7f b33d 3f60 e93b
000001d0: 7463 763c 1fec eb3c 4a17 fd3c 5eff c9bd
000001e0: 0487 9ebc 1a65 b63d 34ae 363d f377 f1bc
000001f0: f2cd 953d 64ae de3c f1f8 01be baa7 35bd
00000200: 25cc a43c 00e4 2a3e 70b5 9f3d 0270 f9bd
00000210: 570d 1b3d 4c68 a53d 07ab c53d 85ee 113d
00000220: def3 043d ae12 ddbc

network_body._body_endoder.norm.weight f4 [138]
0.75428224 0.750372 1.001066 0.64945143 0.89599967 1.2798799 0.92306346 0.84880614
0.9682769 1.0949205 0.9162098 0.70673007 0.975015 1.1079828 0.93730015 1.3260506
1.0979573 1.0731751 0.471437 1.1753725 0.7508852 0.8284465 0.7876054 0.7326435
0.920836 0.94789547 1.1711353 0.7916115 0.9860051 0.80509716 0.6006044 0.9191915
0.9845715 0.80520225 0.70653 0.84459496 0.7578819 0.82608277 0.57322127 0.84366834
0.89218503 0.6425623 0.7790386 0.5391197 0.5724235 0.8840285 0.62023264 0.921839
1.2030538 1.0365738 0.8247437 0.98165923 0.83445305 0.920417 1.0609595 1.1154495
0.69053227 0.8863118 0.8254366 1.2211018 0.73798937 1.4016204 0.9976799 1.0605668
0.6761291 0.82428116 0.7750805 0.7673252 0.8484209 1.0041329 1.1454391 1.1479135
0.9047604 1.0725158 0.79631233 0.7414972 0.9363195 1.0650889 0.6772174 1.0699494
0.46177876 0.64194614 0.8015083 0.7692467 0.88494366 0.6721664 1.0722947 0.78782386
0.76149505 1.2723471 1.0279678 1.288433 0.7475414 1.210683 0.90998495 1.0701987
0.86410016 1.0513792 1.070454 1.232849 0.7483978 1.3504388 0.6492241 1.2479606
0.78088564 1.0223832 0.9040895 0.80610144 0.7799853 0.91760206 0.82415897 0.9364854
0.84442866 1.0468079 0.9498607 0.9463081 0.70038176 0.96623594 0.6430162 0.77373105
1.1997027 1.1610156 0.6937723 0.7539935 0.67231417 0.8867572 0.6067958 1.8890526
1.7079644 0.9732291 1.3194313 0.97731787 0.76451546 0.6937225 1.3997197 0.8306465
1.3068595 1.1351497
00000000: a418 413f 6118 403f ee22 803f 7342 263f
00000010: 3c60 653f 1bd3 a33f e34d 6c3f 5c4b 593f
00000020: ffe0 773f 5b26 8c3f ba8c 6a3f 43ec 343f
00000030: 959a 793f 61d2 8d3f e7f2 6f3f 07bc a93f
00000040: dd89 8c3f cd5d 893f 3160 f13e 9b72 963f
00000050: 033a 403f 1215 543f 82a0 493f 868e 3b3f
00000060: e8bb 6b3f 47a9 723f c3e7 953f 0da7 4a3f
00000070: d56a 7c3f d91a 4e3f 36c1 193f 2250 6b3f
00000080: e10c 7c3f bc21 4e3f 26df 343f 6037 583f
00000090: 8c04 423f 297a 533f a1be 123f a6fa 573f
000000a0: 3d66 643f f77e 243f 136f 473f c003 0a3f
000000b0: 598a 123f b14f 623f 91c7 1e3f a4fd 6b3f
000000c0: abfd 993f 73ae 843f 6722 533f 054e 7b3f
000000d0: b79e 553f 73a0 6b3f 85cd 873f 0dc7 8e3f
000000e0: b9c6 303f 55e5 623f d04f 533f 104d 9c3f
000000f0: dfec 3c3f 4c68 b33f f367 7f3f a7c0 873f
00000100: cc16 2d3f 1704 533f ad6b 463f 6d6f 443f
00000110: 1d32 593f 6d87 803f c09d 923f d4ee 923f
00000120: 619e 673f 3348 893f 20db 4b3f c3d2 3d3f
00000130: a2b2 6f3f d554 883f 1f5e 2d3f 1af4 883f
00000140: 446e ec3e 9556 243f a62f 4d3f 5aed 443f
00000150: ab8b 623f 1913 2c3f f440 893f d3ae 493f
00000160: 57f1 423f 45dc a23f 7394 833f 5feb a43f
00000170: e05e 3f3f a9f7 9a3f c6f4 683f 45fc 883f
00000180: ab35 5d3f 9893 863f a304 893f ffcd 9d3f
00000190: 0097 3f3f 2edb ac3f 8d33 263f 2cbd 9f3f
000001a0: 1fe8 473f 74dd 823f 6972 673f aa5c 4e3f
000001b0: 1ead 473f f8e7 6a3f 15fc 523f 82bd 6f3f
000001c0: 7a2c 583f cdfd 853f 122a 733f 3f41 723f
000001d0: 384c 333f 3d5b 773f b69c 243f 3d13 463f
000001e0: dc8f 993f 299c 943f 109b 313f b805 413f
000001f0: c81c 2c3f 8502 633f f856 1b3f 7acc f13f
00000200: 949e da3f 8b25 793f 20e3 a83f 8131 7a3f
00000210: 49b7 433f cc97 313f 042a b33f 40a5 543f
00000220: 2c47 a73f 964c 913f

network_body._body_endoder.norm.bias f4 [138]
0.11576269 0.12100209 0.26895455 0.11416672 0.06070543 -0.053371713 0.16617021 0.05414801
0.12680513 -0.19181758 0.27956846 -0.046830717 0.016340893 0.07351451 -0.054541096 -0.113853574
-0.006829909 -0.16057508 -0.13057035 -0.1761411 0.21176754 -0.012580365 0.13830608 -0.29778782
-0.16696665 -0.052833408 -0.0018935327 -0.23088688 0.04907726 -0.24134395 -0.19149245 0.057571094
-0.041952267 0.021675866 -0.1357189 -0.0078051537 -0.060006235 -0.030122805 -0.12360781 -0.0857601
-0.04608515 -0.044480033 0.0729994 0.17271423 0.10479988 0.24713376 0.14018318 -0.071902595
0.12759084 -0.121605285 0.35215527 -0.019755796 0.34942916 0.23028836 0.098428555 0.08033352
0.16617408 0.12660508 -0.0042643077 -0.084424905 -0.13843508 -0.2568621 -0.017879158 -0.07018213
-0.098591365 0.0036213552 -0.032068033 -0.12510756 0.13673659 -0.012967267 -0.040524796 -0.05965661
-0.05606657 -0.077212326 0.21118271 0.07472674 -0.20025516 0.074132815 0.0035147136 0.08329388
-0.10709607 -0.107222535 -0.023400852 0.112219125 0.16846246 0.004802366 0.08364405 -0.007919141
0.053368323 -0.1812069 0.086581655 0.009966486 0.33409926 0.13699414 0.057900626 0.11272259
0.061392806 -0.0606156 -0.074133165 -0.12557752 0.05980575 -0.076910175 0.14474274 -0.20013098
-0.07398918 -0.00803017 0.1387318 -0.111246675 -0.09676501 -0.09299517 -0.22620647 -0.21640423
-0.1410115 -0.18469092 0.04293378 -0.03142503 -0.14504983 -0.034094784 -0.018883258 -0.24191019
-0.08882323 0.10383469 -0.011105903 -0.04609002 0.060384497 0.116607316 -0.45673588 0.03524367
0.0913433 0.04245238 0.21149394 0.020391522 0.08999552 0.18951887 0.044781175 0.22635339
0.13801585 0.00772054
00000000: fd14 ed3d f2cf f73d 69b4 893e 3ed0 e93d
00000010: 42a6 783d 4c9c 5abd 8628 2a3e 4eca 5d3d
00000020: 34d9 013e d46b 44be 9923 8f3e 91d1 3fbd
00000030: 56dd 853c c78e 963d 7c66 5fbd 102c e9bd
00000040: 6ecd dfbb cb6d 24be 3cb4 05be 555e 34be
00000050: 97d9 583e e01d 4ebc 1ca0 0d3e a577 98be
00000060: 4ef9 2abe d867 58bd 6a30 f8ba 9c6d 6cbe
00000070: 3d05 493d de22 77be 9916 44be abcf 6b3d
00000080: 24d6 2bbd 9691 b13c e5f9 0abe 60c2 ffbb
00000090: 19c9 75bd 1ac4 f6bc 1726 fdbd fea2 afbd
000000a0: c8c3 3cbd b230 36bd b680 953d 00dc 303e
000000b0: 52a1 d63d a210 7d3e 2e8c 0f3e ab41 93bd
000000c0: 2ca7 023e 310c f9bd b24d b43e e8d6 a1bc
000000d0: 61e8 b23e b6d0 6b3e e994 c93d e785 a43d
000000e0: 8a29 2a3e c3a4 013e 9bbb 8bbb f7e6 acbd
000000f0: edc1 0dbe 6e83 83be 5077 92bc a6bb 8fbd
00000100: 45ea c9bd 4254 6d3b c559 03bd 321c 00be
00000110: ad04 0c3e a974 54bc 54fd 25bd 7d5a 74bd
00000120: 0fa6 65bd 7f21 9ebd 4840 583e 550a 993d
00000130: b00f 4dbe f2d2 973d 1c57 663b fb95 aa3d
00000140: 2f55 dbbd 7d97 dbbd 25b3 bfbc 24d3 e53d
00000150: 6c81 2c3e 2a5d 9d3b 924d ab3d 49bf 01bc
00000160: be98 5a3d 4d8e 39be b951 b13d 794a 233c
00000170: 0f0f ab3e 3148 0c3e 3529 6d3d 1adb e63d
00000180: 0677 7b3d 1048 78bd 21d3 97bd 6597 00be
00000190: e0f6 743d 1583 9dbd 7137 143e 23ef 4cbe
000001a0: a487 97bd f990 03bc b50f 0e3e 4cd5 e3bd
000001b0: bc2c c6bd 4074 bebd aba2 67be 1299 5dbe
000001c0: 5265 10be 9e1f 3dbe 55db 2f3d 88b7 00bd
000001d0: f187 14be f9a6 0bbd 10b1 9abc 4eb7 77be
000001e0: f4e8 b5bd 48a7 d43d 89f5 35bc e4c8 3cbd
000001f0: bc55 773d d1cf ee3d 49d9 e9be ab5b 103d
00000200: 3212 bb3d 8ce2 2d3d de91 583e 1f0c a73c
00000210: 924f b83d 3c11 423e 776c 373d 2fc9 673e
00000220: 0754 0d3e 95fc fc3b

network_body._body_endoder.lin_layers.seq_layers.0.weight f4 [276, 138]
0.12781914 0.551558 0.16744222 0.010546253 -0.19175707 -0.24672557 0.21928455 -0.013911457
0.21879792 -0.16659045 0.42998743 0.02119964 0.35000038 0.40426588 0.61964256 0.56937724
0.4418797 0.10756185 -0.046339072 0.0043450957 0.19394946 0.21043667 0.2916084 0.117075816
0.032829653 0.1746438 0.24379352 -0.20972994 0.08445933 -0.51479197 0.09264823 -0.314508
0.0043062214 -0.118532695 0.016237589 -0.03203237 0.15875782 -0.19626805 -0.21064799 -0.67818534
0.32726604 0.0425841 -0.09703269 0.07637784 0.20221649 0.29545686 0.06784306 0.14262252
-0.29649866 -0.64074004 0.15069507 -0.0591576 0.23351344 0.09095192 0.2569888 0.23952055
0.66417044 0.52464414 0.2691625 0.3979324 -0.07137305 -0.07589944 0.063892655 -0.45400795
-0.16302235 -0.049585123 0.03520681 -0.20998868 -0.25727352 -0.0078636175 -0.13233967 -0.42485282
0.13893642 -0.5808175 0.017646937 -0.07166033 0.09237211 -0.31488755 0.015685517 -0.52264833
0.026704857 -0.06292528 0.2756423 0.1913382 0.2791022 0.022011997 0.10395512 -0.0910264
-0.3083435 -0.28787708 -0.1010081 -0.34130177 0.16863196 -0.06140876 0.27314347 0.09371947
0.3680079 0.26004115 0.57692325 0.54977584 0.20066494 -0.059324108 -0.04701823 -0.30628765
-0.1537997 -0.6550415 -0.040156722 -0.2725207 -0.38468733 -0.33554834 -0.1964821 -0.42953226
-0.13790031 -0.46208155 0.36215848 -0.21240492 -0.13582921 -0.1349016 -0.089333564 -0.3382184
0.11233528 0.013288125 0.05006433 -0.17030653 6.941109e-05 -0.19626407 -0.0533665 -0.07148815
-0.39554858 0.2430411 0.21875174 -0.27701864 0.1490147 -0.16629872 0.21298139 0.33792648
0.24354495 -0.03916036 0.13053213 0.06713378 -0.35628 -0.21491943 -0.006996482 0.049743436
0.0144307455 -0.05354239 -0.13008074 -0.017355315 0.26721406 -0.106673405 0.136111 -0.038447883
0.17436118 0.2467032 0.15594503 -0.2069597 0.058320303 0.10664626 -0.07983033 -0.030232113
-0.021047834 0.032779418 0.026665816 -0.011081984 0.14887796 0.32859367 -0.104052894 0.4123379
0.18801402 0.028580623 -0.10656821 -0.034532778 -0.1786794 -0.11630137 0.11133089 0.31681564
-0.3641363 0.0128508955 0.17254438 0.18552752 -0.2553745 -0.15150356 -0.20800602 -0.13445266
0.17336676 0.4375841 -0.10501736 -0.039046165 -0.18566962 -0.28186357 -0.23193663 0.030161018
-0.022762164 -0.18215203 0.13269834 0.3353661 -0.06439813 -0.010890071 0.09581744 0.2536109
-0.16968648 -0.28953922 0.012811419 0.18362972 0.21339385 0.04519658 -0.14637834 0.28565475
-0.3086439 -0.018060232 -0.055581454 0.23701246 -0.43098652 -0.0886902 0.071648054 0.028659688
0.15613593 0.206393 0.13811289 0.16105987 0.11240848 0.20778464 0.008789176 -0.056573544
-0.02668801 -0.077600196 -0.041074384 0.09004291 0.18185157 -0.109935895 -0.09418387 -0.24464981
0.10778978 -0.23985179 0.09695126 -0.20755924 -0.15267733 0.010486909 -0.08668803 -0.15829736
-0.024947515 0.17324263 0.2728318 -0.12439401 0.23458844 -0.016020449 0.047237266 0.03026662
-0.16056773 0.15112348 0.10163448 0.18624993 -0.046082754 0.13685092 0.12939955 -0.15746199
00000000: 05e3 023e e832 0d3f f975 2b3e 31ca 2c3c
00000010: f75b 44be a1a5 7cbe 218c 603e e1ec 63bc
00000020: 900c 603e b096 2abe 5027 dc3e deaa ad3c
00000030: 4033 b33e f0fb ce3e e5a0 1e3f b5c2 113f
00000040: 0e3e e23e 6349 dc3d 0ace 3dbd 4e61 8e3b
00000050: b09a 463e b67c 573e b24d 953e 72c5 ef3d
00000060: 6378 063d d3d5 323e 02a5 793e 72c3 56be
00000070: 03f9 ac3d 68c9 03bf 5bbe bd3d 3107 a1be
00000080: 341b 8d3b 45c1 f2bd b104 853c 6034 03bd
00000090: 6991 223e 7efa 48be 1bb4 57be 8e9d 2dbf
000000a0: 6a8f a73e aa6c 2e3d 13b9 c6bd fc6b 9c3d
000000b0: d711 4f3e 1f46 973e 4df1 8a3d a30b 123e
000000c0: acce 97be 8a07 24bf cf4f 1a3e 3d4f 72bd
000000d0: 261e 6f3e 0045 ba3d 0994 833e e044 753e
000000e0: 1307 2a3f 144f 063f abcf 893e ccbd cb3e
000000f0: 092c 92bd 2a71 9bbd 27da 823d bb73 e8be
00000100: 55ef 26be c519 4bbd 0435 103d 4607 57be
00000110: 5bb9 83be 67d6 00bc 0d84 07be 4f86 d9be
00000120: 5945 0e3e 75b0 14bf 4f90 903c a7c2 92bd
00000130: 972d bd3d f138 a1be ea7e 803c 48cc 05bf
00000140: 25c4 da3c f8de 80bd fd20 8d3e 29ee 433e
00000150: 7ce6 8e3e 8152 b43c 6ce6 d43d 0d6c babd
00000160: 33df 9dbe a064 93be 56dd cebd 1bbf aebe
00000170: dbad 2c3e c087 7bbd 76d9 8b3e feef bf3d
00000180: 886b bc3e 1d24 853e 3eb1 133f 1cbe 0c3f
00000190: 1c7b 4d3e d6fd 72bd 3096 40bd bcd1 9cbe
000001a0: ab7d 1dbe cdb0 27bf 607b 24bd d587 8bbe
000001b0: bdf5 c4be fecc abbe 9b32 49be a7eb dbbe
000001c0: bd35 0dbe f495 ecbe d66c b93e ad80 59be
000001d0: d016 0bbe a523 0abe 84f4 b6bd f62a adbe
000001e0: 0a10 e63d 70b6 593c 4110 4d3d d664 2ebe
000001f0: cc90 9138 73f9 48be d596 5abd 6168 92bd
00000200: 5885 cabe c4df 783e 7500 603e 63d5 8dbe
00000210: 4f97 183e 364a 2abe cb17 5a3e b304 ad3e
00000220: d963 793e 9d66 20bd 37aa 053e 6f7d 893d
00000230: 556a b6be d713 5cbe bf42 e5bb c6bf 4b3d
00000240: ef6e 6c3c 444f 5bbd e333 05be bc2c 8ebc
00000250: 48d0 883e 9677 dabd af60 0b3e 877b 1dbd
00000260: bd8b 323e c39f 7c3e 0eb0 1f3e 3eed 53be
00000270: 45e1 6e3d 5b69 da3d 167e a3bd 56a9 f7bc
00000280: 826c acbc b643 063d 4572 da3c 3691 35bc
00000290: 7773 183e 6e3d a83e af19 d5bd f41d d33e
000002a0: bf86 403e e921 ea3c 6f40 dabd 3e72 0dbd
000002b0: bcf7 36be 6a2f eebd 7301 e43d a935 a23e
000002c0: 1370 babe 908c 523c 79af 303e edfa 3d3e
000002d0: 72c0 82be c023 1bbe 88ff 54be f5ad 09be
000002e0: 0e87 313e 060b e03e 5713 d7bd dfee 1fbd
000002f0: 2d20 3ebe 6c50 90be cc80 6dbe 3d14 f73c
00000300: b877 babc 1086 3abe 13e2 073e 1bb5 ab3e
00000310: 2be3 83bd 456c 32bc ef3b c43d 4ad9 813e
00000320: 4bc2 2dbe 7c3e 94be fce6 513c 6e09 3c3e
00000330: eb83 5a3e 0d20 393d 34e4 15be 5741 923e
00000340: 9306 9ebe 0df3 93bc 61a9 63bd 65b3 723e
00000350: 44aa dcbe 35a3 b5bd 37bc 923d b9c7 ea3c
00000360: 19e2 1f3e b058 533e 776d 0d3e e1ec 243e
00000370: 6b36 e63d 7fc5 543e 7a00 103c a9b9 67bd
00000380: d0a0 dabc daec 9ebd 9d3d 28bd 6b68 b83d
00000390: 4c37 3a3e 1226 e1bd 79e3 c0bd 7b85 7abe
000003a0: e3c0 dc3d b59b 75be 628e c63d 698a 54be
000003b0: 7257 1cbe 49d1 2b3c 7e89 b1bd b418 22be
000003c0: bb5e ccbc 8466 313e 9cb0 8b3e 49c2 febd
000003d0: f437 703e 513d 83bc dd7b 413d b4f1 f73c
000003e0: de6b 24be 1dc0 1a3e bd25 d03d 4db8 3e3e
000003f0: 45c1 3cbd a622 0c3e 5181 043e b73d 21be

network_body._body_endoder.lin_layers.seq_layers.0.bias f4 [276]
-0.061931387 -0.24176207 -0.25013724 -0.069957495 -0.23740435 0.025752667 -0.074391425 -0.16628419
-0.13782154 -0.2855567 -0.40530485 -0.45402288 -0.08927375 -0.19862872 -0.2026201 -0.10479729
-0.37601623 -0.03322268 -0.15250005 -0.026110046 -0.07121549 0.09501888 -0.11456204 -0.25603372
-0.18111907 0.0022382743 -0.21613155 -0.12917276 -0.040496025 0.10875448 -0.38752317 -0.03998382
-0.22714871 -0.07727521 -0.17913404 0.2115919 -0.061091356 -0.02508734 -0.11861599 -0.12376888
-0.08950912 -0.19469604 -0.15748963 -0.09871611 -0.07468536 -0.15216087 -0.30924213 0.102171175
-0.3260336 -0.1399043 -0.1886451 -0.17805153 -0.0629564 -0.20876941 0.084788784 -0.22354195
-0.34231296 -0.2904664 -0.41256425 -0.3724061 0.025972791 -0.18372038 -0.39689824 -0.47584695
-0.2183432 -0.20366155 0.26318482 -0.36466593 -0.28231975 -0.124846086 -0.06886021 -0.15894325
-0.14517508 -0.47303557 -0.2777912 -0.11328796 -0.2308343 -0.40226263 -0.11042497 -0.0975702
0.03597835 -0.24421157 -0.2759366 0.28266236 0.022738174 0.120173804 -0.17259793 -0.036848202
-0.36856744 -0.09944842 -0.07700018 -0.035813577 -0.24418071 -0.1517885 -0.045184024 -0.10803979
-0.25854844 -0.39692584 -0.0885227 0.0670194 -0.11173429 0.026922459 -0.25406662 -0.43925607
0.07933408 -0.055818222 -0.31982517 -0.10137935 -0.09827176 -0.05442737 -0.43399787 -0.20462526
-0.13563082 -0.1845293 -0.11024089 -0.21186171 -0.032448698 -0.10780591 -0.09975649 0.03150771
0.20909512 0.047437835 -0.098443635 0.07337926 0.053253733 -0.118523575 0.048422165 -0.27323207
-0.25017503 0.10330077 -0.12855448 0.16521464 -0.32703486 -0.08855411 0.14074554 -0.17300472
-0.009259629 -0.17035182 0.053918645 -0.1205541 -0.22782952 -0.088958964 -0.23989768 -0.32987964
-0.03808805 -0.08917898 -0.011822443 0.09829447 -0.195427 -0.14893278 -0.07052643 -0.079712905
0.20641966 -0.15857969 0.16432859 -0.33614573 -0.105188936 -0.2977677 -0.5229114 -0.41507524
-0.17857873 0.009011396 0.025250478 -0.041225716 -0.25134727 -0.13526325 -0.06443541 -0.17505758
-0.12047966 0.09341378 -0.2605105 -0.24762332 0.0007459475 -0.08680249 0.0068139485 -0.273945
-0.36186904 -0.0956724 0.19206147 -0.42147616 -0.06675541 -0.41357592 -0.0736962 -0.14752217
-0.470173 -0.040104564 -0.07691226 -0.05849388 -0.03347885 0.11807109 -0.1051761 -0.19158465
-0.118898295 -0.34906232 -0.31032452 -0.26522565 -0.13017833 -0.22603302 -0.012860889 -0.24429525
-0.35215113 -0.39014405 -0.26246825 -0.108995974 -0.15711415 -0.11626185 -0.24725789 -0.25678045
-0.15553918 0.045087025 -0.09133938 -0.1433004 -0.025571076 -0.21575558 -0.198906 -0.16815065
-0.026060827 -0.33364913 0.046906095 -0.014071738 0.011340922 -0.07382269 -0.093209885 -0.1495623
0.057375442 -0.2123027 -0.15023929 -0.14097917 0.030455574 0.09775409 -0.29411402 0.20767899
-0.067179784 -0.08520075 -0.16427457 -0.10316656 0.05648717 -0.101877846 0.10533852 -0.38234943
-0.08186633 -0.1015064 -0.29837263 -0.045356642 -0.17070563 -0.10074644 -0.13217922 -0.21147358
-0.18431559 -0.049742006 -0.08881132 0.09587188 -0.30115014 -0.37137 -0.28641894 -0.3582232
00000000: c4ab 7dbd 7a90 77be fd11 80be e045 8fbd
00000010: 201a 73be 42f7 d23c 885a 98bd 6746 2abe
00000020: 1721 0dbe 7d34 92be 1e84 cfbe b075 e8be
00000030: 28d5 b6bd 5465 4bbe a57b 4fbe f69f d6bd
00000040: 3385 c0be 8114 08bd f928 1cbe bce4 d5bc
00000050: 6dd9 91bd 4299 c23d 819f eabd da16 83be
00000060: 4777 39be 03b0 123b 9751 5dbe dd45 04be
00000070: 29df 25bd abba de3d 7069 c6be 13c6 23bd
00000080: ac99 68be 7742 9ebd ea6e 37be 8cab 583e
00000090: ee3a 7abd f783 cdbc f1ec f2bd 8a7a fdbd
000000a0: 8f50 b7bd 665e 47be f644 21be ac2b cabd
000000b0: a3f4 98bd 0fd0 1bbe fc54 9ebe 1f3f d13d
000000c0: e0ed a6be 1343 0fbe 2e2c 41be 2453 36be
000000d0: 49ef 80bd a6c7 55be bea5 ad3d 2ee8 64be
000000e0: a543 afbe 03b8 94be 9f3b d3be 03ac bebe
000000f0: e4c4 d43c 3221 3cbe 3f36 cbbe 36a2 f3be
00000100: 5c95 5fbe a78c 50be 29c0 863e 7eb5 babe
00000110: 378c 90be 4eaf ffbd 9506 8dbd 05c2 22be
00000120: c7a8 14be b831 f2be a63a 8ebe 8503 e8bd
00000130: d45f 6cbe 5ef5 cdbe 7d26 e2bd e3d2 c7bd
00000140: 095e 133d 9912 7abe 9047 8dbe 1fb9 903e
00000150: 6845 ba3c af1d f63d 83bd 30be 24ee 16bd
00000160: dfb4 bcbe 9dab cbbd 45b2 9dbd 42b1 12bd
00000170: 820a 7abe 726e 1bbe e212 39bd f743 ddbd
00000180: 7660 84be dd39 cbbe 644b b5bd 7841 893d
00000190: f3d4 e4bd 7d8c dc3c 0515 82be 2ce6 e0be
000001a0: e879 a23d a6a1 64bd 20c0 a3be fa9f cfbd
000001b0: b442 c9bd 3cef 5ebd f834 debe 4989 51be
000001c0: cee2 0abe 40f5 3cbe fac5 e1bd 47f2 58be
000001d0: ede8 04bd 58c9 dcbd 214d ccbd 3b0e 013d
000001e0: 081d 563e 2d4e 423d d19c c9bd de47 963d
000001f0: 9620 5a3d 7dbc f2bd 5256 463d 13e5 8bbe
00000200: f116 80be 5b8f d33d c9a3 03be 072e 293e
00000210: 1d71 a7be db5b b5bd 991f 103e 2628 31be
00000220: b3b5 17bc b570 2ebe ccd9 5c3d 11e5 f6bd
00000230: 244c 69be 1e30 b6bd bda7 75be fce5 a8be
00000240: 3702 1cbd 78a3 b6bd ecb2 41bc 9c4e c93d
00000250: 041e 48be d681 18be 2970 90bd 8540 a3bd
00000260: ad5f 533e b762 22be c145 283e 4b1b acbe
00000270: 4c6d d7bd 0275 98be 86dd 05bf be84 d4be
00000280: 58dd 36be 89a4 133c 17da ce3c 4cdc 28bd
00000290: 97b0 80be 7382 0abe b6f6 83bd 4b42 33be
000002a0: 0abe f6bd b94f bf3d a261 85be f890 7dbe
000002b0: b08b 433a 81c5 b1bd 8b47 df3b 8542 8cbe
000002c0: e646 b9be e4ef c3bd c3ab 443e b9cb d7be
000002d0: 0fb7 88bd 39c0 d3be 09ee 96bd 0d10 17be
000002e0: 84ba f0be af44 24bd 2d84 9dbd 4797 6fbd
000002f0: 1e21 09bd 41cf f13d 9166 d7bd c42e 44be
00000300: f380 f3bd 4cb8 b2be dbe2 9ebe a8cb 87be
00000310: 784d 05be 3375 67be 7ab6 52bc 8928 7abe
00000320: 274d b4be f6c0 c7be 3d62 86be 4839 dfbd
00000330: 88e2 20be b11a eebd 2c31 7dbe ba78 83be
00000340: aa45 1fbe 2cad 383d 2410 bbbd 57bd 12be
00000350: 6f7a d1bc 08ef 5cbe 04ae 4bbe af2f 2cbe
00000360: 847d d5bc 0fd4 aabe 9b20 403d 268d 66bc
00000370: 46cf 393c 5a30 97bd d3e4 bebd dc26 19be
00000380: 8302 6b3d e165 59be 54d8 19be d85c 10be
00000390: f87d f93c 4c33 c83d 1d96 96be cda9 543e
000003a0: 8e95 89bd bb7d aebd 9837 28be fd48 d3bd
000003b0: 175f 673d 55a5 d0bd b9bb d73d 4ec3 c3be
000003c0: 89a9 a7bd 96e2 cfbd 4cc4 98be e3c7 39bd
000003d0: 75cd 2ebe 2654 cebd fd59 07be 888c 58be
000003e0: 3abd 3cbe 46be 4bbd b6e2 b5bd 7a58 c43d
000003f0: 5a30 9abe 3524 bebe 81a5 92be 0869 b7be

network_body._body_endoder.fc.weight f4 [64, 276]
0.3859167 0.055236794 0.21661161 -0.30153456 -0.03623279 0.29653266 0.038712908 0.009220803
-0.192047 -0.5567038 -0.2808976 0.044794362 -0.008061781 -0.28821793 0.3935659 -0.22347322
0.16247232 0.14041737 0.10416761 -0.034695443 0.2336529 0.14571917 -0.12669517 -0.32096756
0.0762623 -0.3315107 0.323914 -0.23026417 -0.14845377 -0.22402039 -0.2427781 -0.21825044
0.0789067 -0.18524392 0.20241584 -0.32440823 -0.04272467 0.03153736 0.055430107 0.05801112
-0.28472504 -0.110747 -0.13067718 -0.3930235 -0.19676812 0.11485802 -0.03376829 -0.05355764
0.4592462 -0.4547638 0.23428486 -0.21623567 -0.0075619807 -0.10079291 -0.029826034 -0.07175306
-0.054382674 -0.065827794 0.050660457 -0.10753968 -0.13945681 -0.09988123 0.39555037 0.018011149
0.3500752 -0.11326779 0.019981429 -0.059118126 -0.124320835 -0.31783092 -0.033545017 -0.15683003
0.0390158 -0.020497138 -0.14873078 -0.19953613 0.08963186 0.068560526 0.114141196 -0.14659035
-0.04315205 -0.11367439 0.09483647 0.14902069 -0.3060818 -0.101485625 0.10709716 -0.23749243
0.07486562 -0.24718037 -0.31092566 0.40982616 0.45677012 -0.21042079 -0.3901044 0.12670119
-0.046570763 0.11559041 -0.13731042 -0.05776083 0.22666135 -0.09705705 -0.4507079 0.008020895
0.04556261 -0.28137118 -0.13017884 -0.098541774 -0.24354401 -0.08277487 0.04898813 -0.27587876
-0.27645552 0.2586986 -0.060900625 0.050384365 -0.3697072 0.2870995 -0.13116828 0.06404036
-0.032076772 0.2930705 0.046738226 -0.09227673 -0.2676177 -0.09794138 0.037836842 0.09436957
0.08437373 -0.17190936 -0.40710676 -0.2019032 -0.14801322 0.03809984 -0.15588766 0.042354144
0.10484416 -0.44490442 0.03532425 0.08523854 0.049709912 0.054629754 0.066589005 -0.3025424
0.19620658 0.058485217 0.027519012 0.07019626 -0.06533795 -0.19982639 -0.07004998 0.0533815
0.017481249 -0.25893047 0.17098776 0.647263 -0.10212387 0.06380431 0.4059657 -0.21737504
-0.30294365 0.43429953 -0.023637548 -0.12158777 -0.11015284 -0.029586282 0.17550834 0.15193869
-0.1980746 -0.11558508 -0.5687597 0.009567185 -0.20901428 -0.04244756 -0.18464018 -0.12916014
0.6435757 0.18534988 -0.39932624 0.032633137 -0.09967249 -0.046878707 0.05166294 -0.13696043
0.14064224 -0.018522132 -0.09978073 0.296114 -0.126444 0.4449912 -0.0152815655 -0.052736156
-0.18237284 0.50696933 -0.17007685 0.121859856 -0.10432762 0.099840246 -0.18051672 0.32665846
0.14048968 -0.05020475 -0.37672675 -0.28256506 0.1595013 -0.013617845 -0.09589173 -0.15349971
-0.31329033 -0.21636745 -0.22151868 -0.19922791 0.052917417 -0.34858498 0.26118958 0.12300531
-0.19113556 -0.026820268 -0.036955647 -0.14177556 -0.21060991 0.056949284 0.112110935 -0.06998123
-0.4349048 0.064178675 0.32280082 0.019277178 -0.23973277 0.13138416 0.043593336 -0.05122345
-0.009996744 -0.16409838 -0.037052322 0.29078275 -0.008485167 -0.024625719 -0.17937283 0.19538142
-0.17810407 0.26757973 -0.013541908 -0.17634484 0.012520673 -0.114325024 -0.07211661 -0.08275053
-0.16961074 0.004294959 -0.17584285 0.032723118 0.21625334 0.19931507 0.32736874 0.24182236
00000000: e096 c53e fa3f 623d 6fcf 5d3e bd62 9abe
00000010: d668 14bd 21d3 973e 6d91 1e3d da12 173c
00000020: f8a7 44be 2484 0ebf cfd1 8fbe 4b7a 373d
00000030: 8f15 04bc 4d91 93be 7881 c93e 2ad6 64be
00000040: 255f 263e 92c9 0f3e d455 d53d cf1c 0ebd
00000050: b542 6f3e 6837 153e 61bc 01be dc55 a4be
00000060: 692f 9c3d c5bb a9be 0ed8 a53e 5fca 6bbe
00000070: 4404 18be 9a65 65be d29a 78be 0b7d 5fbe
00000080: d699 a13d 95b0 3dbe 1946 4f3e d618 a6be
00000090: 1000 2fbd 522d 013d ae0a 633d 119d 6d3d
000000a0: 7bc7 91be 53cf e2bd 3dd0 05be 603a c9be
000000b0: 957d 49be ae3a eb3d 9e50 0abd 425f 5bbd
000000c0: 5122 eb3e cdd6 e8be 5fe8 6f3e e26c 5dbe
000000d0: 7eca f7bb 836c cebd ba55 f4bc 45f3 92bd
000000e0: 5ec0 5ebd b9d0 86bd 5781 4f3d c43d dcbd
000000f0: c4cd 0ebe 888e ccbd 9485 ca3e 1e8c 933c
00000100: 0e3d b33e f1f8 e7bd 18b0 a33c d925 72bd
00000110: ec9b febd bcba a2be 8066 09bd 0d98 20be
00000120: 08cf 1f3d 9de9 a7bc e24c 18be 3353 4cbe
00000130: e990 b73d 7669 8c3d dcc2 e93d c81b 16be
00000140: 34c0 30bd 1ece e8bd a039 c23d e198 183e
00000150: c1b6 9cbe b2d7 cfbd c155 db3d 3731 73be
00000160: 2553 993d da1c 7dbe a631 9fbe bcd4 d13e
00000170: c6dd e93e 8c78 57be c4bb c7be f5bd 013e
00000180: fcc0 3ebd aaba ec3d 1a9b 0cbe 9f96 6cbd
00000190: ea19 683e d9c5 c6bd 30c3 e6be 126a 033c
000001a0: dc9f 3a3d e20f 90be 9a4d 05be 45d0 c9bd
000001b0: 9a63 79be df85 a9bd c7a7 483d fb3f 8dbe
000001c0: 948b 8dbe 2574 843e ef72 79bd d65f 4e3d
000001d0: 434a bdbe b5fe 923e fa50 06be 9827 833d
000001e0: ef62 03bd 560d 963e 9570 3f3d 95fb bcbd
000001f0: 3005 89be 7e95 c8bd cefa 1a3d d544 c13d
00000200: 22cc ac3d 0209 30be 4c70 d0be b6bf 4ebe
00000210: c790 17be 940e 1c3d 04a1 1fbe 8a7b 2d3d
00000220: 89b8 d63d 83ca e3be 29b0 103d 8b91 ae3d
00000230: 9f9c 4b3d 73c3 5f3d d15f 883d d6e6 9abe
00000240: 61ea 483e 328e 6f3d 8d6f e13c 0fc3 8f3d
00000250: e7cf 85bd 4a9f 4cbe 5d76 8fbd 8fa6 5a3d
00000260: d634 8f3c 8992 84be 6a17 2f3e 07b3 253f
00000270: 5226 d1bd d6ab 823d bcda cf3e 9097 5ebe
00000280: 6e1b 9bbe 825c de3e 88a3 c1bc 0203 f9bd
00000290: d097 e1bd ee5e f2bc 75b8 333e d195 1b3e
000002a0: 11d4 4abe dfb7 ecbd 3c9a 11bf afbf 1c3c
000002b0: d707 56be 7edd 2dbd 5112 3dbe 8e42 04be
000002c0: 61c1 243f 5ccc 3d3e 7d74 ccbe 53aa 053d
000002d0: 1721 ccbd e303 40bd 859c 533d 5b3f 0cbe
000002e0: 8504 103e babb 97bc d759 ccbd 419c 973e
000002f0: 897a 01be e3d5 e33e 885f 7abc de01 58bd
00000300: f2bf 3abe bec8 013f a028 2ebe a991 f93d
00000310: b8a9 d5bd 0b79 cc3d 60d9 38be c73f a73e
00000320: 87dc 0f3e 7fa3 4dbd 54e2 c0be 5eac 90be
00000330: 4f54 233e 621d 5fbc e262 c4bd 072f 1dbe
00000340: 9767 a0be 6e8f 5dbe cbd5 62be 6702 4cbe
00000350: efbf 583d bb79 b2be a4ba 853e 35ea fb3d
00000360: 0ab9 43be 2eb6 dbbc ce5e 17bd 9d2d 11be
00000370: 20aa 57be a743 693d 6b9a e53d 5252 8fbd
00000380: d8ab debe 1c70 833d 2646 a53e 2ceb 9d3c
00000390: 827c 75be 9289 063e ed8e 323d aecf 51bd
000003a0: 62c9 23bc 6809 28be 2dc4 17bd 7ae1 943e
000003b0: 5f05 0bbc e0bb c9bc 83ad 37be 1112 483e
000003c0: ea60 36be 3600 893e e1de 5dbc be93 34be
000003d0: 8223 4d3c 3d23 eabd e0b1 93bd 1c79 a9bd
000003e0: 70ae 2dbe babc 8c3b 2610 34be ad08 063d
000003f0: 8471 5d3e 4019 4c3e e09c a73e 48a0 773e

network_body._body_endoder.fc.bias f4 [64]
-0.08399714 -0.054554027 -0.15056728 0.027959008 -0.15553689 -0.03446222 -0.054800738 0.1069971
-0.01237902 -0.05941065 0.17204878 0.055692147 0.111973755 0.06362318 -0.020689402 -0.12310569
0.008833505 0.060279768 -0.099503726 -0.00921912 -0.041005593 0.08241078 0.06175795 0.033108298
0.084943466 -0.06463984 -0.07390907 -0.010318216 0.062882766 0.141518 0.119588904 0.08080028
0.03627322 -0.18609886 -0.08364414 0.075329185 -0.10197095 0.08926289 -0.051437512 0.019874154
-0.04792035 -0.12190735 0.04704061 0.13011222 -0.053654037 -0.22456583 0.05887744 0.047131985
0.1351097 -0.060542423 0.03874734 0.03730471 -0.15599 -0.041772533 -0.14024289 0.064049885
-0.107336834 0.24128295 0.07071396 0.034215897 0.08429323 -0.037739158 0.10228646 -0.1283125
00000000: b106 acbd 0b74 5fbd 4f2e 1abe 4a0a e53c
00000010: 1045 1fbe 4228 0dbd bd76 60bd 4c21 db3d
00000020: 60d1 4abc 9558 73bd 8e2d 303e 731d 643d
00000030: 7f52 e53d df4c 823d d27c a9bc d61e fcbd
00000040: 68ba 103c ebe7 763d 9cc8 cbbd cb0b 17bc
00000050: 7bf5 27bd fcc6 a83d e7f5 7c3d 919c 073d
00000060: d7f6 ad3d e461 84bd a35d 97bd bc0d 29bc
00000070: aec8 803d 18ea 103e 07eb f43d 9e7a a53d
00000080: 3a93 143d b390 3ebe 9e4d abbd 3046 9a3d
00000090: 25d6 d0bd 76cf b63d 24b0 52bd 1fcf a23c
000000a0: 2148 44bd 90aa f9bd a8ad 403d 233c 053e
000000b0: 56c4 5bbd 96f4 65be 7829 713d 780d 413d
000000c0: 325a 0a3e 55fb 77bd 88b5 1e3d d3cc 183d
000000d0: d8bb 1fbe ad19 2bbd d59b 0fbe 962c 833d
000000e0: 6ad3 dbbd e112 773e 7bd2 903d f825 0c3d
000000f0: eea1 ac3d 6094 1abd 907b d13d 5a64 03be

action_model._continuous_distribution.log_sigma f4 [1, 2]
2.3039849 2.1406007
00000000: 7d74 1340 9aff 0840

action_model._continuous_distribution.mu.weight f4 [2, 64]
-0.18368655 0.11254535 -0.28044683 0.20281827 -0.08368771 -0.2758158 -0.06724138 0.09176571
-0.17352867 -0.31652403 0.2008095 0.26388714 -0.07805559 0.061965354 -0.17079112 -0.2112856
-0.06268605 0.041392077 -0.26326212 0.14157867 -0.024047082 0.043893475 0.042591166 0.14290537
0.0037404953 -0.071440674 0.2627161 -0.14550282 -0.24039653 0.21563375 -0.13394259 0.27361456
-0.20454416 -0.13011788 -0.06498358 -0.041437548 -0.04702412 0.1416339 -0.11192511 0.19762918
-0.14618544 0.34581915 0.030184716 -0.036942028 -0.27216423 -0.017326389 0.08181632 -0.22287047
0.11410781 -0.22066107 0.025510158 -0.22879411 -0.1619888 0.23606354 -0.13317123 0.112506405
-0.053136222 0.24940611 0.033066094 -0.17198494 0.0662659 0.29583487 0.05588099 -0.05032957
0.017626122 0.044187486 0.09629539 -0.05230894 0.113493554 0.035620924 -0.12000064 0.0912641
-0.1378429 -0.064692564 -0.069646515 -0.038603276 0.16490683 -0.017424773 0.016908912 -0.10511262
-0.056028094 0.06666027 0.0778744 -0.18798971 -0.16098374 0.04659679 0.052996945 -0.015533623
-0.16040649 0.087330475 -0.15716863 -0.024111778 0.060152505 0.0023478377 0.16800527 -0.08265766
-0.10682236 0.038889103 -0.055690233 -0.010277605 0.21400003 -0.0035293843 -0.116150506 -0.13112532
-0.0235585 -0.10210648 0.18759994 0.17913236 -0.09247711 -0.20501043 0.0958322 0.15136434
0.06429385 -0.02047674 0.028504105 0.013792571 -0.17171727 -0.09449887 -0.130328 0.09922566
-0.048480652 0.091759585 -0.010894868 0.042694252 0.055035688 -0.0476241 0.09837754 -0.048489265
00000000: 5418 3cbe 2d7e e63d ba96 8fbe 98af 4f3e
00000010: 7664 abbd bb37 8dbe d9b5 89bd a9ef bb3d
00000020: 80b1 31be 700f a2be 01a1 4d3e 371c 873e
00000030: 9cdb 9fbd 62cf 7d3d dee3 2ebe 415b 58be
00000040: 8b61 80bd bd8a 293d 4bca 86be 00fa 103e
00000050: 63fe c4bc a5c9 333d 1374 2e3d c955 123e
00000060: 1923 753b 7d4f 92bd ba82 863e b1fe 14be
00000070: 822a 76be 18cf 5c3e 3f28 09be 3517 8c3e
00000080: 0674 51be 9f3d 05be 1c16 85bd 6bba 29bd
00000090: 5d9c 40bd 7a08 113e fe38 e5bd 4e5f 4a3e
000000a0: a3b1 15be 350f b13e f045 f73c 8650 17bd
000000b0: 1c59 8bbe 12f0 8dbc 518f a73d 2838 64be
000000c0: 5bb1 e93d faf4 61be aefa d03c 0149 6abe
000000d0: 64e0 25be a4ba 713e 0a5e 08be c269 e63d
000000e0: 5ea5 59bd 5164 7f3e 5070 073d d21c 30be
000000f0: 6bb6 873d ab77 973e 77e3 643d 6126 4ebd
00000100: a864 903c f0fd 343d 8436 c53d e641 56bd
00000110: 4f6f e83d 3fe7 113d e5c2 f5bd ace8 ba3d
00000120: b026 0dbe 897d 84bd d5a2 8ebd 781e 1ebd
00000130: 56dd 283e 66be 8ebc 8f84 8a3c 4945 d7bd
00000140: b77d 65bd 2e85 883d 9d7c 9f3d 6080 40be
00000150: ecd8 24be 47dc 3e3d 5313 593d bd80 7ebc
00000160: 9941 24be 52da b23d d0f0 20be 1086 c5bc
00000170: 7962 763d 2ede 193b 9309 2c3e 6b48 a9bd
00000180: aec5 dabd 2e4a 1f3d 711b 64bd 6663 28bc
00000190: d322 5b3e 3e4d 67bb 51e0 edbd b745 06be
000001a0: c1fd c0bc 341d d1bd 331a 403e 796e 373e
000001b0: a464 bdbd 41ee 51be ac43 c43d 41ff 1a3e
000001c0: 7eac 833d d6be a7bc 7181 e93c 3cfa 613c
000001d0: a7d6 2fbe a088 c1bd b474 05be d336 cb3d
000001e0: a693 46bd 73ec bb3d 6380 32bc 2be0 2e3d
000001f0: 1a6d 613d 7d11 43bd 2a7a c93d ae9c 46bd

action_model._continuous_distribution.mu.bias f4 [2]
0.05231003 0.06855115
00000000: 0b43 563d 8c64 8c3d

action_model._discrete_distribution.branches.0.weight f4 [1, 64]
-0.002372543 0.008079874 -0.008925188 -0.0034000904 0.013664784 -0.020208066 0.014080501 0.0021812029
-0.0082623325 -0.009577593 -0.0064546317 -0.02302522 0.015942378 0.008856576 -0.018692091 0.0033244274
-0.0084882025 -0.016191384 0.00913974 0.0037460623 -0.0075191357 -0.0053667678 -0.019039838 0.002755211
0.008884998 -0.0061192247 -0.0013852736 0.021914355 -0.006424654 0.006574613 -0.025525732 -0.0006568859
-0.0023418728 0.0043391273 0.00209901 -0.0022126744 0.009678291 0.009524063 -0.00048146443 -0.004068466
-0.002471252 0.0038423582 0.0102180755 -0.020459626 -0.0065203733 -0.011625889 0.0038537704 0.008797503
0.021960037 0.0034120746 -0.0021674759 0.013868316 -0.0103429705 0.018928787 0.00023464451 -0.0071754116
-0.008662337 0.024348548 0.0075284103 0.010765574 -0.0066644675 0.008664847 -0.016591588 -0.0075816633
00000000: ab7c 1bbb 7361 043c f43a 12bc 0dd4 5ebb
00000010: 42e2 5f3c 638b a5bc e7b1 663c 83f2 0e3b
00000020: bc5e 07bc 56eb 1cbc 6081 d3bb 639f bcbc
00000030: 9799 823c 2c1b 113c 2820 99bc a3de 593b
00000040: 1a12 0bbc cba3 84bc d9be 153c 7f80 753b
00000050: 1563 f6bb b6db afbb 6ff9 9bbc c590 343b
00000060: 6292 113c c783 c8bb 1292 b5ba bc85 b33c
00000070: e785 d2bb da6f d73b 571b d1bc de32 2cba
00000080: 1b7a 19bb 3d2f 8e3b 8b8f 093b 8402 11bb
00000090: b291 1e3c d10a 1c3c 106d fcb9 c450 85bb
000000a0: bbf4 21bb 13d0 7b3b b769 273c f29a a7bc
000000b0: dba8 d5bb 837a 3ebc 8a8f 7c3b 6723 103c
000000c0: 89e5 b33c 1d9d 5f3b 360c 0ebb ef37 633c
000000d0: 9075 29bc 8b10 9b3c e80a 7639 b71f ebbb
000000e0: 7aec 0dbc 9b76 c73c e2b0 f63b 1762 303c
000000f0: 9b61 dabb 01f7 0d3c 15eb 87bc 9a6f f8bb

onnx::MatMul_196 f4 [138, 138]
0.11423913 0.06331621 0.11107821 -0.07184674 0.08333377 0.009996378 0.14669362 0.12601691
0.13148612 -0.12135841 -0.030017748 -0.08821494 -0.05670712 0.08679248 0.12298211 -0.11475839
-0.06311434 0.11374421 0.14680089 0.005695596 -0.113920465 0.07641668 0.07392557 0.037801478
-0.08808151 -0.006686275 -0.09891423 0.050075695 -0.12031321 0.001712122 -0.11843655 -0.059726175
-0.022064922 0.0259076 -0.012708301 -0.04418552 0.058518227 0.116825186 0.07651412 -0.14028956
-0.05896423 -0.09912369 0.073611684 -0.12780485 0.0468092 0.07788617 0.08723943 0.08323126
0.1360103 0.11527898 0.13968667 0.050467227 0.12673007 0.14305125 0.013722744 0.007225644
-0.0903466 0.08292042 0.061382607 0.14478435 -0.010364402 -0.121785864 0.11690568 0.027510801
-0.0663393 0.022319755 -0.11816281 0.1209477 -0.091733 0.04831116 -0.083837114 0.12904662
-0.08228139 0.08492365 0.1209212 -0.04188811 -0.1448284 0.1139096 -0.09663589 -0.08613177
-0.06412481 0.05252573 -0.010001932 -0.016446777 -0.025771743 -0.0031466417 0.033613853 -0.09004572
0.04095408 -0.0788749 -0.026572298 0.053506494 0.06980271 0.07172445 0.040350027 0.1121767
-0.021154163 -0.012940706 0.074791364 -0.020659158 0.046997055 -0.108678505 -0.064380616 0.065282315
-0.102486186 0.030426523 -0.107078984 -0.10625329 -0.03672128 -0.070039205 0.034291375 -0.10195022
-0.03694323 -0.076159954 -0.0718233 -0.14326023 -0.09852924 0.006798958 -0.021819687 0.1306111
-0.03195303 -0.11160924 -0.040104214 0.0019613737 0.051372677 0.054399837 -0.026933625 -0.029176926
0.05868522 0.02207792 0.05992111 0.058261313 0.029256301 -0.12438517 0.06410573 0.037002683
-0.10106036 0.06791133 0.089710996 0.14265093 -0.01615528 0.102446415 -0.12799346 0.12667733
0.048590362 0.14687909 0.0075790887 -0.03543471 0.03916179 -0.107167006 -0.09965579 0.09857249
0.058498207 0.14282133 0.10716065 -0.14652714 -0.12060459 0.025785303 0.13867567 0.006326028
-0.109080836 -0.035797983 -0.051919095 0.05595934 -0.061336074 0.016268095 0.13846865 0.13480431
-0.11490518 0.031743966 -0.0831366 -0.007076947 -0.09087424 0.0573544 -0.07741601 0.008555812
-0.05971323 0.014600283 0.09177245 0.077698864 0.08189763 0.070600525 0.018014228 0.13821247
-0.05434128 -0.014235941 -0.1339127 -0.07002188 -0.10822515 0.093061134 -0.03194256 0.10975451
0.09026437 0.09636445 -0.035119902 -0.11537814 0.06799632 0.040219788 -0.062467143 -0.105636306
-0.08050411 -0.07840405 -0.11447601 0.12742457 -0.03506267 -0.05147544 -0.0028494063 -0.024800556
0.03985815 0.025492638 -0.035628036 0.04685537 -0.017979223 -0.036973506 0.012814428 -0.12332982
0.00832593 0.025539303 0.036630202 -0.09178302 -0.05296788 -0.017697904 -0.03913573 0.01891553
0.07317677 -0.09035669 -0.027050097 0.12378755 0.06352247 -0.08330441 -0.09464418 -0.009179275
-0.0023024185 0.08146938 -0.12765808 0.11116576 -0.019655753 0.11744646 0.14058994 0.047789894
0.13958764 -0.11906324 0.05750503 -0.11118174 0.042672724 0.020147182 0.06038532 0.04032187
-0.052306462 -0.105178334 0.07493955 -0.087196626 0.08022873 0.03195334 0.14445394 -0.13020568
00000000: 34f6 e93d eeab 813d f97c e33d 6224 93bd
00000010: e5aa aa3d d9c7 233c da36 163e 940a 013e
00000020: 4ca4 063e c28a f8bd c8e7 f5bc 09aa b4bd
00000030: ba45 68bd 41c0 b13d 0bde fb3d 7206 ebbd
00000040: 1742 81bd b9f2 e83d f952 163e 1fa2 ba3b
00000050: 224f e9bd 5980 9c3d 4a66 973d b9d5 1a3d
00000060: 1464 b4bd 8a18 dbbb 8b93 cabd 2c1c 4d3d
00000070: c666 f6bd 4869 e03a dd8e f2bd 6fa3 74bd
00000080: 7fc1 b4bc 2d3c d43c 7a36 50bc e0fb 34bd
00000090: cfb0 6f3d 0b42 ef3d 6fb3 9c3d 11a8 0fbe
000000a0: 7a84 71bd 5c01 cbbd b9c1 963d 46df 02be
000000b0: 01bb 3f3d c982 9f3d 96aa b23d 2775 aa3d
000000c0: 4946 0b3e 6317 ec3d 060a 0f3e b9b6 4e3d
000000d0: 87c5 013e 077c 123e 5cd5 603c 18c5 ec3b
000000e0: a307 b9bd 2ed2 a93d 546c 7b3d 5942 143e
000000f0: 74cf 29bc de6a f9bd 3f6c ef3d 555e e13c
00000100: e6dc 87bd ebd7 b63c 58ff f1bd 6eb3 f73d
00000110: 83de bbbd ece1 453d cbb2 abbd cc24 043e
00000120: 2583 a8bd 73ec ad3d 89a5 f73d de92 2bbd
00000130: e54d 14be 7049 e93d 0ae9 c5bd da65 b0bd
00000140: de53 83bd 3825 573d 25df 23bc 64bb 86bc
00000150: 431f d3bc e337 4ebb aeae 093d e469 b8bd
00000160: 77bf 273d 2a89 a1bd 26ae d9bc a029 5b3d
00000170: b9f4 8e3d 45e4 923d 1246 253d e6bc e53d
00000180: 7f4b adbc 4105 54bc 372c 993d 653d a9bc
00000190: fc7f 403d d692 debd fcd9 83bd bcb2 853d
000001a0: 47e4 d1bd 0b41 f93c 3a4c dbbd 539b d9bd
000001b0: 0e69 16bd b770 8fbd 1d75 0c3d 47cb d0bd
000001c0: c951 17bd c0f9 9bbd 1818 93bd cfb2 12be
000001d0: b3c9 c9bd cbc9 de3b 33bf b2bc ebbe 053e
000001e0: 2ee1 02bd 6393 e4bd 5144 24bd 648a 003b
000001f0: 286c 523d 5dd2 5e3d e8a3 dcbc 7304 efbc
00000200: ea5f 703d c1dc b43c d66f 753d 6aa3 6e3d
00000210: e9aa ef3c a7bd febd dd49 833d 2090 173d
00000220: bcf8 cebd 1815 8b3d 66ba b73d 1613 123e
00000230: 1458 84bc 6dcf d13d b810 03be b4b7 013e
00000240: b006 473d 7967 163e 015a f83b fd23 11bd
00000250: 1d68 203d 607a dbbd 5618 ccbd 60e0 c93d
00000260: d19b 6f3d c13f 123e 0b77 db3d 360b 16be
00000270: 8aff f6bd b33b d33c ff00 0e3e 924a cf3b
00000280: c665 dfbd e8a0 12bd 1ea9 54bd 9f35 653d
00000290: 893b 7bbd ab44 853c baca 0d3e 240a 0a3e
000002a0: 6853 ebbd f605 023d 8643 aabd bce5 e7bb
000002b0: 461c babd 73ec 6a3d 498c 9ebd ad2d 0c3c
000002c0: dc95 74bd 0636 6f3c 32f3 bb3d 9520 9f3d
000002d0: f2b9 a73d 0297 903d 9392 933c 9287 0d3e
000002e0: f694 5ebd dd3d 69bc 6920 09be a267 8fbd
000002f0: 26a5 ddbd d696 be3d 34d6 02bd f9c6 e03d
00000300: 87dc b83d ba5a c53d e3d9 0fbd 604b ecbd
00000310: a841 8b3d 81bd 243d 8cdd 7fbd d957 d8bd
00000320: 57df a4bd 4d92 a0bd 6672 eabd 967b 023e
00000330: e09d 0fbd e9d7 52bd 1bbd 3abb 892a cbbc
00000340: 4d42 233d f0d5 d03c b4ee 11bd 6beb 3f3d
00000350: 2a49 93bc 8871 17bd 9bf3 513c 5894 fcbd
00000360: 7b69 083c cd37 d13c 8d09 163d bcf8 bbbd
00000370: d9f4 58bd 32fb 90bc ca4c 20bd bef4 9a3c
00000380: b4dd 953d ee0c b9bd 2a98 ddbc 5484 fd3d
00000390: 1218 823d 819b aabd cfd4 c1bd ab64 16bc
000003a0: 2ce4 16bb 6bd9 a63d cdb8 02be e0aa e33d
000003b0: 1a05 a1bc c587 f03d cff6 0f3e 56bf 433d
000003c0: 10f0 0e3e 6ed7 f3bd 658a 6b3d 41b3 e3bd
000003d0: 98c9 2e3d b40b a53c 9956 773d 8c28 253d
000003e0: 4d3f 56bd bd67 d7bd e879 993d 2594 b2bd
000003f0: f64e a43d 81e1 023d bceb 133e a354 05be
