Assets/oon/simple_testing.onnx (onnx, 155382 bytes, 12 tensors)

network_body.observation_encoder.processors.0.normalizer.running_mean f4 [126]
0.0502175 0.37470746 0.08783405 0.42329663 0.14527084 0.45354012 0.16501595 0.47029936
0.17852946 0.46976906 0.18519756 0.46021235 0.18884212 0.4495288 0.19126706 0.44207945
0.19579707 0.43701044 0.20350589 0.4334289 0.21192555 0.42715463 0.21774967 0.41375023
0.21887846 0.38906172 0.21307327 0.36044636 0.19925918 0.33319312 0.17639735 0.30412427
0.14121546 0.26746815 0.099065065 0.22424771 0.0675866 0.18859462 0.0459244 0.15568423
0.027493196 0.12188755 0.052447014 0.38505745 0.09027756 0.43351874 0.14845799 0.46367615
0.1691366 0.48048908 0.18344752 0.48008162 0.1903962 0.4707434 0.19412398 0.46019617
0.19653612 0.4526655 0.20102341 0.4474315 0.20873336 0.44377357 0.21729523 0.43761855
0.22341992 0.42440578 0.22520302 0.39984074 0.22005351 0.37100133 0.20655268 0.34378183
0.1835887 0.3144474 0.14807156 0.27734748 0.105526164 0.23366794 0.07343787 0.19742018
0.050695512 0.16361415 0.030319057 0.1283517 0.054990336 0.39483663 0.09315331 0.44385847
0.15159681 0.47445256 0.17273346 0.49189657 0.1878854 0.4923173 0.19572777 0.4838591
0.20047662 0.47397596 0.20429265 0.4669639 0.21003734 0.46202302 0.2180564 0.45816737
0.22614028 0.45131838 0.23187362 0.4373046 0.23342055 0.41233456 0.22797629 0.38341466
0.21422626 0.3562143 0.19089699 0.3268511 0.1550458 0.28949514 0.11208353 0.24525869
0.079503775 0.20814222 0.056215193 0.17318982 0.034472365 0.13637775
00000000: deb0 4d3d a8d9 bf3e 57e2 b33d 56ba d83e
00000010: e1c1 143e 6936 e83e f1f9 283e 14cb f03e
00000020: 6dd0 363e 9285 f03e 6ea4 3d3e f4a0 eb3e
00000030: d45f 413e a428 e63e 83db 433e 3d58 e23e
00000040: 077f 483e d5bf df3e d963 503e 65ea dd3e
00000050: 0303 593e 03b4 da3e c5f9 5e3e 12d7 d33e
00000060: ad21 603e 1933 c73e e12f 5a3e 6d8c b83e
00000070: 990a 4c3e 4a98 aa3e 82a1 343e 2db6 9b3e
00000080: c99a 103e 96f1 883e a0e2 ca3d 31a1 653e
00000090: d86a 8a3d f31e 413e 391b 3c3d b06b 1f3e
000000a0: 6939 e13c 2ea0 f93d aed2 563d 4026 c53e
000000b0: 71e3 b83d 2bf6 dd3e 5f05 183e f666 ed3e
000000c0: 2532 2d3e aa02 f63e abd9 3b3e 42cd f53e
000000d0: 39f7 423e 4705 f13e 70c8 463e d59e eb3e
000000e0: c440 493e c6c3 e73e 15d9 4d3e be15 e53e
000000f0: 33be 553e 4a36 e33e a482 5e3e 8a0f e03e
00000100: 31c8 643e b74b d93e 9f9b 663e edb7 cc3e
00000110: b555 613e e3f3 bd3e 8c82 533e 2c04 b03e
00000120: adfe 3b3e 40ff a03e 12a0 173e 7d00 8e3e
00000130: 1a1e d83d a646 6f3e 9866 963d 8428 4a3e
00000140: 19a6 4f3d 788a 273e ac5f f83c a16e 033e
00000150: 8c3d 613d 0728 ca3e 2ac7 be3d 6b41 e33e
00000160: 323c 1b3e 72eb f23e 0ae1 303e ded9 fb3e
00000170: 0865 403e 0311 fc3e dc6c 483e 61bc f73e
00000180: be49 4d3e faac f23e 1832 513e e415 ef3e
00000190: 0714 573e 488e ec3e 2d4a 5f3e ea94 ea3e
000001a0: 5191 673e 3413 e73e 4770 6d3e 63e6 df3e
000001b0: cc05 6f3e 841d d33e 9e72 693e ed4e c43e
000001c0: 215e 5b3e b961 b63e 807a 433e 0759 a73e
000001d0: 54c4 1e3e b538 943e 0d8c e53d 1825 7b3e
000001e0: e0d2 a23d 3c23 553e e741 663d ac58 313e
000001f0: e532 0d3d 9ca6 0b3e

network_body.observation_encoder.processors.1.normalizer.running_mean f4 [21]
7.244556 -0.040300366 0.76335084 0.62442386 -0.114452004 0.017388035 0.6094861 -0.029645924
0.97918785 -0.003467951 0.612485 0.00563079 0.118665636 0.16969492 -0.0075285835 -0.07449251
0.038893674 -0.009692077 -0.036984682 0.0024433625 0.016717969
00000000: 67d3 e740 ff11 25bd f66a 433f 3eda 1f3f
00000010: d065 eabd 5a71 8e3c 4807 1c3f 02dc f2bc
00000020: 0eac 7a3f 9046 63bb d1cb 1c3f 7d82 b83b
00000030: f806 f33d 81c4 2d3e 56b2 f6bb 878f 98bd
00000040: f94e 1f3d 84cb 1ebc 407d 17bd d220 203b
00000050: 1ff4 883c

network_body._body_endoder.seq_layers.0.weight f4 [128, 147]
0.025475638 0.035868432 0.028643958 -0.0021876518 -0.027097242 0.077769406 0.17656688 -0.0021386223
0.17268229 -0.092771605 -0.011272131 -0.02766683 0.13401887 -0.03853308 0.14157392 0.14286245
0.03457467 0.0895008 0.08983304 -0.1356236 0.18141438 -0.0496449 -0.16016392 0.057901558
-0.07879159 -0.1785436 -0.22794175 -0.20816074 0.005519696 0.0047417693 -0.12209907 0.034647606
-0.032321427 0.013946279 -0.0274681 0.004855615 0.24851641 0.30258793 0.0062681586 0.015608481
0.21190627 0.0034261725 -0.021391246 0.028111376 -0.008049473 -0.10348165 -0.04498186 -0.070968755
0.012581881 0.019633131 -0.019123148 -0.052914478 0.23648508 0.09669736 0.07938977 -0.020664888
0.12047504 0.24902372 0.041667078 0.09422905 0.09610403 0.10635054 0.06510919 -0.054500572
-0.25738218 -0.103934295 -0.10819753 0.050987765 0.017156113 -0.20692597 0.047826145 -0.25834364
0.06346275 -0.2584263 0.03882275 -0.0407543 -0.06484453 -0.15872577 0.17934164 0.10341618
0.17609882 0.06709742 0.08182699 -0.086617485 -0.08272918 0.13451561 0.086222604 0.006648192
0.075303555 0.17584457 0.054171268 -0.088218935 0.13312599 -0.15850554 0.097512186 0.111800455
0.050310247 -0.09833579 -0.0051585096 -0.038324073 -0.10493636 -0.048821382 0.13522077 0.047470324
0.071768954 -0.113258496 -0.05196656 -0.08751929 -0.23582079 -0.23718183 -0.20769027 -0.369237
0.0068583153 -0.024359223 -0.041881096 -0.12590265 0.20313227 0.2190314 -0.011241509 -0.081466496
0.10846212 0.15389277 0.101285376 0.053955577 0.11700525 0.17112602 -0.5685093 -0.026376989
0.47640225 -0.4715876 -0.15283467 0.19971667 -0.22316292 0.04614968 -0.113706194 -0.056904376
-0.119954206 -0.059969805 0.39722994 -1.4574531 0.48838118 -0.33396572 0.35828656 0.04156209
0.10667927 0.020855049 0.15356252 0.10149323 0.0055186963 -0.2544218 0.067253105 -0.33836758
0.08233467 -0.20559199 -0.074742466 -0.029410277 -0.1079821 0.010324128 0.011824629 -0.025384832
-0.06085922 0.096861646 0.07277999 -0.09989636 -0.11120981 -0.19403456 -0.06853219 0.078965224
0.045550715 -0.0073261866 0.18154766 -0.04275582 0.15816225 0.2576153 -0.04154033 -0.058209725
-0.050324243 0.17827176 -0.048851658 -0.15037231 -0.25595862 -0.14494246 -0.027893016 -0.07398508
-0.02096673 -0.002335804 0.055261638 0.036369585 -0.08654561 0.19783925 0.21395372 -0.10196701
0.09701831 -0.124622494 0.14300333 -0.15421721 -0.073636256 -0.10276642 0.012820827 -0.12515862
0.13394804 0.032089494 -0.028479064 -0.123859845 -0.14825581 -0.017657552 -0.09577031 -0.00017231556
0.12142452 -0.06180286 0.050526723 -0.16338786 0.04904442 0.01603283 0.3271513 0.057378396
0.17856896 -0.06588868 -0.013380782 -0.11566197 -0.12437754 -0.3233439 -0.15587592 -0.10968931
-0.16446224 -0.18821397 0.28046477 0.028733425 0.19391014 0.15072463 0.1059629 -0.10118078
0.15693551 -0.020798575 -0.17387576 -0.3581065 0.20638669 -0.17151138 -0.13543493 -0.097464606
-0.028336896 -0.027114043 -0.36614883 -0.12706399 -0.14498891 -0.056657996 -0.12679847 -0.122345485
-0.055664822 -0.40488082 -0.25529572 -0.070325606 -0.05401154 -0.060374916 0.023304291 -0.08766779
00000000: 49b2 d03c c7ea 123d bca6 ea3c b55e 0fbb
00000010: 09fb ddbc 9145 9f3d f3cd 343e 2128 0cbb
00000020: a0d3 303e 0aff bdbd bfae 38bc 8ca5 e2bc
00000030: 3e3c 093e ddd4 1dbd c1f8 103e 894a 123e
00000040: 2b9e 0d3d 324c b73d 63fa b73d eae0 0abe
00000050: b1c4 393e 7358 4bbd 0302 24be 2f2a 6d3d
00000060: 7c5d a1bd 22d4 36be 9069 69be 1728 55be
00000070: 91de b43b d860 9b3b 140f fabd a6ea 0d3d
00000080: 7963 04bd ef7e 643c c804 e1bc da1b 9f3b
00000090: 167b 7e3e ceec 9a3e 2065 cd3b b7ba 7f3c
000000a0: f5fd 583e a389 603b b23c afbc d449 e63c
000000b0: f0e1 03bc 30ee d3bd e63e 38bd 1158 91bd
000000c0: 3c24 4e3c a9d5 a03c 26a8 9cbc dabc 58bd
000000d0: 2529 723e 4409 c63d 1b97 a23d 6949 a9bc
000000e0: 9ebb f63d 1300 7f3e 19ab 2a3d 29fb c03d
000000f0: 31d2 c43d 50ce d93d f857 853d fe3b 5fbd
00000100: 99c7 83be 81db d4bd ab96 ddbd 8cd8 503d
00000110: fa8a 8c3c 67e4 53be 59e5 433d 9e45 84be
00000120: c2f8 813d 7450 84be 9b04 1f3d fbed 26bd
00000130: 35cd 84bd 0289 22be 56a5 373e ddcb d33d
00000140: 4053 343e 5f6a 893d e994 a73d 8264 b1bd
00000150: eb6d a9bd 76be 093e 7a95 b03d 14d9 d93b
00000160: c038 9a3d 9910 343e b1e2 5d3d 21ac b4bd
00000170: 2e52 083e 474f 22be 78b4 c73d a3f7 e43d
00000180: 1e12 4e3d 4664 c9bd b708 a9bb b4f9 1cbd
00000190: e0e8 d6bd eef8 47bd 5077 0a3e 3e70 423d
000001a0: 9afb 923d 12f4 e7bd e3da 54bd 503d b3bd
000001b0: 017b 71be cbdf 72be c2ac 54be a20c bdbe
000001c0: b8bb e03b fe8c c7bc 838b 2bbd a0ec 00be
000001d0: e801 503e c449 603e 4e2e 38bc e8d7 a6bd
000001e0: 6321 de3d 1196 1d3e b56e cf3d 8600 5d3d
000001f0: 73a0 ef3d a93b 2f3e d389 11bf 8e14 d8bc
00000200: ffea f33e ee73 f1be b180 1cbe 8782 4c3e
00000210: d284 64be 7207 3d3d cbde e8bd 9014 69bd
00000220: 8daa f5bd e6a2 75bd b961 cb3e d38d babf
00000230: 190d fa3e 8efd aabe 5671 b73e 033d 2a3d
00000240: a97a da3d 35d8 aa3c 7e3f 1d3e afdb cf3d
00000250: 2ed6 b43b 9343 82be ffbb 893d 843e adbe
00000260: 149f a83d b586 52be 9412 99bd d2ed f0bc
00000270: b825 ddbd 8826 293c 17bc 413c daf3 cfbc
00000280: 8447 79bd 665f c63d ad0d 953d 7696 ccbd
00000290: f8c1 e3bd ffb0 46be 9b5a 8cbd 85b8 a13d
000002a0: 6393 3a3d 8210 f0bb a1e7 393e ba20 2fbd
000002b0: 49f5 213e 27e6 833e 3126 2abd 526d 6ebd
000002c0: cb20 4ebd df8c 363e ad18 48bd 33fb 19be
000002d0: 020d 83be cc6b 14be e57f e4bc 7d85 97bd
000002e0: 6bc2 abbc 4a14 19bb 075a 623d 46f8 143d
000002f0: d33e b1bd 5f96 4a3e af16 5b3e 14d4 d0bd
00000300: 89b1 c63d 143a ffbd 776f 123e 1eeb 1dbe
00000310: 9bce 96bd 3377 d2bd 720e 523c 9529 00be
00000320: ad29 093e 4670 033d ed4c e9bc 3baa fdbd
00000330: 5fd0 17be 92a6 90bc 3923 c4bd 9baf 34b9
00000340: 6bad f83d ff24 7dbd 1cf5 4e3d 264f 27be
00000350: cde2 483d 4857 833c 6080 a73e 9c05 6b3d
00000360: c8da 363e a5f0 86bd 113b 5bbc 2fe0 ecbd
00000370: a7b9 febd 558d a5be f09d 1fbe caa4 e0bd
00000380: ca68 28be 2abb 40be 1499 8f3e 5c62 eb3c
00000390: 6190 463e 8f57 1a3e 1403 d93d de37 cfbd
000003a0: b4b3 203e c661 aabc 7d0c 32be bc59 b7be
000003b0: 0857 533e aea0 2fbe 74af 0abe 869b c7bd
000003c0: c722 e8bc 451e debc dc77 bbbe 101d 02be
000003d0: f977 14be 3712 68bd 75d7 01be 4590 fabd
000003e0: cc00 64bd 8a4c cfbe 1fb6 82be df06 90bd
000003f0: 343b 5dbd b04b 77bd a4e8 be3c 2c8b b3bd

network_body._body_endoder.seq_layers.0.bias f4 [128]
-0.01868562 0.159965 0.116616085 -0.02867433 -0.12745331 -0.012190813 0.1830626 0.016643286
0.07241986 0.011908974 -0.010628908 0.0690128 -0.115808874 -0.045986325 -0.088683486 0.014409065
-0.025329644 0.043035418 0.025387563 0.09159134 -0.05570354 0.035852093 0.019382443 -0.016266309
0.12508868 -0.013327207 0.17232539 -0.069797575 0.007730617 0.019323979 0.056492697 0.115896516
-0.046780728 -0.11685968 -0.021341745 0.08778255 0.0062923906 -0.044193894 -0.11522159 0.05597088
0.005370923 -0.03251212 0.00047968415 -0.025824538 -0.0415322 -0.02358266 0.067465216 -0.025950678
-0.08837743 0.009333381 0.0781564 -0.033756595 -0.038228173 -0.09574212 0.15415083 0.059492543
-0.014844438 0.18545005 0.03847647 0.14350991 0.015179412 -0.032149926 -0.011374394 0.050032843
0.1593839 0.026691573 0.3201812 0.031755958 -0.021828907 -0.0017678398 0.17460036 -0.018250417
0.051982444 -0.050957415 0.0584964 -0.004622817 -0.053315908 -0.08221066 -0.06465712 0.13901463
-0.010112227 0.07686635 0.047266778 0.00017485548 -0.1411841 0.07193773 -0.048679225 -0.027103195
0.08722496 0.10042845 0.10675669 -0.040352713 -0.003815392 0.11214526 -0.048575375 0.015075848
0.06767924 -0.09369562 0.0033793808 0.10328088 -0.029074961 0.00727975 0.04399856 -0.15900396
0.039703116 -0.010345156 -0.10727061 0.027231118 -0.09664656 0.0072411 0.1364697 0.017306753
0.062177256 -0.08483202 -0.106712565 -0.12955397 0.088431306 0.004834609 0.0064312043 0.0878969
0.11270198 -0.025627771 -0.16022657 0.054578513 0.036724273 0.006259188 -0.07352005 0.030499319
00000000: 9612 99bc ddcd 233e 6ad4 ee3d 6ee6 eabc
00000010: 1f83 02be fabb 47bc c374 3b3e 8057 883c
00000020: dd50 943d db1d 433c df24 2ebc 9556 8d3d
00000030: 342d edbd 285c 3cbd b09f b5bd 0014 6c3c
00000040: 1d80 cfbc e845 303d 94f9 cf3c 3e94 bb3d
00000050: 6529 64bd a5d9 123d eec7 9e3c ec40 85bc
00000060: 3f17 003e 5c5a 5abc 1176 303e 08f2 8ebd
00000070: 1e51 fd3b 524d 9e3c e364 673d 275b ed3d
00000080: 269d 3fbd 2154 efbd e2d4 aebc 56c7 b33d
00000090: 6630 ce3b a804 35bd 4cf9 ebbd b941 653d
000000a0: 91fe af3b 6e2b 05bd 1e7e fb39 fb8d d3bc
000000b0: ab1d 2abd 6c30 c1bc 342b 8a3d 8496 d4bc
000000c0: 3aff b4bd 0aeb 183c 7610 a03d 5b44 0abd
000000d0: 2595 1cbd 7214 c4bd b7d9 1d3e 74ae 733d
000000e0: 1636 73bc 9ee6 3d3e 8199 1d3d 43f4 123e
000000f0: 12b3 783c a4af 03bd ab5b 3abc 3def 4c3d
00000100: 8835 233e 49a8 da3c caee a33e 8912 023d
00000110: 89d2 b2bc dcb6 e7ba 70ca 323e e681 95bc
00000120: 8beb 543d b9b8 50bd ec99 6f3d 007b 97bb
00000130: c861 5abd 105e a8bd f46a 84bd da59 0e3e
00000140: c1ad 25bc 1b6c 9d3d cf9a 413d 6959 3739
00000150: 9192 10be 1754 933d de63 47bd 8507 debc
00000160: 00a3 b23d 6ead cd3d 40a3 da3d e348 25bd
00000170: a80b 7abb 6aac e53d f9f6 46bd b100 773c
00000180: 6a9b 8a3d 7de3 bfbd 9a78 5d3b ed84 d33d
00000190: 9d2e eebc f88a ee3b d637 343d efd1 22be
000001a0: bc9f 223d bb7e 29bc b2b0 dbbd cb13 df3c
000001b0: a2ee c5bd c046 ed3b b7be 0b3e e4c6 8d3c
000001c0: 94ad 7e3d 69bc adbd 1e8c dabd cca9 04be
000001d0: 791b b53d a46b 9e3b dabc d23b 4a03 b43d
000001e0: 4cd0 e63d 55f1 d1bc 6f12 24be b88d 5f3d
000001f0: 316c 163d e019 cd3b ae91 96bd b5d9 f93c

network_body._body_endoder.seq_layers.2.weight f4 [128, 128]
0.08943248 0.1555667 -0.1983496 0.043190017 -0.040748253 0.11827184 0.032729074 -0.14854418
0.18313356 -0.0915663 0.16384594 -0.013025513 0.08327043 0.076007396 -0.06020208 -0.12632997
0.040419452 0.31732726 0.021949755 0.01350287 0.16211553 0.26814905 0.017768187 -0.18275413
0.18524739 0.17562608 0.04963894 -0.042878173 -0.18365814 0.06745389 -0.06500921 0.17577995
0.31302384 0.11524625 -0.14216103 0.17790629 -0.16528164 -0.25567985 -0.061955307 0.31626552
-0.23709582 -0.10601486 0.33502305 0.17694135 -0.0047673844 -0.22854544 0.06668993 -0.12800479
-0.08500307 -0.08050048 0.19149113 -0.007621334 0.072788216 -0.23250048 -0.25827855 0.04786233
-0.17021415 0.222707 -0.22916342 0.05923126 0.049567435 -0.046174265 0.12089251 0.09209993
0.037120126 -0.06442102 0.08150128 -0.036057167 -0.071519144 0.030636704 -0.08039077 0.074356996
0.2656314 -0.045155793 -0.1965072 -0.09695401 -0.007970104 0.2728132 0.16298474 0.23492354
0.12142807 -0.39702418 -0.23884293 -0.00013159444 0.32966843 -0.12008537 0.08964657 -0.10120259
0.09155112 0.09901378 0.028421987 0.021101953 -0.17235976 -0.238933 0.085366145 -0.06582751
0.0601233 -0.40153036 0.055275507 0.10335326 0.10702411 0.05428523 -0.105180494 0.29248944
-0.113479964 0.19339281 -0.039467186 0.013296303 -0.06599087 0.046237174 0.15765928 -0.20921361
-0.10112184 0.074006476 -0.061685923 -0.11060313 0.18988831 -0.030276662 -0.2479025 0.24541155
-0.10139464 -0.13333715 -0.031343162 0.11759336 0.10160373 -0.015108247 0.24937224 0.12289043
0.13890928 -0.15873744 -0.3923105 0.13832895 -0.19572882 -0.43856165 0.13625434 0.20956415
0.16574305 0.21665762 0.14522007 0.10235722 0.40537864 0.27470744 0.2762349 -0.32258677
0.046517972 0.37029478 0.044563692 -0.44300598 -0.059437294 0.18475063 0.21422832 -0.27859733
-0.23897842 0.25123036 0.251167 0.10524873 -0.06391362 0.07195046 -0.27446094 0.122881435
-0.14639218 -0.16413824 0.25461796 -0.06656169 -0.07425963 -0.2659975 -0.13580838 0.075230956
0.006477427 0.0819046 0.018994419 0.12543629 0.18487595 -0.0163949 0.1623776 -0.19755542
0.25130183 0.14566222 0.13508333 -0.016250549 0.014948096 -0.5372947 0.27414483 0.1996643
-0.16936634 -0.36563572 0.09566207 -0.06418067 -0.019887174 0.2512448 -0.253554 0.18874668
-0.17878954 -0.17769828 -0.55561036 -0.073511004 -0.3222123 0.09267691 -0.2536173 -0.019536437
0.26626796 0.0733407 0.3289351 -0.35889527 -0.37867862 -0.34265187 -0.15470001 0.16983864
0.0015368487 -0.18094513 -0.17157622 -0.1762837 -0.18580374 0.026858345 0.3230955 0.0954148
-0.15202983 0.23921503 -0.22895925 -0.37227964 0.07161335 0.178153 -0.094636045 -0.3331733
-0.19911495 -0.0020745082 0.04275753 -0.18066373 -0.36093307 0.24470392 -0.15671094 0.07342182
-0.14532678 -0.039646253 0.0365895 -0.15015082 0.12603162 0.006457544 0.016886206 -0.058206998
0.19748169 -0.21962918 -0.08192867 -0.25112355 0.043474864 -0.1343474 -0.41130224 0.3619428
-0.23019516 -0.386551 -0.38818625 0.3369746 0.04934646 0.045621194 0.054760326 0.0050773304
00000000: 6028 b73d e14c 1f3e 281c 4bbe 04e8 303d
00000010: a4e7 26bd 8238 f23d ec0e 063d f71b 18be
00000020: 5d87 3b3e 1d87 bbbd 3bc7 273e f668 55bc
00000030: b089 aa3d c4a9 9b3d 7596 76bd a55c 01be
00000040: de8e 253d b878 a23e f9cf b33c 243b 5d3c
00000050: 9d01 263e d54a 893e 978e 913c e623 3bbe
00000060: 7eb1 3d3e 53d7 333e 3352 4b3d 06a1 2fbd
00000070: e110 3cbe 4425 8a3d 8c23 85bd a9ff 333e
00000080: a944 a03e 3a06 ec3d a992 11be 112d 363e
00000090: 973f 29be 78e8 82be d9c4 7dbd 8eed a13e
000000a0: 3fc9 72be 521e d9bd 2488 ab3e 1d30 353e
000000b0: b837 9cbb d107 6abe bb94 883d b013 03be
000000c0: 1716 aebd 70dd a4bd 4016 443e 62bc f9bb
000000d0: fd11 953d 9b14 6ebe 163d 84be 4a0b 443d
000000e0: 9e4c 2ebe 4e0d 643e d1a9 6abe 7a9c 723d
000000f0: 3907 4b3d 3a21 3dbd 7e96 f73d e39e bc3d
00000100: 460b 183d 2bef 83bd 25ea a63d aeb0 13bd
00000110: a178 92bd d3f9 fa3c eba3 a4bd 7b48 983d
00000120: d700 883e 48f5 38bd 2f39 49be d38f c6bd
00000130: 0a95 02bc 2cae 8b3e 79e5 263e cc8f 703e
00000140: 48af f83d c146 cbbe 3e93 74be 9dfc 09b9
00000150: 4dca a83e 52ef f5bd 9f98 b73d 4e43 cfbd
00000160: 277f bb3d bdc7 ca3d 3ad5 e83c 01de ac3c
00000170: 147f 30be daaa 74be 72d4 ae3d 93d0 86bd
00000180: d943 763d 6395 cdbe 9268 623d e0aa d33d
00000190: 752f db3d 305a 5e3d df68 d7bd 2dc1 953e
000001a0: 2f68 e8bd c408 463e 58a8 21bd bdd8 593c
000001b0: 3926 87bd 3163 3d3d 6f71 213e 183c 56be
000001c0: f818 cfbd b590 973d 61aa 7cbd e583 e2bd
000001d0: 1572 423e c306 f8bc 27da 7dbe 2a4d 7b3e
000001e0: fea7 cfbd 8989 08be b061 00bd cad4 f03d
000001f0: 9e15 d03d 9588 77bc 705b 7f3e faad fb3d
00000200: 3c3e 0e3e 118c 22be ecdc c8be 1ba6 0d3e
00000210: 236d 48be 278b e0be 4286 0b3e fc97 563e
00000220: 8cb8 293e 7fdb 5d3e 92b4 143e aaa0 d13d
00000230: ca8d cf3e 74a6 8c3e a96e 8d3e 182a a5be
00000240: a189 3e3d 4797 bd3e 6b88 363d aed1 e2be
00000250: 8574 73bd 452f 3d3e ab5e 5b3e 4fa4 8ebe
00000260: c2b6 74be 44a1 803e f698 803e a58c d73d
00000270: 25e5 82bd c35a 933d 2586 8cbe 43a9 fb3d
00000280: d5e7 15be db13 28be 495d 823e 7f51 88bd
00000290: 6f15 98bd d330 88be 5a11 0bbe b012 9a3d
000002a0: 9940 d43b 99bd a73d 2f9a 9b3c 5f72 003e
000002b0: 1f50 3d3e 994e 86bc 5046 263e f84b 4abe
000002c0: a2aa 803e 7a28 153e 4953 0a3e df1f 85bc
000002d0: dce8 743c 258c 09bf b65c 8c3e cc74 4c3e
000002e0: 5f6e 2dbe 9b34 bbbe 7aea c33d 2871 83bd
000002f0: 6dea a2bc 29a3 803e d4d1 81be cf46 413e
00000300: 9b14 37be 8af6 35be 7b3c 0ebf f08c 96bd
00000310: 03f9 a4be 64cd bd3d 20da 81be e10a a0bc
00000320: 4654 883e a633 963d 2e6a a83e 1fc1 b7be
00000330: 2ae2 c1be 1170 afbe ae69 1ebe 2eea 2d3e
00000340: 1670 c93a ae49 39be adb1 2fbe b783 34be
00000350: 5643 3ebe 0806 dc3c c66c a53e d668 c33d
00000360: b5ad 1bbe c9f4 743e 4b74 6abe 709b bebe
00000370: 05aa 923d bd6d 363e 8bd0 c1bd b195 aabe
00000380: cae4 4bbe 79f4 07bb 8522 2f3d eaff 38be
00000390: 38cc b8be aa93 7a3e d578 20be 2e5e 963d
000003a0: 8bd0 14be 1c64 22bd dfde 153d 23c1 19be
000003b0: 6f0e 013e ce99 d33b f154 8a3c 766a 6ebd
000003c0: a438 4a3e 79e6 60be 38ca a7bd 4493 80be
000003d0: b312 323d 5d92 09be 3596 d2be 9150 b93e
000003e0: 48b8 6bbe 03ea c5be 59c0 c6be ef87 ac3e
000003f0: 831f 4a3d 4add 3a3d 5d4c 603d bc5f a63b

network_body._body_endoder.seq_layers.2.bias f4 [128]
0.07594337 0.069246545 0.025567815 0.0004235822 0.00066569075 0.0120964125 -0.022616427 0.05615793
0.03334924 -0.0283439 0.043130912 0.03135625 0.14290802 0.07123836 0.0713515 0.06755731
0.050396208 0.097942784 0.098417126 0.093263105 0.09223246 0.11081279 0.10515255 -0.037118506
0.042634863 -0.0022788944 0.09828745 0.008977419 -0.077464946 0.084347524 0.07250161 0.1058482
0.05872166 0.08681199 0.07032753 0.10783404 -0.006149965 0.021940157 0.08587085 0.0027980732
-0.058970127 0.0626734 0.03799543 0.07190909 0.027922397 0.03209037 0.051473822 -0.0031953154
0.05779137 0.0029765032 -0.013195636 0.04961932 0.069619 0.038460076 0.010410518 0.029615972
0.03681153 0.076011546 0.04643141 0.021118008 0.13701792 -0.044775445 0.1053289 0.053574473
0.034066934 0.21503201 -0.0036492597 0.12090154 0.02447095 0.031748116 0.00908239 0.045332033
0.08819891 -0.0036643553 0.05407573 0.07492232 0.09774533 0.09758429 -0.027253585 0.07297604
0.028130686 0.021526529 0.07855429 0.034530573 0.097528525 -0.03656661 0.04143354 0.089878105
0.12976286 0.12516628 0.13150473 0.08379533 0.004132647 0.051564023 0.0673113 0.031785052
0.050151795 0.08431407 0.122103244 0.10636216 -0.03956349 0.1267698 0.040398598 0.14260924
0.05021384 0.047017124 0.034442756 0.050242204 0.066853404 0.05491253 0.03592865 0.013007597
0.07695045 0.12562257 0.06870864 0.08553422 0.016313566 -0.048722666 0.06099419 0.08031994
0.061442353 0.060182966 0.1281079 0.0067362543 -0.006290378 0.03401108 0.04982996 0.14904623
00000000: 3388 9b3d 22d1 8d3d 9873 d13c 3e14 de39
00000010: c081 2e3a 0830 463c 1646 b9bc dc05 663d
00000020: 3699 083d 7731 e8bc 0aaa 303d 696f 003d
00000030: 7b56 123e 6be5 913d bc20 923d 7d5b 8a3d
00000040: 416c 4e3d 3a96 c83d eb8e c93d ba00 bf3d
00000050: 5fe4 bc3d d1f1 e23d 385a d73d 9309 18bd
00000060: e5a1 2e3d 8159 15bb ee4a c93d 0616 133c
00000070: f1a5 9ebd 65be ac3d b97b 943d f1c6 d83d
00000080: 2086 703d 7cca b13d e107 903d 18d8 dc3d
00000090: a585 c9bb d8bb b33c 0edd af3d e15f 373b
000000a0: a98a 71bd e95a 803d 19a1 1b3d 1345 933d
000000b0: 83bd e43c 3171 033d 37d6 523d 7f68 51bb
000000c0: a5b6 6c3d 7011 433b 8232 58bc a13d 4b3d
000000d0: 6894 8e3d 5088 1d3d e190 2a3c 329d f23c
000000e0: b0c7 163d f1ab 9b3d dd2e 3e3d acff ac3c
000000f0: 6d4e 0c3e 7566 37bd aeb6 d73d e870 5b3d
00000100: c589 0b3d 5a31 5c3e 6b28 6fbb 3a9b f73d
00000110: 4d77 c83c 500a 023d 4ece 143c 15ae 393d
00000120: a1a1 b43d ae25 70bb 837e 5d3d e070 993d
00000130: b42e c83d 46da c73d e942 dfbc 7674 953d
00000140: 5372 e63c 6758 b03c 12e1 a03d ee6f 0d3d
00000150: 09bd c73d dfc6 15bd 37b6 293d 0312 b83d
00000160: 8ee0 043e 972b 003e 2da9 063e e39c ab3d
00000170: 286b 873b cc34 533d 82da 893d 0b31 023d
00000180: f86b 4d3d dbac ac3d 4411 fa3d 67d4 d93d
00000190: 530d 22bd f1cf 013e 0079 253d 2808 123e
000001a0: 07ad 4d3d 0795 403d d913 0d3d c5ca 4d3d
000001b0: 70ea 883d f6eb 603d ec29 133d d11d 553c
000001c0: 3398 9d3d 34a3 003e 1eb7 8c3d 912c af3d
000001d0: 07a4 853c 6b91 47bd 0bd5 793d c87e a43d
000001e0: faaa 7b3d 6a82 763d b82e 033e ccbb dc3b
000001f0: 841f cebb 344f 0b3d 801a 4c3d 939f 183e

action_model._continuous_distribution.log_sigma f4 [1, 2]
4.170454 3.0221078
00000000: 5c74 8540 376a 4140

action_model._continuous_distribution.mu.weight f4 [2, 128]
0.08291511 0.5735327 0.59447 0.4905469 0.5272919 0.06897579 0.6093481 -0.2633292
-0.33020306 0.51432836 -0.08873209 -0.31002384 -0.07091356 -0.21133637 0.25854543 -0.39772192
-0.42134047 0.07675837 0.27661893 -0.57485867 -0.42106768 0.71936697 -0.4738468 0.7041303
0.6429203 0.38628063 -0.4663997 0.012982698 0.50147724 0.6935922 -0.548518 0.727535
-0.047213648 -0.39157623 -0.57985187 -0.4391574 -0.015735352 0.46574977 -0.43570855 0.49815568
0.51632357 -0.22237292 -0.2545426 -0.1560287 -0.14468566 0.51254654 -0.4005403 0.2150872
-0.14519404 0.5850198 -0.51003927 0.12229285 0.32326 0.50752765 0.55960995 0.13049844
0.4758537 0.39016756 0.45881188 -0.33632666 0.08859107 0.48158213 0.42553475 0.55858594
-0.18158452 -0.4860387 0.48607194 0.5812367 0.84840715 0.6865845 0.58311224 -0.3616308
-0.1679559 0.50256354 -0.20160317 -0.30073595 0.07669246 -0.100939624 0.38675085 -0.43451485
-0.37770647 -0.4448785 -0.14936177 -0.20801112 -0.06327022 -0.16141233 0.69761384 0.14790829
-0.1815316 0.01182296 -0.49475017 0.0017372724 0.71981543 -0.055210795 0.05437002 0.47286776
0.6463056 0.24397197 -0.45853934 0.26501518 0.510762 0.22318678 0.20353566 0.7815754
0.124959506 -0.33623818 0.31361538 -0.052227795 -0.28184363 -0.5118946 0.4377031 -0.45774025
-0.08411025 0.36831164 -0.5703063 -0.051640656 0.47542313 0.21342574 0.76525587 -0.20328337
0.2580924 0.32001507 -0.41499597 0.18169124 -0.48405093 0.18187736 0.25699547 -0.44613096
0.16332096 0.34018764 0.0023470612 0.1317145 -0.0005441282 -0.53930706 0.1477114 0.2523207
-0.11618243 -0.09087748 -0.58129555 -0.24986324 0.49121603 0.3024848 0.19598366 0.2672673
0.078013524 0.33140215 -0.5539986 -0.15225857 0.07785465 -0.17645219 0.20975003 -0.0715767
-0.16860598 0.40812597 0.12037398 -0.8824052 -0.036689807 -0.34703535 0.20034848 0.04407923
-0.42605782 0.18922433 0.21777134 0.2704727 0.3580167 0.009191977 -0.010431997 0.02114193
-0.039301746 -0.51224804 0.21521771 0.23134303 0.23609252 0.051463462 0.19744812 0.19279274
-0.2860431 -0.10993925 -0.271447 0.31487155 -0.5062146 -0.3030932 0.14187668 0.40447327
0.12593563 -0.59464073 -0.10396484 -0.2145976 -0.8583904 0.101389244 0.3185334 -0.13506098
0.36262238 0.029239729 0.041432604 -0.48388743 -0.033279978 0.008029203 0.022692867 -0.038011245
0.35712278 0.19074513 0.15826917 -0.28717715 0.32159767 0.28895134 0.22085072 0.023022726
0.20969546 0.25168878 -0.27332318 -0.43605387 0.21966755 0.21898179 -0.051109955 -0.29664785
0.23980632 -0.3855474 0.01622738 0.18516034 -0.02054682 -0.612 -0.38660634 0.2626354
0.09341433 -0.33302376 0.049094863 -0.52266943 0.1597687 -0.544264 -0.2185929 -0.3869333
-0.5583012 -0.19694342 0.2516939 -0.6961045 -0.2976895 0.16036412 -0.26540667 -0.33165827
-0.40825576 -0.44370863 0.074665956 0.24570224 -0.106897615 0.22107933 -0.051958572 0.22895962
0.35988688 -0.47513384 0.12178418 0.39005136 -0.16248952 0.30336517 -0.3914588 -0.19058222
00000000: 66cf a93d 0ad3 123f 302f 183f f728 fb3e
00000010: 9afc 063f 2e43 8d3d 3dfe 1b3f 16d3 86be
00000020: 6010 a9be 06ab 033f 2cb9 b5bd 72bb 9ebe
00000030: 213b 91bd 9068 58be 1160 843e 35a2 cbbe
00000040: f0b9 d7be 7e33 9d3d ffa0 8d3e f029 13bf
00000050: 2f96 d7be 6f28 383f 0c9c f2be e241 343f
00000060: 6d96 243f 93c6 c53e f1cb eebe 62b5 543c
00000070: d060 003f 428f 313f ad6b 0cbf bc3f 3a3f
00000080: 1963 41bd ae7c c8be 2c71 14bf 3dd9 e0be
00000090: 6de7 80bc c176 ee3e 3115 dfbe 430e ff3e
000000a0: c82d 043f bab5 63be 6853 82be fdc5 1fbe
000000b0: 7a28 14be 4036 033f 9e13 cdbe d23f 5c3e
000000c0: bfad 14be dcc3 153f ef91 02bf ac74 fa3d
000000d0: 5682 a53e 55ed 013f 9942 0f3f 62a1 053e
000000e0: 19a3 f33e 0bc4 c73e 64e9 ea3e 0233 acbe
000000f0: 3c6f b53d ef91 f63e b1df d93e 7dff 0e3f
00000100: 4bf1 39be 11da f8be 6cde f83e eecb 143f
00000110: 3631 593f 00c4 2f3f d846 153f ac27 b9be
00000120: a2fc 2bbe 01a8 003f 1071 4ebe 10fa 99be
00000130: f010 9d3d 6fb9 cebd 3504 c63e bb78 debe
00000140: be62 c1be 1dc7 e3be 4bf2 18be de00 55be
00000150: d193 81bd 4649 25be d296 323f 4575 173e
00000160: 6be3 39be 17b5 413c e54f fdbe 30b5 e33a
00000170: d345 383f b724 62bd 19b3 5e3d b91b f23e
00000180: 4974 253f cad3 793e abc5 eabe 12b0 873e
00000190: 4cc1 023f 138b 643e a76b 503e 5315 483f
000001a0: c5ea ff3d 6927 acbe 3292 a03e d0ec 55bd
000001b0: cf4d 90be 860b 03bf 9f1a e03e ee5c eabe
000001c0: ff41 acbd 5893 bc3e 98ff 11bf 2785 53bd
000001d0: a96a f33e 478c 5a3e cfe7 433f 8429 50be
000001e0: b024 843e 04d9 a33e 5a7a d4be 450d 3a3e
000001f0: 86d5 f7be 0f3e 3a3e e994 833e 476b e4be
00000200: 9c3d 273e 132d ae3e 27d1 193b 2ae0 063e
00000210: d3a3 0eba 0710 0abf a841 173e 2e30 813e
00000220: 0ef1 edbd f91d babd c9cf 14bf 26dc 7fbe
00000230: ab80 fb3e 4adf 9a3e f1af 483e 42d7 883e
00000240: 8ec5 9f3d 8bad a93e dad2 0dbf ace9 1bbe
00000250: 4272 9f3d e2af 34be b6c8 563e ce96 92bd
00000260: 0ca7 2cbe e3f5 d03e a286 f63d 4fe5 61bf
00000270: 0d48 16bd 9eae b1be 2728 4d3e 6c8c 343d
00000280: 4024 dabe 06c4 413e 73ff 5e3e 667b 8a3e
00000290: f74d b73e f299 163c f7ea 2abc d731 ad3c
000002a0: defa 20bd b022 03bf 0862 5c3e 30e5 6c3e
000002b0: 3dc2 713e 5acb 523d d72f 4a3e 766b 453e
000002c0: 3e74 92be d427 e1bd 1afb 8abe d836 a13e
000002d0: 4897 01bf 082f 9bbe 1f48 113e 1f17 cf3e
000002e0: 45f5 003e 603a 18bf 85eb d4bd 79bf 5bbe
000002f0: 79bf 5bbf 2aa5 cf3d cf16 a33e 6d4d 0abe
00000300: a4a9 b93e 2888 ef3c 3cb5 293d 18c0 f7be
00000310: 9650 08bd eb8c 033c 64e6 b93c aeb1 1bbd
00000320: ccd8 b63e b152 433e 5011 223e e208 93be
00000330: 73a8 a43e 6ef1 933e b126 623e 289a bc3c
00000340: 68ba 563e 5add 803e 04f1 8bbe 7442 dfbe
00000350: 88f0 603e c33c 603e ac58 51bd 3ae2 97be
00000360: ca8f 753e 7866 c5be 48ef 843c ac9a 3d3e
00000370: ce51 a8bc 08ac 1cbf 44f1 c5be 2678 863e
00000380: 0350 bf3d 1782 aabe b217 493d aacd 05bf
00000390: 689a 233e e354 0bbf d1d6 5fbe 1f1c c6be
000003a0: d4ec 0ebf 89ab 49be 06de 803e e833 32bf
000003b0: c26a 98be 7e36 243e 62e3 87be 1dcf a9be
000003c0: e606 d1be c72d e3be 77ea 983d 5e99 7b3e
000003d0: 23ed dabd 9f62 623e 83d2 54bd 6474 6a3e
000003e0: 1843 b83e be44 f3be fc69 f93d d0b4 c73e
000003f0: a763 26be ae52 9b3e 4a6d c8be fc27 43be

action_model._continuous_distribution.mu.bias f4 [2]
-0.08056295 0.07581552
00000000: 30fe a4bd 2b45 9b3d

action_model._discrete_distribution.branches.0.weight f4 [1, 128]
-0.0037534845 -0.013306747 -0.024994915 -0.015894877 -0.010879767 -0.019091792 0.012152034 0.013407583
-0.013498157 0.011106069 0.011461495 -0.000521632 0.00061825814 -0.0081694685 0.004604015 0.0022048114
-0.009089843 0.011277261 0.010684562 -0.0011556346 0.00075786666 0.014655679 -0.010816436 -0.007672629
-0.0024832415 -0.006530703 -0.011059892 0.0065798075 0.0063662804 0.002434736 -0.002619074 -0.020260124
-0.003533138 -0.01121183 -0.0071215923 -0.0017742822 0.0045567793 -0.0070235506 -0.003468471 -0.0014745858
-0.0030745647 -0.000773545 0.009738898 -0.004130013 0.009825402 0.0037583273 0.0062140073 0.0045216
0.009349081 -0.00563598 -0.0037103908 -0.0022400727 0.0056941947 -0.0047179465 0.00528128 0.0025300474
-0.0010924506 0.0071534137 -0.009874105 -0.0074779824 -0.003140131 -0.002364338 0.004783833 -0.0118448
0.002867537 0.0012271095 0.004208039 -0.011649485 -0.025999015 -0.012311146 0.012186653 0.0015429562
0.001669336 -0.0014567036 -0.0049196705 -0.0056727678 -0.00885788 0.007802145 0.00642616 0.010805528
-0.003948214 -0.0072929896 -0.008992446 0.014531076 -0.006944994 -0.009751868 -0.00053036876 -0.004060464
-0.012901611 -0.007557709 -0.011681349 0.0038650793 0.0077566593 0.005740677 -4.655252e-05 -0.008907928
-0.0074491533 -0.0021055827 0.0038588555 -0.0027313952 0.004207709 -0.010745134 -0.0061703823 -0.0023199532
-0.022307266 -0.0060396018 0.002800607 -0.00047185435 -0.012028083 0.0054361494 0.0022695514 -0.0044097546
0.006965738 0.0033608663 -0.008349157 -0.021328086 0.0044322507 0.005271968 0.00752671 -0.0047544218
-0.0022696136 -0.007133107 -0.004624323 -0.004621149 0.00510347 -0.0038157904 0.021597845 0.009824945
00000000: 05fd 75bb 8b04 5abc 23c2 ccbc f935 82bc
00000010: 0d41 32bc 6466 9cbc 5319 473c 7bab 5b3c
00000020: 6027 5dbc 3bf6 353c ffc8 3b3c 22be 08ba
00000030: 9a12 223a 3cd9 05bc 47dd 963b 997e 103b
00000040: 91ed 14bc 43c4 383c 4d0e 2f3c aa78 97ba
00000050: 92ab 463a 601e 703c 6c37 31bc ad6a fbbb
00000060: e1bd 22bb 82ff d5bb 8d34 35bc 6d9b d73b
00000070: 3b9c d03b 1790 1f3b c5a4 2bbb 8ff8 a5bc
00000080: 388c 67bb d3b1 37bc 3f5c e9bb 088f e8ba
00000090: 0951 953b d025 e6bb 4a4f 63bb e446 c1ba
000000a0: a37e 49bb bac7 4aba e68f 1f3c 0f55 87bb
000000b0: b9fa 203c 454e 763b df9e cb3b ee29 943b
000000c0: e32c 193c 07ae b8bb 072a 73bb 2fce 12bb
000000d0: 5e96 ba3b 0199 9abb 960e ad3b 27cf 253b
000000e0: 8f30 8fba 2f67 ea3b 00c7 21bc dd09 f5bb
000000f0: a8ca 4dbb 02f3 1abb b3c1 9c3b b110 42bc
00000100: 4aed 3b3b f6d6 a03a 97e3 893b 7bdd 3ebc
00000110: e3fb d4bc b0b4 49bc 87aa 473c 053d ca3a
00000120: 9fcd da3a ddee beba 3035 a1bb a0e2 b9bb
00000130: a420 11bc 23a9 ff3b 8a92 d23b ab09 313c
00000140: 0560 81bb 08fa eebb 0d55 13bc c013 6e3c
00000150: d592 e3bb 4dc6 1fbc 7208 0bba a40d 85bb
00000160: 4761 53bc a8a6 f7bb 2163 3fbc 454d 7d3b
00000170: 932b fe3b 4a1c bc3b 6341 43b8 8ff2 11bc
00000180: 0718 f4bb d1fd 09bb dae4 7c3b 3501 33bb
00000190: d2e0 893b 5c0c 30bc eb30 cabb 5b0a 18bb
000001a0: babd b6bc dae7 c5bb 638a 373b 3863 f7b9
000001b0: 7011 45bc ba21 b23b c1bc 143b b47f 90bb
000001c0: d840 e43b fb41 5c3b e7ca 08bc 3db8 aebc
000001d0: 6a3c 913b 79c0 ac3b 9fa2 f63b fbca 9bbb
000001e0: ccbd 14bb d7bc e9bb a287 97bb 026d 97bb
000001f0: 023b a73b 5712 7abb f7ed b03c cef8 203c

onnx::Div_102 f4 [126]
0.21839626 0.398902 0.2830469 0.4137172 0.3523749 0.4169226 0.37119287 0.41227326
0.38297802 0.4042775 0.3884511 0.39757246 0.3913829 0.39248124 0.39329904 0.38856202
0.39681646 0.38717866 0.40260133 0.38888246 0.4086858 0.39306414 0.41271162 0.3984268
0.41348097 0.4041943 0.40948102 0.40642115 0.39943916 0.4042916 0.38116145 0.39404735
0.34824538 0.3711348 0.29875007 0.33622244 0.25103647 0.30363345 0.20932096 0.27261323
0.16351132 0.2376839 0.22293083 0.39919567 0.28657788 0.4124517 0.35555527 0.41486862
0.37487188 0.4099106 0.3870322 0.40204906 0.3926181 0.39561307 0.39552197 0.3908433
0.39738068 0.38718334 0.4007629 0.38601357 0.4064112 0.38786286 0.41240084 0.3922273
0.416534 0.39797089 0.41771403 0.40455294 0.41428196 0.40781555 0.40482876 0.40651506
0.38715294 0.39702612 0.35516742 0.37510887 0.30723307 0.34161404 0.26085842 0.31016833
0.21938019 0.27969065 0.17146105 0.24404474 0.22796348 0.39868787 0.29065403 0.4106255
0.35863104 0.41212603 0.37801898 0.40658075 0.39062172 0.3987332 0.39676407 0.39272764
0.40035442 0.38857704 0.40318757 0.38557762 0.40734306 0.38495052 0.41292116 0.38708782
0.41832748 0.39157608 0.42202914 0.39770672 0.4230052 0.40501985 0.4195333 0.4090232
0.41028857 0.40844122 0.39300835 0.39977348 0.36195418 0.3790914 0.31547374 0.34723833
0.27052674 0.31708306 0.23034072 0.28767437 0.18244039 0.25242752
00000000: 45a3 5f3e e23c cc3e 86eb 903e bed2 d33e
00000010: 7c6a b43e e176 d53e fe0c be3e 7b15 d33e
00000020: b215 c43e 76fd ce3e 10e3 c63e 9e8e cb3e
00000030: 5763 c83e 4df3 c83e 7e5e c93e 9af1 c63e
00000040: 872b cb3e 483c c63e c321 ce3e 9a1b c73e
00000050: 443f d13e b43f c93e f04e d33e 99fe cb3e
00000060: c7b3 d33e 8ef2 ce3e 7fa7 d13e 6f16 d03e
00000070: 4a83 cc3e 4fff ce3e 9827 c33e 93c0 c93e
00000080: 384d b23e 6105 be3e c5f5 983e 5925 ac3e
00000090: da87 803e d875 9b3e 3c58 563e f693 8b3e
000000a0: 836f 273e 6963 733e fb47 643e 6063 cc3e
000000b0: 56ba 923e df2c d33e 570b b63e a969 d43e
000000c0: 35ef bf3e cddf d13e 1629 c63e 60d9 cd3e
000000d0: 3d05 c93e cc8d ca3e db81 ca3e 9d1c c83e
000000e0: 7b75 cb3e e53c c63e cb30 cd3e 92a3 c53e
000000f0: 2115 d03e f695 c63e 3426 d33e 04d2 c83e
00000100: f243 d53e d7c2 cb3e 9dde d53e 9021 cf3e
00000110: c41c d43e 33cd d03e b745 cf3e be22 d03e
00000120: e938 c63e 0247 cb3e 81d8 b53e 450e c03e
00000130: a74d 9d3e 09e8 ae3e 3c8f 853e 62ce 9e3e
00000140: 33a5 603e 9d33 8f3e 7c93 2f3e dde6 793e
00000150: 426f 693e d120 cc3e 9bd0 943e 813d d23e
00000160: 7d9e b73e 2f02 d33e b48b c13e 5a2b d03e
00000170: 92ff c73e c226 cc3e a924 cb3e 9913 c93e
00000180: 41fb cc3e 92f3 c63e 9a6e ce3e 6e6a c53e
00000190: 458f d03e 3c18 c53e 676a d33e 6030 c63e
000001a0: 052f d63e a97c c83e 3414 d83e 37a0 cb3e
000001b0: 2394 d83e c35e cf3e 12cd d63e 7d6b d13e
000001c0: 5811 d23e 351f d13e 6438 c93e 1caf cc3e
000001d0: 0f52 b93e 4518 c23e c685 a13e 39c9 b13e
000001e0: 7b82 8a3e b658 a23e 70de 6b3e 0e4a 933e
000001f0: a7d1 3a3e 2e3e 813e

onnx::Div_107 f4 [21]
0.65152276 0.10539862 0.06627716 0.10133786 0.5661692 0.16001768 0.51862544 0.1291833
0.024355449 0.15187491 0.5231161 0.12126565 0.56779927 0.12607345 0.5739853 0.30268443
0.7542433 0.32687604 0.6460563 0.29048 0.38245133
00000000: 32ca 263f 3bdb d73d 52bc 873d 398a cf3d
00000010: 77f0 103f addb 233e a3c4 043f a148 043e
00000020: 1485 c73c 1985 1b3e f0ea 053f 205a f83d
00000030: 4b5b 113f 6619 013e b3f0 123f 74f9 9a3e
00000040: 1716 413f 4c5c a73e f263 253f cbb9 943e
00000050: a9d0 c33e
