Assets/oon/simple_finished.onnx (onnx, 146879 bytes, 8 tensors)

network_body._body_endoder.seq_layers.0.weight f4 [128, 138]
00000000: e557 fd3d 2a7f 7ebd b8f2 d43c 827b 42bc
00000010: 937c 63bc 70bb 843c df35 31be 6f7a b83c
00000020: eb2c 183e 0d08 54be 2434 e23d a0fc 243d
00000030: a584 1ebd 765e c1bd 8332 f9bd 71f3 f43c
00000040: 91e9 2a3e bc9b 243d a4ef 4ebd db74 c03d
00000050: ebd8 af3d 93c7 d23d 06c0 98bc d5d9 793d
00000060: ba51 d13d 5576 df3d a82c 4bbc 3aa0 1dbd
00000070: 2742 b1bd 42a5 e6bc 4e49 593d d5ce b5bd
00000080: 2361 d8bd 4237 0e3e 2fcb 283d 2941 aebd
00000090: 90e4 a3be a112 993d d728 f0bc 0761 e83c
000000a0: ea85 093d a26b f7bc b6df 273e fa6b 213d
000000b0: 3f65 a53d 6db6 de3d 97d4 19bd 826f cfbc
000000c0: 5915 9abd 265e 1cbd 8782 ef3d 828a 173e
000000d0: a2a4 f13c b6c2 473d f868 6b3e 8de6 b13d
000000e0: 49dd cb3c 668a acbd a31b 1abd e837 863c
000000f0: c7a8 22bd f9f7 d03d cc46 f93d 55dd 21bd
00000100: a61d d3bd 2eb3 80be 8466 1e3d f4c5 fabc
00000110: e8f4 a63d bb9e 6b3d bfd5 85bd 6486 28be
00000120: 6bee 863d 8a0f 343d 7506 a53c 5d9d 47be
00000130: f1c6 57bc d659 4dbc 5a6d 85ba ca94 07be
00000140: 8ed4 823d f605 7ebd 5ded 28bc 4d75 7f3c
00000150: 66b0 343d 99c9 803d 4b1f a63d 9eb4 ca3d
00000160: cc0b 893b 1a18 9a3d d0d0 b83c cb5a 413d
00000170: cb64 a73c 24cf 58bc 6c83 bc3d b4cd 903c
00000180: fc21 e8bc a7e7 e93d 504b 813c 1910 91bd
00000190: 9c30 933c d901 ce3d 088e 8bbd 098a 3b3e
000001a0: 60da 0dbe c550 aebc e513 54bb 3f78 ac3d
000001b0: 4d32 c13c c179 07bc d7ba 4dbd 3fbd 88bd
000001c0: e151 5e3d 2585 38be 6070 6c3d 521d d0bc
000001d0: 68e0 07bd e7e8 f03c def3 f93c 44e8 0bbe
000001e0: d37f b23c fd05 9dbd 6524 413e f312 303d
000001f0: bce8 913d c10b 093e 8fe4 c5bc 13af 4c3e
00000200: 83b9 113f e3b6 9f3b 416e 8abd 2b4f 003e
00000210: ce69 9d3d 71db 19be 523b 3d3e aa27 29be
00000220: e8f1 193c e04b 1a3e 588b dd3c a639 71bb
00000230: e3b9 71bd 01dc 0dbc c997 32bd 4c97 40be
00000240: ec7b f13b 2125 e13c f628 f73b f4ca a33d
00000250: 2c78 49be 7276 4dbd 3543 753d 6224 f4bd
00000260: 3583 6abc 3145 02bd b782 60be a882 1bbe
00000270: 0bd5 03bd 7f98 1ebe e6b5 0c3d 950b 91bd
00000280: e3b7 36bd e87c 01be dbca 523d 5f04 fabd
00000290: e05d 5dbe 5284 63be f6a8 cbbd 93d2 25bd
000002a0: 2fdf c13b 7e84 cabd 75d1 1dbc 11ce f53b
000002b0: 8bbd e9bd 9e35 0abe 7575 b3bd 5cc6 0fbe
000002c0: 4d18 263d 5bd1 75bd 922b 4cbd fb7d b6bd
000002d0: ebe4 f9bd a643 a5bd b0d8 69bc 8c6a 89ba
000002e0: b6df 16be c617 c73d 2986 24be 7d85 4dbd
000002f0: 7b8a adbc a154 15bd 743b b93d a475 33be
00000300: f57f adbd 8b88 0d3c 08e9 b1bc fb86 83be
00000310: 280c 0cbe d323 48be adae 0fbe acf4 49be
00000320: 763b c2bd 755b 11be a8df 73be 4754 1bbb
00000330: 1053 be3d 9074 12bc 80af 3cbe a342 03be
00000340: 0eaf 9bbd b37f 59bd a2a0 9d3c c2fe 9ebc
00000350: 5c88 42be d7d9 d4bd 461f 803d 6e8b 59be
00000360: 6e9f 13be b7c7 0e3d 8e0d aebd 8c7c 8dbc
00000370: 73d0 173c 96b1 14be dd54 183c 9b79 e3bd
00000380: f17a fabd fe90 b33d 82e8 10bd 8f89 25bd
00000390: 14b5 bf3d cb1a 48be 6b8d 8bbd 1e26 e63d
000003a0: 49ae d1bd cce8 0f3e 0415 05be ba90 7cbe
000003b0: 4fb3 a0bd 782d 8dbc 09e8 71be fd5d 4bbd
000003c0: 94e1 27be a99e 3abe 6079 0fbe 1602 a8bd
000003d0: 4099 3dbe 0542 98bd 3c12 f0bd 7867 9dbd
000003e0: 6d7e eebc 38a5 033e 2f46 9cbd b80a 04bb
000003f0: 97ca 82be eae5 e33c 79bc 5ebd 4071 44bd
0.1237028 -0.06213299 0.025994644 -0.011870267 -0.013884681 0.016202658 -0.17305706 0.022519318
0.14860885 -0.20706196 0.11045101 0.040279984 -0.03870072 -0.09441845 -0.121678375 0.029901238
0.16690661 0.040187582 -0.050521508 0.093972884 0.08586296 0.10291972 -0.018646251 0.060998756
0.10220666 0.10911242 -0.012400784 -0.038482882 -0.08655196 -0.028154973 0.053048424 -0.08877341
-0.10565402 0.13888267 0.041209396 -0.08508522 -0.32010317 0.07474256 -0.029316349 0.028366579
0.033574976 -0.03020269 0.16393933 0.039409615 0.08075952 0.10874639 -0.037556257 -0.025321726
-0.07523603 -0.038175724 0.11694818 0.1479893 0.029497448 0.048769675 0.22989261 0.08686552
0.02488579 -0.08424835 -0.037624013 0.01638408 -0.03971174 0.10203547 0.121717066 -0.03951772
-0.10308389 -0.25136703 0.038671985 -0.03061197 0.08152181 0.057524424 -0.065349095 -0.16457516
0.06588443 0.04396013 0.02014468 -0.19493623 -0.01316999 -0.012533626 -0.0010179684 -0.13240352
0.06388198 -0.062017404 -0.010310498 0.0155919315 0.04411354 0.06288452 0.081114374 0.09897731
0.0041823145 0.07524128 0.022560507 0.047205728 0.020433804 -0.01323298 0.09204754 0.017676212
-0.028336518 0.11421137 0.015782982 -0.070831485 0.017967515 0.10058946 -0.068142 0.18314375
-0.13852835 -0.021278748 -0.003236049 0.084213726 0.023583556 -0.0082687745 -0.050227012 -0.06676721
0.054277305 -0.1801954 0.057724357 -0.025404606 -0.033172995 0.029407931 0.030511793 -0.13662821
0.021789467 -0.07667158 0.1886154 0.04298682 0.07124469 0.1338339 -0.024156837 0.1998866
0.56923693 0.0048740967 -0.067593105 0.125302 0.07686196 -0.15025117 0.1847966 -0.16519037
0.009396054 0.15068007 0.027043983 -0.0036808043 -0.059015166 -0.00865841 -0.043601785 -0.18807715
0.007369509 0.027483525 0.0075427247 0.079976946 -0.19674748 -0.050161786 0.059878547 -0.11921002
-0.014313509 -0.031804267 -0.21924864 -0.1518656 -0.032185595 -0.1548786 0.03435316 -0.07082287
-0.04460896 -0.12645304 0.05146299 -0.12207865 -0.21617842 -0.22218445 -0.09944336 -0.040484022
0.005916498 -0.09888552 -0.009632458 0.0075013717 -0.114131056 -0.13497016 -0.087626375 -0.14040512
0.04055052 -0.06001411 -0.04984624 -0.089107476 -0.12201866 -0.080695435 -0.014272854 -0.0010484024
-0.14733776 0.09721331 -0.16066803 -0.050176132 -0.021184197 -0.03645766 0.09044543 -0.17525345
-0.084716715 0.008638511 -0.021717563 -0.2568892 -0.13676512 -0.19544916 -0.14031477 -0.19722241
-0.094839975 -0.14195044 -0.23815787 -0.0023701356 0.09293187 -0.0089389235 -0.18426323 -0.12818389
-0.076017484 -0.0531003 0.019241635 -0.019408587 -0.1899733 -0.10393112 0.06255965 -0.21244594
-0.14416286 0.03485843 -0.08498679 -0.017271303 0.009266007 -0.14520869 0.009297577 -0.11107179
-0.122304805 0.087678894 -0.035377987 -0.04041439 0.0936071 -0.1954147 -0.06814083 0.11237739
-0.102383204 0.14053649 -0.12996298 -0.24664584 -0.078467004 -0.017233595 -0.2362367 -0.04965018
-0.16394645 -0.18224587 -0.14011145 -0.08203523 -0.18515491 -0.07434467 -0.11722228 -0.07685751
-0.029113019 0.12855995 -0.07630574 -0.002014799 -0.2554519 0.027819593 -0.05437896 -0.047959566

network_body._body_endoder.seq_layers.0.bias f4 [128]
00000000: 060e 063d 0fa2 34bd d58d 98bc d3e3 ab3c
00000010: 2983 153d 7bd8 99b9 142a a23d 0871 f93c
00000020: e2f8 33bb 681a 063d a087 28bd 074f 333d
00000030: 8222 1e3d 84ea bdbc b76f f5bd e7f6 c8bc
00000040: 614d cc3b 830c da3c e2b3 3d3d f433 88bc
00000050: c983 c03c dd93 1b3d cb11 4b3c f196 913c
00000060: 01ec 243d 5d82 963d a601 80ba 9c2a 5c39
00000070: f90a 2c3d b449 a43d 9ae0 753d 8f8b 4e3d
00000080: a0e2 3b3c ff09 a3bb 91e9 6e3d 547d c13c
00000090: 7a3f 5b3d ad69 d9bb 7d76 163d 9048 8bbc
000000a0: 5398 213c c566 883d 7424 74bd 8833 2ebd
000000b0: 36cd d6bc c195 01bc f98a 7b3d 259a 1cbd
000000c0: 2185 d5bb 76f6 4fbc a39f 27bc 9c00 073d
000000d0: 94d3 0fbd efd2 6bbd b607 28bd e46d 5c3d
000000e0: ffe7 b63c 617e 453d ca0d 9e3a deb7 5cbc
000000f0: 0355 47bd 7e84 353d 8f24 8f3d 9793 e53c
00000100: bf3c 3e3d ccb4 8dbc a0db 81bc ef6a 633d
00000110: 3c4c 9c3c 8d4f 153d ee7b 61bd 674c cd3b
00000120: 571a f23b cebc 67bd bf4a 0f3d 41ff 943d
00000130: b7ef 9e3d 1fe3 4f3c 0999 8e3d 5bd2 b53d
00000140: e71a d4bd 37fb 573d 76c0 1cbd f9ff 53bd
00000150: 2eee 44bd 2f22 9a3d a449 49bd 7972 95bb
00000160: ee3a b53c 7b36 c53c d6e7 543d 6d6f 22bd
00000170: 6182 93bb f917 243d bd02 4a3d bedb 283d
00000180: cb0d 433d 4583 003c 04f4 93bd 3e0c 16bd
00000190: c682 353d 46a9 ba3d 73cb 323c b91b 303d
000001a0: b51b 8ebc 783f 2bbd 9fbc 97bc bdfb 6f3d
000001b0: 967c 683c f72e 273d 93eb 72bc f36d aebc
000001c0: b4c5 80bc 9696 6cbd 56f4 4cbd 5542 9ebc
000001d0: 9868 cfbb ae16 4f3d 1ee1 1a3d cf5f 133d
000001e0: 3a9e d4bc fd03 c3bc 1f54 b4bc 830d 53bc
000001f0: 989b bc3c c215 92bb 838a e73c 24aa e33c
0.032728218 -0.044099864 -0.018622318 0.020982658 0.036502037 -0.00029343725 0.07918182 0.030449405
-0.0027461578 0.032740027 -0.041144967 0.04377654 0.038607128 -0.023183115 -0.119841985 -0.024531795
0.00623481 0.026617294 0.046314128 -0.016626336 0.02350034 0.03798281 0.012394379 0.01777217
0.040264133 0.073490836 -0.0009766116 0.00020996708 0.04200265 0.0802187 0.06002865 0.050426062
0.011467606 -0.004975557 0.058328215 0.023619331 0.053527333 -0.006634912 0.036734093 -0.017002374
0.009862977 0.06660227 -0.059605077 -0.042529613 -0.0262209 -0.007909239 0.06141183 -0.03823294
-0.0065161143 -0.012693038 -0.010230931 0.032959566 -0.035113886 -0.05757421 -0.04102298 0.053815737
0.022327421 0.048216227 0.0012058553 -0.013471572 -0.048665058 0.044315808 0.06989395 0.028024478
0.04644465 -0.017298125 -0.015851796 0.0555219 0.01907932 0.03645282 -0.05504983 0.0062652114
0.007388394 -0.056576543 0.034983393 0.07275248 0.07760566 0.012688427 0.06962783 0.08878013
-0.10356694 0.05272981 -0.038269483 -0.051757786 -0.04807871 0.07526051 -0.049142495 -0.0045607653
0.022122826 0.02407383 0.05197891 -0.039657045 -0.0045016264 0.040061925 0.049319018 0.041225187
0.047620576 0.007843797 -0.07224277 -0.03663277 0.04431417 0.091143176 0.010912764 0.04299519
-0.017347196 -0.041808575 -0.018522559 0.058589686 0.01418986 0.040816274 -0.014826673 -0.021292662
-0.015719272 -0.057760797 -0.050037704 -0.019318739 -0.006329607 0.05055874 0.037812345 0.035980042
-0.025954355 -0.023805613 -0.022012768 -0.012881639 0.023023412 -0.00445816 0.02826429 0.02779109

network_body._body_endoder.seq_layers.2.weight f4 [128, 128]
00000000: 136d 1bbe b24c 9c3c 1766 d6bd 7243 5a3d
00000010: 59e5 09be 9c52 143d 8521 9a3d 647f c23d
00000020: 6018 d6bd 83e8 d3bd c817 dcbd ce00 eb3b
00000030: dfd5 0d3e 293b 89bd e2e2 f7bd 6572 f7bc
00000040: f3af 31be 3cb9 3abd f369 dc3b 4517 06bd
00000050: 1d05 4dbd 3229 d1bd 4eb1 453b 03a2 efbc
00000060: 433e a1bd 6087 943d 0a8d 25bc e055 b63d
00000070: 16d7 9e3d 8bd3 b6bd 6f36 b9bd b7d6 4e3e
00000080: df6c 1c3d a31e 823d 09d2 2b3d 8e7e 433d
00000090: 8d81 943c a9ba 893d 4f09 5dbd 9b5a 6a3e
000000a0: 9db7 043e 7595 573c f774 ec3d 5952 643c
000000b0: ceaf f6bc 5261 bebd 9600 63bd 6f3e f3bc
000000c0: 8ca8 823c cf71 84bd 8241 f03d a431 ddbc
000000d0: aaa6 3a3d aee1 dcbd ed34 9e3d 7821 3f3e
000000e0: 6493 45bd 5f4a 20bc ab13 d4bc 9411 abbd
000000f0: 7523 0c3e 8986 5dbc 2e5d 8cbd bdcf aabd
00000100: 4f86 afbc 6cdc 963c ca90 7f3d 769a c5bd
00000110: 5777 80bd 97b0 633c ccf6 c5bd ef0a f63d
00000120: a082 a03c 4db9 46bd 85e8 4d3d 2d2f e1bd
00000130: 8aae 07bd fc0c b3bc a494 273d 561c 073e
00000140: 3754 be39 a073 b7bd 5f97 f83d c30f 1cbd
00000150: e3a2 333e e7f4 d2bc 6b7a a63b 567f d53d
00000160: 177d 8b3d 6d95 dd3c 5db9 573d 3fb7 94bd
00000170: 84b1 823c 6597 53ba 68ce a4bd 58be a63d
00000180: 3542 293d 834b 3fbe 4b04 04bd c241 ff3d
00000190: 8fa1 953d fa60 823d cf41 173d e9b3 72bd
000001a0: 8ae6 bb3d 91bc af3c 9bd3 453c 4cc4 7ebd
000001b0: 91b2 283c ce16 c33c a393 7c3b af4f 04be
000001c0: 24d7 a8bd 7040 75bc 9739 38be fb25 ddbb
000001d0: 2952 843d b966 14bd 36f8 ebbd f068 09be
000001e0: bda2 88bc 3d25 873d 17ca 83be 8a4f f33c
000001f0: 1cf7 04be 3f37 e73c c197 b53d 7cba 79bd
00000200: 42ae b2bd 2c2e 32be c165 27be 321d 303d
00000210: 01b3 b3bd b8c0 4e3c 178b d43c 9482 a3bd
00000220: 64a4 2cbd 46d8 8c3d 9cc3 8cbd 7d14 23be
00000230: a629 883d fd77 2c3c 8c40 263d 8e4c 203c
00000240: 26bc 023e 692c 8abd b5eb 3837 2ef2 f93c
00000250: 66be 39bd feb3 c83d 0b2f b03c 1ad1 493c
00000260: f38d 0ebc 8973 e8bc 1d69 0a3e 5c5f c73d
00000270: cdd4 8d3d 77fa 063c c51c aabd 66b6 3dbe
00000280: 1a10 8a3b a6e7 a7bd 5e0b 943d 8733 973d
00000290: 8d5a ed3d 0699 6ebd d318 343c 78db 9d3c
000002a0: 8090 23ba c538 d5bd 3ec9 d5bd db2d 0ebc
000002b0: e47e 933e 3a1d 063e f71b 3fbc 0cb6 10be
000002c0: 24cb 83bd 15a9 5a3d 3947 e73d 7693 a13c
000002d0: 874f 09be ae86 fbbd bec3 12bd 885d fcbd
000002e0: 1215 373e edf9 1b3d f938 80bd e3f7 9a3c
000002f0: 7a84 0bbe aa8d b4bb 7cb8 033e 9276 84bc
00000300: bb17 2fbd ccbc 8ebd 723c 83bc b2da b7bd
00000310: fe04 bb3c 6765 f93d bf20 7e3d 9b65 04be
00000320: e5a7 c63d 6989 c03d 004d 2fbd ccf5 2ebd
00000330: b1c4 533d 62ac 173e eedc a0bd 026b 6fb9
00000340: 9dfc e13c 8dae d33c 99df 5fbd 366f 7ebd
00000350: 347b fabd 3c37 633e dfa6 56bd 0804 44bd
00000360: 9b58 c8bd f360 8f3d 036e 273e 3da2 4c3c
00000370: 93ea 123d 5d94 b6bc d582 b63d 86c4 143d
00000380: 1c38 483d d5a8 31bd 4701 34be a6e3 3cbd
00000390: e983 8a3d c1d5 babc 2812 d1bd 0f91 af3d
000003a0: 47ae 9a3d 18df d53c 2f9f 00bc 29cf 00bd
000003b0: 408e 903d ae4b 08bd ec96 923c d66e cb3b
000003c0: 0b32 e6bd cafe d83d daf0 c3bc 5104 51bd
000003d0: 9faa 963d 0e1d 043d 0600 4abd 7fd0 2f3d
000003e0: fb23 2f3e 6930 7fbe f923 28bd 112b 1bbd
000003f0: 7fb1 b43d 5b29 163d b16d 833d c82d a43d
-0.15178327 0.01907954 -0.10468691 0.053286977 -0.13466395 0.036211595 0.075259246 0.09496954
-0.10453868 -0.103470825 -0.107467234 0.007171727 0.13851117 -0.06700737 -0.12103821 -0.030205915
-0.17352276 -0.04558681 0.0067264973 -0.032737035 -0.050053705 -0.102129355 0.0030165496 -0.029252058
-0.078732036 0.07252383 -0.010104427 0.08903098 0.07755868 -0.08927067 -0.090435855 0.20199095
0.038189765 0.063535 0.041948352 0.047728114 0.01812818 0.06725056 -0.053963955 0.22886126
0.12960668 0.013158192 0.11545747 0.013935649 -0.030113127 -0.09295906 -0.05542048 -0.029692857
0.01594951 -0.0646702 0.117312446 -0.02700121 0.0455691 -0.107852325 0.077249385 0.18665111
-0.048236266 -0.009783356 -0.025888285 -0.08352962 0.13685401 -0.013520845 -0.0685371 -0.08340404
-0.021426348 0.018415652 0.06239394 -0.09648602 -0.06272762 0.013897083 -0.096662134 0.12013804
0.019593537 -0.04851656 0.050270576 -0.10995326 -0.033125438 -0.021856777 0.04091324 0.13194403
0.0003630237 -0.089576006 0.12138247 -0.03810097 0.17542605 -0.025751544 0.0050805113 0.10424678
0.06810968 0.02704879 0.05266701 -0.07261514 0.015953787 -0.0008071571 -0.08047181 0.08141774
0.041322906 -0.18681149 -0.032230657 0.12463714 0.073062055 0.06366153 0.036927994 -0.059253607
0.09174831 0.02145222 0.012074376 -0.062198922 0.01029648 0.023814585 0.0038540147 -0.12921022
-0.0824416 -0.014968976 -0.17990719 -0.0067489124 0.06460983 -0.036230776 -0.11521952 -0.13418937
-0.016679162 0.065988995 -0.2574012 0.029701013 -0.1298489 0.028224586 0.088668354 -0.06096886
-0.08724643 -0.17400426 -0.1634741 0.042996593 -0.08774377 0.01261919 0.02594523 -0.0798389
-0.042148963 0.068771884 -0.06873247 -0.15925784 0.06648569 0.010526654 0.0405889 0.009783877
0.12767085 -0.06746752 1.10221345e-05 0.030510988 -0.045347594 0.09799956 0.021506807 0.01231792
-0.0087008355 -0.028375404 0.1351666 0.09734985 0.06925354 0.008238426 -0.083062686 -0.1852661
0.0042133452 -0.0819848 0.072287306 0.07382875 0.11589537 -0.058251403 0.010992247 0.01926969
-0.0006239489 -0.104112186 -0.104387745 -0.008677925 0.28807747 0.13097087 -0.011664382 -0.14131945
-0.064352304 0.053383905 0.112928815 0.019723635 -0.13409244 -0.122815475 -0.035831206 -0.12322527
0.17879131 0.038080145 -0.06260867 0.01891703 -0.13624755 -0.0055100517 0.12863344 -0.01616982
-0.04274724 -0.06969604 -0.016020034 -0.0897726 0.022829529 0.12177544 0.062042948 -0.12929384
0.09699992 0.09401209 -0.042798042 -0.04271488 0.05170125 0.14811853 -0.07854639 -0.0002283268
0.027586276 0.025840068 -0.0546566 -0.062117778 -0.122305304 0.22189039 -0.052405234 -0.047855407
-0.09782525 0.070009135 0.1635056 0.0124898525 0.03586824 -0.022287542 0.08911673 0.03632023
0.048881635 -0.0433739 -0.17578612 -0.04611554 0.06763441 -0.022807004 -0.10208541 0.085725896
0.07552772 0.026107356 -0.007850452 -0.031447563 0.07058382 -0.0332753 0.01789423 0.006208281
-0.11240014 0.10595472 -0.023918558 -0.051029507 0.07356762 0.03225427 -0.04931643 0.042923447
0.17103569 -0.24920811 -0.04104993 -0.03788287 0.08822917 0.036660533 0.06417406 0.080165446

network_body._body_endoder.seq_layers.2.bias f4 [128]
00000000: a417 0f3d 2e7c a93c 2e75 2f3d 072c 773d
00000010: ab2b 8d3d 3e05 5c3d 07ad 51bd bdb9 0ebd
00000020: 8200 7dbd b8e4 6abd 035d 6bbd bd67 38bd
00000030: c4a4 e73a 6c99 c33c db54 6a3d db4d c43c
00000040: 552f eebc d24c bcbc 49c5 2dbc 3643 4cbd
00000050: d3af 653d 2843 e3bb 577f 5a3d 88be 483d
00000060: bb6a 843d 7e6e 42bd 835b 13bd 6498 8c3d
00000070: cf42 61bd d6cb 403d 7a3d 773d c1a8 f23c
00000080: dc5d 48bb 0885 fabc 6140 ca3c f18f 29bd
00000090: 1557 e0bc d29b ba3c 7acf 5fbd 2538 54bd
000000a0: a5d2 963c 72bb 34bd 9ca7 48bd 62df 3a3d
000000b0: e7c0 5f3d 039f 68bd 3bfb 543d e17c 813d
000000c0: 08c2 02bd f2c1 013d 5e4e bf3d 90b4 a83d
000000d0: e016 03bd 2e06 273d 83a6 903d 67d5 97bc
000000e0: 73c6 1fbd e5be 81bd 23f7 0abd 2980 9a39
000000f0: 5aac 8f3d 0260 fdbc 9e98 5f3d 447b 493d
00000100: 594a 24bd 48c3 3f3d 8ae2 74bd edd3 cabc
00000110: 01d1 70bd 05c9 573d 1144 003d 8258 7a3d
00000120: 9fd5 8e3c 17ec 373d a936 23bd dd2e 533d
00000130: 383f 913d 57a4 1fbd d027 a3bc e9cc 473d
00000140: 1687 b9bc 14ea 05bd 7f4e 82ba bad2 293d
00000150: 30ad 73bd 875e 993d ff08 a83c de9f e0bc
00000160: b924 d13c 5c82 873d 8638 4bbd c422 42bd
00000170: 06ce 333c 2c07 743d f672 613d ec22 23bc
00000180: 46e8 4cbd ec54 26bd 6e7d 693d 2b80 a7bd
00000190: 6574 f43c e741 473d bcfd a4bd caba 3b3d
000001a0: 627d 28bd c0b9 3c3d d2a5 7dbc c85a ce3c
000001b0: 0887 013c df58 6f3d 3265 0bbd a3fc 56bd
000001c0: eb41 5fbd 7a96 08bc e5e6 d0bc 2e1c 9b3c
000001d0: 2cd2 4ebd c3f2 7dbc 2549 563d 19f8 3fbd
000001e0: 11c6 7e3d 833c 34bd b687 853a 7b54 b6bc
000001f0: 0b98 dd3c 79c3 353d 5eb1 6e3d 2d76 24bd
0.034934655 0.020689096 0.04283636 0.060344722 0.06893095 0.053715937 -0.051190402 -0.034845103
-0.061768062 -0.05734703 -0.05746175 -0.045020808 0.0017673005 0.023876868 0.05720983 0.023962906
-0.029075304 -0.02298585 -0.0106061185 -0.049868785 0.056075882 -0.006935496 0.053344097 0.04900983
0.0646567 -0.047468655 -0.035975944 0.06865004 -0.054995354 0.047069393 0.060361363 0.029621484
-0.0030573523 -0.030581012 0.024688901 -0.04139704 -0.027385274 0.022779379 -0.054641224 -0.051811356
0.01841099 -0.044124074 -0.04898797 0.04562319 0.054627325 -0.05679227 0.051997405 0.06322647
-0.031923324 0.0316791 0.09341119 0.082375646 -0.032004237 0.040777378 0.070630096 -0.018534375
-0.039007615 -0.06335238 -0.033927094 0.00029468656 0.07015295 -0.03092957 0.054588906 0.04918982
-0.040109966 0.046817094 -0.059786357 -0.024759257 -0.05879307 0.05268194 0.031314913 0.061119564
0.017435847 0.044902887 -0.03984705 0.051558364 0.07092136 -0.038975086 -0.019916445 0.048779402
-0.022647422 -0.032693937 -0.0009941607 0.04146073 -0.059491336 0.07488733 0.020512102 -0.02741998
0.025530206 0.06616661 -0.04961445 -0.047396436 0.010974413 0.059577152 0.055041276 -0.0099570565
-0.0500262 -0.04060833 0.057004385 -0.08178743 0.029840657 0.048646834 -0.080562085 0.045832433
-0.0411352 0.046075583 -0.015481429 0.025189772 0.007905729 0.058434363 -0.034032054 -0.052487027
-0.054506224 -0.008336658 -0.025500724 0.018934336 -0.050493404 -0.015499773 0.05231585 -0.046867464
0.06220061 -0.04400302 0.001018754 -0.02225708 0.027050039 0.04437587 0.05827462 -0.040151764

action_model._continuous_distribution.log_sigma f4 [1, 2]
00000000: 8f46 523f 1717 453f
0.82138914 0.7698836

action_model._continuous_distribution.mu.weight f4 [2, 128]
00000000: feef 13bc fc18 ca3c 9faf 0a3c 17b5 c73c
00000010: 84b8 243d 1b9e 00ba 0f6c 81bc 7936 963c
00000020: 2204 16bc 25a8 023c ed35 753c 8292 e5bc
00000030: 2887 edbd d07a 223c 4054 c63c 800c 66bc
00000040: 05dd 75bd 340b 45bd cef2 42bd 34ba 2b3d
00000050: 3d5e 223d c0e1 723d febe 80bc 2445 8f3c
00000060: e66c 4f3d c4a6 a6bc a5fe c33c 2a5c 1fbb
00000070: 551e 9b3c 31c9 833c f3e1 e03c 2687 553d
00000080: e264 4e3d baf9 54bd 43be b93d 6d8e 5cbb
00000090: af95 453d 370b 99bd dda0 163c 25bf 6eba
000000a0: 740f 2d3c 4e1d ddbc d264 68bd 2ef8 91bb
000000b0: 0f32 bd3d e389 2fbd d6a2 a03a d137 33bc
000000c0: 9531 433a 7fa3 87bc 3257 953d 17b6 9e3c
000000d0: f0c5 3f3d 2cd4 ae3c b1d2 5f3d 3bab 60bd
000000e0: 34e5 923c 67c1 76bc 98e7 dabb d9e7 793d
000000f0: 603e 39bb b3a5 adbd d63e 2a3c 0220 87bc
00000100: 2f0a 6e3c 93d4 763d 95c9 ac3c b753 d83c
00000110: 4b83 fe3c a5ba 8f3c ed8b af3c 9d58 2b3b
00000120: e7b9 57bb e463 3cbc 508f 43bd 2637 8dbb
00000130: 8352 9a3c e6d4 dabc 0b51 edbc 9c9b 0f3c
00000140: 404c a93d dfd1 613c d39e 84bd d648 3f3d
00000150: 3534 073d cc88 d33d 2ec4 8cbc 0215 88bd
00000160: 317a 6a3b 59db 0ebc b0f5 ccbc dc46 0d3d
00000170: 0d81 a7bd 03e6 973c 7694 e73b b4ca f4bd
00000180: 6f3d f5bc 7123 933c e510 4f3c bb01 51bc
00000190: f31c b2bd fe18 053c 19ab d2b9 2784 d5bc
000001a0: 5447 6dbd 47ea 89bb 8bff 08bc 53f1 8d3d
000001b0: be2c 043b edf6 e23c 56dd 5ebd 2922 9bbd
000001c0: 81f0 523c 2cfd c8bd 4b1c dbbc d663 ec3b
000001d0: 87d5 c93c ec8e 3f3d c930 113c e82c 363c
000001e0: a0c4 b53d c4f4 393c 0b8e f1bd dd9e 24bd
000001f0: 6848 ca3d bbb7 1a3d c729 b63b e5ea 363b
00000200: cd2b 413c 6969 0e3d 44f5 583d 75d4 973d
00000210: 8269 963d 4393 553d d8b1 48bd 909b f1bc
00000220: 7ca2 90bd 4216 f8bd 9f4d 02be b530 a6bd
00000230: 8918 2fbe e7a8 a63c 6a58 a93d 22ad 953c
00000240: 44be 92bc 35b4 8a3c 9d14 dabd e6da 1cbe
00000250: 27ec 943d c927 12bc afdd 413d deb4 203d
00000260: fd48 4c3d c01e d2bd e6df dcbd f010 7f3c
00000270: cebf d7bd 9b1d f13c 0065 b23d b3e1 c1bc
00000280: 4cee 72bd b50c c9bd f154 863c 5142 b6bd
00000290: 532d adbd a1a9 d7bb 703a 73bd c6f0 78bd
000002a0: 4a93 c23c b423 92bd 77c5 91bd 31b9 223d
000002b0: 41fc 863c fedc 1dbd ddd8 613c d127 893d
000002c0: a8d2 fcbd a662 0a3d 7969 c03c 4430 853d
000002d0: 8211 46bd 9768 623d cf6e a53d ad0b 113d
000002e0: c7a8 81bd a26c 66bd 3d9f 1fbe f12b efbc
000002f0: b622 c73d b21a 08be c192 4d3d 0da4 4c3d
00000300: 0dcf 0bbe f2ab 0a3d 0efa 72bd aaf5 78bd
00000310: 2a5c bcbd 2594 283d 7534 173d b0d6 833d
00000320: 3b38 c93c e3d3 5d3d 836a 9ebd 6e32 3d3d
00000330: 5047 af3d da80 d3bb dded 6b3c f8ea 2b3d
00000340: 6d13 0fbe e9a3 1bbe beea 6bbc 8cf8 92bb
00000350: bafc dbbd ce73 d23d 45ec ea3c a6b2 35bd
00000360: d4a5 c23c 8a1a a33d 6d9e 9dbd 0fe1 82bd
00000370: 414e d1bc 0949 593d 2a96 973d fd6c 14bd
00000380: 127d d4bd c60f 53bc faa0 5b3d ba41 91bd
00000390: 651d 8b3d b473 323d 9c7a 01be c3e9 263d
000003a0: ae2a cbbd 980d 143d 9af8 1bbe 8b6f 55bc
000003b0: b8b5 343c 42af 983d 0016 b1bd b21e 98bd
000003c0: 9122 39bd 8d31 b5bd f77a c6bd 5e88 8e3c
000003d0: f88a c6bd 99f6 69bd 70c7 513d 8d95 cdbd
000003e0: f2ef ddba 0a81 babd 0365 803c b61e 6bbd
000003f0: efa1 0fbd 6a3c 1e3d 8c22 3d3d 7f29 03bd
-0.009029387 0.024670117 0.008464723 0.024378343 0.04021503 -0.0004906372 -0.015798597 0.018336521
-0.009156259 0.007974659 0.01496647 -0.028023962 -0.11598045 0.009916976 0.024210095 -0.014041066
-0.060025234 -0.048106387 -0.047594838 0.041925624 0.039640654 0.059297323 -0.015716072 0.017489024
0.050640963 -0.020343192 0.023925135 -0.0024316409 0.018935362 0.016087146 0.027451491 0.05213084
0.050389178 -0.05199597 0.09069493 -0.0033654228 0.048238453 -0.07472842 0.009193626 -0.0009107462
0.010562766 -0.026991513 -0.056736775 -0.004454634 0.092380635 -0.04285611 0.001225556 -0.010938601
0.0007446048 -0.016557453 0.07292022 0.019373937 0.046819627 0.021341406 0.05464429 -0.054850798
0.017931558 -0.015060759 -0.00668044 0.061012123 -0.0028265938 -0.0847887 0.010390958 -0.016494755
0.014528795 0.06026132 0.021092216 0.026407106 0.031068465 0.017545054 0.021429026 0.0026145347
-0.0032917203 -0.011498425 -0.047744095 -0.0043095527 0.018838173 -0.026712846 -0.028969308 0.0087651275
0.08266497 0.013782947 -0.06475606 0.04670032 0.033008773 0.10328826 -0.01718339 -0.06644632
0.0035778398 -0.008719289 -0.025019497 0.034491405 -0.08178911 0.018542295 0.0070672585 -0.11952725
-0.02993652 0.017961236 0.012638305 -0.01275676 -0.08696928 0.008123634 -0.000401818 -0.026063992
-0.057929352 -0.0042088362 -0.008361707 0.069307946 0.002016827 0.027705634 -0.0544103 -0.07574875
0.012874723 -0.09813914 -0.02674689 0.00721405 0.02463795 0.04676716 0.008861729 0.011119105
0.08875394 0.011349861 -0.11794671 -0.040190566 0.09877092 0.037772875 0.0055591795 0.0027911004
0.011790228 0.034768496 0.05296828 0.0741357 0.07344343 0.052142393 -0.04899773 -0.029493123
-0.070622414 -0.1211362 -0.12724923 -0.08114759 -0.17099203 0.02034421 0.08268817 0.018271033
-0.017912991 0.016931633 -0.10648463 -0.15317878 0.07271605 -0.008920618 0.047330555 0.03923499
0.049874295 -0.10259771 -0.10784893 0.015568003 -0.10534631 0.029433062 0.087106705 -0.023667192
-0.05930929 -0.09816877 0.016397925 -0.088993676 -0.084559105 -0.0065815006 -0.059381902 -0.060776494
0.023751874 -0.07135716 -0.071177416 0.039727394 0.016477706 -0.038540833 0.013784614 0.066970475
-0.12344867 0.033785485 0.023487793 0.065033466 -0.04835654 0.055275526 0.08077776 0.035411526
-0.0633102 -0.056255944 -0.15588088 -0.029195758 0.097234175 -0.13291433 0.050188784 0.04996114
-0.13653202 0.033855386 -0.059320502 -0.06078116 -0.091972664 0.041156907 0.03691526 0.06437433
0.024562946 0.05415715 -0.07735159 0.04619067 0.08558524 -0.0064545693 0.014399973 0.04197213
-0.13972254 -0.15199246 -0.014399229 -0.0044851955 -0.10741563 0.10275994 0.028677115 -0.044359826
0.023760714 0.07964046 -0.07696233 -0.06390583 -0.02555001 0.053048167 0.074016884 -0.03623675
-0.10375418 -0.012882179 0.053620316 -0.070926145 0.06792716 0.043567374 -0.12644428 0.040750276
-0.0992025 0.036145777 -0.15231553 -0.013027082 0.011029653 0.07455303 -0.08646774 -0.0742773
-0.04519898 -0.08847342 -0.096914224 0.01739901 -0.09694475 -0.05711994 0.05121559 -0.1003829
-0.0016932471 -0.091066435 0.015673166 -0.057402335 -0.03506654 0.038631834 0.046175525 -0.032021996

action_model._continuous_distribution.mu.bias f4 [2]
00000000: bef9 b73c ab53 673d
0.022457954 0.056476276

action_model._discrete_distribution.branches.0.weight f4 [1, 128]
00000000: 9a2b bdba 1dc1 db3b a744 eeba 49a3 16bc
00000010: 4626 96ba 636b 17bc 9d52 8bbb 40b9 d1bb
00000020: 7dea ea3b dcc8 1cbc db1c e5ba fa5d 073b
00000030: c47c 933b 0fbc 4c3c 5b63 73bc ba10 55bb
00000040: 5edc a33b 9dd1 cc3b 3c39 11bc bf4a 27bc
00000050: 368f b6ba 87aa 0e3c cbcc 873a a976 0a3b
00000060: 377b f9bb a833 70bc 1242 0dbc 8f66 97bc
00000070: e097 853c 9096 7fbc 1380 5b3b fde0 ccbb
00000080: 770e 813b 4850 6ebc dfaa 813a a6bc 14bb
00000090: 1245 193c 7f47 ebbb 9dc7 18bc cb31 d9bb
000000a0: 50db 853b 2a77 50bb 0796 6bbb 039c ec3b
000000b0: 4ab8 ef3b 8f66 a73c 2f63 2f3c 735b 31bb
000000c0: 275a 233c 0ebd 373c ddd0 babb d3d8 81bb
000000d0: 8af9 fabb d52a 88bb b10e 1e3c 98e0 a63b
000000e0: f0f8 f7bb e613 233a c794 913b 67e2 5fbc
000000f0: f47b 44bb 5207 773c d390 bc3a 5f57 cfbb
00000100: bfdb 2ebb 5db3 a93b 7311 aaba 1f6e 873c
00000110: 3781 763b 31fa 2dbc ff2c 53b9 9882 59bc
00000120: 5f82 b3bb db8c 9b3a a7b2 07bc 1d0d 6cbc
00000130: 5d90 663a 5ffd 373b f70e 82bb b785 91bb
00000140: 7b5b 5ebc 41cb 143c 2892 c7bb 6aa6 a7bb
00000150: bbf7 e6bb 5faf 7eb9 dafe 0bbc 36cf 22bc
00000160: 6fac 18bc 2b56 6abb 72d9 a9bb 5908 c03a
00000170: 8fb7 b2bb c985 c63b 2e7b 2abc 9002 f0bb
00000180: e3d8 cdbb af87 36bc d86f 0c3c 2589 52bc
00000190: 0335 323b 7442 93bc 0728 3c3c bc13 1e3c
000001a0: 8f69 38bb 0204 28bb 06bf 133c 2699 863b
000001b0: af3b 093c 7334 81bb 2beb ceba 4dd1 db39
000001c0: b968 b7ba 4f6a fcbb 295b 06bc ddf0 abbc
000001d0: ac08 063c cb9e 2d3c a25a 45bb eca6 aa3c
000001e0: d1ed 40bc fce3 3b3b bddd 283c 9fd5 28bc
000001f0: edbc 68bc 5d0b 00bc 9bab 393c e0c2 8abb
-0.001443255 0.0067063705 -0.0018178419 -0.009194204 -0.0011455498 -0.009241912 -0.0042517916 -0.0064002573
0.0071690665 -0.009569373 -0.0017479913 0.002065538 0.004500957 0.012496009 -0.014855231 -0.003251119
0.005000635 0.006250574 -0.008863743 -0.010210692 -0.0013928178 0.008707649 0.0010360716 0.0021127856
-0.0076135653 -0.014660753 -0.008621709 -0.018481521 0.016307771 -0.015599862 0.0033493086 -0.0062524066
0.003938492 -0.014545508 0.0009892842 -0.002269545 0.009354847 -0.007180154 -0.009324935 -0.0066282502
0.004084982 -0.0031809309 -0.0035947578 0.0072207465 0.00731567 0.020434646 0.0107048 -0.0027062565
0.009970224 0.011214508 -0.005701168 -0.003962615 -0.007659142 -0.0041554966 0.009647057 0.0050926916
-0.0075675175 0.00062209216 0.0044427845 -0.013664818 -0.0029981108 0.015077429 0.0014386423 -0.006327554
-0.0026681272 0.0051788525 -0.0012975171 0.016532002 0.003761364 -0.010618732 -0.0002013929 -0.013275765
-0.005478188 0.001186754 -0.00828234 -0.014407423 0.00087953155 0.0028074605 -0.003969069 -0.004440989
-0.013571615 0.009081663 -0.006090421 -0.0051162736 -0.0070485747 -0.00024288658 -0.008544648 -0.009937098
-0.009318455 -0.0035756927 -0.005183392 0.0014650925 -0.005454011 0.006058429 -0.010405345 -0.007324524
-0.0062819584 -0.011140748 0.0085715875 -0.012850081 0.0027192242 -0.017976023 0.011484153 0.00964826
-0.002813909 -0.0025637154 0.0090177115 0.004107612 0.008376046 -0.00394302 -0.0015786638 0.00041926876
-0.0013993002 -0.0077031027 -0.008200445 -0.020988876 0.0081807785 0.010596941 -0.0030113836 0.020831548
-0.01177545 0.0028669825 0.010306773 -0.0103048375 -0.0142052 -0.007815209 0.011332418 -0.0042346567
