Assets/oon/stop_2.onnx (onnx, 113734 bytes, 17 tensors)

network_body._body_endoder.attention.query.bias f4 [54]
000000 00 00 00 00 00 00 00 00 00 00 00 00 00 00 00 00
       0.0 0.0 0.0 0.0
000010 00 00 00 00 00 00 00 00 00 00 00 00 00 00 00 00
       0.0 0.0 0.0 0.0
000020 00 00 00 00 00 00 00 00 00 00 00 00 00 00 00 00
       0.0 0.0 0.0 0.0
000030 00 00 00 00 00 00 00 00 00 00 00 00 00 00 00 00
       0.0 0.0 0.0 0.0
000040 00 00 00 00 00 00 00 00 00 00 00 00 00 00 00 00
       0.0 0.0 0.0 0.0
000050 00 00 00 00 00 00 00 00 00 00 00 00 00 00 00 00
       0.0 0.0 0.0 0.0
000060 00 00 00 00 00 00 00 00 00 00 00 00 00 00 00 00
       0.0 0.0 0.0 0.0
000070 00 00 00 00 00 00 00 00 00 00 00 00 00 00 00 00
       0.0 0.0 0.0 0.0
000080 00 00 00 00 00 00 00 00 00 00 00 00 00 00 00 00
       0.0 0.0 0.0 0.0
000090 00 00 00 00 00 00 00 00 00 00 00 00 00 00 00 00
       0.0 0.0 0.0 0.0
0000a0 00 00 00 00 00 00 00 00 00 00 00 00 00 00 00 00
       0.0 0.0 0.0 0.0
0000b0 00 00 00 00 00 00 00 00 00 00 00 00 00 00 00 00
       0.0 0.0 0.0 0.0
0000c0 00 00 00 00 00 00 00 00 00 00 00 00 00 00 00 00
       0.0 0.0 0.0 0.0
0000d0 00 00 00 00 00 00 00 00
       0.0 0.0

network_body._body_endoder.attention.value.bias f4 [54]
000000 ac d1 80 3e 4d 40 ec 3d f9 d8 11 3e 02 9f 92 be
       0.25159967 0.11535702 0.14242925 -0.28636938
000010 10 30 2c be f7 d4 a3 3e f5 f1 9f 3e 40 0b 28 be
       -0.1681521 0.31998417 0.31239286 -0.16410542
000020 a3 e0 89 be ef 37 85 bb 10 4f 18 3e c4 e9 21 3e
       -0.26929197 -0.0040655057 0.1487391 0.15811831
000030 6d 42 53 3e 77 5e 95 3e b2 55 9a 3c 88 60 38 be
       0.20630808 0.29173633 0.01883969 -0.18005574
000040 ae 5f 93 be 11 3d b5 3d fd dc 44 be 4a d9 20 be
       -0.28783935 0.08849538 -0.19224925 -0.15707889
000050 50 6b d6 3e 2b 6e c4 be 7b 68 48 3d ce 1d ab 3e
       0.41878748 -0.383653 0.048927765 0.33421177
000060 36 f9 98 be 6f a4 00 3e 21 ed c4 bd de 52 de 3d
       -0.29877633 0.12562726 -0.09615541 0.108556494
000070 23 11 a4 3d 51 88 17 be 5d 95 62 3e 12 cc cd 3d
       0.08011081 -0.14798094 0.2212729 0.10048689
000080 e9 d1 70 3e 12 e9 b6 3e 77 1c ec bd e8 c1 db 3e
       0.23517574 0.35724694 -0.11528867 0.42921376
000090 a7 56 a6 be 65 a3 38 3d 58 87 62 3e 70 59 3b 3e
       -0.32487985 0.0450777 0.22121942 0.18295836
0000a0 d0 5e 59 3c b5 a6 60 3e dc fa d9 be 43 67 93 be
       0.013267234 0.21938594 -0.42574203 -0.2878972
0000b0 e1 03 71 be 44 71 9a 3d be 7b 82 3e 03 19 d0 bd
       -0.23536636 0.07541135 0.25485033 -0.101610206
0000c0 8b e3 61 be 13 f6 a9 bd 21 b1 ef bd 59 52 86 3e
       -0.22059457 -0.08298888 -0.117037065 0.262347
0000d0 a9 08 6b be 82 75 96 be
       -0.22952522 -0.29386526

network_body._body_endoder.attention.norm.weight f4 [54]
000000 d2 5d 54 3f 13 31 8f 3f 59 b3 8b 3f 34 5e 95 3f
       0.8295566 1.1186851 1.0914108 1.1669374
000010 a8 77 6c 3f 18 d6 8f 3f a5 5e 75 3f b0 df 86 3f
       0.9237008 1.1237211 0.9584754 1.0537014
000020 e5 15 8a 3f 00 9b 96 3f 9f 32 89 3f f7 51 88 3f
       1.0787932 1.1766052 1.0718573 1.0650014
000030 9d 1c 63 3f 73 2b 89 3f 00 11 90 3f c0 0c 86 3f
       0.88715535 1.0716385 1.1255188 1.0472641
000040 26 f2 ad 3f 3b 7e 88 3f a3 2c 87 3f 82 20 6a 3f
       1.3589523 1.0663522 1.0560497 0.91455853
000050 4e 13 57 3f 98 35 8b 3f 16 d1 80 3f 72 61 86 3f
       0.8401383 1.087573 1.0063808 1.0498488
000060 95 ed 89 3f a9 f4 7c 3f 4d ee 70 3f 60 64 88 3f
       1.0775629 0.9881082 0.9411362 1.0655632
000070 be 7a 87 3f 22 7d 83 3f 2a 8e 60 3f 48 d0 50 3f
       1.0584333 1.0272563 0.87716925 0.8156781
000080 3d 73 76 3f 9e 46 86 3f 04 c5 9c 3f 51 b3 74 3f
       0.9626959 1.0490301 1.2247624 0.95586115
000090 33 eb 90 3f 73 76 52 3f b9 1b 5d 3f 75 4b 7c 3f
       1.1321777 0.8221199 0.86370426 0.9855264
0000a0 5c 74 6e 3f 6b 42 90 3f 01 39 3d 3f 49 55 7d 3f
       0.931463 1.1270269 0.73915106 0.9895826
0000b0 fe f9 9a 3f e5 25 8c 3f f3 85 a9 3f 24 fd 66 3f
       1.2107542 1.0949064 1.3244003 0.9023001
0000c0 a0 68 7e 3f f0 4e 8d 3f e2 01 9a 3f 33 70 90 3f
       0.99378395 1.1039715 1.2031825 1.128424
0000d0 c2 a7 a4 3f 40 e8 9d 3f
       1.2863696 1.2336502

network_body._body_endoder.attention.norm.bias f4 [54]
000000 fe 4d d1 3d f6 7f 65 bd eb b7 18 3d 16 9c 56 bd
       0.10219954 -0.056030236 0.037284773 -0.05239495
000010 b1 76 3c 3d 5c 95 69 3d 95 1c de 3c 3b d7 06 be
       0.04601163 0.057027206 0.027113238 -0.13168041
000020 f3 bd 9c bc 3e 74 41 ba 01 72 a8 3d 0f cb 61 3d
       -0.019133544 -0.0007379687 0.082248695 0.055125292
000030 ed 55 b6 bc 4b 15 d6 3c dc f8 26 bd 39 56 88 3c
       -0.02225777 0.0261332 -0.040764675 0.016642677
000040 3a f4 e2 bc 2a f4 4b 3c 1c dd 2d bb 9d d0 53 bd
       -0.027704347 0.01244835 -0.0026529497 -0.05171262
000050 17 80 22 3e 84 bd 9c bd fc f9 7a 3d 52 b1 23 3e
       0.15869175 -0.07653335 0.06127356 0.15985611
000060 dc 17 87 bd ab 76 83 3d 9b 96 23 3c e3 04 bc 3c
       -0.06596348 0.064191185 0.009984638 0.022951549
000070 df 51 a5 3c 2e 94 6f 3c b4 6c 13 3d c3 b4 6d 3d
       0.02018064 0.014622731 0.03599234 0.058033716
000080 5f ff 10 3e 4e 0a a7 3d 62 83 18 3d 49 70 a5 3d
       0.14159916 0.08156262 0.03723467 0.08078057
000090 8b f5 95 bd 98 60 73 bc 40 f5 95 3d 2f 93 05 bd
       -0.07322224 -0.014854573 0.07322168 -0.03261107
0000a0 bf 8f ae 3c 80 d8 7c 3d 7f 68 87 be 30 e7 65 bd
       0.021308778 0.061729908 -0.26446912 -0.05612868
0000b0 93 00 8a bd 4a 06 61 bd 10 3f c0 3d b9 b5 56 3d
       -0.06738391 -0.05493764 0.09387028 0.052419398
0000c0 c3 fe 06 be fb 0b 02 3e 25 03 04 bc 57 82 52 3d
       -0.13183121 0.12699883 -0.00805739 0.051393833
0000d0 42 4e e9 bd 9d 28 f2 bd
       -0.113918796 -0.118241526

network_body._body_endoder.norm.weight f4 [54]
000000 bf 8b 3e 3f c1 17 68 3f bd b5 6c 3f 90 52 65 3f
       0.74431986 0.90661246 0.9246481 0.89579105
000010 6b da 1c 3f 17 e0 88 3f 99 fd 79 3f ba 38 58 3f
       0.6127078 1.0693387 0.97652584 0.8446156
000020 41 7f 4b 3f f5 64 5f 3f 2f 17 85 3f 32 77 62 3f
       0.7949105 0.87263423 1.03977 0.8846313
000030 b2 83 5d 3f d5 4b 74 3f 94 c0 86 3f c6 64 6c 3f
       0.86529076 0.9542821 1.052752 0.9234127
000040 64 1f 6f 3f b8 b0 80 3f ac a3 46 3f e7 d8 47 3f
       0.93407273 1.005393 0.77593493 0.7806534
000050 76 55 56 3f b0 7c 70 3f 1f ef 45 3f 16 9f 89 3f
       0.83724153 0.9394026 0.77317995 1.0751674
000060 f5 46 52 3f ad d8 66 3f a6 2d 48 3f 9a a9 77 3f
       0.8213952 0.9017437 0.78194654 0.96743166
000070 cf a6 6e 3f 95 6e 5e 3f f0 50 38 3f 05 0d 4e 3f
       0.9322328 0.86887485 0.719985 0.80488616
000080 72 e9 76 3f c7 75 56 3f 5b f3 53 3f e1 68 62 3f
       0.9644996 0.83773464 0.82793206 0.8844128
000090 e5 23 3b 3f d1 e1 25 3f 16 19 50 3f e1 49 62 3f
       0.73101646 0.64797693 0.8128828 0.8839398
0000a0 0f a3 4f 3f b0 7a 76 3f 75 14 58 3f e5 8f 86 3f
       0.8110818 0.96280956 0.84406215 1.0512663
0000b0 62 10 9b 3f 68 b7 5f 3f 70 1b af 3f fd f9 3f 3f
       1.2114375 0.8738923 1.3680248 0.74990827
0000c0 0a 9e 46 3f 82 a1 65 3f 44 8f 7a 3f 35 df 8f 3f
       0.775849 0.89699566 0.97874856 1.1239992
0000d0 f4 af b4 3f ee c0 9d 3f
       1.4116197 1.2324502

network_body._body_endoder.norm.bias f4 [54]
000000 ac 14 ae 3d 35 06 0d be b2 26 6f 3d 6e a7 df bd
       0.085000366 -0.13771899 0.058386512 -0.109206066
000010 32 f1 bc 3d 30 ed 86 3b d1 27 bc bc 05 c6 6a be
       0.09225692 0.0041176304 -0.022968205 -0.22927101
000020 7a c4 c9 3b ed 87 5c bd d1 a9 ab 3d 59 06 01 bc
       0.006157455 -0.053840566 0.08381999 -0.007875049
000030 d5 f4 72 bd 07 b5 4b bd 44 4d 41 bd 28 6b db 3c
       -0.05931552 -0.049733188 -0.047192827 0.026784495
000040 92 b3 87 3c 4d 73 5b bd da c1 00 bd d3 86 bf bd
       0.016565118 -0.053576756 -0.03143487 -0.093518876
000050 66 29 06 3e f9 d9 f5 bd 6a 40 10 3d 96 86 78 3d
       0.1310173 -0.120044656 0.03521768 0.060675226
000060 73 74 b1 bd 43 39 3f 3d 55 bd d3 bc 41 54 13 bd
       -0.08664789 0.04668547 -0.025847116 -0.035969023
000070 08 6f 41 3a c1 bf 16 be e1 e2 63 3d 3b 7f cd 3c
       0.00073789107 -0.14721586 0.05563629 0.025085082
000080 e6 b6 cf 3d 27 08 d7 3d 9a 63 6c bb d8 82 3d 3d
       0.10142307 0.10499602 -0.003607011 0.04626736
000090 c9 f8 0f be dd 42 13 be 33 fd 7c bc e1 8e b6 bd
       -0.14059748 -0.14380975 -0.015441227 -0.08913971
0000a0 b8 25 e6 ba 20 29 c1 3c 13 7f 91 be cd 06 3a bc
       -0.0017558848 0.02357918 -0.28417262 -0.0113541605
0000b0 c9 28 d5 3c 38 94 3f bd cb a3 c5 3d ec b9 58 3d
       0.026020424 -0.04677221 0.09650382 0.052911684
0000c0 b9 3e 80 be e3 f4 0a 3e d8 4e 6c 3c 34 22 d1 3c
       -0.25047854 0.1356998 0.014423095 0.025529005
0000d0 64 85 b5 bd 9c 65 c9 bd
       -0.08863333 -0.098338336

network_body._body_endoder.lin_layers.seq_layers.0.weight f4 [108, 54]
000000 0c cf 34 bd 8d fe 3c bc ce ff 70 bd 3b 90 ae 3e
       -0.044142768 -0.011535299 -0.058837704 0.34094414
000010 9b 80 8a be 32 e1 99 3e fe aa fe 3d 93 5a 9a 3e
       -0.27051243 0.30054623 0.12434958 0.30147228
000020 e9 fb 3a be 1d 24 0f 3d 75 6f 1c be 55 e0 9e 3c
       -0.18260159 0.03494655 -0.15276892 0.01939408
000030 86 60 80 be 74 05 5a 3e 26 50 c0 be d6 a8 a9 bd
       -0.25073642 0.21291143 -0.37561148 -0.08284156
000040 37 9c 8f 3b a1 19 9d 3e 93 70 d5 3c 7d 04 43 3e
       0.004382636 0.30683616 0.026054656 0.19044681
000050 44 3d 7c 3e 3c 71 82 be 2f e7 b6 3d 7c a6 91 3e
       0.24632746 -0.25477016 0.089308135 0.2844733
000060 fe 10 6d 3e ff ce f4 3d fa d7 2f bd b9 41 da 3c
       0.23151013 0.11953544 -0.04293058 0.026642667
000070 2a e5 86 be f8 92 94 3d bf dc c2 3c f8 38 e4 3d
       -0.26346713 0.072545946 0.0237869 0.111436784
000080 25 e9 0c 3e 3a 6d 0c bd 1b a3 3d be a1 61 56 be
       0.13760813 -0.034283854 -0.18519251 -0.2093568
000090 ad 95 87 3e 36 64 34 3e 7c 30 24 3e b0 28 ba 3e
       0.2648138 0.17616352 0.1603412 0.36359167
0000a0 97 bf e1 3e e9 62 98 3d fa bd d2 be 90 ad 31 bd
       0.44091484 0.074407406 -0.41160566 -0.043378413
0000b0 0c 27 a6 bd ef 0a 6a be 12 ce c3 be 33 50 2a bd
       -0.08112916 -0.22855733 -0.38243157 -0.04158039
0000c0 88 66 97 3e 80 db e6 3d 29 23 52 3d 09 c8 b9 3d
       0.29570413 0.11272335 0.051303063 0.09071357
0000d0 49 e2 f6 be 38 98 c3 be 1b 6c d9 3e d7 0c 3a be
       -0.48219517 -0.3820207 0.4246529 -0.1816896
0000e0 0b 7d 92 3e c9 8f 22 3e a0 88 2b 3e c3 71 0e bf
       0.28611025 0.15875162 0.16751337 -0.55642337
0000f0 d6 57 0f be bd ca 4d be 87 3b 5b 3e d7 ee 17 3d
       -0.1399835 -0.2009687 0.21409427 0.03709301
000100 f6 d2 7e 3e 67 d4 53 be 0a 3f ad 3d d1 40 fc bd
       0.24885163 -0.20686494 0.08459289 -0.1231705
000110 ec 1f ee bd b2 eb b9 3a ec 42 09 be 28 ea 4e be
       -0.11627182 0.0014184623 -0.13404435 -0.20206511
000120 0a 9b 17 be c3 88 7b be 46 0e 22 bd 7a a0 db 3e
       -0.14805236 -0.24563889 -0.039564393 0.4289587
000130 a4 cd 2b be 2c 59 07 be fe f2 ea be da 77 01 3e
       -0.16777664 -0.1321761 -0.45888513 0.12643376
000140 8e ff 6b be 0a a8 69 be 0c d4 d3 bd 8f 71 c8 be
       -0.23046705 -0.22818008 -0.10343179 -0.39149138
000150 a6 c5 2b ba 46 25 5d be 81 3d bd 3e 42 62 be 3d
       -0.0006552584 -0.2159625 0.36960986 0.09296085
000160 06 bf 5e bc 1e 52 3f bd 5f cb 12 bd 1c 3c bc be
       -0.013595348 -0.046709172 -0.03583848 -0.3676461
000170 a4 cc 87 bd 56 9c bf bd 35 a7 8c 3e 13 14 6a be
       -0.06630829 -0.093559906 0.2747132 -0.2285922
000180 48 00 47 be f4 84 68 3b bd d5 92 3e 6d 96 31 3e
       -0.19433701 0.0035479637 0.28678694 0.17342539
000190 f8 ee 07 3e 77 9f 8f 3e d1 d4 c6 be 78 e6 ab 3e
       0.13274753 0.2805135 -0.3883424 0.3357427
0001a0 54 03 f6 3c 9f f1 05 bc 0c 8d c7 3e 39 92 53 3e
       0.030030884 -0.008175283 0.38974798 0.20661248
0001b0 7f 4f bd 3d ad 33 9e bd 5a 56 49 3c 96 7c f3 be
       0.09243678 -0.077247 0.012288654 -0.4755599
0001c0 ed 98 40 3e 34 08 11 bd 24 6c b1 3d f9 14 ac bd
       0.18808337 -0.035408214 0.08663204 -0.08402438
0001d0 17 df 2b 3d ce 6c 05 3d fe 5c db bc a8 3f 8b 3e
       0.041960802 0.032574467 -0.02677774 0.27197003
0001e0 60 3b 9a bd 6e c3 96 be 20 84 f0 3d d0 df c1 be
       -0.07530856 -0.29445976 0.11743951 -0.37866068
0001f0 30 cf 76 bd 2f e6 af be 29 77 e3 bc 5b b1 e5 be
       -0.060256183 -0.34355304 -0.02776678 -0.44861874
000200 60 68 50 3e bd 1b 9c 3e 85 53 f1 bd 75 fa fe be
       0.20352316 0.30489913 -0.11783508 -0.4980046
000210 6a 8a 9d 3d 7a 43 61 3e 16 68 73 bd 54 52 d0 be
       0.07692416 0.21998397 -0.059425436 -0.4068781
000220 13 19 3f 3d a4 f8 04 be 93 82 0d 3f da c5 6d bd
       0.046654772 -0.12985474 0.55277365 -0.058050014
000230 05 01 bc 3c 9d e8 8f 3e 58 e8 b7 bd 28 51 b0 bd
       0.022949705 0.28107157 -0.08979863 -0.08609229
000240 cb 5a 23 bd ab 32 9f bd f7 f7 07 be 37 e8 3f bd
       -0.03988151 -0.07773336 -0.13278185 -0.046852317
000250 79 97 10 be 17 fb 96 3d 7b f9 b8 3b 05 73 21 3e
       -0.14120282 0.0737211 0.0056449748 0.15766533
000260 37 b0 8f bc cb 23 6d 3e b9 b1 80 be 18 74 40 3d
       -0.01754008 0.23158185 -0.25135592 0.046985716
000270 f9 db a4 bd ee 92 1c be 92 14 64 3c 3f bd b0 3e
       -0.08049769 -0.15290424 0.01392092 0.34519383
000280 f9 d6 de 3e 20 bc 73 3e a6 ca 23 be a8 d7 16 be
       0.43523386 0.23802233 -0.15995273 -0.14730704
000290 70 b9 b8 be 3c d2 ac be 56 50 79 bc 5b b8 72 be
       -0.36078978 -0.33754146 -0.0152169075 -0.23703139
0002a0 0e a5 3d be d3 54 c0 3d d9 e2 9a 3e 33 1a 94 be
       -0.18519995 0.09391179 0.30251196 -0.28926238
0002b0 61 45 4f 3d c1 d1 4e be 0e fa d7 3c a0 63 9d be
       0.050603274 -0.20197202 0.026364353 -0.3074007
0002c0 b1 51 a4 3e 6d 05 44 3e 51 c8 c6 3e 80 59 1a be
       0.32093576 0.19142695 0.38824704 -0.15073204
0002d0 fb d6 be 3e c6 b5 30 bd 51 44 02 3d 8a bf d0 3e
       0.37273392 -0.043142103 0.031803433 0.40771133
0002e0 db a4 ef bd 96 af d6 be ae af 40 3d 3c 77 23 be
       -0.117013656 -0.41930836 0.04704254 -0.15963453
0002f0 13 35 86 3e ee c4 64 3e 6e c2 59 3e 9a 46 a8 3c
       0.26212367 0.22340748 0.21265575 0.020541478
000300 35 41 f5 bd e1 bb 31 3e 3c b3 9f bb 8f 7a 96 3c
       -0.11975328 0.17356826 -0.0048736613 0.018368987
000310 eb 74 4b 3e a9 63 17 bd 1c e1 0b bd 0c 02 40 be
       0.1986882 -0.036960278 -0.034150228 -0.18750781
000320 e3 a7 20 be d3 c4 d2 be 2f 82 9a be fc b7 c0 be
       -0.15689044 -0.4116579 -0.30177447 -0.3764037
000330 64 75 77 3c 68 b4 09 3e 2a a5 a5 bd 31 ff 9c 3e
       0.015103672 0.13447726 -0.08088143 0.30663446
000340 53 39 90 3d 51 08 72 be 3e fc 8b 3e d7 e7 b1 3d
       0.07042184 -0.23635985 0.27340883 0.08686798
000350 45 21 8d bd 4a 8a 56 be 0d a6 ac 3e a9 fb 87 3e
       -0.06891111 -0.2095119 0.33720437 0.2655919
000360 99 01 04 3e 40 33 8a bb f4 ff 16 3d 8c 88 e6 bd
       0.12891234 -0.0042175353 0.03686519 -0.11256513
000370 9b d6 24 3e e3 8c 61 3d d9 03 88 bc e9 d4 18 be
       0.1609749 0.055066 -0.016603397 -0.14924969
000380 fd ad 8c be db 5f 2a be c4 d1 8c 3e 28 e8 45 be
       -0.27476493 -0.16638128 0.27503788 -0.19326842
000390 3c e5 91 3e 51 64 27 3d db 65 a0 3e 01 e2 60 3d
       0.28495204 0.040867154 0.3132771 0.054903034
0003a0 13 8c 78 bd dd 00 9f bc c1 b9 71 be b9 63 86 be
       -0.06068046 -0.019409591 -0.23606016 -0.26247957
0003b0 56 51 0c bd 72 de 22 be e9 49 c3 3d 61 05 83 3d
       -0.034257255 -0.15905169 0.095355816 0.0639751
0003c0 dd 45 99 be 5f 75 61 3e ac e3 82 3a 57 8b bd 3d
       -0.29936114 0.2201743 0.0009986064 0.092550926
0003d0 c0 ba 14 3c 25 e7 10 be db 0e 6a bd 3b 93 41 3e
       0.009077728 -0.14150675 -0.057143074 0.1890382
0003e0 9b 73 ab 3e 3e 50 64 3e 2e ec 3e bd 41 d3 32 bd
       0.33486637 0.22296235 -0.046611957 -0.0436585
0003f0 46 8d 39 be e3 d1 05 be 55 2e a6 bb 8e 49 61 bd
       -0.18120298 -0.13068347 -0.005071441 -0.055001788

network_body._body_endoder.lin_layers.seq_layers.0.bias f4 [108]
000000 4b 96 9a 3c ef 5b 24 be 4f 9f 3d be 68 9f ef 3d
       0.018870493 -0.16050695 -0.18517803 0.11700326
000010 30 fa b2 bd 28 b0 06 3e 74 08 14 bd b5 76 82 be
       -0.08739126 0.13153136 -0.036140874 -0.2548119
000020 a9 be 79 be a5 1d db bc 77 b6 7a bd 23 5c a6 3d
       -0.24389137 -0.026747534 -0.06120917 0.081230424
000030 ea 53 ac be c8 8f 86 bd c1 15 82 be fd 13 d9 3c
       -0.3365777 -0.06570393 -0.25407222 0.026498789
000040 ae c5 52 be 7f e7 ee 3c 51 41 84 bd 63 b9 50 3c
       -0.20583221 0.02916312 -0.064577706 0.012739512
000050 cd 9d d7 bd dc d7 51 be 90 30 0e be 7e c8 40 be
       -0.10528145 -0.204925 -0.13885713 -0.18826482
000060 07 10 a0 bd d5 b5 f8 bd 16 2b c3 bd 7e 9f 02 be
       -0.07815557 -0.12144057 -0.09529702 -0.12756154
000070 79 e4 d4 3a 88 a5 16 be d3 af 29 be a0 6f 87 be
       0.0016242407 -0.14711583 -0.16570978 -0.2645235
000080 8c fc 43 be ec 91 90 3c 87 82 9a bd ca f6 03 3e
       -0.19139308 0.017647706 -0.07544427 0.12887111
000090 74 40 92 3d 42 da 72 be de 60 10 3b 1d 73 0b 3d
       0.071412 -0.23716071 0.0022030394 0.034045327
0000a0 e4 03 87 be 9b 72 03 bf 69 fe a5 be 7b 1f f3 bd
       -0.26370156 -0.5134675 -0.32420662 -0.11871239
0000b0 68 c9 24 be eb 8b f7 bb 67 01 4c bd dc 9f 27 bd
       -0.16092455 -0.0075545213 -0.049806025 -0.04092394
0000c0 cc 7f c2 3b 71 57 cd be 30 29 e4 bd d3 4c 29 bd
       0.0059356447 -0.40105775 -0.111406684 -0.04133303
0000d0 e3 67 38 be f1 9e 76 3c 22 59 4c be 0f 83 07 be
       -0.1800838 0.015052543 -0.19955876 -0.13233589
0000e0 d0 a1 bb be 1f a5 95 be c1 d1 99 bd 8a 0d 22 be
       -0.3664689 -0.2922754 -0.075107105 -0.15825477
0000f0 49 45 8b be ee 92 2a be 74 5d 64 be c8 a3 17 be
       -0.27201298 -0.16657612 -0.22301275 -0.14808571
000100 36 1a d9 be f7 fc 2b be 11 7c ac bd 79 b5 cc be
       -0.4240281 -0.16795717 -0.08422101 -0.39982203
000110 4b 6d 07 be 9c a2 1f bd 90 c5 29 be 06 6d 94 be
       -0.13225286 -0.038973436 -0.1657927 -0.28989428
000120 f6 8f 86 be 6b fc 15 be 17 5b 54 be f0 0d b8 be
       -0.26281708 -0.14647071 -0.20737873 -0.35948133
000130 ac 38 ef be ba b7 7a 3a c6 f7 63 be 5f 95 13 be
       -0.46722925 0.00095641206 -0.22262487 -0.1441245
000140 6f 56 25 be ff 66 5a be 99 4e 43 bd 54 a2 83 be
       -0.16146253 -0.21328352 -0.04768238 -0.25709784
000150 67 30 a6 be b9 da e8 bd b5 bc 5d be a3 1d ea 3c
       -0.32458803 -0.11369843 -0.21654017 0.028578585
000160 db 90 0e be ac df 99 be f5 76 01 be 47 2e 7d be
       -0.13922445 -0.3005346 -0.12643035 -0.24724685
000170 b7 b0 89 be 49 33 6c be c8 a5 ec 3c 3d d1 c9 bc
       -0.26892635 -0.23066439 0.028887644 -0.024635905
000180 2a 1f ae bd 7f 36 1d bd f3 3f 4b be 81 b4 25 bd
       -0.08502038 -0.03838205 -0.19848613 -0.040455345
000190 d8 39 09 be 0c 52 a8 bd bd 0a c8 be 50 7d 9e bc
       -0.13400972 -0.08218774 -0.39070693 -0.019346863
0001a0 f0 b4 02 be b3 5b 46 be 49 00 1d be 89 cf 19 be
       -0.12764335 -0.19370918 -0.1533214 -0.15020575

network_body._body_endoder.fc.weight f4 [64, 108]
000000 56 34 22 bd 8e 12 2e 3e de a3 3f 3c 58 d5 6c bd
       -0.039600693 0.16999266 0.011696784 -0.057820648
000010 ce ec 87 be da c7 5e 3e e1 eb b4 3d c0 16 df bd
       -0.26547855 0.21755925 0.08834053 -0.10893011
000020 0b d8 31 be b3 42 06 bf d3 f4 85 bd eb ea 2c 3d
       -0.1736757 -0.52445525 -0.06540837 0.042216223
000030 13 d6 e5 3c b1 08 6d 3e bc cf 26 3e f6 ca 92 bd
       0.02805618 0.23147847 0.16290182 -0.07167618
000040 73 42 93 3d 76 ec 57 be 88 51 53 3e e4 61 ba 3d
       0.071904086 -0.21086296 0.2063657 0.091007024
000050 fe dd 22 bf 49 1c 3b be 0d 96 2d 3e bf 6d 8c be
       -0.63619983 -0.18272509 0.16951771 -0.2742748
000060 e2 9b 26 3e c7 eb b3 be aa 68 23 be 18 9f f3 be
       0.16270402 -0.3514082 -0.15957895 -0.47582316
000070 b4 b4 d8 3d 8b d9 43 be d1 0d 97 be 95 63 6c 3d
       0.105813414 -0.19125955 -0.2950273 0.057712156
000080 df 15 41 3e 12 53 75 3d 53 b0 2f be c8 c7 db bd
       0.18856 0.059893675 -0.17157106 -0.107314646
000090 d7 87 10 bd 0c 3f 90 3e 76 52 aa be 0b c1 bc 3b
       -0.035285797 0.281731 -0.33266038 0.005760317
0000a0 5a be c9 3d ef 03 12 be 63 bc 2f 3d 7c 4e 79 be
       0.0985076 -0.14259313 0.04290427 -0.24346346
0000b0 65 45 0d be 58 f4 ca 3d 4b f7 e3 3c 43 72 05 be
       -0.13796003 0.09909886 0.02782788 -0.13031869
0000c0 ee 01 0a 3f 28 50 90 bd ff 70 2d 3e 7c 16 98 bd
       0.53909194 -0.070465386 0.16937636 -0.074261636
0000d0 8f ca 9a 3d bb 61 f7 bd 2b 5d e3 3c bd 4f 2d 3f
       0.07558166 -0.120791875 0.027754387 0.67699796
0000e0 95 0c d9 bd 3b 56 07 bd cc a9 02 be e1 cc 9d be
       -0.10598103 -0.03304122 -0.12760085 -0.30820373
0000f0 96 17 45 be 58 7a c3 bc 37 cc 84 be 80 cf 44 be
       -0.19247279 -0.023862049 -0.25937054 -0.1921978
000100 cb 34 a0 be 9f 00 4e 3e d2 42 50 be 43 f2 b3 bd
       -0.31290278 0.20117424 -0.2033799 -0.08786442
000110 8b a4 10 3e 52 51 91 be fc cf f3 3d 15 33 1d be
       0.14125268 -0.28382355 0.11904904 -0.15351517
000120 92 5a 9f bd 83 0e d1 be d7 20 65 be 74 26 6c 3d
       -0.07780947 -0.40831384 -0.22375809 0.05765386
000130 8b 9f 18 be c0 6b 0d be 0b 5f 2b 3e da 89 9a 3e
       -0.14904611 -0.13810635 0.16735475 0.30183297
000140 61 d3 84 3e 3b 4a 20 bc ed 6c 47 3e fe e7 d0 3e
       0.2594252 -0.009783323 0.19475146 0.40801996
000150 08 f2 c8 bd f3 32 87 3e ee 63 26 be 54 a0 df 3a
       -0.09811789 0.2640606 -0.16249058 0.0017061331
000160 63 6a 73 be c6 8d bc be f0 48 26 3c b7 00 63 be
       -0.23771052 -0.36826915 0.010149226 -0.22168241
000170 77 78 6d be 10 ea ab be 4e ff 60 3e 19 92 c6 3e
       -0.23190485 -0.33577013 0.21972391 0.3878334
000180 41 20 7e bd 94 83 2c bd 70 44 0d be a8 7e 36 3e
       -0.06204248 -0.04211767 -0.13795638 0.17821753
000190 2a 56 03 be df 88 b2 3b 5a f8 2d be a0 2a 3e 3e
       -0.12825838 0.005448445 -0.1698927 0.18570948
0001a0 46 74 7a 3d 62 6f ba 3d ec 82 f5 3d 95 d9 e6 bd
       0.061146043 0.09103276 0.11987862 -0.11271969
0001b0 21 51 f4 3e e6 22 ee be 7a d9 1c 3d ac 34 c7 bb
       0.47718146 -0.46511 0.03829334 -0.006079277
0001c0 37 91 84 3c 88 b0 5e bd c3 85 58 3e bc 8a d3 3e
       0.016182525 -0.054367572 0.21144776 0.41316783
0001d0 aa 98 04 3d 28 8d ee 3e d5 08 40 bc 50 d5 20 bd
       0.032372154 0.4659207 -0.011720856 -0.03926593
0001e0 9b 1e 69 be a5 56 d0 bd 79 80 0d 3e c9 a1 65 3d
       -0.22765581 -0.10172776 0.1381854 0.056062493
0001f0 46 27 00 3e 64 ba 4a 3e 98 ac e6 3d a8 22 41 3e
       0.12514982 0.19797665 0.112633884 0.18860877
000200 0a e2 ed bd bf 5e 9f 3e 84 24 a1 be 87 40 15 3d
       -0.11615379 0.31126973 -0.31473172 0.03643849
000210 af d4 78 3e f4 6c 2b 3f 87 c7 9b 3d 42 4a 32 3e
       0.24299882 0.66963124 0.07606416 0.1741114
000220 33 7a af 3e 54 9e f4 3d 3e 12 00 bd ac 15 ab 3b
       0.34272918 0.11944261 -0.031267397 0.0052210893
000230 b3 e2 60 3d 72 5b f6 bd ac 4f 27 3d 32 9e 6b 3e
       0.054903697 -0.120291606 0.040847465 0.23009565
000240 a7 7f a0 3e bf 11 04 3f f8 b3 ac 3e 2e ca c4 be
       0.3134739 0.5158958 0.33731055 -0.384355
000250 f3 cc 05 be b2 31 61 be bc 15 6d be 3f 00 6d bd
       -0.13066463 -0.21991614 -0.23152822 -0.057861563
000260 2c c8 c7 3e 13 17 30 3d d5 ed 21 3e 5b 13 78 3e
       0.39019907 0.042990755 0.15813382 0.24226134
000270 b0 a7 cc 3e 3b 52 30 be 25 d9 11 3d fd 76 59 3c
       0.39971685 -0.17218868 0.035607476 0.013272998
000280 0a c9 a8 3d 6c e7 93 bc f7 93 a7 3e 5b e3 7d 3e
       0.0824147 -0.018054686 0.32730076 0.2479376
000290 78 03 bb 3e bd de 9a 3e b3 ed a5 3e 84 78 ba 3e
       0.36526084 0.3024806 0.32407913 0.3642007
0002a0 a9 45 57 3e ef fa 11 bd 1b e4 03 3f 3b b5 96 3d
       0.21022667 -0.0356397 0.51519936 0.07358786
0002b0 c0 d4 a4 3c d8 57 ec bd 55 a2 e5 bd db 51 c2 3e
       0.020120978 -0.11540192 -0.11212603 0.37953076
0002c0 c6 89 20 bd 47 85 84 3e bc 85 d1 bd 4b c3 03 bd
       -0.03919389 0.25882933 -0.10230586 -0.032168668
0002d0 74 4e 2a 3e 91 14 a2 3e bc ca 82 be 35 9f 1e be
       0.1663149 0.31656316 -0.255453 -0.1549042
0002e0 36 ce 1b 3e fe 13 92 3d ee f7 5f 39 0c 02 db bd
       0.15215382 0.071327195 0.00021359298 -0.1069375
0002f0 c8 0e 99 3e 7a 22 d7 3e 41 57 90 3e 4d c8 26 bd
       0.2989409 0.4201849 0.2819157 -0.040718365
000300 bc 92 52 be 6a 80 d9 be 0b 83 a4 3e b4 a5 88 3d
       -0.20563787 -0.42480785 0.32131228 0.0667223
000310 b8 e4 e9 bd 62 66 24 3d 15 96 91 3d 44 99 ab 3d
       -0.11420578 0.040136702 0.07108704 0.083788425
000320 28 6b f9 3d f9 43 08 bb 4a 85 22 be cc 86 46 3e
       0.121786416 -0.0020792468 -0.15871158 0.19387358
000330 f6 0f 12 be 40 96 1f 3d df 7c 1f 3e 01 c0 04 3e
       -0.14263901 0.03896165 0.15574978 0.12963869
000340 6e a3 21 3d ae de bb 3e 86 d1 bf 3d de f5 29 be
       0.0394625 0.3669333 0.09366135 -0.16597697
000350 d8 00 ce bd 7f 41 fa bd ec aa 7c bd 08 f1 96 bb
       -0.10058755 -0.12219524 -0.06168644 -0.00460637
000360 fb 4f b8 3e 5b c5 86 be 77 32 8c bd 66 d3 2b be
       0.3599852 -0.26322445 -0.06845563 -0.16779861
000370 f7 75 49 be 60 e3 c0 bd e8 7d d9 bd 3f 73 1f bd
       -0.19673906 -0.09418368 -0.10619718 -0.038928267
000380 87 6a 94 be 53 7c aa be 61 41 f7 3d 65 81 77 bd
       -0.28987524 -0.33297977 0.12073017 -0.060426135
000390 32 ec c2 be d2 ec 12 bf 4b cb ca 3e 8f 82 1c bb
       -0.38070828 -0.5739261 0.39608225 -0.002388153
0003a0 21 86 0a 3e cf ed 6d be 20 41 c9 3c 9e a0 b0 bb
       0.13527729 -0.23235248 0.024567187 -0.005390241
0003b0 8c 5f 90 be 3c 3a ce 3c 12 b3 6f be 97 8c 8e bd
       -0.28197896 0.025174253 -0.23408154 -0.06960409
0003c0 c3 17 c7 bb 5d d0 e8 3d 0b 6c 9d bd 96 86 39 bd
       -0.0060758307 0.11367867 -0.07686623 -0.045294367
0003d0 29 25 c9 3e 3e 95 29 bf ec 0d dd 3d 0f 2b 23 3d
       0.39286163 -0.6624335 0.10793671 0.039835986
0003e0 87 e4 a3 3d f8 f7 b6 3d 09 1a 70 3d 52 d1 90 39
       0.080025725 0.08934015 0.05861858 0.00027621776
0003f0 e6 8c 9b 3e ad d0 50 3c 70 75 88 be 8b 50 77 be
       0.30380934 0.012745065 -0.26652098 -0.24151818

network_body._body_endoder.fc.bias f4 [64]
000000 57 08 17 3d 00 66 99 3d 6d 1c 8c bd ec 19 65 3d
       0.036873188 0.07490158 -0.06841359 0.055932924
000010 8d 64 82 be 00 2a 16 bd 33 a9 69 be 3b ce ef 3c
       -0.2546734 -0.036661148 -0.2281845 0.029273143
000020 4d f2 f3 3d 37 06 0d 3e 23 3d 4c 3e 89 a8 6d bd
       0.119114496 0.13771902 0.19945197 -0.058022056
000030 93 84 e1 3d be 5d 33 bc 3a ea 73 3d 5e 1a 37 be
       0.11011615 -0.010947643 0.059549548 -0.17881152
000040 e4 86 84 bc 5b 94 ce 3b 23 ba 46 3c fc b4 f6 3c
       -0.016177602 0.0063043064 0.012129339 0.030115597
000050 ba 97 d7 3d bb 91 36 be c1 79 e0 bd 15 33 6f be
       0.105269864 -0.1782903 -0.10960723 -0.2335933
000060 22 9b a2 bc a8 fa 1b be b0 d3 8e 3c 0e 94 82 be
       -0.019849364 -0.15232337 0.017434925 -0.25503582
000070 d5 c2 fb bd ba b2 07 3e da df fb bc 64 e1 19 be
       -0.12293021 0.13251773 -0.03074639 -0.15027386
000080 69 a2 2a be 07 9c e7 3d 36 e8 0c 3d 9d 1c e8 bd
       -0.16663517 0.11309057 0.03440114 -0.113335826
000090 f6 ee 4f be c5 d3 75 3c 48 48 8a 3d 37 1f d5 bd
       -0.20306 0.015004103 0.06752068 -0.104063444
0000a0 28 8d e5 bd 82 79 4e bd 00 2c 6e bd a1 af 3b 3d
       -0.11208564 -0.050408848 -0.05814743 0.04582179
0000b0 5e f4 8c 3d 9f be 03 3d a6 91 1b be fa 75 09 3e
       0.06882547 0.032164212 -0.15192279 0.1342391
0000c0 db 6f bf bd e7 33 5b bd 7f ce 84 bd d3 22 db 3d
       -0.093475066 -0.053516295 -0.064846985 0.107000016
0000d0 9a e6 e1 3d 1f b1 08 be 60 7c 6c be a8 9f 34 3e
       0.11030312 -0.13348816 -0.2309432 0.17639029
0000e0 5d e6 96 3d 7f cb 15 3e c5 5c 7a bd a4 15 13 3d
       0.07368157 0.14628409 -0.06112363 0.03590931
0000f0 b9 9c 81 3d 3e 03 a9 bc c6 d8 51 be b3 12 a3 bd
       0.063287206 -0.020631429 -0.20492849 -0.07962551

action_model._continuous_distribution.log_sigma f4 [1, 2]
000000 44 7c ce 3f 1b f3 ba 3f
       1.6131673 1.460544

action_model._continuous_distribution.mu.weight f4 [2, 64]
000000 a4 56 e6 b9 a0 30 57 be 22 5d df bd 8d 56 4d be
       -0.0004393357 -0.21014643 -0.109064355 -0.20052548
000010 e8 27 fe bd e9 74 43 3e f1 99 a4 bd d3 68 60 3e
       -0.12409955 0.19087566 -0.080371745 0.21914987
000020 91 57 6a bc 6c 2e f0 3d 34 f5 27 3d 41 d0 fe bd
       -0.014303104 0.11727604 0.04100533 -0.12442065
000030 07 b6 ac 3d d2 2b 25 be 74 75 42 3e f5 25 d0 bd
       0.084331565 -0.16129997 0.18990117 -0.1016349
000040 da 91 c9 bd 22 56 0e be 52 5a 2b be 53 a6 d0 3d
       -0.09842272 -0.13900045 -0.16733673 0.10187974
000050 1f 9a 8a bd 7c 89 83 bd bc 3f e5 bd 91 e5 22 bd
       -0.067676775 -0.064227074 -0.11193797 -0.039769713
000060 2e 2b 69 3d a7 3c 04 be e9 14 df 3c 42 96 fc bd
       0.056925945 -0.12913762 0.02723165 -0.12333347
000070 6c 38 c4 bd 24 2d af bd 94 1f 62 be ac 36 3c bd
       -0.09581074 -0.08553532 -0.22082359 -0.045950577
000080 be e1 5c bc 78 6b 96 3d 72 09 00 3d 65 61 39 bd
       -0.0134815555 0.07344717 0.031259008 -0.0452589
000090 e5 83 0f be 57 df b8 3d 18 ef f2 3d 83 b7 07 be
       -0.14015158 0.09026974 0.1186201 -0.13253598
0000a0 ff 26 1e 3d e3 26 d5 bd 8c 29 fd 3b b7 66 0d be
       0.03861141 -0.10407808 0.0077259 -0.13808714
0000b0 1d 6c db 3c f5 d4 2b 3d 42 cb 0e be f7 bb f1 3d
       0.02678495 0.04195114 -0.13944724 0.118034296
0000c0 bd 6f 0b 3c a6 9a 87 bd 8a a4 f0 3d 30 2d 4a 3e
       0.008510527 -0.06621294 0.11750133 0.197438
0000d0 e1 f3 8c bd b3 cf fe bd 9e 25 c0 bd 55 94 b5 3d
       -0.06882454 -0.12441959 -0.09382175 0.08866183
0000e0 4b 19 11 be 64 96 32 bb f5 14 64 bc 47 e4 79 3d
       -0.14169805 -0.0027250284 -0.013921012 0.061008718
0000f0 ec b5 ca bd 59 8c 62 be 15 87 02 be fe 84 4a bd
       -0.0989798 -0.22123851 -0.12746842 -0.049443237
000100 a7 94 2e 3e 75 c8 f3 bd 92 83 71 bd d2 d6 ea 3d
       0.17048894 -0.119034685 -0.058963366 0.11466755
000110 94 16 eb bd 1f 6e 50 bd 4a 74 1e be 2c 41 a2 3d
       -0.11478916 -0.05088627 -0.15474048 0.07922587
000120 a9 20 6a 3e 16 1e aa 3d 79 6b 78 3d ac 8a 99 bd
       0.22864021 0.0830652 0.06064937 -0.07497153
000130 7f 5f 10 3e 69 34 a2 3d f1 e5 97 3d 95 d7 96 bc
       0.14098929 0.07920153 0.07416905 -0.018413344
000140 07 01 92 3e 43 ce 87 3d df 4b 3f 3e 37 3e 00 3e
       0.2851641 0.06631138 0.18681286 0.12523733
000150 78 e3 3f 3e a3 f3 f4 bd 10 d6 dd bc ec 79 90 bd
       0.18739116 -0.119605325 -0.027079612 -0.07054505
000160 8c 65 a4 bd 5f 76 bb bc f3 89 0c 3e c6 0c ae bc
       -0.08027181 -0.022883592 0.13724498 -0.021246325
000170 08 bd 1a be e9 a7 16 3e 2d 22 9b 3c 32 cf 11 be
       -0.15111172 0.1471249 0.018937195 -0.14239195
000180 cb e9 7a be a6 0c 57 be f1 16 5a 3e df 1b 1d be
       -0.24503247 -0.21000919 0.21297814 -0.15342663
000190 70 c9 99 bd 74 2a c6 3d 7b 4a d0 bd 1e c6 7e bc
       -0.07509124 0.09676066 -0.10170456 -0.0155501645
0001a0 76 fc b1 be e7 9b 14 be 06 f6 ba bd e7 47 bd 3d
       -0.34762925 -0.14512597 -0.091289565 0.0924223
0001b0 5f 1b 3d 3e 63 8f 99 3d 1a f5 9f 3b a1 af ee 3c
       0.18467472 0.07498052 0.0048815133 0.02913648
0001c0 76 17 a5 bd e0 9a 21 be b2 76 24 be 66 bd 10 3e
       -0.080611154 -0.15781736 -0.16060904 0.1413475
0001d0 f5 30 d2 bd ad de 90 3d 90 53 9b be 78 17 6c 3c
       -0.10263244 0.07073722 -0.3033719 0.014409892
0001e0 bc 0c ad 3d 28 73 8e 3e 87 27 04 be e7 91 27 3e
       0.084496945 0.27822232 -0.12905703 0.16364251
0001f0 81 e4 7f bd b2 7e 4b bd bd 12 41 bd b6 0c 67 be
       -0.062473778 -0.049681373 -0.04713701 -0.22563443

action_model._continuous_distribution.mu.bias f4 [2]
000000 df 87 f8 3d 27 6c 1a 3d
       0.1213529 0.0377008

action_model._discrete_distribution.branches.0.weight f4 [1, 64]
000000 de 83 8d 3c 55 a3 e1 bb 12 fb 6a 3c 33 02 c4 ba
       0.017274793 -0.006885926 0.014342086 -0.0014954269
000010 23 3f a3 3c cb 94 bc 3b ab d2 81 bc d8 1c e2 3a
       0.019927567 0.005755042 -0.015847525 0.0017251028
000020 75 90 63 bb df 3f 8c 3c 33 40 2c bb c7 6e 50 3b
       -0.0034723554 0.0171203 -0.0026283383 0.003180431
000030 cb bc 0f bc 80 06 9a 3c 07 aa b4 bc 3d cc b6 bc
       -0.008773039 0.018801928 -0.022053732 -0.022314185
000040 08 15 81 bc e0 53 1c bc ad e2 68 3a 00 1b 27 bc
       -0.015757099 -0.009541482 0.0008883875 -0.010199308
000050 04 4e 98 3c 59 5e 4b bc 53 50 2f 3c 7e 55 9a 3b
       0.018591888 -0.012412631 0.010700303 0.0047098985
000060 7c 3a 31 3c a1 44 38 3c 7f 1b 24 bc 53 5c cc 3b
       0.010817166 0.011246831 -0.010016321 0.006236592
000070 b7 17 2d 3c 18 37 69 bc 87 47 e6 3b 89 3f 3c 3b
       0.010564736 -0.014234327 0.0070275697 0.0028724393
000080 cf c1 86 3c 9f 6f 02 bc 0d 73 de 3a 6f b1 05 bc
       0.016449837 -0.007961183 0.0016971544 -0.008159979
000090 cd 22 71 bc 96 16 24 3c 0e 5e 16 3c 97 a9 9c 3b
       -0.01471777 0.0100151505 0.009177698 0.004780959
0000a0 3d f6 54 bb 80 fe d9 bb 1e 62 27 3a 6d 07 87 bc
       -0.0032495402 -0.006652653 0.0006385165 -0.016483033
0000b0 1a be d7 3b 0f 4a d6 bb 3b fd 40 3c da c0 54 ba
       0.006583941 -0.00653959 0.011779125 -0.00081158953
0000c0 04 4c 99 3c 16 f5 06 3c e2 7f ac bc 82 bd 9b bc
       0.018713005 0.008237144 -0.021057073 -0.019011263
0000d0 2b 4c 15 bb 1f ec 89 bc 2b e8 dd ba e6 bc ad bc
       -0.0022780995 -0.016836224 -0.0016930153 -0.021208238
0000e0 56 b9 03 3c ed 68 d8 3b 38 7d 61 bc 3f 46 43 bb
       0.008039793 0.006604305 -0.013762765 -0.0029796509
0000f0 87 76 a1 3c 93 64 ff bb 23 b7 5e 3c 3f 52 c9 3a
       0.019709839 -0.007793972 0.013593468 0.0015359594

onnx::MatMul_196 f4 [54, 54]
000000 48 da 30 3e da 65 6c bc 5b 3a e0 3d 1d 88 82 3d
       0.17270768 -0.01442858 0.109486304 0.06373618
000010 57 3f 4a 3e 72 d2 23 3d 3d cb b0 3d 84 8c 07 be
       0.19750725 0.03999562 0.086325146 -0.13237196
000020 46 5f 86 3d 35 4d 98 3d aa 1f 0e be b7 1e c3 3d
       0.06561141 0.07436601 -0.13879266 0.09527343
000030 0a 3f bd 3d 66 73 42 3e a5 f1 be 3c 6b cf 5e 3d
       0.09240539 0.18989334 0.023308584 0.054397028
000040 aa 7a 78 bd cd f7 6f 3e 28 33 21 3e 7d 1d 6a bc
       -0.060663857 0.23434372 0.15742171 -0.014289257
000050 00 2c 49 be c5 79 a0 3d bc 18 93 3d ea 12 c2 3c
       -0.19645691 0.07835726 0.07182452 0.02369066
000060 33 78 00 be 2a 80 38 3e 3f bb 53 be 73 ee e1 bd
       -0.12545852 0.1801764 -0.20676897 -0.11031809
000070 65 94 ee 3d 70 1b b9 bc e0 14 d7 3c 8d c3 6b 3e
       0.11649398 -0.022596091 0.026255071 0.23023815
000080 a4 e1 4d be 94 86 43 be e1 23 46 be 94 1a b2 bd
       -0.20105606 -0.19094306 -0.19349624 -0.086964756
000090 89 bc 21 3e 2b 93 0a be 7b 3c d4 3d 46 88 2f be
       0.15794577 -0.13532703 0.10363098 -0.17141828
0000a0 a6 c7 01 be e6 72 f7 bc d7 e6 12 3e 62 63 37 bd
       -0.12673816 -0.030206155 0.14345871 -0.044772513
0000b0 e2 cf 54 be 0e fb 12 be f1 c9 2a be c5 3a fd 3d
       -0.20782426 -0.14353582 -0.16678597 0.12364725
0000c0 6a 5b 22 3d 23 68 55 be 5a df 69 3d 27 a7 f8 3d
       0.03963796 -0.20840506 0.05709777 0.12141257
0000d0 59 a2 db bd 32 5b c7 3c 4b b8 14 bd a7 f4 ea bd
       -0.10724325 0.024335478 -0.036308568 -0.11472445
0000e0 5a b8 3f be 13 b1 3d be be 89 29 3b df af 70 3d
       -0.18722668 -0.1852458 0.0025869454 0.058761474
0000f0 92 cf 0d 3e 2e a7 54 bd be cc a2 bd 1d c7 e8 3d
       0.13848713 -0.051917247 -0.07949208 0.11366103
000100 8c 88 66 3c 94 c1 25 be 23 87 9b 3d 98 39 08 bd
       0.014070641 -0.16187125 0.07594135 -0.03325805
000110 dc c6 0c be c3 2b a4 bd 58 3c 1a 3d 74 a6 8d 3d
       -0.13747734 -0.080161594 0.037655205 0.06916514
000120 37 31 1a be 8a 93 26 3e b1 70 30 be fb c3 88 bc
       -0.15057836 0.16267219 -0.17230488 -0.016695013
000130 9a c4 c1 3d 8b b6 e8 3d c8 96 22 3e dd 23 99 bd
       0.09461327 0.11362942 0.15877831 -0.074775435
000140 4a 21 18 3d 51 d5 6d be 07 28 a1 bd 90 52 40 bd
       0.037141122 -0.23225905 -0.07868963 -0.046953738
000150 fb 04 55 be 4a eb 22 be 4e db 03 3d a4 90 80 3c
       -0.20802681 -0.15910068 0.032191567 0.01569397
000160 93 2e 38 be 03 72 2b be 4e 18 6c 3d 3b 52 5b 3e
       -0.17986517 -0.16742711 0.057640366 0.21418087
000170 7f 01 af bd c9 45 ca 3d a6 e5 b5 3d 2e 5a 19 be
       -0.08545207 0.09876592 0.088816926 -0.14975807
000180 cf 4a ba bd 8c f0 06 3e 2f 3c 50 3e 61 05 58 3e
       -0.090963 0.13177699 0.20335458 0.21095802
000190 2e 67 ec bd 50 76 c4 3d ef 0e 12 be d6 6b 42 be
       -0.115431175 0.09592879 -0.14263509 -0.18986449
0001a0 5f 18 87 3d a8 8d 35 3b 3a be 16 3e 92 a3 88 bd
       0.06596445 0.0027702842 0.14721003 -0.066718236
0001b0 d7 e7 29 3e 8b 4f a7 bd aa e7 0e be 64 d7 6d be
       0.16592346 -0.081694685 -0.1395556 -0.23226696
0001c0 f3 07 51 3e 12 8f 69 3e f7 91 a3 3d b4 94 0e 3d
       0.20413189 0.22808483 0.07986825 0.034809783
0001d0 5e 2f 68 bd 52 7b 34 3e 93 3c 5a 3e 07 3c 0e 3e
       -0.056685798 0.17625168 0.2131217 0.13890086
0001e0 e4 b5 51 3e bb ee ea 3c 1c 4a 8d bd b7 76 6c be
       0.20479542 0.028678289 -0.06898901 -0.23092161
0001f0 ad d0 c5 3d 5f 97 3f be d5 16 79 3d 5f 75 b8 3d
       0.09658942 -0.18710087 0.06081279 0.09006762
000200 dd 1d b9 bd 4b a1 64 be 8d 00 23 bc 81 c8 56 bc
       -0.09038899 -0.22327153 -0.009948862 -0.013109327
000210 b6 4a 4a 3e 58 79 b2 bd fa 54 42 be 60 7c 9e 3c
       0.19755062 -0.08714551 -0.18977728 0.019346416
000220 85 96 28 3e 15 f3 62 be 2f bc 60 3d 38 70 09 be
       0.16463669 -0.22163041 0.054866966 -0.13421714
000230 03 9f 2f bd 7c 23 82 bc 19 e4 2c 3e 5e 43 5e be
       -0.042876255 -0.01588606 0.16883887 -0.21705386
000240 fb d5 76 bd 7d 1f 0b 3e 4d 84 64 be aa 98 ed bd
       -0.06026266 0.1358623 -0.22316094 -0.11601384
000250 cd d9 d7 3c b5 56 dd 3d d6 97 42 3e 43 18 59 be
       0.026348973 0.10807554 0.19003233 -0.21200661
000260 1b 18 c5 3d 8e f2 14 3d 59 9b e8 3b 2c 88 16 3e
       0.096237384 0.03636413 0.007098597 0.14700383
000270 25 73 46 be 34 5e 83 3d 40 a5 8f 3d 04 3b f4 3d
       -0.19379862 0.06414452 0.07013941 0.11925319
000280 da 97 f3 bd fc 32 8a bd d9 c0 30 3e 13 c9 a9 3d
       -0.11894198 -0.06748006 0.17261066 0.08290305
000290 9d a8 79 3d e7 21 fd bd 2d 04 56 be 51 17 64 3d
       0.060951818 -0.12359982 -0.2090003 0.0556863
0002a0 54 fa d7 3d 96 0f 3b be e7 c9 f8 3d e2 32 15 3e
       0.10545793 -0.18267664 0.12147885 0.14570192
0002b0 d6 60 30 3d 4e 5e 35 3e 71 44 9f 3d 58 c0 37 3e
       0.0430611 0.17711756 0.07776726 0.17944467
0002c0 90 05 03 be 30 3c ac 3d 93 5d 5e bc 89 53 70 bd
       -0.1279509 0.08409917 -0.0135721145 -0.058673415
0002d0 c0 12 90 3c fe fd 2b be 83 70 4e 3e 1a 67 a9 bd
       0.017587066 -0.16796109 0.20160107 -0.08271618
0002e0 14 1e 03 be 35 68 59 be de 19 12 3e e8 5a da bd
       -0.12804443 -0.21231158 0.1426768 -0.1066187
0002f0 3f 34 f1 bc 62 e2 23 3d eb a1 ad bd 8b f0 d5 3c
       -0.029443858 0.040010817 -0.08478149 0.026115676
000300 73 e3 4c 3e 53 34 70 be d2 11 79 3d 57 ad 2c 3e
       0.2000864 -0.2345746 0.06080801 0.16862999
000310 17 40 aa bd 63 c5 93 bb 4d 63 d5 3b df 22 18 be
       -0.083130054 -0.0045096143 0.0065120817 -0.14857052
000320 b3 6c ad 3c 37 c1 65 be c6 d5 87 3d e8 8a cc 3d
       0.021169996 -0.22436987 0.06632571 0.09987432
000330 f1 24 51 3e b6 7a 42 3d 01 e6 dd bd f4 74 db bd
       0.20424248 0.047480308 -0.108348854 -0.107156664
000340 35 a5 ff 3d 84 ef e4 bd 76 64 4d 3c 87 2b 3d 3e
       0.124826826 -0.111784965 0.012536159 0.18473636
000350 7d be 10 3d 06 33 24 bc 64 0e bb bc af a6 d6 3c
       0.035337914 -0.010021931 -0.02283401 0.026202528
000360 87 b3 82 3d 4b b1 04 3e e4 e9 27 bd 17 39 9f bd
       0.063818984 0.12958257 -0.04099454 -0.07774561
000370 a3 6e 15 be 2d d4 38 3e 5e 8a d2 bd 0a 33 68 be
       -0.14592986 0.18049689 -0.10280298 -0.2267572
000380 63 3c 39 3e cd ac 27 bc 6b 56 d3 3d ae 54 98 bd
       0.18089442 -0.01023407 0.10319217 -0.07438026
000390 0c 0e d5 3d 53 d8 03 be 4f 3c c9 3d 7f c2 9f bd
       0.1040307 -0.1287549 0.09825956 -0.07800769
0003a0 44 a2 66 bd ea 25 24 3e 86 eb 7a 3d ca 2b 34 3e
       -0.056307092 0.16030088 0.06125977 0.17594829
0003b0 ff 23 77 3d 8a ab c6 bc 83 b3 48 bd 6e d2 d4 bc
       0.060337063 -0.024251718 -0.04899932 -0.025979247
0003c0 70 b3 7f bd e2 38 6f bd 64 4a 24 be 2c ef 24 be
       -0.062426984 -0.058403857 -0.16044003 -0.16106862
0003d0 5e 48 5a 3e ce 2f c4 3d 03 ff 2a be ae a7 9d 3d
       0.21316668 0.095794305 -0.16698842 0.07697998
0003e0 0a 20 42 3e 20 cd b7 bd 59 3b 0f 3e 4d eb 9e bc
       0.18957534 -0.08974671 0.13987483 -0.01939931
0003f0 b4 89 34 be 0d 1c 40 3e e2 d4 b4 3d e5 20 3b 3e
       -0.17630655 0.187607 0.08829667 0.18274267

onnx::MatMul_206 f4 [54, 54]
000000 c7 d4 c9 3d 99 5a 3c 3e 73 37 ce bd 64 dc 9a bd
       0.09855037 0.18393935 -0.1006917 -0.075615674
000010 eb 7c 51 be ae a2 bc 39 0e fe de 3d 2a 82 2b be
       -0.20457809 0.0003597936 0.10888301 -0.16748872
000020 9b 30 15 3e 96 64 2b be 91 df d2 3d 2e 8d d5 3d
       0.14569323 -0.16737589 0.10296548 0.104273185
000030 22 0e 57 be f8 eb ce bd 95 b9 b2 3c 53 f6 52 be
       -0.21001485 -0.10103601 0.021817008 -0.20601778
000040 b1 52 83 bd 27 0f 39 bc d2 95 d1 3d 15 2f 33 be
       -0.064122565 -0.0112951165 0.10233654 -0.17498429
000050 d2 31 37 3e 9f 9b 18 bd 39 29 4c 3e 65 d9 2e be
       0.17890099 -0.037257787 0.199376 -0.17075117
000060 2a a6 23 be c9 6d 2e 3e 80 01 5d 3d c2 21 e9 3d
       -0.15981355 0.17034067 0.05395651 0.11383392
000070 81 5c 37 3e 9a d3 bc bd 74 e6 88 bb de 51 34 be
       0.17906381 -0.09220047 -0.004177863 -0.17609355
000080 80 66 bb 3d 2d b5 f7 3d ba d5 89 bd 13 e5 d1 bc
       0.0915041 0.120951034 -0.06730218 -0.025621926
000090 9f 8f e8 3c ce a4 09 3e 14 36 63 be 6f fb 41 bd
       0.028388796 0.13441774 -0.22188598 -0.047358926
0000a0 6b ae 26 3e 89 cc 5e be 9a 3d 5c 3e e6 04 b2 3d
       0.16277473 -0.21757711 0.21507874 0.086923406
0000b0 44 2c c8 3b 8b a1 60 be 58 cd 59 3d 29 34 52 3e
       0.0061087925 -0.21936624 0.053174347 0.2052771
0000c0 07 b3 e7 bd af 2c 3e be 81 e0 43 be e3 d4 f8 bd
       -0.11313444 -0.18571733 -0.1912861 -0.1214998
0000d0 78 34 30 3e 15 44 fa bd cc a3 03 3e 38 e9 11 3e
       0.17207515 -0.12220017 0.12855452 0.14249122
0000e0 12 1b ea bb 74 d9 29 3e f7 b7 0a 3d 64 8a b0 bd
       -0.0071443403 0.16586858 0.03386685 -0.08620146
0000f0 a4 cd 6e 3e 49 cf ca 3d 33 74 4d be a0 c8 3b 3e
       0.23320633 0.09902818 -0.20063858 0.18338251
000100 29 14 0e 3d 02 a1 55 be 5a 3e 59 be af 6b dd bb
       0.034687195 -0.20862201 -0.21215191 -0.0067572217
000110 16 7c 4b 3c 5d c4 6a be a0 1f 56 3d c9 fa 42 3c
       0.012419721 -0.22926469 0.052276254 0.011900612
000120 3e 1d 1a be 9a 4b 70 3e b2 0f 0b 3e 59 45 29 be
       -0.15050218 0.2346634 0.13580206 -0.1653036
000130 97 01 05 be 00 db 2b 3e 99 ad 66 3e 08 b0 5c be
       -0.12988888 0.1678276 0.2252716 -0.21551526
000140 11 d6 5c be 28 8f 47 be d7 da 8d bd a2 9c 05 be
       -0.21566035 -0.19488204 -0.06926506 -0.13048032
000150 1d 38 41 be f0 6e c8 3d f4 1d e8 3c 9a 2e 1f 3e
       -0.18869062 0.09786785 0.028334595 0.15545121
000160 35 ce 50 3e 3f 7f 97 3d 26 7e 36 be 42 40 0e 3e
       0.20391162 0.07397317 -0.1782156 0.138917
000170 17 18 4d be a2 d9 4d 3e 59 ab 1f 3e 3c 1e 84 bd
       -0.20028721 0.20102552 0.15592708 -0.06451079
000180 ea 88 e6 bd dc 81 5f bd 6a af cd ba 87 1e e1 3d
       -0.11256583 -0.054567203 -0.0015692536 0.10992151
000190 93 51 6f 3e f7 c7 66 3e 74 fb 94 bd 5b 78 34 3e
       0.23370962 0.22537218 -0.072745234 0.17624037
0001a0 00 80 f9 bd 7d 5d e0 bd 90 fd 2a 3e 7c 04 63 be
       -0.12182617 -0.109553315 0.16698289 -0.2216968
0001b0 9c b5 fa 3d fe df 1e 3e c4 73 46 3d cd a7 0d be
       0.122416705 0.15515134 0.048450246 -0.13833542
0001c0 30 91 34 be 7e c9 6f 3e 31 96 d2 3d f2 d2 5a bc
       -0.1763351 0.23416707 0.10282553 -0.013355957
0001d0 40 39 85 3d 1a 14 0e 3d 81 10 5e be b0 7d 6c 3d
       0.0650506 0.03468714 -0.21685983 0.057737052
0001e0 3b 8f 6f be 99 39 c5 bd 17 f9 2c 3e d2 84 70 be
       -0.23394482 -0.096301265 0.16891895 -0.23488167
0001f0 07 f7 54 be 63 bf 52 3e 45 7c 94 bd 65 62 2f be
       -0.20797358 0.2058082 -0.07250265 -0.17127378
000200 c5 37 60 be 1c cb 0a be 8a 07 4c 3e 71 ae 5a be
       -0.21896274 -0.13554043 0.19924751 -0.21355607
000210 df 1c 71 be 9d 3a 4c be 52 14 18 be 4b 97 e6 3d
       -0.2354617 -0.19944234 -0.14851502 0.112593256
000220 c9 c1 2a 3d 19 7d 12 3e 7b ee 12 3e f9 63 03 3e
       0.041688714 0.14305533 0.14348786 0.12831105
000230 6f 0d 03 be f0 28 98 3d 5a d7 f0 3d c7 99 82 bc
       -0.12798093 0.07429683 0.11759825 -0.015942467
000240 6f fc dc 3d 0d 68 af 3d 81 9e 4d 3d 13 59 bf bd
       0.107903354 0.08564768 0.05019999 -0.093431614
000250 4d f5 66 3e ce 02 ec bd 61 f6 05 3e 7b 40 a0 3d
       0.22554512 -0.115239725 0.13082267 0.07824799
000260 6b 08 95 3d 1d 13 e8 3c 9b 88 4b 3d c8 0d 60 be
       0.07276996 0.028329426 0.049690824 -0.21880257
000270 ae d8 29 be ef e0 6d 3e a9 d7 4e be 20 6b a0 3d
       -0.16586563 0.23230337 -0.20199455 0.078329325
000280 a8 b3 96 3d ed 26 4d be 87 c5 27 be 71 ca 33 3e
       0.073584855 -0.2003438 -0.16383944 0.17557694
000290 4a 43 67 3e bc 05 39 be 0f b7 6b be a8 4f 05 3d
       0.22584262 -0.18068594 -0.2301905 0.03254667
0002a0 81 78 16 be f1 23 c2 3b ff 48 6e 3e 82 e4 25 bd
       -0.14694406 0.0059246947 0.23270033 -0.040501125
0002b0 77 a8 89 bd 5d 29 39 be a2 4c c7 bd 94 b8 63 bd
       -0.06721585 -0.18082185 -0.097314134 -0.05559595
0002c0 fd ad 9e bd 4f 13 56 bd e4 75 90 3d 48 98 16 be
       -0.077480294 -0.052264508 0.07053736 -0.14706528
0002d0 9b b4 5e 3c ac 95 32 3e a2 50 08 bd 1c 12 33 3e
       0.013592864 0.17439908 -0.033280022 0.17487377
0002e0 8e 1d 17 be 85 13 04 3e fa e1 33 bd d8 d3 cc bd
       -0.14757368 0.12898071 -0.04391668 -0.100013435
0002f0 2a 62 fe 3d 15 12 65 3e 70 52 12 bd a8 0d 12 be
       0.12421067 0.22370179 -0.03572315 -0.14263022
000300 04 00 84 3d fb 9c 0d 3d d3 6b 86 3d da 2b 6a bd
       0.064453155 0.034573536 0.065635346 -0.057170726
000310 12 68 bf 3d 81 09 cb 3d b1 06 32 3e e7 1d f4 bd
       0.09346022 0.09913922 0.17385365 -0.11919766
000320 46 4d 3f bc 0e c4 1a 3e 51 09 8e bb 8a c4 f5 bd
       -0.011676138 0.15113851 -0.0043346067 -0.120003775
000330 88 05 66 be 9c 7c 00 be 2b e0 69 3e 88 6c a9 bd
       -0.22463048 -0.12547535 0.2283942 -0.08272654
000340 bf 7e 26 3c 96 a4 15 be 71 76 6c 3d c0 03 46 3d
       0.010162055 -0.14613566 0.057730142 0.04834342
000350 b8 11 48 3e 23 fc b2 bd f3 02 28 3e 85 62 6c be
       0.19538009 -0.087394975 0.16407375 -0.23084457
000360 09 ff 41 be ce 40 cb 3d b6 5b bf 3d 13 0e 95 3d
       -0.18944944 0.0992447 0.09343664 0.07278075
000370 4e 24 4c bd 58 5b 2e 3e 50 60 e2 bd 26 0c 67 3e
       -0.04983931 0.17027032 -0.110535264 0.22563228
000380 d8 03 65 3e d4 42 3e be 9f ad 29 3e 96 47 28 be
       0.22364748 -0.1858018 0.16570137 -0.16433558
000390 e8 d5 e2 bc 33 9b af 3c 18 7c ef bd 54 17 1d 3e
       -0.02768989 0.02143631 -0.11693591 0.1534093
0003a0 03 46 9c bc e7 f6 6f 3d 8a 2d 86 bd 86 a1 2a bc
       -0.019076353 0.058585074 -0.06551655 -0.010414487
0003b0 26 92 1f 3e df ad 1e 3e 24 29 b2 bd fe 93 51 bd
       0.15583095 0.15496014 -0.08699253 -0.051166527
0003c0 9a 55 45 3e 3e 4c 5b 3e 07 12 3b be 57 f4 d3 3d
       0.19270936 0.21415803 -0.18268596 0.103493385
0003d0 0d 4e 06 3e a9 39 0b 3d 99 eb d7 3c d3 2e ce bd
       0.13115712 0.033990536 0.026357459 -0.10067525
0003e0 e1 e2 41 be 05 56 66 be b5 b9 3a 3e f2 a3 3b bc
       -0.18934204 -0.22493751 0.18234904 -0.011452662
0003f0 c9 63 f4 bd c6 74 e4 bc d0 f0 12 3d 81 d0 22 3e
       -0.11933095 -0.027887713 0.035874188 0.1589985
