Assets/oon/stop_1.onnx (onnx, 113734 bytes, 17 tensors)

network_body._body_endoder.attention.query.bias f4 [54]
0	0x00000000	0.0
1	0x00000000	0.0
2	0x00000000	0.0
3	0x00000000	0.0
4	0x00000000	0.0
5	0x00000000	0.0
6	0x00000000	0.0
7	0x00000000	0.0
8	0x00000000	0.0
9	0x00000000	0.0
10	0x00000000	0.0
11	0x00000000	0.0
12	0x00000000	0.0
13	0x00000000	0.0
14	0x00000000	0.0
15	0x00000000	0.0
16	0x00000000	0.0
17	0x00000000	0.0
18	0x00000000	0.0
19	0x00000000	0.0
20	0x00000000	0.0
21	0x00000000	0.0
22	0x00000000	0.0
23	0x00000000	0.0
24	0x00000000	0.0
25	0x00000000	0.0
26	0x00000000	0.0
27	0x00000000	0.0
28	0x00000000	0.0
29	0x00000000	0.0
30	0x00000000	0.0
31	0x00000000	0.0
32	0x00000000	0.0
33	0x00000000	0.0
34	0x00000000	0.0
35	0x00000000	0.0
36	0x00000000	0.0
37	0x00000000	0.0
38	0x00000000	0.0
39	0x00000000	0.0
40	0x00000000	0.0
41	0x00000000	0.0
42	0x00000000	0.0
43	0x00000000	0.0
44	0x00000000	0.0
45	0x00000000	0.0
46	0x00000000	0.0
47	0x00000000	0.0
48	0x00000000	0.0
49	0x00000000	0.0
50	0x00000000	0.0
51	0x00000000	0.0
52	0x00000000	0.0
53	0x00000000	0.0

network_body._body_endoder.attention.value.bias f4 [54]
0	0x3e614db2	0.22002295
1	0x3d8038f7	0.06260865
2	0x3db44dd3	0.08803906
3	0x3e840719	0.25786665
4	0x3e9ccd30	0.30625296
5	0xbef959ae	-0.48701233
6	0x3eb3b787	0.35100958
7	0x3eb2efd9	0.34948614
8	0x3e2f481a	0.17117348
9	0xbea65a05	-0.32490554
10	0xbeaf75c0	-0.34269524
11	0xbd940e1d	-0.072292544
12	0x3de9ace5	0.1140993
13	0xbed3529e	-0.4127397
14	0x3e51330a	0.20429626
15	0x3e761da2	0.24034742
16	0xbf018d89	-0.5060659
17	0xbdcffb0a	-0.10155304
18	0x3e2e524b	0.1702358
19	0xbe3a2c31	-0.1818092
20	0x3b384888	0.0028119404
21	0xbe5ea744	-0.21743494
22	0xbd78a7f2	-0.06070704
23	0xbeb2cfb6	-0.34924096
24	0xbd926830	-0.071487784
25	0x3e1d8e3d	0.15386291
26	0x3e9ce45d	0.30642977
27	0xbe93640f	-0.28787276
28	0xbede7c29	-0.43454102
29	0x3e8f39ce	0.2797379
30	0x3ed5dac9	0.41768482
31	0xbdbb6213	-0.091495655
32	0x3ecf582f	0.40496966
33	0xbeb61d8e	-0.35569423
34	0x3e9fb465	0.31192318
35	0x3eec9b17	0.46212074
36	0x3df4c2b3	0.119511984
37	0x3ebf8f28	0.37413907
38	0xbe836537	-0.25663158
39	0xbec30d05	-0.3809587
40	0xbc8727e0	-0.016498506
41	0x3ec95eca	0.3933013
42	0xbeb748e7	-0.35797808
43	0xbea1c61e	-0.31596464
44	0xbf0ae15b	-0.54250115
45	0x3e123917	0.1427959
46	0xbe08be52	-0.13353851
47	0x3de4d6f4	0.111738116
48	0x3d0cd705	0.034384746
49	0xbe46a1de	-0.19397685
50	0x3eb97e1a	0.3622902
51	0x3e9f9a7e	0.31172556
52	0xbe2e3180	-0.1701107
53	0x3db48ae7	0.08815556

network_body._body_endoder.attention.norm.weight f4 [54]
0	0x3f6e93ce	0.9319428
1	0x3f7ec1c3	0.99514407
2	0x3f89bf1b	1.0761446
3	0x3f82ae10	1.020937
4	0x3f915ab5	1.1355807
5	0x3f71795f	0.9432582
6	0x3f7e63a6	0.993708
7	0x3f9b5c47	1.2137536
8	0x3f8c29e4	1.0950284
9	0x3f763979	0.96181446
10	0x3f972978	1.180953
11	0x3f7ad0fd	0.9797514
12	0x3f87b165	1.0601012
13	0x3f8a1c3d	1.0789868
14	0x3f6f0abe	0.93375766
15	0x3f783873	0.96961135
16	0x3fa29490	1.2701588
17	0x3f8f258a	1.1183331
18	0x3f77e558	0.96834326
19	0x3f9ad8ea	1.2097447
20	0x3f821d77	1.0165242
21	0x3f7e3b31	0.9930907
22	0x3f8aa491	1.0831472
23	0x3fa43290	1.282793
24	0x3f87b0ad	1.0600792
25	0x3f6fa615	0.93612796
26	0x3f3fca13	0.74917716
27	0x3f8bdcc0	1.0926743
28	0x3f9165f7	1.1359242
29	0x3f8cdd9d	1.1005131
30	0x3f624fa8	0.88402796
31	0x3f821583	1.0162815
32	0x3f8b549d	1.0885197
33	0x3f84afd8	1.0366163
34	0x3f896374	1.0733476
35	0x3f9b308b	1.2124189
36	0x3f6f871f	0.93565553
37	0x3f81dbaa	1.0145161
38	0x3f8d97fb	1.1062006
39	0x3f969873	1.1765274
40	0x3f3c5109	0.7356115
41	0x3f94de1d	1.1630284
42	0x3f2e19f2	0.6800834
43	0x3f9798c1	1.1843492
44	0x3fa5678b	1.2922224
45	0x3f815f45	1.0107199
46	0x3f866d49	1.0502101
47	0x3fa41ec3	1.2821888
48	0x3f998cf9	1.1996146
49	0x3f45b3a1	0.77227217
50	0x3f8fe17d	1.1240689
51	0x3fa53f42	1.290993
52	0x3f8f91eb	1.1216406
53	0x3fb31c83	1.3993076

network_body._body_endoder.attention.norm.bias f4 [54]
0	0x3cc7a065	0.024368474
1	0x3c08b99a	0.008345032
2	0xbc731c26	-0.014838254
3	0xbcee6e38	-0.02910529
4	0x3d87378f	0.06602394
5	0x3cb4bddd	0.02206319
6	0x3d80b552	0.06284584
7	0xbd8e8b8c	-0.0696021
8	0x3d89278b	0.06696995
9	0xbd12a8a5	-0.035805363
10	0x3d51d224	0.051225796
11	0xbd2e8b9b	-0.042613607
12	0x3d8abdb5	0.06774465
13	0x3bc101c3	0.0058901026
14	0x3d67da3c	0.05660461
15	0x3d4835e3	0.048879515
16	0x3d548c4a	0.051891603
17	0xbca5e654	-0.02025143
18	0xbb0a21ef	-0.0021077355
19	0xbc7d6f74	-0.015468467
20	0xba0549d5	-0.0005084549
21	0x3d3fa6ff	0.04679012
22	0xbce1ba4c	-0.027554654
23	0x3c08f37c	0.008358832
24	0xbd9a4c38	-0.07534069
25	0x3b6f7a5b	0.0036541435
26	0xbd04e337	-0.03244325
27	0xbccb97cf	-0.024852661
28	0xbd912215	-0.07086579
29	0x3d5fe083	0.05465747
30	0x3d4101b1	0.047120754
31	0xbd30c74a	-0.043158807
32	0x3dfb831a	0.12280865
33	0xbc24ae01	-0.010051251
34	0x3c157002	0.009120943
35	0x3dced4a7	0.10099154
36	0x3c323cfb	0.010878797
37	0x3cf677d9	0.030086445
38	0x3cf1842d	0.029481972
39	0xbc7e4541	-0.015519441
40	0x3cda442f	0.02664384
41	0x3dd4ca8a	0.10390194
42	0xbe15cec5	-0.14629658
43	0xbc49529f	-0.012287765
44	0xbda1f537	-0.07908099
45	0x3dc92556	0.098215744
46	0xbd62a356	-0.05533155
47	0xbd2f6b7e	-0.042827122
48	0x3c972a57	0.018452806
49	0x3d358aae	0.04432171
50	0xbc33fb47	-0.010985202
51	0xbbef8848	-0.007309947
52	0xbe047c81	-0.1293812
53	0xbd758b8c	-0.059947535

network_body._body_endoder.norm.weight f4 [54]
0	0x3f63e403	0.89019793
1	0x3f65d657	0.8978018
2	0x3f545ce6	0.8295425
3	0x3f4e711b	0.80641335
4	0x3f861a60	1.0476799
5	0x3f47acb1	0.7799788
6	0x3f70ab7a	0.9401165
7	0x3f803ac6	1.0017936
8	0x3f6ddc93	0.92914695
9	0x3f5c9b57	0.8617453
10	0x3f52ff46	0.82420766
11	0x3f45db1c	0.7728746
12	0x3f71d8f7	0.9447169
13	0x3f6b029e	0.9180087
14	0x3f58bc8b	0.84662694
15	0x3f644fa7	0.8918404
16	0x3f4383af	0.7637281
17	0x3f62299d	0.88344747
18	0x3f2a3220	0.66482735
19	0x3f681ba2	0.90667164
20	0x3f601e9f	0.87546724
21	0x3f52d44a	0.8235518
22	0x3f54c565	0.831137
23	0x3f8d80fe	1.105499
24	0x3f5cd8ea	0.86268485
25	0x3f6fc02d	0.9365261
26	0x3f164409	0.58697563
27	0x3f5f633f	0.8726081
28	0x3eef01d6	0.46681088
29	0x3f7a8d61	0.9787198
30	0x3f5508c7	0.8321652
31	0x3f316e96	0.69309366
32	0x3f7bb789	0.9832693
33	0x3f786ff8	0.9704585
34	0x3f6d8a88	0.92789507
35	0x3f81ce02	1.0140994
36	0x3f4adad9	0.79240185
37	0x3f0e1b5c	0.555105
38	0x3f2ef489	0.6834188
39	0x3f4b395e	0.7938441
40	0x3eee2ae1	0.4651709
41	0x3ed58524	0.4170314
42	0x3f43c613	0.7647411
43	0x3f6915a6	0.9104866
44	0x3fb2f89d	1.3982121
45	0x3f5dc78b	0.86632603
46	0x3f8bb8e6	1.0915802
47	0x3f229f5a	0.635244
48	0x3f69bedb	0.9130685
49	0x3f1ae43b	0.605045
50	0x3f9339f5	1.1502062
51	0x3f884ab6	1.06478
52	0x3fa8dbde	1.3192098
53	0x3f942576	1.1573932

network_body._body_endoder.norm.bias f4 [54]
0	0xbb1f65b1	-0.0024322087
1	0xbce29f7e	-0.027663942
2	0xbdf72fef	-0.120696895
3	0xbdb1c970	-0.08680999
4	0x3d034f6e	0.032058172
5	0x3e1ca4b6	0.15297207
6	0x3ca0399b	0.019558718
7	0xbde02309	-0.109441824
8	0x3d6dfde8	0.058103472
9	0xbd07bac4	-0.033137098
10	0x3e2dd354	0.16975147
11	0x3b9a9347	0.004717264
12	0x3d766e08	0.060163528
13	0x3d9ea8af	0.077470176
14	0x3d6d810d	0.0579844
15	0x3c56b435	0.013104488
16	0x3e71049b	0.23536913
17	0x3d75910c	0.05995278
18	0x3cc53f69	0.024078088
19	0x3d20f7af	0.03929871
20	0x3c87c37f	0.016572712
21	0x3a43c289	0.00074676477
22	0x3d1f71f9	0.038927052
23	0x3cd211d2	0.025643263
24	0xbdcdaeff	-0.100431435
25	0xbd19fe23	-0.03759588
26	0xbd8db021	-0.069183595
27	0x3c1e26c2	0.009652795
28	0x3f12beb1	0.5732222
29	0x3cdf3be1	0.027250232
30	0x3cd62ff4	0.026145913
31	0xbd361892	-0.044457026
32	0x3db25278	0.08707136
33	0x3c88abb1	0.016683431
34	0xbc62575b	-0.0138147725
35	0x3d480b2f	0.04883879
36	0x3d05aacb	0.032633584
37	0xbe7fd19a	-0.249823
38	0x3ebb59e4	0.3659202
39	0x3db4b033	0.0882267
40	0x3d61dd9c	0.055142984
41	0xbeeafe5b	-0.45897183
42	0xbe405154	-0.18781024
43	0x3e7020ff	0.23450087
44	0x3c751d3b	0.014960582
45	0x3e25576c	0.1614663
46	0xbd53c059	-0.05169711
47	0xbe922287	-0.28541967
48	0xbdb55f5d	-0.0885608
49	0x3d600929	0.054696236
50	0xbd8f51b5	-0.06998006
51	0xbc9d8ee5	-0.019233176
52	0xbdd43ad8	-0.10362786
53	0xbd4c67e5	-0.04990377

network_body._body_endoder.lin_layers.seq_layers.0.weight f4 [108, 54]
0	0x3dabcf20	0.08389115
1	0xbd522cce	-0.05131226
2	0xbee5fe96	-0.44920796
3	0xbe87d56b	-0.26530012
4	0x3e3e7944	0.18600947
5	0x3e381576	0.17976937
6	0xbe45ab15	-0.19303544
7	0x3e65a2b8	0.22425354
8	0x3e6f4229	0.23365082
9	0xbe2211c5	-0.15827091
10	0x3defa720	0.117017984
11	0xbdf3f225	-0.1191142
12	0x3cd71657	0.02625577
13	0xbd635455	-0.055500347
14	0x3e37b726	0.1794096
15	0x3cbad91c	0.022808604
16	0x3d8f0067	0.069824986
17	0xbdb03eb1	-0.086057074
18	0x3d5bc1c8	0.0536516
19	0x3e24c6fa	0.16091529
20	0x3c255dfa	0.010093207
21	0xbe9a2243	-0.30104265
22	0x3d86746e	0.06565176
23	0xbcff96df	-0.03119987
24	0xbdd59f13	-0.104307316
25	0xbd868cd4	-0.065698296
26	0x3d9f8cfd	0.07790563
27	0x3dd2e7e1	0.10298134
28	0x3e92b8f5	0.28656736
29	0x3d948049	0.07251031
30	0xbd8b618e	-0.068057165
31	0x3d1bcc0e	0.0380364
32	0x3e463991	0.19357897
33	0x3e608ed6	0.21929488
34	0xbc0faa00	-0.0087685585
35	0xbd9d18d0	-0.07670748
36	0xbe5af92c	-0.21384114
37	0xbe55c22f	-0.20874856
38	0x3d2ce10d	0.042206813
39	0x3ed9cfe3	0.42541417
40	0x3da24256	0.07922809
41	0xbea1d32a	-0.31606418
42	0xbe06281a	-0.13101235
43	0x3dc3e2fd	0.09564779
44	0x3e03c6de	0.1286883
45	0x3c8ea85f	0.01741427
46	0xbd576406	-0.052585624
47	0xbdfeba07	-0.12437826
48	0xbd06b26e	-0.032885008
49	0xbe81c133	-0.25342712
50	0xbcb4a6e7	-0.022052241
51	0x3b916eca	0.004438256
52	0x3e5eb931	0.21750332
53	0xbd02e43a	-0.031955935
54	0x3ea4160b	0.32048067
55	0x3dce6c93	0.10079303
56	0xbcff5dd3	-0.031172669
57	0xbe815a11	-0.25264028
58	0xbed0ed67	-0.40806124
59	0xbcd4e499	-0.02598791
60	0x3e5177a2	0.20455793
61	0x3ebc27f4	0.36749232
62	0xbd0fc384	-0.035098568
63	0xbdb24c66	-0.08705978
64	0xbd9f7265	-0.07785491
65	0x3e9e4f3d	0.3091983
66	0x3e129d45	0.14317806
67	0x3e94726d	0.2899355
68	0x3dd30153	0.10302987
69	0x3dcc6d7c	0.0998182
70	0xbd860826	-0.06544523
71	0xbd7522b0	-0.059847534
72	0x3df8d49d	0.12149928
73	0x3ed5e225	0.41774097
74	0xbe9c50ee	-0.30530494
75	0xbea1abb7	-0.3157632
76	0xbe07d796	-0.13265833
77	0xbedfe095	-0.4372603
78	0xbc755e93	-0.0149761615
79	0x3d8b5b95	0.06804577
80	0x3d363e0b	0.044492763
81	0x3e21ae99	0.1578926
82	0x3be5dcf3	0.0070148646
83	0xbe974dbf	-0.29551503
84	0x3dd2b3db	0.10288211
85	0x3dd14588	0.1021834
86	0xbdcd3cc1	-0.100213535
87	0x3e4a3ab7	0.1974896
88	0x3dd890f6	0.10574524
89	0xbe1886cb	-0.1489517
90	0xbe926604	-0.28593457
91	0xbe165f7c	-0.14684862
92	0x3e0d581a	0.1380314
93	0x3e3acc8b	0.1824209
94	0x3db79ee1	0.089658506
95	0xbd7de69c	-0.061987504
96	0xbd7f95ad	-0.0623986
97	0x3e15b329	0.14619125
98	0x3f53bc8d	0.8270958
99	0x3e252686	0.16127977
100	0xbe7ea965	-0.24869306
101	0x3dc3a835	0.09553567
102	0xbecd1aab	-0.4005941
103	0x3e7eddd8	0.24889314
104	0x3d818f80	0.063261986
105	0x3ef751d6	0.48304623
106	0xbe411352	-0.18855026
107	0x3d8c45b4	0.06849232
108	0xbd7c43ee	-0.06158822
109	0x3eb8ed95	0.3611876
110	0xbe50f6a5	-0.20406587
111	0xbe800474	-0.25003397
112	0x3f06aba2	0.5260564
113	0x3e006a90	0.1254065
114	0x3d499241	0.049211744
115	0x3e4fb3b2	0.20283392
116	0xbdd40856	-0.103531525
117	0xbe916fdf	-0.28405663
118	0xbe2754b3	-0.16340904
119	0xbe23ff7d	-0.1601543
120	0xbcba64a5	-0.02275307
121	0x3e055020	0.13018847
122	0x3e9a4a77	0.30134937
123	0xbe6739a6	-0.22580585
124	0x3e2954f1	0.16536309
125	0x3ea21412	0.31655937
126	0x3e99fe8a	0.3007701
127	0x3ea2d9dc	0.3180684
128	0x3ee955b4	0.455732
129	0xbd0faa32	-0.03507442
130	0x3e5136e3	0.20431094
131	0xbe05494c	-0.13016242
132	0xbe9721a8	-0.29517865
133	0xbe5132d4	-0.20429546
134	0x3c489041	0.012241424
135	0xbe041803	-0.12899785
136	0x3e097830	0.13424754
137	0xbea0b88e	-0.31390804
138	0xbe9be013	-0.30444393
139	0x3d7d3fbe	0.061828367
140	0x3e75af5d	0.23992677
141	0xbf20f6aa	-0.6287638
142	0x3e609188	0.21930516
143	0xbec2863c	-0.37993038
144	0x3da8270a	0.08210571
145	0x3d9e79ef	0.07738101
146	0x3ee8b0a2	0.4544726
147	0x3f05fbed	0.52337533
148	0x3e20d2da	0.15705433
149	0xbedb01cc	-0.42774808
150	0xbe372ebe	-0.17888924
151	0x3e3e31d3	0.18573694
152	0x3e35084d	0.17678948
153	0xbb6c23a1	-0.0036031979
154	0x3e419eb0	0.1890819
155	0xbf041db2	-0.5160781
156	0xbeee945b	-0.4659756
157	0x3e752907	0.23941432
158	0xbe042baf	-0.12907289
159	0x3d78826e	0.060671262
160	0x3d0e0edf	0.03468215
161	0x3ee59d04	0.44846356
162	0x3e915b74	0.28390086
163	0x3eafeef3	0.3436199
164	0x3d5d37e4	0.05400838
165	0xbcd17c19	-0.02557187
166	0x3ecfb0c4	0.4056455
167	0x3ea5205d	0.32251254
168	0xbea47113	-0.3211752
169	0x3dc6e65b	0.097119056
170	0xbde1b91d	-0.11021636
171	0xbeebe082	-0.46069723
172	0x3d6f976e	0.058494024
173	0x3c76f711	0.015073554
174	0x3d808de1	0.06277061
175	0x3d4552cc	0.048174664
176	0x3dc705c8	0.097178996
177	0xbe1e7137	-0.15472876
178	0x3ed1bb29	0.40963104
179	0x3e3dac7a	0.18522826
180	0x3d661e0d	0.056181002
181	0xbe541441	-0.20710851
182	0x3ec732bf	0.38905904
183	0x3dcac381	0.09900571
184	0x3e71759d	0.23580022
185	0xbd93082a	-0.071792915
186	0xbe07a278	-0.1324557
187	0xbed2d726	-0.4117977
188	0xbe3492f1	-0.17634179
189	0x3dba5403	0.09098055
190	0x3ecd69ed	0.40119877
191	0xbdc6fea1	-0.09716535
192	0x39a43817	0.00031322308
193	0xbdd3afda	-0.103362754
194	0x3c9d354f	0.019190459
195	0x3e27e429	0.1639563
196	0x3d83699f	0.0641663
197	0xbdc164aa	-0.09443028
198	0x3e2264b1	0.15858723
199	0xbede46ab	-0.4341329
200	0x3ecea332	0.40358883
201	0x3ecbe62a	0.3982404
202	0xbe50de90	-0.20397401
203	0xbeaf28cf	-0.34210822
204	0xbe5e8b05	-0.21732719
205	0xbd4a4346	-0.049380563
206	0x3e8e9efc	0.2785567
207	0x3e9bcee6	0.30431288
208	0xbe9b2d5a	-0.30308038
209	0xbe5e8ec6	-0.21734151
210	0xbe9fef95	-0.31237474
211	0x3c4d04b1	0.012513326
212	0xbea913c4	-0.33022892
213	0x3dba19ec	0.090869755
214	0x3d8671c7	0.0656467
215	0x3d8289d2	0.063739434
216	0x3dd07cb4	0.10180035
217	0xbd51710f	-0.05113321
218	0xbea45c53	-0.32101688
219	0xbec28064	-0.3798858
220	0x3d0907a3	0.03345455
221	0xbe5e9edd	-0.21740289
222	0xbdc87836	-0.097885534
223	0x3e6b7003	0.22991948
224	0xbe428c0e	-0.18998739
225	0xbe9288e2	-0.28620058
226	0x3d9e6b99	0.077353664
227	0x3d68e0b8	0.056854934
228	0xbdb66ee9	-0.08907873
229	0x3e43166f	0.19051526
230	0x3dfe7ca0	0.12426114
231	0xbc838532	-0.016054723
232	0x3d8a1e57	0.06744068
233	0x3e3b2734	0.18276674
234	0x3ed9a5ec	0.425094
235	0x3f040b26	0.5157951
236	0x3e9a848b	0.30179247
237	0xbdd83136	-0.10556261
238	0x3ee6d2ce	0.45082706
239	0x3e1234af	0.1427791
240	0x3dce2dfd	0.10067365
241	0x3ec3c86d	0.3823885
242	0x3bf71e8f	0.0075414847
243	0x3dfbf14b	0.12301882
244	0xbdea26ce	-0.11433183
245	0xbe13307a	-0.14373961
246	0x3e8a41f3	0.2700344
247	0xbd10c3b6	-0.035342894
248	0xbe52b431	-0.2057655
249	0xbe8ec354	-0.278834
250	0x3e354c3a	0.1770486
251	0xbd5bc4ef	-0.053654607
252	0xbd589105	-0.052872676
253	0x3c18d1fc	0.009327408
254	0xbb80115b	-0.003908319
255	0x3e120f42	0.14263633

network_body._body_endoder.lin_layers.seq_layers.0.bias f4 [108]
0	0xbec88b79	-0.3916891
1	0xbe8bbc80	-0.27292252
2	0xbed40dd5	-0.41416803
3	0xbef321f6	-0.47486848
4	0xbe66bf13	-0.22533827
5	0xbee336dc	-0.44377792
6	0xbe06627f	-0.13123511
7	0xbe42ad0e	-0.19011328
8	0xbd6115e3	-0.054952513
9	0xbe1f6603	-0.15566258
10	0xbd370eac	-0.044691727
11	0xbe14ff3f	-0.14550494
12	0xbca58628	-0.020205572
13	0xbd30fb49	-0.043208394
14	0xbe6611f0	-0.2246778
15	0xbdf9c004	-0.12194827
16	0xbdc89d9d	-0.09795687
17	0xbbae0a8a	-0.005311315
18	0xbe64fd26	-0.22362193
19	0x3c9a6349	0.018846171
20	0xbf0d2679	-0.5513683
21	0xbd2eb412	-0.042652197
22	0xbee9eb1b	-0.45687184
23	0xbc34b55e	-0.011029569
24	0xbea06580	-0.31327438
25	0xbe5792d5	-0.21052106
26	0xbf0cc4ad	-0.54987603
27	0xbe0a2b87	-0.13493167
28	0xbe1b94a2	-0.15193418
29	0xbdf038fc	-0.11729619
30	0xbee0efc0	-0.43932915
31	0x3d7a8e2a	0.061170734
32	0xbe8938d3	-0.26801166
33	0xbdd61ae7	-0.1045435
34	0xbeaf1df6	-0.34202546
35	0xbea18b02	-0.31551367
36	0xbe3e7e20	-0.186028
37	0xbe29865d	-0.16555162
38	0x3cccd14e	0.025002148
39	0x3d2de841	0.042457823
40	0xbdda4153	-0.10656991
41	0xbeef3e23	-0.46727094
42	0xbe04f4db	-0.1298403
43	0xbe3812b5	-0.17975886
44	0x3cab8b0b	0.020940324
45	0xbea1ba5a	-0.31587487
46	0xbe0245f6	-0.12722
47	0x3dddc89a	0.10829277
48	0xbeb0b880	-0.34515762
49	0xbe45406d	-0.19262858
50	0xbe15db9a	-0.14634553
51	0xbe3db49e	-0.18525931
52	0xbd99b9a5	-0.07506112
53	0xbe7e287e	-0.24820134
54	0xbe0c594a	-0.13705936
55	0xbeb0d040	-0.34533882
56	0xbb883858	-0.0041571073
57	0xbea08392	-0.3135038
58	0xbe11fff1	-0.1425779
59	0xbeecc2c5	-0.46242347
60	0x3d5747e9	0.052558813
61	0x3d0d9ace	0.03457146
62	0xbeea7065	-0.45788875
63	0x3ccfa8e8	0.025349095
64	0xbe043f46	-0.12914762
65	0xbe80b1ba	-0.25135595
66	0xbe813e10	-0.25242662
67	0xbe1d6545	-0.15370663
68	0xbebc8615	-0.36821046
69	0xbe087fe6	-0.1333004
70	0x3e03144a	0.12800708
71	0xbec975f3	-0.393478
72	0xbd7096a4	-0.058737412
73	0x3e2fe85a	0.17178479
74	0xbdb3c820	-0.08778405
75	0xbdfdfb04	-0.12401393
76	0xbca95e5b	-0.020674875
77	0xbf0f665c	-0.56015563
78	0xbdf89e6e	-0.12139593
79	0x3b65b846	0.0035052462
80	0xbebc5c15	-0.36789003
81	0x3e8d640e	0.27615398
82	0xbe410909	-0.18851103
83	0xbe8efc87	-0.27927038
84	0xbed3a976	-0.41340226
85	0xbeed2e36	-0.4632432
86	0xbaf85c28	-0.0018948363
87	0x3cdd4b8e	0.027013566
88	0xbdc80251	-0.09766067
89	0xbe1a19e9	-0.15048946
90	0xbec947b5	-0.3931252
91	0xbe5acc50	-0.21367002
92	0xbeba5d51	-0.3639932
93	0xbe6ac1b1	-0.2292545
94	0xbe1ae87a	-0.15127745
95	0xbdd8fd39	-0.105951734
96	0xbe75474a	-0.23952976
97	0xbc23d3d7	-0.009999237
98	0x3b5a6f64	0.0033330554
99	0x3e2c6615	0.16835816
100	0xbd6bb231	-0.057542983
101	0xbec5662e	-0.3855452
102	0xbd223e1d	-0.039610017
103	0xbe37f2d6	-0.17963728
104	0xbe718ebb	-0.23589604
105	0xbc36c055	-0.011154254
106	0xbd9e0f98	-0.07717818
107	0xbe71a3bf	-0.2359762

network_body._body_endoder.fc.weight f4 [64, 108]
0	0xbdafe685	-0.0858889
1	0x3e069a01	0.13144685
2	0x3e87e7eb	0.26544127
3	0xbdc15a5a	-0.09441061
4	0x3e217dff	0.1577072
5	0x3e64e50c	0.22353
6	0x3d416a39	0.047220442
7	0x3e64cd2d	0.22343893
8	0x3ebd622a	0.36988956
9	0xbe4f1d7a	-0.20226088
10	0xbda4451c	-0.08020994
11	0xbe02a80f	-0.12759422
12	0xbdc2c26f	-0.095097415
13	0x3ea440cc	0.32080686
14	0xbed31b7e	-0.41231912
15	0x3e734ee0	0.23760557
16	0x3ed04e0e	0.4068455
17	0x3e5e41bf	0.21704768
18	0x3dab98f1	0.08378781
19	0x3ef2b27f	0.47401807
20	0x3e854218	0.26026988
21	0x3d8d2f0c	0.06893739
22	0x3eb5da14	0.35517943
23	0x3d18516a	0.037187018
24	0x3e8ce299	0.2751663
25	0x3e378030	0.17919993
26	0x3c7dc005	0.015487676
27	0xbd803c5e	-0.06261514
28	0x3e7e095b	0.24808256
29	0xbe2f5e4a	-0.17125812
30	0xbe8280e1	-0.25488952
31	0x3d00ab57	0.031413402
32	0x3e187477	0.14888178
33	0xbbf91184	-0.007600965
34	0xbeeab164	-0.45838463
35	0x3e06ca17	0.13163029
36	0x3ce0c8ce	0.027439501
37	0x3e9dd1fa	0.30824262
38	0xbf1209d6	-0.5704626
39	0xbe743f8b	-0.23852365
40	0xbe854771	-0.26031068
41	0x3e2be659	0.1678709
42	0xbdcdae1c	-0.10042974
43	0xbeadc576	-0.33939713
44	0xbb6189f9	-0.0034414514
45	0xbe520ce7	-0.20512734
46	0x3efa7f74	0.48925364
47	0x3d94f055	0.07272402
48	0x3dba7f9c	0.09106371
49	0xbef37536	-0.47550362
50	0xbcbab896	-0.022793096
51	0x3dcd4bdb	0.10024234
52	0x3c1b86f5	0.0094926255
53	0x3b2ebf2e	0.0026664245
54	0xbe0f6bde	-0.14005992
55	0x3e169cd5	0.14708264
56	0xbdcf204e	-0.101135835
57	0xbe00e6f8	-0.12588108
58	0x3e448653	0.19191866
59	0x3ea065b3	0.3132759
60	0x3d879b47	0.06621414
61	0x3c73740e	0.014859213
62	0xbe770e08	-0.24126446
63	0x3b854eb3	0.0040682196
64	0xbd49beb4	-0.049254134
65	0x3cc87976	0.02447198
66	0x3ed5782c	0.41693246
67	0xbe514512	-0.20436504
68	0x3ef2c4fa	0.47415906
69	0x3e48fe7c	0.19628328
70	0xbe771f03	-0.24132924
71	0xbcd10c42	-0.02551854
72	0x3f4b76ae	0.79477966
73	0xbe0eb328	-0.1393553
74	0x3ec98e6c	0.39366472
75	0x3e31dc22	0.1736913
76	0x3cf2fa4e	0.02966037
77	0x3ed464c2	0.41483122
78	0xbd829d00	-0.063776016
79	0x3d8cc37a	0.06873222
80	0x3dd2f0a4	0.10299805
81	0xbeb9c895	-0.36285844
82	0x3e00fd06	0.12596521
83	0x3dc4528a	0.095860556
84	0x3d4f2bf7	0.050579038
85	0xbdf80136	-0.12109606
86	0xbd85bd10	-0.065302014
87	0x3ead1207	0.33802816
88	0xbe88df7e	-0.2673301
89	0xbd6c22f2	-0.057650514
90	0x3df4afe8	0.11947614
91	0xbd4d18c8	-0.05007246
92	0xbc1b64a9	-0.0094844485
93	0x3e906479	0.28201655
94	0x3e12352b	0.14278094
95	0x3ec5b017	0.38610908
96	0x3ebd668e	0.36992306
97	0x3d0472fb	0.032336216
98	0xbbf6a39a	-0.007526827
99	0xbdd155b6	-0.10221426
100	0xbdc7212c	-0.09723124
101	0xbdd448ab	-0.10365423
102	0x3c036f85	0.008022194
103	0x3e957681	0.29191974
104	0x3e64347c	0.22285646
105	0x3dd420e6	0.103578374
106	0x3e1ea176	0.1549128
107	0xbe80fe8f	-0.25194213
108	0x3e8de5d7	0.27714416
109	0x3e11e122	0.14246038
110	0x3de40ced	0.11135278
111	0xbd3d509c	-0.046219453
112	0xbe1ceb66	-0.15324172
113	0xbd6327a1	-0.055457715
114	0x3da478f7	0.08030885
115	0xbd030cbe	-0.031994574
116	0xbdabd5aa	-0.083903626
117	0x3eb3e106	0.35132617
118	0xbdbb4c5d	-0.091454245
119	0xbed8282c	-0.4221815
120	0x3db0819e	0.086184725
121	0x3e588605	0.21144874
122	0xbe2dd84c	-0.16977042
123	0xbde852ad	-0.11343894
124	0xbe791913	-0.24325971
125	0xbefd99c5	-0.4953138
126	0xbe28753d	-0.16450973
127	0xbe0d06fe	-0.13772199
128	0xbd4bc46e	-0.049747877
129	0x3e289d75	0.16466315
130	0xbe50929a	-0.20368424
131	0xbe1235cd	-0.14278336
132	0x3e37ce4a	0.17949787
133	0x3e11aa42	0.14225104
134	0xbd8b8775	-0.06812946
135	0x3d44b74b	0.048026364
136	0x3eb9347d	0.36172858
137	0xbd0cdbca	-0.034389295
138	0xbd8b271e	-0.067945704
139	0x3e7b26c5	0.24526508
140	0x3ea13175	0.31483045
141	0xbcb97a4d	-0.022641325
142	0xbc147f4f	-0.009063556
143	0xbb04a8a2	-0.0020242115
144	0x3d10d268	0.03535691
145	0x3bc222ac	0.0059245434
146	0xbd50802b	-0.05090348
147	0xbd7e2dc2	-0.062055357
148	0xbc9d0218	-0.019166037
149	0xbd835cef	-0.0641421
150	0x3dfe1a1b	0.12407323
151	0xbe1ade4e	-0.15123865
152	0xbdc3813f	-0.09546136
153	0x3d0148fc	0.031563744
154	0xbd37fdab	-0.04491965
155	0xbbf9f095	-0.0076275566
156	0x3bfd9174	0.0077382866
157	0xbe34e060	-0.17663717
158	0xbce58604	-0.028018005
159	0xb7b22ec3	-2.1241029e-05
160	0xbe0b03ad	-0.13575621
161	0xbeb5cee9	-0.35509422
162	0x3cff8ee6	0.031196069
163	0xbd97769f	-0.07395672
164	0xbe246ff5	-0.16058333
165	0x3d9a421d	0.07532141
166	0xbe87155b	-0.2638348
167	0xbeddd062	-0.43323046
168	0x3e8d4e1c	0.27598655
169	0x3dc7b148	0.097506106
170	0xbd77bc9d	-0.06048261
171	0xbc11eeb2	-0.008907007
172	0xbc76192f	-0.015020653
173	0xbe27b2c9	-0.16376795
174	0xbdad5770	-0.08463943
175	0x3e4f707c	0.20257753
176	0xbd126df5	-0.035749394
177	0xbedc22e4	-0.4299537
178	0xbed91a2d	-0.42402783
179	0x3e619188	0.22028172
180	0x3e141ba8	0.14463675
181	0xbe373598	-0.17891538
182	0xbd517f62	-0.051146872
183	0xbde804cd	-0.11329041
184	0xbe6a4d2a	-0.22880998
185	0xbd896ed3	-0.06710591
186	0x3dfefa82	0.12450124
187	0xbe6903a4	-0.22755295
188	0xbe773668	-0.24141848
189	0xbe862ab8	-0.26204467
190	0xbe96b832	-0.29437405
191	0xbec9cd0f	-0.3941426
192	0xbeab90a0	-0.33508778
193	0xbe63e7b9	-0.22256364
194	0xbf0c3276	-0.547645
195	0x39d7d08b	0.00041163372
196	0xbe86c554	-0.26322424
197	0x3e26d537	0.16292273
198	0x3e2160a2	0.15759519
199	0xbf578ec8	-0.8420224
200	0x3e240175	0.16016181
201	0xbb97beed	-0.0046309144
202	0x3cb4ecc0	0.022085547
203	0xbe9d5d74	-0.30735362
204	0xbc2de491	-0.0106135765
205	0xbdc8ee8a	-0.09811123
206	0x3e32cf4e	0.17461893
207	0x3ce37a5b	0.027768305
208	0xbe2a70cf	-0.16644596
209	0x3de2bd25	0.11071233
210	0x3e836b42	0.2566777
211	0xbd3294ec	-0.043599054
212	0xbce68a68	-0.02814217
213	0x3e371a59	0.17881145
214	0xbd0cecd0	-0.03440553
215	0xbe2c47fe	-0.16824338
216	0x3e650633	0.22365646
217	0xbc3fbb82	-0.01170242
218	0xbe00ba3e	-0.12571046
219	0x3e0ee6d4	0.13955241
220	0x3d508279	0.05090568
221	0xbe927609	-0.2860568
222	0x3dc9fa7d	0.0986223
223	0xbea1d51e	-0.31607908
224	0xbe88ba2e	-0.26704544
225	0xbeae403e	-0.34033388
226	0xbddce041	-0.107849605
227	0xbd881c4a	-0.06646021
228	0x39fe52fb	0.0004850848
229	0xbea5d784	-0.32390988
230	0x3e31afba	0.1735219
231	0xbdb40bc6	-0.08791308
232	0xbf0a90d8	-0.54127264
233	0xbe9e6586	-0.3093683
234	0xbce6bd15	-0.028166333
235	0xbe49c71b	-0.19704859
236	0x3cc074bc	0.023493163
237	0xbe245f31	-0.16051938
238	0x3afd5323	0.0019327145
239	0xbf050d9e	-0.51973903
240	0xbd749101	-0.0597086
241	0xbe3686cd	-0.1782486
242	0xbb12a32d	-0.0022375092
243	0xbd030797	-0.03198966
244	0xbe6c0a6d	-0.23050852
245	0xbe6b6f54	-0.22991687
246	0xbe495acc	-0.19663543
247	0xbf16e4de	-0.58942974
248	0xbe9ee483	-0.31033716
249	0x3e38a07a	0.18029967
250	0x3e2f56e3	0.17122988
251	0xbe333b6b	-0.17503135
252	0x3c013457	0.007886014
253	0xbe951ea5	-0.29124942
254	0xbdbedc0a	-0.09319313
255	0x3d4b69e1	0.04966152

network_body._body_endoder.fc.bias f4 [64]
0	0x3caf89dc	0.021428041
1	0xbda0c1c2	-0.07849456
2	0xbdd1b058	-0.10238713
3	0xbd3adbe7	-0.04561987
4	0xbd88522a	-0.066562966
5	0x3ddb6d44	0.107142
6	0x3d7bbdf1	0.06146044
7	0xbd492e62	-0.0491165
8	0x3d81f89e	0.06346248
9	0xbe65c979	-0.22440137
10	0xbe0afa02	-0.13571933
11	0x3d26f0aa	0.04075686
12	0x3dd94353	0.10608544
13	0x3cbf27b6	0.023334365
14	0xbd2f484e	-0.042793564
15	0xbb2b177a	-0.0026106522
16	0x3dfbfa06	0.123035476
17	0xbe60901a	-0.2192997
18	0x3e47ff60	0.19531012
19	0xbe3937f3	-0.18087749
20	0xbd41d29a	-0.047319986
21	0xbc4cd9f0	-0.012503132
22	0xbd45b77d	-0.04827069
23	0x3d0cddcf	0.03439122
24	0xbcd08bca	-0.025457282
25	0x3e10006f	0.14062665
26	0xbd5852c5	-0.05281331
27	0xbd4391a5	-0.04774632
28	0x3d11b496	0.03557261
29	0x3d7e343b	0.06206153
30	0x3dc0cbd6	0.094138786
31	0xba81740b	-0.0009876502
32	0xbdf0618b	-0.11737355
33	0xbbfd0bd9	-0.0077223596
34	0xbcfde305	-0.03099204
35	0x3dc9f5b7	0.098613195
36	0xbe23d582	-0.15999416
37	0x3d5c840c	0.053836867
38	0x3e5b3ca1	0.21409847
39	0x3e80db30	0.25167227
40	0x3d6846eb	0.056708258
41	0x3dc02a89	0.09383113
42	0xbd307b1e	-0.043086164
43	0x3d94c939	0.07264943
44	0x3dbbfc3b	0.091789685
45	0xbc90f3ef	-0.017694442
46	0xbe3212b4	-0.17389947
47	0xbdff4c49	-0.12465722
48	0xbd649a83	-0.055811416
49	0xbd5da68a	-0.054113902
50	0xb9ce2b7b	-0.00039323777
51	0xbde26e6e	-0.11056219
52	0xbc7d53a4	-0.015461836
53	0xbcc7041f	-0.024293957
54	0x3db8947f	0.090126984
55	0x3c5ec8e8	0.0135977045
56	0x3deebd75	0.1165723
57	0x3d2edb49	0.042689595
58	0x3dc9bcec	0.09850487
59	0xbbaa9578	-0.0052058063
60	0x3d423fd0	0.047424138
61	0xbe9dc699	-0.3081558
62	0x3d269ba1	0.040675763
63	0x3bf6795a	0.0075217905

action_model._continuous_distribution.log_sigma f4 [1, 2]
0	0x400b1b6d	2.173549
1	0x3fe8fee9	1.8202792

action_model._continuous_distribution.mu.weight f4 [2, 64]
0	0xbe330696	-0.17482981
1	0xbe6e5052	-0.23272827
2	0x3eac8dd1	0.33701947
3	0xbdc14ed6	-0.09438865
4	0xbd9fc612	-0.07801451
5	0x3db7aa3d	0.08968017
6	0xbddbcbe7	-0.10732251
7	0xbdc8b7fc	-0.09800717
8	0x3e348125	0.1762739
9	0xbdf3710c	-0.11886796
10	0xbe434edc	-0.19073051
11	0xbe01fb5f	-0.12693547
12	0xbe99bcc2	-0.30026823
13	0x3e6ec5cc	0.23317641
14	0xbe1ebcae	-0.15501663
15	0x3e14ff88	0.14550602
16	0x3dfe6732	0.12422027
17	0xbe01e21e	-0.12683913
18	0x3d950755	0.07276789
19	0xbddf838c	-0.109137625
20	0x3c5564e6	0.013024544
21	0x3d09ff35	0.03369065
22	0x3e861cd7	0.26193878
23	0x3c14ab61	0.009074063
24	0x3dd281df	0.10278677
25	0xbe7e9490	-0.2486136
26	0xbe9b41cc	-0.30323637
27	0x3e1446ae	0.14480087
28	0x3e1b0ed9	0.15142383
29	0x3e15352a	0.14571062
30	0x3dace014	0.08441177
31	0x3e13d234	0.14435655
32	0x3e3ff768	0.18746722
33	0x3d6a30ff	0.057175633
34	0x3e48d26d	0.19611521
35	0xbd847d7f	-0.06469249
36	0xbd54aa62	-0.051920302
37	0x3e202f61	0.15643074
38	0xbe146400	-0.14491272
39	0x3e4726f1	0.19448449
40	0x3e2682a1	0.16260768
41	0xbdbef22c	-0.09323534
42	0xbda63521	-0.08115602
43	0xbcc695a9	-0.024241285
44	0x3d888763	0.06666448
45	0x3dd9251f	0.106027834
46	0xbde5c440	-0.11219072
47	0xbe184dbf	-0.14873408
48	0x3e872d22	0.2640162
49	0x3dc9879f	0.09840321
50	0x3e549bcc	0.20762557
51	0x3e3952b9	0.18097962
52	0xbd82d86b	-0.06388935
53	0x3dca06a7	0.0986455
54	0x3e0ce2a9	0.13758339
55	0x3e5da215	0.2164386
56	0x3df72c43	0.12068989
57	0x3da3c352	0.07996239
58	0x3e06cfc6	0.13165197
59	0x3e351343	0.17683129
60	0xbe00f339	-0.12592782
61	0xbe1a3000	-0.15057373
62	0xbc7e8b7c	-0.015536185
63	0x3cb36500	0.021898746
64	0x3df5522a	0.11978562
65	0x3e24a79e	0.16079566
66	0xbe6a35de	-0.22872111
67	0xbe3cc734	-0.18435365
68	0x3e3fbb90	0.18723893
69	0xbe80b3c5	-0.25137153
70	0x3e7cde85	0.2469426
71	0xbe307651	-0.17232634
72	0x3e4c3600	0.19942474
73	0xbe6ea6f6	-0.23305878
74	0xbdbfd5df	-0.093669645
75	0x3e147883	0.14499097
76	0xbbb11deb	-0.005405178
77	0xbe63bcc8	-0.22239983
78	0x3da9f7f8	0.082992494
79	0xbe08c2e4	-0.13355595
80	0x3e00875f	0.1255164
81	0xbd419e82	-0.047270305
82	0x3e821b07	0.25411245
83	0xbd7cc72e	-0.06171339
84	0x3e8b3703	0.27190408
85	0x3e0675e4	0.13130909
86	0xbe9691e2	-0.29408175
87	0x3db78c9d	0.08962367
88	0xbe9a4477	-0.3013036
89	0x3d78fec4	0.06078984
90	0x3dfcca00	0.12343216
91	0x3e4e34e1	0.20137359
92	0x3d9eeb48	0.0775972
93	0x3eb07830	0.34466696
94	0xbdc5b6a1	-0.09653974
95	0xbe801f1c	-0.25023735
96	0x3db5a1a1	0.08868719
97	0x3ece2d50	0.40268946
98	0x3e2b7153	0.16742449
99	0xbe12e21c	-0.14344066
100	0xbe86e65d	-0.26347628
101	0x3e269797	0.16268764
102	0x3e254112	0.16138104
103	0x3e22a670	0.15883803
104	0x3e0b987f	0.13632391
105	0xbe4cd04d	-0.20001335
106	0xbe749f43	-0.23888879
107	0xbe4df56b	-0.20113151
108	0x3dcee2be	0.101018414
109	0x3dde2214	0.10846344
110	0xbd1330bb	-0.035935145
111	0xbe03f2dc	-0.12885612
112	0x3d810589	0.06299884
113	0xbe28c3ef	-0.16480993
114	0x3e371a19	0.17881049
115	0xbe0c2352	-0.13685349
116	0x3e7f81f3	0.24951915
117	0x3e503af7	0.20334993
118	0xbe50d7f5	-0.20394881
119	0x3df8aa9f	0.121419184
120	0xbe4a0443	-0.19728188
121	0x3c977557	0.01848857
122	0x3e7403ec	0.23829621
123	0xbbe0e65c	-0.0068633985
124	0xbe5adaa8	-0.21372473
125	0xbdc344b4	-0.095345885
126	0x3e79426c	0.24341744
127	0x3dfc2862	0.1231239

action_model._continuous_distribution.mu.bias f4 [2]
0	0x3e23964a	0.159753
1	0x3d8a5ebe	0.06756352

action_model._discrete_distribution.branches.0.weight f4 [1, 64]
0	0xbb09efcb	-0.0021047469
1	0x3c4a1552	0.012334185
2	0xbc8f57b8	-0.017497882
3	0x3bf2a552	0.0074049616
4	0x39c895fe	0.00038258726
5	0xbab9408a	-0.0014133614
6	0xbc1d8e1c	-0.009616401
7	0xbcbced43	-0.023062354
8	0x3bb7fef7	0.005615111
9	0xba959553	-0.00114123
10	0xbc711f70	-0.014716968
11	0x3b840c05	0.004029753
12	0xbc48a8b9	-0.012247258
13	0xbc54be20	-0.012984782
14	0xbc25bcba	-0.010115797
15	0xb884d26b	-6.333444e-05
16	0xbb30e01c	-0.0026989048
17	0xbc2630c6	-0.010143464
18	0xbb312a6d	-0.0027033344
19	0x3c8b59e3	0.017010635
20	0xbc9543aa	-0.018220741
21	0xbc5dd4dd	-0.01353952
22	0x3b85b6ba	0.0040806206
23	0xbcd4b020	-0.02596289
24	0xbccaee7a	-0.024771918
25	0xbb61764a	-0.0034402781
26	0xbcd714b2	-0.026254985
27	0xba5a403b	-0.0008325611
28	0xbc778328	-0.015106954
29	0x3be3ca75	0.006951625
30	0xbcbb6171	-0.022873612
31	0x3bec9b97	0.007220696
32	0xbb8dc8fe	-0.0043269387
33	0xbb9e253e	-0.004826217
34	0xbc4b2f14	-0.012401361
35	0x3bbc15bb	0.005739895
36	0x3c8add26	0.016951155
37	0xbb30b70f	-0.002696458
38	0x3b4d0300	0.0031282306
39	0xbb06c9db	-0.0020567093
40	0x3c6e187d	0.014532206
41	0x3c2e2e5d	0.010631171
42	0xbb2cea34	-0.0026384713
43	0x3c8d3086	0.017235052
44	0x3c69408b	0.01423658
45	0xbbd8c21a	-0.0066149356
46	0xbcd18fdd	-0.025581295
47	0xbb691caf	-0.0035570075
48	0xb9be75a6	-0.0003632728
49	0xbb24f997	-0.0025173181
50	0xbab1868a	-0.0013544124
51	0x3b523943	0.0032077588
52	0x3c50ac27	0.012736357
53	0xbc260167	-0.01013217
54	0xbc3f8a0c	-0.011690628
55	0xbc36e06f	-0.011161908
56	0xbcb49237	-0.022042377
57	0xbbd98682	-0.006638349
58	0x3c4ea2cd	0.012612057
59	0x3c82e007	0.015975965
60	0xbbe51037	-0.0069904584
61	0x3d03108e	0.03199821
62	0x3b28f79f	0.002578236
63	0x3c25106f	0.010074719

onnx::MatMul_196 f4 [54, 54]
0	0x3de08346	0.109625384
1	0xbdea482e	-0.114395484
2	0xbd560ffb	-0.052261334
3	0x3e1f9fd5	0.15588315
4	0xbe0a757d	-0.1352138
5	0x3ac0453b	0.001466907
6	0x3e1c7bfe	0.15281674
7	0xbe3d4c12	-0.1848605
8	0x3d89ad26	0.067224786
9	0x3e6df8c5	0.2323943
10	0x3e1b0eca	0.1514236
11	0x3ccd2067	0.025039865
12	0x3caca296	0.02107362
13	0x3e6b9b40	0.23008442
14	0xbdfd4a05	-0.12367634
15	0xbe1a8c90	-0.15092683
16	0xbd095dec	-0.033536837
17	0xbe5e44f3	-0.2170599
18	0xbe1af6d1	-0.15133215
19	0xbd1b5691	-0.037924353
20	0x3dbe28c8	0.09285122
21	0xbd94b5df	-0.07261252
22	0xbe53c3fb	-0.2068023
23	0x3dd98251	0.10620559
24	0x3d1d391b	0.03838454
25	0xbe70ac74	-0.23503286
26	0xbdd1399c	-0.10216066
27	0x3e4a2777	0.19741617
28	0x3e46eeca	0.19427028
29	0xbe590e13	-0.21196775
30	0xbd2b6caf	-0.041851696
31	0xbdc18dd5	-0.094508804
32	0xbe365508	-0.17805874
33	0xbe509079	-0.20367612
34	0x3e486955	0.19571431
35	0x3d5ecdd3	0.054395508
36	0xbc90b16f	-0.017662732
37	0xbdd36857	-0.103226356
38	0xbdd8de4c	-0.10589275
39	0x3d11c571	0.035588685
40	0xbd765467	-0.060139086
41	0x3e131749	0.14364351
42	0xbd686466	-0.056736372
43	0xbdf7853c	-0.12085959
44	0xbc37d1a9	-0.0112194205
45	0x3dc11943	0.094286464
46	0xbcaa0bb4	-0.020757534
47	0x3e344957	0.17606102
48	0x3cbb36a3	0.022853201
49	0xbe0c5999	-0.13706054
50	0xbe35c268	-0.17749941
51	0xbd7990fc	-0.060929283
52	0x3dbafdbb	0.091304265
53	0xbe5c1edd	-0.21496148
54	0x3d05b8ed	0.032647062
55	0xbe6a005f	-0.22851704
56	0xbde1ff16	-0.11034982
57	0xbd55810b	-0.052125018
58	0x3e537c77	0.20652948
59	0x3e19c0d0	0.15014958
60	0xbe27c838	-0.16384971
61	0x3e36a84f	0.17837642
62	0xbc44958e	-0.011998547
63	0x3cf39ea4	0.029738732
64	0x3e598df6	0.2124556
65	0xbe63ead6	-0.22257552
66	0x3e30d97a	0.1727046
67	0xbe65e76f	-0.22451566
68	0xbd573134	-0.052537158
69	0xbe705073	-0.23468189
70	0x3ce189dd	0.027531559
71	0xbd9d67bf	-0.076858036
72	0xbdf3d6d1	-0.11906207
73	0xbdde0224	-0.10840252
74	0xbd81acc1	-0.06331778
75	0x3d3bfc11	0.045894686
76	0xbe5ea60f	-0.21743034
77	0xbe684b7c	-0.22685045
78	0xbe47a66a	-0.19497076
79	0xbe46ac36	-0.19401631
80	0xbe0f2b91	-0.13981463
81	0x3e13b188	0.14423192
82	0xbd8840a4	-0.06652954
83	0xbe53a3aa	-0.20667902
84	0x3dad3ba2	0.0845864
85	0x3e4b9232	0.19879988
86	0xbe02187d	-0.12704654
87	0x3e098fec	0.13433808
88	0xbe51ad73	-0.20476322
89	0x3dd2f378	0.10300344
90	0x3d1ed00c	0.038772628
91	0xbe2bea08	-0.16788495
92	0x3e1bbd06	0.15208825
93	0x3d5bc893	0.05365808
94	0x3df6892f	0.120378844
95	0x3c4c269e	0.012460379
96	0xbdf86689	-0.12128932
97	0x3e63485d	0.22195573
98	0xbe57adee	-0.21062443
99	0xbbf66fd5	-0.0075206556
100	0x3dfa24bd	0.122140385
101	0xbe4d087e	-0.20022771
102	0xbdd776d8	-0.105207145
103	0xbe598428	-0.2124182
104	0x3c009a8a	0.007849345
105	0x3e0dc6a1	0.13845302
106	0x3db77164	0.089571744
107	0x3de00a89	0.109395094
108	0xbd5e52d5	-0.054278214
109	0x3e67d2d9	0.22639026
110	0xbe533274	-0.20624715
111	0xbe17e975	-0.1483515
112	0xbcde8460	-0.02716273
113	0xbd35f680	-0.044424534
114	0x3d2df9a7	0.042474415
115	0xbe588462	-0.2114425
116	0xbe029a70	-0.12754226
117	0xbe6a8b11	-0.22904612
118	0xbde44345	-0.11145643
119	0x3cd76e8f	0.026297836
120	0x3e238fb0	0.15972781
121	0xbe5c2b65	-0.21500929
122	0xbd61e222	-0.055147298
123	0x3d5775dd	0.052602638
124	0xbe5ef75b	-0.21774046
125	0xbe52f710	-0.2060206
126	0xbe3db74d	-0.18526955
127	0x3dfa5fdb	0.12225314
128	0xbe609a74	-0.21933919
129	0xbe52143c	-0.20515531
130	0xbe4e1303	-0.2012444
131	0xbe1ee204	-0.15515906
132	0xbdda4697	-0.10657995
133	0x3d17673c	0.036963686
134	0x3e12b058	0.14325082
135	0xbdcf605f	-0.10125803
136	0xbd055b56	-0.032557808
137	0xbd783648	-0.06059864
138	0xbdeef973	-0.116686724
139	0x3c865aad	0.01640066
140	0xbe5a6678	-0.21328151
141	0x3e225fef	0.15856908
142	0xbc4754c6	-0.012166208
143	0xbe19b5fd	-0.1501083
144	0xbde7e03d	-0.11322067
145	0x3e665807	0.22494517
146	0x3daf6a5d	0.08565209
147	0xbddb7470	-0.10715568
148	0x3e215ef6	0.15758881
149	0xbd32fc3d	-0.043697584
150	0x3e20ea75	0.15714438
151	0xbd97d14d	-0.07412968
152	0xbd04c046	-0.03240993
153	0xbdb1a710	-0.08674443
154	0x3d071c9a	0.03298626
155	0xbdd738fd	-0.105089165
156	0x3de8c91e	0.11366485
157	0x3df8d5ed	0.12150178
158	0xbe5dca34	-0.21659166
159	0x3d0a24c4	0.03372647
160	0xbd56e167	-0.052461054
161	0x3dc79ee3	0.09747102
162	0xbd687f36	-0.056761943
163	0xbe313bd0	-0.17307973
164	0x3e5e44c2	0.21705917
165	0x3e0cfe2a	0.13768831
166	0xbe0d8daa	-0.13823572
167	0xbe42347b	-0.18965332
168	0xbde3c48a	-0.11121471
169	0xbe3fa295	-0.18714364
170	0xbe1c7ea2	-0.15282682
171	0x3c3240aa	0.010879675
172	0x3cf1b005	0.029502878
173	0x3b92405d	0.004463239
174	0xbd3dc26a	-0.046327986
175	0xbe17e010	-0.14831567
176	0x3da522da	0.08063288
177	0xbdc640f0	-0.096803546
178	0xbd17afef	-0.037033018
179	0xbe17971a	-0.14803734
180	0x3e219159	0.15778102
181	0xbd856a1b	-0.06514379
182	0x3d868164	0.06567648
183	0x3d262488	0.040562183
184	0xbd7ee8e2	-0.062233813
185	0x3e51e05c	0.20495743
186	0x3c7a6c12	0.015284555
187	0xbd7d98d0	-0.06191331
188	0x3e649012	0.22320583
189	0xbe319d18	-0.17345083
190	0x3d405185	0.046952743
191	0xbe6de505	-0.23231895
192	0x3e3008b4	0.1719082
193	0x3e2ef235	0.17084582
194	0xbda8539e	-0.08219074
195	0xbe1c1c9f	-0.15245293
196	0xbda7d627	-0.08195143
197	0x3e32910e	0.17438146
198	0x3c249af8	0.010046713
199	0xbe303308	-0.17206967
200	0x3e61eed3	0.2206376
201	0x3e458eb9	0.19292726
202	0x3e5d70cd	0.21625061
203	0x3d7d1a24	0.061792508
204	0xbd39e61d	-0.04538547
205	0x3db3baff	0.08775901
206	0x3d87f32a	0.06638177
207	0xbc6bea2b	-0.014399092
208	0xbca6c5c8	-0.020357981
209	0xbe3fa38f	-0.18714736
210	0xbcadf71e	-0.021235999
211	0xbe3dcce6	-0.18535194
212	0x3e1710d0	0.14752507
213	0xbe213e3c	-0.15746397
214	0xbe3e6b3c	-0.18595594
215	0x3e19334a	0.14960971
216	0x3d20d3e2	0.039264567
217	0x3cac0a07	0.021000875
218	0x3d860fc0	0.06545973
219	0x3e44c2a4	0.19214875
220	0x3d38fc35	0.0451624
221	0x3df3a42a	0.11896546
222	0xbdbafcb7	-0.09130233
223	0xbd528af3	-0.051402044
224	0xbe2b067e	-0.16701695
225	0x3e614ef5	0.22002776
226	0xbe5ff732	-0.21871641
227	0x3e07af4a	0.13250461
228	0xbe2f6729	-0.17129196
229	0x3e1aee6a	0.1513001
230	0x3de60c1c	0.112327784
231	0xbdd3cf27	-0.103422455
232	0xbd36b000	-0.04460144
233	0x3e2c7ec8	0.16845238
234	0x3e1e04ce	0.1543152
235	0x3e03d564	0.12874371
236	0x3cc027c5	0.023456464
237	0xbe53d032	-0.20684889
238	0xbe64b94b	-0.22336309
239	0x3deb204e	0.11480771
240	0x3ce10146	0.027466428
241	0x3dcb7ff6	0.09936516
242	0xbce7a373	-0.02827618
243	0x3cf0bf31	0.029388042
244	0xbcb1d088	-0.02170588
245	0x3dbbdbca	0.09172781
246	0x3e669c27	0.22520505
247	0x3e1618f9	0.14657964
248	0x3e531ec7	0.2061721
249	0xbdbab694	-0.09116855
250	0xbd2220fd	-0.03958224
251	0x3a16b967	0.0005749673
252	0xbe02c2fd	-0.12769695
253	0x3de2ea48	0.11079842
254	0xbdb9f1b3	-0.090793036
255	0xbe2f88d5	-0.17142041

onnx::MatMul_206 f4 [54, 54]
0	0x3c49e434	0.012322474
1	0x3dd3cbcd	0.10341606
2	0xbe6dccfb	-0.23222725
3	0xbdb41c83	-0.08794501
4	0xbe455e2f	-0.1927421
5	0x3cde90f5	0.02716873
6	0x3ddb9db1	0.107234366
7	0xbdb72440	-0.08942461
8	0x3c03b4db	0.008038725
9	0xbdd446ac	-0.10365042
10	0xbe4648fe	-0.19363782
11	0x3c1a5b7c	0.009421226
12	0x3e481227	0.19538175
13	0x3d5cebba	0.053935744
14	0x3d81b70c	0.063337415
15	0x3dc388fd	0.09547613
16	0xbe57f136	-0.21088108
17	0x3e308991	0.17239977
18	0xbe347771	-0.17623688
19	0x3dbe7e4c	0.09301433
20	0xbdc52ee7	-0.096280865
21	0x3df46c07	0.11934667
22	0xbd3a8284	-0.045534626
23	0x3e2c5804	0.1683045
24	0x3e2ca992	0.16861561
25	0xbe4454c6	-0.19172964
26	0xbce41f18	-0.027846858
27	0xbe587f0c	-0.21142215
28	0x3de7d8bf	0.11320638
29	0x3c67f369	0.014157155
30	0x3e6ccc27	0.23124753
31	0xbdbb6c5d	-0.09151528
32	0x3dd72623	0.10505321
33	0xbe42fef0	-0.19042563
34	0xbdc4ef81	-0.09615994
35	0xbe2eea27	-0.1708151
36	0xbe431e28	-0.19054472
37	0x3e153300	0.14570236
38	0x3db73486	0.08945565
39	0x3c830b35	0.015996555
40	0x3d045f26	0.032317303
41	0xbe105562	-0.14095071
42	0x3e5c3702	0.21505359
43	0xbe1cdad2	-0.15317848
44	0x3e691aca	0.22764125
45	0x3e000840	0.12503147
46	0x3e314009	0.17309584
47	0x3e3e1757	0.18563591
48	0x3e709769	0.23495258
49	0x3e1d9829	0.15390076
50	0xbe6f05bd	-0.23342033
51	0x3d350eff	0.044203755
52	0xbda58da3	-0.08083656
53	0xbcf8499f	-0.030308543
54	0xbcd5c8fa	-0.02609681
55	0xbe2e5483	-0.17024426
56	0xbdea1b0e	-0.114309415
57	0xbe26c785	-0.16287048
58	0x3d1455f6	0.03621479
59	0xbe0a70e5	-0.13519628
60	0x3e434fed	0.19073458
61	0x3c13fb21	0.009032042
62	0x3c0b17c7	0.008489556
63	0xbc89ed2c	-0.016836725
64	0xbddf06f4	-0.10889998
65	0xbdafd0f0	-0.085847735
66	0x3d2af8ff	0.041741367
67	0xbd03d89c	-0.032188997
68	0x3e0f3380	0.1398449
69	0x3e3a912b	0.1821944
70	0xbd32ed15	-0.04368313
71	0xbd82435b	-0.06360503
72	0xbd9f9fea	-0.07794173
73	0x3e58a2bf	0.21155833
74	0xbe427759	-0.1899084
75	0x3e30da2f	0.1727073
76	0xbd6579bd	-0.0560243
77	0xbdd8e374	-0.10590258
78	0x3d8932c6	0.066991374
79	0xbda9b654	-0.082867295
80	0xbd118734	-0.03552933
81	0x3dc99b10	0.09844029
82	0xbd8d678f	-0.06904518
83	0x3dff26ee	0.12458597
84	0xbddc33ea	-0.10752089
85	0x3e015d2b	0.12633197
86	0xbe4519d7	-0.19248138
87	0x3e1bd0e0	0.15216398
88	0x3e13e21d	0.14441724
89	0xbe551c0c	-0.2081148
90	0xbe0d110f	-0.13776039
91	0xbe6f2066	-0.23352203
92	0x3df7c2cd	0.12097702
93	0xbd74308e	-0.059616618
94	0x3e38db6e	0.18052456
95	0x3d9b6307	0.07587247
96	0xbd2d5a77	-0.042322602
97	0x3dd0c8e8	0.1019457
98	0x3e6de9e6	0.23233756
99	0x3e48d63e	0.19612977
100	0xbda40f09	-0.0801068
101	0x3d057dbc	0.032590613
102	0xbe707c74	-0.23484975
103	0x3db31274	0.08743754
104	0xbe3ad2e0	-0.18244505
105	0xbde4b493	-0.11167254
106	0xbe01fd0d	-0.12694187
107	0x3e5489ce	0.20755693
108	0xbd5d32bb	-0.05400346
109	0x3ab69f12	0.0013932905
110	0x3d135e1f	0.035978433
111	0x3e1d97a5	0.15389879
112	0x3d1732e8	0.036913782
113	0x3c5328aa	0.012888113
114	0x3dec1b4c	0.11528644
115	0xbc169283	-0.009190205
116	0x3e0b2c81	0.13591196
117	0x3d188ceb	0.037243765
118	0x3da6198b	0.08110341
119	0xbe5cd767	-0.21566544
120	0xbe3dbf76	-0.18530068
121	0x3e08755c	0.13326019
122	0xbde51726	-0.11186056
123	0x3e30034a	0.17188755
124	0xbe0afa96	-0.13572153
125	0x3dc733bf	0.09726667
126	0xbd31c3eb	-0.043399733
127	0x3e1604a6	0.1465021
128	0xbe586a91	-0.21134402
129	0x3d9c42d4	0.07629934
130	0x3deee755	0.11665217
131	0x3d43a2c1	0.047762636
132	0x3d13ab94	0.0360523
133	0x3c904823	0.017612522
134	0xbd1a0722	-0.03760446
135	0x3e219f07	0.1578332
136	0x3e5e5436	0.21711811
137	0xbe0df1b3	-0.13861732
138	0x3e6fa95a	0.23404446
139	0xbdc90aae	-0.0981649
140	0xbe15d247	-0.14630996
141	0xbcf8c9a3	-0.030369585
142	0x3e13f51e	0.14448974
143	0x3e277280	0.16352272
144	0x3e6e710f	0.23285316
145	0xbc243b46	-0.0100238975
146	0xbe418ab0	-0.18900561
147	0xbc82723d	-0.015923614
148	0x3d72f358	0.059314102
149	0xbe177141	-0.14789297
150	0xbb92ddee	-0.0044820225
151	0x3e25fb45	0.16209133
152	0x3d23bd0e	0.03997522
153	0x3d74242b	0.059604805
154	0xbe2d046a	-0.16896215
155	0xbdfb75e6	-0.12278347
156	0x3dc69e66	0.09698181
157	0xbcf5246f	-0.0299246
158	0xbdc70c82	-0.097191826
159	0xbdd05fcc	-0.10174522
160	0xbd652c84	-0.055950657
161	0xbe4e8f2f	-0.20171808
162	0xbe045a10	-0.12924981
163	0xbe64e297	-0.22352062
164	0xbe4d6cdb	-0.20061056
165	0xbc9df147	-0.019280089
166	0x3e669f94	0.22521812
167	0x3e5aeefe	0.21380231
168	0xbe0597b1	-0.13046147
169	0xbd8520ad	-0.06500373
170	0x3e0dccc7	0.13847648
171	0x3ccb8a95	0.024846354
172	0xbdfea15c	-0.124331206
173	0x3e6c4265	0.23072203
174	0xbe389af3	-0.18027858
175	0xbe6509e3	-0.22367053
176	0x3da2fe48	0.079586565
177	0x3b195e57	0.0023402178
178	0xbe3130dd	-0.17303796
179	0xbd950f63	-0.072783254
180	0x3e219d5b	0.15782683
181	0xbcff6418	-0.031175658
182	0x3e204e45	0.15654857
183	0x3d468aa9	0.04847208
184	0x3d508643	0.050909292
185	0xbe133762	-0.14376596
186	0x3d690b65	0.056895632
187	0x3e09aabf	0.1344404
188	0xbdc4261d	-0.09577582
189	0x3e1f341e	0.15547225
190	0xbe0988f5	-0.13431151
191	0x3e33e455	0.1756757
192	0x3d27b91d	0.040948022
193	0x3d6824b4	0.056675628
194	0xbda952ab	-0.08267721
195	0xbe5ad20e	-0.21369192
196	0x3e3c0ac7	0.18363486
197	0xbd5727be	-0.052528135
198	0xbd2a491b	-0.041573625
199	0xbe56503a	-0.20929042
200	0x3d3536a7	0.044241574
201	0x3cfe2a15	0.031025926
202	0xbe6bde46	-0.2303401
203	0xbe6394cf	-0.22224735
204	0x3c8c3454	0.017114796
205	0x3e1599ad	0.14609404
206	0xbccc20aa	-0.02491792
207	0xbe0af4a5	-0.13569887
208	0x3da311c6	0.079623744
209	0xbc250518	-0.010072015
210	0xbe4d46ac	-0.2004649
211	0x3e1fb8c8	0.15597832
212	0x3d401378	0.046893567
213	0x3e5a9f88	0.21349919
214	0x3e41713d	0.18890853
215	0x3e502623	0.20327048
216	0xbcac40eb	-0.021027049
217	0xbda94832	-0.08265723
218	0xbe6e3a12	-0.2326434
219	0xbe117e12	-0.14208248
220	0x3e6097e4	0.21932942
221	0xbdf6cbaf	-0.12050568
222	0xbdd25a72	-0.10271157
223	0x3e21811a	0.15771905
224	0xbe5f5bf0	-0.21812415
225	0x3e08f59e	0.13374946
226	0x3d90cfb5	0.07070867
227	0xbd73f5de	-0.05956065
228	0xbe42a141	-0.19006826
229	0x3e3f8d5f	0.18706273
230	0x3cafd32d	0.021463001
231	0x3e1aa415	0.15101655
232	0x3d5c5ae3	0.053797614
233	0xbdb53c2c	-0.088493675
234	0x3e30d7d9	0.1726984
235	0x3ce16c2a	0.027517397
236	0xbe423aeb	-0.18967788
237	0x3e64ba81	0.2233677
238	0xbd69a9d5	-0.05704673
239	0x3c83a1f1	0.01606843
240	0x3d835a73	0.06413736
241	0x3deec301	0.11658288
242	0x3e1c7d7d	0.15282245
243	0xbe2b67b3	-0.16738777
244	0x3dbf674a	0.09345873
245	0xbd7c47fb	-0.061592083
246	0xbd4040a6	-0.046936654
247	0xbda0e754	-0.07856622
248	0x3e0de9a5	0.1385866
249	0x3ce30265	0.027711103
250	0x3e39991b	0.18124811
251	0x3e3ec4cb	0.18629758
252	0x3d3e33ab	0.046435993
253	0x3e28c476	0.16481194
254	0x3e3825be	0.17983148
255	0x3c948bac	0.018133007
