Assets/oon/stop_f.onnx (onnx, 113734 bytes, 17 tensors)

network_body._body_endoder.attention.query.bias f4 [54]
0.0 0.0 0.0 0.0 0.0 0.0 0.0 0.0
0.0 0.0 0.0 0.0 0.0 0.0 0.0 0.0
0.0 0.0 0.0 0.0 0.0 0.0 0.0 0.0
0.0 0.0 0.0 0.0 0.0 0.0 0.0 0.0
0.0 0.0 0.0 0.0 0.0 0.0 0.0 0.0
0.0 0.0 0.0 0.0 0.0 0.0 0.0 0.0
0.0 0.0 0.0 0.0 0.0 0.0
00000000: 0000 0000 0000 0000 0000 0000 0000 0000
00000010: 0000 0000 0000 0000 0000 0000 0000 0000
00000020: 0000 0000 0000 0000 0000 0000 0000 0000
00000030: 0000 0000 0000 0000 0000 0000 0000 0000
00000040: 0000 0000 0000 0000 0000 0000 0000 0000
00000050: 0000 0000 0000 0000 0000 0000 0000 0000
00000060: 0000 0000 0000 0000 0000 0000 0000 0000
00000070: 0000 0000 0000 0000 0000 0000 0000 0000
00000080: 0000 0000 0000 0000 0000 0000 0000 0000
00000090: 0000 0000 0000 0000 0000 0000 0000 0000
000000a0: 0000 0000 0000 0000 0000 0000 0000 0000
000000b0: 0000 0000 0000 0000 0000 0000 0000 0000
000000c0: 0000 0000 0000 0000 0000 0000 0000 0000
000000d0: 0000 0000 0000 0000

network_body._body_endoder.attention.value.bias f4 [54]
0.04488776 0.04934559 0.0047063893 0.13545975 0.23815416 -0.038374733 -0.032467857 -0.16332558
0.33700326 -0.401448 0.29028016 -0.09045567 -0.1149153 -0.087237366 -0.011127775 -0.07092005
0.15561958 0.42111227 -0.13677844 0.1175603 0.40667874 -0.03482587 0.29953408 0.2560752
0.39344594 -0.07783585 0.1616397 0.043735716 0.22253881 0.08783694 -0.45648512 -0.24567577
0.10650828 0.18210863 0.22449766 -0.13902447 -0.112822555 -0.10792388 0.24203144 -0.046777666
0.16843139 0.089280024 -0.3336903 -0.2544854 -0.14094588 0.076688 0.19762525 -0.17909975
-0.081298664 -0.4488704 -0.48807883 -0.14725916 -0.0984006 0.08088449
00000000: 3adc 373d 9a1e 4a3d 0e38 9a3b f6b5 0a3e
00000010: afde 733e d32e 1dbd 04fd 04bd d23e 27be
00000020: b18b ac3e 988a cdbe 9a9f 943e d340 b9bd
00000030: b658 ebbd 81a9 b2bd 4551 36bc 883e 91bd
00000040: bd5a 1f3e 079c d73e a60f 0cbe 74c3 f03d
00000050: 3238 d03e 92a5 0ebd 885c 993e 4a1c 833e
00000060: bf71 c93e 6768 9fbd e184 253e 3924 333d
00000070: 37e1 633e dbe3 b33d 6bb8 e9be 6e92 7bbe
00000080: 0321 da3d af7a 3a3e b7e2 653e 6e5c 0ebe
00000090: 830f e7bd 3207 ddbd 17d7 773e f099 3fbd
000000a0: 4779 2c3e 72d8 b63d 74d9 aabe e94b 82be
000000b0: 1e54 10be 990e 9d3d 465e 4a3e ed65 37be
000000c0: ea7f a6bd 57d2 e5be 78e5 f9be 1bcb 16be
000000d0: 4186 c9bd c4a6 a53d

network_body._body_endoder.attention.norm.weight f4 [54]
1.1418039 0.9346965 1.0498533 1.22825 1.0771031 0.9540102 1.08107 1.0115054
1.0155677 1.1382365 0.9527239 0.98975205 1.1705767 0.9575687 1.1328928 0.9006407
1.1391833 1.0576526 0.9563379 1.0462853 0.9655549 1.1085992 0.6710633 1.0840516
0.8886572 1.0914801 0.9363843 1.1392936 0.8809938 1.0228225 1.1949489 1.122215
1.0164018 1.0286021 0.924061 1.0337654 1.0896572 1.1592973 1.1821367 0.81947
1.0326622 1.277831 0.90155476 1.1123931 1.0946958 1.2669308 1.0046973 1.165973
1.111626 1.0186272 1.1591005 0.8395859 1.1692346 1.0560232
00000000: a126 923f 4548 6f3f 9861 863f 4c37 9d3f
00000010: 84de 893f 033a 743f 8060 8a3f 0279 813f
00000020: 1ffe 813f bcb1 913f b7e5 733f 6460 7d3f
00000030: 75d5 953f 3923 753f a202 913f 6490 663f
00000040: c2d0 913f 2961 873f 90d2 743f adec 853f
00000050: 9b2e 773f 94e6 8d3f ceca 2b3f 34c2 8a3f
00000060: 0a7f 633f 9fb5 8b3f e2b6 6f3f 5fd4 913f
00000070: cf88 613f d9eb 823f 16f4 983f bea4 8f3f
00000080: 7419 823f 3ca9 833f 438f 6c3f 6d52 843f
00000090: e379 8b3f db63 943f 4150 973f c9c8 513f
000000a0: 462e 843f f78f a33f 4bcc 663f e662 8e3f
000000b0: fe1e 8c3f ca2a a23f ec99 803f 9a3e 953f
000000c0: c349 8e3f 6062 823f 685d 943f 1aef 563f
000000d0: 7ba9 953f c52b 873f

network_body._body_endoder.attention.norm.bias f4 [54]
0.082135886 0.008167646 0.00024861895 -0.015256716 -0.0075882743 -0.063252956 0.036852837 -0.032554153
0.05215247 -0.026379693 0.017809214 -0.016548181 0.080557406 -0.009182595 0.037429705 -0.016701328
0.05181415 0.029936187 0.008560651 -0.0062970435 0.10088912 0.0925775 0.032139152 -0.02632535
0.048295427 0.07937869 0.08358768 0.008365627 0.04575063 -0.005122987 0.048376277 -0.016359301
0.04011985 0.056128055 0.01835255 0.047890075 -0.00052646146 0.027017677 0.0128910495 0.05867851
-0.07131146 0.007362786 -0.120130815 -0.09403126 -0.012917718 0.07261015 -0.009705386 -0.034654498
-0.04920416 0.079895526 0.085567445 0.009306535 -0.1041339 -0.013472412
00000000: dc36 a83d 97d1 053c 1259 8239 4ef7 79bc
00000010: 0fa7 f8bb c48a 81bd 00f3 163d 8157 05bd
00000020: d49d 553d 3a1a d8bc a1e4 913c 0d90 87bc
00000030: 48fb a43d 9872 16bc e44f 193d 39d1 88bc
00000040: 133b 543d bc3c f53c f941 0c3c 6e57 cebb
00000050: f49e ce3d 4699 bd3d 58a4 033d 43a8 d7bc
00000060: 6dd1 453d 4b91 a23d 0430 ab3d fc0f 093c
00000070: 0365 3b3d bbde a7bb 3426 463d f103 86bc
00000080: b654 243d 88e6 653d 1658 963c 6228 443d
00000090: 3b02 0aba 2d54 dd3c fb34 533c e158 703d
000000a0: be0b 92bd 8743 f13b 2507 f6bd 7693 c0bd
000000b0: d6a4 53bc a1b4 943d 5703 1fbc e0f1 0dbd
000000c0: 4d8a 49bd 44a0 a33d fc3d af3d 707a 183c
000000d0: 2744 d5bd 64bb 5cbc

network_body._body_endoder.norm.weight f4 [54]
0.8902864 0.6954214 0.71569324 1.0211933 0.9712605 0.811173 0.8547204 0.8330376
0.97213495 0.9987019 0.94612217 0.7981243 0.7628603 0.92982954 0.8879633 0.61367744
0.7275017 0.9121141 0.62652373 1.006484 0.9173617 0.87812483 0.7400995 0.9723426
0.8591484 0.8305446 0.79591644 0.94853765 0.8459041 0.9092251 0.93191135 0.94348896
0.8463148 0.862478 0.6144978 0.64999175 0.74628115 0.8330519 1.0045643 0.5798732
0.900716 1.0261165 0.98916316 1.0913986 1.1091955 1.2505066 1.2001402 0.72820276
0.7629209 0.7321896 0.96759087 0.72102517 1.2091783 1.0199326
00000000: cfe9 633f 2307 323f ac37 373f 76b6 823f
00000010: 87a4 783f 09a9 4f3f f5ce 5a3f f441 553f
00000020: d6dd 783f edaa 7f3f 1035 723f e051 4c3f
00000030: d04a 433f 4f09 6e3f 9051 633f f719 1d3f
00000040: 8d3d 3a3f 4f80 693f dc63 203f 78d4 803f
00000050: 37d8 6a3f cacc 603f 2977 3d3f 72eb 783f
00000060: 26f1 5b3f 929e 543f 2ec1 4b3f 5dd3 723f
00000070: 2c8d 583f fac2 683f be91 6e3f 7e88 713f
00000080: 16a8 583f 5ccb 5c3f ba4f 1d3f dc65 263f
00000090: 480c 3f3f e442 553f 9095 803f 9272 143f
000000a0: 5395 663f c957 833f cc39 7d3f f3b2 8b3f
000000b0: 1efa 8d3f 9a10 a03f 329e 993f 7f6b 3a3f
000000c0: c94e 433f c770 3b3f 09b4 773f 1b95 383f
000000d0: 5bc6 9a3f 278d 823f

network_body._body_endoder.norm.bias f4 [54]
0.15553552 0.023542067 -0.06693446 -0.012633281 -0.04318225 -0.08962693 0.021113064 -0.07231482
0.045499764 -0.08372887 -0.034750897 -0.14756784 0.07246332 -0.016702887 0.060857974 0.004195953
0.12373655 -0.04584293 -0.22221857 -0.06238139 0.08343175 -0.029411001 -0.036287107 -0.11876482
0.035669457 0.031935554 0.21963799 -0.07815982 0.061326887 -0.05436197 0.06683778 -0.033291683
0.034282986 -0.008318127 -0.17443028 -0.003568544 -0.074094206 -0.024233963 -0.0009846826 0.09013374
-0.08736094 0.049442664 -0.099365704 -0.0377521 0.029850323 0.047339782 -0.020151513 -0.09008285
-0.21921042 0.24289042 0.07839127 0.01867865 -0.09813025 -0.050118215
00000000: b444 1f3e 4bdb c03c ef14 89bd d2fb 4ebc
00000010: dfdf 30bd 538e b7bd 4ef5 ac3c cb19 94bd
00000020: f65d 3a3d 0b7a abbd f556 0ebd 061c 17be
00000030: a667 943d 7ed4 88bc 3646 793d 347e 893b
00000040: 9769 fd3d ccc5 3bbd 448d 63be a183 7fbd
00000050: 44de aa3d 57ef f0bc caa1 14bd f83a f3bd
00000060: 231a 123d dbce 023d c8e8 603e 4112 a0bd
00000070: e731 7b3d a8aa 5ebd 3fe2 883d dc5c 08bd
00000080: 516c 0c3d c148 08bc da9d 32be 3cde 69bb
00000090: b4be 97bd 4e86 c6bc 7710 81ba 0a98 b83d
000000a0: 4bea b2bd 6484 4a3d 3f80 cbbd f2a1 1abd
000000b0: aa88 f43c 5ce7 413d c914 a5bc 5b7d b8bd
000000c0: b278 60be 44b8 783e 9a8b a03d f803 993c
000000d0: 83f8 c8bd c248 4dbd

network_body._body_endoder.lin_layers.seq_layers.0.weight f4 [108, 54]
-0.019102925 -0.19121307 -0.14081499 -0.17344919 -0.066749945 0.12693189 -0.17151392 -0.46997264
0.009879133 0.03289346 0.0586949 0.29350406 0.07891767 0.011266325 0.52765656 0.050421398
-0.21633868 0.30862528 0.09750679 0.1471355 -0.011930837 0.08826967 -0.2709574 0.32734734
0.018519988 0.05648712 -0.100818194 0.33678037 0.4059812 -0.20656388 -0.37562308 0.016440725
-0.040634636 -0.0069239293 -0.02870284 0.014414023 0.27868015 0.12666604 0.2627644 0.061013624
0.35504004 0.16688488 -0.049284615 -0.21264686 0.168014 -0.55267876 0.36525175 0.12235168
-0.20618296 0.013389253 -0.25690323 -0.118737556 -0.31249642 -0.44536912 -0.17084816 0.07667475
-0.05196114 0.3928175 0.13428313 -0.3975503 0.12750019 -0.2973378 0.3117958 0.13454066
0.19900882 -0.12204493 0.06701068 0.3436446 0.1803763 0.12977965 0.23176861 0.09199361
0.26996085 0.055448428 0.34004492 -0.42703202 0.15975007 -0.044740375 -0.20620582 -0.4921547
0.113171 -0.19660443 0.033427104 -0.4568079 0.24813695 -0.25914058 0.2561824 0.32990602
0.13665494 -0.1263132 -0.4034408 -0.8829757 0.13749927 0.080736905 0.02771838 0.3911171
0.22478865 -0.15111814 0.13115852 0.4170553 -0.24968444 -0.16861555 -0.09785063 0.19083878
-0.17473288 -0.058600266 0.008060943 0.27150404 -0.022034045 0.26609686 -0.29972607 -0.030814625
0.16564144 -0.01639326 -0.33685738 0.099808924 0.03203146 -0.0792348 0.32834116 -0.1031746
-0.35903886 0.28823176 0.00034814188 0.0746525 -0.18725273 0.17168455 -0.05736598 0.110260375
-0.007781375 -0.27906397 0.10695308 -0.27502087 -0.013393947 0.025803406 0.2589339 -0.24162479
0.005801074 -0.19108568 0.017271522 -0.36061096 0.08499743 -0.20822532 -0.15039666 -0.044071823
-0.19513014 0.27740628 0.19869608 0.34672457 -0.19919373 0.03361897 -0.048583537 0.0020316124
-0.153211 0.027472254 0.011603687 -0.03613944 -0.04106447 -0.0015813231 0.15274327 0.123650946
-0.16745526 -0.016054528 0.28200236 0.13331258 -0.34820193 0.28027788 0.32177648 -0.10439593
0.005371741 -0.02493786 0.45705238 -0.30684316 0.004153437 0.008253039 -0.10068294 0.040727574
-0.109201975 0.3442008 0.27313805 0.02503889 -0.17964792 -0.041097436 0.00097161334 -0.26816595
0.110756256 -0.16253653 -0.0742311 -0.022374652 0.084618516 -0.08839156 0.21871553 -0.06724443
-0.030065356 0.09350568 0.10357758 -0.42994672 0.0077915085 -0.09488234 0.05273483 -0.06758991
0.39236912 0.23090267 0.106613144 0.3277329 -0.2233632 0.55568594 0.18416165 0.4040338
0.017260619 -0.44462729 0.26515707 0.15467794 -0.00989302 -0.0637358 -0.23099832 0.12343515
0.059328824 -0.013248439 -0.32511783 0.16141385 0.11796697 -0.011913374 -0.06767652 -0.24932139
0.29665104 -0.13493714 -0.10865652 -0.09689086 -0.013441996 0.15394092 0.082017176 -0.1846038
0.05773717 -0.083971985 -0.4737067 -0.32456633 0.38069236 -0.32122448 -0.07252359 0.018027961
0.020719353 -0.19471507 0.06586202 0.28437772 0.2587448 -0.22849362 -0.21546848 -0.13533881
-0.046968333 -0.32866374 -0.29101905 0.21134515 -0.119050995 0.09984478 0.011029853 0.2760418
00000000: bd7d 9cbc 5ccd 43be ce31 10be aa9c 31be
00000010: 32b4 88bd 6ffa 013e 58a1 2fbe 41a0 f0be
00000020: 16dc 213c 4bbb 063d 106a 703d 2a46 963e
00000030: 969f a13d 6496 383c 8014 073f ab86 4e3d
00000040: e387 5dbe 2204 9e3e a4b1 c73d b0aa 163e
00000050: 8f79 43bc bbc6 b43d eeba 8abe 129a a73e
00000060: 3bb7 973c 0a5f 673d c579 cebd 7a6e ac3e
00000070: c5dc cf3e 7b85 53be ab51 c0be b3ae 863c
00000080: 8170 26bd 21e2 e2bb 3822 ebbc cb28 6c3c
00000090: 2aaf 8e3e beb4 013e 0e89 863e 6ce9 793d
000000a0: cfc7 b53e dfe3 2a3e aade 49bd 19c0 59be
000000b0: dd0b 2c3e 5b7c 0dbf 4702 bb3e 8593 fa3d
000000c0: a021 53be 995e 5b3c d288 83be ad2c f3bd
000000d0: 88ff 9fbe 6c07 e4be d2f2 2ebe a707 9d3d
000000e0: 34d5 54bd 601f c93e 8481 093e b78b cbbe
000000f0: 698f 023e a93c 98be b3a3 9f3e 07c5 093e
00000100: f8c8 4b3e b1f2 f9bd e53c 893d 2ff2 af3e
00000110: 91b4 383e f5e4 043e c054 6d3e 2567 bc3d
00000120: 4f38 8a3e e41d 633d 5e1a ae3e f1a3 dabe
00000130: 8695 233e af41 37bd 9e27 53be b3fb fbbe
00000140: 32c6 e73d ac52 49be dcea 083d bae2 e9be
00000150: 9d17 7e3e 13ae 84be 572a 833e 71e9 a83e
00000160: 46ef 0b3e 3f58 01be cb8f cebe b20a 62bf
00000170: 9ccc 0c3e 6459 a53d a811 e33c 8040 c83e
00000180: ff2e 663e b7be 1abe 6b4e 063e 4688 d53e
00000190: 47ad 7fbe 8ea9 2cbe e965 c8bd 3e6b 433e
000001a0: 2ded 32be d506 70bd 0c12 043c 9402 8b3e
000001b0: be80 b4bc d93d 883e b275 99be f46e fcbc
000001c0: e99d 293e 284b 86bc 9278 acbe 9f68 cc3d
000001d0: 6c33 033d db45 a2bd 551c a83e 344d d3bd
000001e0: f1d3 b7be 1d93 933e d086 b639 69e3 983d
000001f0: 2ebf 3fbe 13ce 2f3e 97f8 6abd 31d0 e13d
00000200: e8fa febb 79e1 8ebe 370a db3d 89cf 8cbe
00000210: 4972 5bbc aa61 d33c fc92 843e 7d6c 77be
00000220: f016 be3b f7ab 43be 027d 8d3c 00a2 b8be
00000230: 2213 ae3d 0539 55be 9501 1abe a884 34bd
00000240: 32d0 47be 3208 8e3e fc76 4b3e e285 b13e
00000250: 71f9 4bbe 0cb4 093d 88ff 46bd cd24 053b
00000260: 58e3 1cbe 7e0d e13c 641d 3e3c f306 14bd
00000270: 3833 28bd 6644 cfba bb68 1c3e b53c fd3d
00000280: 6479 2bbe c984 83bc 9d62 903e 1883 083e
00000290: 8647 b2be 9580 8f3e e3bf a43e 89cd d5bd
000002a0: 6e05 b03b 7c4a ccbc c502 ea3e 8c1a 9dbe
000002b0: 8e19 883b c137 073c db32 cebd f5d1 263d
000002c0: 49a5 dfbd 163b b03e c0d8 8b3e 5c1e cd3c
000002d0: a0f5 37be c955 28bd deb3 7e3a 0c4d 89be
000002e0: 2dd4 e23d fa6f 26be 7a06 98bd 0c4b b7bc
000002f0: 794c ad3d a206 b5bd f7f6 5f3e 73b7 89bd
00000300: 9f4b f6bc e87f bf3d 7b20 d43d fa21 dcbe
00000310: e94f ff3b ac51 c2bd 7a00 583d 946c 8abd
00000320: 9be4 c83e c071 6c3e fe57 da3d 9bcc a73e
00000330: 53b9 64be 6f41 0e3f df94 3c3e 85dd ce3e
00000340: 2466 8d3c 30a6 e3be abc2 873e e563 1e3e
00000350: 5516 22bc ea87 82bd d38a 6cbe 91cb fc3d
00000360: c802 733d fb0f 59bc d875 a6be ac49 253e
00000370: ab98 f13d 5030 43bc fd99 8abd 1b4e 7fbe
00000380: a5e2 973e f62c 0abe 4f87 debd b76e c6bd
00000390: d13b 5cbc b0a2 1d3e 9ff8 a73d c708 3dbe
000003a0: d07d 6c3d 81f9 abbd af89 f2be 8f2d a6be
000003b0: 1cea c23e 8977 a4be 3f87 94bd 60af 933c
000003c0: a2bb a93c 6363 47be abe2 863d f599 913e
000003d0: 337a 843e 3bfa 69be c5a3 5cbe 4296 0abe
000003e0: de61 40bd 9d46 a8be 7300 95be dd6a 583e
000003f0: 02d1 f3bd 6c7b cc3d 8eb6 343c 5a55 8d3e

network_body._body_endoder.lin_layers.seq_layers.0.bias f4 [108]
0.023122028 -0.1047892 -0.1104229 -0.22291295 -0.17428231 -0.16422339 -0.30013275 -0.048223756
0.02139612 -0.0463687 -0.20547752 -0.31176168 -0.09471346 0.029731141 -0.15603504 -0.46062058
-0.07362871 -0.060469165 0.05149066 -0.1058853 -0.033307016 -0.1537224 -0.29602575 -0.021045383
-0.116685174 -0.16921324 -0.09216536 -0.20493948 -0.06816548 0.112007335 -0.06136225 -0.46967757
-0.043123387 -0.10714518 0.08268565 -0.1315788 -0.11746943 -0.10829996 -0.13176084 -0.35155943
-0.2507293 -0.20012507 -0.06582674 -0.13949291 -0.05961181 -0.107675456 -0.12954924 -0.17282659
-0.027274687 -0.28983992 -0.25928712 -0.39024025 -0.3139232 0.010641305 -0.104770616 -0.32586515
0.14884062 -0.1544674 -0.39196005 -0.03165047 -0.20330891 -0.09081206 0.015976995 -0.1646718
-0.26854795 0.02691714 -0.21423359 -0.111775085 -0.21642789 0.17886509 -0.12021043 -0.23872763
-0.05885559 -0.06278647 0.022258738 -0.11373588 -0.018904507 -0.029793747 0.03080188 -0.21762766
-0.23521943 -0.11028998 -0.33825868 -0.39796564 -0.083170496 0.20065716 -0.18417948 -0.07547621
0.036023732 -0.28881282 0.054344922 -0.32214615 -0.32744825 -0.11672505 -0.35886917 -0.085019864
-0.003339627 -0.23469667 -0.08875137 -0.083690695 -0.08656874 -0.08584782 0.046349052 0.04435273
-0.13955563 0.09241778 -0.2891935 -0.35067907
00000000: 686a bd3c b89b d6bd 6725 e2bd 4b43 64be
00000010: 1077 32be 2d2a 28be 00ab 99be 4686 45bd
00000020: ea46 af3c 1bed 3dbd b368 52be 3a9f 9fbe
00000030: 21f9 c1bd b98e f33c a6c7 1fbe 76d6 ebbe
00000040: a6ca 96bd 84ae 77bd dfe7 523d 64da d8bd
00000050: f06c 08bd 6869 1dbe b090 97be 5e67 acbc
00000060: a3f8 eebd 3c46 2dbe 31c1 bcbd a8db 51be
00000070: 589a 8bbd 1a64 e53d fc56 7bbd 9479 f0be
00000080: 26a2 30bd ef6e dbbd 1857 a93d 98bc 06be
00000090: d093 f0bd 5fcc ddbd 50ec 06be 99ff b3be
000000a0: 975f 80be 96ed 4cbe 2bd0 86bd 3bd7 0ebe
000000b0: 832b 74bd f384 dcbd 8ea8 04be 74f9 30be
000000c0: 2a6f dfbc e665 94be 48c1 84be 92cd c7be
000000d0: 8bba a0be de58 2e3c fa91 d6bd ccd7 a6be
000000e0: ad69 183e b42c 1ebe fdae c8be eca3 01bd
000000f0: 3630 50be acfb b9bd 30e2 823c b99f 28be
00000100: 1e7f 89be 5681 dc3c 0d60 5bbe 56ea e4bd
00000110: 469f 5dbe 6928 373e e330 f6bd 0475 74be
00000120: 8f12 71bd 3196 80bd f557 b63c 5bee e8bd
00000130: a0dd 9abc 0412 f4bc 3954 fc3c c9d9 5ebe
00000140: 5ddd 70be b7df e1bd 3e30 adbe 27c2 cbbe
00000150: 4b55 aabd 1279 4d3e 8c99 3cbe 4593 9abd
00000160: 9f8d 133d 46df 93be c898 5e3d 57f0 a4be
00000170: 4ca7 a7be 8b0d efbd b3bd b7be e51e aebd
00000180: a5dd 5abb 5354 70be 47c3 b5bd 0766 abbd
00000190: f44a b1bd fbd0 afbd 81d8 3d3d 35ab 353d
000001a0: ace7 0ebe 8845 bd3d 2c11 94be 358c b3be

network_body._body_endoder.fc.weight f4 [64, 108]
0.07815147 0.027862953 0.003629325 -0.30209807 0.12570024 -0.31895533 -0.3007139 -0.21229346
-0.20735651 0.24570668 -0.039853286 0.03652576 -0.035315998 -0.35164264 -0.13297056 0.3467643
0.3590394 0.048362877 -0.3629882 -0.20118876 0.0066202637 0.16382472 0.23699492 -0.12755473
-0.09820683 -0.057902675 -0.2103628 0.52083206 -0.22989571 0.044946782 -0.24856277 -0.103268705
0.39611205 0.15822875 0.092317946 -0.15657134 0.32077414 0.1633853 -0.3082603 -0.43009904
0.30437306 -0.20968913 -0.30982804 0.20667568 -0.014223035 0.052533325 0.37609696 -0.08942028
-0.002357612 -0.0128449 -0.61149156 -0.049664073 -0.33690855 -0.36475086 0.10157667 0.13538499
0.35641587 -0.16365714 0.274961 -0.2607055 0.11738689 -0.2007443 -0.15248084 0.12498839
-0.52009904 0.07752642 -0.05028622 -0.15361705 0.08149753 0.03369729 0.18911716 0.2624834
-0.12934844 -0.3194372 -0.0703382 -0.09724549 0.004461813 0.062695056 0.08257023 0.16738816
0.18051432 0.00417426 0.46217835 0.041867103 0.2971318 0.22259608 0.22262748 0.096142665
0.04688561 -0.19253016 0.06822978 0.17311311 -0.27845833 -0.12916753 0.07048268 0.13416971
0.32170588 -0.13788828 0.06692197 -0.22922914 0.21216416 -0.17188896 -0.043414827 -0.10622578
-0.08113594 -0.12298411 0.06976085 0.3732896 0.008656195 -0.22397478 -0.014608046 0.21983828
-0.12070399 -0.028326724 0.30152988 -0.0049845385 -0.018870909 -0.017017914 -0.16331825 0.05141688
-0.17534202 -0.05437411 -0.37528503 0.097352736 0.026526947 -0.40919128 -0.13807446 -0.029892592
-0.34750506 0.08234681 -0.2114871 -0.5478692 -0.07281776 0.089633055 -0.3129493 0.26275063
-0.1183354 -0.16973972 -0.45429868 0.31489 -0.1351431 -0.0065637366 -0.23949262 0.23461872
-0.37735417 0.011271522 -0.11478486 0.43760288 -0.054076713 0.35088363 -0.1655643 -0.09513511
-0.23124716 -0.1560473 -0.1380354 0.037499677 0.01462252 0.19603774 0.096116014 -0.25973254
0.085426554 -0.0994077 -0.24902357 0.1867129 -0.25159684 -0.113320604 -0.06414475 -0.21614152
0.13556938 -0.28099662 -0.029072303 0.13265683 0.22453001 -0.15943803 0.034778774 -0.346404
0.2130945 -0.21404213 -0.08151345 -0.04660075 -0.030950047 0.123546846 0.049638867 -0.23077565
-0.11195556 -0.20305079 -0.11209904 -0.031779334 0.20043997 0.28098798 0.39196277 -0.06542174
-0.19907156 -0.38503844 -0.30315644 -0.15584792 -0.40913233 0.15364534 -0.2634524 0.15284894
0.29060194 -0.003224156 0.1447197 -0.15334353 -0.04675528 -0.09895316 -0.31133634 -0.05615993
-0.0112237055 0.038314745 -0.0803071 -0.22351855 -0.12088784 -0.39235017 0.11658455 0.3093421
-0.31390372 0.36129197 0.05037356 0.11953503 -0.26346558 -0.03517499 -0.04572078 -0.01686484
-0.30219334 0.19473918 0.056678325 0.107264444 -0.35419747 -0.17629078 -0.16111195 0.013023117
-0.67012554 -0.16859342 0.056395214 0.27696776 0.0707127 0.44429162 -0.20625678 -0.03215588
-0.19333462 0.4244335 -0.43440297 -0.020518305 -0.38403058 -0.08696271 0.14786138 0.14052758
-0.14598615 0.12085562 -0.014895615 0.26805967 -0.11277068 0.39173684 0.25230044 0.18100525
00000000: e10d a03d d940 e43c f8d9 6d3b 99ac 9abe
00000010: 90b7 003e 1d4e a3be 2cf7 99be 7563 59be
00000020: 4455 54be 889a 7b3e 333d 23bd 099c 153d
00000030: 82a7 10bd 810a b4be 6f29 08be 178b b13e
00000040: 03d4 b73e 2718 463d 97d9 b9be 6d04 4ebe
00000050: ccee d83b abc1 273e ccae 723e b59d 02be
00000060: aa20 c9bd 5b2b 6dbd 5969 57be 4055 053f
00000070: c869 6bbe 1e1a 383d 3d87 7ebe 8b7e d3bd
00000080: 33cf ca3e b806 223e 3111 bd3d 3d54 20be
00000090: 823c a43e 7a4e 273e 4bd4 9dbe f135 dcbe
000000a0: c9d6 9b3e bfb8 56be c8a1 9ebe caa2 533e
000000b0: bc07 69bc 2f2d 573d c88f c03e fb21 b7bd
000000c0: 2a82 1abb 6a73 52bc b68a 1cbf 8e6c 4bbd
000000d0: 477f acbe a0c0 babe 6e07 d03d 5da2 0a3e
000000e0: 247c b63e bd95 27be b0c7 8c3e 317b 85be
000000f0: 8a68 f03d ea8f 4dbe f023 1cbe eaf9 ff3d
00000100: 3625 05bf 2cc6 9e3d ecf8 4dbd ca4d 1dbe
00000110: 2de8 a63d 2b06 0a3d eea7 413e 3964 863e
00000120: eb73 04be 468d a3be 790d 90bd a528 c7bd
00000130: 6634 923b 4466 803d 951a a93d cd67 2b3e
00000140: bfd8 383e 3bc8 883b a4a2 ec3e d77c 2b3d
00000150: a921 983e 3af0 633e 75f8 633e 72e6 c43d
00000160: 200b 403d a026 45be 0ebc 8b3d 9044 313e
00000170: 1792 8ebe 7e44 04be 3959 903d c963 093e
00000180: a2b6 a43e 9632 0dbe 630e 893d 0bbb 6abe
00000190: 9041 593e a903 30be bfd3 31bd e78c d9bd
000001a0: 9a2a a6bd 18df fbbd c7de 8e3d d01f bf3e
000001b0: b7d2 0d3c a559 65be 9656 6fbc 491d 613e
000001c0: a733 f7bd 720d e8bc 2062 9a3e 5755 a3bb
000001d0: 2a97 9abc 2769 8bbc e63c 27be 829a 523d
000001e0: dc8c 33be 63b7 5ebd 5c25 c0be df60 c73d
000001f0: 0a4f d93c 8581 d1be 6463 0dbe 4fe1 f4bc
00000200: 2fec b1be 72a5 a83d 1390 58be 2841 0cbf
00000210: 7a21 95bd 8991 b73d e43a a0be 4087 863e
00000220: d559 f2bd 40d0 2dbe d699 e8be 4339 a13e
00000230: f462 0abe 9d14 d7bb 8e3d 75be e43f 703e
00000240: 9134 c1be 31ac 383c 5314 ebbd 7c0d e03e
00000250: 8b7f 5dbd 05a7 b33e b089 29be 32d6 c2bd
00000260: 0ecc 6cbe ddca 1fbe 2759 0dbe 4399 193d
00000270: 4b93 6f3c 1ebe 483e 79d8 c43d aafb 84be
00000280: 1ef4 ae3d 4496 cbbd 0900 7fbe ab31 3f3e
00000290: 4dd1 80be a214 e8bd 535e 83bd 3454 5dbe
000002a0: b3d2 0a3e cade 8fbe 0a29 eebc 31d7 073e
000002b0: 32eb 653e b943 23be 3074 0e3d dd5b b1be
000002c0: 7235 5a3e dc2d 5bbe 86f0 a6bd 6ee0 3ebd
000002d0: f48a fdbc 2106 fd3d 2052 4b3d 7450 6cbe
000002e0: f548 e5bd 8cec 4fbe 2e94 e5bd 0c2b 02bd
000002f0: 2340 4d3e a8dd 8f3e 58af c83e d5fb 85bd
00000300: 6ad9 4bbe c223 c5be 5237 9bbe 9996 1fbe
00000310: cb79 d1be 3455 1d3e 3ce3 86be 6f84 1c3e
00000320: c7c9 943e 5d4c 53bb 6731 143e 1606 1dbe
00000330: 7782 3fbd f4a7 cabd 7a67 9fbe f407 66bd
00000340: a2e3 37bc ecef 1c3d 0d78 a4bd 0ce2 64be
00000350: 0b94 f7bd 1fe2 c8be e1c3 ee3d 1662 9e3e
00000360: fdb7 a0be 43fb b83e 8254 4e3d c8ce f43d
00000370: f6e4 86be a613 10bd b645 3bbd 2228 8abc
00000380: 16b9 9abe b569 473e 8827 683d 76ad db3d
00000390: 5f59 b5be 9285 34be 88fa 24be e95e 553c
000003a0: 598d 2bbf c1a3 2cbe abfe 663d b8ce 8d3e
000003b0: d2d1 903d 317a e33e fa34 53be e2b5 03bd
000003c0: 83f9 45be 594f d93e 116a debe 0116 a8bc
000003d0: a89f c4be 8119 b2bd f968 173e 76e6 0f3e
000003e0: 657d 15be 2783 f73d bd0c 74bc 1e3f 893e
000003f0: 50f4 e6bd bb91 c83e 862d 813e 7159 393e

network_body._body_endoder.fc.bias f4 [64]
0.004186182 -0.28016642 -0.022901323 -0.004984136 0.1681267 -0.05372677 -0.022779224 -0.059344567
-0.070750125 0.1812837 -0.29768082 -0.17558473 0.15810189 0.09011465 -0.17493321 -0.101427905
-0.03092668 0.03784212 0.067990564 0.0520133 -0.24800698 -0.066086166 0.060197797 -0.066250704
0.12254366 -0.05654294 0.19591524 -0.07335425 0.022214776 0.0025728445 0.18142284 -0.1364261
0.009360231 -0.06593592 0.07680714 0.16710359 0.048561778 -0.058211025 -0.09374506 0.085309036
0.01666174 -0.068666786 -0.013758775 -0.0014817215 0.045098525 -0.1297909 -0.15203227 -0.20285356
-0.10509746 0.04770324 -0.13734965 -0.007908523 0.081470594 -0.18596439 -0.06381346 -0.10739697
0.09398557 -0.10095236 -0.030946957 0.03687943 -0.12441877 0.1694588 -0.06799781 -0.040707115
00000000: 3d2c 893b f971 8fbe 8e9b bbbc f751 a3bb
00000010: 6829 2c3e 9a10 5cbd 7f9b babc 4a13 73bd
00000020: 71e5 90bd 6fa2 393e 9f69 98be 7ccc 33be
00000030: 76e5 213e 088e b83d b121 33be 6fb9 cfbd
00000040: f359 fdbc 5700 1b3d a33e 8b3d e60b 553d
00000050: 8bf5 7dbe 2f58 87bd f791 763d 73ae 87bd
00000060: 2cf8 fa3d 9299 67bd 019e 483e c13a 96bd
00000070: c3fb b53c 2b9d 283b e9c6 393e 49b3 0bbe
00000080: a85b 193c 6909 87bd 104d 9d3d 341d 2b3e
00000090: b7e8 463d af6e 6ebd 69fd bfbd 81b6 ae3d
000000a0: 347e 883c 2ca1 8cbd 7c6c 61bc 5336 c2ba
000000b0: 3bb9 383d e8e7 04be 59ae 1bbe d8b8 4fbe
000000c0: 563d d7bd 7964 433d 63a5 0cbe c092 01bc
000000d0: 0eda a63d 736d 3ebe a2b0 82bd f1f2 dbbd
000000e0: 827b c03d 1cc0 cebd 7984 fdbc e30e 173d
000000f0: 45cf febd 9c86 2d3e 7042 8bbd 81bc 26bd

action_model._continuous_distribution.log_sigma f4 [1, 2]
1.5619832 1.5273004
00000000: 11ef c73f 947e c33f

action_model._continuous_distribution.mu.weight f4 [2, 64]
-0.07347947 0.038386844 0.15160571 -0.03603571 -0.110260524 0.026317077 0.014427362 0.083058126
-0.02075313 0.026151525 -0.029495358 -0.072858505 -0.061846845 0.07882983 -0.001752072 -0.049981225
-0.036730547 0.06899801 0.037520178 -0.061953798 -0.06972844 0.08106093 0.09644406 -0.08865189
-0.12724443 -0.07430895 0.08361318 0.020920254 0.06877535 0.02699001 0.08380243 0.04767148
0.07038854 0.011556005 -0.070678 0.07247501 0.063262165 0.09511147 0.12580569 -0.021775799
-0.01676209 0.08183213 0.1592265 -0.083645485 -0.14642012 0.057060126 -0.0011741761 -0.024114776
0.10611912 0.008407252 0.14004727 -0.14777474 0.0523331 0.026463851 -0.110022925 -0.003482321
-0.1473195 0.02491898 0.04646422 -0.1846565 -0.086272284 -0.028808372 0.035658494 0.07586051
-0.048782285 -0.18617868 -0.012810332 -0.03795017 0.09580949 -0.051181275 -0.044331186 -0.047828563
-0.10012693 0.14749661 -0.1579032 -0.12706503 0.10444053 0.068132676 -0.087891884 -0.08585777
-0.06445048 0.096075736 0.06500809 0.07301461 -0.1605266 0.018601988 0.05480626 -0.05117358
-0.041538388 -0.066249505 0.14313221 -0.13058926 0.090134285 -0.10747224 0.06950338 -0.061831117
0.093230605 -0.0831105 0.06940621 0.110579744 0.13863912 -0.0685027 -0.08957115 0.05893444
-0.08603501 0.05030368 -0.08555875 -0.0926999 0.099560685 -0.09630593 -0.12730826 -0.16776943
-0.08879326 0.07417138 0.009160636 0.0011410146 0.1617456 -0.13511439 0.0028636844 -0.076724514
0.10136341 -0.018162215 0.14093336 0.05755649 -0.08582517 0.12730944 -0.05306918 -0.072034754
00000000: 687c 96bd 863b 1d3d 873e 1b3e 2e9a 13bd
00000010: 45d0 e1bd e996 d73c be60 6c3c 611a aa3d
00000020: 7802 aabc b93b d63c 40a0 f1bc d736 95bd
00000030: 1e53 7dbd 8971 a13d c8a5 e5ba 1db9 4cbd
00000040: c572 16bd d44e 8d3d c2ae 193d 44c3 7dbd
00000050: c9cd 8ebd 4603 a63d 7784 c53d 1f8f b5bd
00000060: 5d4c 02be 4a2f 98bd 633d ab3d f460 ab3c
00000070: 17da 8c3d 271a dd3c 9ca0 ab3d 2b43 433d
00000080: de27 903d 6655 3d3c a1bf 90bd c76d 943d
00000090: 988f 813d cdc9 c23d 35d3 003e 2963 b2bc
000000a0: a750 89bc 9b97 a73d 460c 233e 534e abbd
000000b0: 28ef 15be e1b7 693d d0e6 99ba 5a8c c5bc
000000c0: fb54 d93d 92be 093c 8d68 0f3e 4352 17be
000000d0: 3c5b 563d b8ca d83c b353 e1bd a737 64bb
000000e0: ecda 16be e422 cc3c 4451 3e3d 9816 3dbe
000000f0: 86af b0bd 89ff ebbc a40e 123d c15c 9b3d
00000100: efcf 47bd a0a5 3ebe 6de2 51bc a371 1bbd
00000110: c437 c43d 75a3 51bd 9e94 35bd e2e7 43bd
00000120: 590f cdbd 5a09 173e 60b1 21be 561d 02be
00000130: ebe4 d53d 2589 8b3d a900 b4bd 33d6 afbd
00000140: 9dfe 83bd 5bc3 c43d f622 853d af88 953d
00000150: 1661 24be 3263 983c 877c 603d 639b 51bd
00000160: 2824 2abd d2ad 87bd 4091 123e 31b9 05be
00000170: 5398 b83d 681a dcbd ca57 8e3d a042 7dbd
00000180: b0ef be3d d635 aabd d824 8e3d a277 e23d
00000190: 6af7 0d3e 254b 8cbd 1471 b7bd 3d65 713d
000001a0: 2033 b0bd 3b0b 4e3d 6d39 afbd 72d9 bdbd
000001b0: 79e6 cb3d 0b3c c5bd 195d 02be c0cb 2bbe
000001c0: 3ed9 b5bd 2ae7 973d 7e16 163c 198e 953a
000001d0: a3a0 253e 6d5b 0abe a7ac 3b3b be21 9dbd
000001e0: 9f97 cf3d edc8 94bc d650 103e 5bc0 6b3d
000001f0: 1bc5 afbd 685d 023e 125f 59bd f586 93bd

action_model._continuous_distribution.mu.bias f4 [2]
0.08195856 0.117006324
00000000: e4d9 a73d 03a1 ef3d

action_model._discrete_distribution.branches.0.weight f4 [1, 64]
-0.026943037 0.011987352 0.025070697 0.008638771 -0.004041435 0.0062221633 -0.026063368 0.0050483593
0.0010366582 -0.027543196 -0.025907112 -0.012338053 -0.006796016 -0.011412392 0.018414145 -0.0076583545
-0.011605709 -0.021237973 -0.012606344 -0.022002729 0.0013551173 0.0076048984 0.015192734 0.0025619136
0.02468419 0.00628519 0.007873076 0.013257316 -0.037621703 -0.0048056236 0.039633315 0.014764837
0.003387794 -0.0010126053 -0.019729314 0.012080769 0.019978954 0.0066074706 -0.0064116083 0.0053340285
0.020627892 -0.009075559 -0.010212376 1.053955e-05 -0.0016585793 -0.014886032 -0.01772478 -0.019395806
0.014898657 -0.009138239 -0.002033439 0.0026352669 -0.007592631 -0.012730435 -0.008026559 0.00046430272
-0.0019975905 -0.00046968303 -0.022935338 0.011243656 -0.012759482 0.007647373 -0.004014733 -0.005024555
00000000: a5b7 dcbc 9966 443c 1061 cd3c a289 0d3c
00000010: 046e 84bb 4ae3 cb3b d882 d5bc b56c a53b
00000020: 7ae0 873a 45a2 e1bc 273b d4bc 8c25 4abc
00000030: 1db1 debb 0bfb 3abc 43d9 963c eff2 fabb
00000040: df25 3ebc 42fb adbc d78a 4ebc 113f b4bc
00000050: 319e b13a 8332 f93b f2ea 783c c7e5 273b
00000060: 8036 ca3c fff3 cd3b 13fe 003c 3735 593c
00000070: 3719 1abd 7e78 9dbb 8b56 223d 37e8 713c
00000080: c005 5e3b 65b9 84ba 5f9f a1bc 6bee 453c
00000090: e7aa a33c 7b83 d83b 7818 d2bb 13c9 ae3b
000000a0: d3fb a83c a7b1 14bc cf51 27bc 06d3 3037
000000b0: b064 d9ba 8be4 73bc 8f33 91bc f4e3 9ebc
000000c0: 7f19 743c 8db8 15bc 7243 05bb 71b4 2c3b
000000d0: 9bcb f8bb 5093 50bc d481 03bc a86d f339
000000e0: 02ea 02bb ca3f f6b9 e4e2 bbbc 5037 383c
000000f0: 250d 51bc d096 fa3b 058e 83bb 06a5 a4bb

onnx::MatMul_196 f4 [54, 54]
0.1652141 -0.046847865 0.03659653 -0.19563937 -0.07740659 -0.006047314 -0.21421582 0.08784789
0.1689854 0.09590063 0.052811433 0.18452084 0.14131144 -0.119197294 -0.23254007 0.13763587
-0.052453354 -0.038223118 -0.009921396 -0.23550339 -0.21994132 0.19940056 -0.006918096 -0.018660193
-0.22671483 0.19178839 0.075787455 0.0060376767 0.06441042 0.16697933 -0.13176069 0.22890249
-0.16433181 0.16769801 -0.03948081 -0.15796952 0.21754056 0.20672181 0.0892951 -0.010573464
0.22737117 0.19731244 -0.11824007 -0.014200664 -0.10939306 0.025501737 0.07957294 0.02220577
-0.104841225 -0.17305072 -0.02315236 0.02422629 -0.016969824 -0.1265135 -0.083741225 -0.15948638
-0.21479934 0.21166465 -0.13056391 -0.0019979572 -0.10799495 0.039917786 -0.0831948 -0.0038767655
8.019141e-05 0.13095476 -0.225908 -0.17265223 0.11231722 0.01716318 -0.0129925385 -0.15166944
-0.001554432 0.07544376 -0.20508385 -0.075876266 0.13287608 0.18648162 0.12695718 -0.1205405
0.16739428 -0.21997818 0.1996891 0.008253084 -0.14275096 -0.0905654 0.20404708 -0.03316495
-0.02254633 -0.1284391 0.16275947 0.07416542 0.18200442 0.09938106 0.034637067 0.19478627
-0.051446676 -0.050610904 -0.19317053 0.011495356 0.14481309 0.13333355 0.1212641 -0.033190403
-0.2318665 0.062392592 0.20251286 0.057978302 -0.14540431 0.06838984 0.03242273 -0.10390211
-0.14266422 0.04493551 -0.11338077 -0.0019540263 -0.10720621 -0.097346 0.12353727 -0.17619807
0.15110314 0.023716453 -0.20498183 0.11447598 -0.14735094 0.18852375 0.11361012 -0.001925535
-0.20597139 0.00096243736 0.15285926 -0.17933357 -0.13801783 0.20704831 -0.19974896 -0.17513716
0.22342362 -0.08118233 0.19478054 -0.21166186 -0.16589034 -0.17514864 -0.13690862 -0.03884144
-0.22224031 -0.08405653 0.105280384 0.048281856 -0.041526094 -0.06949662 0.0961269 -0.066963516
-0.08303507 -0.06067112 0.15421164 0.118026346 -0.15489556 0.0632282 0.14248644 -0.22338466
0.11969351 0.2011471 -0.12204278 -0.09837104 -0.03792782 -0.21955101 0.19949913 0.029458202
0.17541212 -0.12343335 0.19533817 0.11400529 0.03469402 -0.10960843 -0.06248644 0.035743114
0.2307555 0.09877333 -0.22767399 0.047584016 -0.17753142 0.052634276 0.03824762 -0.19103974
0.0036766382 -0.023448033 0.038087375 -0.19959034 0.17195518 -0.09700714 -0.16018802 -0.12962453
0.18751875 0.069932945 0.1363969 0.034730352 0.094013326 0.14844559 -0.05682102 -0.21591973
0.1846782 0.2280386 0.04265736 -0.049296178 -0.21445653 -0.20391002 0.09174231 0.13566633
0.10895991 0.2233744 -0.13161889 0.1651406 -0.095009565 0.19311476 -0.07370676 0.16325256
0.13607138 -0.21646367 -0.11633771 0.17481977 0.12104999 0.20334773 0.0447377 -0.15399809
-0.16749893 -0.0040774406 -0.19527328 -0.018655432 -0.039516676 0.06905519 -0.15301698 -0.02781841
-0.1338023 0.11967907 -0.004233286 -0.12059826 0.10420867 -0.22577348 0.21873416 -0.1200039
0.06440255 0.16219206 -0.06726397 0.21294565 -0.12994759 -0.22230764 0.21743396 -0.120461516
-0.20074204 0.1674587 -0.0835397 -0.013556478 0.03911545 0.16658972 -0.17325911 -0.04094818
00000000: e32d 293e 8ce3 3fbd 3ee6 153d b055 48be
00000010: 5987 9ebd 8c28 c6bb 645b 5bbe 98e9 b33d
00000020: 820a 2d3e 8d67 c43d cd50 583d 08f3 3c3e
00000030: f2b3 103e b61d f4bd fc1e 6ebe 6bf0 0c3e
00000040: 54d9 56bd d88f 1cbd 5a8d 22bc cd27 71be
00000050: 4c38 61be a92f 4c3e 32b1 e2bb 43dd 98bc
00000060: ef27 68be 2d64 443e 7436 9b3d b4d7 c53b
00000070: 9ce9 833d a1fc 2a3e 46ec 06be 6a65 6a3e
00000080: 9946 28be 07b9 2b3e a1b6 21bd c3c2 21be
00000090: f4c2 5e3e e2ae 533e 59e0 b63d 533c 2dbc
000000a0: fdd3 683e 460c 4a3e da27 f2bd e7a9 68bc
000000b0: 7809 e0bd 05e9 d03c 23f7 a23d e0e8 b53c
000000c0: ffb6 d6bd 3534 31be 05aa bdbc 3676 c63c
000000d0: 4d04 8bbc c18c 01be 8580 abbd 6650 23be
000000e0: 5cf4 5bbe 9ebe 583e 8cb2 05be 29f0 02bb
000000f0: 752c ddbd d580 233d 0962 aabd 5511 7ebb
00000100: 6f2c a838 0119 063e 6d54 67be bfcb 30be
00000110: 9206 e63d cc99 8c3c a8de 54bc 3c4f 1bbe
00000120: 15be cbba 4282 9a3d 8001 52be 0465 9bbd
00000130: ab10 083e 0af5 3e3e 1001 023e f0dd f6bd
00000140: 6869 2b3e f641 61be 4d7b 4c3e f137 073c
00000150: 4f2d 12be 5a7a b9bd b8f1 503e f8d7 07bd
00000160: 15b3 b8bc 8a85 03be 6baa 263e 0ae4 973d
00000170: 5e5f 3a3e 4c88 cb3d 99df 0d3d 0d76 473e
00000180: c0b9 52bd 614d 4fbd 7fce 45be 0557 3c3c
00000190: e249 143e 9788 083e 5059 f83d a9f2 07bd
000001a0: 696e 6dbe 608f 7f3d 885f 4f3e a87a 6d3d
000001b0: dee4 14be f90f 8c3d b2cd 043d a1ca d4bd
000001c0: 9216 12be 4c0e 383d 2d34 e8bd 1f0f 00bb
000001d0: ee8e dbbd 575d c7bd 1c01 fd3d 446d 34be
000001e0: c8ba 1a3e 0249 c23c c2e6 51be 6272 ea3d
000001f0: 2ae3 16be 5f0c 413e 6cac e83d 3c62 fcba
00000200: 2aea 52be 144c 7c3a 2387 1c3e 38a3 37be
00000210: 8c54 0dbe 7904 543e fe8a 4cbe 2857 33be
00000220: 29c9 643e ec42 a6bd 8d74 473e e3bd 58be
00000230: 28df 29be 2a5a 33be c631 0cbe 3418 1fbd
00000240: f792 63be d425 acbd 3e9d d73d 32c3 453d
00000250: 4417 2abd 3e54 8ebd 2ede c43d 2b24 89bd
00000260: 4a0e aabd 4882 78bd a8e9 1d3e ccb7 f13d
00000270: f19c 1ebe c97d 813d f7e7 113e f3be 64be
00000280: df21 f53d 81f9 4d3e 91f1 f9bd c176 c9bd
00000290: 345a 1bbd fbd1 60be 8049 4c3e 5452 f13c
000002a0: 3c9f 333e a0ca fcbd bb06 483e 9b7b e93d
000002b0: 511b 0e3d 627a e0bd c8f1 7fbd 5f67 123d
000002c0: 2b4b 6c3e ac49 ca3d 5f23 69be 75e7 423d
000002d0: ccca 35be 0a97 573d 89a9 1c3d ec9f 43be
000002e0: c1f3 703b 1716 c0bc 8201 1c3d 6961 4cbe
000002f0: 0515 303e aeab c6bd 5408 24be 4bbc 04be
00000300: ea04 403e 0139 8f3d a1ab 0b3e 6a41 0e3d
00000310: 0f8a c03d 1f02 183e 28bd 68bd 101a 5dbe
00000320: 481c 3d3e f382 693e 7cb9 2e3d caea 49bd
00000330: 7e9a 5bbe cacd 50be 64e3 bb3d 1dec 0a3e
00000340: 6026 df3d 42bc 643e 1ac7 06be 9e1a 293e
00000350: 6094 c2bd e0bf 453e 92f3 96bd ae2b 273e
00000360: 4c56 0b3e a7a8 5dbe 7742 eebd f403 333e
00000370: 0fe9 f73d 633a 503e e13e 373d adb1 1dbe
00000380: d784 2bbe 0d9c 85bb b8f5 47be 47d3 98bc
00000390: 3ddc 21bd cf6c 8d3d 7cb0 1cbe 6fe3 e3bc
000003a0: 7803 09be 4d1a f53d 60b7 8abb 38fc f6bd
000003b0: 5b6b d53d 2a31 67be d9fb 5f3e 9bc4 f5bd
000003c0: 7ce5 833d ad15 263e b1c1 89bd 6d0e 5a3e
000003d0: fb10 05be 9da4 63be 02a7 5e3e 87b4 f6bd
000003e0: 528f 4dbe 4b7a 2b3e dd16 abbd fd1b 5ebc
000003f0: 8637 203d 7f96 2a3e d66a 31be 47b9 27bd

onnx::MatMul_206 f4 [54, 54]
0.09901331 0.10882912 0.14906529 0.12955849 0.09884849 0.21030752 -0.11763222 -0.034041673
-0.18150394 -0.22570625 -0.057250284 -0.21544753 -0.22755508 0.11337053 -0.060542613 -0.07769269
-0.14396921 -0.0874293 0.20250988 0.10810998 -0.12397562 0.17724793 -0.17723542 0.20144932
0.16152757 0.07205265 -0.21896423 0.007976179 -0.12300403 -0.117583245 0.20220909 -0.124475
-0.21740837 -0.18207645 0.053272635 -0.13646045 0.23425673 -0.0581647 0.072571196 -0.12301258
0.08708061 0.0020046164 0.015736565 0.14897127 -0.23151296 0.1778708 0.020987192 -0.10675205
-0.21127707 -0.23525147 -0.084863394 -0.067929745 0.1649333 -0.07414591 0.14777073 0.22740428
0.17522217 -0.017617691 -0.033171833 0.0939995 0.111954704 0.20975427 -0.096010365 -0.071989514
0.11058117 -0.18498872 0.020668983 0.09612589 -0.19315729 0.17043927 -0.09759828 0.10428181
-0.18230128 0.19174705 -0.013342147 -0.078743085 0.21172498 0.08893041 0.13423572 0.18951418
0.13512294 -0.20532118 0.07334799 0.044589963 -0.09767525 -0.22444077 -0.22927746 0.11527469
0.0130016 0.031319715 0.025506515 0.025967741 -0.14030613 -0.093414724 -0.21091068 0.13086936
-0.16871291 -0.09723229 0.04960552 0.15337469 -0.08587888 -0.20483926 -0.027558448 -0.001984906
-0.19633955 -0.069406584 -0.18363835 -0.037529003 0.16770563 -0.094965726 0.014983513 0.07344288
0.074857466 0.15928075 -0.018949602 -0.064714156 0.07930809 -0.035550658 -0.052305013 -0.054534424
-0.018765701 0.13449739 -0.09304926 -0.017180236 -0.16519701 0.005478472 -0.019872604 0.07828811
0.059478786 -0.22423868 -0.09672084 0.045024242 -0.07329458 -0.073544666 -0.1087 -0.12211488
-0.06860749 -0.23356058 0.17572224 0.23229362 0.08598606 0.1580871 -0.20081925 0.16731144
0.087841675 0.07628973 0.13630338 -0.026235921 0.0045180297 0.007859038 -0.08862606 -0.21485396
-0.09901636 -0.22695465 -0.19798797 -0.16619444 0.106582634 -0.18804117 -0.11545718 0.014993095
-0.03913866 0.0939131 0.17294583 0.03750072 0.044084255 -0.054385703 -0.0013787779 -0.012663288
-0.23491961 0.2158042 0.07961638 0.18614653 -0.2091466 -0.08111595 0.027886603 -0.05355805
0.055663932 0.13676734 -0.086959764 0.0994805 -0.12681912 0.019054113 0.055918165 0.20454374
-0.1336451 -0.22328076 0.0946235 0.14114429 0.10955003 -0.21258678 -0.04630559 -0.1837708
-0.16327977 0.19269902 -0.1714799 0.23228572 0.07649392 0.1115073 0.14366835 -0.20237999
0.012959818 0.0805852 0.114350975 0.19096828 0.060987193 -0.06848829 -0.08902103 -0.045976438
-0.21135212 0.06583372 0.019975526 -0.07735204 0.07921382 0.02595667 -0.075323895 0.21167366
0.12496802 -0.095130004 0.08642012 0.22469112 -0.07220747 0.214083 -0.09591184 -0.10949302
-0.14095578 0.027698515 0.18229543 0.18820979 0.184854 -0.060808927 -0.046448905 -0.1569918
0.10838323 -0.20556714 0.010687513 -0.12826918 -0.09633352 0.032516826 0.15545022 0.1897992
0.20582259 0.13594387 -0.05619112 -0.009866689 -0.15400663 -0.1648875 -0.047078144 0.110070065
-0.09171938 0.0061887307 -0.15614171 0.028313719 -0.012118245 -0.17192566 -0.1225196 -0.031007113
00000000: 7ec7 ca3d cde1 de3d 92a4 183e fbaa 043e
00000010: 1471 ca3d db5a 573e 29e9 f0bd 486f 0bbd
00000020: 2bdc 39be 8a1f 67be 467f 6abd 479e 5cbe
00000030: 3304 69be cf2e e83d 88fb 77bd 581d 9fbd
00000040: aa6c 13be 220e b3bd c05e 4f3e c468 dd3d
00000050: eee6 fdbd 7b80 353e 347d 35be bb48 4e3e
00000060: 7c67 253e 5790 933d 2938 60be 85ae 023c
00000070: 89e9 fbbd 7ccf f0bd e60f 4f3e c0ec febd
00000080: 4da0 5ebe 4072 3abe 6834 5a3d 4abc 0bbe
00000090: ffe0 6f3e 1c3e 6ebd 35a0 943d 05ee fbbd
000000a0: 5257 b23d e25f 033b f8e9 803c ed8b 183e
000000b0: bc11 6dbe c323 363e 55ed ab3c d2a0 dabd
000000c0: 0459 58be c3e5 70be dccc adbd c01e 8bbd
000000d0: 46e4 283e d0d9 97bd 3651 173e abdc 683e
000000e0: 716d 333e fa52 90bc 30df 07bd cf82 c03d
000000f0: 8248 e53d d3c9 563e 15a1 c4bd 3d6f 93bd
00000100: 6178 e23d af6d 3dbe 0052 a93c a7dd c43d
00000110: 06cb 45be a287 2e3e 9be1 c7bd b491 d53d
00000120: 30ad 3abe 5759 443e 0599 5abc 0e44 a1bd
00000130: 6fce 583e 2621 b63d 1775 093e 0110 423e
00000140: ab5d 0a3e b73f 52be 7937 963d f7a3 363d
00000150: f609 c8bd cdd3 65be b6c7 6abe 2315 ec3d
00000160: aa04 553c 1a49 003d 0af3 d03c 4dba d43c
00000170: 69ac 0fbe 3850 bfbd f8f8 57be 9e02 063e
00000180: 14c3 2cbe b921 c7bd 282f 4b3d 410e 1d3e
00000190: 44e1 afbd 62c1 51be 41c2 e1bc 3215 02bb
000001a0: 3c0d 49be 0a25 8ebd b10b 3cbe 03b8 19bd
000001b0: 06bb 2b3e 647d c2bd 697d 753c 3869 963d
000001c0: df4e 993d 7e1a 233e 323c 9bbc db88 84bd
000001d0: 486c a23d 919d 11bd c83d 56bd 7d5f 5fbd
000001e0: 87ba 99bc afb9 093e 9c90 bebd 91bd 8cbc
000001f0: 6829 29be c184 b33b dfcb a2bc 8455 a03d
00000200: 07a0 733d d39e 65be 9315 c6bd 576b 383d
00000210: 781b 96bd 969e 96bd 1b9e debd 5e17 fabd
00000220: 1582 8cbd 812a 6fbe 88f0 333e 61de 6d3e
00000230: 7619 b03d 96e1 213e 90a3 4dbe b153 2b3e
00000240: 56e6 b33d ca3d 9c3d 1d93 0b3e b7ec d6bc
00000250: fb0b 943b 32c3 003c 9481 b5bd ad02 5cbe
00000260: 17c9 cabd cd66 68be 5cbd 4abe e02e 2abe
00000270: ff47 da3d dd8d 40be d074 ecbd 99a5 753c
00000280: dc4f 20bd 8355 c03d b618 313e 5b9a 193d
00000290: b191 343d 8bc3 5ebd 1cb8 b4ba ae79 4fbc
000002a0: c48e 70be c7fb 5c3e ea0d a33d 329d 3e3e
000002b0: 872a 56be 1f20 a6bd 7272 e43c b05f 5bbd
000002c0: ddff 633d bd0c 0c3e f617 b2bd 6fbc cb3d
000002d0: dfdc 01be 5f17 9c3c 720a 653d ea73 513e
000002e0: 43da 08be b6a3 64be f7c9 c13d 2188 103e
000002f0: c45b e03d 59b0 59be eeaa 3dbd 6a2e 3cbe
00000300: d032 27be e452 453e 6d98 2fbe 4fdc 6d3e
00000310: d8a8 9c3d f05d e43d cc1d 133e b33c 4fbe
00000320: 6b55 543c da09 a53d d830 ea3d 308d 433e
00000330: b5cd 793d 9743 8cbd a850 b6bd ca51 3cbd
00000340: b16c 58be d4d3 863d b7a3 a33c bf6a 9ebd
00000350: db3a a23d 15a3 d43c 6a43 9abd fbc0 583e
00000360: 3cef ff3d 85d3 c2bd 08fd b03d 6e15 663e
00000370: 83e1 93bd 9338 5b3e 6d6d c4bd e03d e0bd
00000380: b656 10be ffe7 e23c a7ab 3a3e 11ba 403e
00000390: 5e4a 3d3e c812 79bd 3541 3ebd 75c2 20be
000003a0: 07f8 dd3d 3180 52be ae1a 2f3c ff58 03be
000003b0: 824a c5bd 5d30 053d 582e 1f3e b95a 423e
000003c0: 28c3 523e df34 0b3e a928 66bd e5a7 21bc
000003d0: eab3 1dbe 45d8 28be 03d5 40bd 6a6c e13d
000003e0: 5fd7 bbbd d6ca ca3b 9de3 1fbe 2cf2 e73c
000003f0: 9a8b 46bc 480d 30be 8eeb fabd a102 febc

onnx::MatMul_207 f4 [54, 54]
-0.12958108 -0.014764514 0.013653949 -0.36971626 -0.32584393 -0.17520845 0.043868564 -0.15825592
-0.15781543 -1.3600063e-05 -0.35700953 0.052548707 0.19487427 -0.4435621 0.01772486 0.2172884
0.1615869 -0.20204978 0.0103517845 -0.16523004 -0.20044103 0.028416954 0.18097013 -0.2900805
-0.029820088 -0.093309745 -0.21492508 -0.13727954 0.09184836 -0.09743028 0.18461536 0.13042924
0.11746032 0.052348997 -0.12973371 0.23630102 0.28318864 -0.10669756 -0.12863554 0.13229164
-0.28745323 0.0044828057 0.0899749 0.24064314 -0.0040891087 -0.030454366 -0.23048055 0.00805073
0.15803847 0.34950373 0.20724277 -0.0026066522 -0.011746 0.19542074 -0.25171852 -0.06796881
-0.044898305 -0.29469767 -0.279806 -0.120435394 0.25783998 -0.201641 -0.27252597 -0.05060957
-0.017827008 -0.012930699 0.1063801 -0.39796165 0.025260335 -0.33049786 -0.28102258 0.046817143
0.12954248 0.021671303 0.11941508 0.22046076 0.036476266 0.090281785 0.18881519 -0.12565522
0.030611161 0.13039374 -0.028557014 0.19712569 0.2695846 -0.19086117 0.025691995 -0.034609932
-0.14422923 0.12835713 0.06697654 0.16454723 0.037876662 -0.099065125 0.08129159 0.007793752
0.1612425 0.11686193 -0.10527368 -0.10918363 -0.097907044 -0.08569617 -0.042377442 0.22034796
0.13883018 -0.041223217 -0.107272446 0.2013349 -0.28713992 -0.13655125 -0.03454795 -0.13966942
-0.42091477 -0.33657795 -0.06424644 -0.14973724 -0.06937609 0.11063905 0.015715389 0.08392836
0.34521812 0.030551927 -0.06302765 0.32182905 -0.13746925 -0.16416802 0.3084653 -0.3224295
-0.14687058 -0.19328408 0.028418241 -0.0707115 -0.07881197 0.21022947 -0.20663746 -0.14656466
-0.13595065 0.08345524 0.22297618 0.067670815 0.07425731 0.1327951 0.26026154 0.069720216
0.017848397 0.055394392 -0.06862922 0.23695667 0.046594176 0.061299413 0.07607559 -0.021242335
0.032302603 0.24493371 -0.16895671 0.19413006 -0.14824378 -0.079184465 -0.009062146 0.10116746
0.24568163 -0.25781983 -0.22123322 0.0020221684 -0.34337592 -0.11321888 -0.31271037 -0.18630733
-0.070712514 -0.13701425 -0.0567592 -0.13017358 -0.20961708 -0.07920773 0.093306705 -0.1925892
-0.09809217 -0.27222067 -0.20160386 -0.1676311 -0.066117324 0.03953873 0.20350994 -0.076342486
0.23450461 0.02679115 -0.016233189 0.11020513 0.0048740758 0.36246035 -0.061890855 0.15836518
0.2666974 -0.15989794 0.025342463 -0.21282323 0.14961118 -0.049913626 -0.14555664 0.01746587
-0.028406674 0.1019042 -0.25942308 0.004948647 0.17850198 -0.106409706 -0.027031638 0.13432948
-0.09754341 0.006634526 -0.15894295 0.141663 0.24215853 0.3753812 0.017615953 0.24343947
-0.15296547 -0.2643189 -0.12594572 -0.19679901 -0.43469378 -0.12602264 0.024425443 -0.057169516
0.021075737 0.2332942 -0.3025298 0.22432213 0.041938648 0.013856704 0.123489395 0.030415837
0.011594426 -0.3818745 0.014791638 0.15115808 -0.30336043 -0.09140378 -0.21518159 0.25472343
-0.0791465 -0.07607598 0.12628004 0.02510485 0.27758965 0.019144755 -0.05623088 -0.06743834
0.032390796 0.13358796 -0.24020803 -0.015602134 0.022188695 0.07919077 -0.13311702 0.3027859
00000000: e7b0 04be dce6 71bc d0b4 5f3c 734b bdbe
00000010: 04d5 a6be d869 33be 86af 333d d70d 22be
00000020: 5e9a 21be d32b 64b7 f4c9 b6be 503d 573d
00000030: 1f8d 473e 921a e3be ba33 913c da80 5e3e
00000040: 0977 253e 23e6 4ebe 889a 293c 1032 29be
00000050: 6a40 4dbe acca e83c 3c50 393e 6e85 94be
00000060: 4249 f4bc 2e19 bfbd 5215 5cbe 0293 0cbe
00000070: fe1a bc3d 8789 c7bd cf0b 3d3e 3e8f 053e
00000080: 098f f03d e76b 563d ead8 04be e5f8 713e
00000090: 1afe 903e 4084 dabd 09b9 03be 7677 073e
000000a0: 122d 93be 80e4 923b c344 b83d 286b 763e
000000b0: eefd 85bb 6f7b f9bc 1803 6cbe 36e7 033c
000000c0: d6d4 213e 27f2 b23e 7337 543e 5ed4 2abb
000000d0: 4b72 40bc 601c 483e 40e1 80be 3b33 8bbd
000000e0: 49e7 37bd 9de2 96be bb42 8fbe d5a6 f6bd
000000f0: 9a03 843e fa7a 4ebe 8688 8bbe fb4b 4fbd
00000100: f209 92bc 48db 53bc cfdd d93d a1c1 cbbe
00000110: c3ee ce3c 0437 a9be 31e2 8fbe 55c3 3f3d
00000120: c9a6 043e 0488 b13c e58f f43d 77c0 613e
00000130: 2368 153d a8e5 b83d c558 413e c3ab 00be
00000140: 42c4 fa3c f085 053e 66f0 e9bc 51db 493e
00000150: fe06 8a3e 1c71 43be 0578 d23c 25c3 0dbd
00000160: d4b0 13be 0d70 033e ff2a 893d 127f 283e
00000170: 8f24 1b3d a8e2 cabd 357c a63d bb62 ff3b
00000180: c11c 253e 4f55 ef3d ba99 d7bd ab9b dfbd
00000190: 7d83 c8bd 7981 afbd f893 2dbd e5a2 613e
000001a0: 8029 0e3e add9 28bd a8b1 dbbd bc2a 4e3e
000001b0: 0104 93be 17d4 0bbe 2782 0dbd 8005 0fbe
000001c0: 2482 d7be f253 acbe a393 83bd b854 19be
000001d0: 0d15 8ebd ba96 e23d 8fbd 803c a2e2 ab3d
000001e0: 6ec0 b03e 0948 fa3c a414 81bd c7c6 a43e
000001f0: bdc4 0cbe a91b 28be 2aef 9d3e 7b15 a5be
00000200: 3e65 16be 43ec 45be 5fcd e83c 31d1 90bd
00000210: 2c68 a1bd 6546 573e c598 53be 0c15 16be
00000220: a636 0bbe 95ea aa3d de53 643e ff96 8a3d
00000230: 3714 983d 70fb 073e 0041 853e 79c9 8e3d
00000240: cd36 923c 3be5 623d 7a8d 8cbd c5a4 723e
00000250: 89d9 3e3d 1815 7b3d 85cd 9b3d 6804 aebc
00000260: bc4f 043d e7cf 7a3e fd02 2dbe 08ca 463e
00000270: 38cd 17be 772b a2bd 6579 14bc e330 cf3d
00000280: f793 7b3e f600 84be f68a 62be 5b86 043b
00000290: f8ce afbe 4ddf e7bd 931b a0be 59c7 3ebe
000002a0: b9d1 90bd 774d 0cbe 567c 68bd 394c 05be
000002b0: dca5 56be aa37 a2bd 9617 bf3d 1a36 45be
000002c0: 8ce4 c8bd 8260 8bbe 3e71 4ebe 7da7 2bbe
000002d0: 8568 87bd 5df3 213d e964 503e 7359 9cbd
000002e0: fa21 703e 1d79 db3c 77fb 84bc 3ab3 e13d
000002f0: b6b6 9f3b 6794 b93e 4481 7dbd 7b2a 223e
00000300: 908c 883e 49bc 23be ff9a cf3c 55ee 59be
00000310: ac33 193e 3b72 4cbd cd0c 15be 9614 8f3c
00000320: 1db5 e8bc 26b3 d03d 1ad3 84be 4328 a23b
00000330: 39c9 363e 55ed d9bd 7471 ddbc ab8d 093e
00000340: d7c4 c7bd 7066 d93b f1c1 22be 1b10 113e
00000350: 68f8 773e f731 c03e 554f 903c 3248 793e
00000360: fba2 1cbe cf54 87be eaf7 00be ae85 49be
00000370: 2f90 debe 140c 01be de17 c83c 952a 6abd
00000380: 06a7 ac3c ade4 6e3e 30e5 9abe b3b4 653e
00000390: dcc7 2b3d 3b07 633c 02e8 fc3d a22a f93c
000003a0: 8cf6 3d3c 0e85 c3be a058 723c 2fc9 1a3e
000003b0: 0f52 9bbe e831 bbbd 9058 5cbe 1c6b 823e
000003c0: 8f17 a2bd b9cd 9bbd 8e4f 013e b0a8 cd3c
000003d0: 3b20 8e3e 76d5 9c3c 5a52 66bd 1d1d 8abd
000003e0: 36ac 043d 48cb 083e 18f9 75be 18a0 7fbc
000003f0: 11c5 b53c c52e a23d d44f 08be c106 9b3e
